models/361/state_dict.pt (torch_old, 25727 bytes, 10 tensors)

lstm.weight_ih_l0 f4 [80, 10]
0	0xbd29cc82	-0.0414548
1	0xbf5ed218	-0.8703933
2	0x3fd910d3	1.6958259
3	0x400f6226	2.2403655
4	0x4011b394	2.2765856
5	0x3f0f3237	0.55935997
6	0xbe215c1b	-0.15757792
7	0x400d6f8a	2.2099328
8	0x3eea0abc	0.45711315
9	0xbeb20b54	-0.34774268
10	0x3def8480	0.11695194
11	0x3f1a5237	0.602817
12	0x3fa52aa7	1.2903641
13	0x3f6b9cb2	0.92035973
14	0x3f612b0e	0.8795632
15	0xbf2d4f92	-0.6769954
16	0xbfa457a2	-1.2839243
17	0x3f5a4e2e	0.8527554
18	0xbef782a1	-0.4834185
19	0xbf8cb5ca	-1.0992978
20	0xbc6d56cd	-0.014486027
21	0x3f32ca24	0.6983969
22	0x3f80ba52	1.005686
23	0x3e93e2af	0.28883883
24	0x3fd66117	1.674838
25	0xbe9c16c2	-0.30486113
26	0xbfd40292	-1.6563284
27	0x3fe3055b	1.7736009
28	0x3db10cc9	0.08645017
29	0xbfe33815	-1.775149
30	0x3e393f33	0.18090515
31	0x3f8e551f	1.1119727
32	0xbf307a2c	-0.6893642
33	0xc06199df	-3.5250165
34	0xbfce83f3	-1.6134018
35	0xbf9aa673	-1.2082046
36	0x3e13084b	0.14358632
37	0xbfbbc39a	-1.4669068
38	0xbfabe525	-1.3429304
39	0x3e21f07d	0.15814395
40	0x3d8102c9	0.06299359
41	0x3f898206	1.0742805
42	0x3f018156	0.50587976
43	0xbf3e58fe	-0.7435454
44	0x3f6993b2	0.9124099
45	0xbf2106dc	-0.6290109
46	0xbf807102	-1.0034487
47	0x3f5c229e	0.8599032
48	0xbea0faef	-0.31441447
49	0xbf336c96	-0.70087564
50	0x3e191b3a	0.14951792
51	0xbed6e6b3	-0.41972885
52	0x40112dc0	2.2684174
53	0x3fb5ed50	1.4213047
54	0x40103677	2.2533243
55	0xbe37d824	-0.17953545
56	0xbf469ee0	-0.77586174
57	0x40103ae3	2.2535942
58	0x3e054350	0.13013959
59	0xbf7527d2	-0.95763886
60	0x3e84ead6	0.25960416
61	0xc074be8b	-3.8241298
62	0x3eb62158	0.35572314
63	0x3f988676	1.1916034
64	0x3eba2a68	0.36360478
65	0x4078b635	3.886121
66	0x3f25e536	0.64802873
67	0x3ea3f4b0	0.3202262
68	0x405d4e8f	3.4579198
69	0x3ecdf7cc	0.40228117
70	0x3ef4e47e	0.47830576
71	0xbfee95c1	-1.8639451
72	0x3e997c8e	0.2997784
73	0x3fbf7bb1	1.4959623
74	0x3efebe43	0.49754533
75	0x3fbb2bf0	1.4622784
76	0x3e8a8b03	0.27059183
77	0x3e582035	0.21106036
78	0x3f9e9a53	1.2390846
79	0x3eca6892	0.39532906
80	0x3e855afa	0.26045972
81	0x3c19438c	0.009354483
82	0x3f3969bf	0.7242698
83	0x3f26fef6	0.6523279
84	0xbe906dc7	-0.28208753
85	0xbea99a51	-0.33125547
86	0x3b34b5ca	0.0027574175
87	0xbde8d772	-0.11369218
88	0xbdf3669c	-0.118848056
89	0xbda86666	-0.08222656
90	0x3ced5044	0.028968938
91	0xbf49ce6a	-0.7883059
92	0x3f632eb5	0.88743144
93	0x3ffd8b45	1.9808127
94	0x3f2eb3a5	0.68242866
95	0x3f2e0bf8	0.6798701
96	0x3e1c6f97	0.15276943
97	0x3f00592b	0.5013606
98	0x3f08fb4c	0.5350845
99	0x3e3fc862	0.18728784
100	0x3e8cff13	0.27538356
101	0x3fd466c6	1.6593864
102	0x3fbe2525	1.4855086
103	0x3ef2f7c9	0.4745467
104	0x3f0682c2	0.5254327
105	0xbf919dd5	-1.1376292
106	0xbf9c0e0c	-1.2191787
107	0x3f2b049c	0.6680391
108	0xbf996e89	-1.1986858
109	0xbf91fe4c	-1.140573
110	0xbd01e56f	-0.031712946
111	0xbfb482e9	-1.4102451
112	0xbdd18680	-0.10230732
113	0x3e998ec2	0.29991728
114	0x3e914a6f	0.283771
115	0x40065918	2.0991879
116	0x3e627097	0.22113262
117	0x3e5e13bc	0.21687216
118	0x3fff5296	1.9947078
119	0x3ec3fb67	0.38277742
120	0xbe27e13d	-0.16394515
121	0xbf6609df	-0.8985881
122	0x3fb956eb	1.447965
123	0x4058e510	3.3889809
124	0x3f96502a	1.1743214
125	0x3ee78693	0.4521986
126	0xbe5cde2b	-0.21569125
127	0x3f909966	1.1296813
128	0x3f20d5d4	0.62826276
129	0xbe8d334a	-0.27578193
130	0x3ed93d7f	0.4242973
131	0x3f2f8ddf	0.68575853
132	0x3ecd2b83	0.4007226
133	0x3e73aea7	0.23797093
134	0xbda7dd4d	-0.08196507
135	0x3dc1454a	0.09437044
136	0xbe403518	-0.18770254
137	0x3e2b1129	0.16705765
138	0x3c52e76b	0.012872557
139	0xbe2b12aa	-0.16706339
140	0xbef7f4df	-0.4842901
141	0x3f50457e	0.81356037
142	0xbe8c5c8f	-0.27414367
143	0xbfb9bad5	-1.4510142
144	0xbf56bac1	-0.83878714
145	0xbfbc8adb	-1.4729875
146	0xbe736d20	-0.23772097
147	0xbf8b69ca	-1.0891659
148	0xbf963183	-1.173386
149	0x3e048619	0.12941779
150	0x3efd5d40	0.49485207
151	0x3f9459e9	1.1589938
152	0xbe8557d4	-0.2604357
153	0xbfbb0982	-1.4612277
154	0xbe6a6a88	-0.22892201
155	0xbf95fdda	-1.1718094
156	0xbf535d82	-0.82564557
157	0xbe658802	-0.22415164
158	0xbfab1881	-1.3366853
159	0xbf3f7a23	-0.7479574
160	0x3e2498f3	0.1607397
161	0xbf857a8e	-1.0428026
162	0xbf28feef	-0.66014
163	0x3e0f10d4	0.13971263
164	0xbea672de	-0.32509512
165	0x3f6d3353	0.9265644
166	0x3f5937c7	0.84850734
167	0xbe03dd95	-0.12877496
168	0x3f718a5d	0.9435175
169	0x3f65b022	0.8972188
170	0x3d925283	0.07144644
171	0x3f23cb09	0.6398168
172	0x3f7f4ba1	0.99724776
173	0x3ef9dd98	0.48801875
174	0xbd8c3925	-0.06846837
175	0x3dcca413	0.09992232
176	0xbcf4abb9	-0.02986704
177	0xbdfc13b3	-0.12308445
178	0xbe749d0c	-0.23888034
179	0x3ded8174	0.11596957
180	0x3b4e2908	0.0031457562
181	0xbefb9038	-0.49133468
182	0x3fc02862	1.5012324
183	0x3fdd5475	1.7291399
184	0x3fa725d4	1.3058419
185	0x3df25e9e	0.11834453
186	0xbee684e3	-0.4502326
187	0x3fb40c85	1.4066321
188	0x3f096283	0.5366594
189	0xbeb178c0	-0.34662437
190	0x3dbfd861	0.09367443
191	0x3e171552	0.14754227
192	0xbfaa16a7	-1.3288163
193	0xbff2213c	-1.8916392
194	0xbf9afdd9	-1.2108718
195	0xbf0ded5f	-0.55440325
196	0xbda76c21	-0.08174921
197	0xbf7e9746	-0.99449575
198	0xbf3ac735	-0.72960216
199	0xbbada682	-0.0052993903
200	0x3e24cb8a	0.16093269
201	0xbd38ad04	-0.045086876
202	0x3da74030	0.0816654
203	0x3e0c5d50	0.13707471
204	0x3e4d7a02	0.20066074
205	0xbe01f698	-0.12691724
206	0xbe4b9c56	-0.19883856
207	0xbe1cb2e4	-0.15302616
208	0xbe28e900	-0.16495132
209	0xbe507c20	-0.2035985
210	0x3e5bf3a2	0.21479657
211	0x3d9c8218	0.07642001
212	0xbe2043be	-0.15650842
213	0x3d2cf960	0.04223001
214	0x3e1a3282	0.1505833
215	0xbe6273a4	-0.22114426
216	0xbce7bf88	-0.028289571
217	0xbe16eb1a	-0.14738122
218	0x3e53d98c	0.20688456
219	0xbcbc00e8	-0.02294965
220	0x3d7efe30	0.06225413
221	0xbd385868	-0.045006186
222	0xbd282c30	-0.041057765
223	0x3d81fcf4	0.06347075
224	0x3e05b800	0.13058472
225	0xbe1e11b4	-0.1543644
226	0xbe4ef47e	-0.20210454
227	0x3ccd2128	0.025040224
228	0xbd81875e	-0.06324647
229	0xbd0bf688	-0.034170657
230	0xbdcfaf81	-0.101408966
231	0xbe4f266c	-0.202295
232	0x3e027d7e	0.12743184
233	0xbceaa820	-0.028644621
234	0x3e3d12f0	0.18464255
235	0x3c1ec130	0.009689614
236	0x3c2b1d70	0.01044403
237	0xbe56ee9e	-0.20989463
238	0x3d872118	0.06598109
239	0x3e3795a6	0.1792818
240	0xbe606d91	-0.21916796
241	0xbcb00200	-0.021485329
242	0xbe048a01	-0.1294327
243	0x3e0c4c36	0.13700947
244	0xbc475510	-0.012166277
245	0xbe35339f	-0.17695473
246	0x3c31d2a0	0.01085344
247	0xbe6229d8	-0.22086275
248	0xbb7f8080	-0.0038986504
249	0xbe1636ff	-0.14669417
250	0xbe5fa223	-0.21839194
251	0xbe30475c	-0.17214721
252	0xbc792e70	-0.0152088255
253	0x3e0244d4	0.12721568
254	0x3dd141a4	0.10217598
255	0x3e0fc962	0.14041665

lstm.weight_hh_l0 f4 [80, 20]
0	0x3da18a68	0.07887727
1	0xbd43a530	-0.047764957
2	0xbe27f80c	-0.16403216
3	0xbe1bf44c	-0.1522991
4	0x3e3acf1c	0.18243068
5	0xbda8a93a	-0.082354024
6	0x3d891a6c	0.06694493
7	0x3db5c750	0.088759065
8	0x3e24f348	0.1610843
9	0x3dbffc3c	0.09374282
10	0x3e33d636	0.17562184
11	0x3d94f7f4	0.07273856
12	0xbdf5439d	-0.11975787
13	0xbd4789c0	-0.048715353
14	0xbd22a8e0	-0.039711833
15	0x3e21b960	0.15793371
16	0x3d8f01fc	0.069828
17	0xbe3934a1	-0.18086483
18	0xbaa40d00	-0.0012516081
19	0xbe188a40	-0.14896488
20	0xbd695364	-0.056964293
21	0xbdefba36	-0.11705439
22	0xbd8f47f2	-0.06996144
23	0x3e5d0b2a	0.2158629
24	0x3decb5ec	0.11558136
25	0x3e23ab8c	0.15983409
26	0xbcb64ea8	-0.022254303
27	0x3cf79e40	0.030226827
28	0x3d72fb10	0.059321463
29	0xbdd53e5b	-0.10412284
30	0xbe0e2d14	-0.13884383
31	0xbe056066	-0.13025054
32	0x3e335d42	0.17516044
33	0xbdba0fac	-0.090850204
34	0x3e1b9bae	0.15196106
35	0xbe5dd86a	-0.21664587
36	0xbe2b6728	-0.1673857
37	0xbde9d02c	-0.11416659
38	0xbe62def2	-0.2215536
39	0xbd4c2f8c	-0.04985003
40	0x3e2ef30a	0.170849
41	0xbe033824	-0.12814385
42	0xbd8cc728	-0.068739235
43	0xbe49a511	-0.19691874
44	0xbe0c71e8	-0.13715327
45	0xbe15838d	-0.14600964
46	0xbe2bbddb	-0.16771643
47	0xbe2c8723	-0.16848426
48	0xbe4be93d	-0.19913192
49	0xbe21fc3c	-0.15818876
50	0xbd4793f0	-0.04872507
51	0xbd33182c	-0.043724224
52	0x3e1dd9f2	0.15415171
53	0xbd5e4ed0	-0.05427438
54	0xbe10b994	-0.14133292
55	0xbe54eae0	-0.20792723
56	0x3e430444	0.19044596
57	0xbd957852	-0.0729834
58	0xbe49e759	-0.19717158
59	0xbdf8abc4	-0.12142137
60	0x3db51db0	0.08843553
61	0xbe3668f4	-0.17813474
62	0x3e031c50	0.12803769
63	0xbd3bf87c	-0.04589127
64	0xbe11dde3	-0.142448
65	0xbe59e106	-0.21277246
66	0x3d977aec	0.07396492
67	0xbe1c1ee4	-0.15246159
68	0x3e325854	0.17416507
69	0x3d97ba14	0.074085385
70	0xbda04d98	-0.078273
71	0x3c9ac188	0.018891111
72	0x3d4201c0	0.04736495
73	0xbd9556fa	-0.0729198
74	0x3db97198	0.090548694
75	0xbe488f8f	-0.19586013
76	0xbe075652	-0.13216522
77	0xbe1fc61e	-0.1560292
78	0x3d874cbc	0.06606433
79	0x3c50d200	0.01274538
80	0xbd08b520	-0.03337586
81	0xbe26aebd	-0.16277595
82	0xbcdc8e10	-0.02692321
83	0x3df23914	0.11827293
84	0xbd46d5f8	-0.0485439
85	0xbdd098a5	-0.10185365
86	0xbe51f33e	-0.20502946
87	0x3ddd8048	0.10815483
88	0xbe5bc265	-0.21460874
89	0x3e3295c6	0.17439947
90	0x3d8c11fc	0.06839368
91	0xbc0404b0	-0.008057758
92	0xbdea84ce	-0.11451112
93	0xbd9cb5d4	-0.076518685
94	0x3e311f8c	0.1729719
95	0x3d9ee17c	0.077578515
96	0x3e041246	0.12897596
97	0x3d9ee168	0.077578366
98	0x3d7c3238	0.06157133
99	0x3de75cd8	0.112970054
100	0xbe1b7990	-0.15183091
101	0xbb5ef800	-0.0034022331
102	0xbd7065f4	-0.05869098
103	0xbe32c416	-0.17457613
104	0x3db77f38	0.08959812
105	0x3da02e54	0.078213364
106	0x3de90608	0.113781035
107	0xbda97a22	-0.08275248
108	0xbe4e4ced	-0.20146532
109	0xbd086418	-0.03329858
110	0xbc3e2be0	-0.01160714
111	0xbded55d6	-0.115886375
112	0x3cfb3290	0.030663759
113	0x3e3035f0	0.17208076
114	0xbddb4827	-0.10707121
115	0xbd9b1d12	-0.07573904
116	0xbde3abd3	-0.11116757
117	0xbda27704	-0.07932857
118	0x3dc55ba4	0.0963662
119	0x3c142b10	0.00904347
120	0x3d81c630	0.063366294
121	0x3d7a3610	0.061086714
122	0x3d693680	0.05693674
123	0x3dbfba24	0.093616754
124	0xbc25ea00	-0.010126591
125	0xbe2a585b	-0.16635267
126	0x3deba48c	0.11505994
127	0xbe58790c	-0.21139926
128	0xbe55c9f9	-0.20877828
129	0xbe168be7	-0.14701806
130	0xbcfe0670	-0.031008929
131	0xbc7cfb70	-0.015440807
132	0xbcd1b6e0	-0.025599897
133	0xbd92b588	-0.071635306
134	0xbe43ceef	-0.19121908
135	0x3e063864	0.13107449
136	0x3d545740	0.05184102
137	0xbd00c958	-0.031442016
138	0x3e314eda	0.17315236
139	0xbe20584e	-0.15658686
140	0xbc844690	-0.016146928
141	0x3d871e4c	0.065975755
142	0xbd6e99dc	-0.0582522
143	0xbd8b39a4	-0.067981035
144	0xbd38e5b4	-0.045140937
145	0xbe286282	-0.16443828
146	0xbdfdf9ac	-0.12401137
147	0x3da5f990	0.08104241
148	0xbe57677c	-0.2103557
149	0x3ce352d0	0.027749449
150	0xbc9b1380	-0.018930197
151	0xbe4d60b7	-0.20056425
152	0xbe51bfd5	-0.20483334
153	0xbce9eea8	-0.028556183
154	0xbd86e616	-0.06586854
155	0xbbdf7520	-0.0068193823
156	0x3e12dad2	0.14341286
157	0xbd9f3a06	-0.07774739
158	0x3e56e7bc	0.20986837
159	0xbe5b8faf	-0.2144153
160	0xbddd0972	-0.10792817
161	0xbe53275d	-0.20620485
162	0xbe63783f	-0.22213839
163	0xbe4cdc5e	-0.20005938
164	0x3e201cae	0.1563594
165	0x3ce080d0	0.027405173
166	0x3dc06f60	0.09396243
167	0x3d86c1e4	0.065799505
168	0xbd86d44c	-0.06583461
169	0x3e09b94a	0.13449588
170	0x3befb060	0.0073147267
171	0x3e64599c	0.22299808
172	0xbe05ff42	-0.13085654
173	0xbe3e77ee	-0.18600437
174	0x3c9140b0	0.01773104
175	0xbd1721ac	-0.036897346
176	0xbe118b20	-0.14213228
177	0x3dfd6e0c	0.123745054
178	0xbe0d75ba	-0.1381444
179	0xbde09ff8	-0.109680116
180	0x3b4594c0	0.0030148476
181	0xbe070294	-0.13184577
182	0xbd49a994	-0.049233988
183	0xbcd2e8c8	-0.025745764
184	0x3e379416	0.17927584
185	0xbd27826c	-0.040895864
186	0xbe2dc840	-0.1697092
187	0x3e632e3e	0.22185609
188	0x3d99da44	0.07512334
189	0xbe648215	-0.22315247
190	0xbde04087	-0.109498076
191	0x3e2642fa	0.16236487
192	0xbb98bcc0	-0.0046611726
193	0x3e2ed108	0.17071927
194	0x3d9d3d1c	0.07677671
195	0x3c8e3c50	0.017362744
196	0x3e4f1e60	0.20226431
197	0x3e44283a	0.1915597
198	0xbe222ce4	-0.15837437
199	0xbd4cb4cc	-0.04997711
200	0xbe3da7be	-0.1852102
201	0xbdec1377	-0.1152715
202	0x3e35a36c	0.17738122
203	0x3e2724a6	0.16322574
204	0x3e634b62	0.22196725
205	0xbdd060b3	-0.10174694
206	0xbb385900	-0.002812922
207	0xbd238184	-0.039918438
208	0x3df95884	0.12175086
209	0xbe644b05	-0.22294243
210	0x3e597424	0.2123571
211	0x3e593b56	0.21214041
212	0xbe09aefa	-0.13445655
213	0xbe589c1c	-0.21153301
214	0xbcc4c3d8	-0.024019167
215	0x3d3724f0	0.04471296
216	0x3de361c0	0.11102629
217	0x3d9ecad0	0.07753527
218	0x3e1de114	0.15417892
219	0x3d7521c8	0.05984667
220	0x3db652c4	0.08902505
221	0xbd00148c	-0.031269595
222	0x3d3f2270	0.0466637
223	0xbe4ed48f	-0.20198272
224	0x3dcafde4	0.09911707
225	0x3daa2428	0.083076775
226	0xbdcfd8b1	-0.101487525
227	0x3caca830	0.021076292
228	0x3e5fbba4	0.21848923
229	0x3e54efde	0.20794627
230	0xbc337dc0	-0.010955274
231	0x3e4a4554	0.19753009
232	0xbda9b94a	-0.08287294
233	0xbbd780c0	-0.0065766275
234	0xbdf755bb	-0.12076899
235	0xbd6c2874	-0.057655767
236	0xbdb433f4	-0.08798972
237	0x3daa13c8	0.08304554
238	0xbe5f869f	-0.21828698
239	0x3e58a5d6	0.21157011
240	0x3c3c60b0	0.0114976615
241	0xbdeebc72	-0.11657037
242	0x3e31f39c	0.17378086
243	0xbe445e38	-0.19176567
244	0x3e123b6c	0.1428048
245	0xbe4bb040	-0.19891453
246	0xbd474f5c	-0.048659667
247	0x3d9c0778	0.07618612
248	0xbe1fe802	-0.15615848
249	0x3d8cbf68	0.06872445
250	0xbd020c90	-0.03175026
251	0xbdc92b94	-0.09822765
252	0x3d99f6f8	0.07517809
253	0xbd07ee0c	-0.033186004
254	0xbd6939fc	-0.056940064
255	0x3d3ca490	0.046055377

lstm.bias_ih_l0 f4 [80]
0	0xbed0ca5d	-0.4077939
1	0xbe5085df	-0.20363568
2	0xbe23791c	-0.15964168
3	0x3e9b9856	0.3038966
4	0x3f0a4d75	0.5402444
5	0xbe57cd4d	-0.2107441
6	0x3f3e5e70	0.7436285
7	0x3fbbd336	1.4673831
8	0x3ff0f4c7	1.88247
9	0x3f155f61	0.5834866
10	0x3f19bc0d	0.6005257
11	0x3f951931	1.1648313
12	0x3eb136aa	0.34612018
13	0x3feb79c4	1.8396535
14	0xbf3b0b4c	-0.7306411
15	0xbebd94bb	-0.37027535
16	0x3f463669	0.77426773
17	0x400d7fea	2.2109323
18	0x3f3b6eeb	0.7321612
19	0x3fa2b940	1.2712784
20	0xbe2b1dba	-0.16710559
21	0xbc17eec0	-0.009273231
22	0x3dc3268c	0.095288366
23	0xbd5db190	-0.054124415
24	0x3e156634	0.14589769
25	0x3e1b143a	0.15144435
26	0xbd143410	-0.036182463
27	0xbe184c3e	-0.14872834
28	0xbe17bc1b	-0.1481785
29	0xbe384d4b	-0.17998235
30	0xbd0b9354	-0.03407605
31	0x3e14adce	0.14519426
32	0x3d51ef38	0.051253527
33	0xbbcab5c0	-0.006186217
34	0xbe5171df	-0.20453595
35	0xbe366635	-0.17812426
36	0x3d603300	0.054736137
37	0x3dc17520	0.09446168
38	0xbdb3473a	-0.0875382
39	0xbe5fbdcc	-0.21849746
40	0x3d23de19	0.04000673
41	0xbbd6a4ed	-0.0065504224
42	0x3f889478	1.0670309
43	0x3e574d18	0.21025503
44	0x3f1d6e1c	0.6149614
45	0x3efa7749	0.48919132
46	0xbf1a5e80	-0.60300446
47	0x3f29dfeb	0.66357297
48	0x3f368fa2	0.71312916
49	0x3f25623a	0.64603007
50	0x3e07796a	0.1322991
51	0xbcceef30	-0.025260538
52	0x3f05c6c9	0.5225645
53	0x3f800055	1.0000101
54	0xbf038134	-0.51369023
55	0x3f39d2db	0.72587365
56	0x3ec7102c	0.38879526
57	0xbedc705a	-0.43054467
58	0xbd6b3e48	-0.057432443
59	0xbf4500e4	-0.76954484
60	0x3edc8c31	0.43075708
61	0x3fb16bcd	1.3861023
62	0xbf8b1077	-1.08644
63	0xbec436cb	-0.38323054
64	0x3f454bb7	0.77068657
65	0xbe2c86de	-0.16848323
66	0x3f4bdf20	0.79637337
67	0x3f6f0020	0.93359566
68	0x3f7aa5bc	0.9790914
69	0x3be59d17	0.007007252
70	0x3fe56bb3	1.7923492
71	0x3f005951	0.50136286
72	0x3f37ee65	0.71848136
73	0x3f4a2c6f	0.7897405
74	0x3e1b08cf	0.15140079
75	0x3d00e5b5	0.031469066
76	0x3edf5150	0.43616724
77	0x3ef604bf	0.48050496
78	0xbe0c3234	-0.13691026
79	0xbe640d56	-0.22270712

lstm.bias_hh_l0 f4 [80]
0	0xbd3e560b	-0.046468776
1	0xbdf79b3d	-0.12090156
2	0xbc97574b	-0.018474242
3	0x3bd83d6a	0.006599118
4	0x3f53771b	0.82603616
5	0xbe8bf4fb	-0.27335343
6	0x3f4323ed	0.76226693
7	0x3fb4a95a	1.4114182
8	0x4000a4e3	2.010064
9	0x3ecce903	0.40021524
10	0x3ef7097a	0.48249418
11	0x3fb2c1cf	1.3965396
12	0x3f23ab99	0.6393371
13	0x3ff1ed50	1.8900547
14	0xbf28edaa	-0.65987647
15	0xbda987e6	-0.08277874
16	0x3f3e92d9	0.7444282
17	0x3febd620	1.8424721
18	0x3f82c73c	1.0217052
19	0x3f90fe1e	1.132755
20	0x3d86cbf4	0.0658187
21	0xbe06d200	-0.13166046
22	0x3df55cfc	0.11980626
23	0x3d6c9440	0.05775857
24	0xbd6431f8	-0.055711716
25	0x3e2f2d70	0.17107177
26	0x3cba55c0	0.022745967
27	0xbd7ae6f0	-0.061255395
28	0x3d680bc8	0.05665186
29	0x3e557420	0.2084508
30	0x3e435770	0.19076324
31	0xbe2ba889	-0.1676351
32	0xbdeadb73	-0.11467638
33	0xbdc17658	-0.094464004
34	0x3d75c018	0.059997648
35	0xbde1bb67	-0.11022072
36	0xbd707aac	-0.05871074
37	0x3c4607b0	0.012086794
38	0x3cdfd5b0	0.027323574
39	0x3e630e86	0.22173509
40	0x3e17a6ca	0.14809719
41	0x3e3592e9	0.17731823
42	0x3f9920e0	1.1963158
43	0x3dc37d8e	0.09545432
44	0x3ec91dcd	0.3928055
45	0x3f42f80f	0.7615976
46	0xbec1493a	-0.3775118
47	0x3f33c5b3	0.7022354
48	0x3ec6f81f	0.38861176
49	0x3ee1432b	0.43996558
50	0x3c846230	0.0161601
51	0xbe074486	-0.13209733
52	0x3f0ba60a	0.5455023
53	0x3f9e0dd6	1.2347972
54	0xbe799401	-0.24372865
55	0x3eddce01	0.4332123
56	0x3e9a21ce	0.30103916
57	0xbf32e5af	-0.6988172
58	0x3e41a327	0.18909894
59	0xbf3f1508	-0.74641466
60	0x3eff450a	0.4985736
61	0x3fb5c435	1.4200503
62	0xbfa25ac5	-1.2683951
63	0xbec70d6b	-0.38877425
64	0x3f4d797b	0.8026349
65	0xbdba8c39	-0.091087766
66	0x3f523b1e	0.82121456
67	0x3f83db68	1.0301332
68	0x3f89c00b	1.0761732
69	0xbe61987f	-0.22030829
70	0x3ff3b287	1.9038857
71	0x3e7fb101	0.24969865
72	0x3f182117	0.5942549
73	0x3f29c1cd	0.6631134
74	0xbe1b449e	-0.15162894
75	0xbea0bb9a	-0.3139313
76	0x3e931663	0.28728017
77	0x3f2de386	0.679253
78	0xbe92f6d9	-0.28703955
79	0xbe89f344	-0.2694341

lstm.weight_ih_l1 f4 [80, 20]
0	0x3e7c8af9	0.24662389
1	0xbdae19ce	-0.085010156
2	0x3e14b9be	0.1452398
3	0x3d58a0b6	0.05288764
4	0x3dbab50a	0.09116562
5	0x3db77a46	0.08958869
6	0x3e5df760	0.21676397
7	0xbe3da088	-0.18518269
8	0x3e1a3f35	0.15063174
9	0xbdb92e46	-0.09042029
10	0x3cd07b15	0.025449315
11	0xbe38ef65	-0.18060072
12	0xbe28689d	-0.16446157
13	0x3dd2781e	0.10276817
14	0x3dfac45c	0.12244484
15	0xbdcd7c66	-0.10033493
16	0x3e3f65f2	0.18691233
17	0xbe07daf6	-0.1326712
18	0x3e132b3b	0.1437196
19	0x3dfbd258	0.12295979
20	0x400aee8d	2.17081
21	0x3fa903f4	1.3204331
22	0x3d9dff00	0.07714653
23	0xc003b086	-2.0576491
24	0xbcb35913	-0.02189306
25	0xbec380fa	-0.3818434
26	0x3cf75fbf	0.030197022
27	0x3f06d07f	0.5266189
28	0xc07c6f60	-3.9442978
29	0x400fb1d9	2.24523
30	0x3feac884	1.8342443
31	0x3eae30d1	0.3402162
32	0xc03ad11c	-2.919013
33	0xbf819d0c	-1.0126052
34	0xbeff0681	-0.4980965
35	0xbf68d37c	-0.909477
36	0xbeb526ce	-0.35381168
37	0x3fdb6b2c	1.7142081
38	0xc02a1adc	-2.6578894
39	0x3f3c8766	0.736441
40	0xbf413cdd	-0.75483495
41	0x3f45478e	0.7706231
42	0x3f856ff9	1.0424796
43	0xbf2c47ff	-0.6729736
44	0xbf3a75b0	-0.72835827
45	0x3e05b1f7	0.1305617
46	0xbe82eaef	-0.25569865
47	0x3ec9d1d3	0.39417896
48	0xbf029a57	-0.51016754
49	0xbf82be28	-1.0214281
50	0x3fc8ab9f	1.5677375
51	0xbfd7fa3c	-1.687324
52	0x3eb21d38	0.34787917
53	0xbea5ed0d	-0.32407418
54	0xbedf26f7	-0.43584415
55	0xbf13dd0a	-0.57759154
56	0xbf1522f4	-0.5825646
57	0x3fc08721	1.5041238
58	0x3e26178e	0.16219923
59	0x3d9a2ca0	0.07528043
60	0xbfa3b5eb	-1.2789892
61	0xbed2c0d8	-0.41162753
62	0x3f16e6fa	0.5894619
63	0xbea098cc	-0.31366575
64	0xbe8d81e1	-0.27638152
65	0x3f32bf29	0.6982294
66	0x3ebd6ab7	0.3699548
67	0xbfa07752	-1.2536414
68	0x3f1efe47	0.62106746
69	0xbed1613b	-0.40894493
70	0x3def5a46	0.1168714
71	0x3d8c817f	0.06860637
72	0x3f493af9	0.7860561
73	0x3e1608c6	0.14651784
74	0xbdd0c87e	-0.10194491
75	0xbf23eb19	-0.64030606
76	0xbf471eb6	-0.77781236
77	0xbcd7a0ad	-0.026321733
78	0x3e9db5d7	0.30802795
79	0x3eb92019	0.361573
80	0xbf271ad7	-0.6527533
81	0xc0421044	-3.0322428
82	0x3f2868bb	0.65784806
83	0x3f99dcad	1.202047
84	0xbf041abf	-0.5160331
85	0x3f607790	0.8768244
86	0x400be6a2	2.1859517
87	0xc01efa06	-2.4840102
88	0x403e1ef1	2.9706385
89	0xc0153c97	-2.331823
90	0xbf1933ad	-0.59844476
91	0xc00cd1ad	-2.2002976
92	0x3fb1aed6	1.3881481
93	0x3eff3311	0.49843648
94	0x3e982eac	0.29723108
95	0xbe777f75	-0.24169715
96	0xbfad3af0	-1.3533611
97	0xbf8820b0	-1.0634975
98	0x3f1353c0	0.5754967
99	0xbf014d3d	-0.5050848
100	0xbf8e7960	-1.1130791
101	0xbf851b77	-1.0399007
102	0xbfdbbb68	-1.7166567
103	0xbd82d54e	-0.06388341
104	0x3fb12197	1.3838376
105	0xbf98bec3	-1.1933216
106	0x3e93cb4a	0.28866035
107	0x3e8e3e8d	0.27782097
108	0x3f9008b2	1.1252654
109	0x3f3d0e36	0.7384981
110	0xbfcf46af	-1.6193446
111	0x3ea616ca	0.32439262
112	0x3ea852c7	0.32875654
113	0x3f492eb1	0.7858687
114	0xbefb8a43	-0.49128923
115	0x3ecb3939	0.39692095
116	0x3e674a82	0.22587016
117	0xc0347157	-2.8194177
118	0x3fa8e045	1.3193442
119	0xc0043b13	-2.0661056
120	0xbf69d9b6	-0.91347826
121	0xbfaac6b3	-1.3341888
122	0x3f9a976d	1.2077461
123	0x3f5dc210	0.8662424
124	0x3eb4d13b	0.3531588
125	0x3f9181cf	1.136774
126	0x4004e3ce	2.076404
127	0xbffe9630	-1.9889584
128	0x3fd36d5d	1.651775
129	0xbfdd3b90	-1.7283802
130	0xbefde040	-0.49585152
131	0xbfdaa565	-1.7081724
132	0x3fcd13e2	1.6021693
133	0x3f10074b	0.5626113
134	0xbec75eb8	-0.38939452
135	0x3f190d8b	0.5978629
136	0xbe94add3	-0.29038867
137	0xbf0417c0	-0.5159874
138	0x3f3efd7f	0.74605554
139	0xbee81c0c	-0.45333898
140	0x400ea945	2.2290814
141	0x3f0c8a28	0.5489831
142	0xbfe93f7d	-1.82225
143	0xbdae1a79	-0.08501143
144	0xbe9af7f5	-0.302673
145	0xc0181be6	-2.3767028
146	0x3dece084	0.115662605
147	0x403349cd	2.8013794
148	0xbf7b3963	-0.9813444
149	0xbf71e9dc	-0.94497466
150	0x3f027a2e	0.5096768
151	0x3fee2d16	1.8607509
152	0xbfeb732c	-1.8394523
153	0xbf283030	-0.6569853
154	0xbe32234c	-0.17396277
155	0xbe6efbc1	-0.23338224
156	0x3eafd15b	0.34339413
157	0x3ebdf1b5	0.3709847
158	0xbf98ad7d	-1.1927944
159	0x3dd31854	0.103073746
160	0xbd3b59f9	-0.0457401
161	0xbe241d8a	-0.16026893
162	0xbcff802b	-0.031189045
163	0x3e24fd09	0.1611215
164	0x3d0c9ace	0.03432732
165	0xbe334ad7	-0.17509018
166	0xbdd25a49	-0.10271127
167	0xbde5efed	-0.11227403
168	0xbe1a92c6	-0.15095052
169	0x3e3e1d17	0.18565784
170	0x3e55f297	0.20893322
171	0x3dd4e2dc	0.103948325
172	0xbe2adeca	-0.1668655
173	0xbe2835ec	-0.1642682
174	0x3e3f769a	0.18697587
175	0x3d8dd65d	0.06925652
176	0x3daf7118	0.08566493
177	0x3e0f4570	0.13991332
178	0x3df934ee	0.12168299
179	0x3e3cb415	0.18428071
180	0xbfb4b4dc	-1.4117694
181	0xbf530617	-0.8243117
182	0x3fa55239	1.2915717
183	0x3f26514e	0.6496781
184	0xbf8d0a22	-1.1018717
185	0x3fa79f61	1.3095514
186	0xbe9c884e	-0.30572742
187	0xbffdd155	-1.9829508
188	0x404375f2	3.0540738
189	0x3d9b870a	0.07594116
190	0x3f6a81c6	0.9160427
191	0xbed0e887	-0.40802404
192	0x3fbc9f3a	1.4736092
193	0xbf5897a1	-0.8460637
194	0x3e6f5f3d	0.23376174
195	0xbf541e1f	-0.8285846
196	0xbe2c6b6d	-0.16837855
197	0x3e4e5682	0.20150188
198	0x3f727327	0.9470696
199	0x3f8178cb	1.0114988
200	0xbe96bbd8	-0.29440188
201	0xbff82f73	-1.938948
202	0x3ed5eca9	0.4178212
203	0x3fd8f361	1.6949273
204	0x3e3c6932	0.18399504
205	0x3f873536	1.0563114
206	0x401f5a05	2.4898694
207	0xbfa52f9e	-1.2905157
208	0x4008735e	2.1320415
209	0xbe047573	-0.12935428
210	0xbf560628	-0.83603144
211	0xbfff4002	-1.9941409
212	0x3f956893	1.1672539
213	0x3f95d96b	1.1706976
214	0x3eec593c	0.4616183
215	0xbbae5abe	-0.005320876
216	0xbef8ecd1	-0.48618177
217	0xbfcb2081	-1.5869294
218	0x3f18ce30	0.5968962
219	0x3f467e09	0.77536064
220	0x3d321891	0.04348046
221	0xbe2cc57d	-0.16872211
222	0x3f888f69	1.0668765
223	0x3d7018be	0.058617346
224	0x3cf8ba07	0.030362142
225	0x3efc6aa0	0.49300098
226	0x3e1ff430	0.15620494
227	0x3f1289b2	0.57241356
228	0x3eb46710	0.3523488
229	0xbf59102a	-0.8479029
230	0x3fcc4ac2	1.5960314
231	0xbf27216b	-0.65285367
232	0x3e7dee12	0.24797848
233	0xbe92bec3	-0.28661165
234	0xbd2dec78	-0.042461842
235	0x3e0bfbf5	0.13670333
236	0xbee34b22	-0.4439326
237	0x3f463f29	0.77440125
238	0x3ea54b20	0.32283878
239	0xbf2a3cf9	-0.66499287
240	0x3a251f5c	0.00062989234
241	0x3e45b00a	0.19305435
242	0xbe04cea1	-0.12969448
243	0xbc50083d	-0.012697277
244	0xbe0f36a3	-0.13985686
245	0xbe3f8f54	-0.18707019
246	0xbda19c9b	-0.07891198
247	0x3e1de86b	0.15420692
248	0xbe428354	-0.1899541
249	0x3c5ad6c6	0.01335687
250	0x3d3f9b08	0.04677871
251	0xbdcd2b50	-0.10018027
252	0xbdee95dd	-0.11649678
253	0x3e41da36	0.18930897
254	0xbe44e578	-0.1922816
255	0x3e3e7d36	0.18602452

lstm.weight_hh_l1 f4 [80, 20]
0	0x3de68bd4	0.11257139
1	0x3e3e868e	0.18606016
2	0x3df613f4	0.120155245
3	0x3e51f178	0.2050227
4	0xbd272134	-0.04080315
5	0x3d7b5b90	0.061366618
6	0x3da42874	0.08015528
7	0x3de5a8fc	0.11213872
8	0xbe0d743c	-0.13813871
9	0xbd73f3bc	-0.059558615
10	0x3d6ca458	0.057773918
11	0xbdddfbb6	-0.10839026
12	0x3e5eb7fe	0.21749875
13	0x3e12d0be	0.14337441
14	0x3e3dec8a	0.18547264
15	0x3ce217d0	0.027599245
16	0xbe0f62f5	-0.14002593
17	0x3d4a08e8	0.0493249
18	0xbe286fc3	-0.16448884
19	0x3e2d33f2	0.16914347
20	0xbe0ffb4e	-0.14060709
21	0x3e564efe	0.2092857
22	0x3c412e90	0.0117908865
23	0x3e53adf8	0.20671833
24	0xbe59fac4	-0.21287066
25	0x3e4d7aca	0.20066372
26	0xbcc48a70	-0.023991793
27	0xbe0e708f	-0.13910125
28	0x3e009816	0.12558016
29	0xbe6034a6	-0.21895084
30	0x3cb8f798	0.022579
31	0x3e2be5d6	0.16786894
32	0x3c0aa130	0.008461282
33	0xbdefc4c0	-0.11707449
34	0x3e578026	0.21044978
35	0x3e5997c0	0.21249294
36	0x3de4e334	0.11176148
37	0xbe478921	-0.19485904
38	0xbe457138	-0.19281471
39	0x3e5af5b2	0.21382788
40	0x3c45ef90	0.012081042
41	0x3df7d7c0	0.12101698
42	0xbdeed894	-0.11662403
43	0xbc5f7c90	-0.013640538
44	0x3e0dbafe	0.13840863
45	0x3d2714c0	0.040791273
46	0xbd9244ca	-0.07142027
47	0xbe345b46	-0.17612943
48	0xbe17ca47	-0.14823256
49	0x3e16fda4	0.14745194
50	0xbdccb94f	-0.09996282
51	0xbda5011a	-0.08056851
52	0xbe174478	-0.14772213
53	0x3e3cc6e0	0.1843524
54	0x3e18138a	0.14851204
55	0xbe4acd4c	-0.19804877
56	0xbe26cb67	-0.1628853
57	0x3e59c0a2	0.2126489
58	0x3e4abb68	0.19798052
59	0xbd95a044	-0.07305959
60	0x3da791b4	0.081820875
61	0x3defb6c8	0.11704785
62	0xbe4a6660	-0.19765615
63	0xbd217c10	-0.039424956
64	0xbe0ff04c	-0.1405651
65	0x3d471ef8	0.04861352
66	0xbe5f5992	-0.21811512
67	0x3dda3fa4	0.1065667
68	0xbb243cc0	-0.0025060624
69	0xbe369046	-0.17828473
70	0x3dbca264	0.09210661
71	0xbdb19534	-0.08671036
72	0xbe44b0fd	-0.1920814
73	0xbe5d37ea	-0.21603361
74	0x3d72c228	0.059267193
75	0xbc8f8600	-0.01751995
76	0xbd5af554	-0.05345662
77	0x3d475688	0.048666507
78	0x3d349630	0.044088542
79	0x3e5b5d7c	0.2142238
80	0xbe21a1df	-0.15784405
81	0x3df80cdc	0.12111828
82	0x3e5ecda8	0.21758139
83	0xbdf809fc	-0.12111279
84	0x3d1912a8	0.037371308
85	0x3e0b92aa	0.13630167
86	0xbe2c2656	-0.16811499
87	0x3e5cd4f6	0.21565613
88	0xbe0166a8	-0.12636817
89	0x3e180a0a	0.1484758
90	0x3e018dd6	0.12651762
91	0x3e4b514e	0.19855234
92	0x3dde4820	0.108536005
93	0x3da6df3c	0.08148047
94	0xbdc394a0	-0.09549832
95	0x3d833a28	0.06407577
96	0x3e5499ec	0.20761842
97	0xbcf68130	-0.030090898
98	0xbe17c83c	-0.14822477
99	0xbdbaf86e	-0.091294155
100	0xbdf16a0a	-0.117878035
101	0xbe2aaf40	-0.16668415
102	0xbe4a242d	-0.19740362
103	0xbd6aedec	-0.057355806
104	0x3e22bf96	0.15893397
105	0xbdd7193e	-0.105028614
106	0xbe0a2cae	-0.13493606
107	0x3e4518c4	0.19247729
108	0x3d8a68c8	0.06758267
109	0xbe583a8a	-0.21116081
110	0x3e5a2aee	0.21305439
111	0xbdb4fecc	-0.08837661
112	0x3e340afe	0.17582318
113	0x3c9084e0	0.017641485
114	0x3d323028	0.043502957
115	0xbe5d4328	-0.2160765
116	0xbdbb6a72	-0.09151162
117	0xbd91631a	-0.0709898
118	0xbd118590	-0.035527766
119	0xbe5b60d8	-0.21423662
120	0xbcff2c60	-0.03114909
121	0xbd4246e8	-0.047430903
122	0x3e4b79f4	0.1987074
123	0x3e2b52a0	0.16730738
124	0x3e26ef8e	0.1630232
125	0xbdd64210	-0.10461819
126	0x3ca46190	0.020066053
127	0xbd3eab8c	-0.04655032
128	0x3d839b3c	0.06426093
129	0xbd4d9470	-0.05019039
130	0x3e1952da	0.14973012
131	0xbcc41220	-0.023934424
132	0xbda9aa3c	-0.08284423
133	0x3e06b70c	0.13155764
134	0xbc626a90	-0.013819352
135	0xbe17150f	-0.14754127
136	0x3dff5ef0	0.1246928
137	0x3e02abfe	0.12760922
138	0xbd0d7020	-0.03453076
139	0xbe48cfa6	-0.19610462
140	0xbdb39902	-0.08769418
141	0x3e341ab0	0.17588305
142	0xbe4e1f79	-0.20129193
143	0xbe0e4772	-0.13894442
144	0x3dd0ab50	0.10188925
145	0x3e577ef4	0.21044523
146	0xbd33346c	-0.043751165
147	0x3c27cba0	0.010241419
148	0x3e2699d0	0.16269612
149	0x3dec10e0	0.11526656
150	0x3d134600	0.03595543
151	0xbe3bb32c	-0.18330067
152	0xbd146794	-0.036231592
153	0xbcc74c88	-0.024328485
154	0x3aec3a00	0.0018022656
155	0x3d0915a0	0.03346789
156	0xbe0128b6	-0.12613186
157	0xbdb559d0	-0.08855021
158	0xbe42c298	-0.19019544
159	0xbac62780	-0.0015117973
160	0xbddac687	-0.10682397
161	0x3ca530d8	0.020164892
162	0x3d01ae48	0.03166035
163	0xbe204d3c	-0.15654463
164	0x3ddeff90	0.108885884
165	0x3e309152	0.17242935
166	0xbe483e5e	-0.19555041
167	0x3c59aed0	0.013286307
168	0x3c62a850	0.013834074
169	0xbc881240	-0.016610265
170	0xbe58305e	-0.211122
171	0xbe35a388	-0.17738163
172	0xbe122cd2	-0.1427491
173	0x3e43d498	0.19124067
174	0x3cc62f28	0.024192408
175	0xbe05f213	-0.13080625
176	0xbe5fd57c	-0.21858782
177	0x3dfb7160	0.12277484
178	0x3c2fca20	0.010729343
179	0x3dc445ec	0.09583649
180	0x3c7fd670	0.015615091
181	0xbb885700	-0.004160762
182	0x3d15c328	0.03656307
183	0x3cadb8c0	0.02120626
184	0xbd53e054	-0.051727608
185	0xbe633f21	-0.2219205
186	0x3e015b7e	0.12632558
187	0xbe05d302	-0.13068774
188	0xbd91c180	-0.07116985
189	0xbddbd1e1	-0.107333906
190	0xbdfa899d	-0.12233279
191	0x3e4dafba	0.20086566
192	0xbd833210	-0.06406033
193	0xbdedc25f	-0.11609339
194	0x3e1a200e	0.1505129
195	0x3d56b208	0.052415878
196	0xbe05ec46	-0.13078412
197	0xbdab6ea6	-0.08370714
198	0x3cad2668	0.021136478
199	0x3e4fa6c6	0.20278463
200	0x3d3e2c10	0.04642874
201	0x3d9280f0	0.07153499
202	0xbe4871d7	-0.19574676
203	0xbdf13a5e	-0.11778711
204	0x3d853bf8	0.06505579
205	0x3e263132	0.16229704
206	0xbe304a9f	-0.17215966
207	0x3e0dba04	0.1384049
208	0x3d1c2440	0.03812051
209	0xbe04aeb8	-0.12957275
210	0x3c981750	0.018565804
211	0x3e2df538	0.16988075
212	0xbd3b19d4	-0.04567893
213	0xbd47ae0c	-0.04874997
214	0x3cfc9ab0	0.03083548
215	0xbe115be7	-0.14195214
216	0xbcd0af40	-0.02547419
217	0xbe320385	-0.17384155
218	0xbc87db68	-0.016584113
219	0xbd5991dc	-0.053117618
220	0xbe4e8c1c	-0.20170635
221	0xbe638eb1	-0.22222401
222	0xbe09645a	-0.13417187
223	0xbbdfc2e0	-0.006828651
224	0x3d4b55b8	0.049642295
225	0x3e023ec6	0.12719259
226	0xbd745cf0	-0.059658945
227	0x3e0ecd62	0.13945535
228	0x3d8ea304	0.069646865
229	0x3cf410c0	0.029793143
230	0xbd92021a	-0.07129307
231	0x3d739900	0.059472084
232	0x3e07cee6	0.13262519
233	0x3d5fadc8	0.05460909
234	0x3dc6632c	0.09686884
235	0xbd386850	-0.045021355
236	0x3e0ca536	0.13734898
237	0xbdfcb873	-0.123398684
238	0xbe43fca4	-0.19139344
239	0x3dde109c	0.10843012
240	0xbe59248f	-0.21205352
241	0x3db1b374	0.08676806
242	0xbe1447d5	-0.14480527
243	0x3d91afe0	0.071136236
244	0x3e2a230a	0.16614929
245	0x3b924440	0.0044637024
246	0xbdf5e568	-0.120066464
247	0xbe593f7a	-0.2121562
248	0xbe506b46	-0.20353422
249	0xbe0d6f60	-0.13812017
250	0x3d8863a8	0.06659633
251	0x3d96f828	0.07371551
252	0x3e4f7a6a	0.20261541
253	0x3e08a398	0.13343656
254	0x3e36c88e	0.17849943
255	0x3d390180	0.045167446

lstm.bias_ih_l1 f4 [80]
0	0x3d1c0139	0.038087104
1	0xbe9067da	-0.28204232
2	0x3ecfd078	0.40588737
3	0xbe200a81	-0.15629007
4	0x3ed8c3d6	0.4233691
5	0x3f02a9a1	0.51040083
6	0x3f110410	0.56646824
7	0x3f07f3b7	0.53106254
8	0xbe47eb0f	-0.19523261
9	0x3d9fe47e	0.07807253
10	0x3e04526c	0.12922066
11	0x3f2ef932	0.6834899
12	0xbe9f0625	-0.31059375
13	0xbcd620bf	-0.026138661
14	0x3eadd382	0.3395043
15	0xbc2e0b4e	-0.010622812
16	0xbf45fe3e	-0.7734107
17	0xbc865ca9	-0.016401606
18	0x3f041b77	0.5160441
19	0x3edf2f88	0.4359095
20	0xbe1d5bee	-0.153671
21	0xbc516830	-0.012781188
22	0xbe352050	-0.17688107
23	0x3e030fde	0.12799022
24	0xbe3f7a3e	-0.18698975
25	0x3e10bec4	0.14135271
26	0xbe64bb89	-0.22337164
27	0x3d476430	0.04867953
28	0x3e101d0c	0.1407358
29	0xbe38f104	-0.1806069
30	0xbdda9897	-0.106736355
31	0xbe03014e	-0.12793466
32	0x3e1fb824	0.15597588
33	0x3b124b80	0.0022322834
34	0x3dbd5adc	0.09245846
35	0x3c3d20f0	0.011543497
36	0xbc899638	-0.016795263
37	0xbd058ea8	-0.03260675
38	0xbda26708	-0.07929808
39	0xbd7f2e38	-0.062299937
40	0xbe801434	-0.25015414
41	0x3ef0f6dd	0.47063342
42	0x3ee64ee0	0.44982052
43	0xbf58f13b	-0.8474309
44	0x3f401e3a	0.7504612
45	0x3f4c3015	0.7976087
46	0x3e86bfdf	0.2631826
47	0x3f74e291	0.9565821
48	0xbe3bd039	-0.1834115
49	0xbe20866c	-0.15676278
50	0x3ec1ac5d	0.37826815
51	0xbeb41c0f	-0.35177657
52	0xbead929f	-0.33900926
53	0xbe9921e2	-0.29908663
54	0x3f6edad5	0.9330266
55	0xbeb1a493	-0.34695873
56	0xbf11d1ba	-0.5696064
57	0xbeae5a15	-0.34053102
58	0x3f5d7922	0.8651296
59	0x3eb404b9	0.35159853
60	0x3e39e0d0	0.18152165
61	0xbe9c81ce	-0.30567783
62	0xbeda4cd7	-0.4263675
63	0x3dc8de41	0.098080166
64	0x3e8e0e7d	0.2774543
65	0xbefc8537	-0.49320385
66	0xbe6c2f0a	-0.23064819
67	0x3ea4df68	0.32201695
68	0xbd95b4aa	-0.073098496
69	0x3deede5d	0.11663506
70	0xbe3c1224	-0.18366295
71	0xbf057183	-0.5212633
72	0xbdf90863	-0.12159803
73	0x3e43547d	0.19075198
74	0xbd4a33a1	-0.049365643
75	0xbf17f064	-0.5935118
76	0xbe7e3646	-0.24825391
77	0xbea746f2	-0.32671314
78	0x3e2bc6fa	0.16775122
79	0xbef8843a	-0.4853838

lstm.bias_hh_l1 f4 [80]
0	0x3de0347a	0.10947509
1	0xbe31d930	-0.17368007
2	0x3f4251f6	0.7590631
3	0xbd91f06c	-0.07125935
4	0x3e4caf6a	0.1998879
5	0x3de79d1a	0.113092616
6	0x3f222995	0.633447
7	0x3f03ac6e	0.5143498
8	0xbd802f81	-0.06259061
9	0x3e2a5360	0.16633368
10	0x3e9d80c6	0.3076231
11	0x3f11b3a4	0.56914735
12	0xbe334dd1	-0.17510153
13	0x3d0bad37	0.034100737
14	0x3df4d941	0.119555004
15	0x3d1aef5f	0.03782594
16	0xbf4dd0c0	-0.8039665
17	0xbe8afae3	-0.27144536
18	0x3eec8bb1	0.46200326
19	0x3f33401d	0.70019704
20	0x3da0909c	0.07840082
21	0xbe10e4d0	-0.14149785
22	0xbd157c84	-0.0364957
23	0x3c913f78	0.01773046
24	0x3e438d20	0.19096804
25	0xbc864b80	-0.016393423
26	0xbde572ef	-0.112035625
27	0xbe1fe376	-0.15614113
28	0xbe421e94	-0.18956977
29	0x3db96d5c	0.09054062
30	0x3e1bf7e4	0.15231282
31	0x3e4df5a6	0.20113239
32	0x3db73108	0.08944899
33	0xbdf7d809	-0.12101752
34	0x3e1c00bc	0.15234655
35	0xbde5ccc1	-0.11220694
36	0xbdeefb24	-0.11668995
37	0xbcac6270	-0.021043032
38	0x3d214d58	0.0393804
39	0x3e3e35c2	0.18575194
40	0xbed18fcf	-0.4093003
41	0x3e96c65d	0.29448214
42	0x3f280c66	0.6564392
43	0xbf8c7a6e	-1.0974863
44	0x3f129190	0.5725336
45	0x3f57b21b	0.8425614
46	0x3d28699a	0.041116334
47	0x3f1b5058	0.6066947
48	0xbea83cac	-0.3285879
49	0xbe596a83	-0.21232037
50	0x3f359226	0.7092613
51	0xbeed3f98	-0.4633758
52	0xbec5c19e	-0.3862428
53	0xbe84a213	-0.25904903
54	0x3f38d0fb	0.7219388
55	0xbf418246	-0.75589406
56	0xbf1d2320	-0.6138172
57	0xbebd49e1	-0.36970428
58	0x3f7c6327	0.98588794
59	0x3f12b76e	0.5731114
60	0xbe1f5b77	-0.15562235
61	0xbec7a512	-0.38993126
62	0xbe90afe1	-0.28259185
63	0x3cfee643	0.031115657
64	0x3e6f1513	0.23347883
65	0xbebf8c6d	-0.37411824
66	0xbee3a98a	-0.44465286
67	0x3e99a498	0.30008388
68	0x3d1d9c38	0.03847906
69	0x3d4646b3	0.048407268
70	0xbec0427c	-0.37550724
71	0xbf118f66	-0.56859434
72	0xbe53d50f	-0.20686744
73	0xbcad5324	-0.021157809
74	0xbe8db1f6	-0.27674836
75	0xbf0c9180	-0.54909515
76	0x3d20e067	0.039276507
77	0xbebb019c	-0.36524665
78	0x3d8e7480	0.06955814
79	0xbf1ebb18	-0.6200423

linear.weight f4 [6, 20]
0	0x3dbd0b84	0.09230712
1	0xc084074a	-4.12589
2	0xbe40701f	-0.18792771
3	0x3c9c9825	0.019115517
4	0x3f667530	0.90022564
5	0xc02de571	-2.717129
6	0x3f69415a	0.91115344
7	0x3df91dbd	0.12163875
8	0x3ceca9ea	0.028889615
9	0x3dd05fef	0.10174548
10	0x3f69f2ea	0.9138628
11	0x3dce563c	0.10075042
12	0xbdca6e4e	-0.0988432
13	0x3e17cafb	0.14823525
14	0xbfde0a48	-1.7346888
15	0x3ec9673a	0.39336568
16	0x3c93f8a5	0.018062899
17	0x3ed30ade	0.41219229
18	0x3f4682de	0.7754344
19	0x3ed28431	0.4111648
20	0x3df2fb74	0.11864367
21	0xbf6fcf15	-0.9367536
22	0x40092303	2.142762
23	0x3f813480	1.0094147
24	0x3c3073bc	0.010769781
25	0xc07bd882	-3.9350896
26	0x3e98b280	0.29823685
27	0xc00d689a	-2.2095094
28	0x3dfc49ae	0.12318741
29	0x3f7414fb	0.95344514
30	0x3e15d39c	0.14631504
31	0x3f4c51f6	0.7981256
32	0xbc155c5c	-0.0091162585
33	0x3da7ab24	0.08186939
34	0x3b9b3b33	0.0047372817
35	0x3ea4bb03	0.3217393
36	0x3efa9b05	0.48946396
37	0x3def9e80	0.11700153
38	0x3dc81cb5	0.097711004
39	0xc079238d	-3.8927948
40	0xbd829e01	-0.06377793
41	0x3d423589	0.047414336
42	0x3e34e19f	0.17664193
43	0x3db33797	0.08750837
44	0xbe23dd47	-0.1600238
45	0xbca38cba	-0.019964565
46	0xbdf36530	-0.11884534
47	0xbf00a087	-0.50244945
48	0x3e173192	0.14765003
49	0x3db2069c	0.08692667
50	0xbd47e03d	-0.048797835
51	0x3db2dba4	0.087332994
52	0xbdeeb863	-0.11656263
53	0x3d9a3d38	0.07531208
54	0x3e7609d1	0.24027182
55	0xbdaa5c58	-0.083183944
56	0xbc89cbdc	-0.01682084
57	0xbe830061	-0.25586227
58	0xbe287552	-0.16451004
59	0xbf1ea41d	-0.61969167
60	0xbdef20e2	-0.11676194
61	0x3e89b575	0.26896253
62	0x4011e416	2.2795463
63	0x400c7ef1	2.195248
64	0xbdc642b1	-0.09680689
65	0xbf062e35	-0.52414256
66	0x3def61ba	0.11688562
67	0xbf818ddc	-1.0121417
68	0xbe0d091d	-0.13773008
69	0x400ceb12	2.2018476
70	0xbd9743a8	-0.07385951
71	0x40161d41	2.3455355
72	0x3b485aca	0.0030571693
73	0xbd0b80df	-0.034058448
74	0x3fa0a51d	1.2550389
75	0x3f731b21	0.9496327
76	0x3fff32b3	1.9937347
77	0xbbbae30e	-0.0057033366
78	0xbe0b886d	-0.13626261
79	0xc00cdef9	-2.2011092
80	0x3e05dc0a	0.1307222
81	0x406606a3	3.594155
82	0x3f4ef6e3	0.8084547
83	0xbf35f8db	-0.7108285
84	0xbf4e90cb	-0.80689687
85	0x3f283503	0.6570589
86	0xc0205c34	-2.5056276
87	0xbea808c2	-0.32819182
88	0x3d0b1942	0.033959635
89	0xbe95f3bd	-0.2928752
90	0xbf2cebb3	-0.6754715
91	0x3f0b2f86	0.5436939
92	0xbdaabed8	-0.08337182
93	0xbd68efd3	-0.05686934
94	0x3fead065	1.8344847
95	0xbfe635a9	-1.7985126
96	0xbc627771	-0.013822422
97	0xbdfd502d	-0.12368808
98	0xbf6eaed4	-0.93235517
99	0xbfb6121a	-1.4224274
100	0xbe6366dd	-0.22207208
101	0x3e6400d8	0.22265947
102	0xbe05bf6f	-0.13061307
103	0xbef52880	-0.47882462
104	0xbd47e8d0	-0.04880601
105	0x3e84252b	0.25809607
106	0xbe74a890	-0.23892426
107	0x3d7fb392	0.06242711
108	0xbd2fb15c	-0.042893752
109	0xbebef244	-0.3729421
110	0xbde2dec2	-0.11077644
111	0xbedc848a	-0.4306987
112	0x3bd0a1b1	0.0063669314
113	0x3d94bc8f	0.07262527
114	0xbcf0031d	-0.02929836
115	0xbec4c7a7	-0.38433573
116	0xbebba4f9	-0.36649302
117	0xbda65769	-0.08122141
118	0xbc98504e	-0.01859298
119	0x3e044bbc	0.12919515

linear.bias f4 [6]
0	0xbf94f80c	-1.1638198
1	0xbfce0212	-1.6094382
2	0x3dc85ae3	0.0978296
3	0xbf787142	-0.9704782
4	0x3f181108	0.5940099
5	0x3ea8c499	0.32962492
