models/237/state_dict.pt (torch_old, 25727 bytes, 10 tensors)

lstm.weight_ih_l0 f4 [80, 10]
000000 ed a6 48 3d 14 21 29 40 c5 53 2d 3e e9 17 4d c0
       0.048987318 2.642644 0.16926487 -3.2045844
000010 2a a6 93 3e be 16 36 c0 db c9 39 be 6d 02 72 3c
       0.2883771 -2.845138 -0.18143408 0.014771086
000020 27 c9 2f c0 80 9c 20 be 1a 19 dc be d8 90 29 3f
       -2.7466524 -0.156847 -0.429879 0.6623664
000030 3a 34 31 be 43 bb 70 bf 57 3a 1a be 6e b6 70 bf
       -0.17305079 -0.9403574 -0.15061317 -0.94028366
000040 71 2a e6 bd a9 1b f4 bd 5f 82 51 bf 3f cb 60 be
       -0.11238564 -0.11919338 -0.81839556 -0.21952532
000050 43 13 e6 3d a9 c4 48 bf 62 5f f1 3f 91 5f 18 3f
       0.11234143 -0.7842508 1.8857234 0.5952082
000060 97 4b f3 3f 44 7a e9 3e d0 91 11 c0 1e 77 e5 3f
       1.9007443 0.45601094 -2.2745247 1.7926977
000070 8a 6b b5 3e 2c cd 24 c0 c8 e5 fb 3d 2b d2 87 3e
       0.35433608 -2.5750227 0.12299687 0.26527533
000080 58 1d 12 3f 26 90 28 bf c6 42 ef 3e ff 0e 18 bf
       0.57076025 -0.65844953 0.46730632 -0.5939788
000090 57 65 01 bf 7a 2e ea 3e fe 14 da be 1a 63 1b bf
       -0.5054526 0.45738584 -0.4259414 -0.6069809
0000a0 28 0a b0 bc 8c ab a1 3f 0d 3b 8a bf b3 38 99 bf
       -0.021489218 1.2630477 -1.0799271 -1.1970428
0000b0 a9 d8 4e bf 2b 63 a8 bf cf 33 1b 3f 28 4a d8 be
       -0.8079935 -1.3155264 0.6062593 -0.42244077
0000c0 9d 9c 7c bf fe 3b 38 3f 7b e4 ae 3c 93 d3 88 3f
       -0.9867647 0.7196654 0.021349182 1.0689567
0000d0 28 56 4c bf bb 86 8e bf 22 2c 58 bf a8 a6 90 bf
       -0.79818964 -1.1134866 -0.8444234 -1.130086
0000e0 92 a4 85 3f 37 56 72 bf f8 ce ab bf 9b 28 80 3f
       1.0440848 -0.94662803 -1.3422537 1.0012392
0000f0 f1 0b 92 3e 0b 75 64 c0 c5 ab fb 3e 4b 95 50 40
       0.28524736 -3.5696437 0.49154487 3.2591121
000100 b9 51 84 3d 08 41 7a 40 1a 5f 50 be ee 69 28 3d
       0.064609 3.9102192 -0.20348778 0.041116647
000110 5a e8 82 40 be 2a 04 bf 48 57 20 3d 88 17 6d 3f
       4.090863 -0.5162772 0.039145738 0.9261403
000120 8d ed ea 3e 9f e5 96 bf f7 00 cd 3e ff 6f 80 bf
       0.45884362 -1.1788825 0.400398 -1.0034178
000130 89 06 51 be e5 db da 3e 73 1c 5a bf 9c 6e 79 be
       -0.20412649 0.4274589 -0.8519966 -0.243586
000140 19 4a 40 3e 3c af 9a bf f8 a7 cb bf 4f 38 60 3f
       0.18778266 -1.2084727 -1.5910635 0.8758592
000150 29 2a f1 bf 5f a4 70 3f c3 2b d4 3f 03 f5 d1 bf
       -1.8840991 0.9400081 1.6575855 -1.6402897
000160 d8 f9 89 3f 15 48 b8 3f 09 3a b4 bd cf f3 c7 3f
       1.0779371 1.4396998 -0.08800132 1.562128
000170 23 96 4a be 96 0f d2 bf 3c 0e 9f be fe 97 cf bf
       -0.19783835 -1.6411006 -0.31065547 -1.6218259
000180 06 c4 2c 3f d5 ba 93 be 05 94 a6 bf 8a 18 3d 3f
       0.6748661 -0.2885348 -1.3013922 0.7386557
000190 7d 2e 67 3f f8 ca b6 bf a7 ff 93 be 3e 90 9a 3f
       0.9030531 -1.4280691 -0.28905985 1.2075269
0001a0 6b 14 99 be 4e 8b b9 3f 29 66 b7 3d b0 a0 56 be
       -0.2989839 1.4495637 0.089550324 -0.20959735
0001b0 5b 0e c4 3f 3a 48 20 3e 74 4a 4a 3e 4e 5d 27 3e
       1.5316881 0.15652552 0.19754964 0.16344187
0001c0 4b 2f cc bf c0 be 32 3e e9 05 97 bf c8 e5 17 be
       -1.5951933 0.17455578 -1.1798679 -0.14833748
0001d0 3e 99 91 3f 2d 25 77 bf 36 20 78 be 6d 02 ac 3f
       1.1374891 -0.965411 -0.24231037 1.343824
0001e0 e0 88 82 3c f0 b5 35 40 f6 91 19 bf c4 76 33 c0
       0.015934408 2.8392296 -0.59988344 -2.8041239
0001f0 24 47 33 bf 30 e2 36 c0 1f ed 71 3f e5 46 49 bf
       -0.70030427 -2.8575554 0.94502443 -0.786238
000200 62 5b 40 c0 fd 37 68 3f 5a df ac bc 90 3a 83 3f
       -3.0055776 0.9071043 -0.021102596 1.0252247
000210 16 c4 a5 3f 72 76 a5 bf f1 28 a9 3f 1b b0 8a bf
       1.2950466 -1.2926772 1.3215619 -1.0834993
000220 57 fb aa bf 22 cc 98 3f 49 a9 bb bf 92 10 8d bf
       -1.3357953 1.1937296 -1.4661037 -1.1020682
000230 d5 bf f5 bd c8 fb 79 3f 94 3d 7c 3f 8e b3 79 bf
       -0.1199948 0.9764981 0.9853146 -0.97539604
000240 d8 fd 51 3f 88 64 4c bf ed 7a 36 bf be 3f 61 3f
       0.8202796 -0.798409 -0.7128132 0.8798789
000250 16 40 5b bf 37 6d 10 bf a8 cf 95 3e a5 8f 49 bf
       -0.8564466 -0.5641665 0.29259992 -0.7873481
000260 4b 0a 09 40 f9 25 66 3f d8 ee bc 3f 86 59 7f 3f
       2.1412532 0.8990169 1.4760389 0.99745977
000270 18 82 07 c0 4f 3f be 3f c2 85 81 3f 8c e4 0b c0
       -2.1173153 1.486307 1.0118945 -2.1858244
000280 0d 85 dc 3e 31 5c 20 40 ad 40 02 bf 22 7b 24 c0
       0.4307026 2.505627 -0.5087994 -2.5700154
000290 aa 21 28 bf 7d 71 1f c0 1a f6 5c 3f d6 50 3d bf
       -0.6567637 -2.4913018 0.8631302 -0.7395147
0002a0 93 54 23 c0 5f ae 5f 3f 80 72 4a 3f 45 51 8a bf
       -2.552037 0.87375444 0.79080963 -1.0806051
0002b0 27 73 2c bf 21 1a a7 3f 09 46 bc bf 88 a2 af 3f
       -0.6736321 1.3054849 -1.4708873 1.3721476
0002c0 33 0b 80 3f b3 4f b1 bf 02 db b5 3f ab 01 6e 3f
       1.0003418 -1.3852447 1.4207461 0.92971295
0002d0 58 43 89 be 60 1b 0d 40 84 02 0d 3f 2b 6b 24 c0
       -0.26809192 2.2047958 0.55081964 -2.569041
0002e0 75 ee c7 3e 98 3e 16 c0 2d 02 f4 be 9d b1 2c 3f
       0.39049116 -2.3475704 -0.4765791 0.67458516
0002f0 b8 cb 26 c0 ea bd e3 be 4d a2 06 3d 4c d6 87 3f
       -2.606184 -0.4448083 0.032869626 1.0612273
000300 ef fc 6f bf b6 63 77 bf 36 00 5b bf ad 5f 56 bf
       -0.9374532 -0.9663652 -0.85547197 -0.8373974
000310 c5 73 8e 3f 5b 9b 7a bf 2b d4 52 bf 0a cb b8 3f
       1.112908 -0.97893304 -0.8235499 1.4436963
000320 84 c4 ea 3d 90 33 1a 3c 78 c2 ad 3d cd 13 42 be
       0.11463264 0.0094117075 0.084843576 -0.18952866
000330 38 8e 12 3e 30 ed 13 3e 20 bf 55 3e d8 4f c7 3d
       0.14312065 0.14445949 0.2087369 0.09732026
000340 44 da 5f 3e 68 9c 45 bd 84 4f ac bd b0 c5 64 be
       0.21860605 -0.048244864 -0.08413604 -0.22341037
000350 9c 32 1b be 30 45 25 3d 89 fc fb bd c8 aa d8 3d
       -0.15156025 0.040349185 -0.12304027 0.10579449
000360 32 cd 3a 3e 20 06 7f bc 78 e2 19 3d 24 72 a7 3d
       0.18242338 -0.015565425 0.037569493 0.081760675
000370 0c 87 58 3e 80 9b 35 3e 10 48 e3 3d f0 aa c5 3d
       0.21145266 0.177351 0.11097729 0.09651744
000380 58 8a 50 bd 9c 31 23 bd 86 67 1e be 51 c7 28 be
       -0.050913185 -0.039842233 -0.15469179 -0.16482283
000390 cc 64 af 3d 10 9a e7 3d 00 7e 1f 3d b0 be 3d bc
       0.08564147 0.11308682 0.038938522 -0.011581108
0003a0 60 34 4f 3e 3e 67 43 be b8 fe 85 3d fa 5e 1b 3e
       0.20234823 -0.19082353 0.06542724 0.1517295
0003b0 d8 60 e2 3d 79 63 4f be 60 66 8d bb b0 4a 07 bc
       0.11053628 -0.2025279 -0.0043151826 -0.008257553
0003c0 40 1b c3 3d c4 e2 5a bd d6 52 03 3e 98 68 9a bd
       0.09526682 -0.053438917 0.12824568 -0.07539481
0003d0 74 88 cb 3d 58 36 49 bd c0 1a 3b bd b8 a6 37 bd
       0.09938136 -0.049124092 -0.045679808 -0.04483673
0003e0 c0 4b 11 3e e0 0b 38 3e 04 33 14 be a8 94 c6 bd
       0.14189053 0.1797328 -0.14472586 -0.09696323
0003f0 4b b5 d8 bd 3c 06 f4 3d 69 84 3f be 19 63 1b be
       -0.10581454 0.119152516 -0.18702854 -0.15174522

lstm.weight_hh_l0 f4 [80, 20]
000000 a8 82 06 be 3b ac 5d be aa 4c 57 3e 48 0e 5c be
       -0.13135779 -0.21647732 0.21025339 -0.21489823
000010 60 12 3f 3d f8 eb e5 bc c0 0d b2 bb 06 75 36 3e
       0.046648383 -0.02806662 -0.005433768 0.17818078
000020 cc 84 98 bd 8c 8d 8c 3d e8 8c 02 be a8 d0 2e 3e
       -0.07447204 0.068629354 -0.12749064 0.17071784
000030 68 52 a5 bd c8 0a 26 3e 08 74 bc 3d 42 1b da bd
       -0.08072358 0.1621505 0.09201819 -0.1064973
000040 32 2d 48 3e 56 34 e5 bd aa 36 43 3e 90 55 33 3e
       0.1954849 -0.11191623 0.19063821 0.17513108
000050 d0 f2 b9 3c 5c ef a9 bd 68 ac 13 be a0 43 d3 3d
       0.02269879 -0.08297607 -0.14421237 0.10315633
000060 ec 2d bc 3d 6a d2 39 3e a0 be a9 bc 74 c2 71 bd
       0.091884464 0.18146673 -0.02072078 -0.059023336
000070 40 9c 33 3d b8 2e ec bd 12 6d 21 3e 16 0f 5d 3e
       0.043850183 -0.115323484 0.15764263 0.21587786
000080 80 c9 bc 3d 4a c3 1c be dc 76 4d 3e 9a 24 32 3e
       0.092181206 -0.15308872 0.20064873 0.17396775
000090 f7 91 56 be 6e 7b 32 3e fc a1 78 bd 48 39 71 3d
       -0.20954119 0.17429897 -0.060701355 0.05889252
0000a0 50 8b 45 3e dc 27 46 bd 80 7c 28 bc 92 7a 09 3e
       0.19291425 -0.048377857 -0.010283589 0.13425663
0000b0 68 de 78 3d fa 99 8e bd a0 6e 57 3c 5e fa 24 be
       0.060758978 -0.069629624 0.013148934 -0.16111133
0000c0 e8 5a 77 3d f4 f2 0c bd 1a 8e 43 3e 84 67 44 3e
       0.06038943 -0.034411386 0.19097176 0.19180113
0000d0 ea 60 13 be 72 12 9f bd 9c 64 62 be 1f 60 f3 bd
       -0.14392439 -0.0776719 -0.22108692 -0.11883568
0000e0 de d2 9b bd 0d 02 22 be 70 ae 85 3d d8 7a 79 3d
       -0.07608579 -0.15821095 0.06527412 0.06090817
0000f0 e0 6b f0 bc 90 e2 f0 3c bc 3c 41 bd 70 65 0b 3c
       -0.029348314 0.029404908 -0.04717706 0.008508071
000100 f4 db a6 bd c4 97 ab 3d f4 a1 ff 3d ba f9 35 3e
       -0.081474215 0.08378556 0.12482062 0.17771044
000110 96 2b 03 be 50 34 d7 3c 0a 90 0e 3e a2 0c 8a bd
       -0.12809595 0.026270062 0.13922134 -0.06740691
000120 e4 1a 0a 3e f0 49 0f bd f6 90 10 be c8 bb 54 3d
       0.1348682 -0.03498262 -0.14117798 0.051936895
000130 10 a3 b4 3d a8 90 2b 3d 98 8e 26 3d 38 8c 0f bd
       0.08820164 0.041886 0.04066333 -0.035045832
000140 64 bf 67 bd ee 40 21 3e 86 e2 a7 bd 50 ab 55 bd
       -0.05657901 0.15747425 -0.08197503 -0.05216533
000150 00 e1 eb 3b c4 ea 24 3e 42 ca 53 3e 20 2b 3e 3d
       0.007198453 0.16105181 0.20682624 0.046427846
000160 30 1a 58 3d 78 be 08 3d 48 d2 86 bc 4c 21 8a 3d
       0.05275935 0.03338477 -0.016457692 0.06744632
000170 9c bc d5 3d 91 e1 2a be 73 2f 0b be 45 20 4e be
       0.10436365 -0.1668761 -0.13592319 -0.20129497
000180 74 d2 45 be a8 aa a5 3d 08 af 2a bd 28 cd d8 3d
       -0.19318563 0.08089191 -0.04167083 0.105860054
000190 97 70 13 be 06 ed 3b be c6 a3 30 3e 30 fe 43 3e
       -0.14398418 -0.18352136 0.17249975 0.19139934
0001a0 3e e9 3d 3e a4 5b a2 3d e4 48 cb bd bc 53 a3 3d
       0.18546006 0.07927635 -0.09926012 0.079749554
0001b0 25 19 5e be db 87 53 be 8c 7c 19 3e 0e 99 3c 3e
       -0.2168928 -0.20657293 0.14988917 0.1841776
0001c0 50 1a e9 3d d8 54 b6 bc b0 8d a3 3d f4 4b 8f 3d
       0.11381972 -0.022257254 0.07986009 0.06996909
0001d0 a2 59 63 be 5c a5 46 3e a0 9d e9 3b ac 48 17 be
       -0.22202161 0.19399017 0.007129386 -0.14773816
0001e0 0c 4f 1a bd cb e0 51 be 00 fe 97 bd 75 90 ca bd
       -0.03767304 -0.20495908 -0.074214935 -0.09890834
0001f0 44 eb 35 3e 90 03 f9 bc b0 72 f5 bc 5c 30 b1 bd
       0.17765528 -0.030397207 -0.029961914 -0.08651802
000200 c0 36 76 3c 74 eb 70 bd 94 1c 27 be 60 92 0f 3c
       0.015027702 -0.058818296 -0.16319495 0.008762926
000210 b8 b0 63 3e 35 76 62 be 9a 30 29 be e0 58 59 3d
       0.22235382 -0.22115405 -0.16522446 0.053063273
000220 b6 a7 13 3e a7 08 48 be 58 8a 56 3d 10 2c 5f 3d
       0.14419445 -0.1953455 0.05237803 0.05448538
000230 ea 0c 4f 3e ac a3 cf 3d 84 e3 a4 bd 9c b0 12 bd
       0.2021977 0.1013864 -0.08051208 -0.03581296
000240 f6 a8 4a 3e 98 be 13 3e 2a fe 1b be 34 f4 b8 3d
       0.19791016 0.14428174 -0.15233675 0.09030953
000250 63 1c 39 be 00 ff 74 3a 5f b3 0f be 2a 8d 05 3e
       -0.18077235 0.0009345859 -0.14033268 0.13042131
000260 14 59 0d bd 36 0b 53 be c0 19 2e bb 60 e6 47 3e
       -0.03450878 -0.20609745 -0.0026565641 0.19521475
000270 10 1e 90 3d e8 1c 10 bd 20 52 2f 3d 44 43 de bd
       0.07036984 -0.035183817 0.04280293 -0.10852674
000280 72 e2 28 be de 55 b9 bd d4 c2 0f bd d4 5f fb 3d
       -0.16492632 -0.09049581 -0.035097912 0.12274137
000290 f8 c4 2b be 91 c9 28 be 10 ea d2 3c 1c 62 2d bd
       -0.16774356 -0.16483141 0.025746375 -0.042329893
0002a0 3a 08 c6 bd 94 34 cc 3d 50 9d be bc 38 04 02 3e
       -0.09669538 0.09970966 -0.023268372 0.12696922
0002b0 cc fa 06 3e fc 0a 18 bd b8 28 ad 3c 0c 67 58 3e
       0.13181609 -0.03711985 0.02113758 0.2113306
0002c0 90 7a 67 bd 78 47 a7 bd 2c 2b 82 bd 1c 3c 37 3e
       -0.05651337 -0.081679285 -0.06355891 0.17894024
0002d0 96 9f 64 3e 62 4c 02 3e c5 b5 3a be 90 90 24 3d
       0.22326502 0.1272445 -0.18233402 0.040176928
0002e0 1e 2c 82 bd 5c ea c7 3d 82 af 40 3e 08 83 37 bd
       -0.06356071 0.097614974 0.18816951 -0.044802696
0002f0 d8 0d 7c 3d 20 06 43 3e d5 83 0e be 54 0d 3c be
       0.06153664 0.19045305 -0.13917477 -0.1836446
000300 07 47 42 be 5c f2 5c 3e 14 23 06 3e 34 ff dc 3d
       -0.18972407 0.21576828 0.13099319 0.10790864
000310 e0 26 a4 bc f0 5a 10 bc 26 30 58 be 32 34 ae bd
       -0.020038068 -0.008810744 -0.21112117 -0.08506049
000320 ac 8f 4d be 30 de 50 3d 12 44 2a be 54 60 84 3d
       -0.20074338 0.050993145 -0.1662753 0.06463686
000330 70 8b ad 3c 2a f7 07 3e 48 68 93 3c 01 07 0b be
       0.021184653 0.1327788 0.017994061 -0.1357689
000340 a0 7b 11 3c 3c 80 dd 3d 20 e0 b9 3d 68 8a 8f 3d
       0.008879572 0.108154744 0.090759516 0.07008821
000350 08 30 2e be 58 20 f0 bd 76 03 2d 3e 64 23 39 be
       -0.1701051 -0.11724919 0.16895851 -0.18079907
000360 ac bd 9a 3d 0e ac 64 be 20 cf f6 3d 78 53 0a 3d
       0.07555708 -0.22331259 0.12051225 0.03377101
000370 14 b8 33 bd 64 b7 96 3d 4c 07 d6 bd ec b6 32 be
       -0.043876722 0.07359198 -0.104506105 -0.17452592
000380 54 09 a2 3d 24 90 1b be 48 e7 ef 3d b8 c1 91 3d
       0.079119354 -0.15191704 0.11714035 0.07117027
000390 fa b3 32 3e 2c de 94 3d ac 7c fc 3d 10 da 30 3e
       0.17451468 0.072689384 0.12328467 0.17270684
0003a0 5b 8d 56 be f8 16 0b 3d b0 0b 4c 3c 2c 14 a1 3d
       -0.2095236 0.03395745 0.012453958 0.078651756
0003b0 b8 dd 02 3e d0 07 de 3c ac c7 9d bd e8 12 98 bc
       0.12779891 0.027103335 -0.077041 -0.018563703
0003c0 e4 db 06 be 9a 6f f1 bd 48 c4 a1 3d e0 74 03 3e
       -0.13169819 -0.117888644 0.07898766 0.12837553
0003d0 c0 9a 12 3e b9 6b 0a be 42 ae 87 bd 71 b2 07 be
       0.14316845 -0.13517655 -0.06625034 -0.13251664
0003e0 f8 12 8d 3c 97 c6 01 be 88 c4 88 3d 7c dc 3d 3e
       0.017220959 -0.12673412 0.0667811 0.1854114
0003f0 b8 af d8 3d 34 2c 5c bd 5c e7 c4 bd 5e 2c 5c be
       0.10580391 -0.053753093 -0.09614441 -0.215013

lstm.bias_ih_l0 f4 [80]
000000 ae 5d ee 3f 30 6a 03 40 cc e8 9f 3e 80 f6 04 40
       1.8622339 2.0533562 0.31232297 2.0775452
000010 13 03 e1 3f 56 7b b5 3e c2 d5 70 be 46 41 72 bf
       1.7579063 0.3544566 -0.23519042 -0.9463085
000020 a1 14 ff 3d 25 15 4a 3f 00 e9 08 40 7e 1b 19 40
       0.124551065 0.78938514 2.1392212 2.392303
000030 1c f2 2e bf 00 f6 d7 3c 11 52 2e bf 7b c1 44 bf
       -0.6833818 0.02636242 -0.68093973 -0.7685773
000040 5b 60 87 3f 83 56 81 bf b9 9e 32 3e f0 64 73 3f
       1.057628 -1.0104526 0.1744336 0.95075893
000050 62 f4 48 be a4 3c d3 3d 50 56 5a bd b8 a0 28 3d
       -0.19624475 0.10314301 -0.05330497 0.0411689
000060 48 83 63 3e b8 78 8f 3d 58 08 21 be c4 4e f3 3d
       0.22218049 0.07005447 -0.15725839 0.11880258
000070 e5 d5 4f be de c2 15 3e 4f ab 27 be 72 e8 48 3e
       -0.20296438 0.14625117 -0.16373943 0.19619921
000080 76 85 a0 bd 3e 0d 3e 3e 60 de ec 3c a4 1d 87 3d
       -0.07837956 0.18559739 0.02891463 0.065974504
000090 c0 db 45 bc 16 70 bb bd 40 dd 7d 3d 2c a9 07 3e
       -0.012076318 -0.09152238 0.06197858 0.13248128
0000a0 b6 39 d2 3e 18 24 e1 3e b0 90 96 3d 8c 8b 92 3f
       0.41059655 0.4397285 0.07351816 1.1448836
0000b0 1f 20 c2 be 0f 00 3b 3e de 93 5c 3e 9b 7a c8 be
       -0.3791513 0.18261741 0.21540782 -0.3915604
0000c0 37 04 0c 3e af 3f a8 3e d6 de 05 3f 23 ef b2 bd
       0.13673483 0.32861087 0.52293146 -0.08737018
0000d0 cc 37 31 3e 87 98 56 be 8a 84 18 bf 5c aa 6d bf
       0.17306441 -0.20956622 -0.5957724 -0.9283807
0000e0 14 79 ed be ca ef 56 3c 22 fd c0 bf d9 76 2e 3e
       -0.46381438 0.013118694 -1.507725 0.17037524
0000f0 d1 dd 38 3f b8 f5 90 3f 01 8e 90 3f cc 81 ad 3e
       0.72213465 1.1324987 1.1293336 0.3388809
000100 72 16 ca be 46 63 3a 3f 37 bc a9 3e bb 06 e3 be
       -0.3947025 0.7280773 0.3315141 -0.44341072
000110 9e ff d0 bd cc 29 9f 3f 5e f8 12 40 8b 7c 47 3f
       -0.10205005 1.243463 2.2964091 0.7792441
000120 15 96 3e 3e c5 d9 36 bf 1f 3f 8d bf 53 e4 3b bf
       0.18611939 -0.7142604 -1.1034888 -0.7339527
000130 90 a4 52 3f bd 9f 9a bd 1e 16 1c bf 08 0a ae 3e
       0.8228235 -0.07549999 -0.6097125 0.33992028

lstm.bias_hh_l0 f4 [80]
000000 58 ba d1 3f 2a c3 02 40 28 a5 a9 3e af 29 e5 3f
       1.6384993 2.0431619 0.33133817 1.7903346
000010 db 10 cc 3f 05 8b 68 3e 09 7c 1b bd 74 ed 62 bf
       1.5942644 0.22709282 -0.037960086 -0.88643575
000020 99 86 a9 3d eb 80 40 3f ac 0f 10 40 ce ec 0f 40
       0.082776256 0.75196713 2.2509565 2.2488284
000030 f8 7b 2f bf 29 70 13 be ee 94 80 bf 9b f1 4f bf
       -0.68548536 -0.14398254 -1.004545 -0.81228036
000040 0d 0c 8d 3f a4 52 a3 bf 6c 34 bf 3e 7a 2f 4a 3f
       1.1019303 -1.2759595 0.37344682 0.78978693
000050 c1 03 5f be cc 62 37 be 3c 36 f3 3d 48 f5 6d 3d
       -0.21778776 -0.17908782 0.11875579 0.058095247
000060 5c 3d 1a 3e e0 b4 8a bc 90 00 c8 3d 43 08 fe bd
       0.15062469 -0.016931951 0.09765732 -0.124039195
000070 7c 5d 41 3e 10 48 97 3d 78 09 ec 3d 02 04 59 be
       0.18883318 0.07386792 0.115252435 -0.21192935
000080 26 a3 32 3e 68 0d a4 3d d4 3c b3 bd 5b a7 f4 bd
       0.17445049 0.080103695 -0.087518364 -0.11945983
000090 ec de bd 3d ee 06 2f be a0 4c f3 bc 44 38 bb 3d
       0.092710346 -0.17092487 -0.029699624 0.09141591
0000a0 ac 0d ea 3e 7d 2f 0d 3f 65 63 59 bd 32 d3 45 3f
       0.45713556 0.55150586 -0.053073306 0.77275383
0000b0 4d 10 e2 be 28 09 14 3f aa 88 e0 3e 32 18 84 be
       -0.44153062 0.5782647 0.43854266 -0.2579971
0000c0 2f 8d 65 3c a2 65 56 3e a8 fc 43 3f d4 b3 9f bd
       0.014010712 0.20937207 0.765574 -0.07797971
0000d0 67 dc 01 3e 3a 72 c1 bd e4 c8 0b bf a0 b2 99 bf
       0.12681733 -0.09445615 -0.5460341 -1.2007637
0000e0 76 d0 28 bf 7a b8 04 bc c8 7a be bf 74 39 07 3f
       -0.65943086 -0.008100623 -1.488122 0.5282204
0000f0 d1 ec 42 3f 58 20 a8 3f 89 00 ad 3f 78 3c c1 3e
       0.76142603 1.313487 1.3515788 0.37741446
000100 0c ec 24 be aa cb 4f 3f 3d fd 8b 3e 23 78 04 bf
       -0.1610567 0.8117014 0.27341643 -0.51745814
000110 c7 34 83 be 42 90 8d 3f dc a8 1a 40 b9 5f 5c 3f
       -0.25626203 1.1059649 2.4165564 0.8608356
000120 b2 4c 80 3e 79 9a 0a bf 17 1f 93 bf d7 76 4f bf
       0.25058514 -0.54141957 -1.1493863 -0.8104071
000130 c2 70 43 3f f5 b6 51 bd 24 0a 0a bf b4 bb 99 3d
       0.7634393 -0.051199872 -0.53921723 0.07506505

lstm.weight_ih_l1 f4 [80, 20]
000000 48 19 b6 40 91 c7 19 40 d5 75 b4 3d 60 fc 11 3f
       5.690586 2.4028056 0.08811537 0.5702572
000010 9d 7a a7 bf f3 78 e2 3f 95 0c 1e bf 48 4d 39 40
       -1.3084294 1.7693161 -0.6173795 2.8953419
000020 3e 62 da bf 80 6e 24 be 68 96 db 3f eb b8 8f 40
       -1.7061231 -0.16057777 1.7155275 4.491323
000030 ff aa cc 3f 66 22 d9 be b8 cb 01 3f e9 e1 2d 3e
       1.5989684 -0.42409056 0.50701475 0.16980709
000040 31 61 4a 40 77 a0 1d c0 a5 77 bd c0 f2 ad dc bb
       3.162182 -2.462919 -5.920855 -0.006734603
000050 40 4e 63 bc c4 a3 f6 3d 6d 32 23 3d 84 7b c4 bb
       -0.013873637 0.120429546 0.03984301 -0.0059961695
000060 49 5d a7 3e 6d 35 dc 3d 34 14 b0 be e8 1e 02 3d
       0.32688358 0.10752378 -0.34390414 0.031767756
000070 81 01 41 3c 5c 7b 19 be ce c3 35 3d d1 52 04 3e
       0.011780144 -0.14988464 0.044376187 0.12922217
000080 c9 0e 8a bd 11 bf 83 3d 96 bc b6 be eb b1 9d 3e
       -0.06741101 0.064329274 -0.35690755 0.30799803
000090 17 0a 19 be f6 46 77 be 49 8b 22 be 66 fd 38 be
       -0.14945255 -0.24148163 -0.15873446 -0.18065414
0000a0 f6 b6 b1 be 6a 3f ce 3e c6 48 bd be 2b 9b de 3e
       -0.347099 0.40282756 -0.36969584 0.4347776
0000b0 52 53 e4 bf 53 c9 43 40 04 e4 17 c0 85 f5 4d 3c
       -1.7837927 3.0591629 -2.373292 0.012570743
0000c0 80 f9 5b c0 1b ec 72 c0 27 d3 a2 3d c9 52 7f 40
       -3.4371033 -3.7956607 0.0795043 3.9894278
0000d0 26 36 e7 3f 3a a6 d3 c0 15 22 9e 3e af 68 4d 3d
       1.80634 -6.6140413 0.30885378 0.050148662
0000e0 81 b1 03 be cd 7f 40 40 b7 46 31 3e 7c f6 ae 40
       -0.12860681 3.0078003 0.17312132 5.4675884
0000f0 ef 76 06 3f 24 6d e6 bf 7d 52 ad 3f 4c 94 8c 3f
       0.5252523 -1.8002057 1.3540798 1.0982757
000100 db 32 18 c0 86 73 8d 3f 41 38 0f c0 8a ad 88 3f
       -2.378104 1.105088 -2.2378085 1.067796
000110 e1 e9 2d bf 8c d9 34 3e 03 2d f6 3d ab e7 f3 bd
       -0.67934996 0.17661113 0.12020304 -0.119094215
000120 19 9f c2 3f dc d0 6d bf 4d a4 84 3c d5 93 ea 3d
       1.5204803 -0.9289682 0.016191626 0.11453978
000130 15 7d 8c 3f 97 d4 41 bd 6a 78 09 be 4d 9c 3e 3f
       1.0975672 -0.047321882 -0.1342484 0.74457246
000140 94 77 0e 40 71 5d e4 bf 36 4d 43 40 d3 6f 62 bf
       2.2260485 -1.7841016 3.0515876 -0.8845188
000150 d0 8d 65 40 48 29 7a bf 5e 77 1f 40 b4 f5 c2 3e
       3.5867805 -0.9771924 2.4916606 0.38078082
000160 0f 81 57 bd 38 df a1 3f a5 6f 35 40 a9 88 64 3e
       -0.052613314 1.2646246 2.8349392 0.22317757
000170 87 4d 36 c0 9e a0 fa bf 68 dc 25 bf 61 72 17 40
       -2.848482 -1.9580266 -0.6478944 2.3663561
000180 9c 00 d6 c0 f0 c5 f9 be 3c 73 93 c0 af ac a8 be
       -6.6875744 -0.48783827 -4.6078167 -0.32944247
000190 da 20 7d 3f d3 57 a2 be 10 62 29 3f 1e 06 08 3f
       0.9887825 -0.3170763 0.66165257 0.53134334
0001a0 3d ce e8 3f 01 b4 b1 bf 81 ad e0 3e a9 7d f1 bd
       1.8187939 -1.3883058 0.43882373 -0.11791546
0001b0 5b bb 41 be 81 4b 6b 3e 7b b6 76 bc 88 92 fc 3d
       -0.18919127 0.22978021 -0.015058155 0.12332636
0001c0 43 9e 75 3f 38 0f 90 bf 05 03 28 3f 32 d6 e3 3e
       0.95944613 -1.1254644 0.6562961 0.44499356
0001d0 54 0f 85 bf d3 9c 71 be 2a db 9b bf e9 7d 9a bf
       -1.0395303 -0.2359498 -1.2176259 -1.2069675
0001e0 5c 55 ac 3d 15 d5 90 c0 85 ac 78 40 2c b2 5d bf
       0.084147185 -4.526011 3.8855298 -0.86599994
0001f0 e8 13 08 bf b3 db 55 bd 05 2a 3a c0 8c 5e cb bd
       -0.53155375 -0.052211475 -2.9088147 -0.09930143
000200 15 c4 b0 bf 3e e4 1d c0 c9 0c 19 3f f6 d9 4b 40
       -1.380984 -2.4670558 0.59785134 3.1851783
000210 8b 1a aa 3f 7b 2c 17 c0 77 e0 82 be 1c 8c 83 3f
       1.328935 -2.3620899 -0.25561878 1.0277133
000220 bf a7 15 40 b3 72 23 40 e6 21 b0 3d 26 5e 42 40
       2.3383634 2.5538757 0.086002156 3.0369964
000230 c1 53 94 3f 77 d9 17 c0 e9 73 68 be 17 e0 78 bf
       1.158806 -2.372648 -0.22700466 -0.97216934
000240 56 33 8d 40 86 39 58 c0 65 f5 d9 3f 48 e8 95 be
       4.4125166 -3.378511 1.7028013 -0.2927878
000250 d2 17 83 bd 63 c7 05 3f 58 df a2 3f 08 09 9f 3e
       -0.06401028 0.52257365 1.2724409 0.31061578
000260 9e bf 47 bf 16 70 ca bf fd c7 46 be f4 ff 13 40
       -0.7802676 -1.5815456 -0.19412227 2.3124971
000270 ee 4a 5c c0 50 cb 09 be a3 85 10 c0 a3 97 da bf
       -3.4420733 -0.13456464 -2.2581565 -1.7077526
000280 42 f1 29 c0 3a ea aa bf 6e 9d 1b be e3 6d 5b bf
       -2.6553502 -1.335273 -0.15196773 -0.8571455
000290 e4 be 21 bf 02 9b 54 3f ff b9 0d 3d 22 f2 e4 bf
       -0.631819 0.83049023 0.034601208 -1.7886393
0002a0 65 67 45 3f dd 7e 94 3f 96 86 df 40 22 a0 69 3e
       0.7711089 1.1601216 6.985179 0.22814992
0002b0 f5 a9 c5 3f c6 1f f7 3e c5 7a 97 bf d9 76 68 3f
       1.5442492 0.4826643 -1.1834341 0.9080635
0002c0 d7 db 61 3e ec 45 94 3f ce b7 11 40 5e 63 8e 3f
       0.22056518 1.1583838 2.2768435 1.1124074
0002d0 b7 60 62 be cc db a2 bc e8 85 ab 3f 86 d9 59 3e
       -0.22107206 -0.019880198 1.340024 0.21274385
0002e0 f3 0d a9 bd 23 58 68 be b5 49 04 40 fa 3c b6 40
       -0.08254614 -0.22689871 2.0669987 5.6949434
0002f0 5d 54 46 40 c5 5c 47 3e e6 9e d0 be 06 d5 56 c0
       3.0988991 0.19468983 -0.4074623 -3.356752
000300 c6 9d fb bd f5 fa 8a 3e c1 a5 aa 40 7f bf 8a c0
       -0.12285952 0.2714459 5.3327336 -4.335876
000310 e5 e0 1d 40 7a bf b0 bf e7 e7 cc 3e fe 5e fa be
       2.4668515 -1.3808434 0.40020677 -0.48900598
000320 0a 26 1c c0 05 6b d5 be 2d 63 5c 3f 35 26 52 be
       -2.4398217 -0.41683212 0.8608883 -0.20522387
000330 78 d1 09 3e b7 44 ba be 76 6b 9c bd 5e be 56 3c
       0.13458812 -0.3638055 -0.07637684 0.0131069105
000340 06 52 35 bf cf 2e 2b bf 1a 7e 24 bf 58 c4 73 3d
       -0.7082828 -0.668683 -0.64254916 0.05951342
000350 d0 1c 62 40 87 49 ee 3e 55 07 38 3e c2 27 36 3e
       3.5330086 0.46540472 0.17971547 0.17788604
000360 e1 fd 1d c0 0f f8 f6 3e be ba b3 3f 3e 83 17 3c
       -2.4686205 0.4823613 1.4041364 0.009247599
000370 93 ca 2d c0 34 20 2e bf 2f 09 00 3e 81 22 ac be
       -2.7154891 -0.6801789 0.12503503 -0.33620074
000380 ae 3e a5 be 95 6e 07 3e 11 05 8c be 9a b4 3a bf
       -0.32274383 0.13225777 -0.27347615 -0.72931826
000390 ca 5e 94 3e 9d 72 9c bf 1a 72 8e bf a3 42 b7 3d
       0.28978568 -1.2222477 -1.1128571 0.08948257
0003a0 6a 92 25 40 a7 06 92 3e 07 37 b0 bd a8 7d b4 3e
       2.5870614 0.285207 -0.08604246 0.35252118
0003b0 53 41 07 40 cf 29 a6 ba f7 c9 13 40 7e 03 4e 3f
       2.113362 -0.0012677255 2.309202 0.8047408
0003c0 fe 66 f4 3f 55 e7 ce 3f 67 7f 4c 3d 11 df ce 3f
       1.9093931 1.6164347 0.049926188 1.6161824
0003d0 6c 33 8b bf 9b 56 be 3f 83 d7 9a bf 62 4e c4 40
       -1.0875068 1.487018 -1.2097019 6.134568
0003e0 cf 58 33 bf 80 44 18 bf 82 9e 11 40 9f bb 64 40
       -0.70057386 -0.5947952 2.2752995 3.5739515
0003f0 44 67 83 3f 64 26 3f bf 58 f4 4b 40 1e 58 4f bf
       1.0265889 -0.74667954 3.1867886 -0.8099383

lstm.weight_hh_l1 f4 [80, 20]
000000 2a b4 8e bd 58 b4 7f 3d 78 31 25 be 5e 6f 33 3e
       -0.06967957 0.06242785 -0.16132152 0.17522952
000010 84 10 00 be dd 36 35 be b8 b9 48 3d 80 10 2e be
       -0.125063 -0.1769671 0.04900524 -0.16998482
000020 18 63 e0 3d e9 2d ce bd f0 f4 6c 3d f8 f1 1b be
       0.10956401 -0.100673504 0.057850778 -0.15229023
000030 4e 48 8e bd 6c 59 89 3d 48 a2 05 3d b4 a3 4f bd
       -0.06947385 0.06706509 0.032625467 -0.05069323
000040 10 96 ed 3c a4 6d 22 bd 46 c9 b0 bd 78 76 8f 3d
       0.02900222 -0.039655343 -0.0863214 0.07005018
000050 b0 40 d3 bc 06 51 02 3e 05 e3 5f be d6 7e f2 bd
       -0.025787681 0.1272622 -0.21863945 -0.11840598
000060 0a e3 0d be 78 2b d3 3d 82 7a 89 bd bb 98 4b be
       -0.1385614 0.103110254 -0.0671282 -0.19882481
000070 46 d7 1e 3e 58 67 0e 3e 80 e4 cf bd d8 32 8c 3d
       0.15511808 0.1390661 -0.10151005 0.06845635
000080 40 94 3b 3d 36 a1 3f 3e 22 03 0e be 9e 29 34 3e
       0.04579568 0.18713841 -0.13868383 0.17594
000090 1c da a1 3d c3 dc 56 be ae 6f 20 be 86 39 44 be
       0.07902929 -0.20982651 -0.15667602 -0.19162568
0000a0 3a bd 37 3e 78 20 0d 3e 00 67 a2 bb 10 af 5f 3e
       0.17943278 0.13781917 -0.004956126 0.21844125
0000b0 39 ca 3b be d4 be 2f be 90 7e 0a be 3e 3b d7 bd
       -0.1833886 -0.17162639 -0.13524842 -0.105093464
0000c0 48 c8 bd 3c b4 66 df 3d 5c 09 8f 3d 3f bf 4a be
       0.02316679 0.10908261 0.06984207 -0.19799517
0000d0 cc b4 40 be 4a 49 d7 bd c2 d2 25 be cc d6 10 3e
       -0.18818969 -0.10512026 -0.16193679 0.14144439
0000e0 61 6e 19 be ea 3b 5f be 74 55 47 be 0c b5 0e be
       -0.14983512 -0.21800199 -0.19466192 -0.13936251
0000f0 29 3a 4f be 88 d9 8a bc 2f 1f 1b be e0 de 48 be
       -0.2023703 -0.01694943 -0.15148614 -0.1961627
000100 8e 15 0b be 64 ad a1 bd cc 11 51 be 5c b8 9e bd
       -0.13582441 -0.078944 -0.20416945 -0.077500075
000110 28 0a 13 3d b4 05 2b 3e e2 12 3c be 20 ed d0 bc
       0.035898358 0.16701394 -0.18366578 -0.025503695
000120 12 97 20 3e bc d0 40 3e 68 3d bb 3c 5c f9 39 be
       0.15682629 0.18829626 0.02285643 -0.1816153
000130 c0 06 91 3b 2a 2c 0a 3e 88 f4 54 bd f0 ab 59 3c
       0.0044258535 0.1349341 -0.051991016 0.013285622
000140 84 19 64 bd b4 3c 58 3e 19 af 20 be 24 3d 13 be
       -0.055688396 0.21116906 -0.15691794 -0.14378792
000150 40 2d 8f bd 60 a2 a2 3d 90 32 9d bc 51 5a 47 be
       -0.06991053 0.07941127 -0.01918915 -0.19468047
000160 14 c0 03 be e8 be c5 3d 32 0f 41 be 2e aa 47 be
       -0.1286624 0.09655553 -0.18853453 -0.19498512
000170 b2 c2 4c be 92 b8 23 be 86 dd 54 3e 18 a8 ff 3d
       -0.19996145 -0.15988377 0.2078763 0.12483233
000180 9a 04 ba bd 5a 3e 4c 3e e8 b7 c3 3c 54 98 cb bd
       -0.09082909 0.1994566 0.023891404 -0.09941164
000190 80 19 3d 3e 10 54 b8 bd b8 30 48 bd 59 ba 4d be
       0.18466759 -0.09000409 -0.048874587 -0.20090617
0001a0 ec 22 14 be 24 af 9d 3d b8 2c f6 3d c2 e3 1b 3e
       -0.14466447 0.07699421 0.12020248 0.15223601
0001b0 cc e2 26 be 54 3c 68 bd 26 ee 87 bd 7b e0 5a be
       -0.16297454 -0.05669816 -0.0663722 -0.21374695
0001c0 30 80 04 3e 00 f2 02 3e 9c 5a 0d be 2d 6e 57 be
       0.12939525 0.12787628 -0.13804096 -0.21038122
0001d0 10 66 55 3d 20 77 14 3c 80 4d 13 3e dc 31 0a be
       0.052099288 0.009061605 0.14385033 -0.13495582
0001e0 f8 be 4d bd 90 c2 31 be be dd f1 bd a4 65 f9 3d
       -0.05023095 -0.17359376 -0.11809872 0.121775895
0001f0 f0 6c 2e 3e dc 7e 8a 3d 30 d3 2d 3d 98 54 40 bd
       0.17033744 0.06762478 0.042437732 -0.046955675
000200 70 45 bc bd 80 99 4a bc d0 f2 97 3d 08 b8 10 3e
       -0.09192932 -0.012365699 0.0741936 0.14132702
000210 04 67 e2 3d 80 b8 09 3b e4 9e bc 3d 68 ce 8c bd
       0.11054805 0.0021014512 0.092099935 -0.06875306
000220 50 a9 14 3d 80 bf 92 3a 81 2b 18 be 47 85 02 be
       0.03629428 0.0011195987 -0.14860345 -0.12746154
000230 54 bf 41 3e 44 3b 63 3e 31 42 58 be aa ae e5 bd
       0.18920642 0.22190577 -0.21119 -0.11214955
000240 98 e9 01 3e b8 74 d4 bd da 25 27 3e 40 b2 bd 3c
       0.12686765 -0.10373825 0.16323033 0.023156285
000250 f0 5e 2c 3d 70 f4 39 3c 48 21 ec 3d 28 ee 4c 3d
       0.042082727 0.011349782 0.115297854 0.05003181
000260 e0 a3 9e bd bc 10 cb 3d 38 0f 50 3e a0 7f 4b 3e
       -0.077461004 0.09915301 0.20318305 0.19872904
000270 2c 5e 22 3e 06 8c c3 bd 08 fb b7 3c 48 64 71 bd
       0.15856236 -0.09548192 0.022458568 -0.058933526
000280 fa bd 0d 3e 88 2b 03 bd 60 0b f9 3c 20 b1 82 bd
       0.13842002 -0.032023937 0.030400932 -0.0638144
000290 52 b0 d2 bd b0 21 bd 3c 34 67 9f bd 40 21 ee bd
       -0.10287537 0.023087353 -0.07783356 -0.11627436
0002a0 8f 1c 37 be 7e 37 30 3e f8 b9 92 3d ac 06 6e bd
       -0.17881988 0.17208669 0.07164377 -0.05811183
0002b0 33 e1 60 be a4 c8 1f 3e 60 cb 6c 3c 14 ae b4 3d
       -0.21960907 0.15603882 0.014452785 0.08822265
0002c0 c4 68 b9 bd 8c 08 25 be 3e bd 56 be 78 89 04 be
       -0.090531856 -0.16116542 -0.20970628 -0.12943065
0002d0 10 06 1a bd f0 2e b8 3d 54 71 c9 3d f8 d5 d0 bc
       -0.037603438 0.089933276 0.09836069 -0.025492653
0002e0 67 be 63 be d4 2a 63 3e 82 47 f1 bd d0 03 82 bd
       -0.22240601 0.22184306 -0.11781217 -0.063483834
0002f0 cc 60 1b be a4 f8 4b 3e c6 57 1f 3e 04 81 0c 3e
       -0.15173644 0.19919068 0.15560827 0.1372109
000300 2a c0 4a 3e d6 70 1b be e5 fe 3e be d4 46 f3 3d
       0.19799867 -0.15179762 -0.18651922 0.11878744
000310 c8 90 c1 3c da e7 62 3e fc 3d 38 be 24 d7 1c 3e
       0.023628607 0.22158757 -0.17992395 0.15316445
000320 88 e7 5c 3d 60 b6 8f 3d ac 85 0b 3e 06 a7 0b 3e
       0.053931743 0.07017207 0.1362521 0.13637933
000330 e0 60 af 3c 60 6c ee 3c 50 88 10 3c da 49 d1 bd
       0.021408498 0.029104412 0.008821562 -0.10219164
000340 7c fa de 3d 2c 99 57 bd a0 aa 2b 3d a4 17 56 3e
       0.1088762 -0.05263631 0.041910768 0.20907456
000350 e0 76 3e 3d 82 77 26 be e0 37 ea bc b8 cc f3 3d
       0.046500087 -0.16256526 -0.028591096 0.119042814
000360 96 ad 51 be ca f4 be bd d2 d3 04 be 58 de d4 bd
       -0.20476374 -0.093240336 -0.12971428 -0.10393971
000370 4c c4 90 bd 4d 48 49 be 88 5a 5c 3e 7e 88 02 3e
       -0.07068691 -0.19656487 0.2151891 0.1274738
000380 c0 45 3b bc ba 74 4d be c8 4b 7c bd e4 00 44 3e
       -0.011430204 -0.20064059 -0.061595708 0.19140965
000390 f6 b2 23 be 3c 0d 1e be 50 4e 1b 3c 84 12 2f be
       -0.15986237 -0.15434736 0.00947912 -0.17096907
0003a0 e8 0b 04 3d b0 c4 1a be 1f 51 61 be e4 cc 30 bd
       0.032237917 -0.15114093 -0.22003601 -0.04316415
0003b0 24 5e c1 3d 1b 8f 1b be fc 32 2e be 34 de 19 be
       0.09441784 -0.15191309 -0.17011636 -0.1502617
0003c0 80 bb e3 3a 60 2b 0c 3d 76 64 84 bd b0 50 3d 3e
       0.0017374605 0.034221053 -0.06464474 0.18487811
0003d0 bc 25 0f 3e fc ab 1b be 62 c3 9b bd 9e d3 61 be
       0.13979238 -0.15202326 -0.07605626 -0.22053382
0003e0 50 1f 8c 3d f4 6b cd 3d dd 5d 39 be 52 7e 4c 3e
       0.0684191 0.10030356 -0.18102212 0.19970062
0003f0 90 9f 04 bc 4e ed e7 bd fc 3a 90 bd 56 26 31 be
       -0.008094683 -0.11324559 -0.070425004 -0.1729978

lstm.bias_ih_l1 f4 [80]
000000 38 e4 a7 be d4 fa c0 be dd e1 30 bf 17 32 2a bf
       -0.32791305 -0.37691367 -0.6909464 -0.6648268
000010 1e c5 05 bf 82 6e 73 3f f8 5d ff be 86 e8 77 bd
       -0.522539 0.95090497 -0.4987638 -0.060524486
000020 ff ab 34 3f 26 91 87 3b 07 73 85 bd 4d d0 80 be
       0.70574945 0.004137176 -0.0651608 -0.2515892
000030 d1 bf 81 3e 1b 61 fc bd e5 7e da 3d ae af 67 be
       0.25341657 -0.12323209 0.106687345 -0.2262561
000040 00 c2 04 3e 17 33 7e be e8 38 10 3d a8 fc 37 3f
       0.1296463 -0.24824177 0.03521052 0.718699
000050 79 5d 5d be e5 16 d7 bd 40 eb 09 3e 60 d8 f0 3c
       -0.21617688 -0.10502414 0.13468647 0.02940005
000060 b8 c9 42 be 82 a4 13 3e 7c ea 8b 3d 2b 01 34 be
       -0.19022262 0.14418224 0.06831834 -0.1757857
000070 0e e3 bb bd e8 ca fa bd 5a c7 14 3e d8 95 47 3d
       -0.091741666 -0.122457325 0.14529172 0.048726887
000080 a0 18 1e be 00 be dc 3d 08 26 97 3d 60 03 59 3e
       -0.15439081 0.10778427 0.07380301 0.21192694
000090 00 f1 91 3a 70 c7 4e 3c 7e cd 5f 3e 74 52 3a 3e
       0.0011134446 0.012620792 0.21855733 0.18195516
0000a0 11 86 12 3e 9c 5b fd be d8 1c b2 be 5b 0f ea be
       0.14308955 -0.49483955 -0.3478763 -0.4571484
0000b0 27 dd b4 3e 1c dc 70 3e 2c 6f 81 be a0 b1 dc 3d
       0.35324976 0.23521465 -0.2528013 0.10776067
0000c0 4a 94 43 3f c3 8a 73 3e de c1 51 3f 77 39 93 3f
       0.76398146 0.23783402 0.8193644 1.1501912
0000d0 a0 01 ce 3c db e1 b1 be 7c 9d 74 3f 70 b6 ac be
       0.02514726 -0.34742627 0.955528 -0.3373294
0000e0 c3 4e 4a 3e dc fa 16 be cc e9 8c 3e 53 e0 21 be
       0.19756608 -0.14744133 0.27522123 -0.15808229
0000f0 40 fe 4e 3f dc b7 40 be 82 14 a1 3e f2 23 60 bf
       0.80856705 -0.18820137 0.3146096 -0.8755485
000100 fd ad 23 3f 6c cf 64 3e ac 83 95 be 4c 2d 4d bf
       0.6393736 0.2234475 -0.2920202 -0.8014724
000110 c4 07 b3 be 5e 17 9c be 0c 34 32 bd ca 65 9e 3f
       -0.34966862 -0.30486578 -0.043506667 1.2374814
000120 85 2e 99 3f 88 63 90 be b2 f7 12 bf f4 c1 1c 3f
       1.1967322 -0.28200936 -0.57409203 0.6123345
000130 e8 45 93 bd 50 dd 82 be c0 94 e9 be f5 25 79 3f
       -0.07191068 -0.25559473 -0.456213 0.9732354

lstm.bias_hh_l1 f4 [80]
000000 f2 48 b8 be 04 44 ca be 09 f2 4e bf 1b 65 0b bf
       -0.35993153 -0.39505017 -0.80838066 -0.5445115
000010 78 73 0c bf 96 95 9e 3f 74 71 b0 be 01 27 a9 bd
       -0.5486369 1.23894 -0.34461558 -0.082593925
000020 ed 07 65 3f 11 7c 8c bd 2b 77 42 bb 00 53 d2 be
       0.8946522 -0.06859601 -0.002967308 -0.4107895
000030 3e c3 7b 3e 50 aa 1b b9 ef a8 81 3e 88 9d 0b 3d
       0.24586198 -0.00014845398 0.253242 0.03408578
000040 a1 bf 96 3e 4c d1 30 be f1 45 cf bd 60 85 35 3f
       0.29443076 -0.1726734 -0.10120762 0.7090664
000050 a4 08 27 bd de 8a 39 3e 91 30 12 be 7c d2 49 3e
       -0.040779725 0.1811938 -0.14276339 0.197092
000060 96 6c 1f be b6 11 ef bd 5a d9 10 3e 2c d6 cc 3d
       -0.15568766 -0.116733 0.14145413 0.100017875
000070 68 e3 cf 3d b6 e6 49 3e 14 90 96 3d 60 2d 7f bc
       0.10150796 0.19716915 0.073516995 -0.015574783
000080 94 2c 63 3e 38 db ef bc c0 61 96 3b 4c 05 0b be
       0.22184974 -0.029279336 0.0045892894 -0.1357624
000090 d2 5e 47 3e 28 e9 37 3e 7c bd c7 3d e4 69 c0 3d
       0.19469765 0.17960036 0.09752938 0.09395197
0000a0 2c 77 68 3e b3 3c bc be 6e dc 6a be 39 67 0d bf
       0.2270171 -0.3676506 -0.2293565 -0.5523563
0000b0 a2 2b 49 3e ce 45 a1 bc 48 a7 79 be 13 c6 33 3e
       0.19645551 -0.019686606 -0.24380219 0.17556028
0000c0 3b 2d 02 3f e0 ef 4a 3e 2a 40 59 3f 11 c0 79 3f
       0.50850266 0.19818068 0.8486353 0.97558695
0000d0 1f a1 0c 3e c1 08 c1 be 7c 51 4b 3f 22 ec 26 bf
       0.13733338 -0.3770199 0.7942121 -0.6520406
0000e0 36 af 10 3e 10 b8 9f be 65 93 4b 3e c2 16 fa be
       0.14129338 -0.31195116 0.19880445 -0.48845488
0000f0 8c 24 4c 3f 41 01 5a be 62 4d 92 3e 23 cb 88 bf
       0.79743266 -0.21289541 0.28574663 -1.0686992
000100 d3 fe 2e 3f e9 36 9d 3e 01 e9 c9 be 91 c9 06 bf
       0.6835758 0.30705956 -0.3943558 -0.52651316
000110 51 be fc bd 06 d9 9d be b6 40 f6 bd 76 dc a4 3f
       -0.123409875 -0.30829638 -0.120240614 1.2879779
000120 1d 57 98 3f 4d a5 49 be 03 8b 70 bf 71 8f f1 3e
       1.1901585 -0.19691963 -0.93962115 0.4717975
000130 09 d1 ea bd 17 9b b3 bd 2c dd cc be cd 89 5c 3f
       -0.114656515 -0.087698154 -0.4001249 0.8614777

linear.weight f4 [6, 20]
000000 0a 8d b1 bd 31 9d 39 be 79 b5 d1 3e 02 52 9d 3e
       -0.08669479 -0.1812637 0.40958765 0.3072663
000010 ec cd 8a 3b fc e0 03 be a5 85 41 3f 15 26 9a bd
       0.0042359736 -0.12878793 0.7559455 -0.07526795
000020 08 1c e0 bf 0a ec 87 3d 3c 54 83 bf 8d 0b 1d c0
       -1.7508554 0.06636818 -1.0260081 -2.45383
000030 1e d4 a5 3c 8c 11 d3 3e c0 42 12 3d ab 1d c1 3e
       0.020242747 0.41224325 0.03570819 0.37717947
000040 12 3b 74 ba 30 17 b8 3d 0a 7e 96 3e f2 3a 97 3e
       -0.00093166635 0.08988798 0.29393035 0.2953716
000050 d3 6f a4 3f 2d fb 90 3d 09 75 be bc 76 5e c8 3e
       1.2846626 0.07079158 -0.023249166 0.39134568
000060 fb 1c d2 bf 8b 3f 96 bf 64 1a f3 3b 25 49 a7 bf
       -1.6415094 -1.1738142 0.0074189175 -1.3069197
000070 c2 9d 11 3e 5d d9 8f 3e f6 68 07 3e ba 55 84 3e
       0.14220336 0.28095523 0.13223633 0.25846654
000080 fa bc 9b 3e bd 92 8c 3c 99 6c 01 3f 61 ec aa be
       0.30417615 0.017159814 0.5055633 -0.33383468
000090 44 ab 71 3f 19 47 57 bc 85 37 e9 bc 6d 1e 8e be
       0.94401956 -0.01313951 -0.028468857 -0.27757588
0000a0 c2 8a c0 bc 1e 6f 6f be d9 c9 b3 be 05 d3 1b be
       -0.023503665 -0.23382232 -0.35114935 -0.15217216
0000b0 11 46 60 3d 75 e4 3b 3e 39 8c 38 bf 73 8e 8e 3d
       0.05475432 0.18348868 -0.7208896 0.06960764
0000c0 aa 74 bc 3f b2 32 5f be 53 b8 74 3f 5f 87 0c 40
       1.4723103 -0.21796682 0.95593756 2.1957624
0000d0 c5 72 a6 3c 4d b9 a3 be f6 3e 53 3c c4 17 75 be
       0.020318398 -0.3197731 0.012893429 -0.23934847
0000e0 e8 7d 07 bc c8 59 2b bd 57 ef 5d be e4 32 55 be
       -0.0082697645 -0.04183367 -0.21673332 -0.20820194
0000f0 a6 4d e5 3f 78 c4 cf 3c be cd 0a 3c f2 3c 0a 3f
       1.7914321 0.025362238 0.008471904 0.53999245
000100 8e 43 2f c0 6e 52 2c bf 85 46 8a 3d 6c 17 11 c0
       -2.7384982 -0.6731328 0.06751732 -2.2670546
000110 54 60 0d 3e 77 6e 4d 3f 97 e3 58 be 49 d2 b5 bd
       0.13806278 0.8024668 -0.21180569 -0.08877999
000120 dd 32 24 3f 92 78 af 3d 85 c9 49 3f 18 44 15 bf
       0.6414011 0.08567919 0.7882312 -0.5830703
000130 08 28 b6 3f ed c0 c2 3c ac ab dd ba 6b a4 d4 bd
       1.4230967 0.023773635 -0.0016912124 -0.10382923
000140 97 b2 dc 3b ff 0b df 3c 9e 61 9c bf d7 92 16 bf
       0.0067351568 0.0272274 -1.221729 -0.5881781
000150 82 1c 28 3e ae a6 7f 3e 8e 47 18 c0 53 4c a3 3d
       0.16417125 0.24965927 -2.3793674 0.07973542
000160 29 03 62 40 4c b6 cc be 5c 3c 32 40 24 d5 a5 40
       3.5314429 -0.3998283 2.784934 5.182268
000170 fa 1d f4 bd 2e f0 9a bf 66 b2 2b bd 39 2a 55 bf
       -0.1191978 -1.2104547 -0.04191818 -0.8326755
000180 42 d2 11 be d6 30 62 be 1f 01 42 bf f4 b6 86 bf
       -0.14240363 -0.22088942 -0.7578296 -1.0524583
000190 d8 d0 d2 bf 06 94 53 3e ce 1a dc bb ad f1 cd be
       -1.6469984 0.20661935 -0.0067170626 -0.40223446
0001a0 0c a8 19 40 82 83 13 3f cc 71 c7 3c 6b af e8 3f
       2.4008818 0.5762254 0.024346255 1.8178533
0001b0 ca 08 3a be ae 9b 25 bf 6f 81 59 3d a9 cd 72 bd
       -0.18167415 -0.64690673 0.053101953 -0.059278164
0001c0 67 0c bc be 68 07 ca 3d 39 6a 36 bf 5b e7 02 3f
       -0.36728212 0.09864694 -0.7125583 0.5113427
0001d0 62 f1 99 bf 2e 35 f5 3d 8a 2e b9 3d 66 df 0a 3f
       -1.2026789 0.11973034 0.0904208 0.5424713

linear.bias f4 [6]
000000 8e ff b8 be bb 39 6f 3e 5e cf 84 3e 55 1d 98 be
       -0.36132473 0.23361866 0.2593946 -0.2970988
000010 f3 a1 fb 3e 3b 73 38 3e
       0.49146995 0.18012707
