models/37/model.pt (torch_old, 108056 bytes, 12 tensors)

weight_ih_l0 f4 [160, 10]
000000 b2 7e 53 3d 4b a0 9b 3c 92 a8 8d 3e a4 2b 96 3e
       0.051634498 0.018997332 0.2766767 0.2933017
000010 9c 4b 16 3f c4 d1 38 bf af 5d 08 be 5c 9f 0c 3f
       0.5870912 -0.72195077 -0.13316987 0.54930663
000020 f0 3c 25 bf eb b2 f4 3d 2e 30 8e bf 05 ec 4b bf
       -0.6454611 0.119481884 -1.1108453 -0.7965701
000030 66 85 ba 3d bf e3 3d bf 71 6e ad be 4c 4e 1d 3f
       0.09107475 -0.7417564 -0.33873323 0.61447597
000040 19 af 94 3d a5 d6 dd be f3 13 0b 3f a7 4f 2b 3d
       0.0725996 -0.43327823 0.54327315 0.04182401
000050 81 d2 f2 3e e8 b3 71 bf 53 f5 45 3f 7b cc 23 bd
       0.47426227 -0.9441514 0.7732746 -0.03998993
000060 8b 3d bc 3e fd 7f e1 3c ca 3f 02 3f e9 8a c4 3e
       0.36765704 0.02752685 0.50878584 0.3838723
000070 6c 88 8a 3d 52 b4 f4 3e 1b 5f a3 be a2 ff cc be
       0.06764302 0.47793823 -0.31908497 -0.40038782
000080 8a de 12 3f 84 0a 4b 3d 28 c2 99 3e 87 50 83 be
       0.5737082 0.049570575 0.30030942 -0.25647375
000090 01 7d 55 be 4c 89 9d 3e 1e b0 4d be 67 90 71 bd
       -0.20848466 0.30768812 -0.20086715 -0.058975603
0000a0 54 04 d2 3e a2 9e 1c bf 94 fc 07 3f a8 32 99 be
       0.41018927 -0.61179554 0.5311978 -0.2992146
0000b0 9e e1 0b be fd c9 87 3e 64 4f 5e 3d f0 3b d8 bd
       -0.13660285 0.26521292 0.05427493 -0.10558307
0000c0 e2 21 b1 3e 8b 8d b4 3e 1c 01 23 3f 20 ee 32 bf
       0.34596163 0.3526424 0.6367357 -0.698946
0000d0 8a 03 ec 3e 93 5a f0 bd 84 5e 97 bd 99 3d 0c 3f
       0.4609645 -0.11736026 -0.07391074 0.5478149
0000e0 9d d4 8e 3c cf 3a 19 3e b9 48 fb 3e 81 87 27 3e
       0.017435366 0.1496384 0.4907892 0.16360284
0000f0 17 52 c4 3e 1a 36 13 3e 7f c1 3a 3e a8 4c c2 3e
       0.3834388 0.14376107 0.18237875 0.3794911
000100 31 01 b6 3e 1e 4d 06 bf 57 63 fe bc e4 44 8b 3e
       0.35547784 -0.5246142 -0.031053228 0.27200997
000110 5b 9f 03 bf 88 e4 24 be c1 a4 1e 3f 80 79 b1 bd
       -0.5141503 -0.16102803 0.61970145 -0.086657524
000120 06 3a 00 bd 93 c4 09 bc cd b4 34 3d e9 ff 2e be
       -0.031305335 -0.008408683 0.044117738 -0.1708981
000130 d2 b1 a6 be 79 9e d3 3b df aa f0 bd 87 aa d7 bd
       -0.3255754 0.0064581004 -0.11751341 -0.105305724
000140 8e 42 10 3f 0b 9e 28 bf 02 8d fb 3e 19 10 f0 bd
       0.56351554 -0.65866154 0.49131018 -0.117218204
000150 f8 00 cf bd 7e 22 0a be 11 53 00 be d6 9d 42 be
       -0.10107607 -0.1348972 -0.12531687 -0.19005522
000160 c8 e4 7e bd 07 13 38 be b0 11 b1 bf 32 ae b4 3c
       -0.0622299 -0.17976008 -1.3833523 0.022055719
000170 f2 8e 14 be b3 6a 7b bd 32 a0 10 be ea 49 56 3e
       -0.14507654 -0.061381053 -0.1412361 0.20926633
000180 7b 6b 1a 3d 6c c0 98 be ee b2 8c 3d 97 4e 04 be
       0.037700158 -0.29834306 0.06870066 -0.12920605
000190 08 13 ae bf 6e 2a 13 3e d5 f9 90 3c db 68 e6 3d
       -1.3599558 0.14371654 0.017697254 0.11250468
0001a0 c8 9e ff bd a0 1a 32 3d a5 f4 10 3e 89 ef 64 be
       -0.12481457 0.043482423 0.14155824 -0.22357
0001b0 68 ef 8a 3e 50 13 3c 3e f8 d1 06 3f c5 12 ad bd
       0.27135777 0.18366742 0.52664137 -0.08450846
0001c0 14 4e c8 3e e6 f0 a4 3d 21 7c ae 3d c9 f8 02 bf
       0.3912207 0.0805376 0.085197695 -0.51160866
0001d0 e0 5b e7 3c 9b a8 90 3d a3 1c 96 be c8 7c 52 3d
       0.028242052 0.07063409 -0.29318723 0.051388532
0001e0 df 37 c1 bf 80 ec 23 bf 3f ad c4 3e 0d 92 18 be
       -1.5095176 -0.64032745 0.38413426 -0.14899464
0001f0 ca a0 be 3c 2a 67 6f 3d 03 24 77 3e 46 bc 65 3b
       0.02327003 0.058447994 0.24134831 0.0035054847
000200 cf a9 fd 3d 71 b9 c7 3e 6b cb b4 be e7 30 46 3e
       0.12385904 0.39008668 -0.35311446 0.19354592
000210 bc 38 36 be 7a a9 fb bd 1a e6 c0 be e6 28 52 be
       -0.1779508 -0.122881845 -0.37675554 -0.20523414
000220 46 73 45 be b4 19 e1 be d9 28 c3 3c 9d 0a 84 be
       -0.19282255 -0.43964922 0.023823189 -0.25789347
000230 8d 3b 25 be a8 17 1d bf 5b b4 40 3f bc 95 97 bd
       -0.16135998 -0.6136422 0.752752 -0.074016064
000240 5f e0 df 3e db 8a af 3d df dc 3b 3e 99 ab c6 3e
       0.4372587 0.085714065 0.18345974 0.38802794
000250 6e 6e f7 bd f4 5f d9 3e d7 af be 3e 7f c7 de bc
       -0.1208161 0.4245602 0.3724353 -0.027194737
000260 1c 5c 25 be c7 fc 01 be 21 4e d8 bd 98 b7 d8 3d
       -0.16148418 -0.12694083 -0.10561777 0.10581893
000270 79 bd a0 bd 10 0c c3 bc 90 f9 f3 bc 45 ac 3b be
       -0.07848639 -0.023809463 -0.029782087 -0.18327434
000280 d4 03 8f 3e 52 88 b0 bd 4f d1 56 be 48 24 83 be
       0.27932608 -0.08619751 -0.20978282 -0.25613618
000290 52 0d ba be f3 de d6 3e 88 4d cd bd 72 f8 80 be
       -0.36338288 0.41966972 -0.100245535 -0.2518955
0002a0 d7 f1 24 3e 25 24 25 be 68 ee 0b 3f 9c 72 15 bf
       0.1610788 -0.1612707 0.54660654 -0.58378005
0002b0 73 17 a3 3e 81 41 17 be 29 31 08 be 80 6d 0b 3f
       0.31853828 -0.14771082 -0.13300003 0.5446396
0002c0 be 08 64 3e 77 a3 03 3d 3f 9d de 3e f3 a5 1f 3d
       0.2226896 0.032138314 0.43479344 0.03897662
0002d0 52 7b a9 3e 8a 3f db 3c 71 4e 05 3d a7 ed ff bd
       0.33101898 0.026763696 0.03254551 -0.124965005
0002e0 0f 8f bb bd b3 77 fe 3d 74 03 08 bd 1e 6b 8b 3c
       -0.09158146 0.124251746 -0.03320642 0.01701885
0002f0 cd e2 e1 bd b3 d2 6f be 17 fc 7c 3f bd 52 b0 3d
       -0.11029587 -0.23420219 0.9882216 0.08609531
000300 2d 12 59 be 39 c6 bd bd 78 78 37 be c0 d8 03 3e
       -0.2119834 -0.092663236 -0.17917049 0.12875652
000310 a7 f0 94 3c f8 b4 82 be e3 80 e7 bc 8a 55 8a 3d
       0.018181158 -0.25528693 -0.0282597 0.067545965
000320 a4 3b 9e 3e b7 eb 18 3e 4d a7 23 3e 71 71 09 3f
       0.30904877 0.14933668 0.15981789 0.5368872
000330 2e 53 7a 3c 62 5c 1c bf 50 8c 60 bc cb b4 59 3e
       0.015278621 -0.61078465 -0.013705328 0.21260373
000340 67 00 33 bf e7 c6 5a be 18 37 10 bd c4 4c 13 bf
       -0.6992249 -0.21364938 -0.03520879 -0.5753901
000350 44 f3 19 3f a7 f0 21 3e 3c 2c 06 3f 6a 0a 10 bf
       0.6013682 0.15814458 0.52411246 -0.5626589
000360 d1 35 4f bd ac e9 e6 3e 66 58 bd be 03 de 29 bd
       -0.050588433 0.45100152 -0.36981505 -0.041471492
000370 50 a0 2d 3e ef ab 04 bf cc 55 52 3f 5a 95 1f 3d
       0.16955686 -0.5182485 0.82162166 0.038960792
000380 b7 47 24 3f f2 fa 50 be 27 03 06 3f ee 36 ff 3e
       0.6417193 -0.20408228 0.5234856 0.49846596
000390 79 a1 83 bd 80 5a c5 3e 53 b8 0d be 5d 5b 51 3d
       -0.06427283 0.3854561 -0.13839845 0.05111252
0003a0 ce f1 d0 bd f3 2d c6 3d cd 03 86 be 36 a8 c6 be
       -0.102023706 0.09676733 -0.26174775 -0.3880021
0003b0 84 84 d7 be e7 d8 7e be 9d 0a 96 be 32 d9 e2 be
       -0.4209329 -0.24887429 -0.29304972 -0.44306332
0003c0 41 cb d2 3e e5 06 a9 bd 84 9e 89 3e 4d a9 95 bd
       0.41170695 -0.08253268 0.2687875 -0.07307682
0003d0 f2 f0 fa 3c 56 02 fe bd 48 e2 99 bd 39 02 17 3d
       0.03063247 -0.12402789 -0.07513863 0.036867354
0003e0 ce 40 9e bd cc ce a2 bc a0 db d1 bc ae 1f 1a bf
       -0.07727204 -0.019873999 -0.02561742 -0.6020459
0003f0 80 1a 17 3f 2c b1 e9 be 66 48 77 3e d6 3f 8b bc
       0.5902481 -0.45642984 0.24148712 -0.016998213

weight_hh_l0 f4 [160, 40]
000000 c0 c4 f0 3c 6a ef 6d bd f8 bb df bc b4 d7 bf bd
       0.029390693 -0.05808965 -0.02731131 -0.09367314
000010 29 a2 c2 bd 9e b0 ed 3d d0 91 1a 3d 3b cb 21 be
       -0.09503586 0.11605953 0.037736714 -0.15800183
000020 b8 45 e3 3c e0 ce 25 3d 59 c0 17 3e 20 c4 6f 3d
       0.027743205 0.040480494 0.14819469 0.05853665
000030 15 86 04 3e ac 7b 6c 3d c0 2f 07 bb 48 ca af 3c
       0.12941773 0.05773513 -0.0020627826 0.02145876
000040 46 35 16 bd 34 57 b8 bd b2 8c 8c 3d 44 e1 ca bd
       -0.0366719 -0.09001008 0.06862773 -0.09906247
000050 62 0a eb 3d 20 d4 e4 bb d0 31 9e 3c 6e fe 01 be
       0.1147659 -0.006983295 0.019310862 -0.12694713
000060 65 47 12 be be 9a a7 bd 82 ce da 3d 7d 35 21 be
       -0.14285047 -0.081838116 0.106839195 -0.1574306
000070 1f 89 f1 bd 30 9d 3b bd 97 f9 fe bd d3 cb bf bd
       -0.11793732 -0.045804203 -0.12449949 -0.09365048
000080 54 5e 56 bd ac 14 4f 3d d3 5c 99 bd 8b 2a 12 be
       -0.052336052 0.050556824 -0.07488408 -0.14274041
000090 64 5b 09 be 91 b9 0c 3e aa 7f d5 3d 00 89 9e bb
       -0.13413769 0.13742663 0.104247406 -0.004838109
0000a0 f0 2b f7 bc 60 22 19 3d 6c ba a7 bd 42 03 bc bd
       -0.030172318 0.0373863 -0.08189854 -0.09180309
0000b0 ba 13 06 be 8c d7 47 bd 56 a6 bb bd 78 94 ab bc
       -0.13093463 -0.048789546 -0.091625854 -0.020944819
0000c0 88 05 06 3d 6c af 7b 3d 80 76 8b 3d a6 1a fe 3d
       0.03272012 0.061446592 0.068097115 0.124074265
0000d0 98 fe 16 bd 00 04 a8 b9 6a ba db 3d 90 98 d6 bd
       -0.036863893 -0.00032046437 0.10728915 -0.10478318
0000e0 aa 48 c0 bd 74 c6 d6 bd e0 2b 00 be 9a 97 36 bd
       -0.093888596 -0.10487071 -0.12516737 -0.044578172
0000f0 7a f1 20 be 40 21 e5 3b a0 55 90 bd f2 86 23 bd
       -0.15717116 0.006992489 -0.07047582 -0.039923616
000100 80 8c b1 bb 84 0d 0c be ca cf e0 3d 75 06 d5 bd
       -0.0054183602 -0.13677031 0.109771326 -0.10401622
000110 1a 1a eb 3d d8 d6 02 be 34 d1 7f 3d 63 93 15 3e
       0.11479588 -0.12777269 0.06245537 0.14607005
000120 60 94 cd bc 0e f0 a6 3d 4b 2c 13 3e ca aa 9a 3d
       -0.025095165 0.081512555 0.14372365 0.07552107
000130 e6 34 c4 3d c4 c4 5d 3d 8c b0 16 be da 25 f7 3d
       0.09580402 0.05414273 -0.14715785 0.120677665
000140 48 4a 84 3d 60 41 b1 3b e2 7b 55 bd 22 da 8e 3d
       0.064594805 0.0054094046 -0.052120097 0.06975199
000150 70 8b 73 3c 34 9d 40 3d 96 4b 95 bd 45 b0 08 3e
       0.014864787 0.04702492 -0.072898075 0.13348491
000160 70 2b 26 3c 0e 08 53 bd e0 22 4c 3c b7 98 06 be
       0.010142192 -0.051521353 0.012459487 -0.13144194
000170 90 69 73 3d 6e 4f c4 bd 09 b8 00 be 0d 1f 1d be
       0.059426844 -0.095854625 -0.12570204 -0.15343876
000180 e8 b3 99 bc 37 51 1a 3e 40 de a5 bb 68 9e b5 bc
       -0.018762544 0.15070044 -0.0050618947 -0.02217026
000190 26 78 fe 3d 7e 0c f8 bd e7 9d 05 be 36 0d d5 3d
       0.1242526 -0.12111758 -0.13048516 0.104029104
0001a0 18 50 69 bd bd 6d 0b be 64 a1 64 bd 48 b7 4f 3d
       -0.05696115 -0.1361608 -0.055817977 0.0507119
0001b0 6d 2a 00 3e fc 32 63 bd be 29 f7 3d 10 99 77 3c
       0.12516184 -0.055468544 0.120685086 0.015112177
0001c0 38 2a cd 3c b5 d5 03 3e 1f a3 0f 3e 0d a2 0a 3e
       0.025044546 0.12874492 0.1402707 0.1353838
0001d0 ba d0 5a bd ac 3e 5c 3d 40 29 f1 bb 68 66 6a 3d
       -0.053421713 0.053770706 -0.0073596537 0.05722657
0001e0 00 d7 3c 3d 28 4b d3 3c f2 69 da 3d c1 90 21 3e
       0.046103477 0.025792673 0.10664739 0.15777875
0001f0 b8 28 c8 bd 90 03 61 bc 8c 31 8c 3d 90 5b cb bc
       -0.097733915 -0.0137337595 0.06845388 -0.024823934
000200 a0 55 a2 bd a0 62 12 3d 80 25 fa ba d8 33 1a 3d
       -0.07926488 0.035738587 -0.0019084662 0.0376471
000210 9a e4 25 bd 63 27 e4 bd 10 14 d7 bc da 3d 94 3d
       -0.040501215 -0.11140325 -0.026254684 0.0723836
000220 27 9e 94 bd 0e a9 b9 3d ac df a9 3d 60 f1 df bb
       -0.07256728 0.09065448 0.08294615 -0.006834194
000230 2c 47 00 bd 93 01 00 3e 68 cd 99 bc 92 64 b1 bd
       -0.031317875 0.125006 -0.018774703 -0.086617604
000240 1d 56 07 3e ae 10 c7 3d cd af 82 bd a7 0f 87 bd
       0.13216443 0.09719978 -0.063811876 -0.06594782
000250 5e 4a a5 bd a0 b0 1c bc cd 2f 20 3e 38 28 51 bd
       -0.08070825 -0.009563595 0.15643235 -0.051063746
000260 c0 a8 a8 3d f4 ec 06 3d 94 4a 29 3d 8a 86 b7 3d
       0.082353115 0.03294082 0.04133089 0.08961208
000270 78 29 e4 bc e8 35 0b 3d aa 3b ce 3d 90 43 2f bc
       -0.027851805 0.033986956 0.10069974 -0.0106972605
000280 91 17 ac bd 00 e3 94 ba 26 dd 8d bd e0 1b 0a bc
       -0.084029324 -0.0011359155 -0.06926946 -0.0084294975
000290 d4 f9 69 bd 03 31 aa bd ba 9e c8 bd 15 56 17 be
       -0.05712302 -0.083101295 -0.097959 -0.14778931
0002a0 4a 44 cd 3d ce 97 67 bd 73 b8 05 3e 7a 51 1d be
       0.10022791 -0.056541257 0.13058643 -0.15363112
0002b0 5a 8f c7 3d 00 b6 3f 3c 65 92 1c 3e 1a e7 5b bd
       0.09744139 0.011701107 0.1529022 -0.053687192
0002c0 7b 98 b6 bd 52 4e e3 3d 3c b8 00 3d d2 35 f1 3d
       -0.08915802 0.11098923 0.0314257 0.117778435
0002d0 30 6b 69 bd 25 05 02 3e 86 1e ff 3d eb 1a 00 3e
       -0.056986988 0.12697275 0.12456994 0.12510268
0002e0 a0 6d 1e bc a0 dc 42 3c 59 6e 11 3e a6 e8 1a be
       -0.009669691 0.011893421 0.1420225 -0.15127811
0002f0 f0 bb 3e 3c 84 4b cf bd 22 a1 30 bd be bc 98 3d
       0.0116414875 -0.10121825 -0.04312242 0.07457875
000300 1e f0 41 bd 00 c8 29 3c 7e f1 84 3d 48 87 bd bd
       -0.047348134 0.010362625 0.064913735 -0.092543185
000310 d8 f8 cf 3c ea ea 11 be a7 15 1c 3e 7b c9 95 bd
       0.025387213 -0.14249769 0.15242635 -0.0731382
000320 b9 18 20 3e 68 16 ff bd 1a 17 85 bd 30 0c 32 3d
       0.15634431 -0.124554455 -0.06498547 0.043468654
000330 df 72 02 3e 80 45 07 bc d4 76 98 3d 24 7a 50 3d
       0.12739132 -0.008256316 0.0744454 0.050897732
000340 fe f8 0f be b9 d7 fc bd 96 e1 cf 3d 90 97 32 3d
       -0.14059827 -0.12345833 0.10150449 0.043601573
000350 65 e6 1a be c0 62 99 3c a2 b9 66 bd 86 ac f4 3d
       -0.15126951 0.018723845 -0.056329377 0.11946969
000360 93 81 87 bd e0 43 84 3c d8 59 a1 3c 51 e6 c2 bd
       -0.06616511 0.016145647 0.019696161 -0.095165856
000370 74 50 41 3d 7e c7 cf 3d 89 24 0d be 80 fc fd bd
       0.047195867 0.10145472 -0.13783468 -0.12401676
000380 84 06 10 bd 04 5a 0a be b3 ab 0f 3e 4d 7f 8c bd
       -0.035162464 -0.135109 0.14030342 -0.06860218
000390 e6 ce 92 bd 08 c4 b9 bc 60 f1 d8 bd b4 fb e1 bd
       -0.07168369 -0.022676483 -0.10592914 -0.11034337
0003a0 7a 06 e3 3d 2a 2e f6 3d ca c3 ca 3d 80 97 04 bd
       0.1108522 0.12020524 0.09900625 -0.032371044
0003b0 10 47 4a 3d e1 b9 16 be 5e 27 8a 3d 2d a5 1f be
       0.049384177 -0.14719345 0.0674579 -0.15590353
0003c0 a9 21 18 3e 02 e7 1c be bc 38 c9 bd 27 09 21 3e
       0.1485659 -0.15322497 -0.09825274 0.15726148
0003d0 88 fd 57 bd bd 59 a1 bd 08 b1 da bd 2b 53 9e bd
       -0.05273202 -0.07878444 -0.10678297 -0.07730707
0003e0 32 d6 fa bd 70 c9 6c 3c c8 50 78 3d b2 9d c6 3d
       -0.12247886 0.014452323 0.060623914 0.09698047
0003f0 b0 ed 38 3c 40 53 78 3d d2 0c bf 3d 30 43 b1 3d
       0.011287138 0.06062627 0.09328617 0.08655393

bias_ih_l0 f4 [160]
000000 82 8a d1 3e 8c cd c6 3e 4a 26 68 3f d9 a6 2d 3f
       0.40925986 0.38828695 0.90683424 0.67832714
000010 36 a3 f1 3e 16 d5 3d 3f e3 3c 8f 3e 87 05 e0 3e
       0.47194833 0.7415327 0.2797614 0.43754217
000020 e6 37 2f 3f 1f 2a 00 be 20 ec 88 be 87 7f 09 3f
       0.6844467 -0.12516068 -0.2674265 0.53710216
000030 32 55 f8 3e c3 a8 92 3c 10 81 39 3f 1b 13 23 3e
       0.485025 0.017902737 0.7246256 0.15925257
000040 48 4e 4d be a0 d3 1e 3f 26 97 03 3e 8b 4e 1f 3e
       -0.20049393 0.62041664 0.12850627 0.15557306
000050 b2 e9 50 3e 0f 87 43 3f ab 29 1d 3f 01 a8 5e 3e
       0.20401648 0.7637796 0.61391705 0.21743776
000060 2e 7c 05 3f da ca 2d 3f 27 36 3a 3e 1b 47 b0 3f
       0.5214261 0.6788765 0.1818472 1.37717
000070 4d 48 1e 3f d1 73 7b be 28 34 08 3e 58 93 2b 3e
       0.6182907 -0.24555899 0.13301146 0.16755426
000080 27 57 1c be 88 de d6 3e 02 8d c1 bc de aa f5 3e
       -0.15267621 0.41966653 -0.023626808 0.47981924
000090 b7 78 63 3d 62 20 d1 bc 3a 02 d6 3d af 8f f0 3e
       0.055535045 -0.025528137 0.104496434 0.46984622
0000a0 71 61 13 be da ef 9c 3d 28 5e 72 3d 74 d0 14 be
       -0.1439264 0.076629356 0.059171826 -0.14532644
0000b0 68 9b d3 bc f9 6f 0c 3e 41 05 e4 bd 38 a3 85 bc
       -0.02583094 0.13714589 -0.111338146 -0.01631318
0000c0 47 64 16 be 32 b0 9d 3d fd 72 03 3e 8e 28 b7 3d
       -0.1468669 0.07699622 0.12836833 0.08943282
0000d0 30 92 2b 3c 0c 62 e6 bd 1e 0e b2 3d 78 ba f5 bc
       0.010471866 -0.1124917 0.08694099 -0.029996142
0000e0 2b 0d da bd d0 2c 8d bd 58 76 c8 3c a8 4b c0 bc
       -0.10647043 -0.06893313 0.024470493 -0.023473576
0000f0 1e ef d6 3d e1 7d 1a be c6 4e f0 bd 06 86 bf 3d
       0.10494827 -0.15087081 -0.11733775 0.09351735
000100 1e 79 ef 3d 5e 17 da 3d 02 74 3c bd 18 5c 79 3d
       0.11693023 0.10648988 -0.04600907 0.060878843
000110 d0 ed 15 be bc b4 15 be 5d f0 0e 3e f8 b2 a7 bc
       -0.146415 -0.14619726 0.13958879 -0.020471081
000120 48 0c 1e be 4b 52 a5 bd 09 2a 95 bd eb 54 0c 3e
       -0.15434372 -0.08072337 -0.07283408 0.13704269
000130 30 34 7a 3d 94 cd b3 3d 86 7e 16 bd 66 26 8f 3d
       0.061084926 0.08779445 -0.036741756 0.06989746
000140 5b 9e cc 3c 13 1f a4 be da 4c f5 3d b0 f1 3a 3d
       0.024977854 -0.32054958 0.11977549 0.045640647
000150 f7 e3 03 3e 23 6b 92 3e 30 9d a8 3e d4 f2 38 3e
       0.1287993 0.28597364 0.32932425 0.18061382
000160 79 b1 08 3b c3 e4 79 3d 32 d2 84 be e9 09 88 bd
       0.0020857735 0.06100918 -0.25941616 -0.06642515
000170 0f 01 a1 be db 13 fe bd 81 3a 9e be 59 87 79 be
       -0.3144612 -0.12406131 -0.3090401 -0.24368037
000180 9f 55 1d 3e bc 10 66 3e 8c 0a 9c bd 52 19 d3 be
       0.15364693 0.22467321 -0.07619199 -0.41230255
000190 6b 61 95 3e 70 74 57 bc a7 41 63 be 04 21 58 3e
       0.29175887 -0.013150319 -0.22193013 0.21106344
0001a0 4e 5d 4e be 6d 96 a0 bd ed da 19 bd 72 59 5f 3e
       -0.2015278 -0.078411914 -0.0375623 0.21811464
0001b0 d5 a7 91 be a0 3a 21 be b8 be b2 be f7 9f 53 3d
       -0.28448358 -0.1574502 -0.34911132 0.051666226
0001c0 af fe 86 3b 53 3f 90 3c bb 3f 0d bd 76 63 2b 3e
       0.004119716 0.01760832 -0.034484606 0.1673716
0001d0 0a 11 6b 3d 92 82 c6 be 01 e1 77 3d 80 19 95 bc
       0.057389297 -0.38771492 0.060517315 -0.018200636
0001e0 bd a2 dd 3e 28 a5 a6 3e 8c b2 86 3f 23 9a 1f 3f
       0.43288222 0.3254788 1.0523238 0.6234457
0001f0 8c 27 f7 3e c2 9f 54 3f 30 5f a0 3e 19 5d 84 3e
       0.4827236 0.8305627 0.31322622 0.25852278
000200 d2 15 43 3f 25 d8 42 3d 9f 6f e6 bd 3a c8 2e 3f
       0.7620517 0.047569413 -0.11251759 0.6827427
000210 27 05 98 3e 4f d8 e4 bd a3 18 55 3f 63 42 c1 3e
       0.2969143 -0.1117407 0.8324072 0.37745962
000220 48 24 ba bc 13 4a 07 3f 74 cf 4e bd 14 11 36 3e
       -0.022722378 0.52847403 -0.05049081 0.17779952
000230 40 53 87 3d 37 56 65 3f 00 f6 29 3f 78 99 8c 3e
       0.066076756 0.8958468 0.6639099 0.27460837
000240 9a 67 8a 3e 46 75 3a 3f 44 68 2f 3e d2 98 8f 3f
       0.27032167 0.72835195 0.17129618 1.1218512
000250 8c dd 05 3f 54 55 1f be 2b ad 48 3d 4a fb b7 3e
       0.5229118 -0.15559894 0.04899327 0.35933906
000260 05 eb 68 be 19 23 06 3f fe c3 25 be e2 e0 d7 3e
       -0.22745903 0.52397305 -0.16188046 0.4216376
000270 f6 06 7e 3d fa 8e 3f 3d ab 09 43 3d 69 47 33 3f
       0.062018357 0.046767212 0.047616642 0.7003084

bias_hh_l0 f4 [160]
000000 1a 47 c4 3e 1a d7 de 3e 8e b5 7c 3f 9d 05 24 3f
       0.38335496 0.43523484 0.9871453 0.64071065
000010 32 34 ef 3e 64 5f 0d 3f ab 36 d8 3e 61 3b 08 3e
       0.4671951 0.5522368 0.42229208 0.13303901
000020 73 dd 3a 3f 1f 69 4b be 1e fa 4a be 52 73 29 3f
       0.72994155 -0.1986432 -0.19821975 0.6619159
000030 4d 13 a2 3e 48 c3 22 be 80 46 2b 3f 3c e9 a7 3e
       0.3165535 -0.15894806 0.6690445 0.3279513
000040 c0 c8 4e 3d ac 29 54 3f 03 10 2c 3c 4a b9 d8 3d
       0.05048442 0.82876086 0.010501864 0.10582216
000050 56 df 46 3e 8d 57 5a 3f ae 70 47 3f 65 8c b0 3d
       0.19421133 0.8528984 0.7790631 0.08620528
000060 97 b4 a0 3e 34 39 25 3f 45 31 34 3e cf d1 ab 3f
       0.3138778 0.6454041 0.1759692 1.3423404
000070 39 c8 9e 3e 2f 73 84 be 4c 13 66 3e a0 2e 95 3e
       0.31012133 -0.25869128 0.22468299 0.29137135
000080 47 3f 71 be d6 d5 a2 3e 5d 7c 56 be 2a 48 c3 3e
       -0.23559295 0.3180377 -0.20945878 0.38140994
000090 a5 81 60 3c bc ba 5e be 5c c7 21 3e cb 8e f4 3e
       0.013702785 -0.21750921 0.15798706 0.47765192
0000a0 04 b6 10 3d 00 6c 4b 3c 4b 09 1d 3e 47 11 c5 bd
       0.035329834 0.012415886 0.15335576 -0.09622436
0000b0 52 ef 80 3d a8 2c 8c bd 0e ee e8 3d e6 e9 01 be
       0.06295647 -0.06844455 0.1137353 -0.12686881
0000c0 ae 32 f4 bd f2 b0 bf 3d 12 a7 92 3d 3e 70 eb bd
       -0.11923729 0.093599215 0.071607724 -0.11496018
0000d0 50 21 92 bc c6 8f b9 3d 58 07 c2 3c cd 20 a1 bd
       -0.01783815 0.09060626 0.023685142 -0.078675844
0000e0 f2 3d 92 3d 37 40 c1 bd bc 62 0b be 60 98 bb bc
       0.071407214 -0.09436076 -0.13611883 -0.022899806
0000f0 70 39 48 bc dc 40 5e 3d f9 11 16 3e f0 7c e9 3c
       -0.012220725 0.054261073 0.14655294 0.028501958
000100 00 b9 e0 3c e0 9e 08 3c bd b5 8d bd 63 e3 f3 bd
       0.027431965 0.00833866 -0.069194295 -0.11908605
000110 6a b9 ec 3d d6 38 43 bd c0 f9 23 bd d5 81 9c bd
       0.115588024 -0.047661625 -0.040033102 -0.07641951
000120 ed ef d4 bd c0 6f 65 bd bd e0 eb bd ba 56 1f be
       -0.10397325 -0.056014776 -0.11517475 -0.15560427
000130 34 76 93 3d ac f8 78 bd 28 75 90 3d 87 5e ad bd
       0.0720028 -0.060784027 0.07053596 -0.08465295
000140 a7 fc 83 bd 11 b3 46 be fd a6 00 3e 80 96 5d be
       -0.06444674 -0.19404246 0.12563701 -0.21639442
000150 b0 28 83 3d 30 77 70 3e bd 03 a1 3d c2 66 93 3e
       0.06404245 0.23482966 0.07862041 0.28789335
000160 98 3e 83 bd 0e 26 b7 bd 1b 17 b8 bd 25 fb 70 be
       -0.06408423 -0.08942805 -0.08988782 -0.23533304
000170 26 19 4d be 43 cb ca 3b 5c ed 37 be 58 f5 61 be
       -0.20029125 0.0061887815 -0.17961639 -0.22066247
000180 f5 31 d9 3d 72 13 14 3e 2d 08 4a be cc 53 de be
       0.10605232 0.14460543 -0.19729681 -0.43423307
000190 d7 c0 27 3e 8d 36 d4 bd 99 f0 5c be a0 30 24 3e
       0.16382156 -0.10361967 -0.21576156 0.16034174
0001a0 e8 65 a4 be 1d 7b 1a bd 1a 23 9a bd 4a 97 ee bc
       -0.32108998 -0.037715066 -0.07526226 -0.029124875
0001b0 09 cb 54 be 8d 1e 9f 3d a2 6e be be 2f 2f 6b 3d
       -0.20780577 0.07769499 -0.3719378 0.057418045
0001c0 fa 55 38 be ef 7d 00 3e 52 6f 6d be 8e 98 6b 3e
       -0.18001547 0.1254804 -0.23186997 0.23007414
0001d0 1b 77 a4 3e 93 53 1a be b3 0c 0e 3e b5 e4 1a be
       0.3212212 -0.15070944 0.13872032 -0.15126307
0001e0 30 93 48 3e d4 7f 03 3e 59 11 91 3f 8b f8 3d 3f
       0.19587398 0.12841731 1.1333419 0.7420737
0001f0 04 9f 21 3f 97 5c 06 3f ae d2 e4 3e d7 c6 3b 3e
       0.63133264 0.5248503 0.44691986 0.1833757
000200 92 54 65 3f d4 1b 1f be 47 e8 1e 3d 5c c4 fd 3e
       0.8958217 -0.1553796 0.038795736 0.49563873
000210 d9 88 0c 3f 47 64 34 bd eb d0 50 3f 6f 60 67 3e
       0.5489631 -0.044040944 0.81568784 0.2259538
000220 36 a5 f9 3d cd 25 32 3f ad 24 13 3e 4c 97 0b 3e
       0.121897146 0.6958893 0.1436946 0.13631934
000230 45 22 a2 3e 53 f7 61 3f ae 17 35 3f 65 82 31 3e
       0.3166677 0.8826801 0.7073926 0.17334898
000240 a7 1a 7f 3e de 48 22 3f 2b e6 c7 3e 6e 2e 8f 3f
       0.24912511 0.63392437 0.39042792 1.1186044
000250 b9 05 2a 3f 1e 27 21 bd 09 25 77 3e 17 92 59 3e
       0.6641498 -0.039343946 0.24135222 0.21247135
000260 05 6b b9 bd 3b a7 cf 3e 2c 62 33 3d bc a0 8e 3e
       -0.090536155 0.40557274 0.043794796 0.27857006
000270 ea 81 89 3e 89 ea a9 bd 8c 3f 95 bd e5 ab 27 3f
       0.2685693 -0.08296687 -0.07287511 0.65496665

weight_ih_l1 f4 [160, 40]
000000 5c c4 13 be b8 17 6a be 43 36 26 3e 75 6a f2 3d
       -0.14430374 -0.2286061 0.16231637 0.11836711
000010 9c 09 ad 3e be 52 4d 3e 94 25 e2 bd 83 ac 7f 3e
       0.33796394 0.20051095 -0.11042324 0.24968152
000020 81 c1 03 3f 3e b5 de 3d 4a c2 89 be 8f 79 3e 3e
       0.5146714 0.10874413 -0.26906043 0.18601058
000030 f2 2c cc 3c 40 83 68 3e 16 f8 a3 be 3d e6 25 be
       0.024923775 0.22706318 -0.32025212 -0.1620111
000040 2a 8a 8b 3e 74 6a 39 3e d9 db af 3e ae 05 93 be
       0.27253848 0.18107015 0.34347418 -0.2871527
000050 ae a7 88 be 74 d5 a6 be 20 4d 45 bd 6a cd d7 3d
       -0.2669043 -0.32584727 -0.048169255 0.105372265
000060 95 01 0b be 76 97 67 3e 2c 19 6a 3e 3a 15 c0 3e
       -0.13574822 0.22616372 0.22861165 0.37516195
000070 55 2d 26 bc 20 cc 9d 3d c7 3c 24 be 92 55 a1 3d
       -0.010142644 0.077049494 -0.1603881 0.07877649
000080 c6 2b cc 3d d6 57 11 be 7b c9 8c bd 97 09 e1 bd
       0.099692866 -0.14193663 -0.06874367 -0.10988157
000090 34 16 ff bc 7f 53 35 bd 2e 0a 4e 3e 21 a6 cc 3d
       -0.031138517 -0.04426908 0.2012107 0.09992624
0000a0 d9 7a a9 3e 3b 5f 86 3e 1a 9b 26 be 77 b7 02 bf
       0.33101538 0.2624453 -0.16270104 -0.51061195
0000b0 b9 c9 b4 bd c4 49 0a be d9 f7 f9 be f4 ba b5 bd
       -0.08827538 -0.13504702 -0.48821905 -0.08873549
0000c0 4e 5f cf be 16 77 ad 3e 92 bf aa be 33 03 1c 3f
       -0.405024 0.33879918 -0.33349282 0.6094238
0000d0 c8 f8 0a 3e 97 a0 49 3e 6d ff c7 3c 95 c0 d9 3d
       0.13571465 0.19690166 0.024413789 0.10632435
0000e0 2f c5 9c bd 22 cc 30 bc bb 9a 4e be 21 af 19 3e
       -0.07654797 -0.010790857 -0.20176212 0.15008213
0000f0 76 ab 02 3e 7d e0 a9 3e 06 57 5c 3e ae a5 0c bd
       0.1276072 0.33179083 0.21517572 -0.034337692
000100 f7 e2 b4 3e ab 02 37 be 3a 94 ea be 93 e4 02 bf
       0.3532941 -0.17872111 -0.45816213 -0.51130027
000110 2c 35 61 3e 89 98 36 3e 06 df 82 3d c1 ab 97 3e
       0.2199294 0.17831625 0.063901946 0.29623225
000120 fa 8f 46 be b2 15 f9 3e 80 96 12 be 5f 65 d1 3c
       -0.1939086 0.48649365 -0.14315224 0.025561033
000130 d9 8f 17 be 51 27 c8 3e 7d 29 14 be d8 16 14 be
       -0.14800967 0.39092496 -0.14468952 -0.14461839
000140 fd 57 f7 3e 17 07 53 3e cc 9f 8e be a8 d8 85 be
       0.48309317 0.20608173 -0.2785629 -0.26141858
000150 27 1b 66 3e df 3a b5 be a2 e4 dd be ce d8 5f 3c
       0.22471295 -0.35396478 -0.43338495 0.01366253
000160 00 b5 9a 3e 9b 1c df 3e ad e9 15 be 75 12 8c 3e
       0.30216217 0.43576512 -0.14639921 0.27357832
000170 4b c5 c5 3e 63 c1 91 3d 33 7f af 3e 52 25 0d be
       0.38627085 0.07116964 0.34276733 -0.13783768
000180 da f5 7f 3e d1 ff 05 bf 9b 92 2b 3e bd e0 93 bd
       0.24996129 -0.5234347 0.16755144 -0.072206
000190 72 c9 cb be af c1 92 3e 8a a6 89 3c 95 e3 ba bc
       -0.39802128 0.28663394 0.016803045 -0.022813598
0001a0 43 72 6e 3c 13 41 99 ba 93 47 a4 be 2e 8a 68 bd
       0.014553609 -0.0011692367 -0.32085857 -0.056772403
0001b0 e2 49 01 3f f7 05 93 3e 8b 45 26 be 60 a5 39 3e
       0.5050336 0.28715488 -0.16237466 0.18129492
0001c0 e2 aa c7 3a 6b 8c e2 3e c6 1a 0d be 24 bb 20 bd
       0.0015233422 0.44247755 -0.13779745 -0.03924097
0001d0 e1 8e 18 bf ab 92 a1 3e ad 3e 8d be b6 d9 01 3e
       -0.59593016 0.3155721 -0.2758688 0.12680706
0001e0 9d 36 cb be 17 29 4e be fb a8 da 3e a0 02 85 3e
       -0.39690104 -0.20132862 0.42707047 0.25978565
0001f0 2f 3a 91 3e 13 72 32 3e 59 0e 76 3e 92 30 b0 3e
       0.28364703 0.17426328 0.2402891 0.34412056
000200 79 67 d8 3e d8 49 36 3e 9c a8 9f bd 4b a3 47 bd
       0.42266443 0.17801607 -0.077958316 -0.048739713
000210 24 e8 02 bf bc 4b 76 3e a3 d4 47 bf 2b db 3e be
       -0.5113547 0.24052328 -0.7805883 -0.18638293
000220 4f 64 93 3e cc 0c 68 3e 88 08 07 be 0c 8a 6f be
       0.28787467 0.22661132 -0.13186848 -0.23392504
000230 c6 88 02 3e dc 28 30 bf 6b 98 14 bf 67 f6 67 be
       0.12747487 -0.68812346 -0.5804507 -0.22652589
000240 36 6f 96 be 50 b8 af 3e 26 2b 10 3f f2 58 aa 3e
       -0.29381722 0.34320307 0.5631584 0.33270985
000250 5f 2b 92 bb 68 ad 90 bd 86 ab a0 bd 73 ac 1d 3e
       -0.0044607366 -0.070643246 -0.078452155 0.15397815
000260 56 a3 af bc 6f 50 1a bf 2e 2f d2 3e 8d 1b b2 3c
       -0.02144019 -0.6027898 0.4105162 0.021741653
000270 45 16 3d be 4c bc 87 3c 81 47 c2 3d b1 85 4f 3d
       -0.18465526 0.01656928 0.094862945 0.050664607
000280 61 6d 91 3d 09 3a 01 3f 54 43 94 bd ab d8 5b bd
       0.071009405 0.5047918 -0.07239404 -0.053673428
000290 e3 e0 bd bd 7f 60 26 be a7 f5 12 3e 11 5e 67 3e
       -0.09271409 -0.16247748 0.14351521 0.22594477
0002a0 2b c9 75 3e a6 98 b7 3d 8a cc 4c 3f 0e 05 99 bd
       0.2400252 0.08964662 0.799996 -0.07471667
0002b0 e4 34 ab 3e c7 11 1d 3e f2 66 a1 3d 8f 5c 47 3c
       0.3343879 0.15338813 0.078809634 0.012168064
0002c0 8e 6b 5f bd d0 df 95 be 22 38 ed bd 39 22 ca bd
       -0.05454593 -0.29272318 -0.11582972 -0.09869809
0002d0 85 1c cb 3e a0 f8 b6 bd 03 4f d3 3d b7 65 4a 3f
       0.39670196 -0.0893414 0.10317805 0.79061455
0002e0 f4 82 0a bd aa 19 3d be f0 f8 c3 bd cb eb 88 bd
       -0.033816293 -0.18466821 -0.095689654 -0.06685599
0002f0 4a 8a 79 3b a7 95 06 3e 5c 0c 9d 3d b5 83 f8 bd
       0.0038076811 0.13143025 0.07668373 -0.12134496
000300 7d 38 22 be 01 1c 63 3e ec 86 2c bf a4 59 55 3e
       -0.15841861 0.22178651 -0.67393374 0.20834976
000310 a1 97 50 3f de 44 d9 bc fb a4 6e be aa 0b 30 be
       0.8148137 -0.026522096 -0.23305123 -0.1719195
000320 d5 d3 8f be 2f 9c f9 be 57 4d 72 3e f9 ab 34 bd
       -0.28091303 -0.4875197 0.23662315 -0.04410932
000330 7d 1d e6 3e 5c 0f a5 3e dd 1e 5c 3f 65 89 f5 3e
       0.44944373 0.3223828 0.85984594 0.47956386
000340 29 d2 29 3d 21 93 b0 be 11 ce 98 be 63 15 1f bf
       0.04146019 -0.3448725 -0.29844716 -0.6214201
000350 e9 c8 38 bf bf c1 82 be 65 da 30 bf 6a d8 31 bf
       -0.72181565 -0.25538442 -0.69083244 -0.69470847
000360 52 49 a3 3e 7b ac 86 3e 8c 44 98 bd 80 ca 79 be
       0.31891876 0.26303467 -0.07434949 -0.24393654
000370 69 69 ac bb da 1a bc be c0 6f 1d bf 35 c5 43 3d
       -0.0052615893 -0.36739236 -0.6149864 0.047795493
000380 a8 44 39 bf bf f8 36 3e da 95 95 3e a5 88 14 3e
       -0.72370386 0.17868327 0.2921589 0.14505251
000390 e7 ea 89 be 2b 79 1e bf 86 3d 49 bd 8b 81 d0 3e
       -0.2693703 -0.6190364 -0.04913094 0.40723833
0003a0 d8 6a 84 3e 55 62 21 bf 36 c3 3d 3f b7 18 8d be
       0.25862765 -0.6304067 0.74125993 -0.27557918
0003b0 89 0e 22 3e fb b3 04 bf 81 80 00 3f d4 8d 86 be
       0.15825857 -0.5183713 0.5019608 -0.2628008
0003c0 1c aa de 3e 23 8a 93 be 80 50 c5 3d fa 3c 4f be
       0.43489158 -0.28816327 0.09634495 -0.20238104
0003d0 e9 22 c8 3e 00 a6 5c bf ea 25 98 be 10 4a cd 3b
       0.39089134 -0.86190796 -0.29716426 0.0062649325
0003e0 52 4f 09 3f f9 d1 95 3f 71 73 89 be 52 66 00 3c
       0.5363666 1.1704704 -0.26845887 0.007836895
0003f0 46 8b 86 3e fc 7a 14 be 0b 9e dd bd 44 12 a0 be
       0.26278132 -0.1450004 -0.1082116 -0.31263936

weight_hh_l1 f4 [160, 40]
000000 32 ec c5 bd 93 22 1a 3e 36 f6 ce bd b3 b1 14 be
       -0.09664191 0.15052252 -0.10105555 -0.14520912
000010 5c e9 0a 3d e0 f2 67 3d 52 6b 6e bd b4 93 41 3d
       0.033913955 0.056628108 -0.058207817 0.04726
000020 1e 6f 52 bd 3c c3 af 3d be d6 d6 3d f6 53 b3 bd
       -0.0513755 0.0858216 0.104901776 -0.08756249
000030 c0 fe c4 bb 30 70 f6 bc d2 a9 ff bd 6b d1 00 be
       -0.006011814 -0.030082792 -0.124835625 -0.12579887
000040 74 51 45 3d 00 1e 47 bc df 21 90 bd fb 0c 83 bd
       0.048173383 -0.012153149 -0.070377104 -0.0639896
000050 30 af ab bc c0 46 11 3d d2 d3 ed 3d ea 3c 72 bd
       -0.02095756 0.035467863 0.11612667 -0.059140123
000060 cf e0 13 3e 20 0e 8a bc d0 5c 52 3d d0 92 11 3d
       0.14441226 -0.016852438 0.051358044 0.035540402
000070 0e 36 96 3d 64 0f 0c be e0 00 d4 bd aa fd e2 3d
       0.07334529 -0.13677746 -0.103517294 0.11083539
000080 c2 6a be bd e0 fb 92 3d b0 a0 e1 3c 7e 42 08 be
       -0.09297706 0.071769476 0.027542442 -0.13306615
000090 7c 0b 27 bd 28 de c0 bc 6b a7 9a bd c1 6d 1b be
       -0.040782437 -0.023543432 -0.07551464 -0.15178587
0000a0 75 3b 1f 3e 9b 4f d2 bd fb 99 0e 3e 70 66 96 bc
       0.15550025 -0.1026909 0.13925926 -0.018359393
0000b0 8e dc 1d be ec 3b f4 bd e9 16 0b 3e b1 f7 98 bd
       -0.15416166 -0.11925492 0.13582958 -0.074691184
0000c0 1c fb 9f 3d 8b 8b ee bd 7c 46 4f 3d 00 bd 3e bb
       0.07811567 -0.116477095 0.05060433 -0.0029104352
0000d0 ff 30 0c be 08 99 02 be 6a a0 0c be f0 82 dd bc
       -0.13690566 -0.1275369 -0.13733068 -0.027039975
0000e0 10 06 6e bd 8d 39 0c 3e e1 eb 1e be 2b bd 1f 3e
       -0.05811125 0.13693829 -0.15519668 0.15599506
0000f0 50 ad b8 bc a1 73 e9 bd 91 da 1c be 33 f0 b8 bd
       -0.02254358 -0.113990076 -0.15317751 -0.09030189
000100 7c 5b 1b 3d f4 4b 3d 3d 10 d7 04 3c 1f 17 09 3e
       0.037929043 0.046215013 0.0081079155 0.13387726
000110 31 5a 1b be 1a b0 42 bd 36 7c f6 3d f4 ba 0b bd
       -0.15171124 -0.047531225 0.1203541 -0.03411384
000120 d8 03 c7 bc 00 b3 74 bd ea 59 2c bd 35 5d 0b be
       -0.024293825 -0.05974102 -0.042077936 -0.13609774
000130 30 d6 93 3d 72 15 96 bd 3d 5e 1a be 74 9a 9f 3d
       0.072185874 -0.07328309 -0.15075012 0.077931315
000140 89 ef 98 bd b0 56 c5 bd 9e 67 8b 3d f0 9e 48 bc
       -0.07467563 -0.09635675 0.06806873 -0.012244925
000150 a0 1e 21 bc a3 78 16 3e d0 ce 39 3c bd 31 14 3e
       -0.009833962 0.14694457 0.011340812 0.14472099
000160 d5 5b b7 bd 5b f9 0b 3e a3 21 b7 bd a8 08 98 3c
       -0.089530624 0.1366934 -0.089419626 0.018558815
000170 e0 4a 28 3c 36 09 c8 bd bf e8 0e 3e b0 c2 30 3c
       0.010271758 -0.09767382 0.13955973 0.010788605
000180 89 3d ee bd 00 94 8a bc 16 8a 19 bd 00 80 a0 3c
       -0.11632831 -0.016916275 -0.037485205 0.019592285
000190 40 4c cb bb 76 32 df 3d 56 fb c7 bd a8 15 c8 bc
       -0.006204158 0.108982965 -0.097647354 -0.024424389
0001a0 a0 d6 a6 bb 78 5b 04 be b6 ee 9c 3d b7 e0 0c be
       -0.0050915033 -0.12925518 0.07662718 -0.13757597
0001b0 6a 5b b4 3d 44 39 af 3d 0a c7 1d bd b6 91 8c 3d
       0.08806498 0.085558444 -0.038519897 0.0686373
0001c0 f7 3f 1f 3e 11 39 85 bd be 63 ae bd ec 59 43 3d
       0.15551744 -0.06505025 -0.08515118 0.047693178
0001d0 90 8c 87 bd da bc 13 be 00 73 05 bd 3f e0 e8 bd
       -0.06618607 -0.1442751 -0.032580376 -0.113708965
0001e0 ec ae d3 bd d6 9f de 3d c5 ae ff bd 2a 75 b4 3d
       -0.10336098 0.1087033 -0.124845065 0.0881141
0001f0 44 a2 0e bd 28 ca 04 bd 9a 7e 99 bd 30 e5 f4 bc
       -0.034822717 -0.032419354 -0.074948505 -0.029894441
000200 4c f0 6f bd 9d 3e 16 be 0f 8b 09 3e fc 66 6a bd
       -0.058578774 -0.14672323 0.13431953 -0.05722712
000210 80 da b2 3a 5a e3 d8 3d a4 67 27 bd 46 13 c2 bd
       0.001364544 0.10590239 -0.040870324 -0.09476332
000220 3e 48 2e bd 41 74 c6 bd 38 95 b5 3c e2 71 d4 3d
       -0.042549364 -0.096901424 0.02216588 0.10373284
000230 d0 90 35 bc dc be 1d bd b1 71 0d 3e a2 fb d4 bd
       -0.011081889 -0.038512096 0.13812901 -0.10399558
000240 87 31 a2 bd 21 fb 85 bd fc bc 48 bd 52 13 be 3d
       -0.07919603 -0.0654204 -0.049008355 0.09281029
000250 e3 b7 09 be f8 4f ad bc 6a dd f0 3d 2a a8 36 bd
       -0.13449053 -0.021156296 0.117609814 -0.044593967
000260 08 e4 7a 3d aa 75 60 bd d0 bc 8f 3c 30 c2 b1 bc
       0.061252624 -0.054799713 0.017546088 -0.021699041
000270 72 17 49 bd d2 ff ea 3d 5d 21 01 be 70 af 33 bc
       -0.049094625 0.11474575 -0.12610383 -0.0109671205
000280 10 99 8a 3c 2f a3 0b be 5d 33 b7 bd 7e c1 ed bd
       0.016918689 -0.13636468 -0.08945344 -0.11609171
000290 86 24 bb 3d e8 2d 19 bd 50 41 f1 3c 4e 1c ee 3d
       0.09137826 -0.037397295 0.029450089 0.116264924
0002a0 c2 a1 d8 3d 1e 91 8c bd ba c8 34 bd 79 4d 1d be
       0.10577728 -0.068636164 -0.04413674 -0.15361585
0002b0 9c 05 09 be 06 0b 86 3d 20 67 fd 3c 80 68 bd bc
       -0.13381046 0.06545071 0.030932963 -0.023121119
0002c0 63 1a ed bd 94 56 a3 bd 7d 15 1a 3e 80 9d 57 3c
       -0.115772985 -0.07975498 0.1504726 0.0131601095
0002d0 ba eb 4e bd 48 20 1f 3d 3d 3c 09 be 38 cb f2 bd
       -0.050517775 0.038849145 -0.13401885 -0.11855167
0002e0 20 f8 d5 bd b9 f1 16 be 3e 4c 97 3d 31 01 8a bd
       -0.10447717 -0.14740647 0.07387589 -0.067385085
0002f0 bc bf 08 bd de f6 0a be 10 ca 78 3c e3 c9 9a bd
       -0.033385977 -0.13570735 0.015184894 -0.07558038
000300 cc 53 4e 3d 62 a1 ae 3d 5d 7a fa bd 3c 1c 14 be
       0.050372884 0.08526875 -0.1223037 -0.14463896
000310 9c e2 b8 bd c3 64 10 be 70 c8 08 3c e4 e3 62 3d
       -0.09027597 -0.14100938 0.008348569 0.055393115
000320 08 34 8e 3c 76 01 d4 bd d8 1d ce bc 19 ad 1e 3e
       0.017358795 -0.10351841 -0.025160715 0.15495719
000330 28 ec ea bd 52 5c 8b 3d 00 88 ba b8 35 f7 19 be
       -0.114708245 0.06804718 -8.894503e-05 -0.15035708
000340 ec 5c fd bd 64 da b2 bd 28 a8 c6 3c 6c ed 50 bd
       -0.12371239 -0.08733061 0.024250105 -0.051007673
000350 e8 1d 3c 3d 40 7f 8f bb 40 af 16 3c ba 81 dd bd
       0.04592696 -0.004379183 0.009197056 -0.10815759
000360 08 3c 7f 3d c0 dd 9f 3c 68 0e 17 bd 36 59 ce 3d
       0.06231311 0.019514918 -0.036878973 0.100756094
000370 4d 30 80 bd 40 6e 54 3b 44 67 5b bd b2 d9 e3 3d
       -0.06259213 0.0032414347 -0.05356528 0.111255065
000380 40 af ab 3b e4 08 1f be 49 2c 15 3e 40 43 65 3b
       0.0052393973 -0.15530735 0.14567675 0.003498271
000390 70 26 ff bc 30 12 19 be e0 a6 b4 bc d8 89 ab bc
       -0.031146258 -0.14948344 -0.022052228 -0.020939752
0003a0 10 9f 31 bd d8 4e e9 bc 12 13 91 3d db 06 1c 3e
       -0.043364584 -0.028479978 0.070837155 0.1523699
0003b0 6e 08 20 bd ec 51 68 bd b2 1d af 3d e0 25 d0 bc
       -0.03907054 -0.05671875 0.08550586 -0.025408685
0003c0 50 6e 02 bc 1d 7b d0 bd 99 f0 0e be a4 c4 72 3d
       -0.007960871 -0.10179732 -0.13958968 0.059269562
0003d0 a3 3a 12 3e 30 4c 40 3d 4f d9 e8 bd a8 b4 de 3c
       0.1428018 0.046947658 -0.11369573 0.027185753
0003e0 16 06 a4 3d fb ec 16 be 30 1c fc bd b0 43 9b bc
       0.08008973 -0.14738838 -0.12310064 -0.018953174
0003f0 26 77 87 3d f0 dc 9c 3d 00 a0 13 3a e5 95 14 3e
       0.06614523 0.07659328 0.0005631447 0.14510305

bias_ih_l1 f4 [160]
000000 ba a7 6e 3e 8f bf e2 3c a5 99 18 3e 0f 2f 96 3e
       0.2330617 0.027679233 0.1490236 0.29332778
000010 31 84 36 3e df b3 92 3d 44 a5 fe 3d 59 27 d8 3d
       0.17823865 0.07163214 0.12433866 0.1055438
000020 14 e4 d9 3e ff db 1a 3f 0b 74 3b 3e 19 d5 a1 3e
       0.42556822 0.6049194 0.18305986 0.31607893
000030 a4 b4 64 3e a4 69 c9 3e b2 5b f4 bb c1 6f 8b 3e
       0.22334534 0.3933841 -0.00745722 0.272337
000040 dd 71 a0 3d 03 5e a5 3d 7d d0 ad 3e 06 71 24 be
       0.07834218 0.08074572 0.33948126 -0.1605874
000050 b9 93 a9 3d 9f 35 b3 3e c2 20 64 3e 29 cd 69 3d
       0.08280129 0.35001847 0.22278121 0.05708042
000060 2a 8e a7 3e 97 bc e3 3d 31 30 2e bd a7 ad f0 3d
       0.3272565 0.11119955 -0.042526428 0.117518716
000070 c9 07 17 be a0 2a 17 3e f7 b7 37 3e 0f 78 94 3e
       -0.14749064 0.14762354 0.17941271 0.28997847
000080 87 e6 c6 3d 74 bb d2 3d 36 d3 f0 3e a0 46 8f 3e
       0.09711938 0.1028966 0.4703614 0.2798357
000090 13 d5 de bd 6a a4 14 3f 64 9a 07 3e 12 46 dd 3c
       -0.108804844 0.58063376 0.13242489 0.027010951
0000a0 10 46 b4 bd dd 95 14 3e 76 66 f7 3d de 4e d6 3d
       -0.08802426 0.14510293 0.1208009 0.104642615
0000b0 b6 e8 e4 3d 42 d0 d9 3d a5 41 c4 bd fe bc e8 3d
       0.111771986 0.10635425 -0.09582833 0.113641724
0000c0 08 77 19 be 6e fe 65 bd 2a 3f b1 3d d0 a1 62 3d
       -0.14986813 -0.056150846 0.08654626 0.055330098
0000d0 5a 41 be 3d fc d6 14 be b6 40 d4 3d 87 5a 07 3e
       0.092898086 -0.14535135 0.10363905 0.13218127
0000e0 de 71 88 bd 10 61 7f bc 3a 3d 1d bd 58 3e 11 3d
       -0.066623434 -0.015587106 -0.03838847 0.035459846
0000f0 67 a7 18 3e 7c 38 71 3d dc a6 f9 bd 7e 75 ed bd
       0.14907609 0.05889176 -0.12190029 -0.115946755
000100 0b 19 93 bd 6c e6 2c 3d a4 68 28 3d 1e 49 c6 bd
       -0.07182511 0.042211935 0.041115418 -0.09681915
000110 a1 00 d7 bd 8e 20 7f bd 9c 07 05 3d ae c0 8d 3d
       -0.10498167 -0.062286906 0.03247796 0.06921516
000120 40 71 13 3d c6 55 cd 3d 62 f1 ca 3d 50 61 d9 bc
       0.035996675 0.100261256 0.09909321 -0.02653566
000130 ae 8f 1b be 60 cd 2f 3c bb c9 05 be be 79 5a bd
       -0.15191528 0.010730118 -0.13065235 -0.05333876
000140 21 bd 8b 3e d7 ac 30 be 19 a0 54 be 96 90 9e be
       0.2729273 -0.17253433 -0.20764197 -0.30969685
000150 7e ef 94 bc 4b 7d 70 3d 77 44 71 3e cf b0 bf 3e
       -0.018180605 0.05871324 0.23561274 0.37439582
000160 50 b3 d9 3c 98 77 47 be 3d 7d 2d 3d af 5d 42 3e
       0.02657476 -0.19479215 0.042355765 0.1898105
000170 79 7b 80 3e 2a 37 32 be 33 42 29 3e 42 48 a5 3e
       0.25094202 -0.17403856 0.16529159 0.3228169
000180 c1 d8 69 bb 44 49 77 3d 52 75 18 3e a6 37 3a be
       -0.0035682174 0.060372606 0.14888504 -0.1818529
000190 51 48 a9 3e c2 dc 23 3e 4b c8 0e be d6 24 ba 3d
       0.33062986 0.16002181 -0.13943593 0.09089057
0001a0 9d 62 07 be 72 75 1b 3e 40 4b f3 3e c9 90 99 be
       -0.13221212 0.1518152 0.4751835 -0.29993275
0001b0 a0 7d 97 3d cb eb 87 3d fb 23 fd 3d 62 7f aa be
       0.07397008 0.06636771 0.12360378 -0.3330031
0001c0 c4 af 69 3d 2c 2d 04 3d 5f 11 57 be c6 f7 76 bd
       0.05705239 0.03226964 -0.2100272 -0.06029489
0001d0 36 0b 88 be bf 6d 82 3d ce c6 b7 3e 96 77 9c bb
       -0.26571053 0.06368589 0.35893863 -0.004774998
0001e0 aa 18 5e 3e 2c c4 8e 3d f2 80 08 3e 78 ca 83 3e
       0.21689096 0.069710106 0.13330439 0.2574041
0001f0 5c 2f 83 bd c0 7a af 3e 14 94 83 3e 46 db ac 3e
       -0.064055175 0.34273338 0.25698912 0.33761042
000200 aa 43 e0 3e b8 25 dd 3e a3 e9 0d 3d 03 c4 db 3e
       0.43801624 0.4319284 0.03464664 0.42922983
000210 85 de a6 bd f1 20 0d 3f e4 67 62 bd 73 b7 0a 3c
       -0.08147911 0.5512839 -0.05527486 0.008466589
000220 83 5a f3 3c b8 5b 61 3e a8 5c e2 3e b9 f4 e8 bd
       0.029706245 0.22007644 0.44211316 -0.11374802
000230 8f 54 4a 3e 79 1a 9e 3d a2 88 8d 3e 59 c8 5d 3e
       0.19758819 0.07719893 0.27643305 0.21658458
000240 36 2f 81 3e 37 11 d2 3d a3 50 ff bc 61 64 c6 3e
       0.25231332 0.1025719 -0.03116638 0.38748458
000250 c0 2a b5 3d 01 3a 06 3d 22 20 5e 3c 77 39 91 3e
       0.088460445 0.03277016 0.013557466 0.28364155
000260 4b 62 07 3e ea 1a 27 3e fb a1 83 3e dc 66 49 3e
       0.1322109 0.1631886 0.2570952 0.19668144
000270 cd 46 9a bd 1a 15 50 3e 86 8a 67 3e a0 1a bc 3d
       -0.075330354 0.2032055 0.22611436 0.09184766

bias_hh_l1 f4 [160]
000000 4e c6 64 3e b6 43 07 3e d6 a9 90 3e d1 46 83 3e
       0.22341272 0.13209423 0.28254575 0.25639966
000010 d5 71 83 3e 5d b0 2d 3e da 2d f8 bc 37 81 1f 3e
       0.25672784 0.16961809 -0.030295301 0.15576635
000020 a4 82 8e 3e a3 b7 bb 3e 67 07 30 3e cd 4d d7 3e
       0.27834046 0.3666354 0.17190324 0.42051545
000030 a6 66 6f 3e ee 46 d2 3d f7 25 17 3e 3b 62 bd 3d
       0.23379001 0.10267435 0.14760576 0.092472516
000040 e5 ed e0 3d 10 bb 27 3c d5 4b e2 3e dd c7 14 bd
       0.10982875 0.01023747 0.4419848 -0.036323417
000050 c8 5c 01 3e 18 13 9d 3d 13 4c 89 3e d4 e7 44 3e
       0.1263305 0.076696575 0.26815853 0.1922906
000060 8a 3a 81 3e e6 3b 3e 3e 0b 40 40 3d 8f c1 bf 3d
       0.25239974 0.18577537 0.046936076 0.0936309
000070 f2 da c9 bd 2a 41 53 3e c8 ea 7d 3c 69 f8 9b 3e
       -0.09856214 0.20630327 0.015497871 0.3046296
000080 5e 50 18 3e bf fb 22 3d 60 c9 34 3e bc 64 bd 3d
       0.14874408 0.039790865 0.17654943 0.09247729
000090 c2 aa 23 bd e4 94 45 3f cf 18 00 3e c3 6a 6c 3e
       -0.03995777 0.77180314 0.12509464 0.23087601
0000a0 79 30 16 be af 2f 11 3e ac 53 03 bd 64 15 1f be
       -0.14666928 0.14178346 -0.032062218 -0.15535504
0000b0 7c 4f 18 be 76 50 d1 3d 76 49 f1 bd c0 e4 04 bd
       -0.14874071 0.10220425 -0.1178159 -0.032444715
0000c0 4e 20 d3 bd 66 9b 9b 3d 0b a6 86 bd 20 80 84 bb
       -0.10308896 0.07597999 -0.06574639 -0.004043594
0000d0 d0 68 26 3c 82 4b d8 3d b9 03 1d 3e 28 81 b9 3d
       0.010156825 0.10561277 0.15333451 0.09057838
0000e0 cf 0b de bd fc 57 40 3d 10 25 ce bc 98 28 75 3d
       -0.10842096 0.04695891 -0.025164157 0.059853166
0000f0 5c 75 0a 3d 49 aa cc bd 80 19 e8 ba 80 bf 28 3c
       0.03380333 -0.09993417 -0.0017707795 0.010299563
000100 a5 05 0f 3e 33 fe 15 3e 55 06 09 3e d0 70 b8 3c
       0.13966997 0.1464775 0.13381322 0.02251473
000110 f2 5b a1 3d 6a 42 b1 3d 38 27 f7 3c 14 6e 36 bd
       0.07878865 0.086552456 0.030170068 -0.044538572
000120 a8 51 b3 bd de 81 18 be 3c 98 89 3d 78 50 10 be
       -0.08755809 -0.1489329 0.067184895 -0.14093196
000130 60 90 ab 3c 98 9b bf bc bf 27 07 be 3c 31 ad 3d
       0.020942867 -0.023389623 -0.13198756 0.08456656
000140 f1 26 9e 3e 53 38 84 be 9f 0a 4d be 9d 45 04 be
       0.30889085 -0.25824222 -0.20023583 -0.1291718
000150 50 74 83 be 20 0a 1d be 51 08 ab 3d c3 c5 db 3e
       -0.25674677 -0.15335894 0.083511956 0.42924318
000160 37 ab 5c bc 65 e0 0c be dc 9c 1a 3e f2 55 8f 3e
       -0.013468555 -0.13757475 0.150989 0.2799526
000170 0c 0e 3d 3e 8c e7 14 be be ef 81 3e 52 bb 1a 3e
       0.1846239 -0.14541453 0.2537822 0.1511052
000180 54 01 0b be 4a 2d 90 bb 01 91 7f bd 96 a6 4a bd
       -0.13574725 -0.00439993 -0.062394146 -0.049475275
000190 78 a0 85 3e c5 b6 3f 3c f7 40 79 be 45 02 0e 3d
       0.2609899 0.0117012905 -0.24341188 0.034670133
0001a0 05 79 e2 bb ee 01 7a 3e 58 b0 8e 3e 8f b3 75 be
       -0.0069113993 0.24414799 0.27868915 -0.23994277
0001b0 de 43 76 3e bd d4 bc 3d 96 a8 ad bd e8 41 43 be
       0.24049327 0.09220264 -0.08479421 -0.1906811
0001c0 28 98 8a 3e 5b 69 1c 3e e7 af 56 be be f8 2f bb
       0.2706921 0.15274565 -0.20965539 -0.0026851143
0001d0 3b 9d b3 3c 2f 80 ac 3c 71 30 54 3e 3e cb 84 be
       0.02192556 0.021057216 0.20721604 -0.2593631
0001e0 ce 2d 99 3e b7 b5 06 3d be 0f 9f 3e f7 32 77 3d
       0.2991776 0.03288814 0.31066698 0.06035134
0001f0 e2 9d 59 3d 29 97 21 3e 52 89 c2 3d 16 a5 dc 3d
       0.053129084 0.1578032 0.09498848 0.10773675
000200 ea c5 d0 3e 47 fa 54 3e 76 e6 04 3e b3 df bb 3e
       0.40775996 0.20798598 0.12978539 0.36694106
000210 6d 9a 45 3e a3 32 d7 3e 5a e3 33 3e 93 37 4a 3d
       0.1929719 0.4203082 0.17567196 0.049369406
000220 65 4b eb 3c 60 1c 43 3e 72 b1 3b 3e 1d a6 8a bd
       0.028722474 0.19053793 0.18329409 -0.06769965
000230 07 a4 6c 3e 51 6b 8f bd ea 43 e6 3e 14 a0 91 3e
       0.23109446 -0.07002891 0.4497369 0.28442442
000240 93 86 61 3e 7d 11 4f 3e 18 b3 c5 3c f6 39 5f 3e
       0.22023992 0.20221515 0.02413325 0.21799454
000250 f9 4a b6 3d de 63 89 3d 98 c1 4c 3d db 1b 01 3f
       0.08901019 0.06708501 0.049989313 0.5043313
000260 c0 35 87 bd 8b 8c cf 3d 12 74 9c 3e 67 f2 10 3e
       -0.06602049 0.10134228 0.30557305 0.14154969
000270 da 59 37 bc 98 4a 45 3e 11 ad a6 bc dc 06 09 3e
       -0.011190856 0.19266737 -0.020346196 0.13381523
