models/267/state_dict.pt (torch_old, 25727 bytes, 10 tensors)

lstm.weight_ih_l0 f4 [80, 10]
-0.2529062 -0.043461185 0.23192884 -0.053645693 0.15819794 0.37300125 0.323907 0.3797107
0.54811156 0.41604775 0.2883065 0.32453674 1.0001982 0.1190813 -0.504854 0.39721233
0.9689451 -0.707526 0.6486172 0.7615028 0.19427413 0.4739025 0.36592203 -0.27702945
0.19901733 0.8496871 0.53138673 0.25101066 0.6357379 0.47514218 -0.43010166 -0.4150627
-0.121625975 -0.1532984 0.5802557 -0.41799274 -0.8488008 0.3603492 -0.4049235 -0.84909594
-0.42781445 0.7991039 -0.5162898 -1.1537445 0.84230417 1.2640499 -0.0028631254 0.59721726
1.2243464 -0.29620108 0.22555065 -0.38728905 -1.0187433 -0.15559883 1.1701125 -0.16184048
-1.2604194 1.2658027 -0.26950738 -1.37106 0.089641765 -0.5282675 -0.507094 -0.15360546
0.35367498 -0.4911387 -0.46439832 0.4825669 -0.4969014 -0.3482017 -0.11894799 -0.17596248
-0.83312917 -0.45660514 0.8017394 0.40529552 -0.29486436 0.71959645 0.16633731 -0.37519974
-0.16538401 -0.603332 -0.9281326 -0.18533473 0.72317684 -0.20879498 -0.80878067 1.054
-0.31838542 -0.83902264 -0.53872246 -0.8354687 -0.050237153 0.42363048 0.1489785 -0.8372097
-0.4707204 0.10915785 -1.0665141 -0.45955697 -0.49358672 0.44758266 -0.45763034 -1.0323604
0.2628311 0.5440004 -0.2458131 0.6362654 0.57877064 -0.24443732 0.042307477 0.16694058
0.1491324 0.35472694 -0.31123903 0.0991033 0.5806626 -0.20971444 -0.09227839 0.42819408
-0.3470683 -1.137243 0.20835572 0.7610028 -0.29661456 -0.62516445 -0.4777314 0.045561586
-0.8052344 -0.32891127 -0.3736064 -0.76172554 0.0879615 0.62674075 0.5402517 -1.086656
-0.73763 0.6139486 -1.0562046 -0.835322 -0.01939267 -0.9910166 -0.40900707 0.2380474
0.45458996 0.568459 -0.40227008 0.41326213 0.626383 -0.30524397 0.04033737 -0.28177288
1.3399736 0.56453466 -1.2774068 -0.14051023 0.18343906 -0.9871475 -0.32087776 0.24647193
0.11136346 0.422298 -0.84164995 -1.0720887 0.6478264 0.7165946 -0.26576766 0.6198718
0.73592365 0.091117784 0.13154005 0.03427721 -1.0571213 -0.57191193 0.92040056 0.57053137
-0.3173028 0.97588557 0.4046199 -0.39314586 0.3857712 0.98013955 -0.295893 -0.39344838
-0.16024515 0.40352863 0.46549338 -0.15804774 0.67682904 0.49060768 0.13267475 0.38480285
-0.05332651 -0.19171739 -0.22849368 0.43239945 0.07839506 0.0038054215 0.080015294 0.30764735
0.1596562 0.16117492 -0.14048868 -0.17176667 0.05263573 0.033203304 0.21891147 -0.15006545
0.20002809 0.10422298 -0.14376304 -0.18860386 -0.031668052 -0.011432126 -0.13300186 0.06399444
0.14965153 -0.073470116 -0.030825436 -0.08954288 -0.2055191 0.014204666 -0.12191669 0.0982427
-0.17347708 -0.037118122 0.20753977 -0.17190585 0.15752423 -0.120878436 -0.04327093 -0.019500837
0.010727257 -0.03590612 0.025802001 -0.1241394 -0.08397497 -0.1857868 0.18354931 -0.11160249
0.059391886 -0.088387 -0.030264184 -0.036027536 0.18568927 -0.17913526 0.020058513 0.043144733
-0.12606075 -0.06872854 -0.20414162 -0.07372655 -0.20977998 0.17275682 -0.113120206 -0.13196158
00000000: ec7c 81be 5b04 32bd c17e 6d3e 96bb 5bbd
00000010: a4fe 213e 05fa be3e 23d7 a53e 7169 c23e
00000020: 0a51 0c3f 3604 d53e e99c 933e ae29 a63e
00000030: 7f06 803f e6e0 f33d 1d3e 01bf 6a5f cb3e
00000040: c90c 783f 6d20 35bf c70b 263f d9f1 423f
00000050: ccef 463e 59a3 f23e 225a bb3e ced6 8dbe
00000060: 33cb 4b3e 1885 593f f608 083f 7884 803e
00000070: b8bf 223f d645 f33e 4936 dcbe 1983 d4be
00000080: 0a17 f9bd 41fa 1cbe a38b 143f 2503 d6be
00000090: 024b 59bf b17f b83e 2252 cfbe 5a5e 59bf
000000a0: 7f0a dbbe 1392 4c3f 912b 04bf e6ad 93bf
000000b0: 3fa1 573f 63cc a13f 46a3 3bbb 3be3 183f
000000c0: 62b7 9c3f aba7 97be c0f6 663e c04a c6be
000000d0: 2e66 82bf 4d55 1fbe 3fc6 953f 83b9 25be
000000e0: 6c55 a1bf d305 a23f dffc 89be e57e afbf
000000f0: 1a96 b73d 8a3c 07bf ead0 01bf c04a 1dbe
00000100: e314 b53e 8876 fbbe 9ec5 edbe 0213 f73e
00000110: dc69 febe 7e47 b2be 019b f3bd 822f 34be
00000120: f447 55bf 26c8 e9be cb3e 4d3f e582 cf3e
00000130: 76f8 96be 7937 383f 5454 2a3e 2e1a c0be
00000140: 6d5a 29be f773 1abf 199a 6dbf 63c8 3dbe
00000150: 1e22 393f 5ace 55be 400c 4fbf 79e9 863f
00000160: 6a03 a3be 30ca 56bf b7e9 09bf 47e1 55bf
00000170: 79c5 4dbd 18e6 d83e d28d 183e 6053 56bf
00000180: 4402 f1be 278e df3d 8983 88bf 0d4b ebbe
00000190: 66b7 fcbe 8e29 e53e 864e eabe 6324 84bf
000001a0: cc91 863e 9c43 0b3f 6eb6 7bbe 4ae2 223f
000001b0: 502a 143f c74d 7abe 9b4a 2d3d 79f2 2a3e
000001c0: 2ab6 183e c59e b53e b95a 9fbe acf6 ca3d
000001d0: 4ea6 143f 62bf 56be 74fc bcbd 413c db3e
000001e0: f0b2 b1be 2e91 91bf 345b 553e 14d1 423f
000001f0: dddd 97be c70a 20bf 3699 f4be c99e 3a3d
00000200: d723 4ebf 0f67 a8be 5749 bfbe 7200 43bf
00000210: 2925 b43d 1572 203f ef4d 0a3f 8b17 8bbf
00000220: 52d5 3cbf bc2b 1d3f b631 87bf aad7 55bf
00000230: 60dd 9ebc 44b3 7dbf 6069 d1be b3c2 733e
00000240: 04c0 e83e 8786 113f 58f6 cdbe 1897 d33e
00000250: a35a 203f f048 9cbe cc38 253d 8944 90be
00000260: 4184 ab3f 5885 103f 1182 a3bf eae1 0fbe
00000270: 73d7 3b3e b3b5 7cbf 174a a4be 2363 7c3e
00000280: 8712 e43d 7237 d83e 5f76 57bf 343a 89bf
00000290: f3d7 253f be72 373f b312 88be ebaf 1e3f
000002a0: 7e65 3c3f f69b ba3d 6fb2 063e 4266 0c3d
000002b0: c04f 87bf d268 12bf 5f9f 6b3f 580e 123f
000002c0: 8375 a2be a3d3 793f 572a cf3e 6a4a c9be
000002d0: cd83 c53e 6dea 7a3f 4a7f 97be 1172 c9be
000002e0: 4e17 24be 4e9b ce3e 2655 ee3e 44d7 21be
000002f0: ab44 2d3f ee30 fb3e e4db 073e e104 c53e
00000300: e66c 5abd 9051 44be 3ffa 69be 7663 dd3e
00000310: 978d a03d 6164 793b 0fdf a33d f483 9d3e
00000320: ea7c 233e 0a0b 253e 44dc 0fbe 9ae3 2fbe
00000330: 9098 573d 3000 083d 542a 603e c2aa 19be
00000340: 2ad4 4c3e dc72 d53d 9e36 13be 5f21 41be
00000350: 5cb6 01bd d04d 3bbc a431 08be 840f 833d
00000360: 403e 193e 8077 96bd a085 fcbc 4262 b7bd
00000370: 9973 52be b0ba 683c 75af f9bd 7833 c93d
00000380: faa3 31be 2c09 18bd 4e85 543e 1608 30be
00000390: 084e 213e 1d8f f7bd dc3c 31bd 38c0 9fbc
000003a0: 60c1 2f3c 4c12 13bd b85e d33c cc3c febd
000003b0: 12fb abbd e53e 3ebe 5af4 3b3e d98f e4bd
000003c0: e844 733d 3e04 b5bd 98ec f7bc 9c91 13bd
000003d0: 5425 3e3e 3c6f 37be c051 a43c 88b8 303d
000003e0: 1216 01be 8cc1 8cbd 800a 51be f2fd 96bd
000003f0: 90d0 56be 2ae7 303e 91ab e7bd f020 07be

lstm.weight_hh_l0 f4 [80, 20]
0.2039989 0.08893177 0.022263974 -0.16849206 0.02462253 0.21583357 -0.029366419 0.12984449
0.026561081 0.0068516284 -0.12240647 0.14856368 -0.17573823 -0.020574808 -0.08699511 0.19306394
0.21338034 0.16037992 0.12405032 -0.053621083 0.15574217 -0.019526139 0.12013081 -0.04972391
-0.12023594 -0.16883545 0.0070120543 -0.10925359 -0.1279495 -0.08719854 0.0534271 -0.13986343
-0.07005471 -0.032098606 -0.11133332 0.20813692 -0.17066261 0.024462968 0.040137738 -0.13443506
0.050685376 0.1965056 -0.085099146 -0.123564936 0.17473269 -0.07081525 -0.13099927 0.15136853
-0.18336913 -0.011264399 0.21197873 -0.093253404 0.02369228 0.084607005 0.16008157 -0.08010544
0.17700449 0.029265285 0.2001431 0.108056396 0.20429033 -0.19848865 0.16669458 0.08507514
0.066146374 -0.13313748 -0.15914649 -0.049549833 0.13173631 -0.19176301 -0.1223383 -0.15147273
-0.08798817 0.0037488192 -0.17127697 0.122645825 -0.07884444 0.1253449 -0.10267462 -0.07348776
-0.111033276 -0.14236993 -0.082964644 -0.18731381 0.16583902 -0.063219726 -0.18904045 0.10431734
0.21447706 -0.037989095 -0.06561105 -0.21654354 0.18881717 0.17145804 0.07114527 -0.19504784
0.017862558 -0.19680476 -0.10400601 -0.12390493 0.04968068 0.20749027 0.040385544 0.13156798
-0.18871976 -0.17079109 0.19401631 0.040857434 -0.0024910867 0.034043252 -0.18393672 -0.096612275
0.16784462 0.09623402 -0.16958939 0.0807268 0.073061585 0.11695382 -0.08846992 0.18286228
-0.113074064 -0.05259353 0.04439506 0.1187416 0.01110743 -0.1201696 -0.11684495 0.1323281
0.12833998 -0.20099658 -0.15016256 -0.14502296 0.0047947466 -0.05264628 -0.0046672225 0.21161717
0.08103675 0.18369403 0.05613607 0.08159354 0.11293909 0.20676383 -0.18603705 0.14286894
-0.018882588 0.15583217 0.14293057 -0.16648199 -0.096421495 -0.15579917 -0.025905848 0.003570065
-0.030904502 0.08942479 0.098125935 -0.21569033 0.05045569 -0.082577676 -0.040070638 0.15238601
0.15941039 0.06576282 0.08364189 0.037843317 0.14616957 0.06041619 -0.0518474 0.011925012
0.09926367 -0.01807803 0.08434039 -0.14414066 0.1437181 -0.11791581 0.0562315 -0.06883216
0.11421403 -0.0630652 -0.18063101 -0.08425015 0.14537942 0.0059577525 -0.19936448 0.12848556
-0.0287693 0.1373693 0.15896443 0.22197104 -0.17847599 -0.20739262 0.046501994 -0.10169715
0.12242201 0.08897835 -0.07958102 -0.16417857 0.05047819 -0.19462761 0.037646055 -0.13270904
-0.10438061 0.087047815 0.1775735 -0.026850462 0.04121849 0.21372661 -0.16463684 0.02231823
0.12377611 0.103215545 0.14374256 -0.20030454 0.0786905 0.100456 0.071878016 0.22158232
0.19765416 0.02955848 -0.10002304 0.17044556 0.206972 0.0061638355 0.20681337 -0.16863902
0.0660595 0.032454193 -0.005324647 -0.17493096 -0.070330545 -0.03942047 -0.11992753 -0.0495473
0.033525556 0.099235356 -0.08811498 -0.0074160546 -0.13716592 0.14934096 -0.052651793 0.02743119
0.14431751 -0.16968177 0.010073304 0.12777281 -0.019490823 0.15486398 0.10566172 -0.17205325
-0.0428797 0.075128734 -0.100606166 -0.09109573 -0.10748427 0.1297605 -0.1607799 0.17797935
00000000: 16e5 503e dc21 b63d f062 b63c 2f89 2cbe
00000010: 30b5 c93c 7a03 5d3e d891 f0bc f4f5 043e
00000020: a096 d93c a083 e03b 3eb0 fabd 1421 183e
00000030: b9f4 33be 808c a8bc 7e2a b2bd 8eb2 453e
00000040: 6080 5a3e a23a 243e 180e fe3d c8a1 5bbd
00000050: e07a 1f3e 48f5 9fbc 2407 f63d 4cab 4bbd
00000060: 433e f6bd 33e3 2cbe 60c5 e53b 59c0 dfbd
00000070: 3205 03be 2695 b2bd 60d6 5a3d 5c38 0fbe
00000080: d878 8fbd d479 03bd b902 e4bd d821 553e
00000090: 2ec2 2ebe 9066 c83c 7867 243d 58a9 09be
000000a0: 789b 4f3d c438 493e 7648 aebd 9d0f fdbd
000000b0: 20ed 323e 9607 91bd ac24 06be 5a00 1b3e
000000c0: 1ec5 3bbe 508e 38bc f410 593e a4fb bebd
000000d0: 5016 c23c 7046 ad3d 6cec 233e 520e a4bd
000000e0: aa40 353e c0bd ef3c 50f2 4c3e ac4c dd3d
000000f0: 7c31 513e 9c40 4bbe fcb1 2a3e e03b ae3d
00000100: c077 873d 3155 08be 4cf7 22be c4f4 4abd
00000110: e2e5 063e 865d 44be 818c fabd ab1b 1bbe
00000120: 2433 b4bd c0ae 753b 3b63 2fbe bc2d fb3d
00000130: 3279 a1bd 6a5a 003e 1247 d2bd c080 96bd
00000140: 6a65 e3bd 6cc9 11be 5ee9 a9bd 31cf 3fbe
00000150: b4d1 293e 5879 81bd d293 41be 54a4 d53d
00000160: e09f 5b3e 749a 1bbd 165f 86bd 97bd 5dbe
00000170: 4a59 413e b292 2f3e 9cb4 913d 9fba 47be
00000180: 8054 923c 3087 49be 1a01 d5bd dec1 fdbd
00000190: f87d 4b3d 5478 543e 506b 253d c2b9 063e
000001a0: c13f 41be dce3 2ebe 36ac 463e 205a 273d
000001b0: 8041 23bb f070 0b3d e859 3cbe a8dc c5bd
000001c0: 76df 2b3e 5816 c53d d7a8 2dbe 1854 a53d
000001d0: 50a1 953d 7c85 ef3d b82f b5bd 4040 3b3e
000001e0: 6093 e7bd 506c 57bd 98d7 353d cc2e f33d
000001f0: f0fb 353c 7b1b f6bd 684c efbd 0481 073e
00000200: 8e6b 033e 0cd2 4dbe 37c4 19be e680 14be
00000210: 401d 9d3b a0a3 57bd 80ef 98bb 2cb2 583e
00000220: 98f6 a53d 4a1a 3c3e f0ee 653d 841a a73d
00000230: 9c4c e73d e6b9 533e 7f80 3ebe 3c4c 123e
00000240: a8af 9abc 7892 1f3e 645c 123e 417a 2abe
00000250: a278 c5bd d189 1fbe 8038 d4bc c0f7 693b
00000260: 702b fdbc 5824 b73d 40f6 c83d eddd 5cbe
00000270: a0aa 4e3d 7c1e a9bd 1c21 24bd 140b 1c3e
00000280: 7a3c 233e a8ae 863d 704c ab3d 9801 1b3d
00000290: 7aad 153e f876 773d f05d 54bd 2061 433c
000002a0: c04a cb3d 6018 94bc a8ba ac3d 9c99 13be
000002b0: d62a 133e d87d f1bd 0053 663d e0f7 8cbd
000002c0: 0ce9 e93d 5428 81bd 56f7 38be 588b acbd
000002d0: 58de 143e 4039 c33b 3426 4cbe b891 033e
000002e0: 98ad ebbc 8aaa 0c3e 92c7 223e 604c 633e
000002f0: 69c2 36be bb5e 54be e078 3e3d 9846 d0bd
00000300: 64b8 fa3d 483a b63d 60fb a2bd 6d1e 28be
00000310: 38c2 4e3d 764c 47be c032 1a3d e1e4 07be
00000320: 80c5 d5bd 2046 b23d d4d5 353e 80f5 dbbc
00000330: b8d4 283d 26db 5a3e 8f96 28be b8d4 b63c
00000340: 547e fd3d ac62 d33d 4031 133e a21c 4dbe
00000350: 7c28 a13d e0bb cd3d c834 933d 7ae6 623e
00000360: da65 4a3e a024 f23c e1d8 ccbd 4889 2e3e
00000370: 78f0 533e 00fa c93b e2c6 533e b5af 2cbe
00000380: 344a 873d b0ee 043d 607a aebb 1a21 33be
00000390: 7609 90bd 5c77 21bd 919c f5bd 1cf2 4abd
000003a0: 1852 093d e83b cb3d a075 b4bd 6002 f3bb
000003b0: 3975 0cbe d6ec 183e 68a9 57bd 60b7 e03c
000003c0: f8c7 133e 0fc1 2dbe 800a 253c e0d6 023e
000003d0: 38ab 9fbc aa94 1e3e 2c65 d83d ba2e 30be
000003e0: a0a2 2fbd 18dd 993d 9b0a cebd 6690 babd
000003f0: b720 dcbd f0df 043e 7ca3 24be 3840 363e

lstm.bias_ih_l0 f4 [80]
-0.257184 0.061619233 0.89590037 0.54916906 -0.24878861 0.4309955 0.40082216 0.5754238
0.45113456 0.35670942 0.38217032 0.563681 0.4632443 0.4237952 0.5905124 0.3925375
-0.005017304 0.49352926 0.98324364 0.9260731 -0.0108444095 0.17624992 -0.072518334 -0.15108454
0.21491337 -0.062455073 0.124732405 -0.17507327 -0.21468325 0.09735748 -0.01646328 0.01584275
-0.040627167 -0.09113419 0.16266438 -0.04020816 -0.18370856 -0.09229739 0.017953277 -0.12556842
-0.5278263 -0.7435786 0.98726946 0.17138578 0.12673408 0.8264418 0.48947436 -0.10981237
0.5877179 0.67530024 0.89700437 0.58985543 -0.1362792 0.5110899 -0.6065436 -0.96558475
-0.2913369 -0.41502732 0.048383757 -0.26695883 0.052973755 0.32043222 0.73275167 0.60434514
-0.56696135 0.47739998 0.39003775 0.4619124 0.23228906 0.3995655 0.45642367 0.8303343
0.48928362 0.5878771 1.2079564 -0.14024553 0.2733603 0.26996124 1.14534 1.3589412
00000000: 9fad 83be 7364 7c3d ba59 653f 5896 0c3f
00000010: 71c2 7ebe 71ab dc3e 9038 cd3e f94e 133f
00000020: 1cfb e63e 9ea2 b63e d4ab c33e 664d 103f
00000030: 5b2e ed3e affb d83e d22b 173f adfa c83e
00000040: 3268 a4bb deaf fc3e dbb5 7b3f 2013 6d3f
00000050: c0ac 31bc dc7a 343e 7e84 94bd e8b5 1abe
00000060: 4012 5c3e e4d0 7fbd b473 ff3d 6846 33be
00000070: edd5 5bbe 5c63 c73d 00de 86bc a8c8 813c
00000080: ac68 26bd 90a4 babd 7e91 263e 50b1 24bd
00000090: 191e 3cbe 6a06 bdbd c012 933c 0295 00be
000000a0: a01f 07bf 2b5b 3ebf b1bd 7c3f c17f 2f3e
000000b0: 94c6 013e b191 533f 629c fa3e 4fe5 e0bd
000000c0: ae74 163f 7ae0 2c3f 14a2 653f c400 173f
000000d0: c68c 0bbe cad6 023f 7146 1bbf 9030 77bf
000000e0: 1c2a 95be 767e d4be 0c2e 463d d4ae 88be
000000f0: 02fb 583d b10f a43e 9d95 3b3f 5db6 1a3f
00000100: 6124 11bf c56d f43e 07b3 c73e c87f ec3e
00000110: 2fdd 6d3e d993 cc3e 5db0 e93e ca90 543f
00000120: 6283 fa3e 1d7f 163f 519e 9a3f 869c 0fbe
00000130: e2f5 8b3e 5c38 8a3e 809a 923f c9f1 ad3f

lstm.bias_hh_l0 f4 [80]
-0.2314723 0.26210508 0.8156121 0.65887165 -0.22483675 0.60391355 0.29077685 0.4536869
0.3158313 0.25168917 0.4094152 0.80825317 0.50150716 0.49776253 0.52567244 0.43887284
0.09699504 0.40052018 0.7460008 1.1851434 0.14811951 -0.074849024 -0.09727985 0.1499717
-0.17048982 -0.03317295 -0.041588515 -0.13386065 0.17463636 -0.10940961 0.0011308789 0.0833334
0.057682484 -0.031244978 -0.17674875 -0.12482872 0.13057238 -0.18643838 0.13075489 -0.025366142
-0.70190334 -0.73698527 0.711817 0.1928532 0.15292893 0.94461834 0.7226953 -0.46032682
0.4536975 0.80601776 0.88827264 0.84859097 -0.04920533 0.40703848 -0.44592535 -0.7278224
-0.035054687 -0.07296402 0.15644084 -0.03999486 -0.29253805 0.25735396 0.51805925 0.8202238
-0.5161372 0.4631528 0.1505766 0.685918 0.348448 0.48641753 0.17484763 0.7765868
0.84397113 0.48424694 0.7988578 -0.19344401 0.5982076 0.30761886 0.7766235 1.0172135
00000000: 1307 6dbe a332 863e f4cb 503f d0ab 283f
00000010: 9b3b 66be 149a 1a3f b4e0 943e a649 e83e
00000020: a4b4 a13e 67dd 803e de9e d13e aee9 4e3f
00000030: c662 003f bbda fe3e 7892 063f f1b3 e03e
00000040: 56a5 c63d fb10 cd3e e9f9 3e3f c7b2 973f
00000050: a4ac 173e 724a 99bd a83a c7bd 2e92 193e
00000060: e294 2ebe 5ce0 07bd b858 2abd c412 09be
00000070: e0d3 323e 2512 e0bd 003a 943a b4aa aa3d
00000080: 7844 6c3d 78f5 ffbc a0fd 34be 33a6 ffbd
00000090: c4b4 053e b4e9 3ebe 9ce4 053e a8cc cfbc
000000a0: f0af 33bf 11ab 3cbf a439 363f 4f7b 453e
000000b0: 6799 1c3e 82d2 713f 8f02 393f f5af ebbe
000000c0: 0a4b e83e 2e57 4e3f d665 633f 423d 593f
000000d0: 878b 49bd 5967 d03e 5450 e4be 9252 3abf
000000e0: 8195 0fbd 296e 95bd 0732 203e a6d1 23bd
000000f0: 8cc7 95be e6c3 833e 889f 043f 30fa 513f
00000100: 9121 04bf 5d22 ed3e c130 1a3e 5298 2f3f
00000110: c767 b23e b80b f93e 420b 333e 64ce 463f
00000120: 7e0e 583f 37ef f73e f281 4c3f 3016 46be
00000130: 2224 193f 3880 9d3e ccd0 463f 0d34 823f

lstm.weight_ih_l1 f4 [80, 20]
-0.21722983 0.07855483 -0.16766399 0.108489744 -0.0842958 -0.10585655 0.039538924 0.10855991
0.09556671 0.019293003 0.015302122 -0.003358594 0.014237917 0.085691154 -0.093320556 0.084943585
0.018254291 -0.16699125 -0.04262122 -0.22189891 0.17023422 0.28616548 -1.8386862 -0.6109783
-0.5691881 0.9021288 0.072180435 0.6925192 -0.43847445 -0.6178729 0.5133084 -0.3978129
-0.473734 -0.7295646 0.35656437 0.2853696 0.040890478 0.28648382 1.6083527 0.074852735
-0.42654887 0.12162683 -0.03273657 -1.1623048 1.4192336 -0.022589317 -0.50292724 0.71464556
0.124170445 -0.43938637 0.16688757 -0.22586566 0.6742501 -0.6241685 0.2944614 0.5070679
0.907707 1.1944017 0.23544611 0.14567907 0.083619386 -0.6556287 0.17564687 -0.19944032
0.5626283 -0.5548163 -0.50433254 0.760992 -0.1968283 -0.47967523 0.093272984 -0.9825163
0.057164714 -0.40030816 0.42347816 -0.18317845 0.58452743 0.07543705 -1.0418307 1.1122013
0.48887 0.4974667 -1.2873122 -0.6376145 -2.407276 0.11252179 -0.09664038 0.0020231497
-0.1534401 -0.023496553 1.0114652 -0.45256582 -0.3149434 -0.7450992 0.22733065 0.76109904
-0.5547422 -0.0054389117 1.0838946 -0.3852518 -0.20637955 -0.1482252 0.12599587 0.016023213
0.139549 0.029808573 0.02489291 -0.0902051 0.12014373 0.1515 0.19959217 0.123646006
0.11532292 0.0066359527 -0.2006224 0.08498459 -0.16118714 0.08333873 0.18680237 -0.023066409
0.061390378 0.20895846 0.019027505 0.048659515 -0.036548704 0.7224779 0.41222864 -1.068265
1.0556393 0.67291254 -0.018519389 0.37988296 0.03086311 0.408658 -0.63158727 -0.015201191
-0.71210194 -0.82090867 0.8474506 -1.0680366 0.45727125 0.52192265 0.025076829 -0.4357864
1.5691329 0.10005257 0.199843 0.42420664 0.112625375 0.20776677 -0.4376646 0.23239735
0.25952077 -0.059126727 0.2350366 0.8330889 1.2382152 1.2035913 0.16503894 0.04534952
-0.82856303 -0.6630479 -0.14637388 1.165873 2.1036417 -0.891629 -0.6383147 1.0360236
-0.5918849 -0.6570586 -0.9285628 0.5652912 -0.5312799 0.7708118 0.39272228 -0.3268302
1.7228862 0.5575973 -0.87409234 0.62364143 0.3808469 0.83050793 0.30414882 -0.27845064
0.67749107 1.0383911 0.19295253 1.1541966 -0.35228306 0.1698987 0.023324886 -0.4872267
0.19784927 0.01470086 0.70016885 0.61966544 0.4558723 0.65241617 -0.44817498 0.17334339
0.15453216 0.46087435 -0.20243265 0.20592102 -0.11463565 1.4402771 0.46863756 -0.79031956
1.2682985 0.2823419 -0.02410634 0.23744345 0.1606801 0.15329978 -0.14661357 0.14119627
-1.0559667 -1.0925721 1.1800305 -0.6287794 0.57505256 0.44953308 -0.6523187 0.111320406
-0.3805476 0.85447776 0.6833586 -0.83102655 1.328032 0.6121352 -0.70761186 0.026991636
0.04872992 0.50811106 -0.5098521 -0.07126687 -0.73465014 -0.8576937 0.84806854 -1.251438
-0.44234765 -1.4864588 0.35618466 1.1213287 -0.9755744 -0.7868526 0.13499944 -1.0343357
0.6172022 0.37676865 0.72235364 0.22077154 -1.6498536 0.39963225 -0.5867597 -2.0632203
00000000: 7f71 5ebe 5be1 a03d 1cb0 2bbe df2f de3d
00000010: 47a3 acbd 52cb d8bd 91f3 213d a854 de3d
00000020: 7bb8 c33d 5c0c 9e3c c0b5 7a3c db1b 5cbb
00000030: 2746 693c d87e af3d d91e bfbd e7f6 ad3d
00000040: 068a 953c c1ff 2abe 9793 2ebd 7839 63be
00000050: e151 2e3e 4884 923e 125a ebbf 1369 1cbf
00000060: 50b6 11bf eaf1 663f 56d3 933d f048 313f
00000070: b97f e0be eb2c 1ebf 2e68 033f 22ae cbbe
00000080: 438d f2be bfc4 3abf 9b8f b63e f71b 923e
00000090: c67c 273d 02ae 923e 80de cd3f 644c 993d
000000a0: 9d64 dabe 7d17 f93d c816 06bd 67c6 94bf
000000b0: 72a9 b53f 3b0d b9bc d7bf 00bf 03f3 363f
000000c0: 134d fe3d 40f7 e0be 93e4 2a3e 5449 67be
000000d0: a89b 2c3f 82c9 1fbf a5c3 963e 34cf 013f
000000e0: 7c5f 683f 28e2 983f c918 713e e52c 153e
000000f0: a440 ab3d 48d7 27bf c6dc 333e 153a 4cbe
00000100: 6908 103f 7108 0ebf f01b 01bf 5fd0 423f
00000110: 5c8d 49be fe97 f5be e805 bf3d 3086 7bbf
00000120: 8c25 6a3d 31f5 ccbe 21d2 d83e 2293 3bbe
00000130: 97a3 153f bd7e 9a3d b55a 85bf 9d5c 8e3f
00000140: 2b4d fa3e f5b3 fe3e a5c6 a4bf b43a 23bf
00000150: cf10 1ac0 d371 e63d 64eb c5bd d296 043b
00000160: 671f 1dbe d87b c0bc b177 813f b5b6 e7be
00000170: 4340 a1be d2be 3ebf 5ec9 683e 63d7 423f
00000180: 9603 0ebf e638 b2bb 0fbd 8a3f b93f c5be
00000190: 2955 53be 59c8 17be 1005 013e 1d43 833c
000001a0: efe5 0e3e 1c31 f43c 37ec cb3c 74bd b8bd
000001b0: ea0d f63d d122 1b3e e461 4c3e 1e3a fd3d
000001c0: 6c2e ec3d 6872 d93b f56f 4dbe 670c ae3d
000001d0: 3e0e 25be 7fad aa3d 1f49 3f3e c4f5 bcbc
000001e0: 7a74 7b3d 35f9 553e 92df 9b3c 334f 473d
000001f0: 18b4 15bd 50f4 383f a20f d33e e8bc 88bf
00000200: 301f 873f ff43 2c3f f9b5 97bc 0580 c23e
00000210: a2d4 fc3c 9f3b d13e b4af 21bf 6b0e 79bc
00000220: 504c 36bf 1227 52bf 86f2 583f 6cb5 88bf
00000230: 751f ea3e b99c 053f ec6d cd3c 651f dfbe
00000240: 59d9 c83f 5de8 cc3d a5a3 4c3e 9d31 d93e
00000250: 22a8 e63d d0c0 543e 9315 e0be 92f9 6d3e
00000260: e8df 843e de2e 72bd 6fad 703e 5045 553f
00000270: d67d 9e3f 480f 9a3f f8ff 283e 6bc0 393d
00000280: b51c 54bf 82bd 29bf 09e3 15be 543b 953f
00000290: 11a2 0640 cc41 64bf 9868 23bf 6c9c 843f
000002a0: c585 17bf fe34 28bf 4bb6 6dbf edb6 103f
000002b0: f601 08bf ec53 453f e512 c93e 4a56 a7be
000002c0: 8987 dc3f b2be 0e3f 84c4 5fbf f7a6 1f3f
000002d0: 5dfe c23e 2b9c 543f 65b9 9b3e 1591 8ebe
000002e0: 0e70 2d3f 00ea 843f 5995 453e b7bc 933f
000002f0: 725e b4be edf9 2d3e d513 bf3c c775 f9be
00000300: 0099 4a3e e0db 703c 443e 333f 65a2 1e3f
00000310: 1868 e93e bf04 273f 3177 e5be ee80 313e
00000320: ae3d 1e3e b9f7 eb3e 814a 4fbe f6dc 523e
00000330: 18c6 eabd 005b b83f 43f1 ef3e 6252 4abf
00000340: 9b57 a23f 1e8f 903e a97a c5bc 6024 733e
00000350: 5389 243e 9efa 1c3e de21 16be c195 103e
00000360: eb29 87bf 67d9 8bbf 3d0b 973f b0f7 20bf
00000370: a536 133f 3329 e63e 5cfe 26bf f4fb e33d
00000380: 23d7 c2be 0ebf 5a3f 97f0 2e3f 28be 54bf
00000390: f4fc a93f e4b4 1c3f 0d26 35bf 901d dd3c
000003a0: 0699 473d 9113 023f ab85 02bf 5df4 91bd
000003b0: 0812 3cbf d091 5bbf 051b 593f 1f2f a0bf
000003c0: 647b e2be 4844 bebf d65d b63e b387 8f3f
000003d0: 3ebf 79bf 2c6f 49bf 4b3d 0a3e 1d65 84bf
000003e0: f700 1e3f d2e7 c03e 2bec 383f ef11 623e
000003f0: 672e d3bf 999c cc3e e235 16bf cd0b 04c0

lstm.weight_hh_l1 f4 [80, 20]
-0.21628082 -0.05823815 0.055099607 -0.10929283 0.11362478 -0.0027636886 -0.1875433 -0.14390066
0.0065514296 0.007425651 -0.21371347 0.12665233 -0.14902657 -0.017749593 0.07502192 0.15754005
0.21803206 -0.041652307 0.02075237 -0.20379877 -0.17852344 0.023412317 0.15730578 0.040795267
-0.014025971 -0.00013653934 -0.16312706 0.21947122 0.013833314 0.1305896 -0.17662036 0.02471006
0.18806165 -0.025930747 0.19600493 0.046696156 0.0076676607 -0.11078991 0.14424363 -0.14980668
0.13585219 -0.11015667 0.19734582 0.055862904 -0.10489501 0.14406854 -0.17479692 0.0065053254
0.13705966 0.011574298 -0.10875667 0.039351583 -0.11032287 0.18708938 -0.16018492 0.010312945
0.18066588 0.10398552 -0.021070912 -0.21626677 -0.16796774 -0.15390113 -0.16147052 0.057870746
0.042837292 -0.19866997 0.21660364 0.05329901 -0.021869704 -0.13963759 -0.057062253 -0.13490453
0.030392021 0.21184495 0.11085281 0.21022195 -0.025913581 0.22043279 -0.19994996 -0.037295997
0.030037016 0.0035223216 -0.0046251416 -0.07778457 0.12637365 -0.1491743 0.034069836 0.06402099
0.22317359 0.028917938 -0.065839514 0.21768433 0.1431401 0.1312728 -0.11078626 -0.088994965
0.15756911 0.12237698 0.1309458 -0.119154006 0.035719752 0.20145118 -0.005630821 -0.12188059
0.0017327517 0.11246863 0.1247316 -0.050958425 0.18810433 -0.09781307 -0.11400926 -0.04571694
0.09345752 -0.21714208 -0.045372233 0.09597793 -0.006106943 -0.16707174 0.04366657 0.007818848
0.09186679 -0.19575559 0.18294257 -0.103458844 0.02168946 -0.19023153 0.19947946 -0.03620477
-0.0985523 0.14460754 0.07452059 0.065365404 -0.061594322 0.031202853 0.020300046 -0.08933753
-0.06303239 -0.16929555 -0.121246845 0.103877574 0.1468114 -0.054196864 -0.19184072 0.096395075
0.12809369 -0.06691596 -0.0070943087 0.021743014 0.14908198 -0.039517283 0.07848656 -0.051500812
-0.17492047 0.17029354 0.033902436 -0.10982315 -0.14085394 0.094072014 0.10567966 -0.12227249
0.14247718 -0.034707263 -0.062290773 0.1989964 -0.11532871 -0.14189507 0.043485105 -0.15322179
0.04984632 -0.01970686 0.216836 -0.07211393 -0.1527394 -0.17816211 -0.09993979 -0.05294414
0.062591344 0.1681099 -0.22061743 0.1331375 -0.10164253 -0.038076907 -0.047802195 -0.10324093
0.18792477 -0.16033772 0.19517201 -0.059888884 0.076538205 -0.18475872 0.024144724 -0.12558499
0.02994588 -0.16192514 0.10604185 0.13269123 0.22128573 0.16305324 -0.010161936 -0.007935524
-0.18860479 -0.16850406 -0.08026162 -0.21978427 0.022842407 -0.13764235 0.10353613 -0.19660792
0.21349037 0.17523485 -0.0971929 -0.09627576 -0.22150488 -0.12916943 0.13575268 -0.18850774
0.07183951 -0.0828466 0.104364485 -0.14682731 -0.111179166 -0.09919489 -0.12760329 0.060311705
-0.13479684 -0.20580108 0.16797617 0.21587831 -0.04292071 0.19697073 0.14925247 -0.02135384
0.012980923 0.12154493 -0.0734617 0.15619409 0.009818047 0.006053999 0.13991621 0.14452717
-0.12414422 0.11311546 0.07162526 0.12193191 0.16902328 0.11083147 0.025479123 0.14236927
0.030913174 -0.007110834 0.024474934 0.20726645 0.19172826 0.05920738 -0.022016153 0.04687074
00000000: b878 5dbe 208b 6ebd 20b0 613d ebd4 dfbd
00000010: 1cb4 e83d 001f 35bb 5a0b 40be b25a 13be
00000020: 60ad d63b e052 f33b b4d7 5abe 26b1 013e
00000030: 6c9a 18be 9867 91bc 18a5 993d 2e52 213e
00000040: cc43 5f3e 9c9b 2abd e000 aa3c a0b0 50be
00000050: d9ce 36be 30cb bf3c c414 213e f018 273d
00000060: 30cd 65bc 002c 0fb9 c80a 27be 10bd 603e
00000070: 20a5 623c 48b9 053e f8db 34be c06c ca3c
00000080: 3c93 403e b86c d4bc 84b5 483e 7844 3f3d
00000090: 0041 fb3b d2e5 e2bd 9ab4 133e ec66 19be
000000a0: d61c 0b3e d299 e1bd 0615 4a3e 80d0 643d
000000b0: 32d3 d6bd b486 133e f7fd 32be a02a d53b
000000c0: 5e59 0c3e 20a2 3d3c d1bb debd 202f 213d
000000d0: f5f0 e1bd 5c94 3f3e 8407 24be a0f7 283c
000000e0: 7a00 393e 5cf6 d43d e89c acbc 0975 5dbe
000000f0: bcff 2bbe 4298 1dbe 8758 25be e009 6d3d
00000100: 2876 2f3d 2470 4bbe 58cd 5d3e 1050 5a3d
00000110: 1828 b3bc 28fd 0ebe 1cba 69bd 6a24 0abe
00000120: b0f8 f83c e2ed 583e cc06 e33d 6c44 573e
00000130: b848 d4bc 22b9 613e afbf 4cbe b0c3 18bd
00000140: 3010 f63c c0d6 663b 808e 97bb 844d 9fbd
00000150: 1868 013e 26c1 18be d08c 0b3d 701d 833d
00000160: 9e87 643e 50e5 ec3c ded6 86bd a4e8 5e3e
00000170: 5293 123e 606c 063e e8e3 e2bd fe42 b6bd
00000180: cc59 213e c8a0 fa3d a816 063e 0407 f4bd
00000190: e04e 123d 3849 4e3e c082 b8bb 889c f9bd
000001a0: 801d e33a f455 e63d 4873 ff3d c8b9 50bd
000001b0: 6c9e 403e 3852 c8bd b07d e9bd b041 3bbd
000001c0: a866 bf3d 7e5a 5ebe 3cd8 39bd 1490 c43d
000001d0: c01c c8bb db14 2bbe b8db 323d a01a 003c
000001e0: a824 bc3d 2774 48be 4c55 3b3e 3be2 d3bd
000001f0: 18ae b13c 0ecc 42be 5844 4c3e 744b 14bd
00000200: cad5 c9bd 0014 143e 409e 983d 4cde 853d
00000210: 544a 7cbd 209d ff3c 484c a63c 98f6 b6bd
00000220: 2017 81bd d05b 2dbe 4450 f8bd c4bd d43d
00000230: ba55 163e 88fd 5dbd e571 44be c86a c53d
00000240: fe2a 033e 3c0b 89bd 6077 e8bb 681e b23c
00000250: f2a8 183e e0dc 21bd 90bd a03d 84f2 52bd
00000260: 5a1e 33be 6e61 2e3e 48dd 0a3d f6ea e0bd
00000270: 043c 10be d4a8 c03d 946e d83d 006a fabd
00000280: 8ae5 113e 3429 0ebd 9c24 7fbd b6c5 4b3e
00000290: 7531 ecbd f14c 11be 701d 323d 2ce6 1cbe
000002a0: a82b 4c3d 4870 a1bc 420a 5e3e 78b0 93bd
000002b0: b867 1cbe 2170 36be 3cad ccbd f4db 58bd
000002c0: e42f 803d 0025 2c3e 89e9 61be 3255 083e
000002d0: f529 d0bd 88f6 1bbd 3ccc 43bd fb6f d3bd
000002e0: 5a6f 403e 922f 24be 2cdb 473e 0c4e 75bd
000002f0: 10c0 9c3d 6431 3dbe 28cb c53c 5a99 00be
00000300: 1051 f53c b4cf 25be 782c d93d 36e0 073e
00000310: ba98 623e 6ef7 263e 407e 26bc 0004 02bc
00000320: 9d21 41be 548c 2cbe 3460 a4bd 210f 61be
00000330: 0020 bb3c 1ef2 0cbe c00a d43d 9653 49be
00000340: 389d 5a3e c470 333e 120d c7bd 3a2c c5bd
00000350: 2dd2 62be fe44 04be c002 0b3e 2c08 41be
00000360: 9820 933d 7aab a9bd 0cbd d53d e659 16be
00000370: e7b1 e3bd b126 cbbd 70aa 02be 6809 773d
00000380: 2f08 0abe 85bd 52be f201 2c3e 340f 5d3e
00000390: a0cd 2fbd b2b2 493e a4d5 183e 40ee aebc
000003a0: f0ad 543c 8cec f83d 1673 96bd 58f1 1f3e
000003b0: e0db 203c a060 c63b 3246 0f3e eefe 133e
000003c0: 533f febd 14a9 e73d 44b0 923d 70b7 f93d
000003d0: 7014 2d3e 9cfb e23d 98b9 d03c 40c9 113e
000003e0: a03d fd3c 0002 e9bb a87f c83c a83d 543e
000003f0: 6a54 443e 7083 723d 385b b4bc 88fb 3f3d

lstm.bias_ih_l1 f4 [80]
0.035884667 -0.6368617 0.34788743 0.29180777 -0.03566279 0.0009509741 -0.08234202 -0.09646746
0.096194275 0.42725536 -0.0077702813 0.004792737 0.83960223 0.11409933 0.21877924 -0.19904576
0.5057016 0.0112461215 0.6330707 0.5053746 0.040225893 -0.17037797 -0.05330828 -0.023193583
0.011970088 0.09321201 -0.15017976 0.11436373 -0.19348633 -0.11785509 0.16306725 0.023941204
-0.19981562 -0.13702333 -0.121326685 0.1677813 -0.0447336 0.0024538934 -0.16934082 0.14607471
-0.17666148 0.55872613 0.3301983 0.20446539 0.04955166 -0.35795373 -0.14023907 0.11031057
0.068346374 -0.28205475 -0.14650597 -0.10655302 0.47481647 -0.09128361 0.11514484 -0.3295866
-0.4699441 0.04137025 0.639096 0.41601032 -0.13491407 -0.846671 0.40972275 0.20057803
-0.014944198 0.112401634 -0.39450377 -0.13166244 0.55081445 0.37046582 0.04244198 0.078663684
1.1822593 -0.11501875 0.50749195 0.1363393 0.6032425 -0.11384259 0.931651 0.4040067
00000000: cdfb 123d 5e09 23bf 4d1e b23e d467 953e
00000010: 2513 12bd cb4a 793a efa2 a8bd bb90 c5bd
00000020: 8101 c53d 37c1 da3e d89d febb 640c 9d3b
00000030: 2cf0 563f e9ac e93d aa07 603e a7d2 4bbe
00000040: a975 013f a741 383c ec10 223f 3b60 013f
00000050: e8c3 243d 9077 2ebe c859 5abd 7800 bebc
00000060: 301e 443c f0e5 be3d b9c8 19be 8837 ea3d
00000070: 4821 46be 025e f1bd 1afb 263e 5820 c43c
00000080: 779c 4cbe d84f 0cbe 207a f8bd dcce 2b3e
00000090: 943a 37bd 80d1 203b ae67 2dbe 9c94 153e
000000a0: bfe6 34be ad08 0f3f c00f a93e 605f 513e
000000b0: aef6 4a3d b645 b7be d59a 0fbe 82ea e13d
000000c0: 2ff9 8b3d 7b69 90be a905 16be 7838 dabd
000000d0: 251b f33e e7f2 babd 0fd1 eb3d 93bf a8be
000000e0: 839c f0be da73 293d cc9b 233f 4eff d43e
000000f0: ea26 0abe 6ebf 58bf 2ec7 d13e 5464 4d3e
00000100: 82d8 74bc d432 e63d 66fc c9be 85d2 06be
00000110: 2d02 0d3f b2ad bd3e a4d7 2d3d 6d1a a13d
00000120: 4654 973f f38e ebbd feea 013f 889c 0b3e
00000130: 1a6e 1a3f 4e26 e9bd ae80 6e3f f7d9 ce3e

lstm.bias_hh_l1 f4 [80]
0.009072857 -0.6405504 0.022272196 0.55433244 0.011552633 0.0027817318 0.1339655 0.22219734
-0.235124 0.3841811 -0.012367117 -0.1808703 1.0070597 -0.18178412 0.31737405 0.08360041
0.4757818 -0.15309191 0.5562052 0.8443447 -0.14881313 0.18960124 -0.14891669 0.04165113
-0.0934771 0.20475101 -0.052412957 -0.1289138 -0.05851327 0.1628946 -0.14109558 0.013150632
0.03854975 -0.17724384 -0.09122819 -0.09185924 -0.16634361 -0.12976816 0.07985613 -0.20104685
-0.307025 0.7032731 0.32692087 0.3907815 0.29592055 -0.23652709 0.12155301 -0.09341172
0.20701492 -0.53626263 -0.042994134 0.14309338 0.40235415 -0.4485901 0.18359867 -0.0918768
-0.64452916 0.08478145 0.439902 0.82127213 -0.038646705 -0.5661257 0.45583814 0.4982667
-0.18981785 0.08247942 -0.24776466 0.1481649 0.5411372 0.007818579 -0.27118596 -0.023474185
0.96286714 -0.13233672 0.12681521 -0.058094833 0.64856786 -0.0066244556 0.83889556 0.43105897
00000000: 52a6 143c 1cfb 23bf 2e74 b63c bbe8 0d3f
00000010: 4147 3d3c b74d 363b 412e 093e b387 633e
00000020: 59c4 70be 63b3 c43e 739f 4abc 1036 39be
00000030: 55e7 803f 9e25 3abe da7e a23e b136 ab3d
00000040: ac99 f33e 20c4 1cbe 7763 0e3f f926 583f
00000050: 7862 18be d426 423e 9e7d 18be 609a 2a3d
00000060: ec70 bfbd 40aa 513e f8ae 56bd fb01 04be
00000070: 9cab 6fbd d8cd 263e 5c7b 10be c075 573c
00000080: 58e6 1d3d 697f 35be d8d5 babd b220 bcbd
00000090: fb55 2abe f2e1 04be 9c8b a33d 3adf 4dbe
000000a0: 6132 9dbe b509 343f 2c62 a73e 8314 c83e
000000b0: e682 973e 2834 72be c9f0 f83d a54e bfbd
000000c0: b8fb 533e 8248 09bf 9e1a 30bd 1287 123e
000000d0: 5d01 ce3e 9aad e5be 4a01 3c3e e729 bcbd
000000e0: ddff 24bf e6a1 ad3d d63a e13e e43e 523f
000000f0: 024c 1ebd 9ded 10bf 9e63 e93e d01c ff3e
00000100: 9c5f 42be f8ea a83d 05b6 7dbe 8ab8 173e
00000110: f887 0a3f 7f19 003c e3d8 8abe ef4c c0bc
00000120: 767e 763f 4783 07be d9db 013e d9f4 6dbd
00000130: 8b08 263f f611 d9bb dcc1 563f c3b3 dc3e

linear.weight f4 [6, 20]
0.06221828 -0.12783603 1.2193546 0.88221693 1.1936271 -0.034166988 -2.7867324 1.3729072
-3.064928 0.7474603 -2.3886118 -2.7204032 -0.8474941 -0.03625254 1.4112917 -0.020097839
0.22068433 -1.9687725 -2.7079203 -2.586269 0.036990345 -0.2738822 1.1835885 2.1494832
-3.8524954 0.07363837 -0.6208917 0.2710705 2.335383 -0.97148 -1.0891799 -0.5808112
5.1428437 -0.054468624 1.9536881 0.119089775 -1.2850587 -1.2965009 1.6971176 2.1366427
0.063930124 -0.6732586 -0.38758343 -0.0797702 -2.2201788 0.014314165 0.6650561 -0.6113319
1.4094604 -1.8132094 0.50842375 0.64476633 1.6291969 -0.10210987 -0.2256337 0.19182456
-0.13377738 0.19097778 1.9945776 1.9129308 -0.20649788 1.5074773 -0.28122473 -0.3218021
1.3456395 -0.2073488 0.24671388 0.06481496 -0.10333384 0.8660202 0.29253837 0.23959412
-0.5643595 -0.07509374 -0.29463986 0.10379721 0.57153106 0.28396967 0.0038591481 -0.10407896
0.14585647 0.5906704 0.5902759 0.5003976 0.08324375 -0.15594253 -0.2514413 0.9806169
-0.12687242 1.4572315 -0.22697785 -0.2799265 0.036800306 -0.2130871 0.46817967 -0.074741244
0.50838363 -0.16262628 -0.26184937 -0.1295508 -0.19850913 -0.7134949 0.32280615 0.10151825
-0.8559642 -0.06672966 -0.18007323 0.18007907 0.123381995 -0.29088464 -0.24069273 -0.20813447
0.14194128 0.11586159 0.30580485 0.042964824 -0.5995069 -0.22281155 -0.015969308 0.07581356
00000000: 98d8 7e3d 73e7 02be d013 9c3f f8d8 613f
00000010: c6c8 983f aff2 0bbd d359 32c0 6cbb af3f
00000020: c827 44c0 8f59 3f3f 04df 18c0 161b 2ec0
00000030: 60f5 58bf 8b7d 14bd 35a5 b43f 39a4 a4bc
00000040: 13fb 613e bd00 fcbf 914e 2dc0 6e85 25c0
00000050: 3083 173d 4a3a 8cbe d47f 973f 2291 0940
00000060: 498f 76c0 b7cf 963d c2f2 1ebf c1c9 8a3e
00000070: ea76 1540 eab2 78bf 3f6a 8bbf 0bb0 14bf
00000080: 2d92 a440 7e1a 5fbd 7412 fa3f 57e5 f33d
00000090: ce7c a4bf bef3 a5bf 263b d93f c1be 0840
000000a0: cced 823d ad5a 2cbf 5671 c6be 8f5e a3bd
000000b0: 6917 0ec0 f685 6a3c 1e41 2a3f 3f80 1cbf
000000c0: 3369 b43f 3f17 e8bf 0f28 023f 680f 253f
000000d0: 8689 d03f fb1e d1bd 850c 67be a86d 443e
000000e0: f0fc 08be ae8f 433e 524e ff3f ebda f43f
000000f0: 2e74 53be 04f5 c03f b0fc 8fbe 3fc3 a4be
00000100: ea3d ac3f 3e53 54be 90a2 7c3e b5bd 843d
00000110: b1a0 d3bd 80b3 5d3f 97c7 953e 2958 753e
00000120: dd79 10bf bfca 99bd 09db 96be a293 d43d
00000130: dc4f 123f 7964 913e c3e9 7c3b 5a27 d5bd
00000140: 665b 153e 2d36 173f 521c 173f 0f1a 003f
00000150: b37b aa3d 66af 1fbe eabc 80be b609 7b3f
00000160: d8ea 01be 9086 ba3f e26c 68be 8752 8fbe
00000170: ebbb 163d 8133 5abe 3fb5 ef3e f011 99bd
00000180: 6e25 023f 8187 26be 1f11 86be f7a8 04be
00000190: fa45 4bbe 9aa7 36bf d946 a53e cde8 cf3d
000001a0: 7820 5bbf 8fa9 88bd 1e65 38be a666 383e
000001b0: b3af fc3d d5ee 94be 2878 76be 3421 55be
000001c0: 0e59 113e d748 ed3d 7492 9c3e e2fb 2f3d
000001d0: 4979 19bf b628 64be 11d2 82bc 2444 9b3d

linear.bias f4 [6]
-1.1561736 0.15158798 1.6953247 -0.37108985 -0.1046894 0.09314088
00000000: 7ffd 93bf e139 1b3e 6600 d93f 7dff bdbe
00000010: 6567 d6bd a5c0 be3d
