models/275/model.pt (torch_old, 108056 bytes, 12 tensors)

weight_ih_l0 f4 [160, 10]
-0.01751056 0.4298607 0.18873303 0.13044679 -0.13335381 0.17266656 0.17263624 -0.33806682
0.3902092 0.08677655 -0.12244069 0.26549527 -0.06871605 0.38184568 -0.12386404 0.3695951
0.3024027 -0.31947273 0.21977837 0.19169079 -0.24155352 -0.052723084 0.06598391 -0.1826087
0.104267694 -0.0996797 -0.13983963 -0.0149380695 -0.14675944 -0.16355602 0.06473527 -0.0055932873
0.17405674 0.2216054 -0.12910143 0.066273905 -0.22388513 -0.29162773 -0.15324157 -0.16276753
-0.24665299 0.069551274 -0.39869505 -0.32165462 -0.11064828 -0.11812698 0.04831174 0.0047753854
-0.10054927 -0.19525602 -0.020859972 -0.0026377025 -0.021856282 0.095881686 0.029764568 0.07211643
0.0757749 0.24967885 0.10716895 0.17380594 0.054955315 0.14428379 0.096513666 0.029138101
-0.27581796 0.19505706 -0.10625855 -0.28315258 0.001936049 -0.23785311 0.114877015 -0.10458513
-0.12188183 0.04954031 -0.18421021 -0.020265667 -0.34908983 0.024602123 -0.15506935 -0.29322594
0.26927337 0.011717706 -0.004816523 0.039872095 -0.09591945 -0.22184388 -0.066222794 -0.1317417
-0.07436761 -0.09481517 0.2680159 0.18732296 -0.14412625 0.042241085 0.2765152 0.13650815
0.066971794 0.33463836 0.019707484 0.17744155 -0.27853712 -0.1543316 -0.023785101 -0.015323686
-0.21467525 -0.15225732 -0.28860128 -0.24272218 -0.11630208 -0.03821425 -0.4583755 0.0030560552
0.09584887 -0.017006205 -0.391936 -0.10332611 -0.15866138 -0.4684106 -0.009132859 -0.21093164
0.0013472586 0.04693952 0.009849631 -0.07034668 -0.0024143974 -0.062318083 -0.15131454 -0.09785778
-0.18980299 -0.13749082 -0.050862208 -0.0075420863 -0.2257342 -0.325204 0.17139575 -0.33046493
0.023273123 0.30823135 -0.33697274 -0.0056813373 -0.36400592 0.22748676 0.09595737 0.27880493
-0.4212091 0.18965305 -0.38939527 -0.26156834 0.0432024 -0.21221547 -0.4093324 0.119820975
-0.3042373 -0.18223831 -0.03206633 0.16423815 0.065059476 -0.14481835 0.029250508 0.040413518
0.15326193 0.11333651 -0.2778082 -0.12621903 0.09829556 0.12952742 0.009154193 0.0011530565
0.041126925 0.039882813 -0.1959054 0.36658853 -0.122849956 0.094584435 -0.010043259 0.2802014
0.039155535 -0.08755865 0.2991334 0.025082221 -0.06444985 0.30468035 -0.20745291 0.12759258
-0.20165356 -0.058473673 -0.03393743 -0.15478449 0.19881272 0.06626937 -0.16292855 0.21577132
-0.04136689 -0.08665205 -0.21880245 0.10099294 -0.014076715 0.011675086 0.16491106 -0.018130424
0.17994936 0.07505298 -0.17873247 0.010406859 -0.13362621 0.12607622 0.018377012 -0.2567788
-0.122771576 -0.19061485 -0.12672076 -0.025803696 -0.13686323 0.033238456 0.12727666 0.08227207
0.09306594 0.10370909 0.0680467 -0.011346706 0.36120948 0.21580529 -0.15506388 0.026541933
-0.2575563 0.1889581 0.065902516 -0.11285179 0.118074894 0.29649934 -0.1456787 -0.28957853
0.1527675 -0.09593181 -0.21390682 -0.18166468 -0.37119696 -0.2208181 -0.30126908 -0.27055767
0.20769396 -0.123951375 -0.1204185 -0.047043595 0.0598675 0.02689979 -0.032462187 0.01646894
-0.0750738 -0.15091753 0.30534697 0.28083375 -0.00479595 0.17066893 -0.06188518 0.19463263
00000000: 4e72 8fbc b416 dc3e 3b43 413e d893 053e
00000010: e78d 08be 81cf 303e 8ec7 303e 1817 adbe
00000020: 80c9 c73e e7b7 b13d 2fc2 fabd ffee 873e
00000030: 00bb 8cbd 4781 c33e 6eac fdbd 923b bd3e
00000040: 87d4 9a3e ee91 a3be 950d 613e 974a 443e
00000050: ce59 77be 29f4 57bd 9222 873d c6fd 3abe
00000060: 4d8a d53d df24 ccbd 1f32 0fbe cebe 74bc
00000070: 1b48 16be 3b7b 27be ed93 843d e547 b7bb
00000080: ee3b 323e 87ec 623e 2a33 04be 9dba 873d
00000090: 2542 65be 3b50 95be 5ceb 1cbe 88ac 26be
000000a0: 9a92 7cbe e670 8e3d c221 ccbe eaaf a4be
000000b0: 919b e2bd 8fec f1bd 88e2 453d d67a 9c3b
000000c0: c7ec cdbd 32f1 47be 88e2 aabc 4edd 2cbb
000000d0: f20b b3bc 9e5d c43d d3d4 f33c c7b1 933d
000000e0: df2f 9b3d d0ab 7f3e 657b db3d 2ffa 313e
000000f0: d318 613d 21bf 133e f5a8 c53d 07b3 ee3c
00000100: 0338 8dbe 0abd 473e 159e d9bd 60f9 90be
00000110: 06c3 fd3a c48f 73be a444 eb3d bb30 d6bd
00000120: 2e9d f9bd c8ea 4a3d 9aa1 3cbe 2f04 a6bc
00000130: e7bb b2be 648a c93c 80ca 1ebe b621 96be
00000140: 33de 893e 9ffb 3f3c ecd3 9dbb ec50 233d
00000150: 6b71 c4bd 0b2b 63be d19f 87bd 4ce7 06be
00000160: 0c4e 98bd 752e c2bd 6139 893e 97d1 3f3e
00000170: d595 13be fd04 2d3d 6693 8d3e cbc8 0b3e
00000180: 8228 893d b855 ab3e 9771 a13c 3db3 353e
00000190: 6b9c 8ebe 1a09 1ebe f9d8 c2bc 3310 7bbc
000001a0: d4d3 5bbe 58e9 1bbe 8cc3 93be 2a8c 78be
000001b0: c92f eebd 8c86 1cbd 32b0 eabe 1948 483b
000001c0: 6a4c c43d 9950 8bbc d6ab c8be a49c d3bd
000001d0: 2178 22be 84d3 efbe fda1 15bc 77fe 57be
000001e0: 7f96 b03a a743 403d 5960 213c ec11 90bd
000001f0: de3a 1ebb 3f41 7fbd 33f2 1abe a969 c8bd
00000200: b75b 42be 65ca 0cbe e454 50bd 9b23 f7bb
00000210: de26 67be 2481 a6be 5e82 2f3e b332 a9be
00000220: 47a7 be3c 80d0 9d3e b187 acbe 832a babb
00000230: fc5e babe 4af2 683e 4c85 c43d 85bf 8e3e
00000240: b8a8 d7be 6934 423e d15e c7be 49ec 85be
00000250: 00f5 303d 034f 59be 0494 d1be b364 f53d
00000260: fec4 9bbe ae9c 3abe fc57 03bd 0c2e 283e
00000270: e73d 853d 434b 14be c39e ef3c a588 253d
00000280: b2f0 1c3e f91c e83d e03c 8ebe 903f 01be
00000290: 2f4f c93d d6a2 043e 78fb 153c 2822 973a
000002a0: b574 283d 295c 233d 6d9b 48be 7eb1 bb3e
000002b0: c298 fbbd 7cb5 c13d 7b8c 24bc 8f76 8f3e
000002c0: 8e61 203d f351 b3bd 0328 993e 3b79 cd3c
000002d0: 48fe 83bd 10ff 9b3e 896e 54be a1a7 023e
000002e0: 457e 4ebe 1782 6fbd f901 0bbd d37f 1ebe
000002f0: 9095 4b3e 3cb8 873d bed6 26be 28f3 5c3e
00000300: 5470 29bd a176 b1bd c00d 60be 63d5 ce3d
00000310: 06a2 66bc dc48 3f3c 72de 283e 4186 94bc
00000320: a544 383e 60b5 993d a505 37be 8881 2a3c
00000330: 4fd5 08be 201a 013e 638b 963c 8378 83be
00000340: aa6f fbbd 8a30 43be 16c3 01be 4662 d3bc
00000350: e025 0cbe 0c25 083d d054 023e 427e a83d
00000360: 5b99 be3d 6e65 d43d 115c 8b3d 89e7 39bc
00000370: 73f0 b83e 10fc 5c3e 11c9 1ebe 786e d93c
00000380: 6bde 83be 3b7e 413e e6f7 863d d71e e7bd
00000390: 40d1 f13d c3ce 973e cc2c 15be a343 94be
000003a0: 156f 1c3e e677 c4bd 640a 5bbe 4e06 3abe
000003b0: 870d bebe 241e 62be f13f 9abe 8986 8abe
000003c0: baad 543e 38da fdbd f99d f6bd c9b0 40bd
000003d0: a037 753d f35c dc3c 12f7 04bd dfe9 863c
000003e0: 4bc0 99bd 208a 1abe 7056 9c3e 71c9 8f3e
000003f0: 5827 9dbb d6c3 2e3e 517b 7dbd c74d 473e

weight_hh_l0 f4 [160, 40]
-0.13923118 0.023283899 -0.12035833 -0.054756798 0.09251334 0.01036419 -0.13614036 -0.112675965
-0.074408054 0.15612982 -0.15366282 0.009869039 -0.013463989 0.048711628 0.12303306 -0.11317131
-0.12562497 -0.085638866 -0.12150918 -0.03911393 -0.08906746 -0.08065329 0.018848225 0.057929575
0.01604651 -0.11794294 0.13994972 0.013561219 0.07774301 0.10069151 -0.05042272 0.042141214
0.01358974 0.0862176 0.099546924 0.1500908 -0.12100899 -0.031253427 -0.123551406 0.010314226
-0.12626229 -0.01996079 -0.12389353 -0.12640348 0.04341425 -0.06851033 0.08884621 0.1444778
-0.08892053 -0.15191443 0.09093967 -0.0052345097 -0.06716167 0.12600519 0.0778417 0.098455235
-0.050409734 0.050188437 0.023638353 -0.049284562 -0.11202974 -0.11845143 -0.13114808 -0.13580713
-0.118964046 0.12496705 -0.026167214 0.061697736 0.1275116 0.0050210357 -0.09184111 0.11874138
0.030302733 -0.002006933 0.107965305 0.026065826 -0.041117884 -0.11485809 -0.030238241 0.13526984
0.12514056 -0.071719125 -0.04170353 0.08067566 0.11363377 0.07198438 -0.10833043 0.0968021
-0.076347336 0.10893725 -0.0811776 -0.10954081 -0.13979425 -0.06166038 0.08750865 -0.1439552
-0.07151403 -0.09239262 0.04401107 -0.05962486 -0.07994106 0.15109341 0.038616315 -0.13955234
-0.107944086 0.059014097 -0.1202213 -0.05394301 0.10497366 -0.071346566 -0.11426361 -0.14277542
0.073173 0.098357454 -0.1021411 0.13990335 0.018809035 -0.12964061 -0.14699975 0.11476962
0.14977638 -0.04379326 0.14505772 -0.1441289 -0.007585019 0.10494466 -0.043427974 -0.0056342483
0.069543034 -0.13402946 -0.110684775 0.011120796 0.08900225 0.02350384 -0.063254334 0.14375262
-0.078061655 -0.14743018 -0.102111205 -0.029539004 0.07502465 0.08583568 -0.054391377 -0.009068534
-0.12191339 0.05601427 0.14608549 -0.005861044 0.10667892 -0.1521177 0.013315141 -0.15800767
0.0007378459 -0.14771648 0.070404276 0.12848763 0.08831678 -0.09279034 0.03152667 -0.015580058
-0.062066264 -0.058838904 0.017652735 0.15403123 0.13497789 0.042706385 0.09706698 -0.10659781
0.09327422 -0.031515285 0.11978243 0.0034687668 -0.12283135 0.055364788 -0.07199714 0.08111194
0.08980523 -0.0015420765 0.1157306 -0.011537656 0.016566768 -0.11085224 -0.0895667 -0.035234563
0.103691176 -0.031875864 -0.012505829 0.11499672 0.050988823 -0.15167329 0.032860532 -0.10917174
-0.14082693 -0.11489019 0.01660499 -0.09169305 -0.08880495 -0.019638434 0.032622173 0.11499627
0.098630026 -0.118065506 -0.06666392 0.05615066 0.04444538 -0.0766334 0.10332139 -0.05663965
-0.12607187 0.1485358 0.0636812 0.0819242 0.0048675686 0.13470702 0.057288095 -0.107135385
-0.075806 0.022551253 0.09424351 -0.100060046 -0.12048304 -0.13673025 0.060956344 0.12643932
-0.10419345 -0.14161992 -0.09207517 -0.15450767 0.120134935 0.002398774 0.035457686 0.11472948
0.055670336 -0.14515342 0.074935466 -0.0154045075 -0.12313966 0.1567327 -0.12370369 -0.05807075
0.078170136 -0.108465046 -0.06244865 0.0023706853 -0.12980546 0.007590398 0.13051675 0.0072535872
0.15693538 0.080521956 -0.017276362 0.09413837 -0.051086515 -0.021093965 -0.010559306 -0.1517756
00000000: 9e92 0ebe e0bd be3c 6e7e f6bd aa48 60bd
00000010: a277 bd3d 90ce 293c 6168 0bbe a8c2 e6bd
00000020: 4063 98bd 7fe0 1f3e c959 1dbe c0b1 213c
00000030: 1098 5cbc d885 473d c2f8 fb3d 5cc6 e7bd
00000040: d5a3 00be 6e63 afbd ced9 f8bd ee35 20bd
00000050: 0069 b6bd 8d2d a5bd 9867 9a3c 9047 6d3d
00000060: f873 833c 118c f1bd fb4e 0f3e e02f 5e3c
00000070: ba37 9f3d 5a37 ce3d 0e88 4ebd 449c 2c3d
00000080: 80a7 5e3c da92 b03d 42df cb3d 67b1 193e
00000090: 90d3 f7bd 9803 00bd 8508 fdbd 00fd 283c
000000a0: e74a 01be d084 a3bc e4bb fdbd ea6f 01be
000000b0: 24d3 313d 254f 8cbd 00f5 b53d fdf1 133e
000000c0: f81b b6bd 758f 1bbe 943e ba3d 4086 abbb
000000d0: 0f8c 89bd 8107 013e 786b 9f3d e6a2 c93d
000000e0: 707a 4ebd 6492 4d3d 38a5 c13c 9cde 49bd
000000f0: d96f e5bd aa96 f2bd af4b 06be 0611 0bbe
00000100: 6ca3 f3bd baee ff3d a05c d6bc c4b6 7c3d
00000110: 6792 023e 8087 a43b 3117 bcbd ae2e f33d
00000120: 703d f83c c086 03bb ea1c dd3d 0088 d53c
00000130: 3a6b 28bd b83a ebbd 30b6 f7bc 2d84 0a3e
00000140: d924 003e 7ae1 92bd 52d1 2abd 4839 a53d
00000150: d2b8 e83d 8c6c 933d 58dc ddbd 2e40 c63d
00000160: fe5b 9cbd 7e1a df3d 7140 a6bd ef56 e0bd
00000170: 3926 0fbe 988f 7cbd bc37 b33d fe68 13be
00000180: f375 92bd 5838 bdbd f444 343d 3239 74bd
00000190: 23b8 a3bd 3bb8 1a3e 242c 1e3d cfe6 0ebe
000001a0: ca11 ddbd c4b8 713d 9636 f6bd 58f3 5cbd
000001b0: 6efc d63d 261e 92bd 0a03 eabd b833 12be
000001c0: badb 953d a26f c93d 5a2f d1bd d342 0f3e
000001d0: 6815 9a3c 82c0 04be 1a87 16be 560c eb3d
000001e0: fb5e 193e 9060 33bd 038a 143e 8796 13be
000001f0: c08b f8bb 3aed d63d 88e1 31bd 809f b8bb
00000200: 946c 8e3d 053f 09be b3ae e2bd 0034 363c
00000210: d046 b63d 208b c03c 7d8b 81bd e333 133e
00000220: cade 9fbd f0f7 16be ae1f d1bd c8fb f1bc
00000230: 86a6 993d 9eca af3d 7ec9 5ebd 3094 14bc
00000240: baad f9bd 386f 653d 6f97 153e 000e c0bb
00000250: 7a7a da3d bec4 1bbe c027 5a3c c3cc 21be
00000260: 006c 413a fd42 17be 1e30 903d 4392 033e
00000270: 6edf b43d dd08 bebd 1c22 013d 8043 7fbc
00000280: 3239 7ebd 1001 71bd 789c 903c 5dba 1d3e
00000290: a537 0a3e e4ec 2e3d 0ecb c63d f44f dabd
000002a0: 8e06 bf3d 2c16 01bd 7e50 f53d 4054 633b
000002b0: 018f fbbd 30c6 623d 3d73 93bd 041e a63d
000002c0: ceeb b73d 801f caba 2a04 ed3d 7008 3dbc
000002d0: 08b7 873c 8006 e3bd bf6e b7bd 1e52 10bd
000002e0: 0a5c d43d 4490 02bd 40e5 4cbc 6683 eb3d
000002f0: a8d9 503d 3e50 1bbe c498 063d 6f95 dfbd
00000300: ef34 10be 8c4b ebbd 3007 883c 91c9 bbbd
00000310: 5fdf b5bd c8e0 a0bc d49e 053d 2a83 eb3d
00000320: 8afe c93d 54cc f1bd 1887 88bd 3cfe 653d
00000330: 5c0c 363d f9f1 9cbd 2a9a d33d fafe 67bd
00000340: fc18 01be c519 183e 4a6b 823d e0c7 a73d
00000350: 2080 9f3b a3f0 093e eca6 6a3d cc69 dbbd
00000360: 2d40 9bbd 68bd b83c be02 c13d 48ec ccbd
00000370: d0bf f6bd 0403 0cbe 5cad 793d 4f79 013e
00000380: 6063 d5bd d004 11be e891 bcbd 4237 1ebe
00000390: 4e09 f63d c034 1d3b 143c 113d 4af7 ea3d
000003a0: 9406 643d 19a3 14be c477 993d 3063 7cbc
000003b0: a530 fcbd 897e 203e 5c58 fdbd 98db 6dbd
000003c0: aa17 a03d ec22 debd 28ca 7fbd 805d 1b3b
000003d0: b9eb 04be e0b8 f83b 2fa6 053e 80af ed3b
000003e0: abb3 203e b2e8 a43d 2887 8dbc 9ecb c03d
000003f0: 1840 51bd 40cd acbc f000 2dbc 106b 1bbe

bias_ih_l0 f4 [160]
0.09435033 0.2673498 0.20491411 0.19153163 0.30686748 0.17352739 0.29455617 0.2613569
0.29424754 0.080669425 0.37235078 0.23285311 0.21861024 0.060230292 0.34529734 0.32034236
0.24155617 0.23856433 0.3101616 0.255912 0.13365921 0.17656276 0.28297293 0.056303505
0.16580136 0.048374437 0.16992728 0.024733724 0.37528235 0.24437395 0.07269477 0.09877351
0.15677243 0.21681054 0.38870513 0.3083342 0.41012403 0.03307523 0.13342519 0.3491276
-0.11522818 0.11093356 0.123015836 0.0017349869 -0.10371594 0.11216648 -0.08169117 0.027872488
0.10458045 -0.075642526 0.121276036 -0.071510226 0.12882717 -0.14120194 0.06041655 0.1512322
-0.079701036 0.123034164 0.053042263 0.09194298 -0.10819734 0.1306131 -0.007331103 0.05808863
0.09829877 0.14155646 0.062348202 -0.003988847 -0.15750204 0.12116693 0.14537694 0.08029279
-0.047875553 -0.029825926 0.042812288 0.08260846 0.007492587 -0.021636993 0.13593157 0.03485091
0.049005672 0.107278764 0.10712607 0.034132205 0.11615627 0.0871316 0.070206404 -0.055100113
0.09001764 0.002738526 0.05439252 0.1062242 0.12722106 0.05272557 -0.2267815 0.17240235
-0.23888084 0.23576386 0.14697517 -0.037376285 0.07162292 0.16788253 -0.05544673 0.043123096
0.09585103 -0.05707734 0.24353795 0.14311735 0.12166124 0.028271297 -0.2307559 -0.022843732
0.14203617 0.062141746 0.033086114 -0.20187978 -0.09105735 -0.15379006 0.00959594 0.02565285
0.091985606 0.16394547 0.01749452 0.0799276 0.3057307 0.12674296 0.07448101 0.24906799
0.30711582 0.30497497 0.43092704 0.15863045 0.24822511 -0.020552926 0.51326454 0.10003249
0.16204804 0.24016175 0.31121024 0.20108496 0.2940934 0.11357514 0.16349179 0.25852162
0.43675077 0.026596617 0.2457565 0.2093265 0.23970467 0.40687752 0.13435897 -0.08692211
0.3119969 -0.07420192 0.34716555 0.25269032 0.3317101 0.15852931 0.38743562 0.13863638
00000000: bf3a c13d 13e2 883e 01d5 513e de20 443e
00000010: bc1d 9d3e 2ab1 313e 11d0 963e 92d0 853e
00000020: 9da7 963e 0336 a53d c3a4 be3e 0c71 6e3e
00000030: 5ddb 5f3e 0ab4 763d d0ca b03e ea03 a43e
00000040: 805a 773e 354a 743e 80cd 9e3e e606 833e
00000050: f6dd 083e decc 343e d4e1 903e 819e 663d
00000060: d5c7 293e 4624 463d 6b01 2e3e 619e ca3c
00000070: 0225 c03e 2a3d 7a3e ffe0 943d c449 ca3d
00000080: f488 203e 9503 5e3e 5c04 c73e fbdd 9d3e
00000090: c7fb d13e e479 073d 9da0 083e dac0 b23e
000000a0: c1fc ebbd 2231 e33d baef fb3d 8068 e33a
000000b0: 0669 d4bd 8ab7 e53d b34d a7bd d854 e43c
000000c0: 462e d63d 78ea 9abd 925f f83d f473 92bd
000000d0: 45eb 033e 3e97 10be 5877 773d 9ddc 1a3e
000000e0: 4c3a a3bd 56f9 fb3d d842 593d 9a4c bc3d
000000f0: 9196 ddbd 71bf 053e c039 f0bb 58ee 6d3d
00000100: de50 c93d 2df4 103e d460 7f3d e0b4 82bb
00000110: 3748 21be 5e26 f83d b1dd 143e 8c70 a43d
00000120: 2819 44bd 8055 f4bc f05b 2f3d a02e a93d
00000130: 6084 f53b 1040 b1bc a531 0b3e d4bf 0e3d
00000140: 2cba 483d f8b4 db3d ea64 db3d 36ce 0b3d
00000150: 57e3 ed3d 0d72 b23d 60c8 8f3d a8b0 61bd
00000160: 2b5b b83d d878 333b b1ca 5e3d 138c d93d
00000170: 3d46 023e c4f6 573d 6939 68be 3e8a 303e
00000180: 2e9d 74be 156c 713e a980 163e e017 19bd
00000190: 0aaf 923d 66e9 2b3e 1c1c 63bd d8a1 303d
000001a0: 8b4d c43d eec9 69bd 0362 793e 5b8d 123e
000001b0: 8729 f93d 3599 e73c 464b 6cbe c722 bbbc
000001c0: ee71 113e 5888 7e3d 4e85 073d 93b9 4ebe
000001d0: 477c babd 247b 1dbe 4a38 1d3c ed25 d23c
000001e0: f362 bc3d 52e1 273e ab50 8f3c 15b1 a33d
000001f0: bc88 9c3e e8c8 013e 8089 983d ae0b 7f3e
00000200: 493e 9d3e ae25 9c3e 78a2 dc3e 0570 223e
00000210: b92e 7e3e 9c5e a8bc 4e65 033f d6dd cc3d
00000220: ecef 253e f6ec 753e f356 9f3e 37e9 4d3e
00000230: 6993 963e 159a e83d 646a 273e f25c 843e
00000240: cc9d df3e 26e1 d93c 98a7 7b3e b059 563e
00000250: 2475 753e 4052 d03e 6695 093e 3804 b2bd
00000260: 0fbe 9f3e 2df7 97bd afbf b13e a060 813e
00000270: e8d5 a93e 8255 223e f65d c63e b2f6 0d3e

bias_hh_l0 f4 [160]
0.24093771 0.25616822 0.06904474 0.21419573 0.15099838 0.1348437 0.2423225 0.06254798
0.16591957 0.3066066 0.44051245 0.092463374 0.25284725 0.17457858 0.4026171 0.2562648
0.12671988 0.17968923 0.1670647 0.13404828 0.22157283 0.12132027 0.13067599 0.23283018
0.4354166 0.045999993 0.31754678 0.115896955 0.2476596 0.323091 0.2230954 0.19336042
0.13628584 0.20718513 0.31057298 0.22610435 0.3153408 0.252922 0.3578535 0.22176544
0.020793602 0.06279586 -0.121118724 0.14432658 -0.09215141 0.15362243 0.03814374 0.10580732
0.0125222355 0.009025082 -0.052619472 0.0041855723 -0.043283403 -0.010444209 -0.013782576 0.123935565
0.08168535 0.004718676 0.08274366 0.086227834 -0.03573315 0.011005759 -0.059181668 0.06634389
-0.13513137 0.14200549 0.05231324 -0.03161034 -0.030097783 -0.07351523 -0.07198923 -0.01461865
-0.15203369 0.107207045 -0.010462254 -0.110697836 0.04692082 0.025301233 0.09078881 0.05590856
-0.06325491 0.14663213 0.045747865 0.2910531 0.10339326 0.15147841 0.09821083 -0.060840562
-0.029238138 0.12150488 0.1674496 0.08173215 0.04350456 0.0133667765 0.06332222 0.06777101
-0.028589595 0.19300754 0.16781195 -0.2703466 0.039739285 0.08519159 -0.057583943 0.17448372
0.2534807 -0.13231774 -0.013676665 0.12559082 0.19598645 0.032053534 -0.14800206 -0.078491315
-0.04911048 -0.10813405 0.103535034 -0.20219304 -0.05403521 -0.10530567 -0.11055755 -0.05012582
0.26090887 0.3429359 0.103382714 0.34062862 0.33441615 0.13365111 0.31700036 0.08342281
0.26428062 0.2895826 0.32504076 0.18724404 0.2993957 0.24356171 0.2805223 0.14295003
0.23678024 0.1598409 0.36346868 0.29119775 0.32759336 0.3509061 0.0438589 0.30956918
0.4392041 0.1724083 0.2090468 0.25576705 0.39834487 0.4311757 0.25288752 0.058729652
0.03845375 0.134099 0.37947604 0.2673158 0.24089661 0.052232023 0.31431472 0.38110083
00000000: 60b8 763e 7b28 833e 5467 8d3d 2056 5b3e
00000010: 529f 1a3e 7814 0a3e 6423 783e 2819 803d
00000020: d2e6 293e 8afb 9c3e d98a e13e 705d bd3d
00000030: 3275 813e bac4 323e d423 ce3e 2435 833e
00000040: dbc2 013e 7400 383e 0213 2b3e f443 093e
00000050: fde3 623e c376 f83d edcf 053e 096b 6e3e
00000060: edee de3e 7d6a 3c3d 7e95 a23e 625b ed3d
00000070: 7a9a 7d3e 2f6c a53e 1f73 643e 4600 463e
00000080: 848e 0b3e 5728 543e 6c03 9f3e e687 673e
00000090: 5974 a13e fe7e 813e 9338 b73e 7b16 633e
000000a0: 5857 aa3c 1e9b 803d 180d f8bd 59ca 133e
000000b0: e1b9 bcbd 334f 1d3e 9c3c 1c3d 82b1 d83d
000000c0: 102a 4d3c f0dd 133c 8487 57bd 2027 893b
000000d0: f049 31bd 301e 2bbc 50d0 61bc eed1 fd3d
000000e0: a64a a73d 209f 9a3b 8275 a93d 3898 b03d
000000f0: ec5c 12bd 8051 343c 7a68 72bd 4edf 873d
00000100: e15f 0abe e369 113e 6846 563d d879 01bd
00000110: a08f f6bc 278f 96bd 176f 93bd 1083 6fbc
00000120: b8ae 1bbe 5e8f db3d e069 2bbc 8cb5 e2bd
00000130: 0c30 403d 8844 cf3c 7cef b93d 6000 653d
00000140: ca8b 81bd bc26 163e 1d62 3b3d e904 953e
00000150: d8bf d33d 281d 1b3e c222 c93d f433 79bd
00000160: d284 efbc 8dd7 f83d e877 2b3e 2f63 a73d
00000170: d631 323d 5300 5b3c 15af 813d 87cb 8a3d
00000180: ba34 eabc c5a3 453e e5d6 2b3e df6a 8abe
00000190: a9c5 223d ee78 ae3d 24dd 6bbd dcab 323e
000001a0: 39c8 813e 4d7e 07be 1714 60bc e19a 003e
000001b0: acb0 483e 914a 033d da8d 17be 0ec0 a0bd
000001c0: 1228 49bd 6375 ddbd 2d0a d43d b10b 4fbe
000001d0: 0654 5dbd 80aa d7bd ff6b e2bd bb50 4dbd
000001e0: d995 853e 4b95 af3e 51ba d33d e066 ae3e
000001f0: 9838 ab3e d6db 083e df4d a23e 94d9 aa3d
00000200: ca4f 873e 2c44 943e be6b a63e e7bc 3f3e
00000210: 654a 993e 3e68 793e 9ea0 8f3e 7e61 123e
00000220: 8576 723e 55ad 233e 9118 ba3e df17 953e
00000230: 51ba a73e f7a9 b33e 64a5 333d da7f 9e3e
00000240: 5cdf e03e cd8b 303e 5d10 563e e6f3 823e
00000250: dcf3 cb3e 10c3 dc3e 797a 813e 818e 703d
00000260: ae81 1d3d 4051 093e af4a c23e 9edd 883e
00000270: 9aad 763e 3ff1 553d dced a03e a61f c33e

weight_ih_l1 f4 [160, 40]
-0.0041121533 0.013307209 0.19168814 -0.0055979122 -0.17558882 -0.03261602 -0.09634996 -0.10917723
0.06893909 -0.008734566 0.011348936 -0.14662021 0.22793764 0.27959132 0.005861941 -0.060902342
-0.1356036 -0.0001556614 0.1388395 0.26601857 0.04546783 0.20292287 0.10962852 -0.37027174
0.26893166 -0.08390831 0.12903745 -0.033199746 0.04484815 -0.07518965 0.39439768 -0.23285475
0.105197765 -0.24722083 -0.027196359 -0.12732582 0.07937349 0.007794035 -0.28234652 -0.03702208
-0.16838017 0.03609172 0.041806817 0.16489576 -0.013063168 0.14923874 -0.027911572 -0.036781326
-0.24128696 -0.24150385 0.20060652 0.050590236 0.09506021 0.07810993 0.23231037 -0.015635708
-0.17018834 0.09451682 0.005442071 -0.1623851 0.08838921 0.29593265 -0.06804207 0.36242795
-0.14049132 0.023429584 0.07030456 0.0070692063 0.15142044 -0.024145102 -0.12469369 -0.13005589
0.07435412 -0.087498516 -0.061939545 -0.015042189 -0.13017921 -0.16467226 0.17816627 0.17254606
-0.328324 0.40454873 0.26895735 0.45712408 0.011028963 -0.099505246 0.13295302 -0.12232702
-0.08695006 -0.027250733 0.043630466 -0.13793966 -0.12321407 -0.26282948 0.07528552 -0.10293627
0.13120897 0.14777821 0.070531495 -0.14537911 -0.0021734182 -0.04827924 0.24885432 0.48862535
0.13747771 0.13888834 0.16866994 0.0016260553 -8.503711e-05 0.1124115 0.016016679 -0.24777402
0.0037685977 -0.0073634223 0.060955543 -0.044752948 -0.082789846 -0.14477189 0.15610196 -0.14303684
0.010222193 0.15007146 0.14705814 0.02550861 -0.43973598 -0.34757456 0.20409907 -0.13544232
-0.29321173 0.33288953 0.10088648 -0.030705199 0.16583592 0.4473602 0.14608964 -0.32502112
-0.081767514 -0.0039139893 -0.099480405 0.03123296 0.20963268 -0.07328665 0.13964985 0.13128974
-0.19244671 -0.130478 -0.15922049 0.17087813 -0.17518155 0.12886295 -0.06534054 0.19165543
0.27750352 -0.21399152 0.069447696 0.1755937 -0.02735041 0.09260406 -0.39026442 -0.2271466
-0.37425596 0.30211645 0.115049176 0.28058165 0.07987204 0.13300872 -0.16230142 0.19335625
-0.19883995 -0.09803065 -0.03754292 0.038320307 -0.09098224 0.15116614 0.03019902 0.045318495
-0.1264083 0.010196366 0.1509972 -0.21601813 -0.24814205 -0.0062663923 0.04300514 0.26037425
0.16070503 0.06634257 -0.09399566 -0.030097205 -0.09370514 0.008917058 -0.11701483 -0.040266637
-0.09915349 -0.23686263 0.06229098 -0.035110533 -0.17183614 -0.1920968 0.09823202 -0.048584048
0.3331206 -0.32136562 0.08683728 -0.036229085 0.17549609 0.14926712 -0.015198166 0.14324012
-0.08479849 -0.2833406 -0.17239363 -0.1602626 0.057285883 0.041240707 0.34111744 -0.23303932
0.1676004 -0.07908349 -0.06890673 0.26884308 -0.12765013 0.14916684 -0.030638315 0.18911897
0.07087465 0.010098781 0.13444462 -0.21522863 -0.13382488 0.02281444 0.22959758 -0.18848139
0.07803249 0.12264087 -0.06451731 0.2753132 0.062119905 -0.08852592 0.11193886 0.23735432
-0.032373663 -0.10518877 -0.049198363 -0.061150998 0.24268131 0.11894724 -0.00870898 0.21929623
0.07054347 -0.2207813 -0.0775755 0.045726724 -0.0954066 -0.19119914 -0.3108849 0.3395641
00000000: 3ebf 86bb 7b06 5a3c e549 443e b16e b7bb
00000010: 8ecd 33be 6098 05bd 2153 c5bd 5098 dfbd
00000020: f02f 8d3d 6d1b 0fbc e3f0 393c 9c23 16be
00000030: 7c68 693e 9826 8f3e 8615 c03b bc74 79bd
00000040: acdb 0abe 0a39 23b9 f12b 0e3e 9633 883e
00000050: 7a3c 3a3d 03cb 4f3e eb84 e03d 4294 bdbe
00000060: 69b1 893e 1fd8 abbd 6522 043e 75fc 07bd
00000070: b2b2 373d 08fd 99bd 7eee c93e 7a71 6ebe
00000080: ed71 d73d 7527 7dbe e6ca debc b361 02be
00000090: 918e a23d 1b65 ff3b b98f 90be 77a4 17bd
000000a0: da6b 2cbe e9d4 133d a03d 2b3d 6fda 283e
000000b0: e606 56bc 0ad2 183e cfa6 e4bc 04a8 16bd
000000c0: ee13 77be c94c 77be cc6b 4d3e b537 4f3d
000000d0: edae c23d 19f8 9f3d c5e2 6d3e 7516 80bc
000000e0: da45 2ebe 0992 c13d 6653 b23b 4848 26be
000000f0: 6705 b53d 7c84 973e a459 8bbd 2890 b93e
00000100: f5dc 0fbe 66ef bf3c d6fb 8f3d cda4 e73b
00000110: f60d 1b3e f3cb c5bc 685f ffbd 5f2d 05be
00000120: f946 983d 6c32 b3bd 52b4 7dbd 8373 76bc
00000130: b34d 05be d89f 28be 3871 363e eaaf 303e
00000140: 151a a8be 0321 cf3e c7b4 893e 2b0c ea3e
00000150: d3b2 343c 68c9 cbbd d624 083e 9786 fabd
00000160: e012 b2bd ee3c dfbc dcb5 323d 0e40 0dbe
00000170: a957 fcbd 9691 86be 4b2f 9a3d 40d0 d2bd
00000180: a55b 063e 2c53 173e d172 903d 43de 14be
00000190: e86f 0ebb 74c0 45bd abd3 7e3e 1a2d fa3e
000001a0: f5c6 0c3e bf38 0e3e d0b7 2c3e 5d21 d53a
000001b0: f355 b2b8 0038 e63d 6935 833c 79b8 7dbe
000001c0: 94fa 763b dd48 f1bb 85ac 793d de4e 37bd
000001d0: b98d a9bd 153f 14be 31d9 1f3e 4078 12be
000001e0: fc7a 273c 55ac 193e 6996 163e 6ff7 d03c
000001f0: 1325 e1be 4bf5 b1be 59ff 503e 64b1 0abe
00000200: d91f 96be 7f70 aa3e 929d ce3d 7889 fbbc
00000210: e4d0 293e 650c e53e 8698 153e 2b69 a6be
00000220: ba75 a7bd ec40 80bb 62bc cbbd 44dc ff3c
00000230: f3a9 563e 5017 96bd 5f00 0f3e d170 063e
00000240: c010 45be 069c 05be b20a 23be adfa 2e3e
00000250: cb62 33be a6f4 033e 43d1 85bd 5241 443e
00000260: f114 8e3e 9820 5bbe 983a 8e3d d6ce 333e
00000270: f80d e0bc 33a7 bd3d bdd0 c7be 1e99 68be
00000280: 7a9e bfbe 02af 9a3e e79e eb3d 66a8 8f3e
00000290: f493 a33d 7033 083e 5832 26be 2eff 453e
000002a0: b39c 4bbe 4bc4 c8bd 9bc6 19bd c1f5 1c3d
000002b0: e654 babd 4ccb 1a3e ef63 f73c e39f 393d
000002c0: 2d71 01be a90e 273c 039f 1a3e db33 5dbe
000002d0: f318 7ebe 4f56 cdbb 2826 303d c64f 853e
000002e0: dc8f 243e 9dde 873d cc80 c0bd 6a8e f6bc
000002f0: 7be8 bfbd da18 123c 79a5 efbd a1ee 24bd
00000300: fc10 cbbd 1e8c 72be d424 7f3d 10d0 0fbd
00000310: d0f5 2fbe 06b5 44be df2d c93d 1100 47bd
00000320: c98e aa3e 098a a4be bed7 b13d f364 14bd
00000330: 3fb5 333e 7bd9 183e ba01 79bc 8aad 123e
00000340: d5aa adbd 0512 91be f587 30be e11b 24be
00000350: 9aa4 6a3d 04ec 283d f2a6 ae3e dca1 6ebe
00000360: 709f 2b3e 86f6 a1bd f91e 8dbd cda5 893e
00000370: b7b6 02be 31bf 183e 34fd fabc 67a8 413e
00000380: ba26 913d 5c75 253c daab 093e e564 5cbe
00000390: 6409 09be 59e5 ba3c a11b 6b3e 4401 41be
000003a0: 80cf 9f3d 232b fb3d a721 84bd daf5 8c3e
000003b0: 7171 7e3d 144d b5bd 3340 e53d 030d 733e
000003c0: 3f9a 04bd 366d d7bd 3984 49bd 7879 7abd
000003d0: 7381 783e 9c9a f33d 1cb0 0ebc 318f 603e
000003e0: 1879 903d 7e14 62be e7df 9ebd f24b 3b3d
000003f0: 8964 c3bd b5c9 43be 4e2c 9fbe 59db ad3e

weight_hh_l1 f4 [160, 40]
-0.1482477 0.06607017 -0.026257098 0.004541397 0.039228007 0.071009934 -0.016869068 -0.0063105375
0.016202524 0.078533664 0.0039441586 0.035344377 -0.117754474 -0.0120125115 -0.059142105 0.086099505
0.009069428 0.11357139 -0.08818074 0.10393675 -0.045081906 -0.058034725 0.13967182 0.14282747
0.080519065 0.0605658 0.06241876 0.13325302 -0.12965377 0.12712727 -0.062289774 -0.101797
-0.062210627 0.14997257 0.04026334 -0.03675016 -0.15205003 -0.012446746 -0.059842087 0.10255979
0.080226034 0.018439382 -0.13556777 -0.08045922 -0.045367047 0.055024758 -0.13043934 -0.008663654
-0.10257396 0.03147708 -0.049725212 0.13206081 0.11721785 0.12934946 0.019630775 0.015150547
0.15725298 0.031721517 0.03816396 -0.1184395 0.12653403 0.05927156 -0.12865038 -0.056605212
0.13038452 -0.09614823 0.12425093 0.124800816 0.011943817 0.08631268 -0.093918495 -0.13106492
-0.03214617 -0.01840745 0.15608506 0.11953445 -0.120391525 0.030154362 -0.14595251 -0.038347505
-0.107030064 -0.0819569 0.054597154 -0.03231944 -0.1013003 0.106828466 0.018695787 0.1016828
-0.14785364 0.14506756 0.03245753 0.0663116 -0.13157299 0.070894405 -0.076833874 -0.10541387
0.123817906 0.007268429 -0.105461106 0.009645328 -0.1164432 -0.035268806 0.14194842 -0.12188053
0.13138612 -0.09541519 0.09660007 0.030514985 -0.15557808 0.020654112 0.07161303 -0.060753398
0.14875744 -0.12892658 -0.110597625 0.13996805 -0.09163523 0.03334689 0.042630583 -0.02574563
0.1015899 0.04885079 -0.031753644 -0.117738165 0.028067753 -0.14153133 0.0035820007 0.026452795
-0.010687128 0.082334474 -0.09856285 0.03584537 0.04029621 0.06823999 -0.05944574 -0.022612244
-0.11055595 -0.08695396 0.06629577 -0.114190154 -0.002857551 -0.08533028 0.000757128 0.13622694
-0.06804266 0.11490466 -0.08005273 0.09870075 -0.15289694 -0.12568818 -0.13311274 -0.036786087
0.08330469 0.064488366 -0.055129044 -0.11997235 -0.123646766 -0.10603657 0.04471995 -0.105885744
0.09156516 -0.08908041 -0.093979806 0.12910031 -0.13917632 -0.13350508 0.1393194 -0.059773706
-0.014540806 -0.1443644 -0.033322744 -0.09762868 0.08389503 0.106298104 0.13066359 0.07340191
0.008975133 0.1479796 -0.05790315 0.035647333 0.09418504 0.06253694 -0.10398647 -0.1472694
-0.060341217 -0.14083324 -0.08566597 -0.11339444 0.11232288 0.08460261 0.12728705 -0.033979826
-0.023326814 0.11333747 -0.035608836 0.14646997 0.15556712 -0.092937894 -0.119914904 0.11088942
0.15615164 0.029647514 -0.12837125 -0.12977095 -0.15390068 0.13693936 0.049781695 0.0025146157
0.09573029 0.08892481 -0.14219046 -0.09937255 0.1428176 0.0736022 0.038025424 0.14056678
0.086906 0.14894448 0.02296108 -0.1321537 -0.10101853 0.15076153 0.02908057 0.066240385
0.082367435 0.06339872 0.012935489 -0.03889755 0.069703326 0.13332184 0.06905599 0.010321215
-0.01399821 -0.06983907 0.017071515 -0.14769363 0.0018686801 0.0076980144 0.15679453 0.105916545
-0.15411001 -0.08049585 -0.042682096 0.02819255 0.05116172 -0.14253403 -0.01384218 -0.09812769
0.041086182 0.12384619 -0.14903285 0.14156489 0.094255105 0.011943638 -0.15566108 0.08521606
00000000: 3fce 17be cc4f 873d 2019 d7bc 00d0 943b
00000010: 8cad 203d a86d 913d 0031 8abc a0c8 cebb
00000020: 28bb 843c 42d6 a03d 003e 813b 44c5 103d
00000030: 4229 f1bd 20d0 44bc fe3e 72bd f054 b03d
00000040: f097 143c 1e98 e83d 1b98 b4bd cadc d43d
00000050: cea7 38bd d2b5 6dbd 2106 0f3e 5d41 123e
00000060: 2ee7 a43d d813 783d d0aa 7f3d 7b73 083e
00000070: f5c3 04be a72d 023e 9023 7fbd f27a d0bd
00000080: 92d0 7ebd 6992 193e 2ceb 243d 5687 16bd
00000090: 01b3 1bbe 70ed 4bbc fa1c 75bd de0a d23d
000000a0: 8c4d a43d 300e 973c 47d2 0abe cec7 a4bd
000000b0: ccd2 39bd a461 613d e491 05be 00f2 0dbc
000000c0: 4c12 d2bd 1cee 003d aaac 4bbd f33a 073e
000000d0: ea0f f03d 2f74 043e b8d0 a03c 003a 783c
000000e0: ed06 213e 6cee 013d d051 1c3d 6990 f2bd
000000f0: 2392 013e bcc6 723d edbc 03be deda 67bd
00000100: 8583 053e 5de9 c4bd 4677 fe3d 9297 ff3d
00000110: 00b0 433c b4c4 b03d 5758 c0bd e235 06be
00000120: b4ab 03bd 38cb 96bc c3d4 1f3e 7ace f43d
00000130: d58f f6bd 4806 f73c 9374 15be 4612 1dbd
00000140: 9432 dbbd 05d9 a7bd 44a1 5f3d 6461 04bd
00000150: 8876 cfbd e2c8 da3d e827 993c 123f d03d
00000160: f266 17be 978c 143e 30f2 043d 60ce 873d
00000170: 12bb 06be 1631 913d 145b 9dbd 3ae3 d7bd
00000180: 3e94 fd3d 002c ee3b fefb d7bd 7007 1e3c
00000190: c679 eebd 0676 10bd ed5a 113e 809c f9bd
000001a0: 158a 063e 0a69 c3bd 42d6 c53d 90fa f93c
000001b0: dc4f 1fbe d032 a93c daa9 923d 8ed8 78bd
000001c0: df53 183e 5405 04be 0281 e2bd c953 0f3e
000001d0: 40ab bbbd c096 083d 689d 2e3d 80e8 d2bc
000001e0: 5e0e d03d c417 483d 1c10 02bd b520 f1bd
000001f0: 58ee e53c 97ed 10be 00c0 6a3b 88b3 d83c
00000200: 1019 2fbc fa9e a83d 52db c9bd 98d2 123d
00000210: a40d 253d 68c1 8b3d 607d 73bd 503d b9bc
00000220: 286b e2bd eb14 b2bd 14c6 873d 87dc e9bd
00000230: c045 3bbb a4c1 aebd 007a 463a 137f 0b3e
00000240: f359 8bbd 2253 eb3d b0f2 a3bd 9e23 ca3d
00000250: 0491 1cbe 67b4 00be b54e 08be 02ad 16bd
00000260: a69b aa3d 7a12 843d fece 61bd 10b4 f5bd
00000270: 843a fdbd b429 d9bd 442c 373d a0da d8bd
00000280: 8486 bb3d ca6f b6bd 7c78 c0bd df32 043e
00000290: 3d84 0ebe 8eb5 08be bfa9 0e3e 46d5 74bd
000002a0: 903c 6ebc 43d4 13be 6e7d 08bd 8cf1 c7bd
000002b0: 28d1 ab3d d2b2 d93d adcc 053e be53 963d
000002c0: 700c 133c f787 173e da2b 6dbd f002 123d
000002d0: 16e4 c03d 5e13 803d dcf6 d4bd cacd 16be
000002e0: 5a28 77bd 9736 10be a471 afbd 583b e8bd
000002f0: 8a09 e63d 2244 ad3d 8957 023e 6e2e 0bbd
00000300: e017 bfbc 7a1d e83d 92da 11bd 39fc 153e
00000310: fd4c 1f3e 3956 bebd f295 f5bd fe19 e33d
00000320: 37e6 1f3e 58df f23c c173 03be ade2 04be
00000330: 2498 1dbe d539 0c3e e4e7 4b3d 40cc 243b
00000340: 3e0e c43d 361e b63d 609a 11be d683 cbbd
00000350: c73e 123e c0bc 963d 8cc0 1b3d bdf0 0f3e
00000360: c6fb b13d e784 183e e018 bc3c 4d53 07be
00000370: cee2 cebd 3b61 1a3e 603a ee3c 0aa9 873d
00000380: 42b0 a83d 30d7 813d 60ef 533c 0a53 1fbd
00000390: 9ec0 8e3d 8585 083e 3a6d 8d3d 501a 293c
000003a0: c058 65bc c907 8fbd 90d9 8b3c 003d 17be
000003b0: 80ee f43a a03f fc3b bf8e 203e c6ea d83d
000003c0: 04cf 1dbe 02db a4bd 6cd3 2ebd 10f4 e63c
000003d0: f48e 513d 71f4 11be 50ca 62bc 2cf7 c8bd
000003e0: fc49 283d 12a3 fd3d 119c 18be 63f6 103e
000003f0: d208 c13d 40af 433c 9e65 1fbe c285 ae3d

bias_ih_l1 f4 [160]
0.016092524 0.0018194191 0.08642655 -0.0027255306 -0.002140502 0.05712865 -0.012827246 0.073524915
0.20205899 0.008957439 0.18589094 0.011276863 -0.011234647 0.1199452 0.21428855 0.4263427
-0.08145542 0.04448427 0.2360485 0.055535216 0.12244128 0.2166199 0.35634658 0.012334595
0.1626901 0.18683904 -0.041365303 0.084690936 0.20291117 0.40685263 0.34479716 0.23880878
0.18874328 0.14846413 0.14166719 0.27532697 0.2813613 0.25002822 0.27586287 0.42587167
0.0018595904 -0.10171859 -0.007917732 0.09858601 -0.14885622 0.08480328 -0.14398324 -0.009062633
7.902086e-05 0.11520447 0.045588523 0.14547904 -0.023437515 -0.13203901 0.054440796 -0.14057383
-0.06931689 -0.046416163 -0.109238386 0.09658395 -0.010712132 0.06462419 -0.15330361 -0.08648308
-0.14225437 0.08557625 -0.14768204 -0.08908817 0.075138986 0.08207093 -0.01115185 -0.04824938
-0.02439867 -0.043901943 -0.06708475 -0.07256023 0.15396385 -0.060060263 -0.039533123 -0.057522796
0.02436458 0.10914935 0.057447113 -0.11952165 -0.036084317 -0.08999729 0.07838189 -0.0072809183
-0.07567026 0.059764195 -0.05801078 0.09493986 0.16479915 -0.12449464 0.01911668 0.11014996
-0.1388317 -0.078040116 0.04185319 0.07113918 0.06503375 -0.024750324 -0.06541631 0.039002962
-0.065927476 0.13615291 0.030965503 -0.04207129 0.010469375 0.07043993 0.005505055 0.027577216
0.034886617 -0.047839224 0.030297669 0.048534747 -0.026524 0.0120016495 0.07422811 0.16074522
-0.06294889 0.18488489 0.09979691 0.03540466 0.102162 0.11219245 0.06931965 -0.02395406
0.060736824 -0.079953484 0.11522819 0.1157169 -0.07530464 0.098857276 0.22327867 0.24192232
0.03563508 -0.10294427 -0.034193862 -0.008686868 0.088356614 0.032108273 0.36681008 0.10955018
-0.07760688 0.2940474 -0.010514415 0.07603571 0.07796948 0.22576088 0.18041386 0.14909561
0.19637842 0.10738634 0.002019825 0.24245688 0.20126265 0.2012052 0.10600005 0.24047525
00000000: 78d4 833c 9379 ee3a 6700 b13d d19e 32bb
00000010: aa47 0cbb bbff 693d 5f29 52bc 3b94 963d
00000020: 8de8 4e3e 39c2 123c 325a 3e3e 97c2 383c
00000030: 8611 38bc d4a5 f53d 756e 5b3e 9749 da3e
00000040: 19d2 a6bd 2335 363d b3b6 713e e578 633d
00000050: 7ec2 fa3d 9bd1 5d3e 0f73 b63e 0b17 4a3c
00000060: 3c98 263e bc52 3f3e aa6e 29bd 7172 ad3d
00000070: f2c7 4f3e fd4e d03e 4189 b03e 4a8a 743e
00000080: eb45 413e fb06 183e 3411 113e a8f7 8c3e
00000090: 970e 903e b303 803e e63d 8d3e da0b da3e
000000a0: 80bd f33a d651 d0bd 60b9 01bc 76e7 c93d
000000b0: c46d 18be 58ad ad3d 5870 13be 707b 14bc
000000c0: 00b8 a538 52f0 eb3d 08bb 3a3d 75f8 143e
000000d0: 0800 c0bc 3c35 07be 50fd 5e3d 96f2 0fbe
000000e0: 03f6 8dbd e01e 3ebd 60b8 dfbd cecd c53d
000000f0: f081 2fbc b059 843d 9ffb 1cbe 0b1e b1bd
00000100: 21ab 11be 9a42 af3d f639 17be dc73 b6bd
00000110: 78e2 993d ce14 a83d 40b6 36bc 24a1 45bd
00000120: b8df c7bc 86d2 33bd bb63 89bd 759a 94bd
00000130: b3a8 1d3e c001 76bd 7ced 21bd 069d 6bbd
00000140: 3a98 c73c b289 df3d aa4d 6b3d c4c7 f4bd
00000150: 26cd 13bd 8050 b8bd af86 a03d c594 eebb
00000160: 02f9 9abd 4dcb 743d b69c 6dbd d46f c23d
00000170: 1cc1 283e 0cf7 febd 959a 9c3c 4d96 e13d
00000180: e629 0ebe 7fd3 9fbd 406e 2b3d 6bb1 913d
00000190: 6a30 853d 31c1 cabc fdf8 85bd 92c1 1f3d
000001a0: fc04 87bd ab6b 0b3e 5eab fd3c f252 2cbd
000001b0: be87 2b3c cf42 903d c063 b43b 9de9 e13c
000001c0: 45e5 0e3d 10f3 43bd d132 f83c 5fcc 463d
000001d0: dc48 d9bc 91a2 443c e804 983d 659a 243e
000001e0: 59eb 80bd 7752 3d3e 5362 cc3d 7a04 113d
000001f0: 503a d13d 28c5 e53d 76f7 8d3d 4e3b c4bc
00000200: 2dc7 783d a7be a3bd c2fc eb3d fbfc ec3d
00000210: 5239 9abd af75 ca3d 2aa3 643e 7cba 773e
00000220: 17f6 113d 72d4 d2bd dd0e 0cbd 5d53 0ebc
00000230: 50f4 b43d f783 033d 88ce bb3e d85b e03d
00000240: 5bf0 9ebd 618d 963e a744 2cbc 9cb8 9b3d
00000250: 76ae 9f3d dc2d 673e 69be 383e 85ac 183e
00000260: 6d17 493e 5fed db3d 0a5f 043b 9e46 783e
00000270: cc17 4e3e bc08 4e3e 8e16 d93d 253f 763e

bias_hh_l1 f4 [160]
0.108356774 0.07929411 0.25163513 -0.078325205 0.003934743 0.02466751 0.0596089 0.07711857
0.19791318 0.086440235 0.1025698 0.19031869 0.23150808 0.22480266 0.020883976 0.25209108
0.037100803 0.054930966 0.23039185 0.1725215 0.088431366 0.05276538 0.26605585 0.056537777
-0.0065815724 0.0337874 0.2197086 0.051416315 0.1787118 0.11364415 0.22414228 0.3680293
0.2262471 0.39139608 0.29848486 0.23681624 0.26454744 0.22139701 0.19615468 0.25648126
-0.14157759 -0.04063338 -0.1387344 0.08293168 0.14192341 0.09333451 -0.044261776 0.074994355
0.06845839 -0.0330669 0.008078739 0.10304473 0.038523465 0.1155384 -0.034910366 -0.14311244
-0.058967642 -0.012745321 -0.104164764 0.07388896 0.099548385 -0.12794611 -0.06557141 0.00310269
-0.08424778 0.15148284 0.016481161 -0.110152036 0.0069545507 0.15075071 -0.14249942 -0.030033007
-0.1445466 0.08488627 -0.093110204 -0.02045104 0.08840202 -0.077251144 0.07627241 0.08338125
0.059967384 -0.04203399 -0.13211124 -0.13063045 0.08739418 0.110669374 -0.12585595 -0.115922876
-0.12217362 0.08134131 -0.02715265 -0.114700064 0.059602164 0.059232764 -0.0901362 0.113806434
0.06757147 0.0046296343 -0.16750045 0.03458258 0.19463618 0.15597244 -0.031189675 -0.09379055
0.14283828 0.08423579 -0.040537883 -0.11428256 -0.057996836 0.061770543 -0.052816752 -0.040484715
0.044633225 -0.18468432 -0.04428479 0.039551895 0.1259437 -0.028027749 -0.017735004 0.09211647
0.11866435 0.061790798 0.024141477 -0.02461043 0.2563008 -0.051734924 0.24348125 -0.14721897
0.038606368 0.16287595 0.13826421 0.043179136 -0.06006673 0.021939998 0.036654435 0.3331769
-0.070515886 0.12168414 0.11675643 0.09941571 0.13727008 0.24772565 0.11889949 0.18502925
0.2062953 0.0059965504 0.010414144 0.10761526 0.19848877 0.22270164 0.18667336 0.25959817
0.15600877 0.16544859 0.14605449 0.2890393 0.19712624 0.18229869 0.20960894 0.24318734
00000000: 28ea dd3d f364 a23d 52d6 803e f768 a0bd
00000010: 04ef 803b 8513 ca3c 7628 743d 57f0 9d3d
00000020: c1a9 4a3e 9407 b13d 1e10 d23d e7e2 423e
00000030: 7410 6d3e ab32 663e df14 ab3c 1512 813e
00000040: 03f7 173d 4bff 603d d7eb 6b3e 7aa9 303e
00000050: 811b b53d 8320 583d 7938 883e 2894 673d
00000060: 3baa d7bb a864 0a3d 4bfb 603e ea99 523d
00000070: 3a00 373e 44be e83d 8e85 653e 566e bc3e
00000080: 52ad 673e 1165 c83e 02d3 983e f57f 723e
00000090: c372 873e e6b5 623e c6dc 483e 8351 833e
000000a0: b7f9 10be 306f 26bd 6410 0ebe 16d8 a93d
000000b0: 5f54 113e 2a26 bf3d d64b 35bd a496 993d
000000c0: ea33 8c3d 2871 07bd b05c 043c 1e09 d33d
000000d0: c8ca 1d3d 669f ec3d 2cfe 0ebd 118c 12be
000000e0: 0e88 71bd c0d1 50bc 5654 d5bd 1853 973d
000000f0: 06e0 cb3d 4e04 03be 4e4a 86bd 8056 4b3b
00000100: 1a8a acbd 511e 1b3e 8003 873c 6497 e1bd
00000110: 00e3 e33b 655e 1a3e 5eeb 11be c807 f6bc
00000120: 0604 14be dad8 ad3d 90b0 bebd f088 a7bc
00000130: 1e0c b53d d935 9ebd b634 9c3d cac3 aa3d
00000140: 5ca0 753d d52b 2cbd 2b48 07be fdc3 05be
00000150: b8fb b23d a0a6 e23d 62e0 00be f968 edbd
00000160: 2a36 fabd 4696 a63d 3c6f debc dee7 eabd
00000170: 6621 743d 0e9e 723d 5499 b8bd 5913 e93d
00000180: e962 8a3d 30b4 973b 3d85 2bbe 77a6 0d3d
00000190: b54e 473e 3db7 1f3e 7d81 ffbc 4315 c0bd
000001a0: 3344 123e d083 ac3d 0d0b 26bd fa0c eabd
000001b0: 178e 6dbd 1c03 7d3d 6156 58bd 4dd3 25bd
000001c0: 54d1 363d e31d 3dbe f863 35bd 2b01 223d
000001d0: 63f7 003e 739a e5bc 0049 91bc 8fa7 bc3d
000001e0: 4b06 f33d 5918 7d3d 59c4 c53c d09b c9bc
000001f0: dc39 833e 00e8 53bd 2653 793e 92c0 16be
00000200: b621 1e3d f4c8 263e 2295 0d3e 9bdc 303d
00000210: 8808 76bd 83bb b33c f622 163d 2a96 aa3e
00000220: a26a 90bd 8935 f93d ff1d ef3d 779a cb3d
00000230: 8790 0c3e cbab 7d3e 9381 f33d 4f78 3d3e
00000240: 133f 533e b67e c43b 16a0 2a3c 6465 dc3d
00000250: a440 4b3e e60b 643e 4d27 3f3e 0dea 843e
00000260: c3c0 1f3e 5b6b 293e 4f8f 153e f6fc 933e
00000270: 76db 493e 82ac 3a3e baa3 563e 1a06 793e

weight f4 [6, 40]
0.48460189 -0.27958408 -0.010172162 0.1471008 0.08324066 -0.3465531 0.18024677 -0.58996326
-0.01737714 0.3345596 0.20292215 0.18944453 -0.076409735 0.046958238 0.15379457 0.24946184
-0.037398484 -0.20382422 0.13963605 -0.12610126 -0.063417666 -0.28999943 -0.2539104 0.13537146
0.14860074 0.22919108 -0.07316855 0.01123476 0.039297227 0.16869235 -0.13771333 0.5353922
0.17112398 0.13694328 -0.36362937 -0.1330431 0.16935487 -0.11354917 -0.2938591 0.24319425
0.04106285 0.2781732 0.25195673 0.45498726 -0.19117713 0.30250284 0.1002377 0.13006975
0.5050986 -0.11087052 0.27500585 -0.026007157 -0.4685335 0.5572666 0.0061112805 0.0002113894
-0.0034297085 0.19926359 0.38100496 -0.43328854 -0.6128604 -0.10750174 0.035953596 -0.28459784
-0.4646792 0.06686434 0.18595615 0.59705925 0.2133476 -0.12676808 -0.23350191 -0.04022817
-0.008595183 0.06144388 0.10285303 -0.26147217 -0.030818375 0.41376078 0.24858977 -0.023914993
0.039539352 0.010840032 0.052833505 0.12325139 -0.0051206914 -0.008199933 0.022911279 -0.041509435
0.08904286 0.05668729 0.082441226 0.015406882 -0.11885002 0.13764313 0.011387112 0.036063403
-0.01111591 -0.025338322 0.038161382 -0.067142785 -0.08591929 -0.056227375 -0.026942402 -0.03426462
-0.041567165 0.069012426 0.01539901 0.11151044 0.05168012 0.014329149 -0.090318784 0.012611903
0.0154870935 0.06868939 -0.02461725 -0.045746457 0.015986612 0.055281322 -0.013159729 0.05006156
0.04861627 -0.5642401 -1.1162512 -0.18095434 0.81606 -0.1871415 0.117352195 0.109818876
-0.5162479 -0.12273156 -0.07134788 0.50519586 0.33011723 -0.58433944 0.44963947 -0.30754325
0.42873767 0.008261562 -1.1647089 0.74177355 0.40268546 0.11489274 0.101903796 0.7715842
0.13015611 -0.5213954 -0.55982184 -0.6452973 -0.7985166 -0.07072683 0.63405925 0.06224057
-0.014957669 -0.46338606 0.036248505 0.2635512 0.5086362 -0.45272285 -0.09130441 -0.2583956
0.3795911 -0.25542602 0.17049064 0.14548086 0.13255599 -0.22236691 0.7756994 -0.47685853
0.19076334 0.5246889 0.5919427 0.4391779 -0.21025799 0.072400786 0.39783233 0.56303096
0.4766657 -0.32155338 0.39582673 -0.7511543 0.07036038 -0.7762756 -0.69688886 0.31220552
0.1764886 0.22155438 -0.52837354 0.048823792 -0.23075595 0.48183143 -0.14740428 0.556585
1.1060864 0.4515844 -0.46962327 -0.39606732 0.6256316 -0.18375163 -0.25817496 0.4658488
0.02051426 -0.11539933 -0.047695328 -0.012849424 0.09088178 -0.108224735 0.14850193 -0.06637533
-0.042154923 0.10457077 0.051286526 0.20170182 0.007519643 -0.028048687 0.19096081 0.07637225
0.2318972 -0.16106685 -0.10496845 -0.009524663 0.04525512 -0.08515179 -0.10591428 0.136041
0.060079724 -0.014609897 -0.18535005 -0.046504308 -0.08726302 0.108499825 0.073738955 0.096944526
0.13134147 0.019282246 -0.098441854 0.0031594438 0.16512033 -0.09560441 -0.12209037 0.059223995
00000000: bd1d f83e a525 8fbe 24a9 26bc 98a1 163e
00000010: 147a aa3d 686f b1be 9c92 383e d507 17bf
00000020: 815a 8ebc 654b ab3e d3ca 4f3e bffd 413e
00000030: b57c 9cbd 4857 403d 537c 1d3e ed72 7f3e
00000040: 272f 19bd 4cb7 50be c1fc 0e3e b020 01be
00000050: 1fe1 81bd ce7a 94be 8b00 82be d19e 0a3e
00000060: cb2a 183e 11b1 6a3e 65d9 95bd 0012 383c
00000070: 21f6 203d b0bd 2c3e b904 0dbe 770f 093f
00000080: 203b 2f3e dc3a 0c3e a12d babe 733c 08be
00000090: 5d6b 2d3e 788c e8bd b374 96be ea07 793e
000000a0: 8531 283d b86c 8e3e 7900 813e 17f4 e83e
000000b0: f0c3 43be a7e1 9a3e 6c49 cd3d 0131 053e
000000c0: 244e 013f 1510 e3bd 91cd 8c3e f60c d5bc
000000d0: 9fe3 efbe 06a9 0e3f 2341 c83b 69a8 5d39
000000e0: f6c4 60bb c10b 4c3e 1513 c33e ffd7 ddbe
000000f0: 6be4 1cbf df29 dcbd 1444 133d cfb6 91be
00000100: 6fea edbe 2cf0 883d 4a6b 3e3e e0d8 183f
00000110: cb77 5a3e 7ecf 01be 201b 6fbe 4bc6 24bd
00000120: cfd2 0cbc 94ac 7b3d 9ca4 d23d aedf 85be
00000130: d176 fcbc 74d8 d33e 518e 7e3e 60e9 c3bc
00000140: 04f4 213d 649a 313c f267 583d 3a6b fc3d
00000150: 79cb a7bb 0359 06bc 6fb0 bb3c cc05 2abd
00000160: 1a5c b63d ef30 683d f2d6 a83d 266d 7c3c
00000170: a467 f3bd 52f2 0c3e 0291 3a3c 38b7 133d
00000180: 811f 36bc 5092 cfbc 1c4f 1c3d 2882 89bd
00000190: 74f6 afbd ad4e 66bd 50b6 dcbc 0f59 0cbd
000001a0: 5542 2abd 6356 8d3d 214c 7c3c 965f e43d
000001b0: 89ae 533d cfc4 6a3c 0ef9 b8bd 28a2 4e3c
000001c0: 94bd 7d3c 06ad 8c3d 1daa c9bc a360 3bbd
000001d0: 5bf6 823c ab6e 623d e79b 57bc 5a0d 4d3d
000001e0: db21 473d 0a72 10bf 52e1 8ebf 184c 39be
000001f0: 4fe9 503f 05a2 3fbe 5956 f03d b8e8 e03d
00000200: d328 04bf af5a fbbd d61e 92bd 8454 013f
00000210: 2005 a93e 4597 15bf 2537 e63e 4f76 9dbe
00000220: 8183 db3e 815b 073c 2e15 95bf dfe4 3d3f
00000230: ca2c ce3e e34c eb3d f0b2 d03d 8b86 453f
00000240: a547 053e 2b7a 05bf 7c50 0fbf 3432 25bf
00000250: 956b 4cbf 3ad9 90bd b551 223f f8ef 7e3d
00000260: 0311 75bc f040 edbe 5079 143d 2ff0 863e
00000270: fb35 023f 4acb e7be cefd babd 6e4c 84be
00000280: c459 c23e 33c7 82be 1995 2e3e eff8 143e
00000290: c2bc 073e 27b4 63be 3c94 463f cd26 f4be
000002a0: 7757 433e 0352 063f 8f89 173f eddb e03e
000002b0: df4d 57be dd46 943d aeb0 cb3e cc22 103f
000002c0: 870d f43e a5a2 a4be cda9 ca3e a64b 40bf
000002d0: 1a19 903d ffb9 46bf 4f67 32bf 67d9 9f3e
000002e0: 6db9 343e 27df 623e 7d43 07bf 75fb 473d
000002f0: 4a4b 6cbe 9cb2 f63e 26f1 16be 5b7c 0e3f
00000300: 3d94 8d3f 1236 e73e 7672 f0be 56c9 cabe
00000310: 6429 203f 6329 3cbe 822f 84be bc83 ee3e
00000320: 850d a83c 7c56 ecbd 2d5c 43bd 6486 52bc
00000330: 3a20 ba3d eea4 ddbd e410 183e caef 87bd
00000340: a4aa 2cbd 3329 d63d d211 523d ec8a 4e3e
00000350: 5667 f63b 5cc6 e5bc 3b8b 433e 0e69 9c3d
00000360: 7676 6d3e b5ee 24be b3f9 d6bd 550d 1cbc
00000370: 6f5d 393d 1064 aebd 96e9 d8bd 554e 0b3e
00000380: 2816 763d 595e 6fbc 67cc 3dbe 4d7b 3ebd
00000390: f4b6 b2bd 2835 de3d 7304 973d da8a c63d
000003a0: 617e 063e cdf5 9d3c e29b c9bd ac0e 4f3b
000003b0: 4e15 293e 3fcc c3bd 840a fabd dc94 723d

bias f4 [6]
0.039974764 -0.58803475 -0.11320505 -0.09650482 -0.05375462 -0.024498217
00000000: 94bc 233d 7289 16bf 0dd8 e7bd 52a4 c5bd
00000010: ce2d 5cbd 7cb0 c8bc
