models/500/state_dict.pt (torch_old, 88287 bytes, 10 tensors)

lstm.weight_ih_l0 f4 [160, 10]
000000 52 20 cf bd 7c 13 58 3c 4c 98 72 3e 58 58 76 3d
       -0.101135865 0.013188239 0.23690909 0.060142845
000010 dd 73 61 be a7 42 b5 be 7f 80 ae 3c f9 d8 b6 be
       -0.22016855 -0.35402414 0.021301506 -0.35712412
000020 37 6c 9b be 75 ca 10 3d 59 cf 7c be 13 98 99 bd
       -0.30356 0.035349328 -0.24688472 -0.07499709
000030 99 9c 0b be c5 37 b9 bd 14 2a 93 bc f4 f6 f2 bc
       -0.13633956 -0.0904384 -0.0179644 -0.029658772
000040 2b e0 b0 bd 46 dc 81 3e 2a 69 5e 3d 2d 85 0b be
       -0.08636507 0.25363368 0.05429951 -0.13625021
000050 f0 88 51 bd 77 79 4e 3d bd a4 d4 3d 67 0d 1b 3e
       -0.051155984 0.050408807 0.10382984 0.15141831
000060 3b 8b 79 3e ee 57 40 3c 98 bf 8d bd c6 aa 72 3d
       0.24369518 0.011739714 -0.06921309 0.059244893
000070 5c 0e 5a 3d ec d6 2b be f1 08 95 3e bc 4e 00 3e
       0.05323635 -0.16781205 0.29108384 0.12530035
000080 85 6a 43 3d 03 3a 11 bd de b4 74 3c 60 c6 62 3d
       0.047709007 -0.035455715 0.0149357 0.055364966
000090 56 ac cd bd 88 17 9c 3c 17 f8 cd 3d d7 e3 5d bd
       -0.10042636 0.01905419 0.10057085 -0.054172363
0000a0 78 be 46 bd fe e5 77 bd 0d b0 e1 3d 1b 54 b7 bd
       -0.04852149 -0.060522072 0.11019907 -0.08951589
0000b0 eb 33 43 3e 21 a4 d5 3d 96 c2 26 bd 2c 90 28 3d
       0.19062774 0.10431696 -0.040712915 0.041153118
0000c0 04 91 bd bb dc cf ec bd 9f 41 ab bc 33 de 63 bc
       -0.0057851095 -0.115630835 -0.020905314 -0.013907957
0000d0 f2 1a 0f be d6 b7 34 3e 58 63 54 be 7d 03 3f bc
       -0.13975123 0.17648253 -0.20741022 -0.0116585465
0000e0 5d 2e 4e be 9e 16 a9 bc 0a 0d ce bd 0b 83 31 be
       -0.20134874 -0.020640668 -0.10061081 -0.17335145
0000f0 a4 6d 92 be d1 3d 07 3e 16 28 90 bc 00 da 6b 3e
       -0.28599274 0.13207175 -0.01759724 0.23032379
000100 3d 2e 4b be 6e 0d 82 be 7c 89 71 be 31 3d 66 be
       -0.19841857 -0.2540087 -0.23587602 -0.2248428
000110 bd 3e fa be e7 f3 88 be 7e c8 5f 3b 1d f6 50 3d
       -0.4887599 -0.26748583 0.0034146602 0.051015962
000120 a0 5c 6f 3d 5b 43 84 bc 3e 6b 7d 3e c4 19 73 3e
       0.058437943 -0.016145399 0.24747941 0.23740298
000130 70 e0 ce 3d f4 b5 78 3e 9b ee 8f 3e ca 13 03 3d
       0.10101402 0.2428816 0.2811173 0.032001294
000140 84 0f 49 be 80 7d a4 bb 55 c9 00 3d f8 0a 12 be
       -0.19634825 -0.0050198436 0.031442005 -0.14261997
000150 da 0d b6 3e d0 bb b0 3e 1a 27 11 3e af d1 42 3e
       0.35557443 0.3451829 0.14175072 0.190253
000160 8e 0e 83 3e 89 00 9a bd 93 98 82 3d fe d4 29 3d
       0.25597042 -0.07519633 0.063767575 0.04146289
000170 a8 ce 62 3e 02 49 65 be 9d 98 90 3e da 9e 0e 3e
       0.22149146 -0.22391132 0.28241435 0.13927785
000180 e2 f4 e1 bd ca e1 60 3a 92 8f 54 3e a9 76 c7 bd
       -0.11033036 0.0008578567 0.20757893 -0.097394295
000190 b1 67 b4 3c 7b 21 29 3e 23 07 54 3e 2c 5a 89 bd
       0.0220221 0.16516678 0.20705847 -0.06706652
0001a0 d3 44 18 3e ce 2a 6b 3e bc 55 9e be b6 ed 0f 3e
       0.14870004 0.22965547 -0.30924785 0.14055523
0001b0 e6 1b 6e 3e 97 e9 2e be 93 85 e8 bc 61 03 c4 bd
       0.2325283 -0.17081295 -0.028384006 -0.09570957
0001c0 72 96 57 be 86 3a db 3e 53 d9 c6 be 51 a2 85 be
       -0.21053484 0.42818087 -0.3883768 -0.261004
0001d0 74 50 21 bd 75 c6 70 be 9f bd dd be b8 3e 65 be
       -0.039383367 -0.23513205 -0.43308732 -0.22387207
0001e0 ec 35 e4 bd 79 ce b5 3c 3f 7c a6 bd 50 33 a9 3e
       -0.11143097 0.02219318 -0.08129167 0.3304696
0001f0 b7 33 af 3d fd 7b 3b bd b1 b2 ad be 63 3f 81 3e
       0.08554786 -0.04577254 -0.33925393 0.25243673
000200 77 30 90 3c df a9 be be 6a 06 16 be 15 c2 08 be
       0.017601235 -0.37238976 -0.14650884 -0.13355286
000210 6d 7e 90 bd 0d c3 e8 3c c3 6e 80 3e 7c cf 8e 3d
       -0.07055364 0.02841332 0.25084504 0.06973168
000220 dc a7 83 be a5 50 f8 3d fc 44 a6 3d c4 3d dc bd
       -0.25714004 0.12124757 0.081186265 -0.10753968
000230 0e c8 ee bc 65 f8 a6 bd 63 c5 12 3d c0 b8 34 3e
       -0.029148128 -0.08152846 0.035832774 0.17648602
000240 ba 2b 9f bd d2 7c 54 be b6 27 7b bd 38 65 b2 bd
       -0.07772012 -0.2075074 -0.06131717 -0.08710712
000250 cb 3c 5f be 52 e9 8f be 5b 45 6d 3f 05 3d 23 bd
       -0.21800534 -0.28107697 0.92683953 -0.039853115
000260 ff 61 73 be d0 76 cd bc a0 d1 bd 3e d4 6d be 3d
       -0.23767851 -0.025081068 0.37073994 0.09298292
000270 41 f5 0e be e7 3d 96 3e 61 e1 19 3e ca 51 c2 3b
       -0.13960744 0.29344103 0.15027381 0.00593016
000280 99 e9 45 3e 3d 58 35 be 20 f7 b0 bd 49 a7 b3 bc
       0.19327392 -0.17709441 -0.08640885 -0.021930354
000290 cb cc ce 3d 29 51 f7 3d 80 bc c2 bd 47 76 a1 3e
       0.10097655 0.12076027 -0.0950861 0.3153555
0002a0 a7 97 38 3e b0 f0 9c be d0 74 e4 3c 9d 58 f6 3e
       0.18026601 -0.3065238 0.027887732 0.48114482
0002b0 42 8a 68 3e 5c 01 d0 3d 3f 72 cc bc aa 9e 86 3b
       0.22708991 0.10156509 -0.02495682 0.0041082697
0002c0 bc c4 36 be c3 d3 e3 bd d0 d4 4e be d5 28 88 be
       -0.17848486 -0.11124375 -0.20198369 -0.26593652
0002d0 ff 63 e8 3d 86 ec 6f bb 78 c7 8d 3e 75 f2 a4 3d
       0.11347198 -0.0036609485 0.27691245 0.080540575
0002e0 a5 c9 c4 bd 21 40 09 bb 21 c6 88 be ee 61 20 bd
       -0.09608773 -0.0020942765 -0.2671366 -0.039155893
0002f0 ed da 0f be 66 c7 91 be c9 48 db bd 94 b4 0d 3e
       -0.14048357 -0.2847244 -0.10707242 0.13838416
000300 3c 67 ef 3d 69 ff db bc 42 fa a9 bc 22 57 bc 3d
       0.11689612 -0.026855187 -0.020749215 0.09196307
000310 dc ee 3d be f2 0c 4c 3d 50 1b 8b bd b3 16 97 bc
       -0.18548149 0.049817033 -0.06792319 -0.018443441
000320 f1 57 80 3e 28 2e f8 bc cd 9d 10 be de 30 e9 bd
       0.25067094 -0.030295447 -0.14122696 -0.11386274
000330 e1 f8 94 3c a8 51 a7 3c af 28 3f be 47 c2 36 be
       0.018185081 0.020424679 -0.18667863 -0.17847548
000340 32 b0 3f be 5b 11 d8 bd 9f f9 d4 3e 45 18 c7 3d
       -0.18719557 -0.10550185 0.41596696 0.09721426
000350 ea f6 1f be 2d 7d 02 be 08 af 2e 3e 8a a4 98 3e
       -0.15621534 -0.12743063 0.17058957 0.29813033
000360 95 bc 79 be 3f 47 00 3e 1e f7 8a 3e 5b 95 69 be
       -0.24388345 0.12527178 0.2714166 -0.22810881
000370 e8 80 69 3d 32 4a c8 bb f1 d9 05 3e c7 b4 aa 3d
       0.0570077 -0.0061123604 0.1307142 0.08335262
000380 55 15 04 3e 85 9c a1 3d 38 9d 61 bd b6 4c 07 3d
       0.12898763 0.07891182 -0.055081576 0.03303214
000390 01 4c f8 3d 03 2c c4 3d 76 00 39 be e0 53 bd bb
       0.121238716 0.09578707 -0.18066582 -0.005777821
0003a0 c2 c2 69 3e 61 8c 81 3e 60 aa 45 be b7 05 60 3d
       0.228282 0.25302413 -0.19303274 0.05469295
0003b0 4a c5 6f be 55 5c b7 3c 4a 4d 80 bd e4 7a b6 be
       -0.23415104 0.022382895 -0.06264742 -0.35640633
0003c0 c0 83 cd bd e2 8c 32 3e 44 bc b1 3d 42 37 5c 3e
       -0.10034895 0.17436555 0.08678487 0.21505454
0003d0 30 2f fd 3d 3d ec e4 3d 4f a0 e3 bd 13 c5 8e 3e
       0.12362516 0.111778714 -0.11114561 0.2788473
0003e0 4f 79 79 3e f5 18 de bd ea 19 d1 bd 17 8c 03 3e
       0.24362682 -0.10844604 -0.10210021 0.12846409
0003f0 1c ea 35 3e 85 c4 2e 3d ad 36 09 3e ba a0 9e 3e
       0.17765087 0.042667884 0.13399763 0.30982

lstm.weight_hh_l0 f4 [160, 40]
000000 57 53 0f be 80 68 e1 ba 20 e6 94 bd fa 89 db 3d
       -0.13996635 -0.0017197281 -0.07270455 0.10719676
000010 64 f5 6d 3d 6a 81 b1 3d ca 3e d1 bd 50 55 27 3c
       0.05809535 0.08667262 -0.10217054 0.010213211
000020 7d 45 8f bd 76 29 92 3d 80 8e f6 3a 86 91 e6 bd
       -0.06995676 0.07136814 0.0018810779 -0.11258225
000030 d0 02 bc 3c 6f 93 17 3e 10 66 12 3d e6 ae 90 3d
       0.02295056 0.14802335 0.035741866 0.07064609
000040 22 22 ed bd 28 1a f1 3c 28 05 0a 3d 10 d0 0c be
       -0.11578776 0.029431418 0.033696324 -0.13751245
000050 48 b5 94 3c 09 b6 aa bd 70 26 6b bd 7c 92 a3 bd
       0.018152848 -0.08335502 -0.057409704 -0.07986924
000060 e4 e8 9c 3d ee 5c bf bd ab 53 1a be 66 28 14 bd
       0.07661608 -0.09343897 -0.1507098 -0.03617134
000070 c6 fb 03 be 08 96 9b 3c 16 31 f4 3d 18 e8 3e bd
       -0.12889013 0.018992439 0.11923425 -0.04660806
000080 d4 25 21 be e0 50 7b 3c 24 74 51 3d 9e 23 c0 bd
       -0.15737087 0.015339106 0.05113615 -0.093817934
000090 b2 3b 8d 3d 07 ec cd bd 75 25 0f 3e 40 8a b3 bb
       0.068961516 -0.10054784 0.13979132 -0.005479127
0000a0 20 62 80 bd 30 b6 21 bd 5c 18 30 3d 2e 78 16 bd
       -0.06268716 -0.03948039 0.04299198 -0.036735706
0000b0 e2 9f d9 bd 50 60 19 bc ee 28 e5 3d 4a 5b cb 3d
       -0.10626198 -0.009361342 0.11189447 0.099295214
0000c0 aa e9 d7 3d c8 90 56 bd 54 22 c7 bd 0a 6c e7 bd
       0.10542615 -0.052384168 -0.097233444 -0.11299904
0000d0 80 5e af 3d c0 52 e6 bd 53 e9 bf bd e8 99 bf 3c
       0.08562946 -0.11246252 -0.09370675 0.023388818
0000e0 99 b8 0f be a4 6b 0b 3d 30 74 4f 3c 48 21 68 bd
       -0.14035262 0.0340382 0.012661979 -0.056672364
0000f0 b7 47 0a 3e f8 bb 26 3d c0 3f 30 bd 28 6c 99 bc
       0.1350392 0.040706605 -0.043029547 -0.01872833
000100 94 04 44 3d fe eb c6 bd 6a b9 df bd e8 c0 1f bd
       0.04785593 -0.09712981 -0.10924037 -0.03900233
000110 80 51 7f 3b f6 6d b5 3d f0 10 11 bc 3e 87 0a bd
       0.003895849 0.08858864 -0.008854136 -0.033820383
000120 2f a4 12 be b6 66 bf 3d 2b 2c 00 be ee b9 9d 3d
       -0.14320444 0.093457624 -0.12516849 0.07701479
000130 92 56 72 bd 9b 41 b7 bd 93 76 9a bd 4d b8 12 3e
       -0.05916459 -0.0894806 -0.075421475 0.14328118
000140 aa 75 e7 bd 19 07 0e be d4 f1 d5 bd c5 ef 04 3e
       -0.113017395 -0.13869895 -0.10446516 0.1298209
000150 9e 22 0e be fa 3f 8c 3d 1f ef 17 3e 8a 81 cf 3d
       -0.13880393 0.0684814 0.14837311 0.101321295
000160 b0 9a 6f 3c 40 15 34 3c d2 e9 b9 3d 04 28 9a 3d
       0.014624283 0.0109913945 0.09077801 0.075271636
000170 00 9e 82 3a 82 60 9a 3d 92 e4 3d bd 2e 15 99 bd
       0.00099653 0.07537939 -0.04636056 -0.07474743
000180 55 0c 09 3e cc e9 42 bd 10 83 8a bc d1 71 14 be
       0.1338361 -0.047586247 -0.016908199 -0.14496543
000190 00 40 7d 3a 95 5b b8 bd 8a 19 d2 bd be 69 83 bd
       0.0009660721 -0.09001843 -0.102587774 -0.06416653
0001a0 26 c2 03 be 00 0f 3a 3c 28 4a bc 3c 40 2a 2f bb
       -0.1286703 0.011356115 0.02298458 -0.0026728064
0001b0 73 e0 21 be 58 91 82 3d 3a d8 fe bd ee 25 f4 3d
       -0.15808277 0.06375378 -0.12443586 0.11921297
0001c0 10 28 7d 3c 91 5f fc bd fa 9e c8 3d 60 4e e5 3c
       0.015451446 -0.12322915 0.097959474 0.027991474
0001d0 55 f2 10 3e 82 57 bb 3d 01 e6 1c 3e 6c 0f 10 be
       0.14154942 0.0914755 0.15322115 -0.14068383
0001e0 7c 8f 51 bd 80 56 39 bd a0 b2 f0 bc 40 dd be 3b
       -0.051162228 -0.04524851 -0.02938205 0.005824715
0001f0 06 09 bd 3d d1 49 19 be 20 25 c6 bd be 3e ed 3d
       0.09230237 -0.14969565 -0.0967505 0.11584233
000200 e8 de a0 3c a0 3b 05 bc 00 bf 06 3c 4b 66 1e be
       0.01963754 -0.0081318915 0.008224249 -0.15468709
000210 dd 1c 06 3e 2e d0 7c bd f2 01 b6 3d b0 d1 4d bc
       0.13096948 -0.061721973 0.0888709 -0.0125622
000220 d8 82 c3 3c e6 ac f0 3d c0 02 91 3b c0 4e bc 3c
       0.023866102 0.11751728 0.0044253767 0.02298677
000230 72 49 ec 3d 32 1a ac bd 11 6f ab bd 56 b0 d4 bd
       0.11537446 -0.08403434 -0.083707936 -0.10385196
000240 e0 47 56 bc 84 44 02 bd f2 3b ce 3d 94 1a 1e be
       -0.01307866 -0.031803623 0.100700274 -0.15439826
000250 02 69 df 3d ae dc 9d 3d 46 b2 de bd c4 e8 ae bd
       0.109087005 0.07708107 -0.10873847 -0.0854049
000260 ba b4 b3 3d a3 c2 04 3e 15 9c 09 3e 5b 6a cd bd
       0.08774705 0.12964873 0.13438447 -0.10030051
000270 53 04 ad bd e4 14 07 be cc dc 9c bd f2 60 ba 3d
       -0.084480904 -0.13191563 -0.07659301 0.09100522
000280 40 1f 18 bd 88 04 95 bd 10 31 fa bc 70 8b 99 3c
       -0.037139177 -0.07276255 -0.030540973 0.018743247
000290 f8 06 54 3d c4 5c 5f 3d 82 a8 f8 3d 19 b9 b2 bd
       0.05176446 0.054531828 0.12141515 -0.08726711
0002a0 6e 14 8a 3d 3d 6f 11 3e 2b 66 0d 3e c2 7f fa 3d
       0.06742178 0.1420259 0.13808505 0.12231399
0002b0 fb 64 1c 3e fa f2 ee 3d 10 64 8d bd f4 df 09 3d
       0.15272896 0.11667438 -0.06903851 0.033660844
0002c0 42 5f a5 bd 78 99 6d 3d 47 74 1b 3e 60 97 c6 bc
       -0.080748096 0.058007687 0.15181075 -0.024242103
0002d0 02 46 c9 3d 56 59 a4 3d ff 83 12 3e 50 b6 8a bd
       0.09827806 0.08024852 0.14308165 -0.067730546
0002e0 00 86 af 3d 74 e3 12 be ac 01 87 3d cb 14 1d 3e
       0.0857048 -0.14344579 0.06592116 0.15339963
0002f0 ae d6 d5 3d 7d 45 11 3e be 3d ec bd b4 55 d1 bd
       0.104413375 0.14186664 -0.11535214 -0.10221425
000300 46 b7 be bd 28 7c e2 bc 06 49 14 be 38 da 61 3d
       -0.093123004 -0.027647093 -0.14480981 0.05513975
000310 40 ee 88 bc ba 2a d5 3d 2a a4 d5 bd d4 1f a6 3d
       -0.016715169 0.1040854 -0.104317024 0.081115395
000320 0e 14 9f 3d d0 2e af 3d 5a b8 f4 3d a4 f0 e8 bd
       0.07767497 0.08553851 0.11949225 -0.113740236
000330 62 f9 fe 3d d2 d3 d2 bd e4 49 c0 bd ca b7 d6 bd
       0.1244991 -0.10294308 -0.093890935 -0.10484274
000340 ca ad 07 bd 67 53 0b be 11 04 8d bd 70 5f 06 3c
       -0.033124723 -0.13606034 -0.06885541 0.008201465
000350 e8 63 14 be b0 58 ba 3c 2c 78 da bd d2 a1 e7 3d
       -0.14491236 0.022747368 -0.10667452 0.11310162
000360 00 b2 f6 39 c8 2d cb bc f8 50 61 bd 40 7c 38 bb
       0.00047053397 -0.024802104 -0.05500886 -0.002815023
000370 80 4e c6 bc 11 e9 02 be 10 b1 a2 bc d0 60 27 3c
       -0.024207354 -0.1278422 -0.01985982 0.010215953
000380 c0 69 7a bb 1a d9 d7 3d 2b 38 02 be 38 f1 a4 bc
       -0.0038210005 0.10539456 -0.12716739 -0.020134553
000390 2f d4 a5 bd 82 15 e4 bd b6 5c ef 3d bc 4b 51 bd
       -0.080971114 -0.11136915 0.11687605 -0.051097617
0003a0 dc ad a0 3d 48 a0 92 3c 9c 5f cc bd 03 84 e4 bd
       0.07845661 0.017898694 -0.099791735 -0.11157992
0003b0 af e0 14 be 0b 3e 96 bd c2 da ef bd 74 2a 0f be
       -0.14538835 -0.073360525 -0.117116466 -0.13981038
0003c0 05 5c 13 be 02 d8 b5 bd 06 f6 ac bd dd ee 0d be
       -0.14390571 -0.08879091 -0.08445363 -0.1386065
0003d0 08 92 df bd 40 af 0e 3c b4 b6 1c be da 90 c0 3d
       -0.10916525 0.008708775 -0.1530407 0.09402628
0003e0 f8 b9 53 3d 1c fe b3 bd c0 2f 26 bb e0 4d c0 bc
       0.051691025 -0.08788702 -0.002535805 -0.023474634
0003f0 cf 14 a2 bd 34 81 38 3d 0c 36 a4 3d 54 0a ac 3d
       -0.07914125 0.045045093 0.08018121 0.084004074

lstm.bias_ih_l0 f4 [160]
000000 a6 06 1b 3e 37 87 5f 3e 63 06 b8 3d 9c 3a d5 3d
       0.15139255 0.21828924 0.08985593 0.104115695
000010 f6 02 86 3e e8 d9 0c bc 8a 7b 6f 3e 8d 97 51 3e
       0.26174134 -0.008596875 0.2338697 0.20467968
000020 af bb be bd 97 38 4d 3e 0f 6e 12 3e 18 61 3f be
       -0.093131416 0.20041119 0.14299797 -0.18689382
000030 96 4f 9a 3e 6b fd e4 3d a0 38 20 3e 57 0b 45 3e
       0.30138844 0.11181148 0.156466 0.19242607
000040 51 31 06 3c e4 c7 2b 3e 0c 60 10 3e b1 de 8d 3e
       0.008190469 0.16775471 0.14099139 0.27708963
000050 9a 8e 62 3d 2d a2 8b 3e a5 70 81 3d c4 ca 87 3d
       0.055311777 0.27272168 0.06320313 0.06630471
000060 61 1c 84 3e 29 b1 8e 3e 84 8e be 3d 59 8b 44 bd
       0.258029 0.27869537 0.093045264 -0.047984455
000070 ca 30 6e 3e 5f ed be 3e c7 e0 b5 3e 67 60 05 3e
       0.23260799 0.37290475 0.35523054 0.13025056
000080 63 95 86 3d 7b 92 aa 3e dc cc 81 3e 68 c6 3d 3e
       0.06571462 0.3331488 0.25351608 0.18532717
000090 f9 4b 8b 3d 58 50 fc 3d 3b b3 09 3e 52 ee 25 3e
       0.068016 0.12320012 0.13447277 0.16204193
0000a0 99 20 13 3e a4 5f 1a be 00 da 50 bb d0 a2 79 3c
       0.14367904 -0.15075547 -0.003186822 0.015236571
0000b0 fb 35 13 3e 60 f6 6d 3d 72 ea b3 bd 71 ff d6 bd
       0.1437606 0.05809629 -0.08784951 -0.1049794
0000c0 90 42 2d 3d 74 4d c7 bd b0 df 1b 3d 10 25 cd bd
       0.042299807 -0.0973157 0.038055122 -0.10016835
0000d0 36 bc 47 bd 60 93 cb bc 66 bf fa bd d9 74 07 3e
       -0.048763476 -0.024850547 -0.122435376 0.13228168
0000e0 b5 8a 04 3e c6 28 c3 bd c8 84 a0 3d 90 ae 26 3c
       0.12943538 -0.09529261 0.07837826 0.010173455
0000f0 18 fa 87 3d ae 64 0a be 6e 84 dc 3d c0 95 1a bd
       0.066394985 -0.13514969 0.107674465 -0.03774047
000100 56 26 f6 3d 75 eb 1d 3e e5 78 80 bd 4c 31 a5 bd
       0.12019031 0.15421851 -0.06273059 -0.08066043
000110 88 76 8c 3c 1c 52 63 3d b2 c4 fd 3d c2 05 ff 3d
       0.017146364 0.055498227 0.12391032 0.1245227
000120 9a de 9a bd 48 6b 1d be 86 ab ed bd 2e 25 38 bd
       -0.07561989 -0.15372956 -0.11604981 -0.044957332
000130 74 a1 0d bd 56 00 13 be ca de ef 3d 2a 06 c0 3d
       -0.0345778 -0.14355597 0.117124155 0.09376176
000140 1d 56 85 3d f7 37 ff bd cb ba be 3d ff 82 f1 bd
       0.065105654 -0.12461846 0.09312972 -0.11792564
000150 7f 27 06 3e aa 7f 6b bd 73 96 50 be 09 a7 3e be
       0.13101004 -0.057494797 -0.20369892 -0.18618406
000160 39 f8 0a 3e 91 21 92 3d ac 35 09 bd fd c3 ff bd
       0.13571252 0.071353085 -0.03349845 -0.12488554
000170 0d 1d 1c be bf 51 af 3b 2c 05 f3 3d 82 5c b7 3d
       -0.15245457 0.005350321 0.11866221 0.08953191
000180 6a fd a8 bd 87 15 34 3d 0d 28 23 be 66 3c dd bd
       -0.0825146 0.043965843 -0.15933247 -0.10802536
000190 a4 97 b9 ba 64 17 67 be ad 75 13 be 76 00 06 bd
       -0.0014159572 -0.22567517 -0.14400358 -0.032715283
0001a0 b7 31 11 be 78 88 6d bb 81 93 1a be 1d 7c 13 3e
       -0.14179121 -0.0036244672 -0.15095331 0.14402814
0001b0 76 8d ad 3c a8 b7 16 3e 78 39 e1 3d cf ac fe bd
       0.021185618 0.14718497 0.109972894 -0.124353044
0001c0 4b be b7 bd 19 3a 76 3d f9 50 66 3d 18 88 cc 3d
       -0.089718424 0.060114 0.056229565 0.09986895
0001d0 0f 11 95 3d 6c 81 1a be bd 70 a1 3c 37 a3 9e bc
       0.07278644 -0.15088433 0.019707078 -0.019364936
0001e0 94 a4 1e ba 3a 0f cb bc cd 33 0d 3d 2d 24 86 3d
       -0.0006051746 -0.024787534 0.03447323 0.06549869
0001f0 fb 14 e8 3d df 5f 07 3d c5 3c 2d 3d 41 39 66 bc
       0.11332127 0.033050414 0.042294282 -0.014051736
000200 2e 9e 3e 3e f5 a7 31 3d c1 40 88 3e f6 31 14 bd
       0.18615028 0.043373067 0.26611903 -0.03618046
000210 a0 fa 38 3e 47 f7 84 3e 39 e9 67 3d 20 76 be 3d
       0.18064356 0.25969908 0.056618903 0.09299874
000220 60 4e 13 3e 99 ed 02 3e b4 1d 86 3e ad 11 97 3d
       0.14385366 0.12785949 0.26194537 0.07376418
000230 67 eb 80 3e 66 2b 73 3e 77 bf cc bd fa 0e 12 3e
       0.25179598 0.23747024 -0.099974565 0.14263526
000240 c4 a2 c8 3e 3a c6 4f 3e 53 03 58 3e cd b1 0b 3d
       0.3918668 0.20290461 0.21095018 0.03410511
000250 3a 42 d4 3d ee 16 b0 3d 98 2b cf 3e 7d ff 87 3e
       0.10364194 0.085981235 0.40462947 0.2656211
000260 3f f0 6d 3e 13 25 cb 3e 46 24 41 3d 3b 4c 18 3e
       0.23236178 0.39676723 0.047153734 0.1487283
000270 08 ee 8b 3e 34 1d 4e 3e f1 53 17 3e 3f 4f 08 3d
       0.2733004 0.20128328 0.14778115 0.0332787

lstm.bias_hh_l0 f4 [160]
000000 62 06 1d 3d df 0a 68 3e b7 d6 9f 3e c2 29 12 3d
       0.038336165 0.22660397 0.31218502 0.035684355
000010 6e 30 9b 3e e0 ca 4c 3c e9 14 72 bc dd a2 1c 3e
       0.30310386 0.012499541 -0.014775493 0.15296502
000020 51 45 be 3d e6 cf ce 3d 29 bc 4b 3e b4 8e 23 bc
       0.09290565 0.10098247 0.19895996 -0.009982754
000030 b0 db b0 3e 16 7a 85 3e 37 01 97 3d 71 ec 6d 3e
       0.34542608 0.26069707 0.073732786 0.23234726
000040 1d ce a7 3b 4a d5 47 3e 46 b0 5e 3d b8 ed 18 3d
       0.005121006 0.19514957 0.054367326 0.03733608
000050 91 d6 a6 bd 0b c9 84 3d 7c 2f 06 3b df f8 43 3e
       -0.08146394 0.064836584 0.002047508 0.19137906
000060 4b cc 42 3e 25 a4 df 3d 25 0c b5 3c 69 28 3d 3d
       0.19023244 0.1091998 0.022100518 0.046181116
000070 e2 1c a4 bc 4e 11 30 3e ad fe ae 3e 63 05 7a 3e
       -0.020033304 0.17194101 0.34178677 0.24416117
000080 97 70 9b bd 42 84 40 3e 84 7e 9b 3e f9 98 8d 3e
       -0.07589834 0.18800452 0.3036996 0.2765577
000090 fe 8d 4a 3e 6a c3 a1 3e 3b c4 80 3d 74 69 6b 3e
       0.19780728 0.31594402 0.06287428 0.22989446
0000a0 c7 b7 09 3e 12 11 df bd 18 64 38 3d d9 56 13 be
       0.13449012 -0.10891928 0.04501733 -0.14388599
0000b0 da f8 64 bd 2b 30 07 3e da 03 c2 3d dc c2 ab 3d
       -0.055901386 0.13201968 0.09473391 0.08386776
0000c0 ee 1f f1 3d 52 6f ec bd 80 32 99 3a 44 d1 48 3d
       0.11773668 -0.1154467 0.0011688024 0.049027696
0000d0 2c 2a e1 bd 25 4a d1 bd 9e 27 8f 3d 88 fc 0f 3d
       -0.10994372 -0.1021922 0.06989978 0.035152942
0000e0 f4 04 63 3d 70 cc 6c bc 1a f3 c0 3d 60 42 5e bc
       0.055424646 -0.014453039 0.09421368 -0.01356563
0000f0 89 99 14 3e ae 3f 9c 3d c7 79 c3 bd 4f 4e 06 3e
       0.14511694 0.076293334 -0.095447116 0.1311581
000100 48 e8 57 bd 53 ad 02 3e 4a da 99 3d be 57 39 bd
       -0.052711755 0.1276143 0.075123385 -0.045249693
000110 83 00 8c bd 96 86 77 bd 72 c2 e5 bd 17 40 12 3e
       -0.06836035 -0.060431086 -0.11218728 0.14282261
000120 6d 8a 01 be ea 25 1f bd d7 dd 13 3e 00 b6 31 3c
       -0.12650461 -0.038854517 0.14440094 0.010846615
000130 e4 99 19 3d 20 f6 6b bd 68 ca f0 3c 24 a9 4f 3d
       0.037500277 -0.05760777 0.02939339 0.050698414
000140 be a8 a4 bd 77 8d b9 bd 11 5e c3 3d a1 1c d8 bd
       -0.080399975 -0.090601854 0.09539426 -0.105523355
000150 0f 54 93 ba 58 19 c3 3d b9 ec 8e bc da 69 ce bd
       -0.0011240261 0.09526318 -0.017446863 -0.10078783
000160 c5 0e 4d 3d 0d e2 8d 3d e0 2b c7 bd ed 31 e3 3c
       0.050062913 0.069278814 -0.09725165 0.027733767
000170 0f 1c cf 3d f0 51 76 bd c9 ae 69 bc e3 81 23 3e
       0.101127736 -0.060136735 -0.014262863 0.15967517
000180 f1 79 31 be 66 b6 9e bd 6f 0a 15 3e 4f d0 07 3b
       -0.17331673 -0.077496335 0.14554761 0.0020723527
000190 7c 2b 20 3d a0 22 4c be a1 14 67 3d 0e 52 52 3e
       0.03910397 -0.19935083 0.056416158 0.20539114
0001a0 5d eb 53 3d 54 64 06 3e e9 70 b4 3c 89 9b a3 3c
       0.05173813 0.1312421 0.022026496 0.019971626
0001b0 63 f6 bd 3d d4 77 22 3e 39 56 41 3e 4c f5 22 be
       0.0927551 0.15866023 0.18880548 -0.15913886
0001c0 63 1d a0 bd 4a 1b 9f 3d 5b 1b 6c 3d aa 21 ca bd
       -0.07818105 0.07768877 0.057643276 -0.09869702
0001d0 81 99 57 be 60 b8 14 be 1e cd e3 bc 34 9e 81 3d
       -0.21054651 -0.14523458 -0.027807768 0.06329003
0001e0 59 ea 29 3e 24 be ef bc a9 23 f4 3d 73 15 5a 3e
       0.16593303 -0.02926547 0.11920864 0.21297245
0001f0 77 d9 28 3e e7 2a d1 bd f8 a5 00 3e f9 24 e5 3d
       0.16489206 -0.10213261 0.12563312 0.111886926
000200 93 80 c0 3d ad 96 3a 3e 39 2b df 3e 9b d6 9e bd
       0.093995236 0.18221541 0.43587664 -0.077557765
000210 d8 c5 47 3e 29 db d1 3e d8 4b 1d 3e 49 bd 68 3e
       0.19509065 0.40987518 0.15360963 0.22728457
000220 65 eb 79 3e 79 91 92 3e f0 16 62 3e f1 a3 85 3e
       0.24406202 0.28626612 0.22079062 0.2610164
000230 fa bf 68 3e 57 0f ad 3e b8 b0 3d 3e 54 b1 69 3e
       0.22729483 0.33800766 0.18524444 0.22821552
000240 b8 86 a3 3e 63 0a b3 3d d5 8c 30 3e ce fe 64 3e
       0.3193872 0.087422155 0.17241223 0.22362825
000250 c2 08 2b 3e fb 2a 47 3e c8 09 26 3e 26 c8 a0 3e
       0.1670256 0.1944999 0.16214669 0.314027
000260 ac 3a e9 bc 63 93 c9 3e f8 c0 41 3e ce 8d 94 3d
       -0.02847036 0.3937026 0.18921268 0.072536096
000270 3d c7 6e 3e 6b 5e fe 3d 66 31 6b 3e 11 0d 03 3e
       0.23318191 0.124203525 0.22968063 0.12797953

lstm.weight_ih_l1 f4 [160, 40]
000000 0b e6 f7 3d 5b d8 22 be d8 50 a3 3e 87 cb 9c 3e
       0.12104424 -0.15902846 0.31897616 0.3062403
000010 62 29 08 bc f6 ca 03 bd 4f 4d 84 3e ff 60 ce bd
       -0.008310648 -0.03217598 0.25840232 -0.10077094
000020 f6 e3 58 3e 13 36 f7 be a1 91 63 be a3 a5 b1 3e
       0.2118071 -0.48283443 -0.22223522 0.34696683
000030 8f b6 1c be 1d 31 8f 3d 37 c1 84 be 9f 3c 69 3e
       -0.15304016 0.069917895 -0.2592866 0.22777031
000040 6e 40 f1 3b 44 32 8c be 38 3a 93 be ab a9 3f 3e
       0.007362417 -0.273821 -0.28755355 0.18717067
000050 95 e2 cc 3e 17 c3 39 3c d2 f4 57 bc 3e 85 87 be
       0.40016618 0.011338017 -0.013180928 -0.26468843
000060 9b 89 a4 be f6 16 e4 3d 67 4a ad bd dc 0f e2 3d
       -0.32136235 0.11137192 -0.08461457 0.11038181
000070 3d e9 da bc ce 3e 44 3e 8d 55 2e 3e 46 22 be bd
       -0.026722545 0.19164583 0.17024823 -0.09283881
000080 99 98 03 3e 5b 55 33 3e ee 0d 1f 3e 1f 94 6c 3d
       0.1285118 0.1751303 0.15532658 0.057758447
000090 24 dc 3e 3d 3c 79 80 be 65 fd 4d bd 8b aa 12 3d
       0.04659666 -0.25092494 -0.050290484 0.035807174
0000a0 2f a8 c2 bc 8f 42 d2 bc e2 01 38 3d c6 52 29 3e
       -0.023761837 -0.025666503 0.04492367 0.16535482
0000b0 ad 1b 88 bd 6c ee 87 be 16 eb 58 3e 71 9a 55 be
       -0.06645904 -0.2654909 0.21183428 -0.20859696
0000c0 99 ed 30 3e 57 07 31 be f0 db 80 be e7 64 d8 bd
       0.17278136 -0.17287956 -0.251678 -0.105661206
0000d0 2e d7 58 bd bc 8b 7f 3d a3 d8 23 be 64 05 35 3e
       -0.052939586 0.06238912 -0.16000609 0.17677838
0000e0 8e 48 5b 3e ec 83 70 be f4 23 14 bd 6f 3c 5c 3e
       0.21414396 -0.23487824 -0.0361671 0.21507429
0000f0 8e 5b fe 3d 8c d6 3c be 2f f8 08 3e e8 7e cd bd
       0.124198064 -0.18441218 0.13375925 -0.10033971
000100 67 0f 9a be 9c 22 47 3e 8b da bf bc ce 37 8c be
       -0.30089876 0.19446796 -0.02341964 -0.27386326
000110 27 c5 8b bd 29 ed d4 3e b5 09 8e 3e c6 ec 3b be
       -0.06824713 0.4158719 0.2774178 -0.1835204
000120 e8 26 b1 bd 76 4e 0e 3e 7b f6 ce 3e 47 8b d3 ba
       -0.08649999 0.13897118 0.40422425 -0.001613953
000130 af cb 1b be e3 e5 75 3c 4f 1d 6b 3e 2a 53 9d be
       -0.15214418 0.015008423 0.22960399 -0.30727512
000140 77 80 6d 3e 0a 54 96 3d 8b f3 77 be 3f 89 7c be
       0.23193537 0.07340248 -0.24213998 -0.2466173
000150 42 15 a9 3d 57 b9 93 3e 45 5c c0 bd e2 e2 e4 bd
       0.08256008 0.2885234 -0.09392599 -0.11176087
000160 e9 0b 8a 3e bd 80 00 3c 9e 8a 45 3e 27 8c 79 bd
       0.26962212 0.007843194 0.1929116 -0.060924675
000170 9c f1 1b 3c 43 0e ef 3d 0b de 1c 3e f2 ff f1 bb
       0.009518053 0.11672642 0.15319078 -0.0073852474
000180 70 33 2f bd 32 d4 b1 3e 0a 98 f6 3d 92 cd 00 be
       -0.042773664 0.34732205 0.12040718 -0.12578419
000190 fc 66 33 be 5f 60 3a 3d 0a 63 6b 3d 53 c4 b0 3d
       -0.17519754 0.045502063 0.057467498 0.08631196
0001a0 63 5e d0 3d 4e 9e 2f bd 0a eb 9b bc 08 1b 85 3e
       0.10174253 -0.04287558 -0.019032974 0.25997186
0001b0 e3 34 26 be dd ea f4 bc 74 5e fa bd 65 13 1f bd
       -0.16231112 -0.029897148 -0.12225047 -0.038836855
0001c0 cb 21 f8 bd e6 10 1d 3d 68 f5 a4 be ad 15 b1 bd
       -0.121158205 0.038346194 -0.3221848 -0.086467125
0001d0 76 bd ac 3d 41 3b 04 3d 46 b1 22 3e 84 05 da 3d
       0.08434574 0.03228307 0.15887937 0.10645583
0001e0 48 22 fe bd 9c 2b 2d 3e 96 48 98 3e c2 4b 0d 3e
       -0.124088824 0.16911167 0.2974288 0.1379843
0001f0 d6 bb c3 3d 89 21 14 bd f7 3d 4b 3e 0e 54 1d 3d
       0.09557311 -0.036164794 0.19847856 0.03841024
000200 32 46 79 be e4 34 61 be 34 8a 1d be 84 fe f0 bd
       -0.24343184 -0.21992832 -0.15384752 -0.11767295
000210 78 a6 b6 be c4 cc 2f be 17 2d 04 3d bf cc ec 3b
       -0.3567388 -0.17167956 0.032269564 0.007226556
000220 02 eb 72 be 1a 4b b7 be a6 a6 2a 3d 14 b8 b6 3e
       -0.23722461 -0.35799485 0.041662835 0.35687315
000230 88 d5 c2 3d b4 54 18 be b2 0f 06 bd cb 81 f7 3c
       0.09513384 -0.14876062 -0.032729812 0.030213257
000240 db 6a f6 bc 2b 87 97 3e 47 dc 53 3d d2 c1 29 be
       -0.03008025 0.29595312 0.051723745 -0.16577843
000250 4d 07 a8 bc c5 91 bd 3e 8e aa 76 3e 1c 11 49 3d
       -0.020511294 0.37025276 0.24088499 0.049088582
000260 74 52 f7 bd 69 44 14 3e 3e 80 3c 3e ea 91 25 be
       -0.120762736 0.14479221 0.18408296 -0.16168943
000270 c0 4d a4 3d 63 cc 58 bb cc b5 18 bd f5 c5 40 bd
       0.08022642 -0.0033080808 -0.03728275 -0.047063787
000280 79 e9 32 be 49 e4 d2 3c ce 25 8e 3e 47 87 8e 3d
       -0.17471875 0.02574362 0.27763218 0.06959396
000290 42 d6 14 bd a8 23 75 3d d4 3c d7 3d 35 fe cb 3e
       -0.036337145 0.059848458 0.10509649 0.39842382
0002a0 7c 90 b1 bd d3 95 3f bd 40 93 84 be 0b 1c 2d 3e
       -0.08670136 -0.046773743 -0.25893593 0.16905229
0002b0 46 3f 50 be 92 81 82 3c 86 b0 ab 3c ae 71 c6 3c
       -0.20336637 0.015930925 0.020958196 0.024224129
0002c0 2f 28 3a bd 1f f3 ba bd e0 d5 98 be 0d 28 ed 3d
       -0.04544848 -0.09128403 -0.29850674 0.11579905
0002d0 38 69 61 bd d7 b7 3f bd 2e 18 b4 3d bc 99 82 be
       -0.055031985 -0.046806183 0.087936744 -0.25507915
0002e0 7e e1 b5 be 33 96 e7 3e ab ee 2f bc 3d db 86 3d
       -0.355236 0.4523178 -0.010738055 0.06584785
0002f0 e7 8e d0 3d 7f bb de 3e 38 bd a4 3e 6a fa d1 3c
       0.101835065 0.43502423 0.32175612 0.025632102
000300 ff 17 b3 bb 42 be 88 3e 65 e8 d6 3c 35 f9 23 be
       -0.005465507 0.26707655 0.026233861 -0.16013034
000310 73 c4 1c be b9 bd a8 3c 7c 2a 0d 3d e9 25 0a 3e
       -0.15309314 0.02059828 0.034464344 0.13491024
000320 16 fb 87 be 32 66 d0 bc 69 85 30 bd 2e 2c 55 3e
       -0.2655875 -0.025439356 -0.04309598 0.20817634
000330 f1 ef 76 bd 1d da 04 3d ed 79 44 3e 13 b6 72 3e
       -0.06028742 0.03243457 0.19187136 0.23702268
000340 6e 75 8f be d5 3f 2a be 7c 15 5f be 9a 2e a4 bd
       -0.2801928 -0.16625912 -0.2178554 -0.08016701
000350 df 25 5b be 8e f6 77 be d6 27 5d be 51 b6 32 be
       -0.21401165 -0.24215147 -0.21597227 -0.1745236
000360 6a e4 87 bd 91 d3 95 3d 15 c7 90 be 18 01 a9 3e
       -0.066353634 0.07315744 -0.28276888 0.33008647
000370 d8 69 5c 3e bf 51 4f be f0 43 cc bb 43 50 aa be
       0.21524751 -0.20246027 -0.0062336847 -0.3326436
000380 f7 cb 34 be 25 50 b3 3e ba f2 59 bc 29 6c 87 bd
       -0.17655931 0.35022083 -0.013302499 -0.06612427
000390 c9 35 6f 3e 9b 32 94 3e db a7 c7 3b 04 50 b6 3d
       0.23360361 0.2894486 0.006093008 0.089019805
0003a0 bc aa c1 bc 57 e8 a3 3e 20 e5 48 3e 30 02 65 bc
       -0.023640983 0.320132 0.19618654 -0.013977572
0003b0 65 1c 7e bc 08 0b 8c bd 3d 91 47 be 76 2b 8e be
       -0.0155096995 -0.068380415 -0.19488998 -0.27767533
0003c0 f8 7a e3 bc 9b df bf bd fc c6 23 3e 78 4d 37 3e
       -0.027768597 -0.09368821 0.15993875 0.17900646
0003d0 ba f7 39 3c df 86 8f 3e 23 00 ae bc b0 59 36 3d
       0.0113505665 0.28032586 -0.0212403 0.044519126
0003e0 9c 01 d8 3e 29 02 ae 3d ff 5a 01 3c 2a ac 16 3c
       0.42188728 0.08496506 0.00789523 0.009196321
0003f0 1d 33 14 bd 1d 3a 39 be ff 73 7b 3e 5a f6 cd 3d
       -0.036181558 -0.18088575 0.24555968 0.100567535

lstm.weight_hh_l1 f4 [160, 40]
000000 1d c3 14 3e 80 e1 a8 3b b6 4b f2 3d 0e 47 01 be
       0.14527555 0.005153835 0.11830847 -0.12624761
000010 aa 88 f5 3d 00 63 82 3a 4e 9f 35 bd 45 10 1f be
       0.11988957 0.0009947717 -0.044341378 -0.1553355
000020 9b f4 e5 bd 60 6b dc bb a4 7f c8 bd 30 50 2b bc
       -0.112282954 -0.0067266673 -0.097899705 -0.01045613
000030 82 c0 21 be 3a a4 0a be bc ca b8 bd 7f 5b 07 be
       -0.15796092 -0.1353921 -0.090230435 -0.13218497
000040 70 79 ea bd 78 aa 7e 3d 1a ab bc 3d 1f 72 11 3e
       -0.114489436 0.06217429 0.092123225 0.1420369
000050 92 89 21 be 0a 8b 87 bd 2e 6a cd bd f2 a9 a9 3d
       -0.15775135 -0.066183165 -0.10030018 0.082843676
000060 5c 85 d1 bd a4 8e 1f be 40 6d b1 bc 7e e1 98 3d
       -0.102305144 -0.15581757 -0.02165854 0.07464884
000070 d8 b5 70 bd 9a 31 c3 3d b0 3c 76 3d 98 4d 58 3d
       -0.05876717 0.09530945 0.06011647 0.052808374
000080 00 86 30 ba 48 4c be bd c0 03 12 3b 90 76 23 3c
       -0.0006733835 -0.09291893 0.0022280067 0.009976998
000090 98 3b 26 3d df 58 15 be b7 e2 0c be f1 e2 05 3e
       0.040584177 -0.14584683 -0.1375836 0.13074853
0000a0 74 de a5 3d 76 15 f5 3d de 50 c8 3d 53 13 1a 3e
       0.0809907 0.11966984 0.09781049 0.15046434
0000b0 06 ef b2 bd b0 de 9f 3d 87 c9 96 bd ff f7 1b be
       -0.08736996 0.07806146 -0.07362657 -0.15231322
0000c0 b0 ef 36 3c ea f5 cf 3d d5 6d 1f be da e4 91 3d
       0.011165544 0.10154326 -0.15569241 0.07123728
0000d0 d2 1c 52 bd 6e 35 06 be d7 dd a2 bd c0 1e 0b bb
       -0.051297016 -0.1310632 -0.07952469 -0.0021228045
0000e0 32 87 fa 3d 1a 37 9c 3d 58 7f b8 3d 70 ea 5d bd
       0.12232818 0.07627697 0.09008664 -0.054178655
0000f0 2a 13 81 bd 04 a0 07 be de 9e a4 3d c8 14 3d 3d
       -0.063024834 -0.13244635 0.08038114 0.046162397
000100 50 8b a3 3d 41 c1 14 be e4 af 26 bd 9e a2 f5 3d
       0.07985556 -0.14526846 -0.040695086 0.119939074
000110 70 fa 72 bd f2 e5 16 be 9c 2c 31 bd b6 57 d7 bd
       -0.059320867 -0.14736155 -0.043255433 -0.105147764
000120 b8 3d e7 bc df da 1d 3e b0 7c 56 3d 6a 31 8b 3d
       -0.028227672 0.15415524 0.052365005 0.06796534
000130 1d bf 0d 3e c0 c7 b7 bb fa bb d8 3d a0 09 53 bc
       0.13842435 -0.005608529 0.10582729 -0.012880713
000140 ca 93 17 be 0e 1c e1 3d 40 76 1d 3d f0 30 05 3c
       -0.14802471 0.10991679 0.03844285 0.008129343
000150 80 2a 8e bb c0 f7 d6 bb a0 1d 9f 3c 28 2a 2a 3d
       -0.0043385625 -0.006560296 0.019423306 0.04154411
000160 e6 6a e3 3d 0a 95 d4 3d fa 22 b0 3d 40 8d 95 bd
       0.11104374 0.103799894 0.08600421 -0.07302332
000170 a4 b9 a2 bd d0 9c 5f 3c f2 4d 13 be 40 07 c8 3b
       -0.079455644 0.013648227 -0.14385203 0.00610438
000180 58 45 b9 3c 28 ba c4 3c 22 76 dd 3d 00 67 30 ba
       0.022616073 0.024014547 0.10813548 -0.00067292154
000190 90 19 b1 bc 0a 03 87 3d 20 fa ff bc 72 36 e2 bd
       -0.021618634 0.065923765 -0.031247199 -0.11045541
0001a0 c4 fa ff bd 1f 61 b9 bd 47 ca 17 3e f2 46 e2 3d
       -0.124990016 -0.090517275 0.14823256 0.11048688
0001b0 73 19 07 3e ac 2c 76 bd a0 46 04 3c 46 d1 df 3d
       0.13193302 -0.060101196 0.008073479 0.109285876
0001c0 a1 3f 15 3e e3 59 1d 3e af 60 13 be 30 cf d4 bd
       0.14575054 0.1536632 -0.1439235 -0.103910804
0001d0 50 e7 65 bc 62 8b d5 3d c0 7a bd bb 28 76 ba bc
       -0.0140322 0.10426976 -0.005782455 -0.02276142
0001e0 f0 0c d9 3c 71 1b 14 3e c4 29 60 3d c4 99 30 3d
       0.026495427 0.14463593 0.05472733 0.043115392
0001f0 28 a0 d4 bd e2 15 ad 3d 3c 06 03 bd d0 6f 65 bd
       -0.1038211 0.084514394 -0.031988367 -0.056014836
000200 00 8e 6d 3a 3a 42 82 bd f0 9d 1a 3d b0 48 ad 3d
       0.0009061992 -0.06360288 0.037748277 0.0846113
000210 8a 32 c5 3d 72 00 ea 3d c4 4d 32 3d 44 16 3d 3d
       0.0962878 0.11425866 0.043531194 0.046163812
000220 e9 2a 11 be 1a 86 fe 3d 70 52 89 3c ec b3 ba 3d
       -0.14176525 0.124279216 0.016762942 0.091163486
000230 06 5b e6 3d 33 7b de bd c0 2f bb 3b 70 2c 88 bc
       0.1124783 -0.10863342 0.0057124794 -0.016622752
000240 80 2e cd ba e0 aa f7 3c 80 8d 07 be aa 3e eb bd
       -0.0015654117 0.030232847 -0.13237572 -0.114865616
000250 44 4e 1d 3d a8 15 4a 3d 8f fb 09 3e 5f fe 04 3e
       0.038404718 0.04933706 0.13474868 0.1298766
000260 d0 be 62 3d 32 64 f3 3d 2e f6 be 3d 39 c9 20 3e
       0.055357754 0.11884345 0.09324299 0.1570176
000270 c8 9c eb 3c ba c8 28 bd 40 ad 66 bb 1e 2e f6 3d
       0.028761283 -0.041207053 -0.003519848 0.12020515
000280 a8 00 58 bd 80 f7 b9 ba 40 22 78 bb 64 4c 97 3d
       -0.052735 -0.0014188141 -0.0037862211 0.07387617
000290 a6 45 a1 3d 14 64 c6 bd 07 ee 02 be ca 6b 16 bd
       0.078746125 -0.09687057 -0.12786113 -0.03672389
0002a0 4a 84 fd 3d a4 b7 61 3d 80 67 d0 3a 90 c6 0c 3c
       0.12378748 0.055106774 0.0015899986 0.008592263
0002b0 3b b4 9e bd 20 eb 46 3d 32 62 02 be ea 75 fd bd
       -0.0774922 0.048564076 -0.12732771 -0.12376006
0002c0 94 bb 96 3d 99 c7 17 be 40 5d 90 3b 28 13 75 3d
       0.073599964 -0.14822234 0.0044056475 0.059832722
0002d0 2c 0a 30 bd 18 d9 a4 3c 6d 94 15 3e d2 5f f6 3d
       -0.04297845 0.02012305 0.14607401 0.12029995
0002e0 a0 a1 a0 bd fd 76 9c bd 88 cd 00 3d 60 a2 76 3c
       -0.078433275 -0.07639883 0.03144601 0.015053362
0002f0 40 96 15 be 50 ca 0b bc fe c3 10 be 20 0c 66 bd
       -0.14608097 -0.008532122 -0.14137265 -0.056163907
000300 b0 09 14 bd 18 b9 34 3d cc 88 3f bd 96 b1 e2 3d
       -0.03614205 0.04412183 -0.04676132 0.11069028
000310 18 cd cc 3c 52 a3 cd 3d fe d3 81 bd 83 1a 17 be
       0.02500014 0.100409165 -0.063392624 -0.14756207
000320 c5 70 88 bd 48 8d ce 3c 3e f4 71 bd 92 e7 fa 3d
       -0.06662134 0.025213853 -0.059070818 0.122512
000330 1e ce cd 3d 28 cb 05 be c0 1e 69 bc 3d fb da bd
       0.10049079 -0.13065779 -0.014228523 -0.10692451
000340 43 11 0e be 0b 45 1b 3e 21 cd 1b 3e 0c 8d 79 3d
       -0.13873772 0.15163057 0.15214969 0.06092553
000350 00 76 e9 bd 98 2f d0 bd 58 b8 d8 bc 68 5d 42 3d
       -0.1139946 -0.10165328 -0.02645509 0.04745236
000360 db e5 06 3e 98 b6 77 3d b5 7b b8 bd 07 ec 0b 3e
       0.1317362 0.06047687 -0.0900797 0.13664256
000370 88 76 c0 bc 54 4a 4a 3d 8f bb 11 3e 40 4e 3b 3d
       -0.02349402 0.04938729 0.14231704 0.045728922
000380 5e 44 09 be e6 2b c9 3d 4d ba f2 bd e4 ba 54 bd
       -0.13404986 0.09822826 -0.1185194 -0.051936045
000390 c0 0a a4 bb 6c 26 21 3d 62 4f 9c bd 17 53 96 bd
       -0.0050061643 0.039343283 -0.076323286 -0.07340067
0003a0 85 3c 08 3e 6e 24 f2 3d a3 a4 11 3e 8a 7c e0 3d
       0.13304336 0.11823355 0.1422296 0.10961254
0003b0 a8 f9 29 3d 09 69 16 3e 29 34 20 3e 60 40 c7 3c
       0.041497856 0.14688505 0.15644898 0.024322689
0003c0 84 94 1c be d4 bf 40 bd e8 99 01 bd 79 24 c1 bd
       -0.15291029 -0.04705794 -0.031640917 -0.09430785
0003d0 a8 9c 86 bc 84 9b 1d 3d d6 36 e0 3d 40 7b 0f bc
       -0.016432121 0.03847839 0.10947959 -0.008757412
0003e0 90 be 02 bc 26 23 05 be 6f 5b 11 be de 03 db 3d
       -0.007980004 -0.1300169 -0.14195035 0.10694097
0003f0 68 72 53 bd ec 95 a4 bd 48 ad b3 3d ce 75 de bd
       -0.05162278 -0.08036408 0.08773285 -0.10862313

lstm.bias_ih_l1 f4 [160]
000000 c4 4f 95 bc e2 9e 47 3d 92 cd 62 3c 18 22 a1 3d
       -0.018226512 0.048735507 0.013842957 0.07867831
000010 8f 9c b9 3d 27 82 f2 bb ee c4 2d 3e 74 fe 8e 3e
       0.09063064 -0.0074007693 0.16969654 0.27928507
000020 7b dc 36 3e bd a5 2a 3e e0 a6 07 3c 29 e2 dd 3d
       0.17857544 0.16664787 0.008279532 0.10834152
000030 93 58 3b bd 12 d9 cb 3d 58 7d 0b 3e a2 92 a0 3c
       -0.045738768 0.09953512 0.13622034 0.01960117
000040 26 29 0c 3d 72 3e 12 3d 5c 9c 8f 3e a9 76 35 3e
       0.03421893 0.035704084 0.2804898 0.17721047
000050 aa 02 fa 3d 00 74 c1 3d fc 97 e3 3c 83 d3 54 bd
       0.122075394 0.09445953 0.027782433 -0.051959526
000060 4f 55 71 bc 4c 0f b2 3d d7 72 50 3e 2e e6 13 be
       -0.014729812 0.08694324 0.20356308 -0.14443275
000070 15 2c 45 bd 7b 3a 4f 3e ac 83 60 3e 13 43 96 3d
       -0.048137743 0.20237152 0.21925229 0.07337012
000080 34 46 44 3e da a8 c7 3d 55 e5 ad 3d ad 73 4a 3e
       0.19167405 0.09749003 0.08491007 0.1977069
000090 58 cb 29 3e e0 6d ab 3e 50 cd c3 bd 4f 25 dc b9
       0.16581476 0.33482265 -0.095606446 -0.00041989467
0000a0 9e ee c4 3d 44 e1 2a bd 00 14 4b bc 59 6f 09 3e
       0.09615825 -0.041718736 -0.012394905 0.13421382
0000b0 48 a0 5d 3d 6c 4c 89 3d c2 3f d4 3d f8 8a e7 3c
       0.054107934 0.067040294 0.10363723 0.028264508
0000c0 ec 21 bf bd 43 95 05 3e 2b 28 f9 bd 50 55 eb 3c
       -0.09332642 0.1304522 -0.121658646 0.028727204
0000d0 73 76 11 3e 24 78 af 3d 80 4a 9c bd 2e 8e 80 3d
       0.14205341 0.08567837 -0.07631397 0.062771186
0000e0 1e 7f a2 3d 29 20 1b 3e a4 ed 04 3d ca 7c e3 3d
       0.07934402 0.15148987 0.032453194 0.11107786
0000f0 69 28 15 3e 18 c2 f3 bc 11 98 1a 3e cc 75 12 be
       0.14566197 -0.029755637 0.15097071 -0.14302748
000100 9d 18 1c 3e 18 e2 36 bd 70 fb 6b 3d 32 9d 94 bd
       0.15243764 -0.044649214 0.057612836 -0.07256545
000110 1a f2 87 bd 29 f9 0d be 1b 37 c0 bd 06 63 4c bd
       -0.06637974 -0.13864578 -0.093855105 -0.049899124
000120 eb 89 17 be 94 c8 de bd 87 83 20 3e e0 2e b4 bc
       -0.14798705 -0.10878101 0.15675174 -0.021995008
000130 9c 00 39 3d e8 67 ba 3d 4c 6c ae 3d 53 31 b5 bd
       0.045166597 0.0910185 0.0851675 -0.088472985
000140 32 af 39 bd ec 09 1a 3d d3 8e b9 be 3c 17 bd bd
       -0.045333095 0.03760712 -0.3624178 -0.09232947
000150 de 5c 00 3d d1 05 c9 bc 34 8e 89 be ef 5e ac bd
       0.031338565 -0.024538906 -0.26866305 -0.08416545
000160 75 f3 aa 3e 7d bb aa 3d 5d 1b 1e 3d 7a 40 4d bd
       0.33388868 0.08336542 0.038600314 -0.050110318
000170 15 f9 9b 3c 18 d7 34 3d af 25 95 bd bc cc 9f be
       0.01903967 0.044150442 -0.07282578 -0.31210887
000180 1e e6 a9 3e d7 dc 4e 3d a0 4a 07 bd ef f3 f5 bc
       0.33183378 0.050503578 -0.033030152 -0.030023543
000190 ef e7 a4 3d 1c 6c 37 be 90 e9 cf 3c 53 15 77 3e
       0.0805205 -0.17912334 0.025379926 0.24129228
0001a0 31 14 22 be af ba 2d 3e 1e 2f 9a be c4 5c f3 bd
       -0.15828015 0.16965745 -0.30114073 -0.11882928
0001b0 ad d1 da 3d 69 0d 2c 3e 76 3b 4a be b2 e9 85 3d
       0.10684524 0.1680199 -0.19749245 0.065387145
0001c0 8c 77 3d 3d 4b 7b c3 3d fd 22 53 bd 38 d3 12 3e
       0.046256587 0.09545001 -0.05154704 0.14338386
0001d0 59 e8 05 be 75 27 62 3e 5b 2a 84 3e 35 32 05 3d
       -0.13076915 0.22085364 0.25813565 0.032518584
0001e0 c1 a0 29 bd 0d f5 b3 3d af cd 47 3e 13 22 bb 3d
       -0.041413072 0.08786974 0.19512056 0.091373585
0001f0 aa df 89 3e 15 58 2b be 5c 0b c9 bd 13 66 fa 3d
       0.26928455 -0.1673282 -0.0981662 0.122265
000200 f6 d7 3e 3e 57 f3 fc bc 49 5e f9 3d 10 b3 19 3e
       0.1863707 -0.030877752 0.121761866 0.15009713
000210 3c f8 fa 3d a2 fc 54 3e d5 f8 a1 3e c1 1f 39 3e
       0.12254378 0.20799497 0.31635156 0.1807852
000220 18 27 aa 3e 92 23 42 3e 6e f2 16 3e 8e 5f 11 bd
       0.3323295 0.18958881 0.14740917 -0.03549152
000230 e2 b9 f8 bb 54 50 3a bc 28 ee d5 3d 0b 67 71 3d
       -0.0075905183 -0.011371691 0.10445815 0.05893616
000240 61 8f 84 bd d5 0e 3f 3e 2e fb a7 3b 62 24 28 3d
       -0.0647266 0.18658002 0.0051263785 0.041050322
000250 92 12 80 3d a8 e9 92 3d f6 98 23 3e b7 03 61 3b
       0.06253542 0.07173473 0.15976319 0.003433449
000260 70 97 c8 3d 9f b4 55 bd ae 5d 2e 3e 1d e7 f2 3c
       0.097945094 -0.052174207 0.17027923 0.029651219
000270 5b f3 bc 3d 9d f4 25 3d 1c 40 1b be a8 07 6a 3d
       0.09226104 0.040516485 -0.15161175 0.057136208

lstm.bias_hh_l1 f4 [160]
000000 d8 7b 09 bc da 8e d1 3c ec ab bd bb 7e c5 7b 3e
       -0.008391343 0.025580812 -0.005788317 0.24587056
000010 78 36 3a 3e e9 8e 8e 3c 82 63 0d 3e d2 29 88 3e
       0.1818484 0.01740213 0.1380749 0.26594406
000020 99 f8 b7 3d 38 f2 22 bd 9f c1 64 3e 6d ad e1 bc
       0.08982963 -0.03978178 0.22339486 -0.027548516
000030 66 fc 0b 3e 85 6e 83 3d be c9 bd 3d 57 5c 7d 3e
       0.13670501 0.06417564 0.09266995 0.24742256
000040 9f 67 d2 bb 08 01 50 3d 80 58 92 3e 54 e9 49 bc
       -0.006421044 0.050782233 0.28583145 -0.012323696
000050 04 63 3e 3e da 6d c1 3c c3 a5 18 3e ad 5b 08 3e
       0.18592459 0.023611952 0.14906983 0.13316222
000060 98 cd e7 bb 8f 91 0c 3e f5 d7 8f 3e ee 4e 05 be
       -0.007074069 0.13727401 0.2809445 -0.1301839
000070 3b 1f d4 bb 4b c0 2d 3e 7b d1 81 3e 6c dc 71 3d
       -0.0064734495 0.16967885 0.25355133 0.0590481
000080 0e 4a 62 3e 7f f9 5b 3c b9 88 92 bd d1 15 31 3e
       0.22098562 0.013426184 -0.07154984 0.17293479
000090 6f 0b d4 3d ea b4 84 3e 14 6b c6 3d 37 ca 05 3e
       0.10353743 0.25919276 0.09688392 0.1306542
0000a0 48 39 b6 3d ee 95 ad 3d 6f 90 01 be 26 21 f2 bd
       0.08897644 0.084758624 -0.12652753 -0.11822729
0000b0 c8 fb e6 bc 32 5d d2 bd 92 04 89 3d 80 4d 6e 3b
       -0.02819623 -0.10271682 0.06690325 0.0036362112
0000c0 21 fe a9 bd b0 6d 7e bc a8 ed eb bc ab 9a 83 bd
       -0.08300424 -0.015529081 -0.028799847 -0.06425985
0000d0 e0 58 16 bd 22 db a9 3d e2 6e 83 3d d8 b2 86 3c
       -0.03670585 0.082937494 0.064176336 0.016442701
0000e0 b3 dc 15 3e 3c 7b 01 bd 5c 03 86 3d 60 83 1a 3d
       0.14634971 -0.031611666 0.065436095 0.037722945
0000f0 d0 c0 75 bc a9 8a 01 3e 80 8d ac 3d 70 08 09 3d
       -0.014999583 0.12650551 0.084254265 0.033455312
000100 80 c4 94 bc d0 24 2c 3c d0 07 f1 3c d0 b1 f2 3c
       -0.018160105 0.010506824 0.02942267 0.029625803
000110 a8 80 73 bd c0 b4 f6 3b 54 22 54 3d 3e eb d5 3d
       -0.059448868 0.0075288713 0.05179055 0.104452595
000120 58 af c6 3c da e7 f9 bd 26 61 29 bd 14 f4 3a 3d
       0.024253532 -0.12202425 -0.041352414 0.045642927
000130 b4 55 65 bd 00 8c ca bb 61 f7 0b be 08 7d 68 3d
       -0.055989936 -0.00618124 -0.13668586 0.056759864
000140 12 54 2a 3d 53 1d 07 be df 2b 6a be e0 a7 81 bb
       0.041584082 -0.1319478 -0.22868298 -0.00395678
000150 0b 2e 12 bd cc a8 fa bd 8a 21 3a be 0f 9d 8b 3c
       -0.03568844 -0.12239227 -0.18176857 0.017042665
000160 e9 7d 49 3e 11 3b 3c bd 68 bf a2 bd 9e 06 51 3e
       0.19676937 -0.045954768 -0.07946664 0.2041268
000170 f5 48 7e 3d 49 ab d8 3d 41 5d db 3d ad 29 9d bd
       0.062081296 0.10579545 0.10711146 -0.07673965
000180 19 6b 9c 3e 06 c6 7c bd 20 bd 0b 3e 3f 0d 7e 3d
       0.3055046 -0.061712287 0.13646364 0.06202435
000190 cf ed 2e bd d5 f9 9a be 57 b8 31 bd 97 de 37 3e
       -0.04270726 -0.30268732 -0.04338869 0.17956005
0001a0 b1 a0 e7 3b 8b 0e f0 3b 3b ab 71 bd 4c d7 89 3c
       0.0070687165 0.0073259524 -0.05900119 0.016826294
0001b0 1d c3 18 3e 7b e3 9a 3e a7 14 e0 3c 57 bc 24 be
       0.1491818 0.3025168 0.027353598 -0.16087471
0001c0 e0 24 29 bd ef 14 bc 3d 40 d6 3d be f1 d2 df 3b
       -0.041294932 0.0918368 -0.18538761 0.006830566
0001d0 99 4c a4 bd 08 a8 a5 3e 17 03 ab 3e 68 ad ab 3d
       -0.08022422 0.3235476 0.33400795 0.08382684
0001e0 74 f7 40 be 90 75 fb 3d 5f ab 79 3d eb a5 08 bc
       -0.18844396 0.12278283 0.060954448 -0.008340339
0001f0 3c 2e 35 3e ce bf 89 bc c4 92 bf bd bb 07 b8 3d
       0.17693418 -0.016815092 -0.09354165 0.089858495
000200 49 62 6d 3e 10 b8 03 3e 3b 84 2b 3e 96 14 f4 3d
       0.23182024 0.12863183 0.1674966 0.11917989
000210 2b cb 87 3d a1 d7 d0 ba 39 0d 40 3e b0 85 a9 3d
       0.06630548 -0.0015933403 0.18755044 0.08277452
000220 3c b9 45 3e d6 37 1f 3e 35 97 8d 3e 81 99 12 3e
       0.19308943 0.15548643 0.27654424 0.1431637
000230 c6 ec 5e 3d 87 ef 52 3e bd e8 d7 3c e4 0e 3c 3e
       0.054425023 0.20599185 0.026356095 0.18365055
000240 d2 e3 6e 3d 0b 80 d7 3d 8a 79 8a 3d 7e 50 26 be
       0.058322735 0.10522469 0.06761463 -0.16241643
000250 30 92 3d 3b b2 77 2c 3e e0 27 46 3e c5 12 07 3e
       0.0028926246 0.16842535 0.19351149 0.13190754
000260 55 73 90 3e 43 b4 28 3d 49 a1 96 3b d8 62 06 3e
       0.2821299 0.041187536 0.0045968634 0.13123643
000270 21 08 bd bd 2f 92 76 3e 58 bf 8a bd c4 83 22 bd
       -0.09230066 0.24079202 -0.06774777 -0.039676443
