models/388/state_dict.pt (torch_old, 88287 bytes, 10 tensors)

lstm.weight_ih_l0 f4 [160, 10]
000000 30 5a ac 3d 4b 7d 8e bd 90 d6 79 bd 24 03 71 be
       0.084156394 -0.069574915 -0.06099564 -0.23536354
000010 f3 15 bc bc 80 be be bd f6 44 2b 3d 1c 65 83 3d
       -0.022959685 -0.09313679 0.041813813 0.064157695
000020 24 4a b9 3d 10 cb 1b 3c 0c 2c 99 bd 50 c7 13 be
       0.09047344 0.009508863 -0.074791044 -0.144315
000030 a3 3f a8 bc 53 2e 9f 3c 25 c9 b9 bb f2 42 ad bb
       -0.020538157 0.019431269 -0.0056697302 -0.0052875215
000040 a0 17 fe bc a6 f2 f9 3d 58 f8 54 3e 96 e0 81 3e
       -0.031017125 0.12204485 0.2079786 0.25366658
000050 32 28 f3 3d 5b 68 2e be 17 1b 18 be e3 b8 45 3c
       0.11872901 -0.17031996 -0.14854084 0.012068006
000060 e0 ae 8d 3d a0 63 49 3d ee 51 44 bc 97 cd 01 3d
       0.069181204 0.049167275 -0.011982424 0.031690206
000070 b8 1d 5a 3d 1c 57 38 3e e8 f2 a1 bd b5 ac 8c 3e
       0.053251 0.1800198 -0.07907659 0.27475515
000080 02 4b 5a be 0c b8 db bd 66 dc 10 be ce 56 62 bd
       -0.21317676 -0.107284635 -0.14146575 -0.055258565
000090 06 27 80 be 1e 45 67 be 37 25 f6 3c ec 17 63 bd
       -0.25029773 -0.2258496 0.030047042 -0.055442736
0000a0 1c 52 e4 bb f7 2d 44 3e fc 58 34 be 44 45 4f be
       -0.006967796 0.19158159 -0.1761207 -0.20241266
0000b0 e1 fb 7b 3c d1 b0 5c bd 81 e0 8f bc d8 1e 9a 3c
       0.015379877 -0.053879563 -0.017563106 0.018813536
0000c0 47 e4 9c 3c dd 4c 16 3e b8 1c b9 3d 2d d6 18 bd
       0.01915182 0.14677759 0.09038681 -0.03731363
0000d0 5e 8a 89 bd 6b 28 a4 bd c7 e9 ec bd f6 a7 42 3e
       -0.067158446 -0.080155216 -0.11568027 0.19009385
0000e0 9c b3 08 bc 20 22 31 be 28 1a 0c 3e 9d 95 0c be
       -0.008343603 -0.17298174 0.13681853 -0.13728948
0000f0 9d 9d 04 3d e7 0a 06 bc 3b 4c 7a bd e7 1e 83 be
       0.032376874 -0.00818131 -0.061107855 -0.25609514
000100 c8 e4 c3 3d bf 66 ab 3b ac 54 f2 3d 7e 71 a4 3d
       0.09565121 0.005230754 0.11832556 0.080294594
000110 15 43 04 3e fa b7 b7 3a 31 9a 15 3d 99 0b b2 3d
       0.12916215 0.0014016621 0.036524 0.08693618
000120 99 b9 28 be 92 e0 22 be 2a 8d 8b 3d 3e de cf 3d
       -0.1647705 -0.1590598 0.06814034 0.10149811
000130 12 21 3b 3d 76 73 f1 bd e9 b1 35 3e 2a 3c 3f 3d
       0.045685835 -0.117896006 0.17743649 0.046688236
000140 0d 03 fa bd 69 bd 7c bd 69 b8 4b bc 85 bc 05 be
       -0.12207613 -0.061704073 -0.0124341035 -0.13060196
000150 a0 aa d2 3d bb 58 b2 3d c1 5e 62 bd 62 94 0e 3e
       0.102864504 0.0870833 -0.055266146 0.13923791
000160 f8 e1 e5 bd a6 48 6e be 7f 3f 94 bd b6 14 72 bc
       -0.11224741 -0.232699 -0.072386734 -0.014775446
000170 3a 4b ca 3d 07 90 a7 3b 32 1e 94 3e c8 17 21 3e
       0.098776296 0.005113605 0.28929287 0.15731728
000180 52 e2 86 3d 2c 3b 2f 3e 84 f4 d7 3c 96 4c 14 3e
       0.06586136 0.17112416 0.026361711 0.1448234
000190 27 3b 2a bd ae fd 81 bd d2 f1 a7 bc 9f ec d2 3c
       -0.04156032 -0.06347214 -0.020501051 0.025747595
0001a0 51 1d 83 3e 57 33 23 3c e4 6f 84 3d fc ae 33 3e
       0.25608304 0.009960971 0.06466654 0.1754722
0001b0 67 1b 0a be 57 29 c2 bc f2 82 92 3d 67 07 19 be
       -0.13487016 -0.023701353 0.07153882 -0.1494423
0001c0 e3 d7 a0 bd dd 34 a9 3c 7f 3b 74 3d 98 54 18 3e
       -0.07853677 0.02065509 0.059627052 0.1487602
0001d0 fa 8c e4 3c af 94 42 3e 1b 66 9a 3e 66 be 47 3d
       0.027899254 0.19002031 0.30156025 0.048765562
0001e0 24 52 80 3d 48 b9 97 3d 9f 4b 43 be de 17 95 be
       0.06265667 0.074083865 -0.19071816 -0.29119772
0001f0 fb fd 09 be e5 fe 0e 3e c9 49 68 be 4b b5 1b 3e
       -0.13475792 0.13964422 -0.22684397 0.15205877
000200 af 94 23 3e 7e b9 b0 3c e7 16 e4 bc 41 47 b3 3d
       0.15974687 0.021572825 -0.027842952 0.08753825
000210 ee ec 94 be 07 f3 9f be 20 5a 0f 3d b7 6f 77 3e
       -0.29087013 -0.31240103 0.03499806 0.2416371
000220 76 f8 2b bc fe ee fe bb 98 75 25 3d 56 58 a2 3d
       -0.010496249 -0.007779955 0.04039535 0.07927005
000230 d1 39 31 3e 87 34 a7 bd 42 a5 86 3d 10 82 ba bd
       0.17307211 -0.08164316 0.06574489 -0.09106839
000240 6c 3d 5f 3d 24 f4 0a 3e 7d c6 ab bb ac 3b ca bc
       0.054501936 0.13569695 -0.0052421675 -0.024686657
000250 57 97 ce ba d2 ae 38 3d 2e 42 20 be 30 51 18 3e
       -0.0015761656 0.045088597 -0.15650246 0.1487472
000260 be b0 e7 bc 7e 30 4d 3e f6 4d 80 3c f5 82 43 3d
       -0.02828252 0.2003803 0.015662175 0.047732312
000270 1e 87 8c ba e1 ac 52 3e aa b5 dc bc 9d 70 4e be
       -0.001072142 0.2057376 -0.026942093 -0.20160146
000280 fc 03 91 bc a2 2d f2 bc 3f 70 ff bd 4b cf 25 3e
       -0.017702095 -0.029562775 -0.12472581 0.16192357
000290 9b 23 27 3e 5b 82 97 bd e4 ae ea 3d e3 19 54 3e
       0.16322176 -0.0739791 0.11459139 0.20713
0002a0 4a c5 6c be 0a 25 4e 3d a6 d1 34 be c0 74 3e bd
       -0.23122135 0.050328292 -0.176581 -0.04649806
0002b0 e3 44 3f be a7 93 80 be 1b 93 a4 bc dd 35 c1 bd
       -0.18678622 -0.2511265 -0.020089677 -0.09434102
0002c0 8b bf 32 be ef 7a 19 be e6 79 50 3e 27 cc 54 be
       -0.1745588 -0.14988302 0.20359 -0.20781003
0002d0 35 97 49 be 78 25 24 3d 84 bf 81 be 7d 9b e9 3c
       -0.19686587 0.040074795 -0.25341427 0.028516525
0002e0 84 30 2a be 14 63 e8 3c c6 e6 81 bd cc 47 78 bd
       -0.1662007 0.028367557 -0.06342845 -0.060615346
0002f0 0e 59 25 3e 6b d4 d5 3d b7 2b 9e 3d 10 8e 3b 3e
       0.16147253 0.10440906 0.07723182 0.18315911
000300 3e f3 a6 bd 0e 74 03 be 3e 38 31 be 45 62 b2 3d
       -0.081518635 -0.1283724 -0.17306611 0.0871015
000310 5b d9 ae bd 81 2a c4 bd 39 b1 b3 3d cf af f2 bd
       -0.08537551 -0.095784195 0.08774037 -0.11849939
000320 99 40 ea bd bc c8 bf 3c d6 e4 8f be 32 a1 83 be
       -0.11438102 0.023411147 -0.28104275 -0.2570892
000330 be 63 21 3d 27 3d ec 3d 4f 8d 24 be 88 35 07 bb
       0.039401762 0.115351014 -0.1606953 -0.0020631272
000340 f3 42 aa bd 71 d1 4c be d5 9a 55 3c c0 9f 58 bd
       -0.08313551 -0.2000177 0.013037403 -0.052886724
000350 86 da 89 be 64 cc 52 be 62 6c 01 3d e1 c9 ca bc
       -0.26924533 -0.20585781 0.031597503 -0.024754466
000360 35 e0 47 3d 3a 79 6a 3d 85 b0 4e 3e 84 a1 0f be
       0.048797805 0.057244517 0.20184524 -0.14026457
000370 ac 68 3f 3e 4e a4 22 be c6 18 14 be b4 df 94 3d
       0.18692273 -0.1588299 -0.14462575 0.072692305
000380 d1 84 a3 3c 44 d1 81 bc e6 71 be 3d 03 2e d7 3c
       0.019960793 -0.015846856 0.09299068 0.026267057
000390 f3 60 55 3d 43 ca 80 3e 91 4b 0d bd b3 8f a8 bd
       0.05209441 0.25154313 -0.034495894 -0.082305335
0003a0 79 f5 88 be 99 ab 76 be 7c 59 15 bd a4 2a 26 3c
       -0.2674978 -0.24088897 -0.036462292 0.010142002
0003b0 79 72 6d be 1c d4 c6 3d a7 ea 41 3e 42 87 e7 3c
       -0.23188199 0.097084254 0.18937169 0.028262738
0003c0 d3 77 62 3d 04 67 22 3e 20 d8 44 be f2 da 7a bd
       0.055290055 0.1585961 -0.1922307 -0.06124396
0003d0 1f 1e d6 3d b9 ac 92 bd ea 06 1c be 76 00 65 bd
       0.10454964 -0.071618505 -0.15237013 -0.055908643
0003e0 13 b1 ae bd af e7 8a be 5a ac 79 bd 9d 84 43 3e
       -0.08529868 -0.27129886 -0.060955383 0.19093557
0003f0 39 9a be bd 48 8c 19 bd b9 8a 91 3e 2b 81 06 bd
       -0.093067594 -0.0374873 0.2842615 -0.032838028

lstm.weight_hh_l0 f4 [160, 40]
000000 d0 9d cd 3c 6f 49 eb bd 02 61 17 be a8 d5 f8 bc
       0.025099665 -0.11488616 -0.147831 -0.030375317
000010 53 3f 11 3e b4 1b 46 3d 5c 8c 07 be d3 26 0a 3e
       0.14184313 0.048366264 -0.13237137 0.13491373
000020 f1 10 0b be 2d 29 85 bd 82 7b f2 3d 91 ce 20 be
       -0.13580681 -0.06501994 0.118399635 -0.15703799
000030 36 1b f2 3d b4 9d 1b bd 58 50 ba 3c b5 c9 ff bd
       0.11821596 -0.037992194 0.022743389 -0.124896444
000040 80 90 80 3a c7 66 a3 bd 9f 56 11 3e b2 26 f7 bd
       0.0009808689 -0.079785876 0.141932 -0.120679274
000050 7e 34 ac 3d 80 ba b9 3c 88 3e da 3c dc 5f b3 3d
       0.084084496 0.022671938 0.026641145 0.08758518
000060 4d ad 87 bd e0 db f6 bd a9 49 07 be 85 55 b9 bd
       -0.066248514 -0.120536566 -0.13211693 -0.09049515
000070 76 71 c1 3d ae e9 80 3d 00 d2 9b bc a4 e0 fd bd
       0.09445469 0.06294571 -0.019021034 -0.123963624
000080 58 89 90 bc 2a e4 a0 bd cb 09 12 3e 6d 41 18 3e
       -0.017643616 -0.07856019 0.14261548 0.14868708
000090 00 fd dd bb 3b 27 10 3e 95 be 9d bd a4 1c 07 3d
       -0.0067745447 0.14077465 -0.07702366 0.0329863
0000a0 d2 60 16 be 61 55 bf bd fc 7d 94 3d 0f 0b 1c 3e
       -0.14685372 -0.093424566 0.07250592 0.15238594
0000b0 bf 04 04 3e 5a d6 66 bd b0 a0 63 bc 00 a1 89 bb
       0.12892435 -0.056356765 -0.013893291 -0.004200101
0000c0 20 56 cb bd 4f 70 0c 3e bb 47 cf bd 80 68 ee bc
       -0.099285364 0.13714717 -0.101211034 -0.029102564
0000d0 00 81 44 3d a0 1b cf bd b9 29 0d be b8 a3 3a 3d
       0.047974586 -0.10112691 -0.13785447 0.04556629
0000e0 58 b1 83 3c 38 62 b9 3d 18 08 39 bd 70 b1 d8 3c
       0.016075775 0.09051937 -0.045173734 0.026451796
0000f0 40 1a 9c bc 4e ab 03 be 78 74 47 3d 7c a7 35 bd
       -0.019055486 -0.12858316 0.048695058 -0.04434918
000100 33 e9 12 be 14 89 4f 3d 0d d6 a8 bd b0 bc 90 3d
       -0.14346771 0.050667837 -0.08243952 0.07067239
000110 91 33 1c 3e a0 08 f0 bc 2a 3d f5 3d aa cf c6 3d
       0.15254046 -0.029300988 0.11974557 0.097075775
000120 91 68 18 be fa 48 8a 3d 76 61 58 bd 2a 04 b5 bd
       -0.14883639 0.067522004 -0.05282732 -0.08838685
000130 68 b2 77 bd 84 25 35 3d 31 84 8a bd 50 49 4e bc
       -0.060472876 0.04422523 -0.06763495 -0.012590721
000140 ed 24 ba bd 01 e2 17 3e 94 dc 7d bd 69 6b b8 bd
       -0.09089074 0.14832307 -0.061977938 -0.09004862
000150 03 60 12 3e 42 59 f4 3d c0 92 28 3b f0 de 6c 3c
       0.14294438 0.11931087 0.0025722235 0.014457449
000160 51 b9 08 3e a8 5f d7 bc bc 04 de bd 50 58 7c 3d
       0.13351943 -0.02629073 -0.10840747 0.06160766
000170 4e 95 b7 3d d6 24 9d bd 3a dd ac 3d f7 1c 0c be
       0.089640245 -0.076730415 0.08440633 -0.13682924
000180 aa b7 d5 bd 2c d9 1a 3d 78 31 67 bd 00 4a 26 3c
       -0.10435422 0.037804767 -0.05644366 0.010149479
000190 28 bb de bd 92 90 7a bd ab 7c 00 be ce aa eb 3d
       -0.10875541 -0.06117303 -0.12547557 0.11507188
0001a0 18 f2 b4 3d 77 45 1b 3e 29 ac 04 be d4 98 ab 3d
       0.08835238 0.15163217 -0.12956299 0.08378759
0001b0 00 3b 67 bc 7a a0 e1 3d 48 33 e2 bd 2c 4a 95 bd
       -0.014113188 0.110169366 -0.11044937 -0.07289538
0001c0 00 1b 58 bd 35 ea a9 bd 83 97 0f 3e c0 73 a1 3c
       -0.052760124 -0.082966246 0.14022641 0.019708514
0001d0 e0 6e 16 3d b3 58 0f be e1 2f 1d be 5a 5b c3 bd
       0.036726832 -0.1399868 -0.15350296 -0.09538908
0001e0 f8 60 e8 3c 99 13 04 3e ad 73 17 3e b2 a4 78 bd
       0.02836655 0.12898101 0.1479022 -0.06070394
0001f0 97 f6 20 3e 52 37 bd 3d fc 71 dd bd 50 fb 87 bd
       0.15719067 0.09239067 -0.108127564 -0.06639731
000200 1c 8c d8 bd b0 22 57 bc b0 fd a5 bd 68 15 65 3d
       -0.10573599 -0.013130829 -0.08105028 0.055928618
000210 18 ac 4f 3d ee cd 6c bd fa 41 bc 3d 1f 3d 1e 3e
       0.05070123 -0.057813577 0.091922715 0.15453003
000220 ae 54 d4 3d f2 2d 4a bd 00 5c 17 39 81 68 0a 3e
       0.10367714 -0.049360223 0.00014434755 0.13516428
000230 b8 9b 4d 3d d7 59 17 3e 60 ee 77 3c 7f e3 0e 3e
       0.050197333 0.14780365 0.015132517 0.1395397
000240 9b 1a 03 3e 78 c4 a0 bd 69 a8 17 be 30 cb 42 3d
       0.12803118 -0.078499734 -0.14810337 0.047557056
000250 8e 9f d7 bd 2d 1c a6 bd 2a 48 05 be f0 8f 84 bc
       -0.105284795 -0.08110843 -0.1301581 -0.016181916
000260 aa e8 91 bd 35 f9 1c be 24 66 37 3d 00 54 97 39
       -0.07124455 -0.1532944 0.044775143 0.0002886355
000270 a4 ec aa 3d 42 8e 51 bd d0 5e 45 3c 20 05 9a 3c
       0.08345917 -0.05116106 0.012046531 0.018801272
000280 81 27 01 be 48 75 16 be f8 db 0d bd b0 8a 0f be
       -0.12612726 -0.14693177 -0.034633607 -0.14017749
000290 50 4c 6a 3c 30 a8 83 bd e8 bd b5 3d fa a7 f2 3d
       0.014300421 -0.064285636 0.08874112 0.11848445
0002a0 10 4d 93 3d 26 65 b3 3d 34 38 91 3d 38 11 01 3d
       0.07192433 0.08759527 0.07090798 0.03151056
0002b0 ff ff 19 be bf 98 a2 bd c1 a6 0d 3e e0 2e fb 3b
       -0.15039061 -0.0793929 0.13833143 0.0076655
0002c0 0f 72 a4 bd 10 a9 21 3c 48 18 ad 3d f7 e2 1e 3e
       -0.080295675 0.009866968 0.08451897 0.15516268
0002d0 60 90 2d bd 34 66 a5 3d 16 ad dc 3d 48 f6 9c bd
       -0.042374015 0.08076134 0.10775201 -0.07664162
0002e0 a0 f9 e3 3c b1 d8 0d be cc 39 e4 bd 87 84 d9 bd
       0.027828991 -0.13852192 -0.111438364 -0.10620981
0002f0 a5 99 03 3e 93 06 d8 bd 34 a3 93 3d 56 8d 90 3d
       0.1285158 -0.10548129 0.07208863 0.07058208
000300 b8 f7 23 3d 16 53 4e bd 14 7b 0b 3d 20 95 ed bd
       0.040031165 -0.050372206 0.034052923 -0.11600709
000310 34 03 38 3d b0 19 a3 3d e2 58 b2 3d c5 8e a0 bd
       0.04492493 0.07963884 0.08708359 -0.07839731
000320 50 2d 2b 3c fe e3 08 be 28 ed c3 bc 9a 83 84 3d
       0.010447815 -0.13368222 -0.023916796 0.064704135
000330 42 68 ea bd 4f 2e 1c 3e 40 c9 25 3b 5e e2 da 3d
       -0.11445667 0.1525204 0.0025296956 0.10687707
000340 ea ac 80 3d 81 85 02 3e 60 20 ff bc 99 11 85 bd
       0.06282981 0.1274624 -0.031143367 -0.06497497
000350 e8 56 e1 bc cc b8 0b bd 9c 0c 62 3d 46 67 bc 3d
       -0.02750726 -0.034111783 0.055187806 0.09199385
000360 ef 63 09 be ac 65 15 bd 01 6c 19 3e e8 9d 16 be
       -0.13417028 -0.036473915 0.14982606 -0.14708674
000370 f0 d6 cd bc c0 16 0b be 1e fb d0 bd c8 34 b0 3c
       -0.025126904 -0.13582897 -0.10204147 0.021509543
000380 42 8b ec 3d 0f eb 17 be 28 b0 03 3d 00 4d 0e 3a
       0.11549999 -0.14835761 0.032150418 0.0005428344
000390 2c 96 81 3d fe c7 ae 3d f0 13 04 bc b9 65 cf bd
       0.06327471 0.08534239 -0.008061394 -0.10126824
0003a0 c0 50 03 3c 88 7b 42 bd 7f 30 ba bd 32 0d 88 3d
       0.008014858 -0.04748109 -0.09091281 0.06643142
0003b0 de bc f1 3d 58 bf ea bc ca fd da 3d a3 5f bc bd
       0.11803602 -0.028655693 0.10692938 -0.09197929
0003c0 50 1f 68 bc e8 95 36 3d 46 dd d2 3d 4e 4d 97 3d
       -0.014167622 0.044576555 0.10296111 0.073877916
0003d0 28 b5 34 bd a9 dd 1f be 54 26 aa bd a0 6e 67 bc
       -0.044118077 -0.156119 -0.08308092 -0.014125496
0003e0 12 c3 da 3d 51 e4 18 3e 3a 9e aa 3d d5 9a 18 3e
       0.10681738 0.14930846 0.083309606 0.14902814
0003f0 3d e0 1a be 85 23 06 be e0 07 e1 bc 88 a5 7c bd
       -0.15124603 -0.13099487 -0.027469575 -0.0616813

lstm.bias_ih_l0 f4 [160]
000000 48 30 ab 3e df f7 5a 3e 1d 5f 33 3e 74 3d 29 3e
       0.33435273 0.21383618 0.17516752 0.16527349
000010 29 cf fb 3e fa 65 90 3e e3 73 bc 3e 03 f6 b3 3e
       0.49181488 0.28202802 0.36807165 0.3514863
000020 bb 11 d3 3e 8c f4 64 3e b5 ec 83 3e f1 cc d4 3e
       0.41224465 0.22358912 0.2576653 0.41562608
000030 49 6c 82 3e 1f da 81 3e 61 93 a0 3e 97 4a 54 3d
       0.2547324 0.25361726 0.3136244 0.051828947
000040 bd b2 93 3e 26 ea 92 3e bd 1e 96 3e 13 86 da 3e
       0.28847304 0.28694266 0.29320326 0.42680416
000050 68 bf e7 3d 5b 17 cd 3d d5 76 0f 3e ac 3f 82 3e
       0.11315805 0.1001422 0.14010175 0.25439203
000060 3c 94 98 3d 68 ee ac 3e b8 a6 8c 3e 66 f9 8c 3e
       0.074501485 0.3377564 0.27470946 0.27534026
000070 ad eb a0 3e 4e 02 80 3e 5c fb 8c 3d 4a 9d 81 3e
       0.31429806 0.25001758 0.068838805 0.25315315
000080 7d 1f af 3e 4e c4 b1 3e a3 f4 9b 3d d3 fb d9 3e
       0.3420371 0.3472008 0.0761502 0.4257494
000090 9f 18 a4 3e af 47 b6 3e 16 2f 0c 3e 0a d3 e7 3e
       0.32050034 0.35601565 0.13689837 0.45278198
0000a0 6d 95 fe bd e0 4e d8 3c 20 07 79 3d 7c 51 da bd
       -0.124308445 0.026404798 0.06079781 -0.10660073
0000b0 30 f4 1a bc d0 e8 58 3d d8 af 9b 3d 40 51 01 3d
       -0.009457633 0.052956402 0.07601899 0.031571627
0000c0 86 fe b9 3d f3 b0 00 3e 50 73 8c 3d a8 d6 e3 3c
       0.090817496 0.12567501 0.068579316 0.027812317
0000d0 ae 04 fe 3d 85 26 de bd 02 b7 d0 bd 38 f8 bf 3c
       0.12403236 -0.10847191 -0.10191156 0.02343379
0000e0 02 11 d5 3d 3a 0b ee bd 92 61 13 bd 13 1c a7 bd
       0.104036346 -0.11623235 -0.035981722 -0.081596516
0000f0 90 e6 66 3d 2c b0 29 bd 24 b1 c2 bd c0 f8 20 bc
       0.056372225 -0.041427776 -0.09506443 -0.009824932
000100 08 2e 79 3d af 92 03 3e ae 5c f7 3d 70 4e c9 3c
       0.060834914 0.12848924 0.12078224 0.024573535
000110 d9 38 0a be e0 b2 a8 bb 48 07 d7 3c 06 16 f3 3d
       -0.13498248 -0.0051482767 0.02624859 0.11869435
000120 06 8d 04 be ae b4 b5 3d 0d 15 ab bd 10 2b 0f bc
       -0.12944421 0.088723525 -0.083536245 -0.008738294
000130 2c 1c ec bd 80 1e 42 bd cb cc 20 be 1f 79 05 be
       -0.11528811 -0.04739237 -0.15703122 -0.13034485
000140 f5 aa 74 bc 04 80 1a 3e c7 de 4b 3d ba d7 77 be
       -0.014933337 0.15087897 0.049773004 -0.24203387
000150 b7 70 a5 bd e3 1f 5e 3d 4d 08 72 3e 73 aa aa 3b
       -0.08078139 0.05422963 0.23635979 0.0052083074
000160 f9 59 bc 3d 49 b9 68 be 41 31 07 3e 3c e3 3d 3e
       0.091968484 -0.2272693 0.13202383 0.18543714
000170 c9 88 19 bc 5e ba c5 3d 73 49 a5 bd 46 39 8d 3e
       -0.009370991 0.09654687 -0.0807065 0.2758276
000180 e6 7b 0b be f0 f2 9c be 75 20 95 bd 37 16 36 bd
       -0.13621482 -0.30654097 -0.07281581 -0.04445478
000190 1d 90 9a bc 93 1a 83 3d b3 e1 4b be 03 5e 29 be
       -0.018867547 0.06401553 -0.19910316 -0.16539769
0001a0 6a fc c3 3d da 4b 14 3e db 75 15 3d 03 de 38 be
       0.095696285 0.1448206 0.03648935 -0.18053441
0001b0 19 68 0c 3e 98 72 db bd 1a ac 0e 3a b1 25 57 be
       0.13711585 -0.107152164 0.0005442515 -0.21010472
0001c0 c6 1c f6 bb c7 b4 61 be fc 20 c7 3d ac 06 10 3e
       -0.0075107543 -0.22041617 0.09723088 0.14065045
0001d0 5c 5c 5f 3e f6 01 98 bd 22 09 08 be e8 43 f9 bd
       0.21812576 -0.07422249 -0.13284734 -0.12171155
0001e0 b8 a7 89 3e c8 90 ac 3e 96 68 87 3e 64 80 8e 3e
       0.26885772 0.3370421 0.2644698 0.2783233
0001f0 be c8 c0 3e 06 ac 8f 3e 5c bd ec 3e a8 12 d4 3e
       0.37653154 0.2806093 0.4623822 0.41420484
000200 8d bf c5 3e ed 1f be 3e 24 42 cc 3e 59 fc 84 3e
       0.38622704 0.37133732 0.3989421 0.25973776
000210 c0 f8 5e 3e 85 57 03 3f 18 3b 7d 3e a9 4d 4a 3e
       0.21774578 0.5130542 0.24729574 0.19756187
000220 03 ed d2 3d 69 0e aa 3e 49 db 75 3e cd 9a 6a 3e
       0.10299113 0.3321412 0.24009432 0.22910614
000230 8c d7 8b 3e b7 f4 4e 3e 78 58 a8 3e 51 fa ac 3e
       0.27312887 0.20210539 0.32879996 0.33784726
000240 cf 00 8f 3e 06 5b 2e 3e 21 34 55 3e 67 05 cf 3e
       0.27930304 0.1702691 0.20820667 0.4043381
000250 1c 99 90 3e 63 5b cc 3e 04 b3 3f 3d 00 6b a5 3e
       0.28241813 0.39913473 0.046801582 0.32308197
000260 f1 11 f4 3e 2d d7 3f 3e 97 4a 37 3e 27 a5 c2 3e
       0.47669938 0.18734427 0.17899548 0.38016626
000270 a1 0b b9 3e a2 ef 7d 3e da 06 ac 3e eb 8c de 3e
       0.36141685 0.24798444 0.33598977 0.43466887

lstm.bias_hh_l0 f4 [160]
000000 69 6e 77 3e 21 81 e8 3e 1c ed 7c 3e 5f 9d 83 3e
       0.24163212 0.45411018 0.24699825 0.25706002
000010 6d 6e ae 3e 7c 37 a5 3e 83 f8 87 3e c9 be f3 3e
       0.34068623 0.32268894 0.26556787 0.47606495
000020 a0 61 4c 3e 7c 94 52 3e 99 a8 c6 3e 9d a9 e1 3e
       0.19959116 0.20564455 0.38800505 0.44074717
000030 05 0e be 3e 3b a9 d3 3e bd b7 e5 3e cd 10 80 3e
       0.3712007 0.4134005 0.44866744 0.25012818
000040 8d 7c 33 3d e4 9e ba 3d 97 26 7f 3e 71 a4 88 3e
       0.043819953 0.09112337 0.24917065 0.2668796
000050 e4 54 6e 3e f2 05 ae 3e d9 5a 29 3e 5c c0 2a 3e
       0.2327457 0.3398891 0.16538562 0.16674942
000060 56 fe bf 3e fa 93 dc 3e 60 8d 8c 3e 0e e7 14 3e
       0.3749873 0.43081647 0.2745161 0.14541265
000070 bb a4 18 3e 55 e4 17 3e ec bc 64 3e 99 3e 84 3e
       0.1490659 0.14833196 0.22337693 0.25829008
000080 09 a5 b0 3e fd 4b 29 3e 7c f5 c3 3e a7 50 cb 3e
       0.34500912 0.16532893 0.38273227 0.3970997
000090 5c c2 50 3e 95 ae d4 3e f2 69 3e 3d 69 3a 42 3e
       0.20386642 0.41539446 0.046487756 0.18967594
0000a0 81 84 1f 3e f0 8d 53 bd 1c 60 68 3d 04 e4 6d bd
       0.1557789 -0.051649034 0.056732282 -0.05807878
0000b0 60 0d ed bc aa 1f b6 3d a1 5b fd bd 0e 9d af bd
       -0.028937042 0.08892758 -0.123709925 -0.08574878
0000c0 d8 ac 00 be c2 14 88 bd 30 bd 0c be da 92 c7 3d
       -0.12565935 -0.06644584 -0.13744044 0.097448066
0000d0 e0 b5 6c bd 03 96 16 be ca 29 bf 3d 13 89 0f 3e
       -0.057790637 -0.14705662 0.093341425 0.14017133
0000e0 e0 e3 20 be 00 56 c7 b9 68 a1 08 3d 51 fa 81 bd
       -0.15711927 -0.00038020313 0.033357054 -0.06346572
0000f0 0e 6c 22 bd d8 ad eb bc 58 70 28 bd 49 33 18 3e
       -0.03965383 -0.028769419 -0.041122764 0.14863314
000100 f5 0c 06 3e f8 66 0d be 00 19 21 bd 60 47 4e 3c
       0.1309088 -0.1380881 -0.039330482 0.012590259
000110 bf 42 21 3e 69 a1 af bd bc 9b a3 bd f8 82 d6 bc
       0.15748118 -0.085757084 -0.07988688 -0.026185498
000120 e0 92 aa 3d 88 5a e7 bc 86 e9 9e 3d 86 d5 a1 bd
       0.083287954 -0.02824141 0.07759385 -0.079020545
000130 9a 37 c1 3d a4 f9 5b 3d d0 78 3d 3c 78 c0 f4 3c
       0.09434433 0.053704873 0.0115644485 0.029876933
000140 c3 8d 50 3e 66 1e b8 3d 4d 5e 70 3e c4 de f8 bc
       0.20366578 0.08990173 0.23473473 -0.03037966
000150 30 c1 dc bc 15 41 41 3e 89 39 49 bc 10 8b 33 be
       -0.026947588 0.18872483 -0.012281784 -0.17533517
000160 c9 99 2b 3e 15 d1 08 be 9f 0f 5b 3e b8 ad 3e bd
       0.16757883 -0.13361008 0.21392678 -0.04655239
000170 f5 b6 5e 3e aa 5c 3e 3e c1 21 3c be 07 c2 5f 3e
       0.2174948 0.18590036 -0.18372251 0.2185136
000180 54 87 16 be 74 66 c4 bd 9b 40 04 3d 53 68 cb 3d
       -0.14700061 -0.09589854 0.032288175 0.09932008
000190 12 d9 70 3e 25 20 fa bd 47 1b 30 bd de e4 bd bd
       0.23520306 -0.12213162 -0.042994764 -0.092721686
0001a0 e7 e9 2e 3e cf bd 80 3e 18 d7 80 3e bb 5a fe bd
       0.17081414 0.25144812 0.25164104 -0.12419649
0001b0 a1 ad 5b 3e b9 06 24 be 61 a2 9b 3d cd 8c 5a be
       0.21452953 -0.1601819 0.07599331 -0.21342774
0001c0 9a 6e 2c be e5 14 50 bc c2 2c 2a 3e 9c e6 2b bd
       -0.16839066 -0.012700294 0.16618636 -0.041967973
0001d0 0a 1b 63 3d 3a 6d e4 3d ee 00 24 bd c6 20 8f bd
       0.05544571 0.11153646 -0.04003995 -0.06988673
0001e0 38 6c 04 3f 1e f2 fa 3e c3 d6 01 3e e2 0b 30 3e
       0.5172763 0.49012846 0.12679581 0.17192033
0001f0 f0 b3 9b 3e 6e 32 54 3e 6e de a2 3e e7 5a 85 3e
       0.3041072 0.20722362 0.31810325 0.26045915
000200 92 b5 4b 3e 7b ab 5a 3e 90 a0 48 3e 08 5e 6b 3e
       0.19893482 0.21354477 0.195925 0.22985089
000210 4e 8e cb 3e 70 a4 c7 3e 8a 59 d5 3e bf 6b a4 3e
       0.39757007 0.38992643 0.41669875 0.32113454
000220 68 42 35 3e f5 89 1a 3e 5a 3c d0 3e aa 72 b4 3e
       0.17701113 0.15091689 0.40671045 0.35243732
000230 11 3d 3e 3e 4c 37 ab 3e 12 89 91 3d 4b a5 a8 3e
       0.18577982 0.33440626 0.07106222 0.3293861
000240 bf 47 0d 3e 10 ca 50 3e 9a dd ff 3c 7d 8c 9e 3e
       0.137969 0.2038958 0.031233598 0.3096656
000250 27 7d 3e 3e 11 c1 8b 3e 8d db 54 3e 78 2c ad 3e
       0.1860243 0.27295735 0.20786877 0.3382299
000260 39 04 7c 3e 72 a4 93 3e f1 0e 40 3e 61 d2 89 3e
       0.24610986 0.288364 0.187557 0.2691832
000270 93 a1 99 3e 06 03 f2 3e 55 de 56 3d 1f 0a af 3e
       0.30006084 0.47267932 0.052458126 0.3418741

lstm.weight_ih_l1 f4 [160, 40]
000000 fe 03 ba 3d 98 7f b8 3c d7 6d d7 3d 83 ad 87 3d
       0.09082793 0.022521779 0.10518997 0.066248916
000010 4c 01 ea 3c ad dc c9 bd 45 a8 14 be aa ac af 3d
       0.028565072 -0.09856544 -0.14517315 0.08577855
000020 4c 83 26 bd 7e da d7 be 14 16 d7 3e d0 11 97 3c
       -0.04065256 -0.42158884 0.42009032 0.01844111
000030 9d f2 bd bd d2 08 9b 3d 54 9b 23 3e ef 93 e3 3d
       -0.092747904 0.07570042 0.15977222 0.111122005
000040 56 bd 90 be 64 75 06 3e 70 8c 26 3e 97 48 e2 bc
       -0.28269452 0.13130718 0.1626451 -0.027622504
000050 f6 de 48 be b4 be 07 3d c9 ea 4c bd a0 47 0d 3e
       -0.19616303 0.033140853 -0.050028596 0.13796854
000060 48 ec 0d 3e 1a a3 dd 3e b0 f3 cb 3d f5 40 82 bd
       0.13859665 0.432885 0.09958589 -0.06360046
000070 15 1e 14 3e ba 89 7e be 63 62 34 3e 80 56 4d be
       0.144646 -0.24857226 0.17615657 -0.20052528
000080 e3 0a 33 3e 56 15 7e be e7 95 3b 3e 93 6c 73 be
       0.17484622 -0.24812827 0.18318902 -0.23771887
000090 c6 e8 48 bb 9a fe e1 bc 0f 5c f4 bd b4 bc b5 3d
       -0.0030656322 -0.027587224 -0.11931621 0.08873883
0000a0 3e 5a 62 3e 0a fb 9d bd 06 80 f1 3d 28 96 31 bd
       0.22104737 -0.077138975 0.11791997 -0.04335609
0000b0 80 bd 4f 3c 7e 11 82 3e 3b 45 72 be 00 ec 4f bc
       0.012679458 0.2540397 -0.23659222 -0.012690544
0000c0 ed e3 de bd 2d cb 80 3e b7 e6 34 be ec fa 2a be
       -0.10883317 0.2515501 -0.17666136 -0.16697282
0000d0 6d a9 11 3d e4 56 a2 3d e3 47 37 3d 20 51 84 bd
       0.035561968 0.07926729 0.04474629 -0.06460786
0000e0 04 ab 75 bc 68 2e 5c 3d 18 3c 12 bd f3 62 4e bd
       -0.014994387 0.053755194 -0.03570184 -0.050387334
0000f0 a7 03 8e 3c c9 44 3a bb 79 b1 5c be eb 24 b9 bd
       0.017335726 -0.0028422347 -0.21552075 -0.09040245
000100 37 7b dd bd c7 75 25 be b7 75 22 3d f1 5c d4 bd
       -0.10814517 -0.1615821 0.039663043 -0.1036929
000110 be cf d5 3b 63 31 83 be ac 09 43 3d eb db 0b 3e
       0.006525009 -0.25623617 0.047616646 0.13658111
000120 3d 25 a5 3d cd d3 98 3e a6 59 49 3e c3 51 41 bd
       0.08063743 0.2984909 0.19663104 -0.047197115
000130 32 eb 00 be 70 6c 8e be 7f 2e 42 be 5f b9 38 be
       -0.1258972 -0.27817106 -0.1896305 -0.18039463
000140 96 da 44 bb 54 3e 8a be 06 53 06 3e 72 55 de bc
       -0.0030037514 -0.27000678 0.13117608 -0.027140353
000150 e7 e4 18 be 23 e9 58 bd 72 7b b0 bd 40 dd 7f be
       -0.1493107 -0.05295671 -0.08617295 -0.24986744
000160 e7 90 90 bb bc c9 2b 3e ae 1e c6 3d d1 7e 65 be
       -0.004411805 0.16776174 0.096738204 -0.22411658
000170 4f b8 ae 3d cb 55 f7 bd f0 3f 8a 3e 30 5e 2c 3e
       0.08531248 -0.120769106 0.27001905 0.16832805
000180 b6 d7 b6 bd 5b 6f 86 be 61 73 5d bd e2 66 53 3e
       -0.08927862 -0.26256832 -0.054065112 0.20644715
000190 2f c6 00 3e 95 55 fe 3c 84 4c 7b be 55 9e 0e 3d
       0.12575601 0.031046668 -0.24540907 0.034818966
0001a0 3b c6 d6 bd 27 9f 83 3d b2 9c 0e 3e 31 98 20 bd
       -0.10487028 0.0642684 0.13926962 -0.03920764
0001b0 28 5c d3 3d cb 75 48 3e 47 40 86 bd b3 15 5f 3d
       0.10320312 0.19576184 -0.06555229 0.054464053
0001c0 16 a7 0e 3e c1 a5 17 bd 39 57 1b 3d fa 4c 5b 3e
       0.13930926 -0.03702331 0.03792498 0.21416083
0001d0 23 50 bd 3d c1 05 89 be c1 82 f5 3c d8 45 af 3e
       0.092438005 -0.26762202 0.029969575 0.34232974
0001e0 d1 a1 53 3b b9 0e 65 3d c3 e6 95 3d d6 21 89 be
       0.0032292495 0.055922244 0.07319405 -0.26783627
0001f0 c8 47 85 3d b2 b3 6a 3d 66 24 2a be 81 17 5a be
       0.06507832 0.057300277 -0.16615447 -0.21298029
000200 11 cc 32 be 86 26 2e 3e 1c 40 9a bc d0 2f 62 bc
       -0.17460658 0.17006883 -0.018829398 -0.013805345
000210 8a cf da 3c aa 03 cb 3d 66 07 87 be f9 1a 8b 3d
       0.02671029 0.09912808 -0.26372832 0.06792254
000220 b9 ac ac bd 8c 66 58 bd 74 bd 1e 3e b3 85 20 3e
       -0.08431382 -0.05283217 0.15501958 0.15676002
000230 f8 26 72 3e 09 7a 35 be a7 41 83 bd 85 b2 45 3d
       0.23647678 -0.17722334 -0.064090066 0.048265953
000240 da a6 95 bc 42 a5 ab bd e0 4e a5 be 4a 0d 50 bd
       -0.018268038 -0.0838113 -0.3228674 -0.050793923
000250 65 f7 79 3e dd c5 3f be b5 9d 84 3e 4a 25 10 3e
       0.2441078 -0.18727823 0.2590157 0.14076725
000260 e6 8a d1 3c f2 e8 a2 3d cf 5a 00 3e 9b 77 66 3e
       0.025578927 0.07954587 0.1253464 0.22506563
000270 c1 80 98 be 6d 29 02 be 9e b8 4d bd 80 74 42 be
       -0.2978573 -0.12711115 -0.050224893 -0.18989754
000280 02 de 32 3c 3f aa ea 3e 3f ab dd bd b8 c5 e8 bd
       0.010917189 0.45833012 -0.10823678 -0.11365837
000290 93 a1 92 3e 73 30 3b 3e 74 cf c1 bd 76 b3 d8 3d
       0.28638896 0.182802 -0.09463397 0.105811045
0002a0 3c c7 5e 3d a7 dd aa be fb 76 0c 3f f0 82 b7 3e
       0.054389223 -0.33372232 0.5486905 0.35842085
0002b0 82 9c 9e 3c 15 68 16 3f fa b6 a5 be 94 10 5b 3e
       0.019361738 0.58752567 -0.32366163 0.21393043
0002c0 6d 52 c2 be 36 d3 22 be d2 84 17 3d 64 b0 04 be
       -0.3795351 -0.15900883 0.0369919 -0.12957913
0002d0 6d ee 2a bd 0e e8 76 bd 34 5b 40 3e 2b de 3b be
       -0.041731287 -0.0602799 0.18784791 -0.18346469
0002e0 02 5d c7 3e f9 36 f4 3e 5e 8e 43 3e e9 62 5a be
       0.38938147 0.4769819 0.19097278 -0.21326794
0002f0 01 60 8c 3d 26 86 c6 bd 22 8e 4e 3c 46 f6 79 be
       0.06854249 -0.096935555 0.012607129 -0.24410352
000300 d6 ee 04 bf 80 f2 87 be c9 60 f7 3d 90 03 ca 3d
       -0.51926935 -0.265522 0.12079007 0.09863961
000310 2d f5 99 3e 1e 04 c6 3d ce 97 37 be 0d 6f b4 be
       0.30069867 0.09668754 -0.17929003 -0.35240975
000320 76 f8 44 3e e0 2d 8f 3e 19 17 16 3e d2 c1 00 be
       0.19235405 0.27964687 0.14657249 -0.12573937
000330 59 05 d6 bd 57 48 32 bc d9 4b 93 be e2 10 c2 bd
       -0.10450239 -0.010881505 -0.28768805 -0.094758764
000340 25 4f 37 3e 6e be 35 be 49 33 e1 3e b5 1c 24 3e
       0.17901285 -0.17748424 0.4398444 0.16026576
000350 3c b3 d6 3d 45 cc 13 3f 8e 78 de be b1 2f e1 3d
       0.10483405 0.57733566 -0.4345135 0.109954245
000360 e9 f8 e5 be 35 f4 73 be b6 09 11 3e 44 88 de 3d
       -0.44916466 -0.23823626 0.1416386 0.10865834
000370 c7 6e 06 3d 2d 5d a8 bc c8 f8 34 bb bc c9 00 bd
       0.03282049 -0.020552242 -0.0027614105 -0.03144239
000380 18 58 2d 3e 32 ab b5 3e 6b fc 5a 3c b7 44 8d be
       0.16928136 0.35482174 0.013365845 -0.27591488
000390 b2 9c bd 3e 81 68 8b be 01 f9 4d 3e 60 4f 06 be
       0.37033612 -0.27228168 0.20114519 -0.13116217
0003a0 87 80 6e be bb 62 91 be e6 29 43 bb 81 2a 3c 3e
       -0.23291217 -0.28395638 -0.0029779612 0.18375589
0003b0 21 3a 98 3e 6e 18 0f 3e 79 68 7b be 7c 43 96 be
       0.2973185 0.13974163 -0.24551572 -0.29348361
0003c0 49 fd 49 3d 89 f3 43 3e 81 aa 2c 3e 55 16 88 be
       0.049313817 0.1913587 0.16861917 -0.26579538
0003d0 11 1f 8f be 4a 73 7e 3e e6 cf ea bc 99 ac 03 be
       -0.2795339 0.24848667 -0.028663587 -0.1285881
0003e0 ee a1 ad 3d 31 7e 58 3e 14 73 41 be 54 66 f9 bc
       0.08478151 0.21141888 -0.18891555 -0.030444302
0003f0 6c ba 81 3e 80 ac 6e 3d 91 2c 55 be 3a f4 72 3d
       0.2533754 0.058269978 -0.20817782 0.059314944

lstm.weight_hh_l1 f4 [160, 40]
000000 5a 55 b2 3d 54 38 4a 3d 3a ed 10 bd 29 03 1d 3e
       0.08707686 0.049370125 -0.035382487 0.15333237
000010 f4 e7 58 3d c0 44 c5 3b f8 78 aa bc 3c 8a 1c 3d
       0.052955583 0.0060201585 -0.020809636 0.038217768
000020 e8 49 8a bd 04 a4 2c 3d 9f 5e e6 bd 1d ad 09 3e
       -0.06752378 0.042148605 -0.11248516 0.13444944
000030 12 56 f6 bd 9a cc fa bd f0 1a a2 bc eb e3 0b 3e
       -0.12028135 -0.12246056 -0.019788235 0.13661163
000040 45 b3 0f 3e 9e ba a2 3d 80 83 cf ba ce f4 f6 3d
       0.1403323 0.07945751 -0.0015832037 0.120584115
000050 bc 40 5c 3d 41 c2 fd bd 5e a3 f9 bd a8 40 eb 3c
       0.053772673 -0.123905666 -0.12189363 0.028717354
000060 6e 75 d4 3d 90 b5 e2 bc 0c 08 6b bd 7d cd 12 3e
       0.103739604 -0.027674466 -0.05738072 0.143362
000070 a0 c4 16 3c 1b 2e c7 bd 4e ea a3 3d 21 0d ba bd
       0.0092021525 -0.09725591 0.080036744 -0.090845354
000080 b2 c3 05 be 94 99 1c be 16 72 d5 3d 9a f4 14 be
       -0.13062933 -0.1529296 0.10422151 -0.14546433
000090 a0 49 b9 bc 78 ac e2 bd ea 0e 95 3d e0 fb 02 be
       -0.022618115 -0.11068052 0.07278235 -0.12791395
0000a0 f4 11 08 3d bf d0 c2 bd a2 f5 e2 3d 46 d4 e8 3d
       0.033220246 -0.095124714 0.11082007 0.11368613
0000b0 b2 cb b4 3d ac 91 6d 3d ac d8 01 3d ec 28 69 3d
       0.08827914 0.05800025 0.031700775 0.05692379
0000c0 90 a4 dd 3c 90 1a 2f 3c 20 f3 5c 3d 87 db c2 bd
       0.027056009 0.010687485 0.0539428 -0.09514528
0000d0 ae 1d cf 3d a3 a8 c9 bd 18 d4 bd bd a6 73 c1 3d
       0.10113083 -0.09846618 -0.09268969 0.09445886
0000e0 4c 49 0c be 63 6d 0e be 1e fa a1 bd 1b 63 c1 bd
       -0.13699836 -0.13908915 -0.07909034 -0.09442731
0000f0 80 68 86 ba 38 3a f2 bd c6 2a ad bd 80 dc ae bd
       -0.0010254532 -0.118275106 -0.08455424 -0.08538151
000100 16 10 a2 bd e4 8a 8a 3d 30 b4 0e be 33 42 15 3e
       -0.079132244 0.067647725 -0.13935924 0.14576034
000110 98 9d 3f 3d f0 30 3a bc 83 e6 00 3e 8c 29 1f be
       0.046781152 -0.011364207 0.12587933 -0.15543193
000120 40 6f eb bd 4d 5d 17 be f0 bd ea bd 2e d9 f3 bd
       -0.11495829 -0.14781685 -0.11462009 -0.11906658
000130 7b 53 0e be cc 04 54 3d da 0f a9 3d 20 cc a1 bb
       -0.13899033 0.051762387 0.082549766 -0.0049376637
000140 0e 57 d1 3d 03 4e 01 3e b8 20 0e be 2a 4a b7 3d
       0.102216825 0.12627415 -0.13879669 0.089496925
000150 df 56 15 3e 78 11 f4 3c 7e 7c 04 be 76 0b 92 bd
       0.1458392 0.029793486 -0.12938115 -0.07131092
000160 61 39 ff bd b6 58 86 3d be 8d fd bd 54 25 d2 bd
       -0.12462116 0.06559889 -0.12380551 -0.10261026
000170 f4 6e 30 bd 58 d5 1b be 94 9f 10 3d 70 fc 5c 3d
       -0.043074563 -0.15218103 0.035308436 0.05395168
000180 46 77 24 bd 1c b9 8c 3d 4e f2 07 bd b4 d1 2b bd
       -0.04015281 0.06871244 -0.033190064 -0.041948035
000190 dc 03 8a 3d c1 04 09 be e5 68 13 3e 71 34 e1 bd
       0.06739017 -0.1338072 0.14395483 -0.109963305
0001a0 27 15 0e 3e 77 02 0b be 3c 77 30 bd 87 d8 1c 3e
       0.13875256 -0.13575159 -0.04308246 0.15316974
0001b0 ae 75 e7 bd 7a c4 87 3d f8 83 ac bc ee e8 04 be
       -0.113017425 0.06629272 -0.021059021 -0.1297948
0001c0 22 d8 d3 3d ee 4b a0 3d d6 97 de 3d 6c 8f b5 3d
       0.103439584 0.078269824 0.10868804 0.08865246
0001d0 58 9a a9 bc ee 11 2b bd f8 90 6a 3d 2f 2f 04 be
       -0.02070348 -0.041765146 0.05726716 -0.12908624
0001e0 11 45 81 bd d0 3b 1d be db 0c f6 bd b8 5e 0c be
       -0.063120015 -0.15354848 -0.12014171 -0.13708007
0001f0 a0 83 76 bc 10 76 de bc 2c 60 03 bd 93 2b 8e bd
       -0.01504603 -0.027155906 -0.03207414 -0.06941905
000200 e0 6d c7 bb 0e a3 d8 bd 3c 59 50 3d 78 cd 34 bd
       -0.006086096 -0.10577975 0.05086635 -0.044141263
000210 6c 86 25 3d d2 0c f3 3d 9c 2b 6c 3d 94 23 a8 bd
       0.040411398 0.1186768 0.057658777 -0.08209911
000220 f8 60 3b bd 8a 60 39 bd ea e3 1b be b9 d3 1a be
       -0.045746773 -0.045258082 -0.15223661 -0.15119828
000230 00 35 9c 3a 00 26 24 3d 60 a2 31 3d 84 44 0a be
       0.0011917651 0.040075302 0.043367743 -0.13502699
000240 52 f7 b1 bd 70 bb 7e 3c dc aa 11 be 9d 17 a8 bd
       -0.08689751 0.015547618 -0.14225334 -0.08207629
000250 70 06 c6 3c bd c3 a6 bd c8 72 c9 3c 4a d8 33 bd
       0.024172992 -0.08142803 0.024590865 -0.04390744
000260 18 91 ce 3c 8e 4e 2d bd 30 61 84 3c 64 39 8f 3d
       0.02521567 -0.042311244 0.016159624 0.06993368
000270 44 b3 bb 3d 30 4b ab 3d aa df ca 3d 8d ed 06 3e
       0.091650516 0.0836395 0.09905942 0.13176556
000280 a8 db e2 3c cf 32 0f 3e fa 94 6d bd 67 bb 06 be
       0.02769263 0.13984226 -0.058003403 -0.13157426
000290 d6 af ec bd 85 0e 86 bd d4 bb 75 3d 86 71 d7 bd
       -0.115569755 -0.06545738 0.05999358 -0.105197
0002a0 80 29 b1 bc 9e 7c b3 bd 12 b5 9e 3d 13 46 eb bd
       -0.021626234 -0.08764003 0.0774938 -0.11487975
0002b0 fd 0c 08 be 7c 99 98 bd b7 fa 20 be 28 aa c2 bd
       -0.13286205 -0.0745115 -0.1572064 -0.09505111
0002c0 e1 c5 b9 bd a4 1e 80 bd 11 d6 0e 3e f0 06 37 bc
       -0.090709455 -0.06255844 0.13948847 -0.011171088
0002d0 30 72 51 3c 77 85 04 3e a4 e1 bb 3d 48 d7 ae bd
       0.012783572 0.12941538 0.09173897 -0.085371554
0002e0 96 ac f0 3d 40 4f f4 3b 5e 01 72 bd b1 05 06 3e
       0.11751668 0.0074557364 -0.059083335 0.13088109
0002f0 db 6d 06 3e a2 00 2e bd 6c e5 68 bd 22 82 90 bd
       0.13127844 -0.042481072 -0.05685942 -0.07056071
000300 a6 9e 4b bd e0 ba e4 bd 7e 04 c0 3d 20 e1 86 bb
       -0.049711846 -0.11168456 0.09375857 -0.0041161925
000310 50 29 07 bd 59 9a 12 3e b0 85 46 bc 18 d3 ff bc
       -0.032998383 0.14316691 -0.0121168345 -0.031228587
000320 50 87 c3 bc ee cc 83 bd da 4b b5 3d 4b 97 17 be
       -0.023868233 -0.064355716 0.08852358 -0.14803807
000330 e0 15 e1 3c c6 a5 7d bd f2 7c 57 bd 45 5d c0 bd
       0.027476251 -0.061925672 -0.05260939 -0.0939279
000340 ba 1d 8c 3d c1 9d 14 3e 78 fa be bc 08 92 bb 3d
       0.068416074 0.14513303 -0.023312792 0.091587126
000350 53 df 16 3e cb 22 12 3e d2 d3 11 be 60 8f 8b bc
       0.14733629 0.14271085 -0.1424096 -0.01703614
000360 0e 79 f0 3d 2e a4 02 be 40 d7 85 3b 94 83 43 3d
       0.11741839 -0.12757942 0.0040844977 0.047732905
000370 84 cb 57 3d 80 10 7d 3d d4 6f d6 bd 10 7e 82 3c
       0.052684322 0.061783314 -0.10470548 0.015929252
000380 da 2a 85 3d f0 fc 48 3c dc e3 7b bd 03 33 1e 3e
       0.06502314 0.012267336 -0.0614966 0.15449147
000390 7e de 1b bd 78 97 51 bd 18 71 96 3d 30 c1 6c 3c
       -0.038053982 -0.051169842 0.0734579 0.014450356
0003a0 a5 e7 af bd 0f b2 81 bd d8 94 4e bd e8 2d ea bc
       -0.085891046 -0.0633279 -0.050434917 -0.028586343
0003b0 9e 88 da 3d e8 36 ba bc b6 c2 f9 3d 50 64 9d bc
       0.10670589 -0.02273126 0.12195341 -0.019212872
0003c0 2c 6c 7f bd 9c 8d c7 bd 10 d4 f2 3c 9b 38 1b 3e
       -0.06235902 -0.09743807 0.029642135 0.15158312
0003d0 92 8b c8 bd 52 d6 ff 3d 09 1f 85 bd 6a 0b 89 3d
       -0.09792246 0.1249205 -0.0650006 0.0669163
0003e0 00 b4 11 3b 56 b6 16 bd 1a 55 d8 3d a2 04 95 3d
       0.0022232533 -0.036794983 0.10563107 0.07276274
0003f0 89 d3 01 3e 34 58 da bd a4 7c af bd 02 ff 22 bd
       0.1267835 -0.10661355 -0.08568695 -0.039793976

lstm.bias_ih_l1 f4 [160]
000000 80 1c 9e 3e c9 9c 9a 3e 42 75 5e 3e c6 f6 68 3e
       0.3088112 0.30197743 0.21724418 0.22750387
000010 a2 de e9 3e ab 18 8f 3e 4a 4f 69 3e 51 7f 83 3e
       0.45677668 0.27948508 0.22784153 0.25683072
000020 c6 bc c0 3e 47 49 a1 3e 6b b3 ea 3e fb 32 c0 3e
       0.37644023 0.3150122 0.4584001 0.37538895
000030 4a 48 c1 3e 3d e1 5f 3e e7 15 c9 3d b7 50 a5 3e
       0.37750465 0.21863265 0.09818631 0.32288143
000040 48 39 97 3e ee 49 5f 3e 79 ed 7c 3e f3 b3 5d 3e
       0.2953589 0.21805546 0.24699964 0.21650676
000050 84 47 89 3e 35 92 78 3e 95 8a b2 3e 13 ba 8e 3e
       0.26812375 0.24274524 0.34871355 0.27876338
000060 58 ac 47 3e 96 4a 51 3e 4f 50 c7 3d 55 d8 b4 3e
       0.19499338 0.20438609 0.097321145 0.35321298
000070 a1 28 7b 3e 54 4c cd 3e 77 0b aa 3e 59 ee c0 3e
       0.24527217 0.40097296 0.33211872 0.37681845
000080 c6 16 8f 3e ae ab 21 3e 47 1d e2 3e 81 65 98 3e
       0.27947062 0.15788147 0.44162962 0.2976494
000090 52 b8 a1 3e 23 01 68 3e 68 c6 fe 3d 02 6e e0 3e
       0.31585938 0.22656684 0.12440187 0.4383393
0000a0 30 7e 83 3d 8e 5e 1b be a4 38 4b 3d b1 22 19 be
       0.06420553 -0.15172789 0.049614564 -0.1495464
0000b0 c8 3e 52 3d 41 a4 b3 bd 2e 7a 74 bd 32 12 cf 3d
       0.051329404 -0.08771563 -0.059686832 0.10110892
0000c0 d2 f6 f1 bd f4 b2 07 be e5 86 ad bd 0a b7 d4 3d
       -0.11814655 -0.13251859 -0.08472995 0.103864744
0000d0 7d 24 00 3e de 07 14 bd b8 be b2 3c d4 2d cc bd
       0.12513919 -0.036140315 0.021819457 -0.099696785
0000e0 e2 7e 04 be 64 d1 60 bd f3 31 a0 bd 9e e7 68 bd
       -0.12939027 -0.05488719 -0.07822027 -0.056861512
0000f0 fc 95 2c 3d 48 79 99 3d 00 28 92 bd 02 de ec 3d
       0.042135224 0.07493836 -0.07136536 0.11565782
000100 b8 40 b9 bc 4c 41 08 be ec 36 73 3d 80 c7 88 ba
       -0.022613868 -0.13306159 0.05937855 -0.0010435432
000110 69 c6 f9 bd 00 96 8e bb 00 1f 06 3b 86 ec 0d be
       -0.12196047 -0.0043513775 0.0020465255 -0.13859758
000120 be 8e f9 bd 98 ce a1 bc 32 c2 3c bd b4 a2 6b 3d
       -0.12185429 -0.019751832 -0.046083637 0.057528213
000130 68 3f f9 3c 82 79 f0 3d 52 32 f0 3d 80 5b e8 ba
       0.030425742 0.11741926 0.11728348 -0.0017727464
000140 d7 6f 29 be 99 c2 0d bd e1 9b a8 3c 49 62 38 3a
       -0.1654657 -0.03460941 0.020582141 0.00070336886
000150 83 ac cf bd 0a 2e a8 3d dc e4 b6 bd 81 0a 0e 3e
       -0.10140326 0.08211906 -0.0893037 0.13871194
000160 0e e4 b8 bd 72 66 69 3d 83 19 11 3e 1f 88 2a be
       -0.09027873 0.056982465 0.14169888 -0.16653489
000170 85 3a 85 bd b3 fa 36 bd af 8a d7 3d f1 8b 3d 3e
       -0.06505302 -0.04467268 0.10524499 0.18510415
000180 b5 06 e7 bc c3 9a 59 3d 2b 18 8f 3d 3e bc a7 3d
       -0.02820144 0.053126108 0.069870315 0.08190201
000190 82 b4 cf bd 7f 96 af bd 72 bb 07 ba f6 df 7b bd
       -0.10141851 -0.08573627 -0.0005177773 -0.061492883
0001a0 5a 0f c3 3d 4f bd 44 3d bd c6 4a be 2b 7d 96 3d
       0.095244125 0.0480321 -0.19802375 0.07348093
0001b0 5c 99 c6 bd 65 31 1d 3c 16 ff b1 3d 45 f8 d9 3d
       -0.0969722 0.009594296 0.08691232 0.10643057
0001c0 36 bb 72 bc 2c 92 2a be 7a cb 3c be a6 0e 68 3d
       -0.014815142 -0.16657323 -0.18436995 0.056654595
0001d0 4d d8 98 bd 94 48 96 3d f1 f0 b8 bd d5 36 bb bd
       -0.07463131 0.07338062 -0.09030331 -0.09141318
0001e0 4f 58 6e 3e 9f 84 8f 3e ec 47 fd 3d 87 26 8a 3e
       0.23275875 0.2803087 0.12367234 0.2698252
0001f0 9d d8 ec 3e cc 97 27 3f 54 4b 89 3e 9e 5c 6d 3e
       0.46259013 0.65466 0.26815283 0.23179862
000200 19 56 42 3e 56 24 c9 3e 46 36 da 3e c6 4a b8 3e
       0.18978156 0.39285535 0.42619532 0.35994548
000210 d2 34 a2 3e bc 55 89 3e b2 d3 6c 3e 8e 6d 9a 3e
       0.31680924 0.26823223 0.2312763 0.3016171
000220 5a 8c 97 3e ff f9 8f 3e bb 4d 83 3e 71 bd 1b 3b
       0.29599267 0.2812042 0.2564524 0.002376404
000230 6f 15 93 3e e2 21 b9 3e 3d 13 9d 3e d3 03 01 3f
       0.2872729 0.36158663 0.3067874 0.5039646
000240 b6 66 3b 3e d6 4c 5f 3e da cc f2 3d 80 f1 fe 3d
       0.183009 0.21806654 0.118554786 0.12448406
000250 41 3a c5 3e 2e 41 15 3e 29 83 73 3e 6c fb b8 3e
       0.38521007 0.14575645 0.23780502 0.3612932
000260 7c c3 de 3e 23 01 90 3e 7f 01 81 3e f0 2b 32 3e
       0.43508518 0.28125867 0.25196454 0.17399573
000270 71 1c c9 3e b0 1f c8 3e 17 bf 82 3e 4c 66 d9 3e
       0.39279512 0.39086676 0.25536415 0.4246086

lstm.bias_hh_l1 f4 [160]
000000 ae 7c 63 3e 86 20 99 3d 7c 05 4e 3e ee 70 4c 3e
       0.2221553 0.074769065 0.2011928 0.19964954
000010 62 37 d5 3e 3e c6 9f 3e ee 81 2f 3e 4c 4a 62 3e
       0.41643816 0.31205934 0.17139408 0.22098655
000020 0a 1f e3 3e 31 63 d1 3e 6e 37 06 3f a8 b7 a4 3d
       0.44359618 0.4089599 0.5242833 0.08042842
000030 22 22 1a 3e 74 de 0e ba 01 13 34 3e a1 a9 d2 3e
       0.15052083 -0.0005450018 0.17585374 0.41145042
000040 78 37 f6 3e c1 8f 02 3e 14 0a c4 3e 4f 14 66 3e
       0.48089194 0.1275015 0.3828894 0.22468685
000050 e3 f6 95 3d 7b 2d 55 3e 97 a3 bc 3e 71 e1 d1 3e
       0.073224805 0.2081813 0.3684356 0.4099231
000060 65 b4 a8 3e 59 c8 12 3e 0f 4b 11 3e e7 01 74 3e
       0.3295013 0.14334239 0.14188789 0.2382885
000070 23 6b ae 3e ae a3 74 3e 77 36 a7 3e 69 ec c1 3e
       0.34066114 0.23890564 0.3265874 0.3787568
000080 90 97 b0 3e 9e 7c 2a 3e 0f ad d5 3e 45 9a d0 3e
       0.34490633 0.166491 0.41733596 0.40742698
000090 f2 e1 d8 3e 13 49 b2 3e b8 99 41 3e d6 dd db 3e
       0.42359883 0.34821376 0.18906295 0.42942685
0000a0 9d 5d 84 bd 77 56 03 3e 90 12 93 bd f8 7a d6 3c
       -0.06463168 0.12825952 -0.07181275 0.026181683
0000b0 4c 90 31 bd 94 63 d5 bd ea d4 c4 3d 29 32 a4 bd
       -0.043350503 -0.10419384 0.09610923 -0.0801738
0000c0 74 1b 4b bd cb 05 0b 3e de 39 9c bd 5b 2f 0b 3e
       -0.04958673 0.13576429 -0.07628225 0.13592283
0000d0 a0 b8 36 3c 22 b5 db 3d 99 d1 06 be 16 dc c0 3d
       0.0111524165 0.10727908 -0.13165893 0.09416978
0000e0 90 94 99 bc 60 46 a8 bc c0 05 48 3b 00 9a 7f 3d
       -0.018747598 -0.02054137 0.0030521005 0.062402725
0000f0 de 57 88 3d ab f8 1a 3e ae 39 dc bd f0 5e 41 3c
       0.06657384 0.15133922 -0.10753189 0.01180242
000100 56 53 e1 3d 4a e2 16 be ae 25 f5 3d 48 6d 90 3c
       0.11002223 -0.1473476 0.119700775 0.017630234
000110 3b 7b 16 be 5a 41 21 be 02 68 17 be 4a c8 17 bd
       -0.14695446 -0.15747586 -0.1478577 -0.037056245
000120 78 27 8e 3d 39 1f 0d be c5 4c 00 3e bf 6c 02 be
       0.06941122 -0.13781442 0.12529285 -0.12736796
000130 76 4b 0a be 7f f4 03 3e 92 f5 81 bd 36 98 9b 3d
       -0.13505349 0.12886237 -0.06345667 0.07597391
000140 8f 95 f8 3b 72 36 1c 3e 3d 54 96 bc 64 19 4d 3d
       0.007586188 0.15255144 -0.018350715 0.050073043
000150 d7 11 8a 3d 79 1d a2 bb a3 ac 88 3d c9 17 ec bd
       0.06741684 -0.004947361 0.06673553 -0.11527974
000160 da f6 05 be 93 88 94 3d 76 ac 38 3a 0a 9a 82 bd
       -0.13082448 0.07252612 0.00070447417 -0.06377037
000170 85 b3 93 3d dc de ec bd 8b 2f 5c 3c e7 16 80 3d
       0.07211975 -0.115659446 0.0134390695 0.06254368
000180 ce 09 94 bd 40 c3 90 bd ee 1f 9e bd e5 c6 e7 bc
       -0.072284326 -0.07068491 -0.07720934 -0.028293082
000190 5b c4 2c bd ca 87 77 3d 25 3f 87 bd 83 b5 a9 3d
       -0.042179447 0.060432233 -0.06603841 0.08286574
0001a0 30 7f 97 3d 1f 24 01 be ae 42 46 3b 29 3f 72 3d
       0.07397306 -0.12611435 0.0030252147 0.059142265
0001b0 ae 89 26 3e 66 30 81 3d 9c 6e 48 be fd f6 d4 3d
       0.16263458 0.063080594 -0.19573444 0.10398672
0001c0 7e 10 2f be d8 8e ef bd 9f 87 ae 3d 10 b1 23 3a
       -0.17096135 -0.11697167 0.085219614 0.0006244341
0001d0 54 8c 0c be 5d 2c a7 3c 77 3a ac 3d 75 49 e0 3d
       -0.13725406 0.020406896 0.08409589 0.10951511
0001e0 86 5e a3 3e e1 b5 5a 3e 80 1d f4 3d 77 19 c2 3e
       0.31908053 0.21358444 0.11919689 0.37910053
0001f0 77 c2 f5 3e 38 d5 09 3f 5f ea 5d 3e 8b cb e2 3e
       0.47999927 0.5384097 0.21671437 0.44295916
000200 d7 cc de 3e e0 38 a5 3e 30 eb 8c 3e 35 bc 6c 3e
       0.43515655 0.32269955 0.27523184 0.2311867
000210 60 37 e5 3e 17 cc 56 3e 34 97 10 3e 9f 3d 8e 3e
       0.4476881 0.20976292 0.1412018 0.27781388
000220 f6 00 e3 3e 27 48 67 3e 95 cd a2 3e c6 ac 29 3d
       0.4433667 0.22586118 0.31797472 0.041424535
000230 e5 08 bc 3e 6a ad 7a 3e 19 db 90 3e 74 f5 92 3e
       0.36725536 0.24480215 0.28292158 0.2870289
000240 1a 23 0c 3e 23 0b cc 3d 48 bb 1c bc c1 ff b8 3d
       0.13685265 0.09963062 -0.009566136 0.09033156
000250 0d c2 a0 3e 0e 5c 16 3e 0f 44 81 3e a4 be 01 3f
       0.3139805 0.14683554 0.25247237 0.5068152
000260 c5 2c 8d 3e 6d 35 48 3e 84 b8 d2 3e 56 73 55 3e
       0.2757322 0.1955163 0.411564 0.20844778
000270 9b c2 9c 3e d7 c0 5d 3e 5b e3 56 3e 30 9c 68 3e
       0.30617222 0.21655594 0.20985167 0.22715831
