models/461/model.pt (torch_old, 108056 bytes, 12 tensors)

weight_ih_l0 f4 [160, 10]
0	0xbe4a2070	-0.19738936
1	0x3e960ae2	0.29305178
2	0xbe762d49	-0.24040712
3	0x3e2625ed	0.16225405
4	0xbe25c539	-0.16188516
5	0x3e19f62f	0.15035318
6	0xbc905626	-0.017619204
7	0xbe639d93	-0.22228079
8	0x3e1807b5	0.1484669
9	0xbe8ca5e4	-0.27470315
10	0x3e5b34b5	0.21406825
11	0x3e273717	0.16329609
12	0xbe28a0cc	-0.16467589
13	0x3e02a760	0.12759161
14	0x3d07603b	0.033050757
15	0x3e47f3de	0.19526622
16	0xbe49e1b4	-0.19715005
17	0x3e1810f8	0.14850223
18	0x3e52d932	0.20590666
19	0xbe966979	-0.29377344
20	0x3e201d61	0.15636207
21	0x3df371f0	0.11886966
22	0x3d36d61a	0.044637777
23	0xbd90ee8c	-0.07076749
24	0xbe820991	-0.25397924
25	0x3e04faa3	0.12986235
26	0x3da2653f	0.079294674
27	0xbea4b700	-0.32170868
28	0xbdd1055d	-0.10206101
29	0xbdc62211	-0.096744664
30	0xbe91e8ca	-0.28497916
31	0x3e2805ef	0.16408513
32	0xbe845636	-0.25847024
33	0x3e9543f9	0.29153422
34	0x3e72501a	0.23663369
35	0x3e83abef	0.25717112
36	0xbd021129	-0.031754646
37	0x3d8d27e2	0.06892373
38	0x3ea07639	0.31340197
39	0xbe399fbb	-0.18127339
40	0x3e41df1f	0.1893277
41	0x3d85c457	0.065315895
42	0x3ddb6f2c	0.10714564
43	0xbdb6b3a5	-0.08920983
44	0x3de7a71b	0.1131117
45	0x3dadda74	0.08488932
46	0xbdca5ba6	-0.09880762
47	0xbdb92c05	-0.09041599
48	0x3dbdb5a2	0.09263159
49	0xbcc49303	-0.023995882
50	0xbe4a49d7	-0.1975473
51	0xbb322704	-0.00271839
52	0x3dbfb672	0.093609706
53	0xbd82e270	-0.06390846
54	0xbe32bacf	-0.17454074
55	0xbdc0cf18	-0.094145
56	0x3e3f3f0b	0.18676393
57	0xbe72d9c5	-0.23715885
58	0x3e081181	0.13287927
59	0xbd4b6c7c	-0.049664006
60	0xbe73a2af	-0.23792528
61	0x3e950ec2	0.29112822
62	0xbd7b8d43	-0.061414015
63	0x3e0398af	0.12851213
64	0x3e1596a7	0.1460825
65	0x3e649785	0.22323425
66	0xbe8a9a01	-0.2707062
67	0x3e7c92d5	0.24665387
68	0x3de89c99	0.11357994
69	0xbeb32909	-0.34992245
70	0x3eb424f8	0.35184455
71	0x3ddab731	0.10679472
72	0xbd9af3b3	-0.07566013
73	0x3e9491d1	0.290175
74	0x3e2d4c0d	0.16923542
75	0x3de980f9	0.11401553
76	0xbdfce35c	-0.12348053
77	0x3e21335d	0.1574225
78	0x3c93184c	0.017955922
79	0x3d04db5d	0.032435764
80	0x3ea45c1a	0.32101518
81	0xbd2bea7d	-0.041971672
82	0x3d072bfa	0.033000924
83	0x3dbf3357	0.09335964
84	0x3bd61e1e	0.006534352
85	0x3cc3cab4	0.023900367
86	0xbda08e54	-0.07839647
87	0xbd75dd43	-0.060025465
88	0x3e6211e1	0.22077133
89	0x3c9ae530	0.018908113
90	0x3e806f2e	0.25084823
91	0x3e8f1263	0.27943715
92	0xbeb94f54	-0.36193335
93	0x3e62a9ff	0.22135161
94	0x3d0bccaa	0.03413073
95	0x3e49bcc7	0.19700919
96	0xbbde980e	-0.0067930287
97	0x3cf9b88f	0.030483512
98	0xbd885791	-0.06657327
99	0x3cbe70f2	0.023247216
100	0xbb048d1c	-0.002022571
101	0x3d7ad311	0.061236445
102	0x3e216897	0.15762554
103	0xbdbe7e1b	-0.093013965
104	0xbdd7bb97	-0.10533827
105	0x3dba5af5	0.0909938
106	0xbe087044	-0.13324076
107	0xbe01cdcf	-0.12676166
108	0x3e4e60d6	0.20154127
109	0x3bd73e37	0.006568696
110	0xbcea1576	-0.028574686
111	0x3e8ec09e	0.2788133
112	0x3d295517	0.041340914
113	0x3e6c5be4	0.23081928
114	0xbe27a75d	-0.16372438
115	0x3e95976f	0.29217097
116	0xbda07300	-0.078344345
117	0xbc106cd2	-0.008815007
118	0x3db8ca9a	0.09023018
119	0xbe03eff2	-0.128845
120	0xbe8aaa83	-0.27083215
121	0x3ce1c273	0.02755854
122	0xbdf25b37	-0.11833804
123	0xbdf60f39	-0.12014622
124	0xbd93517c	-0.07193276
125	0xbd84a521	-0.06476808
126	0xbe0100e2	-0.12597993
127	0xbdf65916	-0.120287105
128	0x3ce304ea	0.027712304
129	0x3c7743fc	0.015091892
130	0xbd81bdaa	-0.06335004
131	0x3992b33a	0.00027980824
132	0xbda89103	-0.08230784
133	0x3e36a7b9	0.17837419
134	0x3d0114e5	0.031514067
135	0x3e0e4d05	0.13896568
136	0xbe8f8730	-0.28032827
137	0x3e3478ab	0.17624156
138	0x3db72ad5	0.089437164
139	0xbd851226	-0.06497602
140	0x3e2f6ff4	0.1713255
141	0x3e0cbd60	0.13744116
142	0xbe27be39	-0.16381158
143	0xbc98339b	-0.018579295
144	0xbe264086	-0.16235551
145	0x3e4a94de	0.19783351
146	0xbd9c0dab	-0.076197945
147	0xbe95f009	-0.29284695
148	0x3e0c5f34	0.13708192
149	0xbdd58b4d	-0.1042696
150	0x3eb6f1e9	0.35731438
151	0x3d85d002	0.06533815
152	0xbdae6c70	-0.085167766
153	0x3dd31897	0.103074245
154	0xbe83116f	-0.25599238
155	0x3dd83448	0.10556847
156	0x3d9f9d23	0.07793643
157	0xbeb59485	-0.35464874
158	0x3df7b14d	0.12094364
159	0xbdd64649	-0.104626246
160	0xbddcc7f2	-0.10780324
161	0x3df8b43a	0.121437505
162	0xbeada6d0	-0.3391633
163	0x3e112410	0.14173913
164	0x3e12f52d	0.1435134
165	0x3e487ddb	0.1957926
166	0xbd484a8d	-0.048899222
167	0x3e341819	0.17587318
168	0x3e1ffdf7	0.15624224
169	0xbe248e6f	-0.16069959
170	0xbe79bf43	-0.24389367
171	0x3e97e9be	0.2967052
172	0xbe31d3df	-0.17365979
173	0x3e6a817d	0.22900958
174	0x3db44481	0.088021286
175	0x3ebe9d99	0.37229612
176	0xbe56b383	-0.20966916
177	0xbbef26f2	-0.007298344
178	0x3eb42beb	0.35189757
179	0xbe0a17ee	-0.13485691
180	0xbdfed9b5	-0.12443868
181	0x3e989f2b	0.29808936
182	0xbe537d3f	-0.20653246
183	0x3e8e8838	0.27838302
184	0x3e188604	0.14894873
185	0x3e654427	0.2238928
186	0xbcfe4fbf	-0.031043885
187	0xbcbc18cb	-0.022961041
188	0x3cdbeba1	0.026845755
189	0xbd996040	-0.07489061
190	0xba51aaec	-0.00079981866
191	0xbe44e392	-0.19227436
192	0x3e1ff436	0.15620503
193	0x3d203aa6	0.03911843
194	0xbcedcee2	-0.029029313
195	0xbdf42362	-0.11920811
196	0x3ebd5184	0.36976254
197	0xbe2dc795	-0.16970666
198	0xbdae35a8	-0.08506328
199	0x3e173e76	0.1476992
200	0x3e56ca1f	0.2097554
201	0xbe2b7942	-0.16745475
202	0xbb78a1a3	-0.003793814
203	0xbe4ae97a	-0.19815627
204	0x3d2dcddf	0.042432662
205	0xbea9f7b6	-0.331968
206	0x3df3bea3	0.119015954
207	0xbce4404f	-0.027862696
208	0xbdc1cb4e	-0.094626054
209	0x3e371d6b	0.17882316
210	0x3eb46ce9	0.35239342
211	0x3e95555f	0.29166695
212	0xbdfbe9c1	-0.123004444
213	0x3e00a2c1	0.12562086
214	0x3dee046d	0.11621938
215	0x3eb678e7	0.35639116
216	0xbdbb8611	-0.091564305
217	0x3e2c2cbe	0.16813943
218	0x3e80e300	0.25173187
219	0xbc739ec1	-0.014869393
220	0x3dd4c538	0.10389179
221	0x3e57e99a	0.21085206
222	0xbe8288df	-0.2549505
223	0x3e284b2c	0.16434926
224	0x3e10d826	0.14144954
225	0x3e6004ba	0.21876803
226	0x3c995aed	0.018720115
227	0x3df984f2	0.121835604
228	0x3d8ef6cf	0.06980669
229	0xbd44ccd6	-0.04804691
230	0x3df0705e	0.11740182
231	0x3dd4b78a	0.1038657
232	0x3dbdf069	0.0927437
233	0x3ccba297	0.024857802
234	0xbdeaf879	-0.11473174
235	0x3dad5e9c	0.08465311
236	0xbcc6e03b	-0.024276843
237	0xbd0071e5	-0.03135862
238	0x3e09bbef	0.13450597
239	0x3db7925b	0.08963462
240	0x3d1286b6	0.035773
241	0x3dae4214	0.08508697
242	0xbe359d20	-0.1773572
243	0x3e621347	0.22077666
244	0x3e35284e	0.17691156
245	0x3d88ee5b	0.06686088
246	0x3d19ad7e	0.03751897
247	0x3e4ec902	0.20193866
248	0xbbfaf720	-0.007658854
249	0xbd0a23a7	-0.033725407
250	0x3db41c53	0.08794465
251	0xbe326834	-0.17422563
252	0xbe4db254	-0.20087558
253	0xbcb01c9e	-0.02149802
254	0x3e7feccc	0.24992675
255	0xbe19262e	-0.1495597

weight_hh_l0 f4 [160, 40]
0	0xbdd79af8	-0.10527605
1	0xbb2e1fc0	-0.0026569217
2	0x3e1eb1d9	0.15497531
3	0xbe09e9f4	-0.13468152
4	0xbd1641f8	-0.036684006
5	0xbcc9e590	-0.024645597
6	0x3d93e172	0.07220735
7	0x3d8da002	0.06915285
8	0xbda3924f	-0.079868905
9	0xbd6d32d8	-0.057909817
10	0x3cb7c040	0.02243054
11	0x3c9c26f0	0.019061536
12	0xbd890ef4	-0.06692305
13	0xbe17fec4	-0.14843279
14	0xbd86383e	-0.06553696
15	0x3d5a505c	0.053299293
16	0xbd46cd9e	-0.048535936
17	0xbe20d428	-0.15705931
18	0x3c5d25e0	0.0134978
19	0x3c78ff30	0.01519756
20	0xbde08dda	-0.10964556
21	0x3d69283c	0.056923136
22	0x3cf29bb8	0.029615268
23	0xbe0abdd0	-0.1354897
24	0x3d762fa4	0.060104027
25	0x3c2aebc0	0.010432184
26	0xbcf398a8	-0.029735878
27	0x3befcfe0	0.007318482
28	0x3d1759c8	0.036950856
29	0x3ca331f8	0.019921288
30	0x3d384404	0.04498674
31	0x3d87a7f8	0.06623834
32	0x3de76d92	0.11300196
33	0xbcafe390	-0.021470815
34	0x3dd84ec2	0.10561897
35	0xbe0004e8	-0.12501872
36	0xbe1a30de	-0.15057704
37	0xbd6b6e90	-0.057478487
38	0xbdb4b8d5	-0.088243164
39	0x3e07b58d	0.1325285
40	0x3c94f1a0	0.018181622
41	0x3de4799a	0.11156006
42	0xbb4ecd40	-0.0031555444
43	0x3b48f040	0.0030660778
44	0x3dd0b4fe	0.101907715
45	0x3d163b80	0.036677837
46	0xbc4479a0	-0.011991888
47	0xbcdb58e8	-0.026775792
48	0xbcf06bb0	-0.029348224
49	0xbe0025c9	-0.12514414
50	0x3d7bcb14	0.061472967
51	0x3da15dec	0.07879242
52	0x3d3b4768	0.045722395
53	0x3d299444	0.041401163
54	0xbd11d288	-0.03560117
55	0x3ca32b48	0.019918099
56	0xbe1fa8a5	-0.15591677
57	0xbdc773ef	-0.097389095
58	0xbd9d9d0d	-0.07695971
59	0xbdce5fc7	-0.10076862
60	0xbe059941	-0.13046743
61	0xbdf39654	-0.11893907
62	0xbddba6e9	-0.10725195
63	0x3e0fd0d7	0.1404451
64	0xbcdf8ba8	-0.027288273
65	0xbdcb3cfc	-0.09923741
66	0x3a86f700	0.0010297
67	0x3c60d470	0.013722524
68	0xbdbc3f11	-0.091917165
69	0x3ddbe652	0.107372895
70	0xbe1bc740	-0.15212727
71	0xbd8c39ee	-0.06846987
72	0xbd4398e8	-0.047753245
73	0x3c7a77b0	0.015287325
74	0xbdca336a	-0.09873088
75	0x3c64b410	0.013958946
76	0xbe0b06ae	-0.13576767
77	0x3ca62068	0.020279124
78	0x3bb6d040	0.0055790246
79	0x3d9b8300	0.07593346
80	0xbd9b9a39	-0.07597775
81	0xbde0731c	-0.10959455
82	0x3d8f0936	0.06984179
83	0xbd63d984	-0.05562736
84	0xbd38768c	-0.04503493
85	0x3db2277c	0.08698937
86	0x3c636100	0.013878107
87	0x3d85f5b8	0.06541008
88	0xbe0721f9	-0.13196553
89	0x3d03ef30	0.03221053
90	0xbdddc9f6	-0.108295366
91	0x3deda682	0.116040245
92	0xbd8d0456	-0.06885593
93	0xbe176dec	-0.14788026
94	0xbb9baca0	-0.004750803
95	0x3c195700	0.009359121
96	0x3bf161c0	0.007366389
97	0x3d850eae	0.064969406
98	0x3d3eb2c4	0.046557203
99	0xbb5b8480	-0.0033495724
100	0x3dbbff38	0.091795385
101	0x3d73f234	0.059557155
102	0x3da17502	0.078836456
103	0x3e1571bb	0.14594166
104	0x3da59950	0.08085883
105	0x3e06eabb	0.1317548
106	0xbdc2ec03	-0.09517672
107	0xbd62f50a	-0.05540947
108	0xbc7a5f50	-0.015281513
109	0x3d11c3d0	0.035587132
110	0x3ddcfe1a	0.107906535
111	0xbdb535e9	-0.08848173
112	0xbcd5e548	-0.026110306
113	0x3dc69736	0.0969681
114	0x3d53d410	0.05171591
115	0xbe016b4d	-0.12638588
116	0xbdbad576	-0.09122746
117	0x3d2647d0	0.04059583
118	0xbd70504c	-0.058670327
119	0xbd81d165	-0.06338767
120	0x3e0aeb63	0.13566355
121	0xbddf3e69	-0.10900576
122	0xbda2f7e6	-0.07957439
123	0x3d30bd48	0.043149263
124	0x3db8ce9a	0.09023781
125	0xbe1d8be6	-0.15385398
126	0x3df54272	0.11975564
127	0xbe20e5e0	-0.1571269
128	0xbd6f9112	-0.05848796
129	0x3ceef880	0.029171228
130	0xbd8ea97b	-0.069659196
131	0xbdb0f7d1	-0.08641017
132	0xbd54ec24	-0.051983014
133	0xbd470d32	-0.04859657
134	0xbe07706e	-0.13226482
135	0xbd49450c	-0.049138114
136	0xbdecdc82	-0.11565496
137	0xbcd74ee8	-0.026282743
138	0xbe074801	-0.13211061
139	0xbb2f4dc0	-0.0026749223
140	0x3c6429d0	0.0139259845
141	0xbdcf5c1c	-0.1012499
142	0x3e0560cd	0.13025208
143	0x3de69216	0.112583324
144	0xbd940327	-0.07227164
145	0xbdb58fff	-0.08865356
146	0xbbfe1e60	-0.007755086
147	0x3de64922	0.11244418
148	0x3da1693a	0.078813985
149	0x3d96cf30	0.07363737
150	0x3e1877c5	0.14889438
151	0xbd715fe0	-0.058929324
152	0x3e0238a9	0.12716927
153	0xbd979bc8	-0.0740276
154	0xbd03e1c8	-0.032197744
155	0x3e06148d	0.13093777
156	0x3e01bbaf	0.12669252
157	0xbdecae60	-0.11556697
158	0x3bcf3b00	0.006324172
159	0x3d4bb960	0.049737334
160	0xbdd9a9a8	-0.106280625
161	0x3d1e98a8	0.038719803
162	0xbe0299f1	-0.12754036
163	0x3d8a7b4a	0.06761797
164	0x3ddb8e42	0.10720493
165	0xbdbeb09d	-0.0931103
166	0x3d7b9088	0.061417133
167	0xbde25bff	-0.11052703
168	0x3d718e98	0.05897388
169	0x3e1b9bdf	0.15196179
170	0x3dd59f26	0.10430746
171	0x3ddf9482	0.109169975
172	0xbdbb6067	-0.09149247
173	0x3d215654	0.03938897
174	0xbdeca0ac	-0.11554083
175	0x3db08134	0.086183935
176	0xbe188336	-0.14893803
177	0xbde06e3c	-0.109585255
178	0x3e0db4c7	0.13838492
179	0xbe071f4d	-0.13195534
180	0x3d79c11c	0.06097518
181	0xbce43b58	-0.027860329
182	0xbe0a5dfc	-0.13512415
183	0x3d964d70	0.07338989
184	0xbd9c56c4	-0.07633737
185	0xbdf79791	-0.12089456
186	0xbdadc25b	-0.08484336
187	0x3d29b960	0.041436553
188	0x3c5de760	0.013543934
189	0xbc901978	-0.01759027
190	0x3db976bc	0.0905585
191	0x3c3a7d20	0.011382371
192	0x3d541ec0	0.051787138
193	0x3df82b0a	0.12117584
194	0x3d13b3b0	0.036060035
195	0xbe0a5aac	-0.13511151
196	0xbd63955e	-0.05556237
197	0xbcfc4938	-0.030796632
198	0x3d8493c6	0.06473498
199	0xbe01d3ee	-0.12678501
200	0xbe12388d	-0.14279385
201	0xbdfdd5d4	-0.123943
202	0xbcd7b748	-0.026332512
203	0xbe162e99	-0.14666213
204	0x3e135013	0.14386015
205	0x3d9d0a30	0.07667959
206	0x3d0213e0	0.031757236
207	0x3d077738	0.03307268
208	0x3e150e1f	0.14556168
209	0xbcc6a1c0	-0.02424705
210	0x3d8adc68	0.067803204
211	0x3b932320	0.004490271
212	0x3e0be9a9	0.13663353
213	0x3d1af71c	0.037833318
214	0x3d1d9cdc	0.03847967
215	0x3d9a3e0c	0.07531366
216	0xbd47acc6	-0.048748754
217	0xbd541bb4	-0.051784232
218	0x3b7dbf40	0.003871873
219	0x3ce06558	0.027392074
220	0xbdc9e094	-0.09857288
221	0x3e0f3d65	0.13988264
222	0x3cfd7b48	0.030942574
223	0x3daf2e48	0.08553749
224	0xbdb9f8a0	-0.090806246
225	0xbdd7369a	-0.10508461
226	0xbdbce266	-0.092228696
227	0xbc91fb50	-0.01782003
228	0xbdca91e0	-0.09891105
229	0x3c1a7010	0.009426132
230	0xbdad7e08	-0.08471304
231	0x3c6198d0	0.0137693435
232	0xbd12229e	-0.035677545
233	0xbe1191e4	-0.14215809
234	0xbdab1644	-0.08353856
235	0x3d8b54ec	0.06803307
236	0xbba794a0	-0.005114153
237	0x3dc2de2a	0.09515031
238	0x3df5c8b2	0.1200117
239	0xbdc1eaf2	-0.094686404
240	0x3e0641d3	0.13111047
241	0x3e0cfdc9	0.13768686
242	0x3d5e61e8	0.05429259
243	0x3d0f89a0	0.03504336
244	0x3de36a12	0.11104216
245	0xbc2da290	-0.01059784
246	0xbdfbc762	-0.12293889
247	0x3dddc29a	0.10828133
248	0xbe1f379b	-0.15548556
249	0x3de5c9c6	0.11220126
250	0xbc1ff940	-0.009764016
251	0xbb031100	-0.0019999146
252	0x3ce202f0	0.027589291
253	0xbd1ae1d2	-0.037813015
254	0xbd14764e	-0.036245637
255	0xbd857d1b	-0.065180026

bias_ih_l0 f4 [160]
0	0x3d0fa7ab	0.03507201
1	0x3bdf5197	0.006815146
2	0x3d844e27	0.06460219
3	0xbd4dd614	-0.05025299
4	0x3e79164d	0.24324913
5	0x3e6830db	0.22674887
6	0x3c705028	0.014667548
7	0x3e24d1a4	0.16095597
8	0x3e22b399	0.15888824
9	0x3ebac0f2	0.3647533
10	0x3e8520ed	0.26001683
11	0x3d93cafc	0.072164506
12	0x3e5e8973	0.2173212
13	0xbca586b7	-0.020205839
14	0x3d0abd93	0.0338722
15	0x3d34f1b3	0.044175815
16	0x3d6eb316	0.05827626
17	0xbbfee791	-0.0077790697
18	0xbb0ba132	-0.0021305797
19	0x3e80b7c7	0.2514021
20	0x3d6438d5	0.05571826
21	0x3e3363e9	0.17518581
22	0x3ebfd064	0.37463677
23	0x3d8dcc8b	0.06923779
24	0x3e2a2e41	0.16619207
25	0xbdcff7b3	-0.10154667
26	0x3e840ee7	0.2579262
27	0x3e5560ca	0.20837703
28	0x3d2234fa	0.039601304
29	0x3cb34df2	0.021887753
30	0x3dd822aa	0.10553487
31	0x3e1e2b41	0.15446188
32	0x3db4cb64	0.08827856
33	0x3e2ff4ab	0.17183177
34	0x3df93636	0.12168543
35	0x3deca9ab	0.11555799
36	0x3db6693c	0.089067906
37	0xbeafa00a	-0.34301788
38	0x3c563a02	0.013075354
39	0x3e10c1db	0.1413645
40	0x3d9812dc	0.07425472
41	0x3dc82b96	0.09773938
42	0x3d4f2408	0.05057147
43	0xbc3a6d30	-0.011378571
44	0xbe0f1748	-0.13973725
45	0xbc4eb2d0	-0.012615874
46	0x3dd2cc5e	0.10292886
47	0xbe07f70d	-0.13277836
48	0x3e0a5e11	0.13512446
49	0x3dd8ca7a	0.10585494
50	0x3d68b538	0.05681345
51	0xbccb4ee0	-0.024817884
52	0xbdb3103d	-0.087433316
53	0xbd8f5221	-0.06998087
54	0xbc8b1bb0	-0.016980976
55	0x3dc6d29a	0.09708138
56	0xbd269036	-0.040664874
57	0xbe1dcd9e	-0.15410468
58	0xbe1c5297	-0.1526588
59	0x3dc43f3a	0.09582372
60	0x3df1f546	0.1181436
61	0xbd2b1f2c	-0.041777775
62	0x3cca1c68	0.024671748
63	0xbc830880	-0.015995264
64	0x3da15bfa	0.07878871
65	0x3d461e50	0.048368752
66	0xbe033ee4	-0.1281696
67	0x3d831e30	0.06402242
68	0x3d51e744	0.051245943
69	0xbd960600	-0.07325363
70	0xbbd01ca0	-0.0063510686
71	0x3e0b644f	0.13612483
72	0xbe132d25	-0.1437269
73	0x3ce8ec30	0.028432935
74	0x3d570fbc	0.05250524
75	0xbd8c5169	-0.06851465
76	0x3d60e844	0.054909006
77	0x3e20400d	0.15649433
78	0xbd66d330	-0.056353748
79	0x3d96decc	0.07366714
80	0x3dbb7d6e	0.09154783
81	0x3e1772c0	0.14789867
82	0x3cbf7a35	0.023373703
83	0x3d27439a	0.040835954
84	0x3e33f6b2	0.17574576
85	0x3e9344f7	0.28763554
86	0x3cba0813	0.022708928
87	0xba93b0c3	-0.0011267889
88	0x3d4894b0	0.048969924
89	0x3e460a44	0.19339854
90	0x3d07876d	0.033088136
91	0x3ce849cc	0.028355502
92	0x3e3e01c0	0.18555355
93	0xbe01adee	-0.12664005
94	0xbe10cafa	-0.1413993
95	0xbded9bf1	-0.11602009
96	0x3dbe7704	0.09300044
97	0xbdc93993	-0.098254345
98	0x3d8a9cfa	0.06768222
99	0xbdd3d2e9	-0.10342962
100	0xbe0ae8ab	-0.13565318
101	0xbd164113	-0.036683153
102	0x3cad7605	0.02117444
103	0x3c6dba18	0.0145097
104	0xbe060550	-0.13087964
105	0xbe1fa1f0	-0.15589118
106	0xbd650ad1	-0.05591852
107	0x3e96fc86	0.29489535
108	0x3e2c1e75	0.16808493
109	0x3d941f78	0.07232565
110	0x3d20a9b3	0.039224338
111	0x3e1968ac	0.14981335
112	0x3d594cde	0.053051822
113	0x3e0b7234	0.13617784
114	0xbd5f07d5	-0.05445083
115	0x3c9f9590	0.019480497
116	0x3e07d799	0.13265838
117	0x3e1e6c89	0.1547109
118	0xbc62090f	-0.013796105
119	0xbd95d338	-0.073156774
120	0x3d911802	0.07084657
121	0x3e134731	0.14382626
122	0x3e6d1c94	0.23155433
123	0x3e7d17d2	0.24716118
124	0x3e69d4f9	0.22835149
125	0x3ecc1d6a	0.3986619
126	0x3beec6ce	0.007286883
127	0x3e4eb7d3	0.20187311
128	0x3ea37d18	0.31931376
129	0x3ec818f6	0.39081544
130	0x3e81cc70	0.25351286
131	0x3e620d08	0.22075284
132	0x3e21120b	0.15729539
133	0xbd6b7943	-0.05748869
134	0x3e0ce01e	0.13757369
135	0x3e4ae9c7	0.19815741
136	0x3d8efe8e	0.06982146
137	0x3d87f5ee	0.06638704
138	0xbca625db	-0.020281723
139	0x3e83861f	0.25688264
140	0x3e0427d7	0.12905823
141	0x3e42969c	0.19002765
142	0x3ec8842d	0.39163342
143	0x3e1c4494	0.15260535
144	0x3e35d613	0.17757444
145	0x3d8c88f6	0.06862061
146	0x3e0bc044	0.13647562
147	0x3e722d6b	0.23650138
148	0x3da1dacb	0.079030596
149	0x3ea4a4ff	0.32157132
150	0x3e00cbff	0.12577818
151	0x3e1ffeef	0.15624593
152	0x3d94db24	0.0726836
153	0x3cab4318	0.020906016
154	0x3df5ae38	0.1199612
155	0x3e663429	0.22480835
156	0x3eaa97e4	0.33319008
157	0xbe861fda	-0.26196176
158	0xbc416f72	-0.011806356
159	0xbb0bb0c1	-0.002131507

bias_hh_l0 f4 [160]
0	0x3e0e2b7a	0.13883772
1	0x3daddec2	0.08489753
2	0xbdaa1a9c	-0.083058566
3	0x3e4b05d2	0.19826439
4	0x3e89a809	0.26886013
5	0x3eca086d	0.39459553
6	0x3a112f78	0.00055383844
7	0x3e65cfca	0.22442546
8	0x3e63e5df	0.22255658
9	0x3e99c962	0.30036455
10	0x3dc08c10	0.09401715
11	0x3e04db45	0.1297427
12	0x3e78f2f4	0.2431143
13	0x3e1b9b51	0.15195967
14	0x3e16d85b	0.1473097
15	0x3d1e6147	0.03866699
16	0xbc2dc0c7	-0.010605044
17	0x3e4f7a3b	0.20261471
18	0x3cc1d421	0.023660721
19	0x3db177ce	0.08665429
20	0x3e759bec	0.2398526
21	0x3e3928e3	0.18082003
22	0x3e8a7133	0.2703949
23	0x3e5dce08	0.21660626
24	0x3d276b8d	0.040874053
25	0xbdaf8135	-0.08569566
26	0x3e4086ba	0.18801394
27	0x3e8ac11c	0.27100456
28	0x3e1c5f8c	0.15270823
29	0x3dd8abce	0.10579644
30	0x3e2b090c	0.1670267
31	0x3d1e0160	0.03857553
32	0x3e8ee3fe	0.2790832
33	0x3d82a869	0.06379778
34	0x3b92cde6	0.0044801114
35	0x3d606f9d	0.054793943
36	0x3e4658d8	0.19369829
37	0xbe11efaf	-0.14251588
38	0x3dcaae5f	0.0989654
39	0x3dfbd432	0.122963324
40	0x3d198a24	0.037485257
41	0xbca44e00	-0.020056725
42	0x3dbf172a	0.0933059
43	0x3dcebe72	0.10094918
44	0x3db9f3be	0.09079693
45	0xbc77f010	-0.015132919
46	0x3e14b8d3	0.1452363
47	0xbe11fc4c	-0.142564
48	0xbe16c33f	-0.14722918
49	0x3cc143c8	0.02359189
50	0x3d9b7dec	0.07592377
51	0xbcffe4e8	-0.03123708
52	0x3c8a4cb0	0.01688227
53	0xbc5ccdb0	-0.013476774
54	0x3db26f14	0.08712593
55	0x3c61bd20	0.013778001
56	0xbde2bc26	-0.11071043
57	0x3da667c0	0.081252575
58	0x3dcf3efa	0.10119434
59	0x3d4a66ac	0.04941432
60	0xbda440d6	-0.08020179
61	0x3c270cb0	0.010195896
62	0xbddb6c60	-0.1071403
63	0x3c959638	0.018260106
64	0xbdcf9490	-0.10135758
65	0xbd1e6f28	-0.038680226
66	0x3d885294	0.066563755
67	0xbdb14655	-0.08655993
68	0xbda6f4d0	-0.08152163
69	0x3d8da544	0.069162875
70	0x3c94e478	0.018175349
71	0x3e1aca1b	0.1511616
72	0x3d13b368	0.036059767
73	0x3c235640	0.009969294
74	0xbb86e640	-0.0041168034
75	0x3db89990	0.09013665
76	0xbda42ca5	-0.08016328
77	0x3d53aaf0	0.05167669
78	0x3e145dd1	0.14488913
79	0x3d927e68	0.07153016
80	0xbcbc404f	-0.022979883
81	0xba3e6410	-0.0007262835
82	0x3db95360	0.09049106
83	0xbe14253f	-0.14467333
84	0xbc289096	-0.010288378
85	0xbb1f2a7a	-0.0024286793
86	0xbd042226	-0.03225913
87	0x3e1d51ac	0.15363187
88	0x3d33c040	0.043884516
89	0xbd9079fe	-0.07054518
90	0xbd9c0049	-0.07617242
91	0x3dc32863	0.095291875
92	0xbd6307a0	-0.055427194
93	0xbd87273d	-0.06599281
94	0xbd809538	-0.06278461
95	0x3da3d43a	0.079994634
96	0xbd2ee09f	-0.042694684
97	0x3dff34da	0.124612525
98	0xbe269353	-0.16267137
99	0x3d00fdf8	0.031492203
100	0xbe7c1e18	-0.24620855
101	0xbdec4030	-0.1153568
102	0x3e861141	0.2618504
103	0x3dc27219	0.09494419
104	0xbe1acb9c	-0.15116733
105	0x3d13ef25	0.036116738
106	0xbd3d916f	-0.046281274
107	0x3e6e08cd	0.23245545
108	0x3d870994	0.06593624
109	0xbda2f8a6	-0.07957582
110	0xbd22b755	-0.03972562
111	0x3e30c0ce	0.17261049
112	0x3c172f21	0.009227545
113	0x3daeb893	0.085312985
114	0xbe272e63	-0.16326289
115	0x3d291681	0.041281227
116	0xbdda7cb3	-0.10668316
117	0x3d718d27	0.058972504
118	0xbe31c488	-0.17360127
119	0x3b6551ee	0.003499146
120	0x3e9dd5cf	0.30827186
121	0x3e8cc7af	0.27496096
122	0xbb4184fd	-0.002952873
123	0x3d443cd8	0.047909588
124	0x3e8d7975	0.27631727
125	0x3dc85571	0.09781922
126	0x3deef849	0.116684504
127	0x3dd2b752	0.10288872
128	0x3e3802f9	0.17969884
129	0x3edf588a	0.43622237
130	0x3e18bdd3	0.14916162
131	0x3e1ed7c4	0.15511996
132	0x3de230cb	0.11044463
133	0xbd80d941	-0.06291438
134	0x3e2024d4	0.15639049
135	0x3d828c54	0.06374422
136	0x3e0f4fe6	0.13995323
137	0x3e2015a0	0.1563325
138	0x3df0e5f0	0.11762607
139	0x3e15d792	0.14633015
140	0x3d585f49	0.052825246
141	0x3dd932ff	0.1060543
142	0x3e7b118a	0.2451841
143	0x3ddb9206	0.10721211
144	0x3e31c2c1	0.17359449
145	0x3caad35b	0.020852735
146	0x3eb014e1	0.3439093
147	0x3ec4d98f	0.38447234
148	0x3dd8087b	0.105484925
149	0x3e17edf3	0.14836864
150	0x3eaf1cb4	0.34201586
151	0x3db78eb5	0.08962766
152	0x3e300594	0.17189628
153	0x3de4c1c5	0.11169771
154	0xbd1fc9a3	-0.039010655
155	0xbbaf9d52	-0.00535933
156	0x3e92aed2	0.28649002
157	0xbe5d7de4	-0.21630055
158	0x3e164bb9	0.14677323
159	0x3c4cdc29	0.012503662

weight_ih_l1 f4 [160, 40]
0	0x3dbfd9ea	0.09367736
1	0xbdfe4483	-0.12415411
2	0xbe66a63f	-0.22524355
3	0x3d3930c7	0.045212533
4	0x3e2494e1	0.16072418
5	0x3e496e4a	0.19670978
6	0xbd3207f4	-0.043464616
7	0xbdd11646	-0.102093264
8	0xbdfd4f1c	-0.123686045
9	0xbe9d2cb9	-0.30698183
10	0x3b8fc7b2	0.004387819
11	0xbe16b305	-0.14716728
12	0xbe91d474	-0.284824
13	0xbdfc8b69	-0.12331278
14	0x3e93a521	0.2883692
15	0xbe5da6db	-0.21645682
16	0x3e4f079a	0.20217744
17	0x3b7f4413	0.0038950488
18	0x3db56f10	0.08859074
19	0xbe29196c	-0.16513604
20	0xbe44c069	-0.19214024
21	0x3e43bce2	0.19115022
22	0xbe02bd70	-0.12767577
23	0xbe3e97d3	-0.18612604
24	0x3d44646a	0.047947325
25	0xbe2d36a2	-0.16915372
26	0xbe88cd5b	-0.26719174
27	0x3e3d5fb5	0.1849354
28	0xbe2ad358	-0.16682184
29	0xbe003419	-0.12519874
30	0xbb7c967a	-0.003854184
31	0xbef30f4a	-0.47472602
32	0xbd9cb0f0	-0.07650936
33	0x3d29d4f8	0.04146287
34	0x3d6e7b26	0.058222912
35	0x3e19d0c3	0.15021043
36	0x3cecca28	0.02890499
37	0xbed73d47	-0.42038938
38	0x3e5935a4	0.21211869
39	0xbe15f1cc	-0.1464302
40	0xbe88d0b2	-0.26721722
41	0x3e19b862	0.15011743
42	0x3eaebcca	0.3412841
43	0x3da4ffe9	0.080566235
44	0x3d20bb44	0.03924109
45	0xbde8c7bd	-0.11366222
46	0xbc7cd46d	-0.015431506
47	0x3c14d0de	0.009083001
48	0x3c7e39bb	0.015516694
49	0x3c272d23	0.0102036325
50	0xbe7d58c0	-0.24740887
51	0x3e85ccbc	0.26132762
52	0xbdb0854d	-0.08619175
53	0xbe2c51fe	-0.16828153
54	0xbca8b81e	-0.020595606
55	0x3da1fb41	0.07909251
56	0xbd4d0ca3	-0.05006088
57	0xbca5cf7c	-0.020240538
58	0x3e900c8f	0.2813458
59	0xbe0a6ab6	-0.1351727
60	0xbe0471d7	-0.12934051
61	0x3d141353	0.03615124
62	0x3d08694d	0.033303548
63	0x3e30740d	0.1723177
64	0x3dbab22e	0.09116016
65	0xbe03857b	-0.12843888
66	0x3e1afa27	0.15134488
67	0xbe8529b4	-0.2600838
68	0x3d5f6798	0.054542154
69	0x3ccd63c1	0.02507198
70	0xbe01b5bb	-0.12666981
71	0x3e0e12a8	0.13874304
72	0x3eaa6cae	0.3328604
73	0x3dad37e6	0.084579274
74	0xbd1f48c3	-0.03888775
75	0x3e70e257	0.23523842
76	0x3e5118c4	0.20419604
77	0x3e153504	0.14571005
78	0xbd9ecd8f	-0.07754051
79	0x3bd8f070	0.0066204593
80	0x3b53b592	0.003230427
81	0x3e0f10e3	0.13971286
82	0xbe201f82	-0.1563702
83	0x3dfc0bca	0.12306936
84	0x3dd32e74	0.103115946
85	0xbd8ecfcc	-0.06973228
86	0xbd9f60c5	-0.07782129
87	0x3e4b0baa	0.19828668
88	0xbdffae35	-0.12484399
89	0xbd0a4bb6	-0.03376361
90	0x3dc060bb	0.0939345
91	0xbe73c69a	-0.23806229
92	0xbdf49e45	-0.1194425
93	0xbd7441b1	-0.05963296
94	0x3e4eb675	0.2018679
95	0xbe3bf8d3	-0.18356638
96	0xbd8ac049	-0.06774957
97	0xbe176cb1	-0.14787556
98	0x3e175b14	0.14780837
99	0x3a812b02	0.0009854736
100	0xbe8f8205	-0.28028885
101	0x3dc0429e	0.09387706
102	0xbe50305c	-0.20330948
103	0xbd3495fd	-0.044088352
104	0xbd68dd40	-0.056851625
105	0xbe9e1392	-0.30874306
106	0xbe5ade24	-0.21373802
107	0xbdf9ff92	-0.12206949
108	0xbd9f1d5b	-0.07769271
109	0xbdea7765	-0.11448554
110	0x3df8f893	0.12156787
111	0xbe9f6d32	-0.31137997
112	0xbe12ec4c	-0.14347953
113	0x3d8a15c6	0.06742434
114	0x3e460997	0.19339596
115	0x3d3831dd	0.04496943
116	0xbd10c4f4	-0.03534408
117	0xbe56b092	-0.20965794
118	0x3d1e15bf	0.038594957
119	0x3c72fdca	0.014831016
120	0xbe900d71	-0.28135255
121	0xbd376d18	-0.044781774
122	0x3e180695	0.14846261
123	0xbb633830	-0.0034670942
124	0x3bde7fa7	0.0067901197
125	0xbebabfba	-0.364744
126	0xbd85a83d	-0.065262295
127	0xbe6c6c28	-0.23088133
128	0x3e39e3c7	0.18153296
129	0x3d29dae6	0.041468523
130	0xbdf32c83	-0.11873724
131	0x3e4e0aae	0.20121261
132	0x3e10bc06	0.14134225
133	0x3d96e802	0.07368471
134	0xbe0f1037	-0.13971029
135	0x3e80a4ec	0.25125825
136	0x3dd33892	0.10313524
137	0xbd2bdd6f	-0.041959222
138	0x3e3a5c2d	0.18199225
139	0x3e1160bb	0.14197056
140	0x3edd06a8	0.4316914
141	0x3e16ce2f	0.1472709
142	0xbbe49f15	-0.006976972
143	0x3dae1444	0.08499959
144	0xbdc2a7aa	-0.09504636
145	0x3c4e8e3d	0.012607154
146	0x3c783e1f	0.01515153
147	0xbca08d96	-0.019598763
148	0x3e04d1ed	0.12970705
149	0xbcb7553d	-0.022379512
150	0xbb06cc4e	-0.0020568552
151	0x3ea33c54	0.31881964
152	0x3e71205a	0.23547497
153	0x3d454163	0.04815806
154	0xbe92a0fc	-0.28638446
155	0xbc8267f3	-0.015918707
156	0x3e1e4b31	0.15458371
157	0x3e9dc024	0.30810654
158	0xbedbd06b	-0.42932448
159	0x3e14ee72	0.14544085
160	0x3e1716f2	0.14754847
161	0xbef2c517	-0.47415993
162	0xbe08500f	-0.1331179
163	0xbe9782a5	-0.2959186
164	0xbeb49534	-0.35270083
165	0x3f2e6ad5	0.6813176
166	0xbf0ebf40	-0.55760574
167	0x3f04ff4b	0.51952046
168	0xbe92e3b6	-0.28689355
169	0xbe9e0821	-0.30865577
170	0x3dffe6ee	0.12495218
171	0xbe5ee9e9	-0.21768917
172	0xbe3f9763	-0.18710093
173	0xbe88479b	-0.2661713
174	0x3d31161b	0.043233972
175	0xbe4a419c	-0.1975159
176	0x3ead60d2	0.3386293
177	0x3f0055fd	0.5013121
178	0xbde40621	-0.111339815
179	0xbe02a966	-0.12759933
180	0x3de9efa8	0.11422664
181	0xbf35cbfa	-0.7101437
182	0xbed4c3a0	-0.415555
183	0xbeae6323	-0.3406001
184	0xbd8ac31f	-0.06775498
185	0x3f31b812	0.69421494
186	0xbeaa2bed	-0.33236638
187	0x3f0f0f01	0.5588227
188	0x3c227f6a	0.009918073
189	0xbd44e17d	-0.048066605
190	0x3dd47da6	0.10375528
191	0x3e42b1aa	0.19013086
192	0xbe092b97	-0.13395534
193	0x3e56b086	0.20965776
194	0xbe023a37	-0.1271752
195	0xbf2765cd	-0.6538971
196	0xbefb94d1	-0.49136975
197	0x3e284f62	0.16436532
198	0x3d3a4b96	0.04548224
199	0xbe71caa4	-0.23612458
200	0x3e6f15ce	0.23348162
201	0xbdb00299	-0.085942455
202	0xbd4b5854	-0.049644783
203	0xbe517451	-0.20454527
204	0x3c9fcf30	0.019507974
205	0x3ddc193f	0.10747003
206	0xbedf814f	-0.43653342
207	0x3e3966f7	0.18105684
208	0x3e2a1d02	0.16612628
209	0xbe58640a	-0.21131912
210	0x3e690d0b	0.22758882
211	0xbe27bbae	-0.16380188
212	0xbde60672	-0.11231698
213	0xbebb8256	-0.36622876
214	0x3ded8def	0.11599337
215	0xbe8365d6	-0.25663632
216	0x3eaee9b1	0.34162667
217	0x3efa8615	0.4893042
218	0xbebdbf4e	-0.37060016
219	0xbe1e153b	-0.15437786
220	0xbdb6ad92	-0.08919825
221	0xbdda15f9	-0.10648722
222	0xbd5f89f3	-0.054574918
223	0xbe5e7724	-0.21725136
224	0xbe0498f4	-0.12948972
225	0x3e28d00d	0.16485615
226	0xbee04fe3	-0.4381095
227	0x3f026506	0.509354
228	0xbe5cb659	-0.21553935
229	0xbe29fbae	-0.16599914
230	0x3e372938	0.17886817
231	0xbda63cb2	-0.081170455
232	0xbf0235ed	-0.50863534
233	0x3ec90d37	0.39267895
234	0xbd81d76a	-0.06339915
235	0xbe9303aa	-0.28713733
236	0xbe07a39e	-0.13246009
237	0x3ee0d26b	0.43910536
238	0xbe06a4e3	-0.13148837
239	0xbe29732e	-0.16547844
240	0xbd64e40f	-0.055881556
241	0xbb36080c	-0.0027775792
242	0xbe201887	-0.15634356
243	0x3e50f66d	0.20406504
244	0x3d457ac1	0.04821277
245	0x3db780b3	0.08960094
246	0x3de6060a	0.112316206
247	0x3e42eab8	0.1903485
248	0x3e4e78f8	0.20163333
249	0xbc8095a9	-0.015696364
250	0xbc008a37	-0.007845453
251	0x3d9b3097	0.07577627
252	0xbe6f66bf	-0.23379038
253	0xbe2d8021	-0.16943409
254	0x3dc27a33	0.09495964
255	0x3c82e2d1	0.015977295

weight_hh_l1 f4 [160, 40]
0	0xbbc51500	-0.0060144663
1	0x3dbde892	0.09272875
2	0xbd81dfc1	-0.06341506
3	0x3cacda50	0.021100193
4	0xbe03c888	-0.12869465
5	0xbc31e440	-0.010857642
6	0x3c5c13b0	0.013432428
7	0x3de477d2	0.111556664
8	0xba993f00	-0.0011691749
9	0xbd764918	-0.0601283
10	0x3dc26182	0.094912544
11	0xbda20b0e	-0.07912265
12	0xbdcce4e0	-0.10004592
13	0x3cd43a88	0.025906816
14	0xbe01ee0a	-0.12688461
15	0xbdca528a	-0.09879024
16	0xbda6263c	-0.081127614
17	0x3dfa675a	0.12226744
18	0xbc2b4fa0	-0.010455996
19	0xbd43bab0	-0.04778546
20	0xbd9b5cbd	-0.07586048
21	0xbe13b5e8	-0.1442486
22	0x3e09b1df	0.13446759
23	0x3e00317d	0.12518878
24	0xbd848c0f	-0.064720266
25	0xbd30739e	-0.04307901
26	0x3dc8ff46	0.098143145
27	0xbc494220	-0.012283832
28	0xbdacffe0	-0.08447242
29	0xbdeaa004	-0.11456302
30	0xbd653c30	-0.055965602
31	0xbd8985fe	-0.0671501
32	0xbde08b15	-0.10964028
33	0x3dbb410e	0.091432676
34	0x3d974eb8	0.07388061
35	0xbdd42142	-0.10357906
36	0x3d0cc9b8	0.03437206
37	0xbd4a2b7a	-0.04935787
38	0x3c0357a0	0.008016497
39	0x3cb66fd0	0.022270113
40	0xbe18ec4d	-0.14933892
41	0x3dfd389a	0.123643115
42	0xbe128bc2	-0.14311126
43	0x3c0d6550	0.008630112
44	0xbdb349fb	-0.08754345
45	0xbe200f8c	-0.1563093
46	0xbda30b59	-0.07961149
47	0x3cf34428	0.029695585
48	0xbc4d5b70	-0.012534007
49	0xbccbb1a8	-0.024864987
50	0xbdd8fc32	-0.105949774
51	0xbc81ef98	-0.015861318
52	0xbdeca5a6	-0.115550324
53	0xbc0c6250	-0.008568361
54	0xbe1b372e	-0.15157768
55	0x3de6905e	0.112580046
56	0x3e15eaf7	0.14640413
57	0x3db6c054	0.089234024
58	0x3db62b38	0.08894962
59	0x3dc5e416	0.096626446
60	0xbca5b5e0	-0.020228326
61	0xbd8b4eaf	-0.06802117
62	0xbe0fcbfc	-0.14042658
63	0xbc9ae2b8	-0.018906936
64	0xbc0587d0	-0.008150056
65	0xbd8a5bbe	-0.0675578
66	0xbdf9eac2	-0.122029796
67	0xbc9ca468	-0.019121364
68	0xbcf226a8	-0.029559448
69	0xbdfae987	-0.12251573
70	0xbe21aa96	-0.1578773
71	0xbd6f9cb2	-0.058499046
72	0xbd9eeeaa	-0.07760365
73	0x3db03dca	0.08605535
74	0xbe172948	-0.14761841
75	0xbd16fd64	-0.036862746
76	0xbc459be0	-0.012061089
77	0x3df12b62	0.11775853
78	0x3d0e5518	0.03474912
79	0x3d882aa8	0.06648761
80	0x3d323e44	0.043516412
81	0x3ddbd4a6	0.10733919
82	0x3dd18696	0.10230748
83	0x3e119459	0.14216746
84	0x3cfbd638	0.030741796
85	0x3ca45c70	0.020063609
86	0x3da91b74	0.082571894
87	0xbdb4277d	-0.08796594
88	0x3d00f278	0.031481236
89	0xbb28e540	-0.002577141
90	0xbd9d44a5	-0.076791085
91	0xbce51d70	-0.027968138
92	0x3c9b0688	0.018924013
93	0xbb7d5580	-0.0038655698
94	0x3e02d603	0.12776951
95	0xbe1b3ced	-0.1515996
96	0xbe034448	-0.12819016
97	0x3d7bbf98	0.061462015
98	0xbe004ce8	-0.12529337
99	0x3e0bed53	0.13664751
100	0x3d02e600	0.031957626
101	0xbe16f3aa	-0.14741388
102	0xbe158b3b	-0.14603893
103	0x3c981ea0	0.01856929
104	0x3d9deacc	0.077107996
105	0x3dc552ee	0.09634958
106	0x3dca29e6	0.09871273
107	0xbdd30e52	-0.10305466
108	0xbd18220a	-0.037141837
109	0x3cd14e58	0.025550053
110	0x3d4ebe14	0.05047424
111	0x3d129564	0.035787
112	0xbe19f089	-0.15033163
113	0x3d309fdc	0.043121204
114	0x3e068ee3	0.13140444
115	0x3c4a8c90	0.012362614
116	0xbb144e00	-0.00226295
117	0x3dd38bea	0.10329421
118	0xbdacd9be	-0.084399685
119	0x3dea9a5e	0.114552245
120	0x3d187f9c	0.037231073
121	0x3e13e971	0.1444452
122	0xbde2ca8a	-0.110737875
123	0x3cc49170	0.023995131
124	0x3d94f502	0.07273294
125	0xbe200fb1	-0.15630986
126	0x3cf53578	0.029932722
127	0xbdd22e5a	-0.10262747
128	0x3c476090	0.012169018
129	0x3e0f97ab	0.140227
130	0xbd9150ae	-0.070954666
131	0xbd4317e8	-0.04763022
132	0x3dd11482	0.1020899
133	0xbdd1b489	-0.102395125
134	0xbdcfc7aa	-0.10145505
135	0x3dcf2e3a	0.10116239
136	0xbdccad20	-0.099939585
137	0x3d770624	0.06030859
138	0x3ba8c3e0	0.0051503032
139	0xbdd65a6e	-0.10466467
140	0xbcc337a8	-0.02383025
141	0x3d59623c	0.0530722
142	0xbdaa0227	-0.08301192
143	0x3e202365	0.15638502
144	0x3dd5270e	0.1040784
145	0xbe0b17d3	-0.13583307
146	0x3d6c51bc	0.057695135
147	0x3d0ec8a8	0.03485933
148	0x3da716c2	0.081586376
149	0x3c00c460	0.007859319
150	0xbdc3837e	-0.095465645
151	0x3d246be0	0.04014194
152	0x3e02e39f	0.12782143
153	0xbce597c8	-0.028026477
154	0x3de2d0f2	0.110750094
155	0x3ddadcf2	0.10686673
156	0x3d5fd088	0.05464223
157	0x3dd7f0ae	0.10543953
158	0x3dfcac4e	0.12337552
159	0x3cb2aa28	0.021809652
160	0x3e080c9d	0.13286062
161	0x3d690b54	0.05689557
162	0xbdb6be55	-0.08923022
163	0x3daa493c	0.083147496
164	0x3ded88b2	0.11598338
165	0xbdabcd20	-0.08388734
166	0x3d97bdf6	0.07409279
167	0x3cbe2410	0.023210555
168	0x3e0fa50b	0.14027803
169	0xbd0d1fc2	-0.034454115
170	0xbdb7e17f	-0.08978557
171	0x3bd57f60	0.0065154284
172	0x3d1cad44	0.038251176
173	0xbb8077e0	-0.00392054
174	0x3dfe60f2	0.124208346
175	0xbd1eb9d4	-0.03875144
176	0x3d9ea302	0.07745935
177	0xbd2b5b88	-0.041835338
178	0x3d89ebd6	0.06734435
179	0xbe05e70e	-0.13076422
180	0x3e1ca2e5	0.15296514
181	0xbe130a2d	-0.1435935
182	0xbe207b2d	-0.15671988
183	0x3daf64b2	0.08564128
184	0xbdeb4396	-0.114875
185	0xbe1023b2	-0.14076117
186	0xbd15b35e	-0.03654801
187	0x3db46fba	0.08810373
188	0xbdeb627a	-0.11493392
189	0xbe0f51a1	-0.13995983
190	0x3cc0b528	0.023523882
191	0x3e16dfbf	0.1473379
192	0xbe185b8d	-0.14878674
193	0xbd61ee64	-0.055158988
194	0xbc8437c0	-0.016139865
195	0x3b2e8c00	0.002663374
196	0xbdd54daa	-0.10415204
197	0xbe037599	-0.12837829
198	0x3bb61c00	0.005557537
199	0xbc5b4ed0	-0.01338549
200	0xbe127f0e	-0.1430628
201	0xbb4c3d80	-0.0031164587
202	0x3e1ff697	0.1562141
203	0xbc1747b0	-0.0092334
204	0xbe185a14	-0.14878112
205	0xbe20224a	-0.1563808
206	0x3dbca756	0.09211604
207	0x3dceb972	0.10093965
208	0x3d1b13ac	0.037860557
209	0xbd35e382	-0.04440642
210	0xbdc41f97	-0.09576338
211	0xbe1518ee	-0.14560291
212	0xbdcd0362	-0.10010411
213	0xbd64fd9c	-0.055905923
214	0x3cb71568	0.022349074
215	0xbda0749f	-0.07834744
216	0x3d083afc	0.033259377
217	0xbd277b08	-0.040888816
218	0xbc148ca0	-0.009066731
219	0x3dd50982	0.10402204
220	0xbd8b799f	-0.06810307
221	0xbdaa7ea5	-0.08324937
222	0x3c963b70	0.018338889
223	0x3de8136a	0.11331828
224	0xbdf4d892	-0.1195537
225	0x3d8c67d4	0.06855741
226	0x3de783c2	0.11304428
227	0xbd8701d1	-0.06592143
228	0x3ddb4cd2	0.10708012
229	0xbdb8a4d1	-0.09015811
230	0xbe1c63e8	-0.15272486
231	0xbc46bff0	-0.012130722
232	0xbccc1418	-0.024911925
233	0xbe1bb33a	-0.15205088
234	0x3e188901	0.14896013
235	0x3c1265e0	0.008935422
236	0x3dda8052	0.106690064
237	0xbd3b0260	-0.04565656
238	0xbd83c6aa	-0.064343765
239	0xbdc6fb5a	-0.0971591
240	0xbe11cf5d	-0.14239259
241	0xbd888680	-0.06666279
242	0xbc89de88	-0.016829744
243	0x3d25f0e0	0.04051292
244	0x3d42fe84	0.047606006
245	0x3e0ce697	0.13759838
246	0x3a873580	0.0010315627
247	0x3db0a012	0.08624281
248	0x3cc6b968	0.02425833
249	0xbd0d83a0	-0.034549356
250	0x3dbe64ea	0.092965916
251	0xbd80d8a7	-0.06291323
252	0xbe12dade	-0.14341304
253	0x3d1378b0	0.03600377
254	0x3dbee8ce	0.09321748
255	0xbe14f4a7	-0.14546452

bias_ih_l1 f4 [160]
0	0x3dfdb7a8	0.12388545
1	0x3de1323e	0.10995911
2	0x3d9e0923	0.077165864
3	0x3e2b285e	0.16714618
4	0x3e92d788	0.28680062
5	0x3dc46ad7	0.095906906
6	0x3e3e5198	0.18585813
7	0xbdac23b4	-0.08405247
8	0x3e45f86f	0.19333051
9	0x3d822662	0.06354977
10	0xbb80cfdd	-0.0039310292
11	0x3d4acea2	0.049513467
12	0x3d268ee0	0.0406636
13	0x3d969726	0.07353048
14	0xbe1089d6	-0.1411508
15	0xbc4d349a	-0.012524748
16	0xbe3b519e	-0.18292853
17	0xbd6dfe61	-0.058103923
18	0x3e93d4d0	0.288733
19	0x3dd5182f	0.10405003
20	0xbdeceb10	-0.11568272
21	0xbdda8462	-0.10669781
22	0xbd832122	-0.06402804
23	0xbddd3984	-0.10801986
24	0x3e31f882	0.17379954
25	0xbc50684d	-0.01272018
26	0x3d8886a0	0.06666303
27	0x3cd1466f	0.02554628
28	0x3e69952a	0.22810808
29	0x3e3ebfbc	0.18627828
30	0x3de656c2	0.112470165
31	0x3e88ac86	0.26694125
32	0xbd165d5f	-0.03671014
33	0xbdb17cee	-0.086664066
34	0x3e71c16d	0.23608942
35	0x3e2fc170	0.17163634
36	0x3e16b8b8	0.14718902
37	0x3e829719	0.25505903
38	0xbe2a2099	-0.16613998
39	0x3db7f5c4	0.08982423
40	0xbe13be50	-0.14428067
41	0xbdb0c2eb	-0.08630928
42	0xbdb33373	-0.087500475
43	0x3e02f289	0.12787832
44	0xbdf5c7fc	-0.120010346
45	0x3b483c80	0.003055364
46	0xbc927a98	-0.017880723
47	0x3de56c86	0.1120234
48	0x3e1e8db3	0.15483741
49	0xbe14bdfe	-0.14525601
50	0x3db275b2	0.08713855
51	0xbd7ab63e	-0.061208956
52	0x3dd76466	0.10517196
53	0x3db0469e	0.08607219
54	0x3e1b7873	0.15182666
55	0xbbfc1de0	-0.007693991
56	0xbdb59405	-0.08866123
57	0xbcf5e240	-0.030015111
58	0xbe20d698	-0.15706861
59	0xbd0c3b30	-0.034236133
60	0xbe0575c0	-0.130332
61	0x3c92c230	0.017914861
62	0x3db7a66c	0.08967289
63	0xbcc8ac30	-0.024496168
64	0xbe176941	-0.14786245
65	0xbbb85520	-0.005625382
66	0xbca0e668	-0.019641116
67	0x3e1026a7	0.14077245
68	0xbd2ba5f6	-0.04190632
69	0xbcb0cca8	-0.021581963
70	0x3e1b2193	0.15149526
71	0xbaee2a00	-0.0018170476
72	0xbcff1580	-0.031138182
73	0x3d432d40	0.047650576
74	0xbd4645a8	-0.048406273
75	0xbd447f00	-0.04797268
76	0x3ddba4c2	0.107247844
77	0x3d7a8c9c	0.06116925
78	0x3dfe6d12	0.12423147
79	0x3dcf98d6	0.10136573
80	0x3d96d6e6	0.073652074
81	0xbd40f5b6	-0.04710933
82	0x3be0a592	0.006855675
83	0xbd7b3bb5	-0.061336238
84	0x3c73b53d	0.014874754
85	0x3d5141a2	0.051087983
86	0xbcc606d1	-0.024173172
87	0x3d45188d	0.048119117
88	0x3dda3c48	0.10656029
89	0x3e31e1d7	0.17371307
90	0xbd17cac1	-0.037058596
91	0xbdbf9878	-0.09355253
92	0x3dd9ca9c	0.10634348
93	0xbc96b463	-0.018396562
94	0x3e3895fc	0.18025964
95	0xbd07e050	-0.033172905
96	0x3dfd956a	0.12382014
97	0xbd99487c	-0.074845284
98	0xbd0eb600	-0.034841537
99	0xbd973fc0	-0.07385206
100	0x3dad1325	0.08450917
101	0x3cc21c53	0.023695147
102	0xbdd31b26	-0.103079125
103	0x3db10bde	0.086448416
104	0x3d169b5d	0.03676926
105	0x3e62a3e8	0.22132838
106	0x3db6b91a	0.08922024
107	0x3d1d0224	0.03833212
108	0x3dd3b749	0.10337693
109	0x3e7a31b5	0.24433024
110	0x3d6663ba	0.05624745
111	0x3bb4d584	0.005518617
112	0x3da260a7	0.07928591
113	0x3dbb4fde	0.09146093
114	0xbdaf1751	-0.08549369
115	0x3c8a256c	0.016863547
116	0x3dcc9eef	0.09991252
117	0x3e1492ed	0.14509173
118	0x3c701186	0.014652615
119	0xbd98c9c9	-0.074603625
120	0x3cef161e	0.029185351
121	0x3cd01fb2	0.025405739
122	0x3df349c6	0.118793055
123	0x3cde4b7a	0.0271356
124	0x3de01407	0.1094132
125	0x3e67b90b	0.22629182
126	0x3e4a8999	0.19779052
127	0xbe137194	-0.14398795
128	0x3e197ff0	0.1499021
129	0x3d81cfe9	0.06338484
130	0x3e1d83ee	0.15382358
131	0xbce5d9d8	-0.028057978
132	0x3d1d6939	0.038430426
133	0x3d6be004	0.057586685
134	0xbdd8765f	-0.105694525
135	0x3d9865b7	0.074412756
136	0xbdcfd88a	-0.101487234
137	0xbd416dcb	-0.047223847
138	0x3d25ee70	0.040510595
139	0x3c33dc8d	0.010977876
140	0x3d0528b3	0.032509517
141	0xbd1a530e	-0.037676863
142	0xbdf8bbaf	-0.12145173
143	0xbda04d42	-0.07827236
144	0x3d084b79	0.0332751
145	0x3e1b0b26	0.15140972
146	0x3e069928	0.13144362
147	0x3d31f5bc	0.04344724
148	0x3d841c28	0.06450683
149	0x3ca8fa12	0.020627055
150	0x3e61a007	0.22033702
151	0x3ec48627	0.383836
152	0xbc83ac8a	-0.016073484
153	0x3cd9efcc	0.026603602
154	0x3da75c4b	0.081719
155	0x3d10c896	0.035347544
156	0x3bc9961f	0.006151929
157	0x3e2efc6e	0.17088482
158	0x3c9791b7	0.0185021
159	0x3daab829	0.08335907

bias_hh_l1 f4 [160]
0	0x3e003a20	0.12522173
1	0x3e185f1f	0.14880036
2	0xbe058952	-0.13040665
3	0x3d520027	0.051269677
4	0x3e8e5e7a	0.27806455
5	0xbd466072	-0.04843182
6	0x3e7126e2	0.23549989
7	0xbcf2dcb3	-0.029646253
8	0x3d7bf980	0.06151724
9	0xba11356a	-0.00055392704
10	0x3e7b13a3	0.2451921
11	0x3d8b54b3	0.068032645
12	0xbd7764fa	-0.060399033
13	0x3dca9d08	0.098932326
14	0x3c0a9e18	0.008460544
15	0x3db3f35b	0.08786651
16	0xbe34ba34	-0.17649156
17	0x3d84eaa9	0.064900704
18	0x3e940026	0.28906363
19	0xbe0126f6	-0.12612519
20	0x3c67e4f9	0.014153712
21	0xbd64c25e	-0.055849425
22	0xbdb58e5b	-0.08865043
23	0x3e0af448	0.13569748
24	0x3da047a7	0.078261666
25	0x3e3c5b14	0.18394119
26	0x3ccbcafa	0.02487706
27	0x3d5bb6e1	0.053641204
28	0x3d45fab9	0.04833481
29	0x3c417151	0.011806802
30	0x3e2d2f69	0.16912617
31	0x3e951f78	0.2912557
32	0x3ce8c5fe	0.028414723
33	0xbd0e31ad	-0.034715343
34	0x3e11a395	0.14222558
35	0x3ce16dbb	0.027518144
36	0x3d564480	0.05231142
37	0x3e0fde2a	0.14049593
38	0xbca76ef9	-0.020438658
39	0x3e805bba	0.25069982
40	0x3db33316	0.08749978
41	0xbd46ea00	-0.048563004
42	0xbdfa7f04	-0.122312576
43	0xbd4692aa	-0.048479713
44	0xbd76fb18	-0.060298055
45	0xbc91ac60	-0.01778239
46	0x3daf1ca2	0.08550383
47	0xbd874e35	-0.06606714
48	0x3e04b9fd	0.12961574
49	0xbe169289	-0.14704336
50	0xbdf377ae	-0.118880615
51	0xbdd65a5a	-0.10466452
52	0xbc6e0010	-0.014526382
53	0xbd9e8819	-0.07740802
54	0x3db4bc50	0.0882498
55	0x3d0e38a4	0.034721985
56	0x3e05827f	0.13038062
57	0xbd3ec85a	-0.04657779
58	0xbd902cae	-0.07039772
59	0xbc273810	-0.010206237
60	0xbd81e625	-0.06342725
61	0xbaf25780	-0.0018489212
62	0xbe0fb332	-0.14033201
63	0x3d9d0368	0.07666665
64	0x3d6adf40	0.057341814
65	0x3aecee00	0.0018076301
66	0xbcdd25c0	-0.02699554
67	0xbd6029b2	-0.054727264
68	0xbdef920b	-0.11697777
69	0xbbda4a60	-0.006661698
70	0x3dedf592	0.116191044
71	0x3da1426a	0.078739956
72	0x3d0a5b0c	0.033778235
73	0x3dd89266	0.10574798
74	0x3dd01f16	0.10162179
75	0x3ddb87ca	0.10719259
76	0xbd13721c	-0.035997495
77	0xbd9020b4	-0.070374876
78	0x3d5b7df4	0.053586915
79	0xbe0b6164	-0.1361137
80	0xbdaea944	-0.085283786
81	0x3dd89750	0.105757356
82	0xbe23bdde	-0.15990397
83	0xbd2ea583	-0.042638313
84	0xbe045712	-0.1292384
85	0xbdae96c8	-0.08524853
86	0xbe1bc575	-0.15212043
87	0x3db58c8d	0.088646986
88	0xbb31b632	-0.0027116654
89	0x3cde0a2b	0.027104458
90	0xbd8fc1ad	-0.070193626
91	0xbd315f80	-0.043303967
92	0xbcc7961d	-0.024363572
93	0x3df54b45	0.11977247
94	0x3d839070	0.06424034
95	0xbe1e5555	-0.15462239
96	0xbd31928c	-0.04335265
97	0xbd1f1950	-0.0388425
98	0xbda75c3d	-0.0817189
99	0x3bb262f5	0.0054439255
100	0xbd8f7025	-0.07003812
101	0x3d0554cc	0.03255157
102	0xbd5017a2	-0.050803788
103	0xbbffb58d	-0.007803625
104	0x3d8911f8	0.066928804
105	0xbd428f48	-0.047499925
106	0x3ce36c65	0.027761647
107	0x3d772e0a	0.06034664
108	0xbdd104a9	-0.10205967
109	0xbd1662e5	-0.036715407
110	0x3dec3d1c	0.11535093
111	0xbdd7bc08	-0.10533911
112	0x3dc1df17	0.09466379
113	0x3dfb8fde	0.122833
114	0x3ce22fec	0.027610742
115	0x3d93dba5	0.07219628
116	0xbe048f20	-0.12945223
117	0x3d99215c	0.07477066
118	0xbde84a7e	-0.11342333
119	0x3cb58211	0.022156747
120	0x3dfe1276	0.12405865
121	0x3e32877d	0.17434497
122	0xbe34e954	-0.17667133
123	0x3d08b961	0.033379916
124	0x3e3cb12b	0.18426959
125	0xbd4a5b01	-0.049403194
126	0x3eb36c66	0.3504364
127	0xbdc886b5	-0.09791318
128	0x3da1bfec	0.07897934
129	0x3e21e2c1	0.15809156
130	0x3dd1d335	0.10245363
131	0x3e1e3c3a	0.15452662
132	0x3b32b678	0.0027269404
133	0x3e95bbce	0.29244846
134	0xbbee23bd	-0.007267444
135	0x3da108e5	0.078630246
136	0xbd72ba3d	-0.059259642
137	0x3ceb39c5	0.02871407
138	0x3e3f7154	0.18695575
139	0xbcd68e15	-0.026190797
140	0xbdc3d53a	-0.09562154
141	0xbd181c82	-0.037136562
142	0xbe7c9a54	-0.24668247
143	0x3de8853a	0.11353536
144	0x3e321d85	0.17394073
145	0x3e27fe08	0.16405499
146	0xbe2cd96f	-0.1687982
147	0x3d52083a	0.051277377
148	0x3d773ee3	0.060362708
149	0x3da5c1bc	0.080935925
150	0x3e27a607	0.16371928
151	0x3e050404	0.12989813
152	0x3c1202c5	0.008911793
153	0x3d9c375f	0.07627749
154	0xbd9ad498	-0.0756008
155	0x3dcf4cac	0.10122046
156	0x3dfc7e76	0.12328808
157	0xbd26b357	-0.040698376
158	0xbcfa8ce1	-0.030584754
159	0x3e2bc79c	0.16775364

weight f4 [6, 40]
0	0xbafe43a1	-0.0019398817
1	0xbe2eccb7	-0.1707028
2	0xbbdb2bee	-0.0066885864
3	0x3edcd7fa	0.43133527
4	0x3ebd173f	0.36931798
5	0xbe37c816	-0.1794742
6	0xbe0d903e	-0.13824555
7	0x3ccf194f	0.025280623
8	0xbe6d739e	-0.23188636
9	0xbedcf683	-0.43156824
10	0x3e79d63e	0.24398133
11	0x3f05e852	0.5230762
12	0xbeccd8bf	-0.40009114
13	0xbe1099d0	-0.14121175
14	0x3d8ab7f1	0.06773365
15	0x3ec31f25	0.381097
16	0x3e56c709	0.20974363
17	0xbeb6950e	-0.35660595
18	0xbe43e8da	-0.19131795
19	0x3f2d6c36	0.6774324
20	0x3d6b931d	0.057513345
21	0x3d9723ab	0.0737985
22	0xbe2ac0c0	-0.16675091
23	0xbb1b31f6	-0.0023680902
24	0xbdf154b6	-0.117837355
25	0xbee41d5c	-0.4455365
26	0x3c599f40	0.013282597
27	0xbdff65c6	-0.124705836
28	0xbdf5566b	-0.119793735
29	0xbdce00f3	-0.10058775
30	0xbd62d596	-0.055379473
31	0x3e34a6c4	0.17641741
32	0xbcbfbe6d	-0.023406232
33	0x3c4fe4f6	0.012688866
34	0xbc241e50	-0.010016993
35	0x3e1f835f	0.15577458
36	0x3dcea3f0	0.10089862
37	0xbe8376ee	-0.25676674
38	0x3d8fe254	0.070255905
39	0x3e867d13	0.262673
40	0x3df93722	0.12168719
41	0xbe984076	-0.2973668
42	0x3ebc1c8f	0.36740538
43	0x3d747f8c	0.05969195
44	0x3da30224	0.07959393
45	0xbdce3537	-0.10068744
46	0x3e1ec5b3	0.15505104
47	0xbf04ee71	-0.5192633
48	0x3d0ca4e8	0.034336954
49	0xbd554893	-0.052071165
50	0xbda14c44	-0.07875875
51	0x3d3a81c1	0.0455339
52	0x3d81b1bd	0.06332729
53	0xbda62934	-0.081133276
54	0xbf0b4e43	-0.5441629
55	0x3c094eff	0.008380651
56	0xbea64328	-0.3247311
57	0xbe60a9fc	-0.21939844
58	0xbdeab445	-0.11460165
59	0x3d9263d2	0.071479455
60	0xbf0e714a	-0.55641615
61	0xbf100b62	-0.5626737
62	0x3eaebb07	0.34127066
63	0x3e863e58	0.2621944
64	0x3dba1a01	0.09086991
65	0xbd2cb6c8	-0.0421665
66	0xbedb5d43	-0.4284459
67	0x3ea288e5	0.31745067
68	0xbe4cc63c	-0.19997495
69	0xbe367d89	-0.17821325
70	0x3ad5f122	0.0016322474
71	0x3c93b02a	0.018028338
72	0xbecbff0c	-0.39843023
73	0xbef04f34	-0.46935427
74	0x3ec96c9a	0.3934067
75	0xbe949675	-0.2902104
76	0x3e9c4f99	0.30529478
77	0xbd3d7793	-0.046256613
78	0xbec82dd8	-0.39097476
79	0x3b9e0d10	0.0048233345
80	0xbc9fcfd9	-0.01950829
81	0x3c2f0916	0.010683319
82	0xbd27fbb8	-0.041011542
83	0x3bb716fc	0.0055874567
84	0x3a57c1f9	0.00082305033
85	0x3c58591b	0.013204838
86	0xbb0a5905	-0.0021110189
87	0x3d9bd9ba	0.076098874
88	0xbbbcbcc9	-0.0057598096
89	0xbbae2591	-0.005314537
90	0x3c6deec4	0.014522258
91	0x3ba23a11	0.0049507697
92	0xbb89243c	-0.0041852277
93	0xbbd06124	-0.0063592363
94	0x3daa057d	0.08301828
95	0xb84ebbec	-4.9289243e-05
96	0x3da8d9e3	0.082446836
97	0x3c1c4560	0.009538025
98	0x3bf0ac47	0.007344756
99	0xbbcec254	-0.006309787
100	0x3df3b495	0.11899678
101	0x3df73f6f	0.12072646
102	0xbdb5fe10	-0.08886349
103	0xbd5924e6	-0.053013705
104	0xbce344ea	-0.027742822
105	0xbd37b5a7	-0.04485097
106	0x3d5ca4a6	0.05386796
107	0xbd2ea375	-0.042636354
108	0x3d0772b5	0.033068378
109	0x3d042808	0.03226474
110	0x3bdd95a4	0.0067622233
111	0x3c871447	0.016489161
112	0x3d1b63f1	0.03793711
113	0x3d914e93	0.07095065
114	0xbd17fd1c	-0.03710662
115	0x3dba24c7	0.09089046
116	0xbc819a62	-0.015820686
117	0xba0c52bf	-0.00053529063
118	0x3dd4f266	0.10397796
119	0x3b1b92c0	0.0023738593
120	0xbf9413fd	-1.15686
121	0x3e269eb0	0.16271472
122	0xbf970ee0	-1.1801414
123	0xbde4d21e	-0.11172889
124	0xbcdd9574	-0.027048804
125	0x3f0f5212	0.55984604
126	0xbec0e1c7	-0.37672254
127	0x3f43de8d	0.7651146
128	0xbefc4112	-0.49268395
129	0xbdadf845	-0.08494619
130	0x3eaf77b7	0.34271023
131	0x3d8db041	0.069183834
132	0x3e6316bd	0.22176643
133	0x3e9f3980	0.31098557
134	0x3ef89a62	0.48555285
135	0x3eaa8bac	0.33309686
136	0x3e9a9b4f	0.30196616
137	0x3e9a7429	0.30166748
138	0x3f0e5d7a	0.55611384
139	0xbd206d18	-0.03916654
140	0x3f2302b0	0.63675976
141	0x3f10afa6	0.5651802
142	0xbed21139	-0.41028765
143	0xbf91b7b2	-1.1384184
144	0xbf3858c4	-0.72010446
145	0xbd7a1f3a	-0.061064936
146	0x3f42a01e	0.7602557
147	0xbf4defac	-0.80443835
148	0x3f7343d2	0.9502536
149	0x3f53f03c	0.82788444
150	0x3ee4b8d0	0.4467225
151	0x3d259398	0.04042396
152	0x3f808d7a	1.0043175
153	0x3f034f8b	0.5129325
154	0xbf74183a	-0.95349467
155	0x3e70d3f9	0.23518361
156	0xbf6a487d	-0.9151686
157	0xbe082c73	-0.13298206
158	0x3f3a370e	0.72740257
159	0xbe616e3c	-0.22014707
160	0x3e53bfcf	0.20678638
161	0xbe8138b0	-0.25238562
162	0xbcac32d3	-0.021020329
163	0x3f0ee49f	0.558176
164	0x3f773204	0.9656069
165	0xbf1c2c33	-0.6100494
166	0xbf75371c	-0.95787215
167	0x3e904c95	0.28183427
168	0xbf0c80db	-0.5488412
169	0xbf39e74e	-0.7261857
170	0x3f48cc3f	0.78436655
171	0x3f4a0547	0.789143
172	0xbf2add63	-0.6674406
173	0xbf3bea0b	-0.73403996
174	0xbc5e2d89	-0.013560661
175	0x3f56513b	0.837177
176	0x3e39396c	0.18088311
177	0xbeac221c	-0.33619773
178	0xbef4dede	-0.47826284
179	0x3f2bfb97	0.6718077
180	0xbd4f4b8f	-0.050609168
181	0xbe2adfb8	-0.16686904
182	0xbe002f78	-0.12518108
183	0xbe094c31	-0.13407971
184	0xbeba6faa	-0.36413318
185	0xbf115eb1	-0.5678511
186	0x3e16b9b9	0.14719285
187	0xbee080e1	-0.43848327
188	0x3daf0036	0.08544962
189	0x3e854d03	0.26035318
190	0xbf1c22e0	-0.60990715
191	0x3f7e5def	0.9936208
192	0xbe8679e9	-0.26264885
193	0xbd54dc3f	-0.051967856
194	0x3e950fc9	0.29113606
195	0x3e80c876	0.2515294
196	0x3ef39001	0.47570804
197	0xbf42fb7e	-0.76164997
198	0x3ec1a836	0.37823647
199	0x3f8aad9e	1.0834234
200	0xbdafebdf	-0.08589911
201	0x3d8cb5bf	0.06870603
202	0xbd4b6668	-0.04965821
203	0xbdf7e369	-0.12103922
204	0xbe0e2b9c	-0.13883823
205	0x3e37229e	0.17884299
206	0x3d7c3f7b	0.061583977
207	0x3c818a64	0.01581306
208	0x3d58d342	0.052935846
209	0x3d345707	0.04402831
210	0xbdf5c9e7	-0.120014004
211	0xbdddb8f1	-0.108262904
212	0x3e51b1e8	0.20478022
213	0x3e31fae9	0.17380871
214	0xbc22abf1	-0.009928689
215	0xbe10045b	-0.14064161
216	0xbd05de6e	-0.03268283
217	0x3dc5a75c	0.09651062
218	0x3e06a0f5	0.13147338
219	0xbd8eacc7	-0.069665484
220	0xbc94ab82	-0.018148188
221	0xba0763c4	-0.00051647075
222	0x3ce31990	0.02772215
223	0xbd6f5d61	-0.058438662
224	0x3d4390d0	0.047745526
225	0x3d41b259	0.047289226
226	0x3bed24df	0.0072370614
227	0x3c07c030	0.008285567
228	0x3d81ce80	0.06338215
229	0x3d19b80c	0.037529036
230	0x3e256683	0.16152386
231	0xbdf42fb3	-0.119231604
232	0x3d4624d4	0.048374966
233	0x3bfb8a33	0.0076763867
234	0xbd05f1a6	-0.032701157
235	0xbb161f72	-0.0022906926
236	0xbdf928a3	-0.12165954
237	0x3e124768	0.14285052
238	0xbc248180	-0.010040641
239	0xbe21e3eb	-0.158096

bias f4 [6]
0	0xbdffffaf	-0.1249994
1	0xbefefea0	-0.49803638
2	0x3dac433e	0.08411263
3	0xbe1e02c7	-0.15430747
4	0xbc9a8e45	-0.018866668
5	0x3d03ba71	0.032160226
