models/548/state_dict.pt (torch_old, 88287 bytes, 10 tensors)

lstm.weight_ih_l0 f4 [160, 10]
0	0xbe4e4af9	-0.20145787
1	0xbdb0964e	-0.08622418
2	0xbd466a03	-0.048440944
3	0xbe716ca4	-0.235766
4	0x3e5af65f	0.21383046
5	0x3e01fc4e	0.12693903
6	0xbea8ad3a	-0.3294466
7	0x3dea0826	0.114273354
8	0x3e8f59c3	0.2799817
9	0xbe9e9637	-0.3097398
10	0xbea1052e	-0.31449264
11	0x3e8834bf	0.26602742
12	0x3e06aa7f	0.13150977
13	0xbe43a78e	-0.19106886
14	0x3e8a85cc	0.27055204
15	0x3d311dd5	0.04324134
16	0x3dd4281e	0.10359214
17	0x3e4e4686	0.2014409
18	0x3db09e6b	0.08623966
19	0xbe3960bd	-0.18103309
20	0xbd7000e9	-0.058594618
21	0x3ea377c8	0.31927323
22	0x3e2c12db	0.16804068
23	0xbdadba5b	-0.0848281
24	0x3d992a80	0.07478809
25	0x3d69112a	0.056901135
26	0x3ea201f7	0.31642124
27	0xbe43a3af	-0.19105409
28	0x3d9ed3a5	0.07755212
29	0x3e73b249	0.23798479
30	0xbd62376b	-0.055228632
31	0xbe09c9d8	-0.13455904
32	0x3ce165c3	0.027514344
33	0xbd12b658	-0.035818428
34	0xbe972df1	-0.29527238
35	0xbe6e9f08	-0.23302853
36	0xbed9a706	-0.4251024
37	0xbda15530	-0.07877576
38	0xbe85ea30	-0.26155233
39	0xbeb2cd02	-0.34922034
40	0x3c95fdb0	0.018309444
41	0x3d9efe98	0.07763404
42	0xbe047916	-0.12936816
43	0xbdfb2f6e	-0.12264906
44	0x3dc1f0ab	0.09469732
45	0xbe15b211	-0.14618708
46	0xbec271d2	-0.37977463
47	0xbcd55c4f	-0.026044993
48	0xbd37db04	-0.044886604
49	0xbe4d3e69	-0.20043339
50	0xbddccec6	-0.107816264
51	0x3e968de8	0.2940514
52	0x3e8230dc	0.25427902
53	0x3d937d8e	0.07201682
54	0xbeb6848f	-0.3564801
55	0xbdc96094	-0.09832874
56	0x3d879c76	0.066216394
57	0xbdfab80d	-0.12242136
58	0xbddc00f2	-0.10742368
59	0x3db5fef7	0.08886521
60	0xbe5acd6a	-0.21367422
61	0xbe1f1d76	-0.15538582
62	0x3c9d2bec	0.019185983
63	0xbe92d268	-0.28676152
64	0x3ecb5b60	0.3971815
65	0x3e6125d3	0.21987085
66	0xbea9dcda	-0.3317631
67	0x3ec9c44e	0.3940758
68	0x3ea14c1b	0.31503376
69	0xbdcd35c7	-0.10020023
70	0x3e2a8381	0.16651727
71	0x3ef3017a	0.47462064
72	0x3ec391e2	0.38197237
73	0xbe4584bf	-0.1928892
74	0xbdb15de4	-0.08660486
75	0xbc4f9d5a	-0.012671793
76	0x3e6714c3	0.22566514
77	0x3de2682e	0.11055027
78	0xbd840f04	-0.064481765
79	0x3ede768a	0.43449813
80	0xbd8ac687	-0.06776147
81	0x3ebb5cbc	0.36594188
82	0x3e9680c2	0.2939511
83	0xbe8e7a45	-0.2782766
84	0x3dd23be5	0.1026533
85	0x3e195077	0.14972101
86	0x3d8a41b2	0.06750812
87	0x3e315fbb	0.17321675
88	0x3e7a59a1	0.24448253
89	0x3e9ac504	0.30228436
90	0x3e06c8a8	0.13162482
91	0x3db0df7a	0.08636375
92	0xbd0c4dcb	-0.034253877
93	0x3eab662c	0.33476388
94	0xbf137603	-0.57601947
95	0xbed6c057	-0.4194362
96	0xbe50c542	-0.20387748
97	0xbec8200b	-0.39086947
98	0xbf07072c	-0.5274532
99	0xbea05af8	-0.31319404
100	0x3e725ea5	0.23668917
101	0xbeaab5f9	-0.3334196
102	0xbe30a8fa	-0.1725196
103	0x3d9992aa	0.07498677
104	0x3e0c1411	0.1367953
105	0x3dbe3fc7	0.09289508
106	0xbf2019f7	-0.6253962
107	0xbcde60de	-0.0271458
108	0x3e00074f	0.12502788
109	0xbf19840a	-0.599671
110	0x3f372fc3	0.71557254
111	0xbdd4d76f	-0.10392653
112	0xbd6cd34d	-0.0578187
113	0x3d68c2a5	0.056826252
114	0xbde2083f	-0.11036729
115	0x3cd1c80d	0.025608087
116	0xbf0b6ea2	-0.5446569
117	0xbd312eb7	-0.04325744
118	0xbe40abb7	-0.18815504
119	0xbed0d8f9	-0.40790537
120	0xbe98c518	-0.2983787
121	0x3e332cd1	0.17497565
122	0x3e2840b7	0.16430937
123	0xbd893c12	-0.06700911
124	0xbbe4d2f6	-0.0069831563
125	0x3dd1eb10	0.10249913
126	0x3e960cb6	0.29306573
127	0x3dccd116	0.100008175
128	0x3dbf9304	0.09354213
129	0x3e5ecd6f	0.21758054
130	0xbf1dbb92	-0.61614335
131	0xbc32f6e0	-0.010923117
132	0x3e7024ee	0.23451588
133	0xbef844f2	-0.484901
134	0x3ebbfef3	0.36717948
135	0x3efb4b55	0.4908091
136	0xbe0613ce	-0.13093492
137	0x3ed22c1f	0.41049287
138	0x3ec81890	0.3908124
139	0x3b169a55	0.0022980173
140	0xbe489df6	-0.19591507
141	0x3e9c8e88	0.30577493
142	0xbb99119f	-0.00467129
143	0x3e29f42b	0.16597049
144	0xbe6f96fa	-0.23397437
145	0xbdf242bf	-0.11829137
146	0x3e0c2fc9	0.13690104
147	0xbd810552	-0.06299843
148	0xbda922db	-0.08258601
149	0x3dad6936	0.08467333
150	0x3d81a509	0.06330306
151	0x3e809a18	0.25117564
152	0x3d356bec	0.044292375
153	0x3d910e7c	0.07082841
154	0xbd9d9787	-0.07694917
155	0x3d94edc3	0.07271912
156	0x3e50eb9e	0.20402381
157	0xbe16f64c	-0.14742392
158	0x3d6d4503	0.057927143
159	0xbd450a18	-0.04810533
160	0xbe89758d	-0.26847497
161	0x3ec0767b	0.37590393
162	0x3de6a4b4	0.112618834
163	0x3dbbed09	0.0917607
164	0xbe2c1f8c	-0.16808909
165	0x3cb37871	0.021908017
166	0x3da9c27c	0.08289048
167	0xbc1bce24	-0.009509597
168	0x3dae19c2	0.08501007
169	0x3eb73a05	0.35786453
170	0xbe2df9d5	-0.16989835
171	0x3e727d01	0.23680498
172	0x3e0a4e1d	0.1350636
173	0x3d0a76cb	0.033804696
174	0xbe21f290	-0.15815187
175	0xbe6fe81f	-0.23428391
176	0x3e0bf191	0.13666369
177	0xbe7e38bc	-0.2482633
178	0xbe9abe46	-0.30223292
179	0x3e8bd902	0.27314
180	0x3ee79ed0	0.45238352
181	0x3eaced01	0.3377457
182	0x3eb35075	0.3502232
183	0x3d6aa1d8	0.057283252
184	0xbc818a6d	-0.015813077
185	0xbd504e09	-0.05085567
186	0x3e20c419	0.15699805
187	0xbe182a98	-0.14859998
188	0xbdf1b945	-0.118029155
189	0x3e132f4d	0.14373513
190	0xbe6b58e9	-0.22983135
191	0x3da5d640	0.080975056
192	0x3e4b1281	0.19831277
193	0x3de8bfc9	0.11364705
194	0xbec18e55	-0.37803903
195	0xbee5fb73	-0.44918403
196	0xbde96fda	-0.11398287
197	0xbe9ea869	-0.30987862
198	0xbe64c0e5	-0.22339208
199	0xbde2733e	-0.11057137
200	0xbf260478	-0.6485057
201	0x3e9b15e3	0.30290136
202	0x3ea16bf6	0.3152768
203	0xbce24fbc	-0.027625911
204	0xbd59ae7e	-0.053144924
205	0xbcee2ed5	-0.029075066
206	0x3e0a0263	0.13477473
207	0xbd5b6eda	-0.053572513
208	0xbca60fc7	-0.020271195
209	0x3ea1fb85	0.31637207
210	0xbe196e20	-0.14983416
211	0x3e454555	0.1926473
212	0x3e783473	0.24238758
213	0x3d90a867	0.0706337
214	0xbdc730b0	-0.09726083
215	0xbe0602cd	-0.13087006
216	0x3e8600f1	0.26172593
217	0xbde26b62	-0.11055638
218	0xbe89fb5a	-0.2694958
219	0x3e963be7	0.29342577
220	0xbe90e539	-0.28299883
221	0x3ea88a1a	0.32917863
222	0x3d9e2e24	0.077236444
223	0xbd1abc48	-0.037777215
224	0x3c7fc9c1	0.015612067
225	0x3e732686	0.23745164
226	0x3db9deb0	0.090756774
227	0x3d4079e9	0.046991263
228	0x3e1a1d1e	0.1505017
229	0x3e20d970	0.15707946
230	0x3d2ea1fb	0.042634945
231	0x3ebdf6c0	0.37102318
232	0x3ebe51e8	0.37171865
233	0x3e62db1a	0.22153893
234	0xbeec1137	-0.46106884
235	0xbee8baee	-0.45455116
236	0x3e1ddb57	0.15415703
237	0xbe528d88	-0.20561802
238	0xbef60390	-0.48049593
239	0x3eb3ff2e	0.35155624
240	0xbea6cd47	-0.3257849
241	0x3e86403e	0.26220888
242	0x3e7588f6	0.23978028
243	0xbe288913	-0.1645854
244	0xbe299ca5	-0.16563661
245	0xbe189ce2	-0.14903596
246	0x3e8c5771	0.27410462
247	0x3d3a6bfd	0.045513142
248	0x3e00669c	0.12539142
249	0x3dd3df39	0.10345311
250	0xbf23cb13	-0.6398174
251	0x3efa511f	0.48890015
252	0x3edafb10	0.4276967
253	0xbd102bd5	-0.03519805
254	0x3d6a6ae3	0.05723084
255	0xbe06114b	-0.13092534

lstm.weight_hh_l0 f4 [160, 40]
0	0xbcc662d0	-0.02421704
1	0x3dd3d276	0.103428766
2	0x3dff70ea	0.124727085
3	0xbbcf3600	-0.006323576
4	0x3e01986d	0.12655802
5	0xbe0b4501	-0.13600542
6	0x3d8f1b0e	0.06987582
7	0xbe13cb9d	-0.14433141
8	0x3de21b9e	0.11040424
9	0x3d9b220c	0.07574853
10	0x3db0ddba	0.08636041
11	0x3d0642a8	0.032778412
12	0x3dee7cf6	0.11644928
13	0xbe204661	-0.15651847
14	0xbd9da02f	-0.07696568
15	0x3ce3b6d0	0.027797133
16	0xbe08983c	-0.13339323
17	0xbd7658b6	-0.060143195
18	0x3d1d4dec	0.03840439
19	0xbe0cb419	-0.13740577
20	0x3dc22da6	0.09481363
21	0x3c35c6c0	0.011094749
22	0xbcc4e4e0	-0.024034917
23	0xbcb86a10	-0.022511512
24	0x3db5021a	0.088382915
25	0x3d098a58	0.0335792
26	0x3cf862b8	0.03032051
27	0x3db7ffe0	0.08984351
28	0xbe1c56ec	-0.15267533
29	0x3db08782	0.08619596
30	0xbd6d3ef2	-0.057921357
31	0x3e172c43	0.14762978
32	0xbe0c7a45	-0.13718517
33	0xbe19486d	-0.14969034
34	0xbe0a5232	-0.13507918
35	0xbdf11f58	-0.117735565
36	0xbd2f3fce	-0.04278546
37	0x3e09d8ff	0.13461684
38	0xbdd74aba	-0.105123
39	0xbd2a537a	-0.041583516
40	0xbcf75ba8	-0.030195072
41	0xbe1f2678	-0.15542018
42	0x3dfcfe7e	0.12353228
43	0xbdb42099	-0.0879528
44	0xbdfad052	-0.12246765
45	0xbd273b04	-0.040827766
46	0x3d70237c	0.05862759
47	0xbddb21d9	-0.10699815
48	0xbd81c994	-0.06337276
49	0x3da454e2	0.080240026
50	0xbda2714b	-0.07931765
51	0xbdcb306c	-0.09921345
52	0x3c52a720	0.0128572285
53	0x3e048709	0.12942137
54	0xbca70fe8	-0.020393327
55	0xbdd57d4c	-0.10424289
56	0x3d05c748	0.032660753
57	0x3d6671d4	0.0562609
58	0xbbdf8360	-0.006821081
59	0xbc660930	-0.014040276
60	0x3cffa9c0	0.031208873
61	0xbd2de74c	-0.04245691
62	0x3c104df0	0.008807644
63	0xbd8cf85e	-0.0688331
64	0xbdece8f2	-0.11567868
65	0xbd1a2730	-0.03763503
66	0xbdc073a2	-0.09397055
67	0xbdb38266	-0.08765106
68	0x3ba1b100	0.00493443
69	0xbd4425f2	-0.04788775
70	0x3a08ae00	0.00052139163
71	0x3dfc488a	0.12318523
72	0x3c093e30	0.008376643
73	0xbd547e92	-0.05187852
74	0xbe07394d	-0.13205452
75	0xbdbc2daa	-0.09188397
76	0x3dafc2da	0.08582087
77	0x3dfffbfe	0.124992356
78	0x3c6344f0	0.013871416
79	0xbda7920e	-0.081821546
80	0x3c8b8438	0.01703082
81	0xbdb82dcc	-0.0899311
82	0x3e1b8f3d	0.1519136
83	0xbdfae2ea	-0.12250312
84	0x3dd2de46	0.102963015
85	0x3dcb084e	0.09913693
86	0x3d924cc2	0.07143547
87	0x3d745124	0.059647694
88	0x3d7420c8	0.059601575
89	0xbdab69be	-0.08369778
90	0x3b8b6da0	0.0042550117
91	0x3dee87be	0.116469845
92	0x3dd3ebf6	0.1034774
93	0x3e1786a5	0.14797457
94	0x3dfdfc6a	0.1240166
95	0xbcff9e68	-0.031203464
96	0x3dba6042	0.09100391
97	0xbdc44ccd	-0.09584961
98	0x3c841678	0.016123995
99	0x3e047479	0.12935056
100	0xbcbb2170	-0.022843093
101	0xbd0c45e6	-0.034246348
102	0x3db8aaa6	0.090169236
103	0xbd8d850c	-0.06910142
104	0xbdf40e28	-0.119167626
105	0xbe108bff	-0.14115904
106	0xbd41f536	-0.047352992
107	0x3dc4f882	0.096177116
108	0xbe0e55fc	-0.13899988
109	0x3db4cb82	0.088278785
110	0x3aa2c180	0.0012417287
111	0x3d85de8e	0.065365896
112	0x3d8f1950	0.0698725
113	0xbdb91cce	-0.09038697
114	0x3e03e5b1	0.12880589
115	0xbd494aea	-0.04914371
116	0x3dbea5ba	0.093089536
117	0x3da02454	0.07819429
118	0xbd3eaf36	-0.046553813
119	0x3db112a8	0.086461365
120	0xbd8921e6	-0.06695919
121	0x3caba9b0	0.020954937
122	0x3c83b9a0	0.016079724
123	0xbde6c94e	-0.112688646
124	0xbda7498d	-0.081683256
125	0x3d14f410	0.03636557
126	0xbc3742c0	-0.011185348
127	0x3d5c83dc	0.05383669
128	0x3dffc3da	0.124885276
129	0x3df5ca2a	0.1200145
130	0xbc150340	-0.009095013
131	0xbd9addd5	-0.07561842
132	0x3d14aaa0	0.036295533
133	0x3d0e30b4	0.034714416
134	0xbb96fa20	-0.004607454
135	0xbe208215	-0.15674622
136	0x3e022d2d	0.12712546
137	0xbd6357c4	-0.05550362
138	0x3e074091	0.13208224
139	0x3e0655b1	0.13118626
140	0xbdc49eaa	-0.09600575
141	0x3be711e0	0.0070516914
142	0x3cac99b8	0.021069393
143	0xbda82c74	-0.08211604
144	0x3e03568d	0.12825985
145	0x3de13862	0.10997082
146	0xbe192cee	-0.14958546
147	0xbdcf8ff0	-0.10134876
148	0x3e175eed	0.14782305
149	0xbd10e39e	-0.035373323
150	0x3deebf4a	0.11657579
151	0xbde14166	-0.10998802
152	0xbcd013f8	-0.025400147
153	0xbde1608c	-0.11004743
154	0xbd327da6	-0.04357686
155	0xbe1a6397	-0.15077053
156	0x3d0b7864	0.03405036
157	0x3de9ce96	0.11416356
158	0x3d842fe6	0.064544484
159	0x3e037681	0.12838174
160	0x3d352ea4	0.044233933
161	0x3be83660	0.00708656
162	0xbd2a7fee	-0.04162591
163	0x3cd6a878	0.026203379
164	0x3e091f13	0.1339076
165	0x3b3cbd00	0.0028799176
166	0x3da30340	0.07959604
167	0xbdf4acf9	-0.119470544
168	0xbd3374d2	-0.04381258
169	0xbdf8c2fc	-0.12146565
170	0xbe108274	-0.14112264
171	0xbdcd2744	-0.10017255
172	0xbd9bdc11	-0.07610334
173	0xbe06e98c	-0.13175029
174	0xbd64d38e	-0.055865817
175	0xbd6fdfd0	-0.058563054
176	0x3e12a2df	0.14319943
177	0x3d0aec84	0.033916965
178	0x3cd2b120	0.025719225
179	0x3c7d84a0	0.015473515
180	0x3d30dd38	0.04317972
181	0xbdfc5bd4	-0.12322202
182	0xbe0a15c1	-0.13484861
183	0x3d688e2c	0.05677621
184	0xbda14958	-0.07875317
185	0x3db0f752	0.086409226
186	0xbdd5c92f	-0.10438763
187	0x3de91ffe	0.11383055
188	0xbe03898c	-0.12845439
189	0xbde2d7d0	-0.11076319
190	0xbe0c2bda	-0.13688603
191	0x3d580478	0.052738637
192	0x3c4f4430	0.0126505345
193	0xbd921bb7	-0.071341924
194	0xbdf89288	-0.121373236
195	0x3d06cc04	0.03290941
196	0xbe130374	-0.14356786
197	0x3d50232c	0.050814793
198	0x3c9f9d58	0.019484207
199	0x3da3eaf0	0.08003795
200	0xbddfabc4	-0.109214336
201	0x3dd7eb6e	0.105429515
202	0x3d1bb34c	0.038012788
203	0x3e004ef9	0.12530126
204	0xbdbb6af5	-0.0915126
205	0x3e1f003d	0.15527435
206	0x3d6dc4e4	0.058049098
207	0xbca26d40	-0.019827485
208	0xbb591c80	-0.003312856
209	0x3da6e4de	0.08149122
210	0x3dddd356	0.10831325
211	0xb9c98a00	-0.00038440526
212	0xbd982897	-0.07429617
213	0xbe122084	-0.14270216
214	0xbcf0f3e0	-0.029413164
215	0xbcc41460	-0.023935497
216	0x3db4371a	0.08799572
217	0x3cc9e168	0.024643615
218	0xbe100640	-0.14064884
219	0xbe1daf29	-0.1539885
220	0x3dae96ae	0.085248336
221	0x3c821870	0.015880793
222	0x3dedc07a	0.116089776
223	0xbd91255b	-0.07087203
224	0x3de56a42	0.11201908
225	0xbddbd758	-0.10734433
226	0xbd6c07cc	-0.057624623
227	0x3d8a991e	0.06767486
228	0xbde47619	-0.11155338
229	0xbd6e6bda	-0.058208324
230	0xb9168000	-0.00014352798
231	0x3c47d290	0.012196198
232	0x3dfb41b2	0.1226839
233	0x3dda5cf2	0.10662259
234	0xbde9609e	-0.113953814
235	0xbdf7d950	-0.12101996
236	0xbd29635e	-0.04135453
237	0x3dbe0836	0.0927891
238	0x3d843a56	0.06456439
239	0xbde0003d	-0.109375454
240	0x3cb66680	0.022265673
241	0x3d5cedb8	0.053937644
242	0x3d600d40	0.054700136
243	0xbdcb46fa	-0.09925647
244	0xbcab53b8	-0.020913944
245	0xbcef6948	-0.029225007
246	0x3dfb268e	0.12263213
247	0xbe1a6893	-0.15078954
248	0xbd7f34fe	-0.062306397
249	0xbe18b282	-0.14911845
250	0xbcaeda50	-0.021344334
251	0x3d9216ae	0.07133232
252	0xba73ed00	-0.000930503
253	0xbc7b2520	-0.0153286755
254	0xbd1eaf92	-0.038741656
255	0xbe1ab036	-0.15106282

lstm.bias_ih_l0 f4 [160]
0	0x3e6a4b60	0.22880316
1	0x3e7a3ba7	0.24436818
2	0x3dd14674	0.10218516
3	0x3e51074b	0.20412938
4	0x3e3cf5e3	0.18453173
5	0x3e95d8a4	0.29266846
6	0x3eb1f795	0.34759203
7	0x3e7fe51f	0.24989747
8	0x3ea693b6	0.3253457
9	0x3e2d9c37	0.16954122
10	0x3e8728ad	0.2639822
11	0x3df8783d	0.12132309
12	0x3daf4613	0.085582875
13	0x3e56f9a3	0.20993666
14	0x3dbfa311	0.09357274
15	0x3ead37ed	0.3383173
16	0x3eb74317	0.35793373
17	0x3e4390bd	0.19098182
18	0x3dc9628c	0.098332494
19	0x3e479e68	0.19494021
20	0x3df7a5c5	0.12092165
21	0x3e08523e	0.13312623
22	0x3e8bb84f	0.27289054
23	0x3eccf756	0.40032452
24	0x3c550ddb	0.013003792
25	0x3e356e78	0.17717922
26	0x3d586d92	0.05283887
27	0x3efe2de8	0.496444
28	0x3ea08f57	0.3135936
29	0x3ebb6ba7	0.3660557
30	0x3e3f0c8a	0.18657127
31	0x3e840dc6	0.25791758
32	0x3e600127	0.2187544
33	0x3eb1c53e	0.34720796
34	0x3e51c59a	0.20485535
35	0x3e1d9850	0.15390134
36	0x3e989dce	0.29807895
37	0x3d5d0000	0.053955078
38	0x3d8fa037	0.070129804
39	0x3e99143c	0.2989825
40	0x3daa5910	0.083177686
41	0x3d5ac038	0.05340597
42	0xbe06f19c	-0.13178104
43	0xbdd91edc	-0.10601589
44	0x3dbbaba0	0.09163594
45	0xbcb088b0	-0.021549553
46	0xbc667b70	-0.014067516
47	0xbd5dbdda	-0.054136135
48	0x3e15b963	0.146215
49	0xbe0191a6	-0.12653217
50	0xbdc38d26	-0.09548406
51	0xbdcae564	-0.09907034
52	0xbd464baa	-0.048412003
53	0xbd0bf8a4	-0.03417267
54	0xbdd0e1eb	-0.101993404
55	0xbd2ea5e6	-0.04263868
56	0xbdc1e17b	-0.09466835
57	0x3d379a20	0.04482472
58	0x3d95893e	0.073015675
59	0x3d0a6a50	0.033792794
60	0xbb975fe0	-0.0046195835
61	0x3d175734	0.036948398
62	0x3e16860b	0.14699571
63	0x3d3c14a4	0.045918122
64	0xbe055c73	-0.13023548
65	0x3e0af5f5	0.13570388
66	0x3e036f3f	0.12835406
67	0xbc7853d0	-0.015156701
68	0xbcc8ad58	-0.02449672
69	0x3e0e63ff	0.13905333
70	0xbd6ca72c	-0.057776615
71	0xbce9e628	-0.02855213
72	0xbc412d30	-0.011790559
73	0x3c772460	0.015084356
74	0xbdf217cf	-0.118209474
75	0x3df06a4e	0.11739026
76	0xbd1cbb6e	-0.038264684
77	0xbc8aef20	-0.016959727
78	0xbd06a174	-0.032868817
79	0x3e17a863	0.14810328
80	0x3e999051	0.29992917
81	0x3e8f9dec	0.28050172
82	0x3d750291	0.0598169
83	0xbed5501d	-0.41662684
84	0xbed9ff46	-0.4257757
85	0xbe704d36	-0.23466954
86	0x3ea89f4b	0.3293403
87	0x3e9ec062	0.3100615
88	0xbdc603ab	-0.09668668
89	0xbd975e21	-0.073910005
90	0xbe82329d	-0.2542924
91	0xbce9820d	-0.028504396
92	0xbe7f25be	-0.24916741
93	0xbdd3a798	-0.103347
94	0xbcf3b199	-0.029747771
95	0xbe2499de	-0.1607432
96	0xbe33946f	-0.17537092
97	0x3e82b47d	0.25528327
98	0x3d72fdd9	0.05932412
99	0xbe3d7700	-0.18502426
100	0xbdf5011e	-0.11963104
101	0xbdaf94b2	-0.08573283
102	0x3e99ff70	0.30077696
103	0x3df83d08	0.12121016
104	0xbb80b6fa	-0.0039280625
105	0xbde994b1	-0.11405314
106	0xbe7f75ec	-0.24947327
107	0xbe8ce9b7	-0.2752206
108	0xbd503030	-0.050827205
109	0x3e810ef7	0.2520673
110	0x3c409808	0.011754997
111	0x3e460e70	0.19341445
112	0x3eaf8b35	0.34285894
113	0x3d2a96bb	0.041647654
114	0xbe8fc26b	-0.28078017
115	0x3db12314	0.08649269
116	0x3d78d3fa	0.06074903
117	0xbddf2257	-0.10895222
118	0xbdd80331	-0.10547484
119	0xbe412031	-0.18859936
120	0x3ebd89d0	0.37019205
121	0x3db6596f	0.08903777
122	0x3e0731ba	0.13202563
123	0x3e8a7c16	0.27047795
124	0x3ef39afc	0.4757918
125	0x3e3b76df	0.18307064
126	0x3e729532	0.23689726
127	0x3eb2833c	0.3486575
128	0x3e333774	0.17501622
129	0x3e9cf98e	0.30659145
130	0x3eceb087	0.40369055
131	0x3e999d43	0.30002794
132	0x3e99e18e	0.30054897
133	0x3e59f547	0.21284972
134	0x3e13f624	0.14449364
135	0x3e3cd376	0.18440041
136	0x3ebec4fb	0.3725966
137	0x3dce774d	0.100813486
138	0x3e3e1b40	0.18565083
139	0x3e26a330	0.16273189
140	0x3e6d69d0	0.23184896
141	0x3e54b347	0.20771514
142	0x3e74e9b1	0.23917271
143	0x3ea1e864	0.31622612
144	0x3ea0aa3f	0.31379887
145	0x3edba837	0.42901775
146	0x3d4de479	0.050266717
147	0x3e9e08c0	0.3086605
148	0x3e7096d0	0.2349503
149	0x3dcecf2e	0.1009811
150	0x3e83fe12	0.25779778
151	0x3e19d452	0.150224
152	0x3e5a07f6	0.212921
153	0x3e1e91ef	0.15485357
154	0x3e513706	0.20431146
155	0x3e0f2a69	0.13981022
156	0x3e746c0e	0.23869345
157	0x3e7d1743	0.24715905
158	0x3df7f900	0.1210804
159	0x3e2ad6b3	0.16683464

lstm.bias_hh_l0 f4 [160]
0	0x3ec77858	0.38959002
1	0x3e9ad817	0.30242988
2	0x3e3667f6	0.17813095
3	0x3e8f1762	0.27947527
4	0x3ea487fb	0.32134995
5	0x3eb0f2e6	0.34560317
6	0x3e133c92	0.14378574
7	0x3de6c6db	0.112683974
8	0x3eb9b700	0.3627243
9	0x3e723005	0.2365113
10	0x3e2af943	0.16696648
11	0x3e86b44e	0.26309437
12	0x3d3b907b	0.045792084
13	0x3edf25d8	0.4358356
14	0x3d94a1e8	0.07257444
15	0x3e2fb757	0.17159782
16	0x3e87946a	0.26480418
17	0x3e838583	0.256878
18	0x3e6bad39	0.23015298
19	0x3ec89a24	0.391801
20	0x3d3b233f	0.04568791
21	0x3e4de54e	0.20107004
22	0x3e0a0e42	0.13482001
23	0x3e70d660	0.23519278
24	0x3e48b86a	0.19601598
25	0x3e066cd7	0.13127457
26	0x3e91a3d4	0.28445303
27	0x3ec843fa	0.39114362
28	0x3ec2ddcd	0.38059846
29	0x3e4dfde6	0.20116386
30	0x3d89efe4	0.06735209
31	0x3e89baaa	0.26900226
32	0x3ec7a2a1	0.38991264
33	0x3e49fc94	0.19725257
34	0x3e5f9e52	0.21837738
35	0x3d026884	0.031837955
36	0x3ec3e89a	0.38263398
37	0x3dd07a5d	0.10179589
38	0x3e65552a	0.22395769
39	0x3e119701	0.1421776
40	0xbd638ef6	-0.05555626
41	0x3d92cae4	0.071676046
42	0x3e1b3b25	0.1515928
43	0x3db9ba78	0.09068769
44	0xbdfc9f79	-0.123351045
45	0x3d66a040	0.05630517
46	0xbc369880	-0.011144757
47	0x3e13a29b	0.14417498
48	0x3e17c5eb	0.14821593
49	0x3dd4d94a	0.10393007
50	0xbdfd17b8	-0.123580396
51	0xbd989ce5	-0.074518
52	0xbd322732	-0.04349441
53	0x3d808156	0.06274669
54	0x3c0062e0	0.007836074
55	0xbdaae494	-0.08344379
56	0xbe1803e5	-0.14845236
57	0x3d45b89c	0.04827176
58	0xbdf1d2a5	-0.118077554
59	0xbe038803	-0.12844853
60	0xbd9cc417	-0.07654589
61	0xbbc24280	-0.0059283376
62	0x3c6b3a40	0.01435715
63	0x3e0c1527	0.13679944
64	0xbe0a95d6	-0.1353372
65	0xbe0021fc	-0.12512964
66	0x3dfb5c6a	0.12273486
67	0xbc0c8900	-0.008577585
68	0xbdab4239	-0.0836224
69	0x3b5c1800	0.003358364
70	0xbd7c24ba	-0.061558463
71	0xbd8a11e5	-0.06741694
72	0x3d5e6ad0	0.054301083
73	0x3d8d07d0	0.06886256
74	0xbbbfba80	-0.00585109
75	0x3e03a8f9	0.12857427
76	0x3deadfd2	0.114684716
77	0x3dd44d5e	0.10366319
78	0xbe18d959	-0.14926662
79	0xbe0aa016	-0.1353763
80	0x3ed959c9	0.42451313
81	0x3e9d0b61	0.30672744
82	0x3e4c94f4	0.19978696
83	0xbe6409f5	-0.22269423
84	0xbee363c5	-0.44412056
85	0xbd4130df	-0.047165748
86	0x3e4797a7	0.19491445
87	0x3dca6aa0	0.09883618
88	0xbdf95c45	-0.12175802
89	0x3d878b67	0.06618386
90	0xbe852677	-0.2600591
91	0x3dc1352c	0.0943397
92	0xbcb86de9	-0.022513347
93	0x3ca3005c	0.019897632
94	0xbe851034	-0.25988925
95	0xbe8d1864	-0.2755767
96	0xbe130eb3	-0.14361076
97	0x3e3d51ec	0.18488282
98	0x3ea5146b	0.3224214
99	0xbe9e0c7e	-0.30868906
100	0xbe232ab0	-0.15934253
101	0xbe85e8e1	-0.26154235
102	0x3e62c04c	0.22143668
103	0x3e6d2fe0	0.23162794
104	0xbe06c8cb	-0.13162534
105	0xbcdf8f88	-0.02729012
106	0xbcbf58d1	-0.02335778
107	0xbeb650f1	-0.35608628
108	0x3e0ce161	0.1375785
109	0x3d427e5e	0.047483794
110	0x3e456330	0.19276118
111	0x3e515f4e	0.20446512
112	0x3ebcbb2b	0.36861548
113	0xbe5ca0f5	-0.21545775
114	0xbe1ab9f0	-0.15109992
115	0x3e9a7a15	0.30171266
116	0xbd9e1036	-0.07717936
117	0xbddd09e2	-0.107929006
118	0x3b7bf179	0.003844349
119	0xbeb1ca7c	-0.34724796
120	0x3ee1b9ce	0.4408707
121	0x3ea64890	0.32477236
122	0x3e8a550d	0.27018014
123	0x3ebacee8	0.36485982
124	0x3e96d1be	0.29456896
125	0x3e85099c	0.25983894
126	0x3e9fff3e	0.31249422
127	0x3eb64259	0.35597494
128	0x3e3173f0	0.17329383
129	0x3e319d1b	0.17345087
130	0x3eeb40c7	0.4594786
131	0x3ed1fe26	0.41014212
132	0x3d0eca5d	0.034860957
133	0x3e0f6d23	0.14006476
134	0x3e70ee10	0.23528314
135	0x3ddedefc	0.10882375
136	0x3db83367	0.08994179
137	0x3e65e463	0.22450404
138	0x3ec962a1	0.3933306
139	0x3eac9fea	0.33715755
140	0x3eb27b09	0.34859493
141	0x3e7fbb05	0.24973686
142	0x3e3556ff	0.17708968
143	0x3eb3be12	0.3510595
144	0x3d9b94f8	0.07596773
145	0x3ee95da7	0.45579264
146	0x3e2bb79a	0.16769257
147	0x3ecef8c1	0.4042416
148	0x3e7f6f56	0.24944815
149	0x3d2c39f0	0.04204744
150	0x3dca4cf6	0.098779604
151	0x3e6f0cf0	0.23344779
152	0x3e40fb0c	0.18845767
153	0x3d8b6a95	0.06807438
154	0x3e81874b	0.25298533
155	0x3dcacb9c	0.09902117
156	0x3eadadfd	0.33921805
157	0x3e674802	0.22586063
158	0x3e38f1d2	0.18060997
159	0x3ca25b36	0.019818883

lstm.weight_ih_l1 f4 [160, 40]
0	0x3de2cef6	0.11074631
1	0xbe1a2e70	-0.15056777
2	0x3e86d352	0.263331
3	0xbcce8c0b	-0.025213262
4	0xbe9fc125	-0.31202045
5	0xbb50f252	-0.0031882715
6	0x3c166f64	0.009181831
7	0x3ced56e2	0.028972093
8	0x3d0a8bc0	0.033824682
9	0xbd70c104	-0.058777824
10	0xbe8d85b9	-0.27641085
11	0xbd9fce85	-0.07803062
12	0xbe721cf9	-0.23643865
13	0x3df07496	0.11740987
14	0xbd657492	-0.056019373
15	0xbd244998	-0.040109247
16	0xbe0fbe96	-0.14037547
17	0x3ceb966b	0.028758248
18	0x3d20e579	0.039281342
19	0xbe69f20f	-0.22846244
20	0xbe30e78d	-0.1727583
21	0x3cf0ad23	0.029379433
22	0x3e782bbb	0.24235432
23	0x3cb5ad36	0.02217732
24	0xbdfc6c5c	-0.123253554
25	0xbdf12c7b	-0.11776062
26	0xbe19be57	-0.15014015
27	0xbdfe2af1	-0.12410534
28	0x3e3de927	0.18545972
29	0x3de59303	0.11209681
30	0x3e910f15	0.2833182
31	0x3e4ac1a8	0.19800436
32	0x3d494d2f	0.049145874
33	0x3e11e560	0.14247656
34	0x3dd418b6	0.10356276
35	0x3dffd459	0.12491674
36	0x3e566d24	0.20940071
37	0xbd0e5c23	-0.034755837
38	0xbe25c28c	-0.16187495
39	0xbe0f25ba	-0.13979235
40	0x3e86173c	0.261896
41	0x3ebc8666	0.36821288
42	0x3e8f17df	0.279479
43	0xbe4c8120	-0.19971132
44	0xbe79e86d	-0.2440507
45	0xbdf22fbf	-0.11825513
46	0x3e33a47d	0.17543216
47	0x3d8e8a4d	0.069599725
48	0xbe388c2b	-0.1802222
49	0xbe609c5d	-0.21934648
50	0xbe0f7816	-0.14010653
51	0x3d446d3a	0.04795573
52	0xbea0c3a9	-0.31399277
53	0x3e5f845d	0.21827836
54	0xbe62da38	-0.22153556
55	0xbe9dfca1	-0.30856803
56	0xbea5fbd1	-0.32418683
57	0x3ef4293c	0.4768771
58	0x3e6c0009	0.23046888
59	0xbea9c31d	-0.33156672
60	0xbe848453	-0.25882205
61	0xbe65ef78	-0.22454631
62	0x3e6b2bb3	0.22965889
63	0x3d2fa1ea	0.042879023
64	0xbe5f49bf	-0.21805476
65	0xbe977cfc	-0.29587543
66	0xbe8590d4	-0.26087058
67	0xbd51dfa8	-0.051238686
68	0x3dc8c5b8	0.09803337
69	0x3e2841f7	0.16431414
70	0x3ea7b13f	0.32752416
71	0x3e679325	0.22614725
72	0x3ec68c7d	0.3877906
73	0xbd15599e	-0.03646242
74	0xbeb48fd3	-0.3526598
75	0x3ea126cd	0.31474915
76	0x3eb06ccf	0.34458014
77	0xbe244117	-0.16040455
78	0xbef20e1b	-0.47276387
79	0xbe9d93ff	-0.30776975
80	0x3e79f468	0.2440964
81	0x3ee1d371	0.4410663
82	0x3e16d07a	0.14727965
83	0xbe8944cf	-0.2681031
84	0xbe4ce96c	-0.20010918
85	0xbe5d7d2f	-0.21629785
86	0x3ec6a5b7	0.38798305
87	0x3e2295b5	0.15877421
88	0xbe7c6505	-0.24647911
89	0x3c464a91	0.012102739
90	0xbe9e85b0	-0.3096137
91	0x3e99e59d	0.30057994
92	0xbeb008f8	-0.34381843
93	0x3d9cae03	0.076503776
94	0x3c05f526	0.008176124
95	0xbe2fe5c7	-0.17177497
96	0xbe1c9389	-0.15290655
97	0x3eadde03	0.33958444
98	0xbd9239e8	-0.07139951
99	0xbe130760	-0.14358282
100	0xbec6c2c0	-0.38820457
101	0xbe350d75	-0.17680915
102	0x3e780a90	0.2422278
103	0x3ded3a89	0.1158343
104	0xbe0ca9af	-0.13736604
105	0xbde6e0a1	-0.11273313
106	0xbe5e889d	-0.21731801
107	0xbe212ce7	-0.15739785
108	0xbde27b23	-0.11058643
109	0xbd42e148	-0.047578126
110	0x3e364e27	0.1780325
111	0x3e4e3e39	0.20140924
112	0x3ee522a8	0.44753003
113	0xbd8b482d	-0.06800876
114	0x3b2bbb5a	0.00262042
115	0x3e01fc5c	0.12693924
116	0x3eab2ae5	0.33431163
117	0xbe908fac	-0.28234613
118	0xbe645936	-0.22299656
119	0xbe4ec7fb	-0.20193474
120	0x3eee0c5d	0.46493807
121	0x3eb9834a	0.36232978
122	0x3d5b9f60	0.05361879
123	0xbc36b733	-0.011152077
124	0xbeb3cadb	-0.35115704
125	0xbeba1291	-0.3634229
126	0x3e7ed465	0.2488571
127	0x3d9ed8a9	0.077561684
128	0xbe3cb62b	-0.18428867
129	0xbe41ca0a	-0.18924728
130	0xbe2fa0e8	-0.17151225
131	0xbc8c6038	-0.017135724
132	0xbd8965f2	-0.06708898
133	0x3e9fd759	0.31218985
134	0xbd13b3cd	-0.036060143
135	0xbcc0c067	-0.023529245
136	0xbe2d8bc4	-0.16947848
137	0x3e47d133	0.19513397
138	0x3e0641a4	0.13110977
139	0xbd22840e	-0.03967672
140	0xbe4d19e1	-0.20029403
141	0xbe2a5e69	-0.16637577
142	0x3e3a7b1a	0.18211022
143	0xbe1877f9	-0.14889516
144	0xbe7fd413	-0.24983244
145	0xbe38408b	-0.17993371
146	0xbe833e12	-0.25633293
147	0xbe1ca8ce	-0.15298769
148	0xbe1c210e	-0.15246984
149	0x3d747153	0.059678387
150	0x3ecffb5f	0.40621468
151	0x3ebeefb6	0.3729226
152	0x3e5297cf	0.20565723
153	0x3de05add	0.10954831
154	0x3d5f6f83	0.054549705
155	0x3db9cb59	0.090719886
156	0x3e826755	0.2546946
157	0xbecba53d	-0.39774504
158	0xbe989e18	-0.29808116
159	0xbe69e9e4	-0.22843128
160	0x3e1585bb	0.14601795
161	0x3dce3860	0.100693464
162	0x3d49442a	0.049137272
163	0xbd90a492	-0.07062639
164	0xbe1f33eb	-0.15547149
165	0xbe51d93b	-0.20493023
166	0x3ec80912	0.3906942
167	0x3e17e365	0.14832838
168	0xbd540ceb	-0.051770132
169	0xbe5aff83	-0.21386532
170	0xbe1e5e21	-0.15465595
171	0x3db6aa5a	0.08919211
172	0xbe939ee6	-0.28832167
173	0x3eba7d2e	0.3642363
174	0xbe44fa94	-0.19236213
175	0xbe480d3c	-0.19536299
176	0xbdf2a3fa	-0.11847682
177	0xbd91396b	-0.0709103
178	0xbd9846d0	-0.074353814
179	0xbd697aa5	-0.05700173
180	0xbebe601a	-0.37182695
181	0xbd8b8e23	-0.0681422
182	0x3ed1cadf	0.4097509
183	0xbe6d5593	-0.23177175
184	0xbe9000d1	-0.28125623
185	0xbe4c32b1	-0.19941212
186	0xbe97c695	-0.29643694
187	0x3e570b29	0.21000351
188	0xbe5be74e	-0.21474954
189	0x3e6a958b	0.22908609
190	0x3e9cefa6	0.30651587
191	0x3e90d7b6	0.28289574
192	0x3e156571	0.14589478
193	0xbd276024	-0.04086317
194	0xbe0becbe	-0.13664529
195	0x3e352525	0.17689951
196	0x3d9dd1dd	0.07706044
197	0xbe4c5e37	-0.19957815
198	0xbeb3f2b3	-0.35146102
199	0x3c2d27be	0.010568557
200	0x3e554e0c	0.20830554
201	0x3dd481d5	0.10376326
202	0x3e3c8609	0.18410505
203	0xbd17d994	-0.037072733
204	0xbeaf1520	-0.34195805
205	0xbe9c2877	-0.30499622
206	0x3e99afc8	0.30016923
207	0xbe0bf300	-0.13666916
208	0xbe01e9e8	-0.12686884
209	0xbe3a7565	-0.18208845
210	0xbc9317bc	-0.017955653
211	0xbe0bbd1a	-0.13646355
212	0xbc025db1	-0.007956908
213	0x3ed8f6c7	0.42375776
214	0xbdc93d12	-0.09826101
215	0xbd677dd7	-0.056516495
216	0x3d6a6f2b	0.057234924
217	0xbd857e6a	-0.06518252
218	0x3cb16ece	0.021659281
219	0xbdb794a3	-0.08963897
220	0xbeaa1d5b	-0.3322552
221	0xbdce65a9	-0.10077984
222	0x3eaaa5ca	0.33329612
223	0x3d87c29c	0.06628916
224	0xbebdc4a1	-0.37064078
225	0xbe5d6a61	-0.21622612
226	0xbe80e655	-0.2517573
227	0xbe824579	-0.25443628
228	0x3dd0f16d	0.10202298
229	0x3e815583	0.25260553
230	0x3eba68c2	0.3640805
231	0x3e80a044	0.25122273
232	0x3e865bb2	0.26241833
233	0x3dc1f17d	0.09469888
234	0xbd9595b6	-0.07303946
235	0x3e0a97c6	0.1353446
236	0x3ea2f158	0.31824756
237	0xbe76f45b	-0.24116652
238	0xbdc4c197	-0.09607237
239	0x3de7fdc7	0.11327701
240	0x3eb9e0f5	0.3630444
241	0x3edb9bb6	0.42892236
242	0x3e2b6d00	0.16740799
243	0xbcafdf7b	-0.021468868
244	0xbebb4595	-0.36576524
245	0xbdaef779	-0.085432954
246	0x3ebc33ec	0.36758363
247	0xbd1b79ef	-0.03795808
248	0xbc9a2b41	-0.018819453
249	0xbe9fcd2d	-0.31211224
250	0xbe53ba69	-0.20676579
251	0x3de92107	0.113832526
252	0xbeb39471	-0.3507419
253	0x3ebea51c	0.37235343
254	0xbe6348f1	-0.22195794
255	0xbe44fc86	-0.19236955

lstm.weight_hh_l1 f4 [160, 40]
0	0x3d5da410	0.05411154
1	0x389be800	7.434189e-05
2	0x3d8456f4	0.064618975
3	0x3db5140c	0.08841714
4	0xbce54b70	-0.027990073
5	0x3dca4462	0.09876324
6	0x3ce24e30	0.027625173
7	0x3b5860c0	0.0033016652
8	0x3d9309e8	0.07179624
9	0x3d21374c	0.039359376
10	0xbe0a51cb	-0.13507764
11	0xbd2a2b6c	-0.041545317
12	0xbce81d98	-0.028334424
13	0xbd9a9905	-0.075487174
14	0xbe00824d	-0.12549706
15	0x3db8267e	0.08991717
16	0xbd92a1d6	-0.07159774
17	0xbdc36f07	-0.09542661
18	0x3d371b18	0.044703573
19	0x3b903000	0.0044002533
20	0xbc3a9f30	-0.011390492
21	0xbd6d229a	-0.057894327
22	0x3d86b4f4	0.06577483
23	0xbddb2bf0	-0.1070174
24	0xbe194282	-0.14966777
25	0x3e0243a1	0.12721111
26	0x3d9294a4	0.07157257
27	0xbe117968	-0.14206469
28	0x3e215c5f	0.15757893
29	0xbd4ff690	-0.05077225
30	0x3bcbea20	0.0062229782
31	0x3c7e56c0	0.0155236125
32	0x3c5a3ee0	0.013320655
33	0x3d9f40e0	0.07776046
34	0xbda91b65	-0.08257178
35	0xbd8e0578	-0.06934637
36	0x3dd63526	0.10459356
37	0x3d6c7de4	0.057737246
38	0x3da2b6e0	0.07945037
39	0xbe000a5f	-0.12503956
40	0x3debc89a	0.11512871
41	0x3d89cb08	0.06728178
42	0xbb86c140	-0.0041123927
43	0xbd33bc96	-0.04388102
44	0x3dd33e06	0.103145644
45	0xbd8c8c08	-0.06862646
46	0x3d749d30	0.05972022
47	0xbdc46814	-0.09590164
48	0xbe08ce89	-0.13360037
49	0xbddf1cf6	-0.10894196
50	0x3ddb350e	0.10703479
51	0x3cb55338	0.022134408
52	0x3d3a51cc	0.045488164
53	0xbe0c8532	-0.13722685
54	0xbc722840	-0.014780104
55	0x3da22ec4	0.07919076
56	0xbe126f4f	-0.14300273
57	0x3e13a927	0.14419995
58	0x3e19acc7	0.15007316
59	0x3e0e0bd9	0.13871707
60	0x3e060bbf	0.13090418
61	0xbcadf628	-0.02123554
62	0x3ca94538	0.020662889
63	0x3e09ed75	0.13469489
64	0xbcaee980	-0.021351576
65	0xbcd27218	-0.02568917
66	0xbdff415b	-0.124636374
67	0xbe00a2e3	-0.12562136
68	0x3e16610d	0.1468546
69	0xbe0f5d27	-0.14000379
70	0x3e1f2885	0.155428
71	0x3e07d6a5	0.13265474
72	0xbd181e7c	-0.037138447
73	0x3dc28e36	0.09499781
74	0xbdecf34e	-0.11569844
75	0x3ddd1f7a	0.10797019
76	0xbce718b0	-0.028210014
77	0x3dbb138a	0.09134586
78	0x3cbd67d8	0.023120806
79	0xbc9b0d78	-0.01892732
80	0x3b6a5000	0.003575325
81	0xbd53d0a4	-0.051712647
82	0x3d1fcccc	0.03901367
83	0xbbc13b40	-0.0058969557
84	0x3d29479c	0.041328058
85	0x3dabc3f0	0.083869815
86	0x3dbed08a	0.093171194
87	0x3de2b11e	0.11068939
88	0xbdd20f62	-0.1025684
89	0xbd2ebd34	-0.042660907
90	0xbe0aadd8	-0.13542879
91	0x3d920240	0.071293354
92	0x3b51e1c0	0.0032025427
93	0xbc0c3400	-0.00855732
94	0x3d8a3e1c	0.06750128
95	0x3c416540	0.011803925
96	0x3d980ba2	0.07424094
97	0x3d09f08c	0.03367667
98	0xbcdf7b30	-0.02728042
99	0xbd76d4d4	-0.060261562
100	0x3d863a8c	0.06554136
101	0x3dfe9e02	0.12432481
102	0x3c83c228	0.016083792
103	0x3d1d6dc4	0.03843476
104	0x3e1bcabf	0.1521406
105	0xbde020f3	-0.109437846
106	0xbdb4e944	-0.088335544
107	0xbdd91d30	-0.1060127
108	0xbdc4848c	-0.09595594
109	0x3de4750a	0.11155136
110	0x3d5952e8	0.05305758
111	0xbde8fcf2	-0.113763705
112	0x3c49ea10	0.012323871
113	0xbd19c686	-0.037542842
114	0xbda011af	-0.07815873
115	0xbd4b45b6	-0.04962703
116	0xbdf8cd09	-0.12148482
117	0xbd425600	-0.047445297
118	0x3d69f5a0	0.057119012
119	0xbda2e8dc	-0.07954571
120	0x3dedd6e2	0.11613251
121	0xbddabc26	-0.10680418
122	0x3d96eb60	0.07369113
123	0x3d8fb266	0.07016449
124	0xbe0bf1dc	-0.13666481
125	0xbd9618f7	-0.073289804
126	0x3ca47ec0	0.02007997
127	0x3cd46878	0.02592872
128	0xbdd886bc	-0.105725735
129	0x3dc01812	0.09379591
130	0x3e101f07	0.14074336
131	0x3dfff4fe	0.124979004
132	0xbe04e46c	-0.12977761
133	0x3d93c272	0.07214822
134	0xbd390f86	-0.04518082
135	0xbdb2cf11	-0.08730901
136	0xbd9f9b0c	-0.07793245
137	0xbdbc33a4	-0.09189537
138	0xbe09cdba	-0.13457385
139	0x3db08c46	0.08620505
140	0xbe1ed31d	-0.15510221
141	0x3ca5ee98	0.020255372
142	0xbd97c8f6	-0.07411377
143	0x3d45d2cc	0.048296735
144	0xbd16f44c	-0.036854073
145	0x3c9f74b0	0.01946482
146	0x3dc4441a	0.09583302
147	0xbdf55d59	-0.11980695
148	0x3dcc13a2	0.09964682
149	0xbdcf3e09	-0.10119254
150	0x3e21837d	0.15772815
151	0xbd6abf5a	-0.057311393
152	0x3dc80c8a	0.09768017
153	0xbdcfef85	-0.101531066
154	0x3e0d3ed3	0.13793497
155	0x3e01c5a7	0.12673055
156	0xbb2e9d40	-0.0026644021
157	0x3ca650c8	0.020302191
158	0xbe009436	-0.12556538
159	0x3de76806	0.11299138
160	0xbd2c2358	-0.042025894
161	0xbdb17b70	-0.08666122
162	0x3e1331e3	0.14374499
163	0xbdf413f5	-0.11917869
164	0x3d62ef1c	0.055403814
165	0x3e1c4117	0.15259205
166	0xbdbc232e	-0.091863975
167	0xbe2170f6	-0.15765747
168	0x3deec5e2	0.11658837
169	0xbe1d1140	-0.15338612
170	0xbe1f3a81	-0.15549661
171	0x3dff2b22	0.12459399
172	0xbd30819c	-0.043092355
173	0x3c9a4af0	0.018834561
174	0x3d7f5b4c	0.062342927
175	0x3d99b7ee	0.07505785
176	0x3d156964	0.03647746
177	0x3d5d79c4	0.054071203
178	0x3d4d7174	0.050157025
179	0xbdf8026e	-0.121098384
180	0x3e0a137d	0.13483997
181	0x3e0bce0d	0.13652821
182	0x3e1c3693	0.15255193
183	0xbdf2db5e	-0.11858247
184	0x3dd68e86	0.10476403
185	0x3d9aef14	0.07565132
186	0x3e052bbd	0.13004966
187	0x3cc0bf70	0.023528785
188	0xbdc78827	-0.09742766
189	0xbd5b3840	-0.05352044
190	0x3dbc168a	0.091839865
191	0x3c492430	0.012276694
192	0xbe208a06	-0.15677652
193	0x3e1d3247	0.1535121
194	0x3d07e688	0.033178836
195	0xbcb0c2c8	-0.021577254
196	0xbccbcd28	-0.0248781
197	0xbdd8577a	-0.1056356
198	0xbe051e78	-0.12999904
199	0xbd757cb2	-0.05993337
200	0xbddf3f4a	-0.10900743
201	0xbd07f0b6	-0.033188544
202	0x3cd082c8	0.025452986
203	0xbe1dc8c9	-0.15408625
204	0xbe15ee5e	-0.14641711
205	0xbe1dfb3e	-0.15427873
206	0x3dea39ae	0.11436783
207	0xbd9d058f	-0.07667076
208	0xbdb218b1	-0.08696116
209	0x3dd2ce0a	0.10293205
210	0xbdbdb877	-0.092636995
211	0x3d1d790c	0.038445517
212	0x3e1d416b	0.15356986
213	0xbd277598	-0.04088363
214	0x3d8e7a7e	0.06956957
215	0xbcd54290	-0.026032716
216	0xbde2bb57	-0.110708885
217	0x3db1a920	0.08674836
218	0xbc139580	-0.009007812
219	0xbde30282	-0.11084463
220	0xbd8e1a6b	-0.069386326
221	0xbc3af0e0	-0.011409968
222	0xbdbc3296	-0.09189336
223	0x3defb6ee	0.11704813
224	0x3ddc7dc6	0.10766177
225	0xbc731ae0	-0.0148379505
226	0xbdf00c23	-0.11721065
227	0x3d663814	0.056205824
228	0x3dd28d2a	0.10280831
229	0x3e17c98f	0.14822982
230	0xbc484e90	-0.012225762
231	0xbe053b52	-0.1301091
232	0xbca7a5b0	-0.020464748
233	0xbe06ef12	-0.13177136
234	0xbdc02632	-0.09382285
235	0xbde94d6c	-0.1139172
236	0xbe0a4bad	-0.1350543
237	0xbdb62470	-0.08893669
238	0xbca540e8	-0.020172551
239	0xbdf126ea	-0.117750004
240	0x3cb1b458	0.02169244
241	0xbe066e51	-0.1312802
242	0x3998ca00	0.000291422
243	0xbe088b02	-0.13334277
244	0xbc5238d0	-0.012830928
245	0x3cf2d8e0	0.02964443
246	0x3dc850ce	0.09781037
247	0xbda14efd	-0.07876394
248	0xbd909edc	-0.0706155
249	0xbd84a13f	-0.06476068
250	0x3de4cafe	0.1117153
251	0x3d440cd0	0.04786378
252	0x3dbe886e	0.09303366
253	0xbd2b91f6	-0.041887246
254	0xbdc8e1a2	-0.09808661
255	0x3d05d8f0	0.03267759

lstm.bias_ih_l1 f4 [160]
0	0x3d21a1b3	0.03946085
1	0x3efc5dd1	0.49290326
2	0x3e52f8f7	0.20602785
3	0x3e581bff	0.2110443
4	0x3e57d508	0.21077359
5	0x3ea82123	0.3283778
6	0x3f0651de	0.5246867
7	0x3f0f429f	0.5596103
8	0xbc43dbd9	-0.011954271
9	0x3e757ac2	0.2397261
10	0x3ed03894	0.40668166
11	0x3ec83fb6	0.39111108
12	0x3ea67d4f	0.32517478
13	0x3e0b4b62	0.13602975
14	0x3f042d76	0.5163187
15	0x3f015272	0.50516427
16	0x3e4a2d2b	0.19743793
17	0x3f30e3aa	0.6909739
18	0x3e0cd9c9	0.13754953
19	0x3edfcf76	0.43712968
20	0x3f3ca720	0.7369251
21	0x3ec7c7ba	0.39019567
22	0x3e7f0283	0.24903302
23	0x3e1ec53a	0.15504923
24	0x3e348f14	0.17632705
25	0x3ed5edaf	0.417829
26	0x3dd4d6bc	0.1039252
27	0x3eb723cf	0.35769507
28	0x3d970d6d	0.07375608
29	0x3e0b677d	0.13613696
30	0x3e36a780	0.17837334
31	0x3dca3b27	0.09874564
32	0x3e9624da	0.2932499
33	0x3ef5ed01	0.48032382
34	0x3e70be0c	0.23509997
35	0x3e41af64	0.18914562
36	0x3e205d98	0.15660703
37	0x3f0eece6	0.5583023
38	0x3ef8a95f	0.4856672
39	0x3d9964e7	0.07489949
40	0xbddf5218	-0.1090433
41	0x3da6595e	0.08122514
42	0x3e13c745	0.14431484
43	0xbc64eea0	-0.013972908
44	0xbd635976	-0.05550524
45	0x3dfdaca6	0.12386446
46	0x3daa7674	0.083233744
47	0x3cd89af0	0.026441067
48	0xbdd8b43c	-0.10581252
49	0xbdd1ea67	-0.10249787
50	0xbdd62a12	-0.10457243
51	0x3c766e90	0.015041009
52	0xbe1fc7f8	-0.15603626
53	0xbc87c2b0	-0.016572326
54	0xbd7f66b8	-0.06235382
55	0x3d8fdc4c	0.0702444
56	0xbd14165a	-0.03615413
57	0xbcafa098	-0.021438882
58	0x3d147bac	0.036250755
59	0xbc01fa40	-0.007933199
60	0xbcf8fec0	-0.030394912
61	0x3d0561e0	0.032564044
62	0xbdce521a	-0.100742534
63	0x3db3c0c8	0.087770045
64	0x3dae825e	0.08520959
65	0xbdb50e74	-0.08840647
66	0xbd83ecb1	-0.0644163
67	0xbd4ce0b0	-0.050018966
68	0xbe15f5b6	-0.14644513
69	0xbdac2169	-0.0840481
70	0xbe1e2f0d	-0.15447636
71	0xbe08a343	-0.1334353
72	0x3dc26d2a	0.09493478
73	0xbc027300	-0.007961988
74	0x3dc614a2	0.09671904
75	0xbdc2a8d5	-0.095048584
76	0x3d78c6b4	0.060736373
77	0x3d11a884	0.0355611
78	0xbdb7cf02	-0.089750305
79	0x3d9dff40	0.07714701
80	0x3aa89392	0.0012861362
81	0x3dd12d94	0.102137715
82	0xbd5b7112	-0.05357463
83	0x3c8add93	0.016951358
84	0x3def3667	0.11680298
85	0xbe2cedb6	-0.16887555
86	0xbdbd8f2b	-0.09255823
87	0x3c313d4c	0.010817837
88	0xbcd9ff54	-0.026611008
89	0x3b602618	0.0034202393
90	0xbbd0e136	-0.0063745035
91	0xbd802249	-0.062565394
92	0x3e279a07	0.1636735
93	0xbdad34a1	-0.08457304
94	0x3cb23292	0.02175263
95	0xbbf989d6	-0.0076153083
96	0xbe16efca	-0.1473991
97	0x3c99418e	0.018708017
98	0xbe21cb9e	-0.1580033
99	0xbe292611	-0.16518427
100	0xbd8b4476	-0.06800167
101	0x3d186ce8	0.037213236
102	0xbc29c326	-0.010361468
103	0xbb93a26e	-0.004505447
104	0xbdbf56f4	-0.09342757
105	0x3db2c9ad	0.08729873
106	0x3cb67709	0.022273557
107	0x3e3be437	0.18348776
108	0xbe517939	-0.20456399
109	0x3dfa2bf9	0.12215418
110	0x3d565989	0.05233148
111	0xbdecd5a2	-0.11564185
112	0xbe4d1861	-0.20028831
113	0x3d6c8702	0.05774594
114	0x3e4f5880	0.20248604
115	0x3e01cfba	0.12676898
116	0x3d805a2c	0.06267199
117	0xbe1d7741	-0.15377523
118	0xbd963cee	-0.0733584
119	0xbdf67644	-0.12034276
120	0x3e9802d0	0.29689646
121	0x3edc0777	0.42974445
122	0x3e9b23a1	0.3030062
123	0x3e7faea5	0.24968965
124	0x3ddac289	0.10681636
125	0x3e9ef7f0	0.31048536
126	0x3ebc7e50	0.3681512
127	0x3f36e52f	0.71443456
128	0x3e7dc074	0.24780446
129	0x3dbad0b6	0.0912184
130	0x3e57fd38	0.21092689
131	0x3ebb5e37	0.36595318
132	0x3ed94613	0.42436275
133	0x3e455246	0.19269666
134	0x3eba31aa	0.36366016
135	0x3f031535	0.51204234
136	0x3e77d678	0.24202907
137	0x3f28d8e4	0.6595595
138	0x3e29e75c	0.16592163
139	0x3f016016	0.5053724
140	0x3f0a5b39	0.54045445
141	0x3ecdb749	0.40178898
142	0x3f08f94a	0.53505385
143	0x3ea1c8f2	0.31598622
144	0x3e250c37	0.16117941
145	0x3e8167e1	0.25274566
146	0x3e5517a0	0.20809793
147	0x3e89d5d6	0.26920956
148	0x3e990f42	0.29894453
149	0x3e79c6f9	0.24392308
150	0x3e9837bd	0.29730025
151	0xbcbe6689	-0.023242252
152	0x3e3f5b66	0.1868721
153	0x3f13616c	0.5757053
154	0x3eba6e16	0.36412114
155	0x3e8bdbdc	0.27316177
156	0x3ec50610	0.38481188
157	0x3f0d2ff5	0.551513
158	0x3e8e2ab0	0.27766943
159	0xbc9b19ee	-0.018933263

lstm.bias_hh_l1 f4 [160]
0	0x3db0edba	0.08639093
1	0x3efaec1f	0.4900827
2	0x3e8c6697	0.2742202
3	0x3e9848bf	0.29743
4	0x3d29387f	0.041313644
5	0x3e0914bd	0.13386817
6	0x3e9b40ab	0.30322775
7	0x3f0dbf7d	0.5537031
8	0x3e64b873	0.22335987
9	0x3e2aa889	0.16665854
10	0x3e001f57	0.12511955
11	0x3e6a251c	0.22865719
12	0x3ed460eb	0.41480193
13	0x3da89dbc	0.082332104
14	0x3ecc5eb5	0.39916006
15	0x3f0a0059	0.5390678
16	0x3e73e30c	0.2381708
17	0x3f16e798	0.58947134
18	0x3e018bad	0.12650938
19	0x3efd640a	0.49490386
20	0x3f37f676	0.71860445
21	0x3e56a067	0.20959626
22	0x3eeac934	0.4585663
23	0x3eac88ea	0.33698207
24	0x3da58065	0.0808113
25	0x3e972ae1	0.29524902
26	0xbd433f0d	-0.04766755
27	0x3e502021	0.20324756
28	0x3dc15d91	0.094416745
29	0x3e264831	0.16238476
30	0x3ebfb5d8	0.37443423
31	0xbb974a93	-0.0046170442
32	0x3e3963a3	0.18104415
33	0x3ecba479	0.3977392
34	0x3e963ca3	0.29343137
35	0x3e3c1696	0.18367991
36	0x3e5ccabe	0.21561715
37	0x3f01fc1a	0.507753
38	0x3eecf4d7	0.46280548
39	0x3d514253	0.051088642
40	0xbc514390	-0.012772456
41	0xbe0c8567	-0.13722764
42	0x3e09ab9b	0.13444369
43	0x3da1a880	0.07893467
44	0xbd76dc9e	-0.06026899
45	0xbd7924fc	-0.060826287
46	0xbd89b2a4	-0.06723526
47	0x3d6292e0	0.055315852
48	0x3dd73eca	0.10510023
49	0xba23da00	-0.0006250441
50	0x3c2a73a0	0.010403544
51	0x3dad4ef4	0.08462325
52	0xbe09bb33	-0.13450317
53	0x3dba18d2	0.09086765
54	0xbe0ca791	-0.13735797
55	0x3c82f678	0.015986666
56	0x3cc03b00	0.023465633
57	0x3cfeba00	0.031094551
58	0xbdfadfa8	-0.1224969
59	0x3e1f79e9	0.15573849
60	0xbdd77aa2	-0.10521437
61	0x3de60ab2	0.11232509
62	0xbdca99d0	-0.09892619
63	0xbd963836	-0.0733494
64	0xbe102152	-0.1407521
65	0xbe0a92c4	-0.13532549
66	0xbd022b4c	-0.031779572
67	0x3c2971b0	0.010342047
68	0xbd8a524c	-0.06753978
69	0xbbc78760	-0.006089136
70	0x3dbc9e22	0.09209849
71	0xbddc41bc	-0.10754725
72	0x3e002025	0.12512262
73	0xbe1097e6	-0.14120445
74	0x3df3e3be	0.11908673
75	0xbda94944	-0.082659274
76	0xbdb354fd	-0.087564446
77	0x3d560a58	0.05225596
78	0xbda6b235	-0.08139459
79	0xbdc0fc28	-0.09423095
80	0xbdbaf098	-0.09127921
81	0x3e9045a6	0.28178138
82	0x3e58b449	0.21162523
83	0x3db47467	0.088112645
84	0x3e1758ae	0.14779922
85	0x3e064efb	0.13116066
86	0x3d3a9a36	0.045557223
87	0x3d2e240e	0.042514853
88	0xbdee3a72	-0.11632241
89	0xbe370dcd	-0.17876358
90	0xbd1897ee	-0.037254266
91	0x3d8368a1	0.06416441
92	0x3e63fa15	0.22263367
93	0x3e3ff5cb	0.18746106
94	0x3e3ab1d7	0.18231903
95	0x3e0aa267	0.13538514
96	0xbb99c64e	-0.004692829
97	0x3e698e96	0.22808298
98	0xbc6e1f08	-0.014533766
99	0x3d0fdceb	0.035122793
100	0xbe9096e7	-0.2824013
101	0xbe258306	-0.16163263
102	0xbb3f34b9	-0.0029175712
103	0x3dcd10cd	0.1001297
104	0x3d1187fd	0.03553008
105	0xbd075511	-0.03304011
106	0x3d459e30	0.048246562
107	0x3da84dcd	0.08217964
108	0xbd69da6b	-0.057093065
109	0x3d5bb643	0.053640615
110	0x3e0a7272	0.1352022
111	0xbe3d80a8	-0.1850611
112	0x3bcad3b1	0.0061897864
113	0xbe64b776	-0.2233561
114	0x3be7d0c4	0.0070744473
115	0xbd94d42e	-0.072670326
116	0x3c9ea3af	0.01936516
117	0xbdb2aa7c	-0.087239236
118	0xbd71d477	-0.059040513
119	0xbc92141a	-0.01783185
120	0x3e7f0114	0.24902755
121	0x3ea557ea	0.32293636
122	0x3ef32d13	0.47495326
123	0x3ec879cc	0.39155424
124	0x3e6812b3	0.22663383
125	0x3e286d74	0.16448003
126	0x3ea93ecd	0.33055726
127	0x3f335235	0.7004731
128	0x3e78db38	0.24302375
129	0x3e63404d	0.22192498
130	0x3ea638fa	0.32465345
131	0x3e666c34	0.22502214
132	0x3f076347	0.5288586
133	0x3e9b4a2a	0.3033002
134	0x3eab781e	0.3349008
135	0x3ec29c26	0.38009757
136	0x3dfe62d1	0.124211915
137	0x3f31bbfe	0.6942748
138	0x3dc138cd	0.09434662
139	0x3ea501c6	0.32227916
140	0x3f26e0f4	0.65187
141	0x3ed3728f	0.4129834
142	0x3e8bd352	0.27309662
143	0x3e9ee556	0.31034344
144	0x3e85948e	0.260899
145	0x3e2dd361	0.16975166
146	0x3d9a5356	0.07535426
147	0x3e64d29f	0.2234597
148	0x3cbd6aeb	0.023122272
149	0x3e01131d	0.12604947
150	0x3e3e73b8	0.1859883
151	0x3e8e018d	0.27735558
152	0x3e8c912e	0.27454513
153	0x3ef56ba4	0.47933686
154	0x3ecddbfe	0.40206903
155	0x3e953024	0.2913829
156	0x3e7bd3ba	0.24592486
157	0x3eebb299	0.46034697
158	0x3e8a4372	0.27004582
159	0x3c8a095a	0.016850162

linear.weight f4 [6, 40]
0	0xbb8ebf0a	-0.0043562697
1	0xbaca3085	-0.0015425837
2	0xbe957364	-0.291896
3	0x3ed933e3	0.424224
4	0x3e61e7c5	0.2206107
5	0xbe5518c0	-0.20810223
6	0xbebbd9be	-0.36689562
7	0xbf1a314b	-0.60231465
8	0xbe8e80de	-0.27832693
9	0xbe989b2f	-0.29805896
10	0xbe873b23	-0.26412305
11	0xbe914a5c	-0.28377044
12	0xbea10390	-0.3144803
13	0x3e638892	0.22220066
14	0x3c998f42	0.018745068
15	0xbe98e38b	-0.29861102
16	0xbeb73b9b	-0.35787663
17	0x3c5ee4a7	0.01360432
18	0xbe9b6874	-0.3035313
19	0x3e6595d3	0.22420435
20	0x39042df7	0.00012605624
21	0xbeb06f00	-0.34459686
22	0xbe9886eb	-0.29790434
23	0x3eb255ba	0.3483103
24	0xbe1285c7	-0.14308845
25	0x3ebd51e2	0.36976534
26	0x3dd53e89	0.10412318
27	0x3efda17d	0.49537268
28	0xbdb86681	-0.09003926
29	0x3ea86aad	0.32893887
30	0x3e5ee519	0.21767081
31	0xbe8344b9	-0.2563837
32	0x3dd0c702	0.10194208
33	0xbef3a0bb	-0.47583565
34	0xbe656b5f	-0.2240424
35	0x3ebfc423	0.37454328
36	0xbe6545a1	-0.22389843
37	0xbecd8336	-0.40139169
38	0x3f34bef3	0.70603865
39	0xbd0307e7	-0.031989958
40	0x3eaac3cb	0.33352503
41	0xbe3f6a45	-0.18692882
42	0xbf28c2dd	-0.6592234
43	0x3f442a77	0.76627296
44	0x3e9aae73	0.3021122
45	0x3c46feef	0.012145742
46	0xbf23122e	-0.63699615
47	0xbf45b532	-0.7722961
48	0xbea3fbd4	-0.32028067
49	0xbf34c65b	-0.70615166
50	0xbee5b00f	-0.44860885
51	0xbf329e4b	-0.69772786
52	0xbefc96d1	-0.49333814
53	0x3ef8d60c	0.48600805
54	0xbe1e72b1	-0.15473439
55	0xbf000979	-0.50014454
56	0xbf12dae5	-0.57365257
57	0x3e4ce45b	0.20008986
58	0xbf318601	-0.693451
59	0x3e8f0351	0.27932218
60	0xbda9b7d8	-0.082870185
61	0xbef46cb1	-0.47739175
62	0xbea3bf41	-0.31981853
63	0x3f195661	0.5989743
64	0xbf1655d7	-0.5872473
65	0x3f00c55b	0.5030114
66	0x3d601d84	0.05471565
67	0x3f30fd85	0.6913684
68	0xbea13a68	-0.31489873
69	0x3ef435f6	0.4769742
70	0x3f1b13c1	0.6057702
71	0xbe95a43e	-0.2922687
72	0x3e342d56	0.1759542
73	0xbf7f9324	-0.99833894
74	0xbea02e2e	-0.31285232
75	0x3f52cda6	0.82345045
76	0xbe638964	-0.22220379
77	0xbf457216	-0.77127206
78	0x3f464e56	0.7746328
79	0xbe8ddbbf	-0.27706715
80	0xbf0a7784	-0.54088616
81	0x3f16c1e4	0.58889604
82	0x3eaf9562	0.34293658
83	0xbe72d515	-0.23714097
84	0xbe94047f	-0.2890968
85	0x3efcaf22	0.49352366
86	0x3d34604c	0.04403715
87	0x3dfe146b	0.12406238
88	0x3ebc4a5b	0.3677548
89	0xbe7d6abb	-0.24747746
90	0x3ebdf8f4	0.37104
91	0x3cfd9d4b	0.030958792
92	0x3f247d29	0.6425348
93	0xbdd2f327	-0.10300284
94	0x3f58f0e5	0.84742576
95	0x3f2920a1	0.6606541
96	0x3e612dcf	0.21990131
97	0x3f5a4888	0.85266924
98	0xbd885bf0	-0.06658161
99	0xbf51bce2	-0.8192884
100	0xbf78c832	-0.97180474
101	0xbefc4719	-0.49272993
102	0x3f191377	0.59795326
103	0xbdbf8848	-0.093521655
104	0xbf3e559d	-0.74349385
105	0x3e3eb689	0.18624319
106	0xbea0a811	-0.31378224
107	0x3e728d70	0.23686767
108	0x3e33ffae	0.17578003
109	0xbe6f3c9e	-0.23362967
110	0x3f542e3f	0.82883066
111	0x3ddd07e3	0.1079252
112	0xbf2812ec	-0.6565387
113	0xbf8508c3	-1.0393299
114	0x3f32b3b8	0.6980548
115	0x3ee93dca	0.45554954
116	0x3ef134c5	0.47110572
117	0xbdf973cb	-0.12180289
118	0x3f1549b3	0.5831558
119	0x3e74ca76	0.23905358
120	0xbdc4f062	-0.09616162
121	0xbcba603f	-0.022750972
122	0xbdc017c2	-0.093795314
123	0xbddfb21c	-0.109226435
124	0x3dd0b111	0.10190023
125	0xbe1c9a58	-0.15293252
126	0x3d316e7c	0.043318257
127	0xbd334b82	-0.04377318
128	0x3da95bcb	0.08269461
129	0x3e2ca119	0.16858329
130	0xbd2be4f7	-0.041966405
131	0x3dbf6810	0.0934602
132	0xbd78eaac	-0.060770676
133	0xbd90a6f5	-0.070630945
134	0x3c9cb48d	0.019129062
135	0xbe5556f7	-0.20833956
136	0xbda05334	-0.0782837
137	0xbe283b4f	-0.16428874
138	0x3d96bef1	0.07360638
139	0x3dbe25a4	0.09284523
140	0x3e3f9c5e	0.18711993
141	0x3d4a6a49	0.049417768
142	0xbd407b73	-0.04699273
143	0xbdbda34d	-0.09259663
144	0x3dec7069	0.11544878
145	0xbdcc4253	-0.09973588
146	0x3c7fd18e	0.015613927
147	0xbdf4305f	-0.119232886
148	0xbda5555c	-0.08072922
149	0x3d0749bc	0.033029303
150	0xbe713eda	-0.23559132
151	0x3d58e9dd	0.052957404
152	0xbd6270f8	-0.055283517
153	0x3e321b31	0.17393185
154	0xbe95d25b	-0.2926205
155	0xbe07ee9f	-0.1327462
156	0xbda9141f	-0.08255791
157	0x3cb47ec3	0.022033101
158	0x3e5caf6c	0.21551293
159	0xbd1fcbec	-0.039012834
160	0x3cc6385d	0.024196798
161	0xbdf35204	-0.118808776
162	0xbd554338	-0.052066058
163	0x3b142d84	0.0022610137
164	0x3e119773	0.1421793
165	0x3dfc5148	0.12320191
166	0x3d049984	0.032372966
167	0x3cba7b93	0.022764003
168	0xbc6b8064	-0.014373872
169	0x3e205730	0.1565826
170	0xbdb54466	-0.088509366
171	0x3e18dd74	0.14928228
172	0xbe83f69d	-0.25774089
173	0xbdd3f560	-0.10349536
174	0xbe1ab62a	-0.15108553
175	0xbe92fe74	-0.28709757
176	0x3c30b07d	0.010784266
177	0xbe94390a	-0.28949767
178	0x3c9b15b5	0.01893125
179	0x3d3186bb	0.04334138
180	0x3e9f3855	0.31097665
181	0x3e85f3a9	0.2616246
182	0xbe3f3eaa	-0.18676248
183	0xbde2d0dc	-0.11074993
184	0x3e5883e3	0.21144061
185	0xbe2bbba3	-0.16770796
186	0xbd69a47d	-0.057041634
187	0x3cd3446b	0.02578946
188	0x3d8136de	0.06309293
189	0xbd004f6a	-0.031325735
190	0xbeb4a1e2	-0.35279757
191	0x3dd88ed3	0.105741166
192	0x3dbd96c1	0.0925727
193	0x3e44fcf8	0.19237125
194	0xbe8ce640	-0.27519417
195	0xbe133502	-0.1437569
196	0xbe1e1e6d	-0.15441294
197	0xbcfd9ae7	-0.030957652
198	0x3e808f6c	0.25109422
199	0x3e087553	0.13326006
200	0xbe805b5d	-0.25069705
201	0x3e00fbf0	0.12596107
202	0xbe992b23	-0.29915723
203	0x3e6bf401	0.23042299
204	0xbe7ab455	-0.24482854
205	0x3e5510e4	0.20807225
206	0xbe6293ff	-0.22126769
207	0xbf3d8307	-0.74028057
208	0x3da6b7fd	0.08140562
209	0xbca0a7da	-0.019611288
210	0x3de78b90	0.11305916
211	0xbd81f661	-0.06345821
212	0xbeb6bd88	-0.35691476
213	0xbd6f9deb	-0.05850021
214	0x3e2effb4	0.1708973
215	0xbe0c7683	-0.13717084
216	0xbdc733ba	-0.09726663
217	0xbe324ee5	-0.17412908
218	0x3c3ba013	0.011451739
219	0xbe1af2a8	-0.15131629
220	0x3e09cd91	0.13457324
221	0x3e7ef6d6	0.24898848
222	0x3d038045	0.03210475
223	0x3dd95d5f	0.10613512
224	0x3dda8cc9	0.10671384
225	0xbd0cf612	-0.03441436
226	0xbe447ad3	-0.19187479
227	0x3dfada89	0.122487135
228	0x3e714c21	0.23564197
229	0x3dac6f9b	0.084197246
230	0x3d2bf948	0.04198578
231	0x3e404eaa	0.18780008
232	0xbe302a6f	-0.17203687
233	0xbd291ae3	-0.041285407
234	0xbe670088	-0.22558796
235	0x3e5d915e	0.21637484
236	0xbd069e7d	-0.03286599
237	0xbe3da9ef	-0.18521856
238	0x3f189ebe	0.5961722
239	0x3d31487a	0.04328201

linear.bias f4 [6]
0	0x3e5abc8d	0.21360989
1	0x3e8e5005	0.27795425
2	0xbda8679a	-0.082228854
3	0xbdeec4aa	-0.116586044
4	0xbd1bcceb	-0.038037222
5	0xbe8a2e79	-0.2698858
