models/532/state_dict.pt (torch_old, 25727 bytes, 10 tensors)

lstm.weight_ih_l0 f4 [80, 10]
0.5201977 -0.052367277 0.21502453 -0.06302741 0.7142049 0.57147896 0.2674921 0.6136894
0.65052086 0.12710677 0.5241802 -0.15479317 0.6066077 0.85358024 -0.800222 -0.30994904
0.26967904 -0.7875996 -0.3702782 0.32114923 -0.021511637 0.4023449 0.104196295 -0.48494822
0.31402197 1.3215892 0.655956 0.6344203 1.4147544 0.45191345 0.06648179 -0.67581916
0.10051104 0.45144886 -0.43429577 -0.7633981 -0.5950152 -0.48929894 -0.8290804 -0.47572082
0.0066404343 -0.08133099 0.31093067 0.38271734 -0.11832588 -0.13320526 0.25156367 -0.021767437
0.18170235 0.06458758 0.2367753 0.06584701 -0.18985459 -0.18838497 0.4954368 0.6178528
0.31799054 0.5806087 0.6527631 0.5836623 -0.34032577 -1.1199803 -0.5610074 0.32527995
-0.06045359 -0.88541 -0.8605546 -0.15718666 -0.79820937 -0.8371817 -0.36943734 -0.33300188
-0.6619854 -0.87597907 0.84854114 -0.45077807 -0.055154685 0.68813384 -0.25060493 -0.3130679
-0.20459294 -0.10844166 -0.6969188 -1.4438877 1.1814412 0.24893863 -0.38894552 1.3839622
0.25466308 -0.24094771 -0.2633629 -0.8232548 -0.85994285 -0.16719632 0.07619441 -0.35531202
-0.8494913 0.22303477 -0.3301296 -0.69535536 -0.14060457 -0.92355335 -0.053796776 0.7251474
-0.12195345 -0.7383751 -0.6955022 -0.14617312 -0.46376792 -0.6124247 0.03497785 0.08186216
0.92046386 0.34608507 -0.94089234 -0.21419568 0.24560846 -1.0234828 -0.14573763 -0.123820804
-0.07375739 0.49363527 0.48689157 0.17818923 -1.0656722 -0.33858132 0.610209 -0.853569
-0.3423612 0.52665734 -0.024855066 0.3901828 0.47628865 0.65507305 -0.7214366 -0.27003494
0.025458615 -0.4914316 -0.4842041 0.12946315 -0.30578312 -0.36555263 0.4695856 0.96581894
-0.5169965 -0.5295073 -0.10550078 -0.37975976 -0.330065 -0.11019962 -0.5742333 0.8461044
0.52010125 -0.16652115 -0.23485018 0.26593858 0.92715245 -0.24787436 0.15717597 1.0208584
-0.11333811 1.2852056 0.7591408 0.21114326 -0.8360065 0.23929295 1.9398082 -0.5216331
0.19012663 1.7787701 -0.13625601 -0.123846665 -0.06563879 -0.08759668 0.10986426 0.10160872
-0.034448024 -0.017491324 -0.10844865 -0.27593622 0.07062221 -0.634007 0.18900676 0.8638299
-0.18662831 -0.7685938 -0.37705564 -0.42440844 -0.9916098 -0.5435961 0.012438948 -0.061616577
0.44628212 0.94660133 -0.62475604 -0.4350028 -0.04719032 -0.77179116 -0.410837 0.22927399
0.06654143 0.18248522 -0.22037284 0.2028735 -0.019392937 -0.14496505 -0.065916434 -0.024768502
0.057335347 0.15065837 0.17998281 -0.13194601 -0.18172373 -0.15274432 0.07113218 0.0748786
0.10001624 -0.04208611 -0.21303968 0.12669826 0.16897866 -0.035175964 0.08742258 0.0053961575
0.19775724 0.16246963 0.19073114 0.17657945 -0.016420826 -0.1773021 -0.007846937 -0.17107964
-0.16619226 -0.088928595 -0.079549074 -0.0019115508 0.17942247 -0.17293146 -0.13377118 -0.022650063
0.21442342 0.21759781 0.062645465 0.036040276 0.1312536 -0.0938212 0.04678628 -0.02455853
0.20522645 -0.021245286 -0.12469003 0.07883555 -0.12972826 0.16736251 0.011549085 -0.0708909
00000000: ad2b 053f 127f 56bd 642f 5c3e 8414 81bd
00000010: 22d6 363f 724c 123f b9f4 883e c01a 1d3f
00000020: 8988 263f 4728 023e ac30 063f 1a82 1ebe
00000030: a44a 1b3f 3c84 5a3f 59db 4cbf a4b1 9ebe
00000040: 5f13 8a3e 21a0 49bf 1b95 bdbe ac6d a43e
00000050: 2c39 b0bc 2700 ce3e de64 d53d 224b f8be
00000060: 7dc7 a03e d629 a93f bbec 273f 5e69 223f
00000070: ac16 b53f 3361 e73e 9b27 883d 7c02 2dbf
00000080: bbd8 cd3d 4e24 e73e 045c debe 0f6e 43bf
00000090: eb52 18bf 6485 fabe 9d3e 54bf ae91 f3be
000000a0: 0098 d93b dd90 a6bd 4e32 9f3e 87f3 c33e
000000b0: d754 f2bd f666 08be f4cc 803e a051 b2bc
000000c0: 2e10 3a3e 7e46 843d 3975 723e ccda 863d
000000d0: 3e69 42be fde7 40be e4a9 fd3e 9a2b 1e3f
000000e0: a8cf a23e c6a2 143f 7c1b 273f e46a 153f
000000f0: 2e3f aebe 845b 8fbf 2e9e 0fbf 188b a63e
00000100: 2f9e 77bd 3baa 62bf 4e4d 5cbf 8af5 20be
00000110: 7357 4cbf 8a51 56bf e426 bdbe 397f aabe
00000120: e077 29bf 2a40 60bf fe39 593f 62cc e6be
00000130: e1e9 61bd 8a29 303f 4a4f 80be 704a a0be
00000140: d080 51be a916 debd 4569 32bf 50d1 b8bf
00000150: 7739 973f c5e9 7e3e de23 c7be ac25 b13f
00000160: 3363 823e ffba 76be 81d7 86be d4c0 52bf
00000170: 3725 5cbf 8335 2bbe d10b 9c3d 75eb b5be
00000180: 4378 59bf 3a63 643e bf06 a9be cf02 32bf
00000190: a5fa 0fbe fe6d 6cbf 025a 5cbd 43a3 393f
000001a0: bbc2 f9bd 2706 3dbf 6f0c 32bf 68ae 15be
000001b0: fd72 edbe ddc7 1cbf ef44 0f3d 59a7 a73d
000001c0: 85a3 6b3f 1032 b13e 52de 70bf 1d56 5bbe
000001d0: c980 7b3e 7c01 83bf 3f3c 15be c395 fdbd
000001e0: 1d0e 97bd c3bd fc3e da49 f93e 3d77 363e
000001f0: f267 88bf 885a adbe a836 1c3f 7f83 5abf
00000200: f849 afbe 04d3 063f da9c cbbc 0ac6 c73e
00000210: 1bdc f33e deb2 273f 12b0 38bf 0542 8abe
00000220: 968e d03c ec9c fbbe 9ae9 f7be fd91 043e
00000230: 9b8f 9cbe b729 bbbe 866d f03e e93f 773f
00000240: e259 04bf ca8d 07bf cb10 d8bd df6f c2be
00000250: 48fe a8be 57b0 e1bd f400 13bf 4c9a 583f
00000260: 5b25 053f 8584 2abe 917c 70be 1a29 883e
00000270: dd59 6d3f c7d2 7dbe bdf2 203e 7dab 823f
00000280: d01d e8bd 9e81 a43f 0d57 423f f035 583e
00000290: 8604 56bf 3609 753e a34b f83f bf89 05bf
000002a0: 8eb0 423e bdae e33f b286 0bbe 52a3 fdbd
000002b0: a16d 86bd e365 b3bd 8300 e13d 3c18 d03d
000002c0: 5f19 0dbd f749 8fbc 531a debd 8347 8dbe
000002d0: 61a2 903d 484e 22bf fd8a 413e f523 5d3f
000002e0: 7e1b 3fbe 90c2 44bf 700d c1be 104c d9be
000002f0: 24da 7dbf 1d29 0bbf bbcc 4b3c aa61 7cbd
00000300: 177f e43e 7754 723f 03f0 1fbf b0b8 debe
00000310: a34a 41bd 1b94 45bf 3a59 d2be cdc6 6a3e
00000320: e046 883d 68dd 3a3e 6ba9 61be 12be 4f3e
00000330: f0dd 9ebc b871 14be 32ff 86bd 50e7 cabc
00000340: 78d8 6a3d 3046 1a3e 6a4d 383e db1c 07be
00000350: c915 3abe 0269 1cbe c0ad 913d f459 993d
00000360: 50d5 cc3d 7c62 2cbd 1327 5abe 30bd 013e
00000370: be08 2d3e ac14 10bd 9c0a b33d 40d2 b03b
00000380: e080 4a3e 705e 263e 064f 433e 3ed1 343e
00000390: f884 86bc af8e 35be 7090 00bc 802f 2fbe
000003a0: 4e2e 2abe 3220 b6bd a0ea a2bd 008d faba
000003b0: 86ba 373e f214 31be 50fb 08be a08c b9bc
000003c0: d091 5b3e f6d1 5e3e 444c 803d f89e 133d
000003d0: 5867 063e 5425 c0bd f8a2 3f3d f82e c9bc
000003e0: e226 523e 980a aebc 7d5d ffbd 8874 a13d
000003f0: 7cd7 04be 1461 2b3e 6038 3d3c 402f 91bd

lstm.weight_hh_l0 f4 [80, 20]
0.2101689 -0.046726465 0.13497537 -0.11214185 -0.053957835 -0.08408901 -0.014508754 0.13674846
0.1022526 0.1189926 -0.10471095 0.06374213 0.19848526 0.20034188 0.16010231 0.12942716
-0.06299223 -0.012557641 -0.07276365 0.15099066 -0.13305351 0.12519735 0.12882945 -0.025988191
-0.12564373 0.16038665 0.10086003 0.014427647 -0.0874563 -0.029063046 -0.18366234 -0.17469817
0.1304096 -0.115145154 0.08942559 -0.0939717 -0.031328425 -0.007950634 0.1161516 0.20836547
0.18129382 -0.041220963 -0.09898018 -0.1500892 0.21492004 -0.17354041 -0.06192766 0.17582244
0.11180413 -0.19137305 -0.18174404 -0.13877046 0.0720638 -0.21252649 0.009991735 0.042818934
0.21459648 0.14271 0.12912825 -0.14091189 0.15443367 -0.22123572 -0.19462444 0.01936157
0.07783541 -0.052969858 -0.14147916 -0.19981223 -0.19339415 -0.16496712 -0.009527206 0.14825451
-0.012927711 -0.11182406 0.10166848 -0.14628375 -0.088952586 -0.20984168 0.013153866 0.079781085
-0.15278131 0.19460171 0.19523782 -0.08776106 0.13261312 0.07685375 0.020811915 -0.19934604
-0.16828084 -0.1066047 -0.020764366 -0.11797981 -0.20284283 0.110593766 0.08965081 0.08881575
0.074465185 -0.12544386 0.064142376 0.20302078 -0.21422279 0.11587605 -0.11079934 -0.16853681
0.16769779 -0.22165723 0.022208005 0.19417575 0.22092387 0.18803936 -0.033053204 0.024299905
0.0045981407 0.21421501 0.04809782 -0.04926108 0.097807586 0.100625455 -0.04791476 0.13603282
-0.17381263 0.08206317 0.2051937 -0.049078345 0.089086175 0.20690265 -0.09579711 -0.11947068
-0.15068161 0.19871679 0.15184692 -0.2100073 -0.03923881 0.16798458 -0.1495848 0.09436959
0.20088777 -0.10871088 0.18269053 -0.13609944 -0.0088516325 -0.15954345 0.021365345 0.016783744
-0.038190648 0.2006776 -0.20527828 0.064119965 0.13806471 -0.19017568 -0.16274399 0.05013612
0.16523063 0.026270822 0.2040408 0.053156942 0.08367056 0.10639155 0.038148195 -0.05214134
-0.21533498 -0.18119247 0.032856286 0.12879798 0.11363891 0.12729841 -0.21130939 0.013565674
0.124791384 -0.18514791 0.033415407 0.051610798 0.11135888 -0.12311615 0.013913721 -0.03761138
0.14783311 -0.12140697 0.17374572 -0.04121995 -0.10982539 -0.14792898 -0.110957414 0.054283917
-0.094097495 0.08354932 -0.023288295 -0.031858325 0.18522787 -0.16315894 -0.19259736 -0.15032884
0.1831018 0.022049025 0.09777501 -0.13103595 0.00075623393 0.16114181 -0.18960616 -0.19119123
0.0824942 0.088066876 0.056238174 -0.034530327 0.094035745 -0.15670455 0.12128252 -0.13387004
-0.16677603 -0.0077670813 0.070950925 -0.09983815 -0.20622927 0.09451643 0.10057846 -0.14369544
-0.19002849 0.13544372 0.13447818 -0.1848481 0.21858054 0.15383956 0.17262068 -0.22217676
-0.06278524 -0.077169135 0.115386814 -0.07953891 -0.034174114 -0.22226109 -0.16008103 -0.19194885
-0.09228405 -0.19814014 -0.16845664 0.050641507 -0.20620234 -0.050856724 0.05866146 0.15911737
0.033821285 0.15321365 0.07206413 0.11301786 0.093875766 0.1944961 -0.01642786 -0.2063933
0.06630668 -0.029209793 0.09508583 -0.10604479 -0.029088467 -0.13061057 0.13247314 0.016452909
00000000: 8436 573e 4064 3fbd fc36 0a3e a0aa e5bd
00000010: e402 5dbd dc36 acbd 20b6 6dbc ca07 0c3e
00000020: d069 d13d 64b2 f33d b272 d6bd 3c8b 823d
00000030: b83f 4b3e 6c26 4d3e dcf1 233e 8e88 043e
00000040: 1202 81bd 90be 4dbc 1c05 95bd 4c9d 1a3e
00000050: 2e3f 08be bc33 003e deeb 033e 30e5 d4bc
00000060: c0a8 00be 663c 243e b48f ce3d f061 6c3c
00000070: 4a1c b3bd a015 eebc fb11 3cbe 14e4 32be
00000080: 188a 053e 39d1 ebbd c424 b73d 3c74 c0bd
00000090: 3c52 00bd 6043 02bc e4e0 ed3d c25d 553e
000000a0: 16a5 393e 50d7 28bd 1fb6 cabd fcb0 19be
000000b0: 0014 5c3e 94b4 31be dca7 7dbd cc0a 343e
000000c0: 90f9 e43d 4cf7 43be 1c1b 3abe d819 0ebe
000000d0: 3096 933d 8ba0 59be 60b4 233c e862 2f3d
000000e0: 2ebf 5b3e 9222 123e 323a 043e 354b 10be
000000f0: dc23 1e3e 9e8b 62be a14b 47be 289c 9e3c
00000100: 2c68 9f3d ecf6 58bd eadf 10be 949b 4cbe
00000110: 1e09 46be 24ed 28be 0018 1cbc 08d0 173e
00000120: c0ce 53bc 0304 e5bd 9037 d03d 68cb 15be
00000130: c62c b6bd bde0 56be 5083 573c 4464 a33d
00000140: b472 1cbe ac45 473e 6cec 473e 12bc b3bd
00000150: bccb 073e 8065 9d3d c07d aa3c 5e21 4cbe
00000160: d051 2cbe 9153 dabd 081a aabc 669f f1bd
00000170: 08b6 4fbe fc7e e23d d89a b73d 08e5 b53d
00000180: 3481 983d 5b74 00be 145d 833d aee4 4f3e
00000190: 385d 5bbe 6c50 ed3d c4ea e2bd ea94 2cbe
000001a0: f8b8 2b3e 1dfa 62be 90ed b53c 02d6 463e
000001b0: de39 623e 648d 403e cc62 07bd 9810 c73c
000001c0: 00ac 963b 2e5b 5b3e 3802 453d fcc5 49bd
000001d0: 584f c83d b814 ce3d 4442 44bd 304c 0b3e
000001e0: f0fb 31be bc10 a83d 4c1e 523e 6006 49bd
000001f0: d072 b63d 4ade 533e 4631 c4bd 0bad f4bd
00000200: 484c 1abe 6a7c 4b3e c27d 1b3e 270c 57be
00000210: e0b8 20bd 2604 2c3e c22c 19be d844 c13d
00000220: 86b5 4d3e cfa3 debd 3a13 3b3e a75d 0bbe
00000230: 7006 11bc 5c5f 23be 6006 af3c 107e 893c
00000240: cc6d 1cbd 6e7e 4d3e 7834 52be 5451 833d
00000250: d660 0d3e 6abd 42be 5ca6 26be 885b 4d3d
00000260: 3832 293e e835 d73c 12f0 503e 18bb 593d
00000270: 785b ab3d d0e3 d93d 4841 1c3d 2892 55bd
00000280: c680 5cbe 858a 39be 5094 063d 9ee3 033e
00000290: 84bb e83d 845a 023e 7d61 58be 9042 5e3c
000002a0: a092 ff3d 6a97 3dbe 98de 083d d865 533d
000002b0: 2010 e43d 5224 fcbd 60f6 633c 640e 1abd
000002c0: 9061 173e 38a4 f8bd 66ea 313e 40d6 28bd
000002d0: 22ec e0bd b27a 17be a43d e3bd d058 5e3d
000002e0: 30b6 c0bd e81b ab3d 18c7 bebc e07d 02bd
000002f0: 60ac 3d3e 2313 27be 3e38 45be ceef 19be
00000300: 0a7f 3b3e 28a0 b43c 443e c83d 4a2e 06be
00000310: 003e 463a 5c02 253e 1e28 42be a2c7 43be
00000320: b8f2 a83d 685c b43d 005a 663d ac6f 0dbd
00000330: d095 c03d 2877 20be f862 f83d 3a15 09be
00000340: 56c7 2abe 0083 febb b84e 913d f277 ccbd
00000350: c42d 53be d491 c13d 14fc cd3d e624 13be
00000360: d496 42be c2b1 0a3e a6b4 093e d248 3dbe
00000370: 94d3 5f3e 1e88 1d3e 7ac3 303e 4e82 63be
00000380: 8c95 80bd da0a 9ebd ec4f ec3d 4ce5 a2bd
00000390: 28fa 0bbd 6998 63be 48ec 23be 3d8e 44be
000003a0: 6cff bcbd 40e5 4abe e67f 2cbe 786d 4f3d
000003b0: b526 53be 244f 50bd 0047 703d aaef 223e
000003c0: 3088 0a3d 0ae4 1c3e 5c96 933d e875 e73d
000003d0: f041 c03d fc29 473e b893 86bc c458 53be
000003e0: cccb 873d 6049 efbc 5cbc c23d 032e d9bd
000003f0: f04a eebc c7be 05be 0aa7 073e 40c8 863c

lstm.bias_ih_l0 f4 [80]
0.8635358 0.633299 0.8910441 0.4251694 0.91981083 1.298017 0.30069652 0.5039562
0.29242975 0.7986555 0.31873363 0.7276645 0.91350955 0.86597824 0.35126528 0.7581623
0.8811212 1.245636 0.8364801 0.8167162 -0.021057397 -0.17025405 -0.12396925 0.12613517
0.03955081 -0.06981017 -0.16416243 0.12657511 -0.11689096 -0.022101268 -0.1715889 -0.10534593
-0.1014325 -0.15745346 0.20345396 -0.19914868 -0.058365867 0.05704543 0.1943349 0.15752906
0.16777192 0.2273001 -0.11664183 -0.23944855 -0.36363915 0.21072505 0.17157142 0.5609435
0.56873226 0.014214217 -0.18565652 0.14320016 -0.51785284 0.4760972 0.1699791 -0.02338092
-0.36431602 0.046116542 -0.016221272 0.1919517 1.050538 0.22619468 0.76530993 0.5615994
1.2361583 1.3632209 0.6663177 0.23107831 0.38144624 0.8951606 1.0363923 0.4388264
1.2560184 1.0979582 0.85434914 1.0488353 0.78197974 1.1433362 0.5177889 0.3866361
00000000: af10 5d3f e21f 223f 771b 643f ceaf d93e
00000010: b978 6b3f 6c25 a63f e5f4 993e 4603 013f
00000020: 5ab9 953e b074 4c3f 0e31 a33e 3848 3a3f
00000030: c3db 693f c0b0 5d3f 0bd9 b33e ed16 423f
00000040: 2991 613f 0071 9f3f 8f23 563f 5014 513f
00000050: 9080 acbc 1457 2ebe 97e3 fdbd 9429 013e
00000060: 0800 223d a2f8 8ebd 321a 28be e89c 013e
00000070: 8764 efbd b80d b5bc 00b5 2fbe 9bbf d7bd
00000080: d8bb cfbd 7b3b 21be 3c56 503e a2ed 4bbe
00000090: 0c11 6fbd 78a8 693d baff 463e 4c4f 213e
000000a0: 67cc 2b3e 5bc1 683e e9e1 eebd 0032 75be
000000b0: e92e babe 4fc8 573e 6bb0 2f3e fe99 0f3f
000000c0: 7098 113f bfe2 683c be1c 3ebe 10a3 123e
000000d0: 0192 04bf 03c3 f33e 000f 2e3e 5889 bfbc
000000e0: a187 babe b3e4 3c3d 79e2 84bc fd8e 443e
000000f0: 0778 863f 949f 673e 5aeb 433f fac4 0f3f
00000100: 6f3a 9e3f 067e ae3f cc93 2a3f cb9f 6c3e
00000110: ec4c c33e 3f29 653f 81a8 843f dbad e03e
00000120: 36c5 a03f e589 8c3f a0b6 5a3f 3c40 863f
00000130: d32f 483f d758 923f d08d 043f 2bf5 c53e

lstm.bias_hh_l0 f4 [80]
0.75826067 0.41456977 0.87878853 0.6202582 1.2300054 1.0405121 0.1061692 0.40627676
0.3357247 0.9283898 0.3123456 0.5842316 0.7347246 0.90906775 0.43768564 0.8122166
0.75156385 1.4121872 0.6282333 0.9516939 0.11704633 -0.14211568 0.044410825 0.18504336
0.15996629 -0.21264459 -0.08516757 -0.109418035 0.0558244 0.119886845 -0.10578431 -0.024105191
0.17522779 -0.08598629 -0.1447244 -0.1792897 -0.038911983 -0.17415516 0.09977937 -0.12862027
0.5272779 0.20569654 0.080951884 -0.44775516 0.06458726 0.24548762 -0.03280998 0.4768857
0.49437433 0.07806409 -0.18691865 -0.21589941 -0.47635347 0.45418122 0.14571556 -0.18997648
-0.480683 0.009297601 0.18802802 0.11873876 1.1535048 0.4418381 0.90362 0.5186977
1.2071443 1.39835 0.7905611 0.24632867 0.7231553 0.8157254 1.0865067 0.39891276
0.9379045 1.0865709 1.0132753 0.9286864 0.9006707 1.2892643 0.4336684 0.5208572
00000000: 5f1d 423f 7d42 d43e 49f8 603f 3ec9 1e3f
00000010: d170 9d3f 802f 853f 3d6f d93d 8203 d03e
00000020: 1ce4 ab3e f4aa 6d3f c3eb 9f3e 3490 153f
00000030: e916 3c3f aab8 683f 5518 e03e 6ded 4f3f
00000040: 7d66 403f 8dc2 b43f e6d3 203f 36a2 733f
00000050: fcb5 ef3d c686 11be 20e8 353d 027c 3d3e
00000060: 34ce 233e 81bf 59be 566c aebd 9016 e0bd
00000070: 20a8 643d 3c87 f53d 72a5 d8bd 4078 c5bc
00000080: ea6e 333e 9419 b0bd a232 14be b897 37be
00000090: 2c62 1fbd bb55 32be 2059 cc3d 08b5 03be
000000a0: affb 063f 1da2 523e 1aca a53d 2a40 e5be
000000b0: 5346 843d 1b61 7b3e c263 06bd 5d2a f43e
000000c0: a21e fd3e 11e0 9f3d 9a67 3fbe bc14 5dbe
000000d0: 9ae4 f3be 718a e83e 7636 153e 3289 42be
000000e0: 151c f6be f754 183c 6b8a 403e 4f2d f33d
000000f0: 0ca6 933f 9a38 e23e a453 673f 5fc9 043f
00000100: b483 9a3f 22fd b23f 3662 4a3f 953d 7c3e
00000110: b520 393f 61d3 503f a712 8b3f 4b3e cc3e
00000120: 821a 703f c114 8b3f 01b3 813f 64be 6d3f
00000130: 5b92 663f 9d06 a53f c909 de3e e656 053f

lstm.weight_ih_l1 f4 [80, 20]
-0.77801216 -0.39478764 0.3944152 -0.984975 0.7427261 0.19246781 -0.28991237 -0.8508997
-0.09924097 1.4073805 0.37455583 -0.39300147 0.5948878 -0.67223793 0.7604341 -0.4699455
0.5220472 1.4757359 0.8012523 1.7587959 -1.0239735 -1.1622326 1.5147425 -0.5648613
0.5283459 0.30066985 1.54307 0.23581007 0.21388122 -0.2167237 -1.0189216 -0.38589415
0.13360281 -0.32702845 0.218698 0.09748265 0.0143020665 0.82252175 -0.13515504 0.8242708
0.2656517 0.21002826 0.0014235363 0.029822068 -0.18171848 -0.3909044 0.017396443 -0.33748278
-0.05769269 -0.16024302 0.062809564 -0.040869106 0.013948017 -0.16275427 -0.029031564 -0.021736806
0.08463776 0.07521189 -0.06359432 -0.13120937 0.54016757 0.02561879 -0.75504935 -0.4259418
-0.56314373 -0.53999835 0.38159764 0.27379236 0.4147886 -0.6111771 -0.32240796 0.41272652
-0.47226015 0.43541148 0.3168141 0.48288125 -0.446165 -0.9131279 0.56348264 -0.40402415
0.11695625 -0.03167115 -0.13073699 -0.0001830873 0.18984798 0.15680471 -0.07021285 -0.11607153
0.12294926 -0.15509653 -0.15955102 0.14383271 -0.068123944 -0.18568863 0.1432384 -0.13551809
-0.17416099 -0.15338673 -0.0013120626 0.12773693 1.1758847 0.46267524 -0.8016208 0.39371273
-0.34584358 -0.35363778 -0.8717451 -0.52712184 -0.096910216 0.500996 0.5743859 0.68566394
-0.07573365 0.5951554 -0.06046779 -0.15731354 -0.37077478 0.47305143 -0.87086475 -1.3103827
0.15972312 -0.12624206 -0.22172509 -0.20445986 0.17236312 0.044466283 0.17976715 0.030720277
0.17636803 0.10889226 -0.012172814 0.19272128 0.13958813 -0.109679826 -0.058096744 -0.051077075
-0.040493634 0.12201245 -0.1533202 0.20099807 0.07386802 1.3264606 -0.22386347 0.6521688
-0.014525851 -0.87756133 -1.0814738 -0.6784264 -0.60708624 0.66913635 0.3005654 0.2450142
0.090223536 0.14787601 -0.51882845 -0.6349256 0.2165703 0.47579533 -0.8243192 -1.0893399
-0.58915174 -1.0048509 0.8167059 -0.46368065 0.19990173 0.60063076 0.32945794 0.83549905
0.69753295 -1.3760473 -0.58912206 -0.12876952 -0.0204255 -0.14763692 0.7689567 0.048943985
-0.06112441 -0.08399971 0.19109926 1.0388175 0.6422158 -0.14356284 -0.34906814 0.67812717
0.38357988 -1.1380152 -1.1428694 -0.2680566 0.5223836 -0.06940489 0.9742809 -1.2376666
1.1530693 0.04389268 -0.7505743 -1.0841013 0.2052645 0.48974916 -0.46119624 0.46907976
-0.124595836 -0.0846281 0.15572357 0.22350988 -0.163989 -0.0024115802 0.070700765 0.018942911
-0.17898817 -0.22942056 0.0980469 -0.07218427 -0.16124003 0.04152525 -0.17630884 0.16374944
0.019904805 0.17767452 -0.07767272 -0.092945695 -0.14573374 -0.5464216 0.23572744 -1.2735448
0.34000823 0.5728184 0.967604 1.3260779 1.0397595 -0.5529777 -0.7097846 0.21905565
-0.112849995 0.067859836 0.48066387 0.94938326 -0.25221822 -0.2493435 0.60959864 0.89926136
-0.7282799 -1.2256677 0.32346687 -1.6223012 0.82439464 0.41197538 0.8496486 -0.11866449
0.082792364 0.3964317 -0.2101317 0.19337831 -0.19741175 -0.64113164 -0.077103436 0.24780367
00000000: ce2b 47bf 9b21 cabe caf0 c93e 5227 7cbf
00000010: 4c23 3e3f 4816 453e 656f 94be 90d4 59bf
00000020: da3e cbbd 0b25 b43f c8c5 bf3e 7d37 c9be
00000030: 914a 183f c917 2cbf cfab 423f b29c f0be
00000040: e3a4 053f eae4 bc3f df1e 4d3f 3920 e13f
00000050: 9011 83bf 0ac4 94bf 15e3 c13f c09a 10bf
00000060: ad41 073f 66f1 993e 5183 c53f 3278 713e
00000070: ae03 5b3e d1ec 5dbe 066c 82bf eb93 c5be
00000080: 2dcf 083e 4670 a7be 5ef2 5f3e fca4 c73d
00000090: 3753 6a3c c990 523f 1566 0abe 6903 533f
000000a0: 8003 883e a611 573e f495 ba3a 694d f43c
000000b0: 6914 3abe 9f24 c8be fc82 8e3c 8bca acbe
000000c0: 2c4f 6cbd bf16 24be 4da2 803d 5d66 27bd
000000d0: 3986 643c 0ea9 26be 9ad3 edbc 6311 b2bc
000000e0: 9056 ad3d b108 9a3d bd3d 82bd c05b 06be
000000f0: 6c48 0a3f 7fde d13c ea4a 41bf 0b15 dabe
00000100: 302a 10bf 553d 0abf c460 c33e 832e 8c3e
00000110: 2c5f d43e 1a76 1cbf a812 a5be e450 d33e
00000120: 15cc f1be 41ee de3e 7535 a23e 363c f73e
00000130: bd6f e4be c0c2 69bf 6640 103f 41dc cebe
00000140: c286 ef3d 9cb9 01bd ebdf 05be 1ffb 3fb9
00000150: 8267 423e 6a91 203e c1cb 8fbd e9b6 edbd
00000160: d2cc fb3d a0d1 1ebe 5861 23be e248 133e
00000170: 9184 8bbd 2925 3ebe 16ad 123e 41c5 0abe
00000180: 4257 32be 6911 1dbe 84f9 abba 78cd 023e
00000190: 6483 963f c5e3 ec3e 0537 4dbf b794 c93e
000001a0: 6912 b1be 0310 b5be b02a 5fbf 75f1 06bf
000001b0: dd78 c6bd 4641 003f f40a 133f ac87 2f3f
000001c0: 3e1a 9bbd 1b5c 183f 13ad 77bd cd16 21be
000001d0: 31d6 bdbe cc33 f23e fef0 5ebf 9fba a7bf
000001e0: 758e 233e 9945 01be e70b 63be ed5d 51be
000001f0: f57f 303e 4722 363d e114 383e 17a9 fb3c
00000200: d299 343e e802 df3d 7c70 47bc ba58 453e
00000210: 31f0 0e3e d19f e0bd daf6 6dbd 3236 51bd
00000220: a7dc 25bd aae1 f93d f8ff 1cbe 70d2 4d3e
00000230: 1e48 973d 76c9 a93f 773c 65be 89f4 263f
00000240: d6fd 6dbc dca7 60bf bc6d 8abf 5aad 2dbf
00000250: 016a 1bbf 854c 2b3f b5e3 993e 01e5 7a3e
00000260: 1ec7 b83d cf6c 173e f1d1 04bf 7c8a 22bf
00000270: 9bc4 5d3e 729b f33e 9506 53bf 7d6f 8bbf
00000280: a6d2 16bf f49e 80bf a313 513f 8d67 edbe
00000290: 0ab3 4c3e f0c2 193f b6ae a83e 44e3 553f
000002a0: 8591 323f 5122 b0bf b4d0 16bf 28dc 03be
000002b0: 6153 a7bc 222e 17be 59da 443f 7d79 483d
000002c0: 975d 7abd 0a08 acbd 86af 433e f9f7 843f
000002d0: 4168 243f 2302 13be 0fb9 b2be be99 2d3f
000002e0: 9564 c43e 7baa 91bf 8b49 92bf b73e 89be
000002f0: eeba 053f 2724 8ebd 796a 793f dc6b 9ebf
00000300: c697 933f d0c8 333d a325 40bf d5c3 8abf
00000310: db30 523e 67c0 fa3e ea21 ecbe 392b f03e
00000320: 1a2c ffbd 7f51 adbd 0076 1f3e c6df 643e
00000330: bbec 27be 9a0b 1ebb 90cb 903d 2a2e 9b3c
00000340: ad48 37be 39ed 6abe d0cc c83d 59d5 93bd
00000350: 1b1c 25be 6116 2a3d 4e8a 34be efad 273e
00000360: 670f a33c 4ff0 353e e012 9fbd 505a bebd
00000370: 3a3b 15be 49e2 0bbf 8962 713e 8403 a3bf
00000380: 8f15 ae3e 3aa4 123f e5b4 773f ecbc a93f
00000390: d716 853f f28f 0dbf 72b4 35bf 2050 603e
000003a0: e61d e7bd 19fa 8a3d 9319 f63e c80a 733f
000003b0: bf22 81be e753 7fbe a80e 1c3f fe35 663f
000003c0: 8d70 3abf aee2 9cbf 739d a53e 91a7 cfbf
000003d0: 870b 533f 70ee d23e 9282 593f 5e06 f3bd
000003e0: 0b8f a93d 19f9 ca3e c42c 57be f704 463e
000003f0: 4e26 4abe 3421 24bf 68e8 9dbd 3fc0 7d3e

lstm.weight_hh_l1 f4 [80, 20]
0.10345104 -0.09761864 0.18148354 0.018751249 -0.16198683 -0.039373085 -0.0585009 0.02994442
0.027611643 0.07603717 -0.1274681 0.120676905 0.09835261 0.134736 -0.15671605 -0.19003382
0.14748958 -0.1886972 0.16775802 -0.10417085 -0.1062425 -0.045442313 -0.17144011 0.16637054
-0.07265222 0.1520251 -0.14563555 -0.027602106 0.084649295 -0.12359868 0.1525436 -0.15224338
-0.094588846 -0.08124538 -0.0004453361 0.02106537 -0.21834223 0.05666539 0.08610153 0.16665328
0.22327334 0.035252005 -0.14997445 0.135661 -0.09481941 -0.100619495 -0.16882487 0.007074848
-0.12408419 -0.132797 0.012303397 -0.06800771 -0.18371603 0.14653835 -0.063068464 0.21986187
0.16102526 0.21474463 -0.14157686 0.00079979 0.12609053 -0.11790544 -0.07355611 0.16162533
0.035911232 0.08785716 0.11678496 0.026064754 -0.052572623 -0.14643309 -0.05450988 0.2202555
-0.088468164 0.16717303 0.00031162798 0.15548104 -0.10731711 -0.166708 0.093390405 0.13514689
0.17091751 0.023314416 0.07359755 0.1825273 -0.13983275 -0.15176445 0.10977924 -0.13554433
0.034431487 0.12187168 -0.19140413 -0.20211568 -0.01842232 0.22086313 -0.042240784 0.12117222
-0.0352647 0.19505107 0.22352967 -0.13107046 -0.14883877 0.032793492 0.19803691 -0.038857654
0.055078596 -0.098748244 -0.017214775 0.18554607 -0.22116578 0.19524348 0.14202955 0.16708013
0.013396293 0.10486969 0.19041413 -5.210936e-05 -0.22228594 0.08486375 -0.18716484 -0.024498627
0.22295222 0.13158467 0.030790985 -0.13548845 -0.04989578 0.14756069 0.20855144 0.21250775
-0.11781414 -0.06546529 -0.08307707 0.027148902 -0.14265731 0.19351909 0.13318881 0.1197103
-0.18282658 0.052772403 -0.068655565 -0.15906039 -0.12984684 -0.06669472 0.010229081 0.058695316
0.1977604 0.036498964 0.064510316 -0.21983463 0.015983015 -0.08696139 0.110651135 0.1283566
0.004050359 -0.011580065 0.02198708 0.21869114 0.10195708 -0.13480085 -0.15946043 0.20170033
-0.061286166 0.123342335 -0.15201575 -0.14016154 -0.09567307 -0.20553434 -0.13246545 -0.14763358
-0.18830884 -0.19075814 0.046990156 0.097430944 -0.05599588 -0.08372241 -8.3997846e-05 0.10489982
0.015750691 -0.11961027 -0.06355336 0.09595129 0.14081389 -0.043359786 0.00450702 0.04108119
-0.14956331 0.19874173 -0.03215207 -0.13358575 0.11547434 -0.2052418 0.20058635 -0.008622706
-0.13586986 -0.074724466 -0.214607 -0.10304586 0.036499023 -0.089772016 0.09198564 -0.08956869
-0.040465176 0.079987526 0.009694651 0.11754212 -0.040561944 0.106598586 -0.013489544 -0.039553434
0.1668126 0.09793946 -0.13367072 -0.05056365 0.09640336 0.12965035 -0.032871097 -0.05935727
0.083640754 0.01642394 -0.14758402 -0.14075616 0.05310446 0.12747744 -0.026985481 -0.07542127
-0.067065895 0.025679365 -0.0530587 0.13408238 0.046951175 0.10998052 0.12110719 -0.0050548017
0.17511252 0.0360263 -0.085701644 0.07058704 -0.09636381 -0.062592596 0.14600828 0.1786446
0.20777854 -0.06337161 -0.07167113 0.023385659 0.20468232 0.016770437 0.16290596 0.22001675
0.16640514 0.12985456 -0.2114805 0.20548752 -0.062043265 0.14738217 0.04296559 -0.046101004
00000000: 24de d33d 48ec c7bd d2d6 393e 389c 993c
00000010: e0df 25be ac45 21bd a49e 6fbd 004e f53c
00000020: d031 e23c 60b9 9b3d ff86 02be 7425 f73d
00000030: 186d c93d 3cf8 093e 2c7a 20be 3a98 42be
00000040: 8207 173e d739 41be c2c8 2b3e 8757 d5bd
00000050: ab95 d9bd b821 3abd ff8d 2fbe 0a5d 2a3e
00000060: b0ca 94bd 78ac 1b3e 7c21 15be d01d e2bc
00000070: 9c5c ad3d 4e21 fdbd 6434 1c3e b0e5 1bbe
00000080: ccb7 c1bd fa63 a6bd 007c e9b9 4891 ac3c
00000090: 1b95 5fbe f819 683d 0056 b03d 28a7 2a3e
000000a0: c4a1 643e 6864 103d e792 19be b8ea 0a3e
000000b0: ae30 c2bd 9811 cebd 6de0 2cbe 20d4 e73b
000000c0: da1f febd f0fb 07be 3094 493c a047 8bbd
000000d0: 0e20 3cbe 260e 163e 0a2a 81bd 7823 613e
000000e0: cee3 243e 04e6 5b3e 86f9 10be 00a9 513a
000000f0: e01d 013e 6878 f1bd 96a4 96bd 1c81 253e
00000100: a817 133d 74ee b33d f42c ef3d c085 d53c
00000110: 6456 57bd 8ef2 15be c045 5fbd a88a 613e
00000120: cc2e b5bd 682f 2b3e 0062 a339 6c36 1f3e
00000130: 13c9 dbbd 80b5 2abe 7843 bf3d f263 0a3e
00000140: 0005 2f3e e0fd be3c 50ba 963d 70e8 3a3e
00000150: 5130 0fbe 2468 1bbe f0d3 e03d 22cc 0abe
00000160: 0808 0d3d dc97 f93d 72ff 43be 6af7 4ebe
00000170: 68ea 96bc f229 623e ac04 2dbd 2429 f83d
00000180: b871 10bd 78bb 473e f6e4 643e 5637 06be
00000190: 3169 18be 7852 063d 30ca 4a3e 3429 1fbd
000001a0: 189a 613d 853c cabd 0006 8dbc caff 3d3e
000001b0: 4879 62be e8ed 473e 3270 113e 0e17 2b3e
000001c0: 207c 5b3c ecc5 d63d ecfb 423e 0090 5ab8
000001d0: ed9e 63be 0ccd ad3d 24a8 3fbe 58b1 c8bc
000001e0: 964d 643e 22be 063e 603d fc3c 7cbd 0abe
000001f0: 845f 4cbd 261a 173e 828e 553e a29b 593e
00000200: 8a48 f1bd aa12 86bd 5024 aabd 6067 de3c
00000210: c214 12be de29 463e a662 083e ac2a f53d
00000220: e436 3bbe e027 583d 4a9b 8cbd bae0 22be
00000230: 92f6 04be 3e97 88bd e097 273c 806a 703d
00000240: b481 4a3e f07f 153d fc1d 843d 541c 61be
00000250: d0ee 823c d018 b2bd 109d e23d ea6f 033e
00000260: e0b8 843b 50ba 3dbc 401e b43c 92f0 5f3e
00000270: e0ce d03d 3c09 0abe 9849 23be 888a 4e3e
00000280: 3407 7bbd e89a fc3d 04aa 1bbe 8286 0fbe
00000290: 3ef0 c3bd 9877 52be 06a5 07be 422d 17be
000002a0: 08d4 40be 1a56 43be c078 403d e089 c73d
000002b0: f05b 65bd a876 abbd 0028 b0b8 b8d5 d63d
000002c0: 9807 813c 3bf6 f4bd 4428 82bd 1c82 c43d
000002d0: 8431 103e 089a 31bd a0af 933b c044 283d
000002e0: 2027 19be f482 4b3e e4b1 03bd b4ca 08be
000002f0: d07d ec3d e82a 52be 8266 4d3e 4046 0dbc
00000300: 7821 0bbe 2409 99bd f0c1 5bbe b509 d3bd
00000310: 0080 153d 64da b7bd f862 bc3d ca6f b7bd
00000320: d0be 25bd 80d0 a33d 50d6 1e3c ecb9 f03d
00000330: 4824 26bd 5c50 da3d 4003 5dbc c802 22bd
00000340: ecd0 2a3e 7c94 c83d fae0 08be d41b 4fbd
00000350: 206f c53d 10c3 043e d8a3 06bd 9c20 73bd
00000360: d84b ab3d 808b 863c 4420 17be 6222 10be
00000370: 1084 593d 7289 023e a810 ddbc 7876 9abd
00000380: d859 89bd 885d d23c 1454 59bd e44c 093e
00000390: e04f 403d 783d e13d 0c07 f83d c0a2 a5bb
000003a0: b250 333e 5090 133d 5884 afbd f08f 903d
000003b0: 645a c5bd 8c30 80bd 3283 153e 9cee 363e
000003c0: e6c3 543e fac8 81bd 50c8 92bd 4893 bf3c
000003d0: 3e98 513e 2862 893c d2d0 263e 124c 613e
000003e0: 1c66 2a3e 98f8 043e 588e 58be 526b 523e
000003f0: 1421 7ebd 5aeb 163e b0fc 2f3d 68d4 3cbd

lstm.bias_ih_l1 f4 [80]
-0.14855431 0.39341962 -0.39780673 0.71641004 -0.133792 0.59329283 -0.09883427 -0.021827167
0.302934 -0.30922785 -0.18743771 0.8612008 0.34253222 0.10072455 0.27712154 0.5493403
0.05282911 0.7874365 -0.025131615 -0.10698875 0.033427358 -0.030107424 -0.003796965 0.17554146
-0.074259 -0.13346758 0.0661259 -0.068575084 0.07060021 -0.1423612 -0.06802088 0.09656951
0.19042367 -0.08898726 0.016013443 -0.019336239 0.08117151 -0.15403694 0.14959916 0.11212456
0.8426336 0.29224345 -0.46449858 0.28552324 -0.39825687 0.3228421 -0.31877583 0.17981163
0.6059804 0.4078261 -0.28348976 0.17096291 0.8365115 0.07971283 -0.045223482 0.3235417
-0.3124621 0.41485465 -0.67310965 -0.5381346 0.51638615 0.47870567 -0.16994262 0.36168742
-0.040866334 0.4665938 -0.048399206 -0.046375457 0.46424794 0.08574321 -0.22131115 0.31157476
-0.066995464 -0.14467253 0.22398801 0.7005928 0.0383156 0.74312985 -0.027539613 -0.25072417
00000000: 9f1e 18be 4c6e c93e 53ad cbbe a666 373f
00000010: c500 09be 0ae2 173f 9f69 cabd e3ce b2bc
00000020: 2a1a 9b3e 1d53 9ebe acef 3fbe a877 5c3f
00000030: 6260 af3e ac48 ce3d e0e2 8d3e 91a1 0c3f
00000040: 5663 583d 7095 493f d1e0 cdbc eb1c dbbd
00000050: 20eb 083d d8a3 f6bc 80d6 78bb 24c1 333e
00000060: 1a15 98bd baab 08be 046d 873d 1871 8cbd
00000070: d896 903d 22c7 11be 884e 8bbd 3cc6 c53d
00000080: 6cfe 423e f43e b6bd a02e 833c 0867 9ebc
00000090: 403d a63d dcbb 1dbe 8630 193e 90a1 e53d
000000a0: d6b6 573f efa0 953e c2d2 edbe 1a30 923e
000000b0: 53e8 cbbe 8f4b a53e 9636 a3be 8a20 383e
000000c0: 8821 1b3f 95ce d03e 9225 91be e710 2f3e
000000d0: 9e25 563f 7b40 a33d 423c 39bd 42a7 a53e
000000e0: 08fb 9fbe d467 d43e ea50 2cbf 30c3 09bf
000000f0: e231 043f e918 f53e 7005 2ebe 182f b93e
00000100: 7563 27bd 62e5 ee3e 3f3e 46bd 31f4 3dbd
00000110: e8b1 ed3e 239a af3d 649f 62be ba86 9f3e
00000120: eb34 89bd 0925 14be 1d5d 653e 0d5a 333f
00000130: d2f0 1c3d c23d 3e3f c19a e1bc eb5e 80be

lstm.bias_hh_l1 f4 [80]
-0.066805206 0.49351215 -0.07193337 0.40946755 0.13480724 0.45202824 -0.13023186 0.17850925
0.16058707 -0.27090147 -0.16879106 0.5770209 0.62984824 0.035442308 0.2815342 0.48523468
-0.090361245 0.8673123 -0.006962846 -0.12784532 -0.07768217 0.11239228 0.11732918 -0.033326536
0.18287987 0.118914425 -0.0029709935 -0.20505509 0.14047837 -0.1136353 -0.16332194 0.2192086
-0.04991442 -0.054732323 0.12894672 0.021459445 0.023296386 -0.09427278 0.20226607 -0.008049801
0.49706635 0.38094264 -0.389132 0.5296609 -0.13674124 0.49947137 -0.39052367 0.38861355
0.6440296 0.23539542 -0.33920532 -0.10035842 0.6269417 -0.091323845 0.12995276 0.5391453
-0.23556592 0.10978907 -0.86060077 -0.48455065 0.38655564 0.43817684 -0.1582409 0.4380579
-0.070109844 0.30635464 -0.08243379 0.10109774 0.44934443 0.28652304 -0.12313675 0.6631102
-0.071813144 0.086595 0.13014965 0.78483385 0.10748705 0.8711209 0.06668407 -0.25938973
00000000: 2bd1 88bd a0ad fc3e cd51 93bd bba5 d13e
00000010: e90a 0a3e 3f70 e73e 805b 05be 21cb 363e
00000020: f070 243e 99b3 8abe 90d7 2cbe a4b7 133f
00000030: bc3d 213f f42b 113d 4025 903e ae70 f83e
00000040: 510f b9bd 2e08 5e3f 9628 e4bb e2e9 02be
00000050: d417 9fbd ec2d e63d 484a f03d 6881 08bd
00000060: dc44 3b3e 6889 f33d 00b5 42bb f6f9 51be
00000070: 90d9 0f3e a0b9 e8bd de3d 27be 3878 603e
00000080: 1073 4cbd 002f 60bd 9c0a 043e b8cb af3c
00000090: 10d8 be3c 1612 c1bd d61e 4f3e 50e3 03bc
000000a0: 7b7f fe3e ea0a c33e 4f3c c7be db97 073f
000000b0: e505 0cbe b6ba ff3e b8f2 c7be 5bf8 c63e
000000c0: 20df 243f 7f0b 713e 52ac adbe b788 cdbd
000000d0: 407f 203f ff07 bbbd 5612 053e 6d05 0a3f
000000e0: 3138 71be 18d9 e03d 5550 5cbf 0617 f8be
000000f0: 9fea c53e b758 e03e e709 22be 2049 e03e
00000100: c095 8fbd 84da 9c3e 0cd3 a8bd 550c cf3d
00000110: 7910 e63e 26b3 923e 1f2f fcbd 97c1 293f
00000120: c512 93bd b858 b13d f345 053e dfea 483f
00000130: 2c22 dc3d c801 5f3f a891 883d bbce 84be

linear.weight f4 [6, 20]
-1.6797763 -0.66186655 -0.12135311 3.9666739 0.21013497 2.457296 -0.13161755 1.6236094
0.7313153 -3.3179457 0.0075104684 1.0186781 -0.93288445 0.6450116 0.14980963 3.1572785
-0.14002112 2.223561 -2.245417 0.2820155 -0.10890501 -0.9556867 -0.0014505528 0.6518117
-0.14170003 0.8276468 -0.08577334 0.95742 -0.59536433 0.059367955 0.16785167 -0.3906511
-0.80886763 0.6617848 0.3147882 0.41442424 0.04399935 -0.08539959 -0.52982104 0.054304063
-0.4583218 -1.5175134 -0.15148963 -0.49461988 -0.15636764 0.40274838 0.11583844 1.0016868
-3.3344407 3.224834 0.15017128 -3.174301 -1.4020681 1.45128 1.7999086 -0.0018631741
0.102523126 -2.8265047 -0.6778382 -0.0644731 -0.14167504 0.57016414 0.18277569 -0.03305865
0.06832623 -0.09031195 0.019373013 -0.4904243 0.45102558 -1.6814187 0.11914101 0.3374793
0.40346953 -0.81321836 -0.9243864 -0.12184972 0.03783737 0.114507906 0.15004 -0.033333026
-0.3670866 -0.016633196 -0.07920442 0.052741375 -0.049475346 0.0013116477 -0.17473781 -0.075589344
0.06486274 -0.92172027 0.005607077 0.055321913 -0.18418032 -0.11283205 -0.20429097 0.062644415
-0.11912936 0.033851124 -0.38716424 -0.081460856 -1.5276017 -0.31214535 0.2517098 0.63757735
-0.12741749 0.46105057 0.180647 0.24890321 0.08841054 -1.1111503 -0.012934371 0.05025939
-1.0067931 0.2856785 -0.03725027 0.7304204 0.023581699 0.16363327 -0.39646 0.12439712
00000000: e902 d7bf 1670 29bf fb87 f8bd fcdd 7d40
00000010: 9f2d 573e 5644 1d40 c0c6 06be 6fd2 cf3f
00000020: 7b37 3b3f 3959 54c0 601a f63b 0b64 823f
00000030: 84d1 6ebf 7b1f 253f b267 193e da10 4a40
00000040: b261 0fbe d34e 0e40 eab4 0fc0 5664 903e
00000050: 9709 dfbd e2a7 74bf 7a20 beba 22dd 263f
00000060: d019 11be a9e0 533f efa9 afbd 7a19 753f
00000070: cc69 18bf d02b 733d 4fe1 2b3e 6c03 c8be
00000080: f311 4fbf bb6a 293f eb2b a13e 6a2f d43e
00000090: aa38 343d fbe5 aebd 5aa2 07bf f06d 5e3d
000000a0: 28a9 eabe e13d c2bf 1920 1bbe d13e fdbe
000000b0: d71e 20be 0935 ce3e b43c ed3d 4637 803f
000000c0: 7a67 55c0 ae63 4e40 80c6 193e bf27 4bc0
000000d0: f876 b3bf 8bc3 b93f 6863 e63f c035 f4ba
000000e0: a5f7 d13d 74e5 34c0 ce86 2dbf 790a 84bd
000000f0: 4313 11be 47f6 113f 8d29 3b3e 8268 07bd
00000100: 9fee 8b3d 79f5 b8bd 27b4 9e3c e518 fbbe
00000110: d3ec e63e ba38 d7bf 3400 f43d 16ca ac3e
00000120: 8f93 ce3e 142f 50bf 96a4 6cbf 598c f9bd
00000130: 5cfb 1a3d 1f83 ea3d 16a4 193e 3688 08bd
00000140: c6f2 bbbe 5742 88bc ed35 a2bd 5707 583d
00000150: a9a6 4abd 98eb ab3a 78ee 32be 96ce 9abd
00000160: c2d6 843d dcf5 6bbf 92bb b73b 3b99 623d
00000170: c499 3cbe 7d14 e7bd a731 51be b74b 803d
00000180: 18fa f3bd 7aa7 0a3d 643a c6be f3d4 a6bd
00000190: 7488 c3bf 84d1 9fbe 1be0 803e 4538 233f
000001a0: bb79 02be d20e ec3e 87fb 383e 7ce0 7e3e
000001b0: 9610 b53d 2c3a 8ebf afea 53bc cadc 4d3d
000001c0: 99de 80bf 7444 923e bd93 18bd d5fc 3a3f
000001d0: 682e c13c 7b8f 273e cefc cabe ebc3 fe3d

linear.bias f4 [6]
0.48012134 -0.15720588 -0.5167945 0.2921781 0.25515816 -0.16499901
00000000: 77d2 f53e 94fa 20be a54c 04bf 5e98 953e
00000010: 17a4 823e 80f5 28be
