models/369/state_dict.pt (torch_old, 25727 bytes, 10 tensors)

lstm.weight_ih_l0 f4 [80, 10]
-0.5222393 -2.082671 -0.10977273 0.08405347 0.52144027 -2.6603272 2.2833076 0.72376955
-2.655162 1.9820791 0.06549216 -0.119652286 -0.558051 0.6610898 0.49583408 -0.27733982
0.3010846 0.37277177 -0.0031077685 0.4264696 0.08447975 0.6633254 -1.4054655 1.5987226
1.4038815 0.82882243 -0.47178632 1.2976141 0.66844463 -0.61880887 0.09076602 -1.2778615
-1.2580457 1.1241556 1.1660571 -1.5864292 1.546756 1.476401 -1.5028106 1.83077
0.46427274 -0.70496994 -1.1888139 0.81111395 1.5776057 -0.5415064 0.6679718 1.6343458
-0.53933513 0.54409945 -0.50443643 1.8767612 0.7645862 -0.6572541 -0.33381805 1.6895573
-2.2797856 -0.6335315 1.8342106 -2.5226905 0.031293195 -0.3539648 -3.5785189 2.3495493
3.066155 -0.27296317 0.13405016 3.0226262 0.048077982 0.108358815 0.2669972 -1.7930937
0.9894695 -1.0185597 -1.1647642 -1.9137564 1.4119045 -1.037205 -1.6996791 1.0025601
-0.66374445 -0.43448123 -1.7434149 1.5480253 3.4613845 -0.45765138 0.19787806 3.3128068
-0.31053033 0.44088867 0.13097347 -1.2152698 0.058612652 -0.12840633 0.85929877 -0.9618321
1.319586 0.81239235 -1.0292869 1.2317374 -0.08486282 1.3461777 -1.0559866 1.0761589
1.268717 1.5204135 -1.1794394 1.4417531 1.6328244 -0.90723103 0.037913688 0.6693319
-2.0866807 2.426507 2.5520215 0.9895785 -0.7469087 2.5873578 1.0107865 -0.79465634
-0.27425295 -1.7174585 0.9094264 -0.86344945 -0.86753166 -1.5613166 0.8874597 -0.81076986
-1.75299 1.0012193 -0.2710503 -0.16921094 -2.3231275 1.2709595 2.1160893 -0.21733078
0.049271323 1.8913543 -0.10759492 0.36573276 -0.01633396 0.07854574 -0.48548257 0.4963697
0.097634725 0.13619141 -0.11041739 0.42890686 -0.08974255 -0.25997585 0.14629784 -0.78973883
-0.7154437 0.5179325 0.76895833 -0.83148944 0.87990034 0.86216074 -0.78184676 1.1270136
0.19544767 1.3249143 -0.75993246 1.057577 1.2674137 1.1608915 -1.1463886 0.97366023
1.1317872 -1.1535327 0.2302333 -2.6325417 -0.021165432 -0.08375977 -0.006151447 -2.7565231
2.128178 -0.14142789 -3.110813 2.2175725 0.22164677 -0.37228462 -1.4355205 1.0572319
2.4698927 -0.21850376 0.28256825 2.5092893 -0.2661766 0.3249385 -0.031357333 -0.97153604
-0.98193645 0.97252345 1.367299 -0.77973354 0.92483664 1.543171 -0.78249425 1.0555291
-0.119240426 -0.18947673 -0.07000704 -0.21828903 0.038189977 -0.037732005 -0.09952612 -0.062836334
0.16092241 -0.00957337 0.20109716 -0.043578014 -0.18253583 0.14906737 -0.1590242 -0.22265801
-0.14568642 0.21646044 0.13376635 0.15923637 0.083514065 0.11275306 0.17983723 -0.09275466
-0.12294515 0.00433667 -0.027176097 -0.22186531 0.07179445 0.14275822 0.05595073 0.20148674
0.18526062 -0.2143369 -0.044852033 -0.20118755 -0.08106953 0.15223804 -0.17252855 0.18812951
-0.15763867 -0.09032269 0.08414218 0.12865025 -0.10797901 0.15657198 0.036563486 -0.18206093
0.08264452 -0.06285511 -0.06769493 0.01808098 -0.1733406 -0.1810947 -0.16819254 0.13846663
00000000: 7ab1 05bf 7b4a 05c0 86d0 e0bd 3a24 ac3d
00000010: 1c7d 053f cd42 2ac0 b621 1240 f648 393f
00000020: 2dee 29c0 c5b4 fd3f c120 863d 420c f5bd
00000030: 6edc 0ebf 2e3d 293f f7dd fd3e 7cff 8dbe
00000040: c327 9a3e f1db be3e b4ab 4bbb 395a da3e
00000050: b803 ad3d b2cf 293f 4be6 b3bf f1a2 cc3f
00000060: 64b2 b33f b52d 543f fa8d f1be 3818 a63f
00000070: 301f 2b3f 426a 1ebf 89e3 b93d f790 a3bf
00000080: a407 a1bf 55e4 8f3f 5c41 953f 1d10 cbbf
00000090: 1afc c53f b5fa bc3f 195c c0bf ac56 ea3f
000000a0: 28b5 ed3e e978 34bf 0e2b 98bf 2aa5 4f3f
000000b0: fcee c93f 2aa0 0abf 3300 2b3f 3e32 d13f
000000c0: de11 0abf 1a4a 0b3f bf22 01bf b639 f03f
000000d0: ecbb 433f ce41 28bf 33ea aabe 6a43 d83f
000000e0: 02e8 11c0 1f2f 22bf 6ac7 ea3f c373 21c0
000000f0: 4b2d 003d e03a b5be 7406 65c0 045f 1640
00000100: e23b 4440 d4c1 8bbe 7244 093e b572 4140
00000110: 6bed 443d 3aeb dd3d dbb3 883e 1884 e5bf
00000120: e04d 7d3f 2a60 82bf fe16 95bf f8f5 f4bf
00000130: 49b9 b43f 22c3 84bf 168f d9bf e453 803f
00000140: 28eb 29bf 5374 debe 3828 dfbf b125 c63f
00000150: 5387 5d40 4851 eabe 8ca0 4a3e 0705 5440
00000160: d5fd 9ebe 29bc e13e e91d 063e f68d 9bbf
00000170: d213 703d f37c 03be 01fb 5b3f a13a 76bf
00000180: 32e8 a83f f2f8 4f3f acbf 83bf 92a9 9d3f
00000190: 8fcc adbd 8d4f ac3f 922a 87bf 93bf 893f
000001a0: 5265 a23f e99c c23f dff7 96bf 5e8b b83f
000001b0: 6400 d13f 4b40 68bf 624b 1b3d 5659 2b3f
000001c0: 2d8c 05c0 e44b 1b40 5254 2340 0455 7d3f
000001d0: 6935 3fbf 4597 2540 7461 813f 996e 4bbf
000001e0: e26a 8cbe aed5 dbbf 2bd0 683f 060b 5dbf
000001f0: 8e16 5ebf 39d9 c7bf 8f30 633f 9d8e 4fbf
00000200: fa61 e0bf f427 803f 1bc7 8abe a245 2dbe
00000210: 1fae 14c0 cdae a23f 026e 0740 f68b 5ebe
00000220: bad0 493d e617 f23f ba5a dcbd 5341 bb3e
00000230: ccce 85bc 97dc a03d 2c91 f8be 2b24 fe3e
00000240: b7f4 c73d c375 0b3e 8322 e2bd ae99 db3e
00000250: f1ca b7bd 8e1b 85be 1acf 153e 532c 4abf
00000260: 5127 37bf 3997 043f 74da 443f 7edc 54bf
00000270: 2641 613f 91b6 5c3f 1c27 48bf fb41 903f
00000280: 6f23 483e cb96 a93f ef8a 42bf af5e 873f
00000290: 9d3a a23f 1898 943f ddbc 92bf cc41 793f
000002a0: 67de 903f f6a6 93bf 47c2 6b3e 907b 28c0
000002b0: 2163 adbc 3e8a abbd 1492 c9bb e06a 30c0
000002c0: 1134 0840 79d2 10be 8f17 47c0 b5ec 0d40
000002d0: 5ff7 623e 179c bebe 23bf b7bf 6053 873f
000002e0: b912 1e40 73bf 5fbe c9ac 903e 3298 2040
000002f0: 4d48 88be 575e a63e 8c70 00bd 96b6 78bf
00000300: 3060 7bbf 4cf7 783f a703 af3f 9e9c 47bf
00000310: 18c2 6c3f a186 c53f 8b51 48bf 941b 873f
00000320: 5334 f4bd 3006 42be da5f 8fbd 2987 5fbe
00000330: 186d 1c3d e08c 1abd 5ad4 cbbd 56b0 80bd
00000340: d8c8 243e a0d9 1cbc 6aec 4d3e dc7e 32bd
00000350: acea 3abe 1ea5 183e 3dd7 22be 7600 64be
00000360: d22e 15be cea7 5d3e 0cfa 083e dc0e 233e
00000370: 6c09 ab3d 14eb e63d 4027 383e 28f6 bdbd
00000380: abca fbbd a01a 8e3b 68a0 debc a930 63be
00000390: f808 933d 362f 123e 982c 653d 8a52 4e3e
000003a0: f6b4 3d3e 227b 5bbe c4b6 37bd 1c04 4ebe
000003b0: c807 a6bd 4ae4 1b3e 53ab 30be 06a5 403e
000003c0: 086c 21be 1afb b8bd bc52 ac3d e4bc 033e
000003d0: 1924 ddbd 6854 203e 98c3 153d 2e6e 3abe
000003e0: 8841 a93d 2eba 80bd a4a3 8abd 901e 943c
000003f0: 3380 31be e470 39be aa3a 2cbe 32ca 0d3e

lstm.weight_hh_l0 f4 [80, 20]
-0.15103973 -0.100222506 -0.18117416 -0.20685275 0.08274454 0.019050881 -0.08791426 -0.043187603
-0.027695298 -0.16934569 0.21303645 -0.111095496 0.06744489 0.1490081 0.12857473 0.010559797
-0.07717916 -0.04338804 0.20148396 -0.07024868 -0.033834606 -0.051691696 -0.18298304 -0.03557302
-0.13966711 0.073234975 -0.08941801 0.18228039 0.16882545 0.026593536 -0.07764456 -0.1579834
0.050706357 -0.047045827 0.0023057759 0.103744596 0.051576823 -0.04789993 0.0036123097 0.10573089
0.048732907 -0.012490734 -0.14532503 -0.12421811 0.065864384 0.07191181 0.103625566 -0.16640767
-0.19676661 0.18385899 0.14657474 0.15313148 0.22276127 0.14900592 0.19670838 0.15199411
-0.13503368 0.11905676 -0.12981784 -0.10875603 0.0663746 0.17885727 0.099261165 -0.10199655
0.06955615 0.17147699 -0.09266622 0.0095642805 -0.12455627 -0.03481765 -0.060883433 0.04537025
-0.078296244 0.03711188 -0.09897157 0.01134938 0.030514687 -0.10131063 -0.15624544 -0.008805543
-0.08723448 0.109065145 0.17623103 0.13249496 -0.20952235 0.131659 -0.082702056 0.14586821
0.076339334 0.15792006 0.09504369 -0.08876899 0.018022656 -0.16212554 -0.09185234 -0.05938287
0.06928435 0.037899077 0.09142202 0.095950276 0.039444923 -0.019553035 -0.061980516 -0.21983124
0.10609332 0.09867865 0.021412238 -0.16322912 0.11445379 0.056444615 -0.13188913 0.14915004
0.013810128 -0.13740358 -0.15914544 0.0008636862 0.07632992 -0.0558023 -0.12612255 -0.12390269
0.21238303 0.17355672 0.14630762 -0.15555707 -0.09235749 0.2055457 0.13331702 0.17534375
-0.043923154 0.16898689 -0.1777183 -0.11145572 0.03036347 0.03842309 0.14062881 0.039982796
0.1107102 -0.013106227 0.18641987 0.19903162 -0.18730347 0.20354965 0.18344599 0.03161019
0.15364537 0.07251859 -0.044326708 -0.054968983 0.07370207 0.22236341 0.12303439 0.101202965
-0.19380909 0.10103953 -0.10338143 0.15872386 -0.12823538 0.18874177 -0.20977214 0.14357725
0.092712164 0.14119709 -0.12655428 -0.009305805 0.07334107 0.11760616 0.0094777495 0.14763916
-0.06835355 -0.035126626 -0.11598717 0.011558369 0.058459044 -0.08792345 -0.030458227 0.2067132
-0.15478443 0.17489097 -0.1899525 0.05605519 -0.10026553 0.22243416 -0.02033846 0.19834739
-0.22261696 0.047502667 0.042740703 -0.08449341 0.10841459 0.054156393 0.016967937 -0.09325665
0.06298736 0.08424318 -0.20565686 0.06119129 0.032829016 0.1411655 -0.18309522 0.10862455
-0.07308768 0.21093786 -0.14013386 -0.1064357 0.16842616 0.15490973 0.049237013 -0.15478544
-0.039968252 0.18501309 0.14792943 -0.03183274 -0.20527093 0.1674374 -0.17950669 -0.0066664815
0.033367842 0.065518945 0.012934297 0.18054286 0.04429114 -0.13670656 -0.011715934 0.084694475
0.19715866 0.09014952 -0.076086536 0.22193596 -0.06373648 -0.18916054 0.011404797 -0.01132153
-0.028696999 -0.18485516 -0.05658619 -0.17593189 0.14593261 0.06033969 -0.05488059 0.07866064
0.04211545 0.13725346 0.12972635 0.06293738 -0.17094603 -0.060370147 -0.17098592 -0.20458288
0.21664408 0.038298905 0.06467259 -0.13344318 -0.14674287 -0.090677395 0.068621546 0.0021452159
00000000: 29aa 1abe 7541 cdbd b885 39be 35d1 53be
00000010: f875 a93d 9810 9c3c 640c b4bd 7ce5 30bd
00000020: 40e1 e2bc f568 2dbe 3a26 5a3e 0986 e3bd
00000030: 8c20 8a3d 9495 183e 18a9 033e 0003 2d3c
00000040: 1c10 9ebd a8b7 31bd d051 4e3e 8ade 8fbd
00000050: 2896 0abd acba 53bd e85f 3bbe 04b5 11bd
00000060: e504 0fbe 38fc 953d ca20 b7bd b6a7 3a3e
00000070: 94e0 2c3e b0da d93c 1c04 9fbd 67c6 21be
00000080: 78b1 4f3d 20b3 40bd 801c 173b 0c78 d43d
00000090: 3842 533d b832 44bd 80bc 6c3b 7089 d83d
000000a0: 289c 473d f0a5 4cbc 16d0 14be 1166 febd
000000b0: e8e3 863d 8046 933d a439 d43d c666 2abe
000000c0: 307d 49be 8845 3c3e b017 163e 80ce 1c3e
000000d0: 881b 643e 0295 183e ec6d 493e 58a4 1b3e
000000e0: 4546 0abe 08d4 f33d f8ee 04be 7bbb debd
000000f0: 68ef 873d 5c26 373e 7049 cb3d 91e3 d0bd
00000100: 7473 8e3d aa97 2f3e cac7 bdbd 80b3 1c3c
00000110: 5c17 ffbd f49c 0ebd e860 79bd 28d6 393d
00000120: c859 a0bd a002 183d 9bb1 cabd c0f2 393c
00000130: f0f9 f93c f37b cfbd cefe 1fbe 2045 10bc
00000140: fea7 b2bd 8c5d df3d e875 343e c2ac 073e
00000150: 078d 56be 9ed1 063e b25f a9bd 7a5e 153e
00000160: cc57 9c3d ccb5 213e 44a6 c23d 84cc b5bd
00000170: 40a4 933c 3d04 26be 141d bcbd 743b 73bd
00000180: f4e4 8d3d 103c 1b3d 783b bb3d 9481 c43d
00000190: 0091 213d b02d a0bc 48df 7dbd 711b 61be
000001a0: 7447 d93d 0818 ca3d b868 af3c 8925 27be
000001b0: c066 ea3d 7832 673d f20d 07be caba 183e
000001c0: e043 623c 86b3 0cbe 06f7 22be 0069 623a
000001d0: dc52 9c3d f490 64bd 4526 01be b2c0 fdbd
000001e0: f07a 593e dab8 313e aad1 153e 5a4a 1fbe
000001f0: ec25 bdbd 927a 523e 4284 083e 508d 333e
00000200: c4e8 33bd e60a 2d3e c9fb 35be e642 e4bd
00000210: d0bc f83c 8861 1d3d 0001 103e 00c5 233d
00000220: 08bc e23d 80bb 56bc dae4 3e3e f2ce 4b3e
00000230: 7bcc 3fbe 526f 503e 44d9 3b3e b079 013d
00000240: 3655 1d3e a084 943d ec8f 35bd 2827 61bd
00000250: 1cf1 963d 3cb3 633e 74f9 fb3d 8043 cf3d
00000260: e475 46be d0ed ce3d a5b9 d3bd 8288 223e
00000270: 2350 03be 8645 413e 82ce 56be ea05 133e
00000280: e0df bd3d f895 103e 7297 01be 6077 18bc
00000290: d833 963d 80db f03d 9048 1b3c b82e 173e
000002a0: f2fc 8bbd f0e0 0fbd ae8a edbd 505f 3d3c
000002b0: c072 6f3d 3611 b4bd 8883 f9bc a0ac 533e
000002c0: cf7f 1ebe 9e16 333e e882 42be 209a 653d
000002d0: 0458 cdbd c8c5 633e d89c a6bc 941b 4b3e
000002e0: b3f5 63be 2892 423d e010 2f3d e20a adbd
000002f0: 7808 de3d 18d3 5d3d 5800 8b3c 58fd bebd
00000300: 84ff 803d b087 ac3d b697 52be b8a3 7a3d
00000310: b877 063d b08d 103e 507d 3bbe 8c76 de3d
00000320: feae 95bd 1800 583e 407f 0fbe f6fa d9bd
00000330: e877 2c3e a8a0 1e3e c0ac 493d 1380 1ebe
00000340: c0b5 23bd 1274 3d3e d07a 173e 0c63 02bd
00000350: 8b32 52be b674 2b3e 9ad0 37be 8072 dabb
00000360: b8ac 083d cc2e 863d 60ea 533c 3ae0 383e
00000370: a06a 353d cefc 0bbe 30f4 3fbc 4c74 ad3d
00000380: f6e3 493e 50a0 b83d 42d3 9bbd 2e43 633e
00000390: 4688 82bd 4db3 41be 30db 3a3c f07d 39bc
000003a0: f815 ebbc ac4a 3dbe ecc6 67bd 7d27 34be
000003b0: 5c6f 153e c026 773d 78ca 60bd d418 a13d
000003c0: 4081 2c3d 2c8c 0c3e fcd6 043e 50e5 803d
000003d0: 7a0c 2fbe b046 77bd ef16 2fbe 2d7e 51be
000003e0: f2d7 5d3e 50df 1c3d 1073 843d 54a5 08be
000003f0: c343 16be 12b5 b9bd 7489 8c3d c096 0c3b

lstm.bias_ih_l0 f4 [80]
1.11401 1.9048523 0.5286411 -0.22602648 1.7101289 0.6399489 0.33936203 -0.3280087
-1.4637038 2.0913038 0.18348247 0.1544664 -0.28652292 1.3943114 2.2528496 -0.124160655
0.2611808 0.21298008 -0.86852705 0.72395205 -0.21760948 -0.117429465 0.19243118 0.013884261
-0.008986622 0.067050934 0.02312982 0.1885444 -0.142026 0.1776345 0.005713135 0.16936162
-0.22336265 0.044057727 0.102784485 -0.14740965 0.017282635 -0.1277408 -0.062748075 0.16926381
0.06933855 0.12236149 0.49339142 0.006481259 -0.9349134 0.29694024 -1.6770657 0.095346995
-1.0944306 -0.3928332 0.057746917 0.3925248 -0.67940426 1.6328806 0.0742045 0.11186389
-0.5482662 -1.4035573 1.3839805 0.2723987 1.3426468 0.34807348 -1.1969274 0.23660193
0.7201961 -0.11790323 0.26885328 0.05380186 0.011086411 0.3464309 -0.1999992 -0.28159428
-0.7673636 -0.03047129 1.2891681 -0.43284643 -0.36875737 -0.22191785 -0.49012026 1.488563
00000000: e197 8e3f 33d2 f33f 0655 073f 7c73 67be
00000010: 81e5 da3f b1d3 233f dcc0 ad3e c2f0 a7be
00000020: a55a bbbf ecd7 0540 d4e2 3b3e 712c 1e3e
00000030: 22b3 92be cc78 b23f b02e 1040 f147 febd
00000040: 7db9 853e 7317 5a3e ca57 5ebf ec54 393f
00000050: 05d5 5ebe dc7e f0bd ae0c 453e d07a 633c
00000060: a03c 13bc 0052 893d c07a bd3c c811 413e
00000070: 446f 11be d2e5 353e 4035 bb3b 226d 2d3e
00000080: 2eb9 64be e075 343d ac80 d23d 8ef2 16be
00000090: 5094 8d3c 7cce 02be 1082 80bd 7e53 2d3e
000000a0: 5f01 8e3d a998 fa3d cd9d fc3e be60 d43b
000000b0: 7c56 6fbf 8d08 983e 17aa d6bf 4945 c33d
000000c0: 4d16 8cbf 6f21 c9be 0888 6c3d 03f9 c83e
000000d0: 70ed 2dbf 3b02 d13f 87f8 973d e518 e53d
000000e0: 2c5b 0cbf c4a7 b3bf 4626 b13f d877 8b3e
000000f0: dadb ab3f b036 b23e eb34 99bf c747 723e
00000100: c65e 383f 4077 f1bd 23a7 893e 575f 5c3d
00000110: c7a3 353c 645f b13e 97cc 4cbe 202d 90be
00000120: f171 44bf ed9e f9bc 7603 a53f 0c9e ddbe
00000130: c4cd bcbe 6f3e 63be 0bf1 fabe 3b89 be3f

lstm.bias_hh_l0 f4 [80]
1.4799136 1.8281008 0.39906475 -0.1650151 1.7316295 0.6527304 0.6626685 -0.139497
-1.6857473 2.0239236 0.55668706 0.3158238 -0.458674 1.4578474 2.0368946 -0.09463575
0.26556644 0.16555642 -0.8520309 0.7905172 0.16614166 -0.18325154 -0.06274229 0.003698498
0.19381317 0.1629084 -0.18118669 0.1689794 -0.08590999 0.12532732 0.07959536 -0.006650269
-0.083329484 -0.14375865 -0.09148595 -0.20318994 0.014756739 0.18353146 -0.045540407 -0.06602794
0.22112055 0.24117215 0.49874207 0.00028654348 -1.0702678 0.15215461 -1.549177 -0.12572071
-1.0568495 -0.3194097 0.07492568 0.14928468 -0.78917325 1.7139891 -0.06428153 0.2540144
-0.5028949 -1.4828262 1.3007262 0.30812204 1.4551861 0.3416583 -1.4031957 0.44948968
0.50843 -0.048264027 0.091470666 -0.07305553 -0.25742856 0.53945464 -0.104356736 -0.3889928
-0.5586067 0.06740563 1.1865189 -0.5956595 -0.07072233 0.03732076 -0.5210301 1.4361109
00000000: cf6d bd3f 35ff e93f 3752 cc3e b8f9 28be
00000010: 09a6 dd3f 5719 273f a5a4 293f 4dd8 0ebe
00000020: 91c6 d7bf f787 0140 0b83 0e3f a8b3 a13e
00000030: 52d7 eabe be9a ba3f 7b5c 0240 63d0 c1bd
00000040: 53f8 873e 9f87 293e b21e 5abf 565f 4a3f
00000050: 0a21 2a3e 4ba6 3bbe 087f 80bd 8062 723b
00000060: f676 463e 76d1 263e 0189 39be f008 2d3e
00000070: 94f1 afbd ce55 003e e402 a33d 80ea d9bb
00000080: a6a8 aabd 7835 13be fc5c bbbd 0611 50be
00000090: 40c6 713c acef 3b3e 9488 3abd a839 87bd
000000a0: 6d6d 623e d5f5 763e 1f5b ff3e 373b 9639
000000b0: 89fe 88bf 6bce 1b3e 6f4b c6bf eebc 00be
000000c0: d846 87bf ab89 a3be a372 993d 15de 183e
000000d0: 4207 4abf ff63 db3f 09a6 83bd 2d0e 823e
000000e0: b8bd 00bf 40cd bdbf 327e a63f 2cc2 9d3e
000000f0: 8a43 ba3f d6ed ae3e eb9b b3bf 8323 e63e
00000100: 7828 023f 80b0 45bd f954 bb3d 239e 95bd
00000110: adcd 83be b319 0a3f fcb8 d5bd 102a c7be
00000120: d900 0fbf f70b 8a3d dadf 973f 247d 18bf
00000130: ded6 90bd a7dd 183d 3b62 05bf 7bd2 b73f

lstm.weight_ih_l1 f4 [80, 20]
-0.10247969 0.16811407 0.15939993 0.09200135 -0.16125503 -0.1494793 -0.13226636 -0.14151567
0.1665935 0.12126451 0.18306758 -0.18916531 -0.19648074 0.2177607 -0.2022493 0.13736114
-0.21037276 -0.10707324 0.10571191 -0.13740057 -2.6842856 0.6259126 1.6647202 0.63966614
0.17058964 0.31454736 2.982178 1.7551119 2.4869652 -0.90651137 2.2825108 -2.8190427
0.81738657 -1.1817784 -0.31118414 -0.23185776 1.477911 2.5649621 -2.3586373 -1.7344018
-1.4155445 1.9335239 -1.9944187 1.0508928 1.6466789 0.23474857 -1.034246 1.117304
-0.9943895 1.8904244 0.12814197 -1.6568247 0.62103957 1.0611806 2.6443584 -0.10241098
-0.10798094 2.0729144 0.9380553 -0.7035355 0.46876281 -0.6830388 -0.25800177 0.5426318
-0.424821 -0.45252278 -0.38734213 0.44331276 -0.29794568 0.992524 2.2943265 0.24691483
-0.22924216 -0.06799123 -1.3182243 0.26646826 1.2472416 -0.6415427 0.13756707 1.10101
-0.14166449 -3.616132 1.660274 3.7672071 -3.01497 0.58702034 -0.8185867 0.85905534
-0.03706941 -0.98371756 -1.9295734 0.5638517 0.4422482 1.2077988 -2.903032 1.6728001
-2.0230744 0.12382227 0.6268992 0.1886901 0.2642674 0.60288733 0.19831432 -0.13923042
-0.07535207 1.0961337 -0.04684845 -1.2076248 0.025266193 -1.5235131 -1.6434511 0.23807769
-1.2828525 0.07584421 0.74377203 0.15939054 -1.1762621 0.09115498 -0.043189894 -0.04191631
1.002472 -1.9445338 0.41572952 -1.8915641 1.4443227 -0.23990434 2.874644 -1.5438153
2.3100677 -0.52335 -0.68857205 0.98289824 -1.0707319 -2.2188387 -1.2747381 0.59613484
-0.1813567 -0.628968 -2.1928542 0.9685651 1.2186854 -2.3573434 0.88000906 -0.6047109
-0.5170189 0.38136113 1.7589402 -0.38053256 1.2556187 0.1326356 -1.4285421 1.7988791
-1.3134575 -1.9322212 -1.5121137 -0.95176643 -0.9956084 -1.0249616 -1.4171695 2.2431505
0.9211776 -1.3270544 0.44151065 -2.3541932 1.9007866 -0.55096227 2.6971002 -0.6234611
2.1470609 0.452892 -0.223155 1.8713014 -0.6674158 -2.8566263 -2.2522783 1.1391774
-0.61815757 -0.7486274 -2.0508535 0.2787596 -2.2950838 0.6272171 1.9114852 -0.1183494
2.167231 0.32198396 -0.21110408 0.5806378 0.06122743 -1.2099619 0.6084825 1.4050343
-0.6197173 0.3932328 0.94286627 -0.3889459 -0.79357034 -0.18121761 0.98514205 -0.8019608
1.213856 0.08710193 0.20469171 -3.315048 0.28585526 2.2270098 -0.45277902 -3.2095158
0.05951767 -1.572515 0.4139658 0.14620335 -3.837526 0.33992147 0.8913206 -0.42170537
2.3857567 5.1180725 0.4722729 -3.3053436 -0.43164873 1.8730435 1.076667 -0.44739076
3.7331955 -0.39643493 0.07545322 0.1015483 -2.4727407 0.14015359 -0.86320573 4.140847
0.50275886 0.66143227 -0.25981182 0.38037342 -0.20446768 0.22220445 2.6206508 -2.2513907
0.0919198 -0.17415728 -0.20798706 -0.22611752 -0.19932868 0.20542099 0.11987965 -0.17208539
-0.105561845 -0.20420128 -0.2177662 -0.06044104 0.22196373 -0.13663176 -0.032961033 -0.20534551
00000000: dfe0 d1bd 1826 2c3e bc39 233e 346b bc3d
00000010: 0a20 25be 1a11 19be d570 07be 7ce9 10be
00000020: 7d97 2a3e 8759 f83d 1176 3b3e 8db4 41be
00000030: 3f32 49be a9fc 5e3e 711a 4fbe 66a8 0c3e
00000040: f56b 57be 3749 dbbd 7c7f d83d bcb2 0cbe
00000050: 56cb 2bc0 cf3b 203f 8d15 d53f 29c1 233f
00000060: 0daf 2e3e 5a0c a13e 01dc 3e40 82a7 e03f
00000070: 702a 1f40 2111 68bf a814 1240 326b 34c0
00000080: 3f40 513f 8444 97bf 8753 9fbe 1f6c 6dbe
00000090: 302c bd3f 5728 2440 eaf3 16c0 e100 debf
000000a0: 9030 b5bf b67d f73f 1d49 ffbf a883 863f
000000b0: 60c6 d23f ee61 703e 2c62 84bf d103 8f3f
000000c0: 4f90 7ebf 6df9 f13f a637 033e d512 d4bf
000000d0: 73fc 1e3f c4d4 873f 2b3d 2940 d9bc d1bd
000000e0: 1c25 ddbd a1aa 0440 6424 703f e71a 34bf
000000f0: ae01 f03e a1db 2ebf cf18 84be ebe9 0a3f
00000100: 2382 d9be 11b1 e7be b551 c6be e4f9 e23e
00000110: 568c 98be 0e16 7e3f 3fd6 1240 3ed7 7c3e
00000120: 75be 6abe fc3e 8bbd 93bb a8bf 876e 883e
00000130: 9da5 9f3f 243c 24bf 62de 0c3e e5ed 8c3f
00000140: 7f10 11be b56e 67c0 dc83 d43f ec19 7140
00000150: 45f5 40c0 f746 163f e68e 51bf 0deb 5b3f
00000160: 18d6 17bd ead4 7bbf 43fc f6bf 9658 103f
00000170: 5b6e e23e 2799 9a3f 47cb 39c0 501e d63f
00000180: 0d7a 01c0 8896 fd3d 777c 203f fa37 413e
00000190: 0f4e 873e d356 1a3f e912 4b3e 6b92 0ebe
000001a0: 3052 9abd 1c4e 8c3f 29e4 3fbd 7393 9abf
000001b0: 0cfb ce3c 7a02 c3bf 9b5c d2bf a3ca 733e
000001c0: 8334 a4bf 3654 9b3d d867 3e3f 4637 233e
000001d0: c28f 96bf 76af ba3d e3e7 30bd 70b0 2bbd
000001e0: 0151 803f 7ce6 f8bf 80da d43e c61e f2bf
000001f0: 91df b83f 7ca9 75be 2bfa 3740 bd9b c5bf
00000200: 26d8 1340 44fa 05bf 4246 30bf 389f 7b3f
00000210: be0d 89bf 7401 0ec0 9e2a a3bf 4b9c 183f
00000220: 92b5 39be 0c04 21bf b957 0cc0 e2f3 773f
00000230: e2fd 9b3f b7de 16c0 4648 613f 55ce 1abf
00000240: 5a5b 04bf c441 c33e f424 e13f 2ad5 c2be
00000250: 1db8 a03f a0d1 073e 78da b6bf ac41 e63f
00000260: 601f a8bf 0653 f7bf f18c c1bf f7a6 73bf
00000270: 31e0 7ebf f131 83bf cf65 b5bf c78f 0f40
00000280: 4cd2 6b3f ebdc a9bf af0d e23e 1aab 16c0
00000290: fa4c f33f dd0b 0dbf 4a9d 2c40 269b 1fbf
000002a0: 7269 0940 76e1 e73e bf82 64be ce86 ef3f
000002b0: c3db 2abf f7d2 36c0 5425 10c0 91d0 913f
000002c0: 933f 1ebf 0ca6 3fbf 2f41 03c0 94b9 8e3e
000002d0: a7e2 12c0 4d91 203f 8cab f43f 2c61 f2bd
000002e0: eab3 0a40 15db a43e ab2b 58be aea4 143f
000002f0: 9dc9 7a3d 08e0 9abf 82c5 1b3f 2ad8 b33f
00000300: cba5 1ebf cf55 c93e af5f 713f eb23 c7be
00000310: 6d27 4bbf 1c91 39be 4532 7c3f 4e4d 4dbf
00000320: a25f 9b3f 7f62 b23d b49a 513e bf29 54c0
00000330: 9f5b 923e 5487 0e40 a7d2 e7be b568 4dc0
00000340: cdc8 733d 2c48 c9bf 53f3 d33e 55b6 153e
00000350: 079a 75c0 300a ae3e 962d 643f c4e9 d7be
00000360: 3db0 1840 40c7 a340 c1cd f13e c08a 53c0
00000370: 1001 ddbe e4bf ef3f 39d0 893f 6710 e5be
00000380: adec 6e40 85f9 cabe 3887 9a3d 8ef8 cf3d
00000390: 6241 1ec0 6c84 0f3e 0dfb 5cbf d281 8440
000003a0: ceb4 003f a053 293f 0e06 85be 4ec0 c23e
000003b0: fa5f 51be 9089 633e beb8 2740 c916 10c0
000003c0: 7340 bc3d 4956 32be 8ffa 54be 5a8b 67be
000003d0: d11c 4cbe e159 523e 7683 f53d 2737 30be
000003e0: cf30 d8bd 241a 51be 1afe 5ebe 0691 77bd
000003f0: 764a 633e 32e9 0bbe 2602 07bd 1846 52be

lstm.weight_hh_l1 f4 [80, 20]
-0.19498485 -0.16739058 -0.1868303 0.17030093 0.13033599 -0.09514099 -0.011005729 -0.21859717
-0.16046631 -0.05871892 0.014498755 0.18351811 0.16068989 0.16374967 -0.05704002 0.07833964
0.20161349 0.010463446 0.10829112 -0.120817475 0.075288445 -0.09198828 -0.13652945 0.119891256
0.1357688 -0.1651266 0.09149808 -0.04342495 0.13282633 -0.043276325 -0.09836888 0.22239566
-0.12923157 -0.20001604 -0.21140464 0.10686234 -0.04137127 0.09886289 -0.1987696 -0.05495155
-0.1273379 0.12852621 -0.17890568 0.039119303 -0.048788995 0.13761121 -0.032323986 0.216297
0.14439172 0.10743269 -0.1539055 -0.027191445 0.043100297 -0.1057688 0.14672333 -0.082498506
-0.026882216 -0.18261935 -0.12688518 -0.12100073 -0.17462334 0.09551835 -0.17671657 -0.047532782
-0.086720526 -0.14605016 0.06543246 -0.14950177 -0.20633125 0.013584882 -0.09669395 0.063450426
0.21149021 0.21891636 0.13832319 -0.074837625 0.10202268 0.16102362 -0.15228097 0.13544482
-0.015654191 0.1018548 0.061099768 0.036702573 -0.022878766 0.018049642 -0.0106343925 0.16873637
0.03186077 0.08931297 -0.10346201 0.094171315 0.02088663 0.07522878 0.15272316 0.023955777
-0.21068421 -0.048453078 0.12638393 -0.057542592 0.021291748 -0.04125665 -0.2080967 0.04129085
0.2076602 -0.009300008 -0.07700907 0.18671346 0.037732124 -0.11756805 0.17009601 -0.02455242
-0.07365522 -0.16162303 0.16903606 0.11453736 -0.19753149 -0.14708598 -0.19847804 0.05497086
0.1296188 0.07658386 -0.097607076 0.07732269 0.1977703 -0.022180542 -0.0028018951 -0.11711919
-0.15514678 -0.110001504 -0.087058306 -0.0202052 -0.122866735 0.18622506 0.13894448 0.19244888
0.07309002 -0.1749824 -0.16061033 0.026196748 -0.045473337 -0.20172368 -0.20805365 0.06462687
0.17256656 -0.09736426 -0.11231962 0.038618565 0.0053783506 -0.00043207407 -0.07510856 0.058751643
0.04820603 0.10145211 0.1912893 -0.18540722 0.14852065 -0.09577744 -0.07579002 -0.13327031
-0.11565783 0.22160417 0.21094483 0.09787229 0.21525952 0.17263567 -0.024132773 -0.0067489
0.03848958 -0.21954791 -0.06631124 -0.15021311 -0.20681703 -0.1125918 -0.030786112 0.08071381
0.22025594 0.03546709 -0.029456377 -0.13650748 -0.02217263 -0.14056885 0.13928491 0.09930146
0.14968696 0.09616643 0.14531708 -0.105333135 0.112333685 0.19185624 -0.032480046 -0.20720996
0.17577618 -0.16349326 -0.15785962 -0.12856768 -0.22068498 0.07687336 -0.19626778 -0.17701225
0.0408971 -0.08522317 0.042606384 0.11003724 -0.11036374 -0.0940163 0.04979986 -0.19641511
0.0070340335 0.077694714 0.09223774 0.045863867 0.10640487 -0.021924749 0.09777695 0.12201539
-0.054494977 -0.079590276 0.01991707 0.013845712 0.0505175 -0.15013063 -0.13422497 -0.008142024
-0.12562805 0.143193 0.155224 -0.13356446 0.05156997 0.021614581 0.105775625 0.008795604
-0.12630136 0.091893196 0.12573609 0.06452349 0.14956245 0.094840676 -0.085052624 0.14894909
-0.18676528 0.01734808 -0.14779961 -0.0983084 0.08780962 0.15365946 -0.20059484 -0.10382475
0.03319052 -0.21142988 -0.22070399 -0.20756814 0.14059252 -0.029240116 -0.13709651 0.075424194
00000000: 1caa 47be 7068 2bbe 7150 3fbe 5e63 2e3e
00000010: cc76 053e 48d9 c2bd 6051 34bc f0d7 5fbe
00000020: 4851 24be 4083 70bd 308c 6d3c 2cec 3b3e
00000030: e48b 243e fead 273e cca2 69bd 8870 a03d
00000040: c473 4e3e e06e 2b3c bcc7 dd3d 276f f7bd
00000050: d430 9a3d 5a64 bcbd 60ce 0bbe 8c89 f53d
00000060: fa06 0b3e f316 29be 5863 bb3d 5cde 31bd
00000070: a003 083e 8442 31bd a075 c9bd b0bb 633e
00000080: 4855 04be 01d1 4cbe 757a 58be a4da da3d
00000090: ec74 29bd a078 ca3d 428a 4bbe e014 61bd
000000a0: de64 02be 609c 033e 0d33 37be 903b 203d
000000b0: f8d6 47bd f4e9 0c3e 2866 04bd f67c 5d3e
000000c0: 6cdb 133e ac05 dc3d 6799 1dbe 98c0 debc
000000d0: f089 303d 509d d8bd a43e 163e faf4 a8bd
000000e0: 1838 dcbc 9100 3bbe 30ee 01be 3bcf f7bd
000000f0: 76d0 32be 209f c33d 30f5 34be bcb1 42bd
00000100: 889a b1bd 2c8e 15be 7401 863d fe16 19be
00000110: 8048 53be 2093 5e3c 7a07 c6bd 4cf2 813d
00000120: e490 583e 9c2b 603e 98a4 0d3e 7844 99bd
00000130: 44f1 d03d 60e3 243e 8bef 1bbe 0cb2 0a3e
00000140: 383d 80bc 4099 d03d c043 7a3d 7055 163d
00000150: 406c bbbc d8dc 933c e03b 2ebc 3ac9 2c3e
00000160: 7080 023d b8e9 b63d e4e3 d3bd e4dc c03d
00000170: 701a ab3c 8c11 9a3d 7663 1c3e e83e c43c
00000180: 9abd 57be bc76 46bd ca6a 013e c8b1 6bbd
00000190: 086c ae3c bcfc 28bd 4d17 55be 9820 293d
000001a0: e0a4 543e 105f 18bc eeb6 9dbd d031 3f3e
000001b0: 008d 1a3d 85c7 f0bd a62d 2e3e 2822 c9bc
000001c0: 8cd8 96bd 8280 25be ca17 2d3e 9092 ea3d
000001d0: b245 4abe b59d 16be d43d 4bbe 2029 613d
000001e0: caba 043e 00d8 9c3d 38e6 c7bd 5c5b 9e3d
000001f0: 4c84 4a3e f8b3 b5bc 00a0 37bb 30dc efbd
00000200: ccde 1ebe 7848 e1bd a04b b2bd 6085 a5bc
00000210: 8ea1 fbbd c8b1 3e3e 7647 0e3e 5211 453e
00000220: 38b0 953d 962e 33be 0977 24be 909a d63c
00000230: 4042 3abd a790 4ebe 040c 55be 185b 843d
00000240: 4ab5 303e ea66 c7bd d407 e6bd 802e 1e3d
00000250: e03c b03b 0088 e2b9 84d2 99bd 90a5 703d
00000260: b073 453d 20c6 cf3d 58e1 433e 64db 3dbe
00000270: cc15 183e f626 c4bd cc37 9bbd 0378 08be
00000280: 03de ecbd 34ec 623e ec01 583e 4471 c83d
00000290: fe6c 5c3e 68c7 303e 18b2 c5bc e025 ddbb
000002a0: 40a7 1d3d 2bd1 60be 30ce 87bd 77d1 19be
000002b0: d8c7 53be 8896 e6bd 2833 fcbc 484d a53d
000002c0: c68a 613e f045 113d 804e f1bc 9ec8 0bbe
000002d0: 60a3 b5bc 48f1 0fbe b4a0 0e3e 905e cb3d
000002e0: 8a47 193e e8f2 c43d 00ce 143e e6b8 d7bd
000002f0: 340f e63d f675 443e cc09 05bd d92e 54be
00000300: acfe 333e c76a 27be f4a5 21be 3fa7 03be
00000310: 3efb 61be c86f 9d3d 6cfa 48be b342 35be
00000320: b883 273d 7c89 aebd 0884 2e3d 345b e13d
00000330: 6206 e2bd 9e8b c0bd f0fa 4b3d 0b21 49be
00000340: c07d e63b 681e 9f3d 24e7 bc3d c0db 3b3d
00000350: ccea d93d 889b b3bc 483f c83d 34e3 f93d
00000360: 2036 5fbd 3a00 a3bd 2029 a33c 20d9 623c
00000370: 70eb 4e3d d8bb 19be 4572 09be 2066 05bc
00000380: a4a4 00be 30a1 123e 0af3 1e3e 1fc5 08be
00000390: 083b 533d 1011 b13c e4a0 d83d 701b 103c
000003a0: 2555 01be 8032 bc3d f6c0 003e e424 843d
000003b0: e626 193e d43b c23d 1230 aebd 1c86 183e
000003c0: 663f 3fbe 901d 8e3c c858 17be ea55 c9bd
000003d0: 88d5 b33d e858 1d3e bc68 4dbe 12a2 d4bd
000003e0: c8f2 073d 1381 58be 3a00 62be be8c 54be
000003f0: 7cf7 0f3e f888 efbc 0763 0cbe 0078 9a3d

lstm.bias_ih_l1 f4 [80]
-0.20719318 -0.16626818 0.013344819 0.5579848 -0.23181823 0.32816142 0.3914764 0.3405837
0.8306881 -0.029904108 0.4324174 -0.83175683 -0.053285412 0.097011305 0.14393121 0.9192513
-0.18296307 0.76905954 -0.09894252 0.62669086 0.113847554 0.2187222 -0.11954929 -0.078957126
-0.14306381 0.013556868 -0.09073241 0.059264302 -0.14992103 -0.010265604 -0.077017605 0.013026819
-0.056448653 -0.07417993 -0.08044152 -0.15593642 0.0401206 -0.049358398 -0.21293709 0.04455909
-0.042456184 0.8288799 0.72175086 -0.5368368 -0.051027562 -0.87922096 1.1605072 1.3411264
0.76768595 -0.84677863 0.2825414 0.0116609465 -0.26061696 -0.63959336 -0.36535704 0.86740893
0.09121864 -0.3815531 0.4155591 -0.2217357 -0.044526007 0.82172364 1.1831465 -0.163843
-0.30028495 -0.2667048 -0.050369643 -0.05168088 -0.021701962 -0.08763472 -0.3689244 -0.549002
0.11073292 1.0753682 0.16301022 -0.19816257 0.7064074 -0.30469215 -0.6251819 -0.054707997
00000000: 732a 54be 3542 2abe 3aa4 5a3c 18d8 0e3f
00000010: c261 6dbe c604 a83e 986f c83e fd60 ae3e
00000020: faa7 543f 76f9 f4bc d065 dd3e 04ee 54bf
00000030: ce41 5abd ddad c63d b462 133e 0e54 6b3f
00000040: ac5a 3bbe 16e1 443f 60a2 cabd d06e 203f
00000050: e828 e93d b6f8 5f3e 42d6 f4bd 46b4 a1bd
00000060: 527f 12be a01d 5e3c ead1 b9bd 20bf 723d
00000070: e684 19be 1031 28bc 68bb 9dbd 706e 553c
00000080: b436 67bd a6eb 97bd 86be a4bd ccad 1fbe
00000090: 8055 243d 082c 4abd 2e0c 5abe 9883 363d
000000a0: 89e6 2dbd 7931 543f aac4 383f 236e 09bf
000000b0: 4702 51bd a014 61bf 808b 943f 08aa ab3f
000000c0: 1187 443f 7cc6 58bf 44a9 903e 8e0d 3f3c
000000d0: 966f 85be 64bc 23bf 1410 bbbe 830e 5e3f
000000e0: d7d0 ba3d ee5a c3be 2ac4 d43e af0e 63be
000000f0: e760 36bd 7b5c 523f 5871 973f 76c6 27be
00000100: f3be 99be 888d 88be 6650 4ebd 55af 53bd
00000110: 50c8 b1bc d579 b3bd a9e3 bcbe 658b 0cbf
00000120: f1c7 e23d aaa5 893f 27ec 263e 21eb 4abe
00000130: 1ed7 343f 9c00 9cbe ec0b 20bf 7e15 60bd

lstm.bias_hh_l1 f4 [80]
-0.21434794 -0.3499066 -0.106793806 0.75162774 -0.07442197 0.2750321 0.32679546 0.05529093
0.46578595 0.38588253 0.381792 -0.7326294 0.10986599 0.31344414 -0.008484919 1.1097381
-0.23915763 0.3789343 0.08960371 0.8308065 -0.122927666 0.06851718 0.21564215 -0.10954345
0.010291696 0.096123844 0.01652284 0.17532048 0.18895236 -0.19039623 0.15620854 0.03074491
0.21125975 0.11665577 0.01787147 -0.02387549 0.17878443 -0.19730867 0.003664717 0.17896023
-0.38194132 0.8047833 0.46770224 -0.30856434 -0.054710697 -0.58808833 1.2724403 1.3831663
0.5551649 -0.8596419 0.30924687 -0.08518871 -0.339327 -0.587559 -0.16842876 0.5605426
0.05198075 -0.42539418 0.479201 -0.07363558 0.17331587 0.58177644 1.3734138 -0.1917257
-0.18597421 -0.39175147 -0.026671007 0.039527424 -0.004359384 -0.19745249 -0.088204876 -0.76855654
0.01975422 0.83000624 -0.026078165 -0.10536549 0.8011557 -0.48770845 -0.6336256 0.32238352
00000000: 077e 5bbe f526 b3be b6b6 dabd ad6a 403f
00000010: 8c6a 98bd 02d1 8c3e bc51 a73e be78 623d
00000020: 7f7b ee3e 6592 c53e 3e7a c33e 9a8d 3bbf
00000030: 6c01 e13d c07b a03e 5404 0bbc e60b 8e3f
00000040: bde5 74be ad03 c23e 2682 b73d bcaf 543f
00000050: 80c1 fbbd bc52 8c3d 4cd1 5c3e 5158 e0bd
00000060: 809e 283c 94dc c43d e85a 873c 3687 333e
00000070: ba7c 413e 3bf7 42be 22f5 1f3e c0dc fb3c
00000080: 7a54 583e 38e9 ee3d 3067 923c 8896 c3bc
00000090: 4413 373e 490b 4abe c02b 703b 5a41 373e
000000a0: d08d c3be 4706 4e3f ab76 ef3e 25fc 9dbe
000000b0: 5318 60bd f58c 16bf 53df a23f 980b b13f
000000c0: 491f 0e3f 7e11 5cbf 9b55 9e3e 6b77 aebd
000000d0: 45bc adbe 446a 16bf 9778 2cbe b87f 0f3f
000000e0: c4e9 543d 44cd d9be d559 f53e 40ce 96bd
000000f0: b779 313e 4def 143f 06cc af3f be53 44be
00000100: 0670 3ebe a693 c8be 287d dabc 82e7 213d
00000110: 2ad9 8ebb fc30 4abe c2a4 b4bd 1fc0 44bf
00000120: 9ad3 a13c 4a7b 543f e0a1 d5bc ddc9 d7bd
00000130: 8a18 4d3f ecb4 f9be 4a35 22bf 740f a53e

linear.weight f4 [6, 20]
-0.063181005 1.0671557 1.7692224 -1.8567688 -1.1998805 -0.15143703 0.37358728 -0.05538242
-0.058473334 0.05380624 0.7483464 -0.04828388 0.07428472 -0.16193695 -0.020151393 0.84486014
-0.93776155 -0.8410189 -1.2548704 -0.41773936 0.16809848 0.5735921 0.009482498 0.12534226
0.09348213 -0.706136 1.2611842 1.905299 1.9368966 -0.5195349 -0.09301236 -0.3028175
0.031939164 -0.43654153 -0.022675512 -0.008411875 -0.1268409 0.52900475 -0.020060766 -0.2616521
0.015010795 -0.3684271 0.00506005 -0.20245446 -0.23718627 0.79151404 -1.2756524 -1.948983
-1.9697756 0.52940315 0.22193283 0.49754268 -0.060671907 0.18286198 0.21131127 0.1100293
-0.003570971 -0.68627167 0.028744861 0.1138928 0.22243477 -0.58397996 -0.019064337 0.07574192
0.01929117 2.2699208 -2.199632 -2.3983762 -3.1353612 1.400851 1.0069762 0.75758445
0.13978003 0.5079809 0.1773733 0.01499554 0.1196219 -0.86225015 0.08179615 0.45328483
-0.05865484 0.8377218 1.6839149 -1.4093195 -0.7927552 -0.03193578 0.2039994 0.056106996
0.013566685 -0.021239815 1.2642163 -0.04108951 0.10941225 -0.08056089 -0.058143012 1.0757018
-1.111301 -0.54764503 -0.94939214 -0.2694523 -0.12413918 -0.88205874 -1.614091 1.5452437
0.97461677 0.28096223 -0.19020776 0.008259557 0.011118224 0.12482451 -1.203387 0.10211081
-0.110324726 0.07129545 0.26726004 -1.1101542 1.2698264 0.5842297 1.528559 0.3702561
00000000: 0b65 81bd 8f98 883f e175 e23f 9aaa edbf
00000010: af95 99bf 4f12 1bbe d546 bf3e add8 62bd
00000020: bc81 6fbd ef63 5c3d a193 3f3f 51c5 45bd
00000030: 9622 983d cdd2 25be 8914 a5bc c148 583f
00000040: 2411 70bf 044d 57bf 989f a0bf efe1 d5be
00000050: 0222 2c3e efd6 123f 7b5c 1b3c b959 003e
00000060: 8f73 bf3d 54c5 34bf 7c6e a13f d6e0 f33f
00000070: 3aec f73f 3d00 05bf 447d bebd e50a 9bbe
00000080: a4d2 023d 5f82 dfbe ffc1 b9bc f6d1 09bc
00000090: 95e2 01be db6c 073f 7a56 a4bc 44f7 85be
000000a0: d6ef 753c 7aa2 bcbe c7ce a53b 3950 4fbe
000000b0: f5e0 72be aaa0 4a3f 9448 a3bf 4678 f9bf
000000c0: 9b21 fcbf f786 073f 5c42 633e eabd fe3e
000000d0: 1b83 78bd 2c40 3b3e fb61 583e 0b57 e13d
000000e0: f406 6abb 80af 2fbf 587a eb3c a140 e93d
000000f0: f1c5 633e b67f 15bf d02c 9cbc 941e 9b3d
00000100: 8408 9e3c 6246 1140 c5c6 0cc0 ff7e 19c0
00000110: c2a9 48c0 164f b33f 99e4 803f 0ef1 413f
00000120: 7f22 0f3e 090b 023f 59a1 353e daaf 753c
00000130: 54fc f43d 6dbc 5cbf bd84 a73d f314 e83e
00000140: 0f40 70bd f074 563f 868a d73f 9564 b4bf
00000150: 01f2 4abf 18cf 02bd 38e5 503e 73d0 653d
00000160: cd46 5e3c 1fff adbc d7d1 a13f 794d 28bd
00000170: 8813 e03d 1cfd a4bd 5e27 6ebd 99b0 893f
00000180: 1c3f 8ebf 7732 0cbf 5d0b 73bf a7f5 89be
00000190: af3c febd 9ace 61bf 899a cebf 8cca c53f
000001a0: 7c80 793f 48da 8f3e d3c5 42be 1853 073c
000001b0: 3629 363c fea3 ff3d 9608 9abf 791f d13d
000001c0: eef1 e1bd 5903 923d 4fd6 883e 8819 8ebf
000001d0: ac89 a23f 1490 153f d2a7 c33f 3592 bd3e

linear.bias f4 [6]
-0.27793753 0.34119415 -0.50922585 -0.2751856 -0.12698717 -0.11345044
00000000: d44d 8ebe 00b1 ae3e a05c 02bf 21e5 8cbe
00000010: ed08 02be b458 e8bd
