models/227/model.pt (torch_old, 108056 bytes, 12 tensors)

weight_ih_l0 f4 [160, 10]
00000000: 96e3 13bd c729 10bc 8b2f 783e 0bc0 c93d
00000010: 2dc5 453e 0680 a23d c19b e5bd 1155 b83d
00000020: 1a85 e63d d1ff a93d 341c d4bd ee68 34bd
00000030: 2679 ac3d 906e d1be 9a87 4abe bf6e 6cbd
00000040: fb1f 09be c9fd 90be 675d 3fbd 33ef c2bd
00000050: 1698 18be 7b15 283d 24b2 aa3d 72b5 e4bc
00000060: b8bd 1fbe 484c 15bd 73bc 68be c1a7 02be
00000070: 592f 083d 9784 73be 9a0f a53b 447a 003e
00000080: cbac d53d 0907 ffbd e5f4 0a3e 1d1f 5abd
00000090: e722 163d 19da fcbc 4456 9e3c d335 1c3e
000000a0: a2bb 003e 0f9e aa3d 786d 4bbd be02 8fbc
000000b0: e73d 473e e55d babd 090e 7e3e ad83 253e
000000c0: 612e ef3d 149c 5d3d 63c8 99bd 2585 9dbd
000000d0: daa2 3e3d 3bf5 aebd b5b6 a7bb f8dc e0bc
000000e0: 4b43 b9bd 58b3 3bbd 7525 24bd 924b 413e
000000f0: d333 1e3d 8e39 8cbd ae2c 32bd 6584 55be
00000100: fb54 143e d31d 1abe 8338 53bd f8ce 243d
00000110: a1f2 1dbe d581 7d3d 9f26 c53d 8b2b ac3d
00000120: 1bf7 0a3e 5976 70be 503d 82bc 68e1 4c3e
00000130: 73fe adbe 5050 43be 3c61 443e 6dad 65be
00000140: b35f 17bd d7cb 8abd d206 4c3e 85b5 23bb
00000150: 3dad 823c 6d10 a73d 6cfe 1aba eae7 993e
00000160: 44c6 423e 03ef 683e 967c c1bd ee72 5a3e
00000170: f098 913e 6ecd 45be d114 113d 1861 e43d
00000180: 6a59 d4bc 654e cd3d 7ecb d4bd 24da 9dbc
00000190: af30 493d 8980 9dbd ca01 063d 88d5 d03c
000001a0: 7c9b 743d 18d6 45bd 7f69 6cbc ca42 ea3d
000001b0: eb14 fcbd 6c4c 283e d237 d8bd a9aa 883d
000001c0: 3476 ed3d 43d9 193e 2996 9c3d 0527 ef3d
000001d0: 28f1 c9bd 0a83 783e bb4e 903d 1085 d83d
000001e0: db00 a23c 099f ae3d 3c59 5b3d b230 87bd
000001f0: 2ae4 0abe 0922 86bd 3147 1abe 5a8b d6bd
00000200: 61d7 053d cc46 32bd 4743 ab3d 7329 2d3e
00000210: 42ec 0d3e 8878 73bd 4776 eabd fe3f b13d
00000220: d83d 98bd 056b 6fbe 8eba 93bd d3ea 04be
00000230: 2d33 97bd 6870 18bb b5c0 4a3d 9448 a3bd
00000240: 5c3b d73d f96b 063e 0fa9 583c 3482 fc3d
00000250: 545e 993d a4d5 fd3c a384 44be 5174 15be
00000260: 2816 08be 1bb7 da3d 364e 093d 97ca 1f3e
00000270: 2e9b 873e ce7d 173e dc14 0d3e ec79 853e
00000280: a950 dbbd 05cd 44bd 42c0 9dbb db70 fbba
00000290: c1b2 523e fbcc a1bd 98a9 8fbd 58dc 203d
000002a0: d7a6 6d3c b6d4 6f3e b640 38bc c561 013e
000002b0: 1ad8 913d 78b3 c83a d2d4 a8bd b7e0 893d
000002c0: f94e fcbd 9ad8 a1b8 1d3f 95bd 72cf ba3c
000002d0: 5c06 9dbc 31dd 2fbe a9f7 003e b055 85bd
000002e0: e02b 353e d67b 99bd 1f7f 9f3e 7054 633d
000002f0: 253b 813d 5f47 403e 657d 74bd 309b 133e
00000300: 93f2 2dbd 1e37 2ebe a81f 253e fdf7 23bd
00000310: 646e 703e 1e5e 863d 8ef1 cabc 1619 cb3c
00000320: 851b 43bb 494e 3e3e 7631 893e 4dfe 83be
00000330: d4ed 03be e7db 1cbd 2143 6f3d c8e0 4eba
00000340: b7ee fdbd b5e4 b63d d67b 3fbb 0f8d 3139
00000350: c462 183e bc6a 57be 8221 09be a2a1 343d
00000360: 2fe3 4b3c 8e13 2e3d cd0f 0fbe 40f3 1b3e
00000370: aaa0 a73d 7c0b ce3b e9b7 773c 57d7 ad3e
00000380: 3020 ad3e bfe2 943e 4de9 b9bd 6872 b13e
00000390: 2306 4e3e b2f7 403d 09f3 463e 9ba2 86be
000003a0: a066 9ebd 7bda 83bd e82a b93e 4e5f 293d
000003b0: b793 013f 8487 af3e 891b 2f3b b6bb 733e
000003c0: bcd3 18be d7c1 c6bc 7ab2 393e 9838 97be
000003d0: ae61 853d 7ecc 06be f67e 663e c83d ccbd
000003e0: bf26 9fbd e65d 7b3d 55f6 603d 4b52 7a3e
000003f0: 61b8 2c3e f587 9fbe 9341 e9bd 7b89 343b
-0.036105715 -0.008799023 0.24236886 0.098510824 0.19313498 0.07934575 -0.11211348 0.090006
0.11255856 0.08300746 -0.10356942 -0.04404538 0.08421545 -0.40904665 -0.1977829 -0.057722803
-0.13391106 -0.28318623 -0.046719935 -0.0951828 -0.14901766 0.04103611 0.08334759 -0.027918551
-0.15599716 -0.0364497 -0.22728138 -0.12759306 0.03324828 -0.23781048 0.0050372602 0.1254664
0.10433348 -0.12452514 0.13569982 -0.05325233 0.03665438 -0.030865716 0.019328244 0.15254907
0.12571576 0.083309285 -0.049664944 -0.017457362 0.19457208 -0.0909994 0.24810041 0.16163512
0.11678768 0.054103926 -0.07508924 -0.07691411 0.046542026 -0.08542868 -0.005118216 -0.027449116
-0.09046038 -0.045825332 -0.040074784 0.18876484 0.038623642 -0.06846915 -0.04349964 -0.20851286
0.14485542 -0.1505044 -0.051567566 0.040236443 -0.15424587 0.061891396 0.09626507 0.08406743
0.13570826 -0.23482646 -0.015898377 0.2000786 -0.33983192 -0.19073606 0.19177717 -0.22429438
-0.0369565 -0.067771606 0.19924477 -0.002498002 0.015951747 0.0815743 -0.00059125456 0.3005975
0.19020945 0.22747426 -0.09447591 0.21332905 0.28436995 -0.19316646 0.035420243 0.11151332
-0.025921542 0.10024718 -0.103903756 -0.019269057 0.049118694 -0.07690532 0.03271655 0.025492445
0.059718594 -0.04829988 -0.014429449 0.1143852 -0.12308677 0.16435403 -0.10557522 0.06673176
0.11594811 0.15024285 0.07645828 0.11677364 -0.0986045 0.24268737 0.07046267 0.10572255
0.019775799 0.08526427 0.053551897 -0.06601085 -0.135636 -0.065494604 -0.1506622 -0.10475798
0.032676104 -0.04352455 0.083624415 0.16910343 0.13859656 -0.05944112 -0.11448341 0.08654784
-0.07433671 -0.23380668 -0.07213317 -0.12980203 -0.07382808 -0.0023260359 0.049500186 -0.079728276
0.10509369 0.13127126 0.0132239 0.12329522 0.07488695 0.03098566 -0.19191222 -0.14595152
-0.13289702 0.10679456 0.033521853 0.15604626 0.2648558 0.14794084 0.13777488 0.26069582
-0.10708744 -0.048047084 -0.0048141787 -0.0019183414 0.20576002 -0.07900425 -0.07014769 0.039272636
0.01450511 0.23420987 -0.011245897 0.12634952 0.07121296 0.0015312275 -0.08243717 0.06732314
-0.1231975 -7.7174234e-05 -0.072874285 0.022803996 -0.019168071 -0.17174222 0.12594475 -0.06510484
0.17692518 -0.07494323 0.31151673 0.055500448 0.06310109 0.18777226 -0.059689898 0.14414668
-0.042467665 -0.17013213 0.16125357 -0.040031422 0.2347961 0.0656092 -0.024773385 0.024792235
-0.0029771042 0.18584551 0.26795548 -0.25779954 -0.12883693 -0.038295653 0.05841363 -0.00078917714
-0.12399047 0.08930341 -0.00292181 0.00016932584 0.14881426 -0.2103681 -0.13391688 0.044099458
0.0124443015 0.042499118 -0.13970871 0.15229511 0.08184941 0.00628799 0.015119531 0.33953354
0.3381362 0.29079244 -0.09077702 0.34657598 0.20119528 0.04711122 0.19428648 -0.26295933
-0.07734418 -0.06438156 0.36165547 0.041350655 0.5061602 0.34283078 0.0026719293 0.23802075
-0.1492452 -0.024262352 0.1813449 -0.29535365 0.065127715 -0.13163945 0.22509369 -0.09972721
-0.07771062 0.061368845 0.05492242 0.24445455 0.1686721 -0.31158414 -0.113894604 0.0027547765

weight_hh_l0 f4 [160, 40]
00000000: f759 b7bd 7a1a b53d 7257 14be 1c3f 523d
00000010: 80e4 e33b f08d 61bc af4a 11be ef66 81bd
00000020: 3a37 dabd 204e ea3b 06dc ccbd ab31 9ebd
00000030: 307b 4e3d 8f27 dbbd 095c 043e eafe b23d
00000040: 2001 2dbd eb56 11be eaaf f53d 65dd afbd
00000050: 3400 173d 8d9e 053e ebb2 0b3e 6289 fd3d
00000060: 8f50 c6bd 48ca ad3d 1a3a e4bd 47c0 1f3e
00000070: 7a5b 01be e50b 06be faaf e03d 2d3d 023e
00000080: 44dd 403d 2653 c4bd 54ae 423d 5cc4 5b3d
00000090: 26b2 0bbe b02e 9d3c 02f0 b43d 9018 f33c
000000a0: 6f6e bebd 5a8c 72bd 89da b8bd dbb8 1a3e
000000b0: 3a1f e23d 80d7 0e3c 000c 283d e215 88bd
000000c0: 0269 c03d 32c7 1ebe 273b 1fbe 701d b4bd
000000d0: 463e 71bd 8c65 cebd c927 c6bd f44a 8b3d
000000e0: 40b0 a33c 22b8 eb3d 34ec 223d a046 a2bb
000000f0: 532e a5bd 80b7 453d f464 ccbd a85b 0cbe
00000100: 5114 063e 04a9 d5bd 9d42 05be 5c6e 0dbe
00000110: 48c9 b8bd 80bc eeba 72f0 d33d 9bbf 02be
00000120: af2d 093e 2d5c b5bd 2f1d 083e c8a0 d1bd
00000130: e1be 143e 42eb 19be 22c4 fb3d 0084 8fbc
00000140: eb7b 203e 1947 0c3e c08d ec3b 1eac e73d
00000150: e43e 18be 807a 833d ec4f 0bbe da4a 90bd
00000160: f8b3 ab3d 6848 f1bc 4098 21bb add3 1fbe
00000170: b463 1cbe 60cd cf3b 9edb 903d eee8 e73d
00000180: 6031 9fbb dc22 463d 82b7 ee3d 80ae a33d
00000190: 98cc 23bd 7ccc a0bd 761b 73bd ead8 11bd
000001a0: a029 37bc 80fd 37bb 5230 87bd 44fc 613d
000001b0: b405 433d 628a c33d 7a60 e63d 20f0 5d3d
000001c0: 7486 3ebd f760 033e d25b a2bd e3ba b5bd
000001d0: 4032 13bb db0c d9bd e596 95bd f3a9 bfbd
000001e0: f592 1f3e 8763 063e 14be ab3d d6ba 893d
000001f0: 00c9 a33c 4e5a fabd 8efc bcbd 3c00 2b3d
00000200: 2e1c d2bd a8cf 93bc 866d c23d 60ed 12bd
00000210: 80d0 f83a d835 a7bd 14dc 8e3d 8ccb 493d
00000220: dedd b8bd 957b 1c3e 9abd e0bd 893e 0dbe
00000230: 60ff 28bd c893 9f3d e55d 83bd a21b 18bd
00000240: d72b 0d3e 5e22 eb3d 7276 b1bd d9d7 163e
00000250: 6f92 013e a0ea 153d c128 dbbd 8afb d1bd
00000260: e885 11bd 0829 2ebd 14ae 03bd 4a44 fb3d
00000270: 32bd 60bd 6845 6d3d 40fc b03c 90b4 44bc
00000280: 89d1 063e 2817 9f3c 256c 173e 9a7f 95bd
00000290: 7b45 1dbe 30a8 25bc 7228 49bd 7b99 b6bd
000002a0: a856 19bd 83c4 0f3e 4ad8 29bd 1602 f2bd
000002b0: 40f2 ee3b 7094 93bc 1cc9 8c3d 4078 75bb
000002c0: 7a3d a9bd 7eff bd3d 13a8 99bd e755 0bbe
000002d0: f18b a4bd 6bb9 bbbd b231 17be ca37 d03d
000002e0: 00ab 4b3c 24af c9bd 0042 5dbc ce7e bfbd
000002f0: db9a 20be 2872 b53d 169e e43d ceba d0bd
00000300: 70ef 57bc ec04 02be a4f2 10be d0bb 553c
00000310: 3621 aabd 50cc 923c 00b2 1c3b a6ed cf3d
00000320: c0f2 ddbc e09e b9bc c0e8 073c f216 f03d
00000330: 9085 83bd 6eb4 38bd e8e0 ad3c e078 e1bd
00000340: eae2 68bd 086c e0bc d092 573c d7a3 003e
00000350: d124 a0bd 6e1c c1bd 0761 13be d4d3 19be
00000360: 8052 af3b 1bfa eebd 9851 9d3c e23c eb3d
00000370: b048 01bd 7d92 09be 8893 b83c 9463 533d
00000380: d137 083e fc74 183d b916 1f3e aaf6 d6bd
00000390: 70a1 9b3d fe25 25bd 30a9 803d 3a34 b4bd
000003a0: 761e c7bd 6f0d 043e 9b12 033e 66dc fcbd
000003b0: 6796 213e cb29 103e a2a9 ec3d 3854 7cbd
000003c0: 9a65 bdbd decf 62bd b08e 5a3d 6c0d 9bbd
000003d0: c384 143e 9a0b 65bd a718 02be 69f0 1d3e
000003e0: 4a06 833d 20ea c9bb ee80 ed3d 195c 1ebe
000003f0: 740d 033d 540f ebbd 026b 18bd af62 183e
-0.08952706 0.08842941 -0.14486483 0.051329717 0.0069547296 -0.013766751 -0.14188646 -0.06318461
-0.10655065 0.0071504265 -0.10002904 -0.07724317 0.05041045 -0.107009046 0.12925734 0.08740027
-0.0422374 -0.14193313 0.119964436 -0.085871495 0.036865428 0.13048764 0.1364247 0.12379719
-0.09683334 0.08485848 -0.111438945 0.15600692 -0.12632552 -0.13090475 0.10971065 0.12718649
0.047086015 -0.09586172 0.047529534 0.05365406 -0.13642177 0.019187301 0.0883484 0.029674798
-0.09298407 -0.05921588 -0.09026057 0.1510958 0.11041112 0.008718371 0.04102707 -0.06644799
0.09395029 -0.15505674 -0.15549909 -0.08794677 -0.05889728 -0.10077962 -0.09675557 0.068014055
0.019981503 0.1150973 0.039776042 -0.004952267 -0.08065476 0.048270702 -0.09980193 -0.13706839
0.13093688 -0.10432628 -0.13013692 -0.1381163 -0.09022766 -0.0018214136 0.10348596 -0.12768404
0.13396333 -0.08855472 0.13292383 -0.10235745 0.1452594 -0.1503115 0.12293269 -0.017518997
0.15672271 0.13698997 0.0072190464 0.113121256 -0.14867741 0.064198494 -0.13604707 -0.07045527
0.08383936 -0.029453471 -0.0024657398 -0.15608092 -0.15272409 0.0063416213 0.07073139 0.11323725
-0.004858181 0.04837309 0.11656095 0.079922676 -0.039990038 -0.07851502 -0.05935236 -0.035607256
-0.011179358 -0.0028074682 -0.06601013 0.05517222 0.04761286 0.09547879 0.1124887 0.05418408
-0.046514943 0.12829958 -0.079276696 -0.088735364 -0.0022460371 -0.10598155 -0.073041715 -0.09358587
0.15583403 0.13123904 0.08385864 0.06725089 0.019993305 -0.122242555 -0.092278585 0.04174827
-0.10259281 -0.018043354 0.09493546 -0.03587091 0.0018983036 -0.08164567 0.0697557 0.049266383
-0.09026693 0.15281518 -0.10973664 -0.13793387 -0.04125917 0.07791859 -0.06414393 -0.037135728
0.13786255 0.114811644 -0.0866517 0.14730777 0.12653516 0.03660071 -0.107011326 -0.102530554
-0.035528094 -0.0425196 -0.032148436 0.122688845 -0.05486793 0.05792752 0.021604657 -0.01200594
0.13165869 0.019420221 0.14787348 -0.07299729 -0.15358536 -0.0101109 -0.049110837 -0.08915993
-0.037436157 0.14039807 -0.041466035 -0.11816804 0.007292062 -0.018015116 0.06874296 -0.0037455708
-0.08263679 0.09277247 -0.07502761 -0.13606988 -0.08034504 -0.09166225 -0.14765051 0.10166891
0.012430906 -0.098478585 -0.013504505 -0.09350358 -0.15684073 0.08859664 0.11162965 -0.1019188
-0.013179645 -0.1269719 -0.1415506 0.013045266 -0.08307116 0.01791969 0.0023909807 0.1015275
-0.027093291 -0.022658765 0.008295238 0.117231265 -0.064219594 -0.045093946 0.021225408 -0.11009383
-0.056857027 -0.027395263 0.013157561 0.125625 -0.07819522 -0.09429251 -0.14392482 -0.15022212
0.005350411 -0.116687976 0.019203946 0.11486222 -0.03156346 -0.13434787 0.022531286 0.051608637
0.13302542 0.03722094 0.15536012 -0.10496266 0.07599151 -0.040319435 0.0628227 -0.08799024
-0.09722607 0.1289575 0.12800066 -0.12346725 0.1578003 0.14078443 0.115557924 -0.061603755
-0.092478946 -0.05537402 0.053358734 -0.075709194 0.1450377 -0.055919267 -0.12704717 0.1542374
0.06397684 -0.006161943 0.11596857 -0.1546482 0.03199525 -0.11477533 -0.037211426 0.14881395

bias_ih_l0 f4 [160]
00000000: dafd 4d3e 20c6 bc3d f20e 313e d766 823e
00000010: 4d10 2c3e be96 663e 5f94 a63e 27d4 503e
00000020: 9606 af3e d63c 7a3e 26b5 983e a5c0 363e
00000030: 0d0f a73e 1b25 1f3e 860e 1d3e 9d6f 9f3e
00000040: 491c ce3e ae6e 603e c4b8 873e 4341 ef3e
00000050: ed56 a73e b9a6 ae3e 353f ff3d 1fa7 e63e
00000060: f3d3 ec3e 9102 893e 98bf a43e 307d 683e
00000070: 55a4 233e 1440 c83e a5ca bb3d 0533 bc3e
00000080: 62a5 f63e 7a22 0a3e 4c6b eb3e 4ac9 743e
00000090: ddf1 483e 2eba a53e 7b3c 683e e832 963e
000000a0: e72b 213e ce2a a03d 6a65 14be 2c43 0c3d
000000b0: f084 293c 992f 1ebe cea1 c43d 6d19 f3bd
000000c0: 0593 bdbd d332 94bd 70d7 08bd 5677 17bd
000000d0: d96b cdbd e5e7 103e 04c1 00be fc02 6ebd
000000e0: 2241 993d a7e8 093e 6881 d2bc 94c9 1e3d
000000f0: 3bf4 013e 44d1 fdbd 7015 05bd be69 fb3d
00000100: b1a2 96bd efb2 0d3e 161d 0bbe fc9d b93d
00000110: 8f5e 82bd 13d2 1a3e 566d c63d 3b57 0d3e
00000120: 6033 d03b 5163 183e 488a eebd 6390 03be
00000130: 9b3f 07be d616 c83d bedc 16bd 025a 5bbd
00000140: bc2a 453e e6f6 75bd fb6d b93e 0b8d a3be
00000150: 2d45 5fbd 53da fabd e7d8 8db9 0994 813e
00000160: 3a04 a7bd 0921 ee3c 8f61 0ebe f5c9 0d3d
00000170: bddd 513e f832 80be d832 45bd 4921 153e
00000180: 71af ed3d aaa4 fcbd 14c8 8dbd cdfa 833c
00000190: c9aa 683d 9ba0 19be 5797 23be a332 83be
000001a0: 1b79 00be bf85 e43c 9f1c 06be 43ad 793e
000001b0: 1fd2 8ebe 9963 703d 1cdf 883e 9743 dbbd
000001c0: 8cdb 44bd 1439 043e cc40 283b d727 7bbe
000001d0: 94d8 5f3e 7073 67be 629a 14be 6377 b2bd
000001e0: b65d a53e 35df 943e 3135 753e 0b3f 3a3e
000001f0: 378f c13e 4ecb f63e 74a8 913e c430 4c3e
00000200: a696 5f3e 3c4c cd3e 0cf4 063f 57c9 1e3e
00000210: 1fa7 583e 8043 bb3d 2238 883e 83c7 863e
00000220: 4119 a13e 7fcb bf3d 758a ba3e 8e3e 8b3e
00000230: 4206 7f3e f68e c03e 1a37 6d3e b329 5b3e
00000240: 8804 853e b3d3 423d e252 603e b882 403e
00000250: 5363 4c3e d57c 063f 48b2 9e3d c138 593e
00000260: 63ae 8a3e 2bf0 7b3d c487 a83e 7437 ee3e
00000270: 1b31 c43e 4ed0 aa3e fa0a ee3d f58e 853e
0.20116368 0.09217477 0.17290857 0.25469086 0.16803093 0.22518441 0.32535073 0.2039343
0.34184712 0.2443727 0.29825705 0.17846926 0.3262867 0.15541498 0.15337572 0.31139842
0.40255955 0.21917221 0.26508152 0.46729478 0.32683507 0.34111574 0.12463228 0.45049378
0.46255454 0.2675977 0.32177424 0.22704005 0.15980656 0.39111388 0.09169511 0.36757675
0.48173052 0.13489714 0.459803 0.2390491 0.19623514 0.32368606 0.22679321 0.29335713
0.15739404 0.07820664 -0.14491811 0.034243748 0.010346636 -0.15447845 0.09601174 -0.11870084
-0.092565574 -0.072362565 -0.033408582 -0.036979042 -0.10030336 0.1415096 -0.1257363 -0.058108315
0.07483126 0.13467656 -0.025696471 0.03876646 0.12690823 -0.1239343 -0.032491148 0.12276028
-0.0735525 0.13837789 -0.13585314 0.09063336 -0.06365692 0.151192 0.09688823 0.13802807
0.0063537806 0.14881636 -0.11647469 -0.12848048 -0.13207857 0.097699806 -0.03683161 -0.053552635
0.19254583 -0.060049914 0.3621672 -0.31943545 -0.05450933 -0.12248673 -0.0002705522 0.25308254
-0.08155103 0.029068487 -0.13904403 0.03461643 0.20494743 -0.25038886 -0.04814419 0.14563479
0.116057284 -0.12336095 -0.069229275 0.016110802 0.0568035 -0.15002672 -0.159757 -0.2562457
-0.12546198 0.027895806 -0.13096856 0.243825 -0.27894685 0.058688734 0.2673272 -0.10706251
-0.04806094 0.12912399 0.0025673388 -0.24526916 0.21859962 -0.2260263 -0.14512017 -0.087141775
0.32298058 0.29076543 0.23946072 0.18188111 0.37804577 0.48201984 0.28448832 0.19940478
0.21834812 0.40097225 0.52716136 0.15506493 0.21157502 0.09143734 0.26605326 0.2632409
0.3146458 0.09364986 0.3643376 0.27196163 0.24904731 0.3760907 0.23165551 0.21402626
0.2598002 0.047565173 0.21906617 0.18799865 0.19959764 0.5253423 0.07748848 0.21213056
0.27086172 0.06150834 0.3291608 0.46526682 0.38318714 0.3336205 0.11623187 0.2608563

bias_hh_l0 f4 [160]
00000000: 11aa ac3e 6b4f 4f3e 2e13 043e c3df 973e
00000010: 3d65 c73e 0e51 e73e 6373 cb3e ebbf 1b3e
00000020: 8a93 773e d6d8 d73e 99f4 3f3e e3fc 363e
00000030: 9bcc ae3e 79e4 b63d e30d 893e 3db2 9b3e
00000040: 317c d53e a497 a23e 88e2 d73e 4f89 893e
00000050: 918a ad3e 4325 993e a25f 483e e38d cf3e
00000060: e562 e13e 1666 c53d 27c5 e23d 22fa 523e
00000070: 02c5 8b3e 711d 053f 2af4 323e b966 143e
00000080: e0ae b23e 9d6a 933e 971b 013f 3251 8d3e
00000090: 1fbe b43e 1b48 c43d 785b 663e 6ad6 d13e
000000a0: be9f 02be ac1c 0abe e8f2 933c c2b0 973d
000000b0: 685e 87bc 8625 3dbd d23d a7bd a646 cdbd
000000c0: dc20 ddbd 3a97 c9bd aeca ce3d 021a 5ebd
000000d0: 47b6 b0bd 34e1 8fbd 19a0 11be 8898 dbbd
000000e0: f820 a7bc 8ab0 12bd dcb9 3a3d 08f2 3abd
000000f0: 7a91 33bd 00c1 6bbc a2ea bbbd fca8 0dbe
00000100: 780e 893c ff03 013e 8cb4 833d 8847 733d
00000110: 085e 3a3d 00bf a7bb 20d4 703d 1285 eb3d
00000120: 1c2e 44bd a71b f5bd 41a1 1f3e fa95 e83d
00000130: a411 bb3d 4eea e73d ab1f 093e 84d4 b83d
00000140: 0ae5 433e b132 be3d 57be 9f3e 0f0d babe
00000150: 57d2 5c3b e8b6 53bc dc33 083b 91f4 423e
00000160: a718 0d3d dab9 76bd e8f0 103c 376c 0f3e
00000170: 7593 073e dd0d b4bb e1ea 52be 84a1 58bd
00000180: 5994 203e 6353 11be ca08 5bbc e397 ffbd
00000190: f3ad 59bd 38df 8dbe 8338 4abe 9f88 b1be
000001a0: 5a47 86be 62bb 133d b185 67be 370c 363b
000001b0: 56d9 88bc bdb2 c9bd cf75 653e d75c b7bd
000001c0: 3aa1 f93d ccdc 733e e750 22be d444 bcbe
000001d0: 2273 033e 6895 0d3d 3127 81be e8f9 173d
000001e0: 5bf0 863e c174 233e 0e56 a13e 1d6d 5b3e
000001f0: 3acd b73e da59 b83e a018 873e a8fe 6e3e
00000200: 2cc6 673e 97b2 ff3e a7db db3e 2f5a b83e
00000210: 17f5 6d3d ea31 533e 36b9 8d3e 1d58 633e
00000220: e164 d23e 5a38 ab3e eff3 c93e aaa5 c03e
00000230: 32e7 883e a92c 863e 1dad eb3d d34a 673e
00000240: 028c b13e 3999 1d3e a6ca 4d3e a608 803e
00000250: 333e b33e 4c14 983e 93c0 723e 3313 493e
00000260: cfd2 f53e 0f4b 0d3e 58d8 ca3e d042 c53e
00000270: 6f64 c53e c037 9a3e 45dc 773e 7015 d83e
0.337235 0.2024514 0.12897941 0.29662904 0.38944426 0.45179027 0.3973647 0.1520993
0.24177375 0.4215762 0.1874565 0.17869906 0.34140477 0.089302965 0.26768407 0.30409423
0.41696313 0.31756318 0.42165017 0.2686257 0.3389478 0.2991124 0.19567731 0.40537938
0.44020763 0.09638612 0.1107276 0.2060323 0.27298743 0.5199805 0.17475954 0.1449231
0.34899044 0.28792277 0.50432724 0.2760101 0.353013 0.095840655 0.2249583 0.40983897
-0.1275625 -0.134875 0.018060163 0.07406761 -0.016524509 -0.046178363 -0.08166088 -0.10023241
-0.10797283 -0.09843297 0.10097252 -0.05422402 -0.08628517 -0.07025376 -0.14221229 -0.107224524
-0.020401463 -0.035812892 0.045587406 -0.045640975 -0.04383991 -0.0143892765 -0.09175612 -0.13833994
0.016730532 0.1259918 0.06430921 0.05939439 0.04549983 -0.0051192045 0.05879605 0.114999905
-0.047895536 -0.11968165 0.15588857 0.11356731 0.09134224 0.11323987 0.13390987 0.09024909
0.1913034 0.09287012 0.31199905 -0.36338088 0.0033694708 -0.012922026 0.0020782864 0.19038607
0.03444734 -0.060235836 0.008846499 0.14006124 0.13239844 -0.0054948167 -0.20597412 -0.05288841
0.1568159 -0.14191966 -0.013368795 -0.12480142 -0.053144407 -0.27709365 -0.1974812 -0.34674546
-0.26226312 0.036067374 -0.22609593 0.0027778277 -0.016705196 -0.09848545 0.22408222 -0.08953255
0.12188955 0.23814696 -0.15851174 -0.36771262 0.12836888 0.034566313 -0.25225213 0.037103564
0.26355252 0.15962507 0.31510967 0.21428342 0.35898763 0.3600605 0.26385975 0.23339331
0.2263419 0.4994094 0.4294102 0.36006305 0.058095064 0.2062451 0.27680367 0.22201581
0.4109259 0.3344143 0.3944392 0.37626392 0.26738888 0.26205948 0.11507628 0.22587137
0.3467713 0.15390481 0.20096835 0.25006598 0.35008392 0.29702985 0.23706274 0.1963623
0.48012397 0.13798164 0.39618182 0.38527536 0.38553187 0.3012066 0.2420512 0.42203856

weight_ih_l1 f4 [160, 40]
00000000: cbeb 593e f059 ad3d 939b 5e3e ec76 a7be
00000010: 0fa6 233c a8dc c8b8 e7af 82bc 3050 073e
00000020: a5a7 843d 5095 a23d aabf 2d3e a906 3b3d
00000030: ef1f 8bbd e9c7 9abd 647f 273b 6645 1ebe
00000040: d73b 22be d3ad 2f3d 0197 733d dd78 18be
00000050: 48c6 49be 9996 3bbe 2c0d cbbd 44b6 a1be
00000060: 0f25 b2bc 8021 213e daa9 2c3d 356e 43be
00000070: 4b43 2fbe eee7 9e3d 58bb cf3d 3a7f 22bd
00000080: c6fd 7abc 4ef4 4f3e 371e 76bd 8660 aabe
00000090: deba 3c3e d44c 84bd 64f2 b3bc 0733 513d
000000a0: 8e84 0e3e 9845 943e e6a7 783e 4eb0 94be
000000b0: 195f ccbd 161c bbbd 4f7c 1cbe 3d10 67bc
000000c0: fdaf c0bd c05a 7e3b f119 b03c 4891 d03d
000000d0: 6920 2d3c cb2f b0bc dcba 9e3c bc2c 663d
000000e0: cd73 073e c766 8dbe 151c b03d 795e ba3d
000000f0: a76b 57be f410 60be 8d36 03be 54d6 f43c
00000100: 63f3 6cbe 9343 6a3e c060 06be eb89 903e
00000110: 097f 4d3d fe08 273e 455c c03d e6f8 a1be
00000120: 11e8 ecbd 8d85 743e 9405 5a3c cd9a b5be
00000130: 61e3 933d be05 31be 2bdc 61be fd93 763d
00000140: 3b62 08bd 12b7 c23d ff26 9d3e 9202 91be
00000150: 55a8 803e 8ce9 363e 595f ee3c 4ead 7d3e
00000160: f0e6 a73d 17e1 82be ec17 47bd 18aa b2bd
00000170: 740c 7ebc 5c40 8cbe b78c 9c3d e6a2 60be
00000180: a0b1 19be b7f2 ba3c 3479 683e e5bd f13d
00000190: a40b edbd afb6 e23c c2f4 8fbe 7b25 63be
000001a0: 52f7 6ebe 0edb fd3d e24f b7bd cf34 893d
000001b0: 7bab 99be eb96 d13d f586 b13d 051a 36be
000001c0: e1a2 06be a2dd 923e 33ad a5bb 64bb b2be
000001d0: 8011 aebb f8de 0dbe 05d2 20be 196f 803d
000001e0: 72cd 2cbd 6bc7 0e3e 2d4c 3b3d c798 88be
000001f0: 60af 033c 0f68 013e c022 c63d fe9e 653d
00000200: d00e 30be e4c9 60be 8c69 30bd 8ba3 6d3d
00000210: 3489 a13d 3a17 a3bd 707a 0dbe 34a0 49be
00000220: 307e 153d 566a 07be e157 443e 1f48 933c
00000230: dea8 a93c 4757 ba3d 313f 9dbd ab9f 90bd
00000240: 720d 09be 197e 2e3d b31a 38be 943d febd
00000250: ba4d 40be d858 0bbe 80b5 ba3d e73a b13b
00000260: a879 7cbe 8b19 973d 4494 63bd 94fc 9dbe
00000270: 9f29 073d 9cb1 b3bd 6b6e fbbd 4179 a0bc
00000280: db4e 6f3e 41da 1cbe b54d 6a3d 82db a3be
00000290: d3bc 93be 1b51 a5bd 6097 0e3d b03f 393e
000002a0: 0ea0 bd3d be34 5a3e e4f7 15be b3c2 0c3d
000002b0: 60fb 303e 2694 093e a737 a1bd f293 053e
000002c0: b068 aa3e 8e67 893c aba1 f0be 53db 363d
000002d0: 5a54 a13d cfb0 dfbd 95c4 acbe 5785 2ebf
000002e0: 3195 c4bd a1de 063e eecb 11bd a539 d33e
000002f0: 2361 d0bd d60a 28bd b588 583d 3c5c 1abe
00000300: 6244 0b3e 3d1a fc3d 9b1d d4be 098d 9fbe
00000310: 2315 2b3e 8f6c 16bf 9dcb ebbd 51d5 cdbd
00000320: 6644 b83d 52ba 783d bcbb 983e 6c7b 83be
00000330: 7d53 5bbe 1b4d 8c3e 8893 f9bd ae56 a03e
00000340: d707 8f3a 7187 42be 5f33 62bc 318c c13c
00000350: bb24 663e 17e4 4d3c d9da edbc 45b5 1abd
00000360: 66a9 193d 186e 33be 06e9 3bbe 9edb 283e
00000370: ba82 1dbe d44c 09be 81e8 04bd 38b9 17be
00000380: e9c0 e2bd 064e f63c 066e 6fbe a015 263d
00000390: 1c2d 46bd ef2e 963e a8c6 4c3e f377 80bd
000003a0: 68a9 9fbd 09b6 933e f2ab bb3d af53 cbbe
000003b0: ae28 363e 6516 16be 792b 1cbe 139d f43d
000003c0: c2ee 333e 29d8 48bd cf3b 293e dfd2 01be
000003d0: 5f9e 003d 7e7b eb3c e72c b63d e70a 20bd
000003e0: b981 47bd 9089 99bd b7c6 623d 1167 e03d
000003f0: cd6a 47bc f10a 7abe 35c6 793d a20f 1dbd
0.21281354 0.0846442 0.21739034 -0.32707918 0.009988322 -9.5778436e-05 -0.015953017 0.13214183
0.06477288 0.07938635 0.16967645 0.04566065 -0.067932 -0.07557661 0.0025558108 -0.15456161
-0.1584314 0.04289038 0.05947018 -0.14889856 -0.19704545 -0.18319167 -0.09914622 -0.3158437
-0.021746187 0.15735435 0.04215417 -0.1908501 -0.17115514 0.07759081 0.10143155 -0.039672114
-0.015319293 0.20308039 -0.06008741 -0.33276767 0.18430659 -0.06459966 -0.021966167 0.051074054
0.13917753 0.28959346 0.24282798 -0.2904076 -0.09979076 -0.09136216 -0.15281795 -0.014102993
-0.09408567 0.0038811415 0.021496745 0.1018396 0.010566809 -0.021507164 0.01937621 0.056195006
0.13227768 -0.27617475 0.08599106 0.091000505 -0.2103716 -0.21881467 -0.12813778 0.029887356
-0.2313972 0.2287734 -0.13122845 0.28230223 0.05016998 0.16312024 0.09392599 -0.31635207
-0.11567701 0.2387907 0.013306994 -0.35469666 0.072211035 -0.17287347 -0.22056644 0.060199726
-0.033296805 0.09507574 0.30693814 -0.28322273 0.25128427 0.17862529 0.0290982 0.24773142
0.08198345 -0.25562355 -0.048606798 -0.08723849 -0.015505899 -0.27392852 0.07644027 -0.21937141
-0.15009165 0.022820814 0.22702485 0.11803798 -0.11574486 0.027675001 -0.28116423 -0.22182266
-0.23336533 0.12395297 -0.08950783 0.066995256 -0.30013642 0.102338634 0.08668319 -0.17783363
-0.13148071 0.28684717 -0.0050560473 -0.34908593 -0.0053121448 -0.13854587 -0.15705116 0.0627119
-0.042188115 0.1394326 0.045726944 -0.2667906 0.008037418 0.12637351 0.09674597 0.05605983
-0.1719315 -0.21952015 -0.043069407 0.058017295 0.078874975 -0.079634145 -0.13816237 -0.19690019
0.036497295 -0.13224158 0.19174148 0.017978726 0.020710405 0.09098678 -0.076780684 -0.07061704
-0.13384035 0.042600725 -0.17978935 -0.12414089 -0.1877965 -0.1360811 0.0911665 0.005408633
-0.24655783 0.07377919 -0.05556132 -0.30856764 0.032998677 -0.08774111 -0.1227692 -0.019589068
0.23369925 -0.15317632 0.057203013 -0.3200341 -0.28855 -0.0807211 0.03481233 0.18090701
0.09259044 0.21309182 -0.14645344 0.034365367 0.17283392 0.1343542 -0.07871943 0.13044718
0.33282995 0.016773012 -0.46998343 0.044642758 0.07877417 -0.109223954 -0.3374373 -0.6817221
-0.095987685 0.13170864 -0.035594873 0.41254917 -0.10174777 -0.04102596 0.05286475 -0.15074247
0.13600305 0.12309692 -0.41428837 -0.3116229 0.16707282 -0.587594 -0.115134455 -0.100504525
0.08997421 0.060724564 0.2983073 -0.256801 -0.21418567 0.27402577 -0.121863425 0.3131613
0.0010912371 -0.1899698 -0.013806193 0.023626419 0.22474949 0.012566588 -0.029035019 -0.03777053
0.037515067 -0.17522466 -0.1835061 0.16490027 -0.153819 -0.13408214 -0.032448296 -0.14816749
-0.11071951 0.030066501 -0.23381814 0.040547967 -0.048382863 0.29332682 0.19997656 -0.062728785
-0.077959836 0.2884982 0.09163655 -0.39712283 0.17788956 -0.1465698 -0.15250959 0.11944022
0.17571548 -0.04903427 0.16526721 -0.12678097 0.031401034 0.02874541 0.08895283 -0.039072897
-0.048707698 -0.07496941 0.05536529 0.10957158 -0.012171459 -0.24418236 0.06098004 -0.038344987

weight_hh_l1 f4 [160, 40]
00000000: 68a6 acbc c05d a93c d036 613c 20f7 9abc
00000010: a7e8 9abd 0fbd 193e 012a b0bd 68b3 ae3c
00000020: e23e e43d cccb 423d 6b69 d2bd ff46 96bd
00000030: 6153 0bbe 8452 febd efcc 0d3e ea56 f13d
00000040: 7095 a03d 68d7 c8bc 20f4 dcbb 783a d1bd
00000050: 2004 863d 38b6 493d bac1 e93d 1024 62bc
00000060: be15 e93d a427 793d 78fa c3bc d25f 14bd
00000070: 2425 623d fc78 03bd 8e34 f73d cc3e c2bd
00000080: 8219 9c3d 806d 7dbc 0dad 14be 8019 96bb
00000090: 12e6 b8bd 61dc aabd 2c4d 9bbd 4712 a8bd
000000a0: b435 69bd 7dfb 0abe f008 c33c c050 953d
000000b0: 4254 a6bd 96ef 18bd 4071 8bbb 1279 0dbe
000000c0: 280b 973c 1a3d a4bd fe56 07be c0e3 d03b
000000d0: c2b9 b73d c1d3 07be 1a01 f9bd 694a 16be
000000e0: f7d9 8dbd 2d97 19be 6633 89bd b84c 16bd
000000f0: 2a17 f73d 8a2f af3d f2ed ee3d 93f9 183e
00000100: 4a2e 86bd 1a88 72bd b8b1 a5bc b042 dfbd
00000110: 787c ba3c f041 d73c fe74 79bd 7bb1 f1bd
00000120: 66e8 ddbd c06d 503d e8ca e6bd e0e2 6fbc
00000130: 361b a73d e297 e9bd b695 17be 3054 bdbc
00000140: 2bfd 103e 48e7 573d 6244 ccbd 7e90 cf3d
00000150: 26f7 d53d c4c5 a73d d884 253d 8611 f13d
00000160: 08d2 05be 82d2 82bd 50e6 7a3c 7712 003e
00000170: 1ac7 e63d eadd 8c3d bc04 503d b08d 6c3c
00000180: 30ce f1bc dae6 b73d 67d4 bdbd a516 fcbd
00000190: 7159 b9bd 986f 533d d0eb 1e3c 6090 823d
000001a0: d876 863c 7d37 fbbd 90de abbc d085 3f3d
000001b0: 4840 bbbc 68bd 453d b267 0bbe 6845 5b3d
000001c0: 8c04 b93d 72dc c33d d2af ba3d 66ba 00be
000001d0: 0033 b6ba 57f7 c6bd 3637 0cbe a894 c43c
000001e0: 3468 f7bd 76f7 a13d f074 4a3c 2d2e 82bd
000001f0: 4259 c3bd 26d0 39bd 1671 f43d 00b8 70ba
00000200: 5c76 a03d 98f3 e7bc fab0 ca3d 8fe5 173e
00000210: 2ca5 6c3d 5cdf a33d 809e 9ebb b98f 0a3e
00000220: 90e2 9d3d 2579 023e 8c96 2f3d 0a9f a93d
00000230: 71ce 0f3e ed43 80bd e0f8 283d 4cfc 1b3d
00000240: 7860 f9bd 4014 34bc 99b6 1e3e f814 c6bc
00000250: 0828 8a3d d1a9 0f3e ae48 f73d 26c1 56bd
00000260: 002a 49bc c026 69bb db3b 013e be33 a33d
00000270: 9c42 22bd 76b5 dc3d e04d f83b 947c 8bbd
00000280: a282 43bd e0d5 5d3d 606e 58bc 82a3 e53d
00000290: 6347 0b3e c01d 7c3b 764c 40bd fb4e abbd
000002a0: d4c9 18be 8b10 103e c4d5 473d a32b d4bd
000002b0: 8cc2 10be 106b 3abc 9d12 90bd 609a 87bc
000002c0: c87d 61bd ba20 ff3d e2b9 dd3d 5802 fe3c
000002d0: 8c75 0bbe 9d1e bebd 7834 e73c 2a8a 49bd
000002e0: 9a24 df3d d8b7 da3c 989e 85bc 3a8a 54bd
000002f0: 2a13 e43d d7bb 1d3e 6610 d03d 06e6 e13d
00000300: 2c6b 05be 3c06 523d 54b1 bb3d 9649 a0bd
00000310: 46ca 09be 7d22 013e 0aa9 823d e434 783d
00000320: 0631 12be 50b0 3e3c dd9b d0bd 38a5 1fbe
00000330: 940c 85bd 67be 1a3e 5a56 e83d 9dad 0bbe
00000340: 4a0b a73d 005c 93b9 1e0e db3d f04a 3a3d
00000350: 356b 213e 8d8d 013e 169e de3d 9a47 f53d
00000360: cde1 86bd 86fa 2cbd 3212 19be 8816 673d
00000370: 20bb be3b 38cc 6b3d a6f2 f53d ec5d 983d
00000380: 8a83 d83d cb7d 193e 208f a0bc f67d 5bbd
00000390: e4fc 893d 002f 713a 76d4 f73d fac7 813d
000003a0: 8464 dabd ec49 243d c096 023b fe77 993d
000003b0: c80b 113d 8d32 04be 0577 0e3e d06a febd
000003c0: ad6c 023e cfbd 213e cedf 0bbe 48a4 883c
000003d0: 541d 553d d9f6 183e 9a84 e8bd f014 f13c
000003e0: b096 2e3c 1050 7f3c d80f 97bc 8a9d f33d
000003f0: d764 a0bd 8929 073e b0f1 533d 8a05 07be
-0.021075442 0.020674586 0.0137459785 -0.018916667 -0.07563906 0.15013526 -0.086017616 0.021325782
0.111448064 0.047557637 -0.10274013 -0.0733776 -0.13606025 -0.12418082 0.13847707 0.11784156
0.07841003 -0.024516776 -0.006742969 -0.1021623 0.065437555 0.049246043 0.114139035 -0.013802543
0.113811 0.06082882 -0.023923144 -0.036224194 0.0552112 -0.0320978 0.12070571 -0.09484634
0.07622053 -0.015468001 -0.14519139 -0.0045806766 -0.090282574 -0.08342815 -0.07583079 -0.08206611
-0.05693598 -0.13572498 0.023807973 0.072907925 -0.0812154 -0.037337862 -0.004255444 -0.13815716
0.018437937 -0.08019467 -0.13216779 0.006374806 0.08970977 -0.13264371 -0.12158413 -0.14676823
-0.06926339 -0.14999075 -0.066992566 -0.03669426 0.12064965 0.08553989 0.11666478 0.14938955
-0.06551798 -0.059211828 -0.020226344 -0.109013915 0.02276443 0.026276559 -0.060902588 -0.1180143
-0.10835342 0.050885916 -0.1126917 -0.014641494 0.08159487 -0.114059225 -0.14803204 -0.023111433
0.14159076 0.0527108 -0.099739805 0.101349816 0.104475304 0.08192018 0.040409893 0.117709205
-0.13068402 -0.063878074 0.0153137 0.12507044 0.11268444 0.06878264 0.050785765 0.014438078
-0.029517263 0.08979578 -0.09269028 -0.123090066 -0.09050263 0.051620096 0.009699777 0.063751936
0.016414091 -0.12266443 -0.02098015 0.046758473 -0.0228578 0.048276335 -0.13613775 0.053532988
0.090340704 0.09563531 0.09115566 -0.12571105 -0.0013900697 -0.09715145 -0.13692936 0.023996666
-0.12080422 0.079085276 0.012356982 -0.063564636 -0.09538509 -0.04536452 0.11935632 -0.00091826916
0.07835075 -0.028314397 0.09897037 0.14833663 0.057774708 0.08001587 -0.004840672 0.13531388
0.07709229 0.12741525 0.042868182 0.082822874 0.14043595 -0.06262956 0.04125297 0.038082406
-0.12176603 -0.010991156 0.15499343 -0.02417992 0.067459166 0.14029624 0.120744094 -0.052430294
-0.01227808 -0.0035576075 0.1262049 0.079688534 -0.039614305 0.107767984 0.007577643 -0.06810871
-0.047732003 0.054159045 -0.013209909 0.11212827 0.1360145 0.003846988 -0.04694792 -0.08364674
-0.14920741 0.1406881 0.048787847 -0.103598855 -0.14136714 -0.011378065 -0.070348 -0.016553104
-0.055051595 0.12457414 0.1082647 0.031006977 -0.1361906 -0.09283183 0.028223261 -0.04920403
0.10895653 0.026698992 -0.016310975 -0.051889636 0.11136468 0.15403686 0.10159378 0.110302016
-0.13029164 0.051275477 0.09164682 -0.078265354 -0.13456067 0.12610812 0.06379898 0.060597315
-0.14276513 0.011638716 -0.101859786 -0.1559037 -0.0649654 0.15111695 0.11344595 -0.13640447
0.0815645 -0.0002810657 0.10696052 0.045481622 0.15763552 0.12651654 0.10869996 0.119765475
-0.06586037 -0.042231105 -0.14948347 0.05641797 0.005820647 0.057567805 0.12009172 0.07439789
0.10571964 0.14989392 -0.019599497 -0.053586923 0.06737688 0.0009200424 0.121010706 0.063369706
-0.10663703 0.04010956 0.001992628 0.0749359 0.035411626 -0.12909909 0.1391259 -0.124227166
0.12736769 0.15795062 -0.13659593 0.016679898 0.052029923 0.14937915 -0.11353417 0.02942893
0.010656044 0.015583053 -0.018440172 0.118952826 -0.07831734 0.13199438 0.051744163 -0.13185707

bias_ih_l1 f4 [160]
00000000: c172 713e 4c2d c33e e17e d93e 62ec dd3e
00000010: f9d2 af3e 7643 fa3e 95c3 a73e a687 b03e
00000020: ff99 a23e 4c2d db3e f142 a83e a22e a63e
00000030: ddc2 ac3d b463 413e 49ab 943e 18fc 083f
00000040: f701 b13e 13a0 d33e 651b 153e 632c 843e
00000050: 643e 0a3f a1e8 733e f55f cc3e 2320 c13e
00000060: 598b bb3e 409b 793e fbea b93e bf30 023f
00000070: 2fbb ee3e 81e5 bf3e 9f8d 063f 254f 3d3e
00000080: ce74 763e 6d36 d23e 321d 8e3e 2b67 a63e
00000090: 9e70 6a3e eab8 973e bf9f dc3e ed46 973e
000000a0: 8e03 9dbd 0e4f 893d 309e 2c3d 588d 8cbc
000000b0: 6693 1ebe 98fe 0ebe a0e0 8bbb 8a28 4ebd
000000c0: 4883 a93d 600e 903d f86f 703d db7f 87bd
000000d0: 771b 1fbe 0efe e2bd d6bb 0bbe 5659 ab3d
000000e0: b476 f0bd f0b7 c73c 16b2 2fbd a08e ea3b
000000f0: a568 043e 3d19 023e 1ba1 a4bd d0c7 1abe
00000100: 764d b73d 406a bbbb 93e4 1f3e 7819 153d
00000110: 3617 e73d 6a20 e73d 0834 f5bc 9275 833d
00000120: 9855 f83c 0991 1dbe 0635 1fbe 4c48 0bbe
00000130: a2a3 ea3d 528a fc3d 565c f73d 8ec4 febd
00000140: afbd 893d cdf2 e3bd 0ca4 1b3e 7465 b7bd
00000150: 7f39 87be 04e5 34be cfbb a13d e12b d9bd
00000160: 9f24 cf3d 0257 c2bc 1e4c 03be 3c11 3abe
00000170: a643 4d3c 1da8 7c3d effd f23d 7eab 38bc
00000180: 5e6e 2d3d a75f 3b3d 943d bdbc dd40 a03d
00000190: 8b78 12be ba53 05bd 2555 cb3d c679 1e3c
000001a0: 2bfe c7bd dce1 19bd 379b 043e c1d4 1b3e
000001b0: 7f9e 213e a970 cbbc a6b4 39be c6c6 f13d
000001c0: 05d9 d53d d1a9 b0bd 0f6a cabd 8696 d8bd
000001d0: 483a 3c3d b1c6 c43d 2695 1dbe 28c7 e1bd
000001e0: fe11 b03e 51cf 813e 301e 023f 0ef6 a33e
000001f0: 012a 2a3e d4c4 903e da77 cf3e 88a0 983e
00000200: f792 463e ab7b b33e 5f9a 7c3e 94b9 b53e
00000210: eb96 113c 7744 b23e 018e 863e 7e4c 083f
00000220: 11ca 033f 1697 4f3e cb18 d13e ccd1 123e
00000230: abfe 753e 7f31 8a3e 7515 e93e 6815 173f
00000240: 504b b53e 4dd5 b43e 6a80 a43e 4a50 073f
00000250: e3fc 7e3e 74de c83e 0563 a73e 8795 673e
00000260: be47 833e 0a7e 433e 993e 263e 0d4d a53e
00000270: c792 463e 16b1 a43e 8ba7 a63e d214 5f3e
0.23578931 0.38120496 0.42479613 0.43344408 0.34340647 0.48879594 0.32766405 0.34478492
0.31758115 0.42807996 0.32863572 0.32457453 0.08435605 0.1888569 0.2903693 0.53509665
0.34571812 0.41333064 0.14561231 0.25815114 0.5400145 0.2381921 0.3991696 0.3771983
0.3662975 0.2437563 0.36312088 0.5085563 0.46627185 0.37479785 0.52559847 0.18487222
0.24067995 0.4105715 0.2775665 0.32500586 0.22894523 0.29633266 0.43090627 0.295463
-0.07666694 0.067045316 0.042143047 -0.017157242 -0.15485916 -0.13964307 -0.0042687207 -0.05033163
0.08276993 0.07033992 0.05870053 -0.06616183 -0.15537821 -0.11083613 -0.13645872 0.08366649
-0.11741391 0.0243797 -0.042894445 0.0071581155 0.12930544 0.1270494 -0.08038541 -0.15115285
0.089503214 -0.005719453 0.15614538 0.036401242 0.11283724 0.11285479 -0.029932037 0.06418909
0.030314252 -0.15387358 -0.1554757 -0.13601798 0.11456992 0.1233107 0.120781586 -0.124398336
0.067256324 -0.11130295 0.15199298 -0.089548975 -0.26411054 -0.17665488 0.0789715 -0.10604072
0.10114407 -0.02372313 -0.12822005 -0.18170637 0.012528336 0.061683763 0.1186484 -0.011271356
0.042341582 0.045745518 -0.023100652 0.07824872 -0.14303796 -0.03255055 0.099283494 0.009672588
-0.097652756 -0.037568912 0.12949835 0.15217878 0.15783118 -0.024833994 -0.18135318 0.11805491
0.10441784 -0.0862614 -0.0988351 -0.10575585 0.04595402 0.0960821 -0.15388927 -0.11024314
0.34388727 0.25353482 0.5082731 0.32023662 0.16617586 0.28275168 0.40521127 0.29809976
0.19392 0.3505529 0.24668263 0.35493147 0.008886079 0.3481786 0.26280215 0.5324172
0.51480204 0.20272478 0.40839228 0.14337844 0.2402293 0.26990888 0.45524183 0.5901704
0.3540902 0.35318986 0.32129222 0.52856886 0.24901156 0.39232218 0.32692733 0.22615634
0.25640672 0.19091049 0.16234817 0.32285348 0.19391929 0.32166356 0.325497 0.21785286

bias_hh_l1 f4 [160]
00000000: 6348 c83e 66af f43e fde4 c43e 20cc a13e
00000010: 0efd 7a3e 5cef 973e 078c 8a3e d8d7 a83e
00000020: 0126 6d3e 1ec8 c53e dfac 953e 5020 a23e
00000030: 0e1b ce3c 9891 c43e 6d7c e63d 8281 b63e
00000040: 9d6a d53e 6b62 c63e 6650 973e af81 d33e
00000050: 4510 c83e a0e4 913e f27e 883e d557 ef3e
00000060: d7b4 b13e 08f6 8f3e e1e2 363e e623 f03e
00000070: 816d 913e 0dc7 c03e 4494 c43e 2778 743e
00000080: 1109 803d e2a3 853e a4a9 643e ffc2 af3e
00000090: 7aea b03e b802 923e 1340 dd3e fd67 ca3e
000000a0: 15d1 c7bd a0e8 963c be55 bfbd e40a 00be
000000b0: 5e0c d5bd 9237 04be 35c2 abbd 3891 23bd
000000c0: 9046 a93c a01d 5fbc 3889 4a3d 206b eabb
000000d0: 62c7 f73d 7a1c 10bd b4ac 5e3d 3090 b53c
000000e0: b815 6f3d c0a2 85bb a4d4 00be 5a3e 40bd
000000f0: 0ed3 d6bd a2de 893d be9e 8abd d278 c23d
00000100: d45b 2f3d 326b fc3d f05f 78bd 7a4f e63d
00000110: f7ea 8fbd a653 3cbd b4b8 3c3d c83e 06bd
00000120: 66c7 b7bd 0e8f 9c3d bb0b 003e f085 4a3c
00000130: a0ab 243c b8d7 f33c 5805 f43c 0815 a0bc
00000140: 0f6a 6d3d 01b1 12be 9426 dcbd c554 573d
00000150: 01cd 9abe 9022 4f3d 2b0a 28be 487c 183e
00000160: 6f53 ae3d 9921 353c 8705 84bd e05b eebb
00000170: 34f0 8e3d 2f63 dabc 4106 65bc b41c f03d
00000180: 3295 8d3d 5fec 2d3d 186b 56bb 5be4 b63d
00000190: dae4 09be 24ca c83d 0308 e33d 4e2a 1bbc
000001a0: d8dc c2bd 43e3 253e b54b 09bc 3020 9b3d
000001b0: d012 e73d ca18 1b3c 0bac 04bd 696f 2a3d
000001c0: e71b 523d c3ac 823d 87d3 88bd a05d ae3d
000001d0: 319e 703e 3bb0 e9bd 6992 3b3c 0252 8cbd
000001e0: b2cb a03e 1172 6e3e 7f46 083f 741e 893e
000001f0: 12f3 7a3e 75b1 f93e 64fa fb3e c834 d23e
00000200: 3f8b 673e 95ad 913e bc28 d73e ee40 a53e
00000210: 060e 903e 11e8 be3e f923 693e 8931 013f
00000220: fb73 dd3e 345b 9b3e ef71 743e 16d6 613e
00000230: 82d5 fc3e 9bce ae3e 5d33 893e eceb 093f
00000240: 7973 833e 1f8e 8a3e 5ffe 5f3e 94a9 293f
00000250: aaa9 b63e 3251 853e 391b 9d3e e76b 4d3e
00000260: e56c 013e 16d7 e53e b108 063e cb1c ad3e
00000270: 4154 8e3e 5e43 c13e b152 8e3e 7f96 d73e
0.39117727 0.47790068 0.38455954 0.31601048 0.24510595 0.29674804 0.27059957 0.32977176
0.23159029 0.3862924 0.29233453 0.31665277 0.025159385 0.3839233 0.11254201 0.35645682
0.41682902 0.38746962 0.29553527 0.41309878 0.39074913 0.2849474 0.26659352 0.46746698
0.34708282 0.28117394 0.17859985 0.46902388 0.28403857 0.37651864 0.38394368 0.2387396
0.06251729 0.26101595 0.22330338 0.34328458 0.3455389 0.285177 0.43212947 0.39532462
-0.09756676 0.018421471 -0.09342526 -0.12504154 -0.104027495 -0.12911823 -0.083866514 -0.039933413
0.02066353 -0.013617903 0.04944727 -0.0071538836 0.12098576 -0.035183407 0.05436392 0.02216348
0.058370322 -0.004078239 -0.12581116 -0.046934463 -0.10489474 0.06731917 -0.06768559 0.09495701
0.042812183 0.123251334 -0.060638368 0.11245628 -0.07027238 -0.04597821 0.046074584 -0.032774717
-0.08973579 0.07644473 0.12504475 0.012361035 0.010050684 0.029765949 0.029787704 -0.019541278
0.057962473 -0.14325334 -0.10749546 0.052571077 -0.3023453 0.05057007 -0.16410129 0.1489116
0.085120074 0.011055374 -0.06446367 -0.007274136 0.06979409 -0.026658623 -0.013978542 0.11724225
0.069132224 0.04246175 -0.0032717641 0.08930274 -0.13466206 0.0980418 0.110855125 -0.009470535
-0.09514779 0.16199975 -0.008379866 0.07574499 0.11282885 0.009466359 -0.032390635 0.041610155
0.05129614 0.06380608 -0.06680971 0.08513951 0.23497845 -0.114105664 0.011448481 -0.06851579
0.31405407 0.232857 0.5323257 0.26781046 0.24506786 0.487682 0.4921447 0.41055894
0.22611712 0.28452745 0.42023265 0.322761 0.281357 0.37286428 0.22767629 0.5046621
0.4325255 0.3034302 0.23871587 0.22054324 0.49381644 0.34142002 0.26797 0.53875613
0.25674036 0.27061555 0.21874379 0.6627438 0.35676318 0.2603851 0.30684832 0.20060693
0.12639196 0.4489066 0.13089253 0.3381103 0.27798656 0.3774671 0.27797464 0.42107007

weight f4 [6, 40]
00000000: 8cc7 cfbe 8b1f 883d 87f7 a8be 29ea df3e
00000010: ae88 fcbd 6b02 bebd f1a7 923e b6e4 d0be
00000020: 3076 b33e e83e c63e 9237 cf3e 2f4e 9a3e
00000030: 97d4 c13c 4840 c0be 6b7f f5be 4e9f 0abe
00000040: 31db 43be f62b 823e a4f4 123e f4f0 a7bd
00000050: 0c1d ca3e 7308 903e 097a 21be 37a7 7e3e
00000060: ce7d 56be 651f ee3c 0f16 09bf 6608 dabd
00000070: 7ac7 04bf faa5 383e 2cff c33d 451d 963e
00000080: 0ce4 a83c 7ca6 b2be 9822 55be b39c adbd
00000090: 6d1e a6be 9b7f 70be 518a d83e 1196 563e
000000a0: 3456 41be d39f ee3e a542 aebe 7c55 cc3e
000000b0: c1d2 67be 0699 973e 0f45 9d3d 28e7 b2bd
000000c0: 7a91 733e 8b28 88bd d839 473e 9f21 6b3e
000000d0: 842b df3e 9d28 89bd bb2a adbe 206a f3be
000000e0: ad08 a0be c9ea 503d 843c c73e ad9b 95bd
000000f0: 4947 b23e 0437 be3e daaa dabe 0e99 dc3e
00000100: 1afb b5be 5225 09bf e248 57be 45e4 03bf
00000110: 8645 aebe 6f58 e23d 974b d73e e9d5 28be
00000120: 3b23 d2bc 3573 fcbb 42c0 c2be 02a3 fdbe
00000130: 2c0a 5cbd 2ee6 773e fc60 c63e c6eb 56bd
00000140: edda a5be 0e50 f8be dab9 523e 360b 0ebd
00000150: ef7e 4c3e 31ae 41bf 7268 d93e 2705 91bd
00000160: 5ee6 5e3e e165 fa3e 009e ee3d 331f 253e
00000170: abd0 b6be 15f0 9fbd 6d1b acbd 8dd2 033f
00000180: 2266 5a3e db31 fb3e 5571 35bf f270 11bf
00000190: fd07 883e 9083 a1bd 3cfe e43e 77fc 27be
000001a0: e7a7 823d 7bac 243f 16e5 37be 4b88 0f3f
000001b0: fc99 4bbe 4d93 c03e 7848 1ebf b30a 323f
000001c0: b210 043e 5c75 99be 1a7a 8d3e 3e69 b93d
000001d0: 6f06 2dbf 6f4e 38bf a80c 523c 9ad6 273f
000001e0: 8333 003c 976d 5bbe 3e8d b63c 78d8 0bbd
000001f0: 6b26 84be 1b26 9fbe 6f70 a93d 8d51 f9bd
00000200: 61e8 453e 15c3 19bd bae8 d3bd 4f7d 44bd
00000210: 6daa f9bb e8fb 14be 0577 68bd d020 9c3e
00000220: 39b8 883e 2529 2c3e 2744 5bbe a37e 753d
00000230: b23e 21be 3b8a 933b 61f5 573e 59ae c6bd
00000240: 363a 4cbd 9bf5 903e bd12 fcbb dc35 913e
00000250: 0579 59bc 1acd 783c 82c6 a4be fd27 153e
00000260: 08b8 593e 7fa3 32be 386f bc3d 124a de3d
00000270: 6c6a 183d 7239 8ebd 8ed1 24be 025f 5dbc
00000280: a1d4 40be 4393 33be 0924 fabd 455c 673d
00000290: 8df3 00be 39f0 9ebd 78fa 3a3e 134d 91be
000002a0: a2ee 2f3e 73cb 0c3e 556e 033d 524c 5f3d
000002b0: 9c5e 93bd 9411 54be 77ea 563c 62ab 833e
000002c0: f32f cfbb c7b9 193e 45ad 17be b720 05be
000002d0: 5838 183e 24f3 d83d 5f88 183e 68a0 fc3d
000002e0: bbe2 81bd 9b84 7e3e f579 04be 2841 ba3d
000002f0: c530 87bd 96d2 6e3e 5902 8bbe c115 173e
00000300: 727d d13e e50d 95be e7a7 0fbe 7556 5abb
00000310: 34cc 36bd 813e 6fbe 7c97 c23d 02c0 f83d
00000320: a229 233e 1ea2 c4bd e4f0 513e 8418 4ebe
00000330: bf6a 8dbe f0f4 a33c f4dd 28be 3f2b 2d3e
00000340: be2f 023d 4085 1abe d28f dabe 4d92 a7be
00000350: 9cce eebd a305 483e 69b9 113d 26db 523e
00000360: cb25 a53e b742 54bd 109b 723d 0f4d 383e
00000370: 2966 adbe 38a6 abbd 5cfb f53d fefc 8cbe
00000380: 81c7 d53d f370 a63d 1769 1c3e e556 283e
00000390: 1ed3 643d 5f14 b4bd c41b 9cbd fd09 19bd
000003a0: b243 bebd dba4 d73d c12b 073e 0c8d 4b3e
000003b0: 0a16 b73d 4c82 07bd 5b19 a4be 5fb4 58be
-0.4058193 0.06646641 -0.33001348 0.43733338 -0.12330757 -0.09277805 0.28643754 -0.40799493
0.35051107 0.3871987 0.40472084 0.30137774 0.023660941 -0.37549043 -0.47948775 -0.13537332
-0.19126584 0.25424165 0.14351135 -0.08200255 0.39475286 0.28131446 -0.15769209 0.24868475
-0.20946428 0.029067704 -0.53549284 -0.10646133 -0.5186688 0.18032065 0.095701545 0.29319206
0.020616554 -0.34892642 -0.20813978 -0.08477154 -0.32445088 -0.23486178 0.42293027 0.20955683
-0.1888054 0.4660631 -0.3403522 0.3990897 -0.2263899 0.29608935 0.076791875 -0.08735496
0.23785964 -0.06648358 0.1945566 0.22962044 0.43587887 -0.066971995 -0.33821663 -0.47541904
-0.3125662 0.05100516 0.38913357 -0.073050834 0.3482001 0.3715135 -0.42708474 0.4308552
-0.35543138 -0.5357257 -0.21023896 -0.51520187 -0.34037417 0.110520236 0.42049858 -0.1648785
-0.025651565 -0.0077041634 -0.38037306 -0.49538428 -0.05372064 0.242089 0.38745868 -0.052470945
-0.3239359 -0.48498577 0.20578709 -0.03467866 0.19970296 -0.7565642 0.42462498 -0.07081061
0.21767566 0.48905852 0.1165123 0.16125183 -0.35706076 -0.07809464 -0.084036686 0.5149315
0.21328023 0.49061474 -0.70876056 -0.56812966 0.26568595 -0.07886422 0.44725215 -0.16404901
0.06379681 0.64325684 -0.17958483 0.5606734 -0.19882959 0.37612382 -0.6182933 0.69547576
0.12896994 -0.2997235 0.2763222 0.090532765 -0.6758794 -0.7199468 0.0128204 0.6556183
0.007824781 -0.21428524 0.022284146 -0.034141988 -0.2581056 -0.3108376 0.08273398 -0.12173758
0.19326927 -0.03753956 -0.103471234 -0.047971066 -0.0076191933 -0.1454922 -0.05675413 0.30493784
0.2670305 0.1681257 -0.21412717 0.059935223 -0.15746573 0.0045025623 0.21089698 -0.09701223
-0.0498602 0.28312382 -0.0076926635 0.28361404 -0.013273482 0.015185619 -0.321827 0.14566036
0.21261609 -0.17445181 0.09200901 0.108539715 0.037210867 -0.069445506 -0.16095564 -0.013511421
-0.18831111 -0.17536645 -0.122139044 0.05648448 -0.12592907 -0.077606626 0.18259609 -0.28379115
0.17180875 0.13749485 0.032087643 0.054516144 -0.0719578 -0.2070983 0.013117424 0.25716692
-0.0063228547 0.15012275 -0.14812191 -0.13000761 0.14865243 0.105932504 0.14895771 0.123352826
-0.063420735 0.24855272 -0.12937148 0.09094459 -0.06601099 0.2332252 -0.2715023 0.14754392
0.4091602 -0.29112163 -0.14028893 -0.0033315693 -0.044628337 -0.23363687 0.095015496 0.121459976
0.1593385 -0.09601234 0.20502049 -0.2012654 -0.27620503 0.020014256 -0.16490918 0.16911028
0.03178381 -0.15089893 -0.4268785 -0.32728806 -0.11660501 0.195334 0.03557721 0.20591411
0.32255396 -0.051821437 0.05922991 0.17998146 -0.33867005 -0.08381313 0.120108336 -0.27536768
0.10438443 0.08127012 0.15274464 0.16439398 0.0558654 -0.08792948 -0.076224834 -0.03736304
-0.092902556 0.105294906 0.13200285 0.19878024 0.089397505 -0.033083245 -0.32050595 -0.21162556

bias f4 [6]
00000000: 1554 2bbd 91a7 923e d248 9abe d02d c93e
00000010: 0040 5b3e ce1d 7d3e
-0.041828234 0.28643468 -0.30133682 0.39292765 0.21411133 0.24718401
