models/219/state_dict.pt (torch_old, 88287 bytes, 10 tensors)

lstm.weight_ih_l0 f4 [160, 10]
000000 63 67 4b bd e5 76 40 be 59 c1 3e be dc 75 4d 3d
       -0.049659144 -0.18795355 -0.18628444 0.050161228
000010 1b e2 0f bf 8b 9a 32 bf 65 a0 a6 3e 57 3f 1f bf
       -0.56204385 -0.69767064 0.32544246 -0.62206024
000020 db 49 f0 be b4 19 28 3e 92 67 38 bc aa 05 8a bd
       -0.46931347 0.16416055 -0.011255162 -0.067393616
000030 a0 e7 e7 bc 1c df bd be 68 c0 95 bc dc 28 5b 3c
       -0.02830869 -0.3708428 -0.018280223 0.013376441
000040 16 4d a7 bd 9f a7 86 3e 38 ca 0e 3e 9f c4 76 3d
       -0.08169 0.2629976 0.13944328 0.060246106
000050 f0 38 ed 3d 6f 13 9e be cf a5 1a be a1 8a 58 be
       0.115831256 -0.30874202 -0.15102313 -0.21146633
000060 3b 21 22 be e8 5c 87 bc 52 2e 76 3e 1f 03 b1 3c
       -0.15832989 -0.016523793 0.24041107 0.021607934
000070 65 c7 58 bc da 72 4b 3e 5c 88 86 3c 61 ce c5 bd
       -0.013231133 0.19868031 0.016422443 -0.09658504
000080 45 9c 49 3d 8f 6d ce bd 95 b3 53 3c 49 9f ed bd
       0.049221296 -0.100794904 0.012921234 -0.11602647
000090 4b 6a 95 3e 8e d6 53 bd 0a f7 1e 3e b8 2d bf 3d
       0.29182658 -0.051718287 0.15523925 0.09334892
0000a0 9a dc ee 3d 43 b3 88 3c 7a 7d 7c be 1f e6 1b 3d
       0.1166317 0.016687041 -0.2465724 0.038061257
0000b0 4b 1f c1 be 38 5f bf be 2b dc 05 3d 69 51 05 bf
       -0.37719187 -0.37377334 0.03268067 -0.5207735
0000c0 64 9f e3 be 1f 90 ba 3d 97 24 cf 3d e0 81 63 3c
       -0.44457543 0.0910952 0.10114401 0.013885945
0000d0 a0 29 cb 3c c5 e4 b4 be 80 ef a4 3e 16 e3 d7 3e
       0.024800122 -0.35330787 0.32213974 0.4216544
0000e0 81 22 b9 3d ea 9d d4 3e 12 06 dc 3e e1 7b 1d bd
       0.09039784 0.4152673 0.4297338 -0.03844822
0000f0 c5 44 08 bd 12 49 55 bd 5f 48 86 bd 20 7e a1 bd
       -0.03326871 -0.05207164 -0.065567724 -0.078853846
000100 ea 9b 58 be 1a cd 49 be 47 df 18 3e 49 89 51 3c
       -0.21153226 -0.19707146 0.14928924 0.012789079
000110 62 3f c4 bd 48 44 14 3d 7c f9 37 be a2 84 15 3e
       -0.09582402 0.03619793 -0.17966264 0.14601377
000120 be e9 50 3c d3 28 ac be 88 71 a0 3e f4 71 98 3d
       0.012751041 -0.33624896 0.31336617 0.0744361
000130 32 99 86 3e b5 19 14 3e 80 47 8f 3d cb 1b ab 3e
       0.26288754 0.14462931 0.069960594 0.33419642
000140 ba 83 1c bd e3 79 10 be 8a 0d 8a be a7 4e 3f 3d
       -0.03821156 -0.14108996 -0.26963454 0.046705868
000150 a6 c2 33 bd fc 81 1d 3d 95 c4 2d bb 88 7b f8 bd
       -0.043886803 0.03845404 -0.0026514877 -0.12132937
000160 ba b1 10 be f8 65 c5 3d 75 74 be 3d 6e 03 ef bd
       -0.14130297 0.096385896 0.09299556 -0.11670576
000170 e1 23 43 be 1e 67 1e bc 57 23 64 be ee 37 81 be
       -0.19056655 -0.00966814 -0.22279106 -0.25237983
000180 5e b0 f7 bd 86 5d a8 be e0 fd 7e be 9b e3 e6 3c
       -0.12094186 -0.32883853 -0.24901533 0.028184703
000190 4e 74 9e bd be 41 b6 bc 96 7d 57 bd 6b 90 9d 3e
       -0.07737027 -0.022248145 -0.052610002 0.30774245
0001a0 43 e0 a7 be 21 53 ff be 02 5d 54 bd 27 29 b4 be
       -0.32788286 -0.4986811 -0.05184651 -0.35187647
0001b0 ae e8 02 bf c9 d7 41 3e cb a4 0f be b9 ac 25 3e
       -0.5113629 0.18929972 -0.14027707 0.1617917
0001c0 54 3d f1 3d d1 f8 94 bd c4 c3 da bc 46 1d 03 be
       0.117792755 -0.072740205 -0.026704676 -0.12804136
0001d0 07 6b 4f 3e 84 5c 3f be e2 46 3e be f2 46 8d 3e
       0.20255671 -0.18687636 -0.18581727 0.2759319
0001e0 a5 c1 b5 3d 5f ee b5 bd 82 77 67 be 42 03 df 3d
       0.088748254 -0.08883356 -0.22604182 0.10889293
0001f0 6d 1d 83 be ab 81 7f be 97 71 f8 3d 80 39 33 be
       -0.25608388 -0.24951808 0.121310405 -0.17502403
000200 24 c0 df be 4b 8f fa 3d b1 47 be 3d a0 a7 d7 3c
       -0.4370128 0.12234362 0.09291018 0.026325047
000210 ba df 9a bb 28 65 17 be d0 d1 a1 bc 27 13 80 bd
       -0.0047263773 -0.14784682 -0.019753367 -0.06253653
000220 4e c7 a2 3e 00 f0 8a 3d 64 b8 74 bd a1 66 63 3e
       0.31792682 0.067840576 -0.05974616 0.22207119
000230 e9 28 32 be 13 46 fd 3d 40 4c 1e 3e 4b 07 76 be
       -0.17398418 0.12366881 0.15458775 -0.2402622
000240 91 52 eb 3c 33 fe fb 3c c1 ba 86 3e 28 b8 87 3e
       0.028725894 0.03076086 0.26314357 0.26507688
000250 b4 c1 77 3e 47 3b bc 3e 4c 0f 07 3d b8 3a 23 be
       0.24194986 0.36763975 0.032973573 -0.15940368
000260 a7 ef 28 be 96 58 2b be 37 a5 0d be 13 46 25 3c
       -0.1649767 -0.16733012 -0.13832556 0.010087508
000270 76 c6 12 3e 0f 46 db bd d8 59 e4 bc 14 82 a3 3d
       0.1433352 -0.10706722 -0.027874872 0.07983795
000280 1a b1 04 be d6 ea 00 be f3 8b 21 be 07 aa d2 bc
       -0.12958184 -0.12589583 -0.15776043 -0.025715841
000290 a5 52 fc bd c5 ba 2e bd eb 3a be 3d cd 25 5a be
       -0.12320451 -0.042658586 0.092885815 -0.21303482
0002a0 14 5e a6 be e8 64 6e bd 72 e4 aa 3d f9 83 12 be
       -0.3249365 -0.0582017 0.08344354 -0.14308156
0002b0 3c 3a 8a be 1e bf 9b bd 08 63 3b 3e 45 a9 b2 3d
       -0.26997554 -0.07604812 0.18299496 0.08723692
0002c0 c9 24 14 3e a6 b6 19 3e 18 f4 08 3e e9 2e 28 3e
       0.14467157 0.15011081 0.13374364 0.16424145
0002d0 ce e3 f6 3d 9e 11 e2 bd ae 96 be bd ab c6 d6 bd
       0.12055169 -0.110385165 -0.093060836 -0.10487112
0002e0 37 f7 30 be f4 7d f2 bd 66 0e d5 3c 07 8d 86 be
       -0.17281805 -0.1184043 0.026007842 -0.2627947
0002f0 4b 6e b5 be 7f bd e6 3d ca cc e1 3d 53 fe c9 3d
       -0.3543571 0.11266612 0.110253885 0.098629616
000300 8a 67 27 bb 98 43 b0 bd c4 87 52 3c 22 b2 13 3d
       -0.0025543892 -0.086066425 0.012849752 0.036058553
000310 a8 98 76 3e cd ea 31 3d 7d 8e 41 3e ed 1e 8d 3e
       0.24081671 0.043436814 0.18902011 0.27562657
000320 71 08 90 bd 0f 93 a8 bd 79 91 15 be c6 a5 03 be
       -0.0703286 -0.08231174 -0.14606275 -0.12856206
000330 66 85 10 3e 1e 50 e0 3c 45 30 da 3c c2 43 99 3d
       0.14113387 0.027381953 0.026634345 0.07483627
000340 f0 05 fc bc fa a2 61 3e d5 a9 27 bc 35 ea 56 3d
       -0.03076455 0.22034827 -0.010233362 0.05246945
000350 a4 a9 dc bc e0 7d 2b be 0f 08 2b bb ad 52 b6 bd
       -0.02693636 -0.16747236 -0.0026097333 -0.08902488
000360 49 ae 83 3e 5a ce 02 be bd b8 86 3c e0 74 5b 3e
       0.25718907 -0.1277403 0.016445512 0.21431303
000370 bd f8 6a bd a0 e9 45 be 28 3e 4e be d5 d1 ad be
       -0.05736612 -0.19327402 -0.20140898 -0.33949152
000380 d1 80 61 bd 47 0a 00 3d 56 e1 09 bd 2b ac 4b 3c
       -0.05505449 0.0312598 -0.033662163 0.012431185
000390 21 bc df 3d 8f d6 32 3e 84 e2 e7 3d 56 7e 5e be
       0.109245546 0.1746466 0.11322501 -0.21727881
0003a0 1c 4d 5f bd 2d eb a5 bc 94 4d c7 3d f0 05 c0 bc
       -0.054516897 -0.020253742 0.09731594 -0.023440331
0003b0 ac 6d fe 3b 0a c8 dc 3d 78 8c f0 bc 66 ad 53 bc
       0.0077645388 0.10780342 -0.029363856 -0.012919759
0003c0 56 f8 74 3d 1a e1 74 be 8e 5b 6e be be 56 85 bd
       0.059807144 -0.23913994 -0.23277113 -0.065106854
0003d0 bb bd c8 bd 3c 4f 77 be a3 ab 8a bb 43 d6 20 be
       -0.09801813 -0.2415132 -0.0042318865 -0.15706734
0003e0 15 e3 b0 bd 59 22 be 3c 8d 58 3c 3e 14 0d 1b be
       -0.086370625 0.023209738 0.18393154 -0.15141708
0003f0 14 99 87 bd 6f 7d 69 be f7 e3 99 bd e5 59 8e 3d
       -0.06620994 -0.22801755 -0.07514184 0.0695074

lstm.weight_hh_l0 f4 [160, 40]
000000 4a 3c 8c 3d c8 50 d0 bd d8 61 93 3c 88 3f ff bc
       0.06847437 -0.10171658 0.017990991 -0.031158224
000010 35 1b 1b 3e e0 45 50 3c e1 16 13 be d0 75 92 bc
       0.15147097 0.012711972 -0.14364196 -0.017878443
000020 94 d4 39 3d 44 0e 02 be 96 af f1 3d 04 4e 80 3d
       0.045368746 -0.12700754 0.118010685 0.0626488
000030 6e 04 be 3d 2f c8 12 be 70 fb fd 3c a6 d8 64 bd
       0.09278189 -0.14334176 0.031003684 -0.055870675
000040 22 08 f8 3d be cc 42 bd ae be f7 3d a8 71 23 bd
       0.12110926 -0.04755854 0.12096916 -0.039903313
000050 5a da 86 3d 22 82 e5 bd e4 1a b0 3d fb d9 0b 3e
       0.06584616 -0.112064615 0.08598879 0.13657372
000060 48 7a 2e 3d b6 b0 9e 3d 78 0e a0 bc 2a 37 b2 3d
       0.042597085 0.07748549 -0.01953815 0.08701928
000070 0a c5 1f bd 02 eb b0 3d cb 6a 21 3e 21 7e bd bd
       -0.03900627 0.08638574 0.15763395 -0.09252573
000080 13 02 04 3e 40 1d 5e 3b c6 5e 1c be 23 b7 20 3e
       0.12891416 0.0033891946 -0.15270528 0.15694861
000090 74 aa 01 be 50 e5 43 bc 8c ac af 3d 08 99 ae 3c
       -0.12662679 -0.011956528 0.085778326 0.021313205
0000a0 cc d1 10 be 7c f6 68 3d 24 c3 94 3d f8 e1 a6 bc
       -0.14142531 0.05687569 0.072637826 -0.020371422
0000b0 eb de 13 3e d2 46 d0 3d 07 cc 04 3e 88 81 d9 bc
       0.14440505 0.10169758 0.12968455 -0.026551023
0000c0 40 ca 79 3d 45 97 16 3e ac 39 1e be 75 ac aa bd
       0.060983896 0.14706142 -0.15451688 -0.08333675
0000d0 70 7a 0e 3d cc 14 0b 3d a0 a3 23 bc c5 f4 14 3e
       0.034784734 0.03395538 -0.009987742 0.14546497
0000e0 90 f6 b3 3c 01 84 08 3e f0 b3 3a 3c 6f 5e 91 bd
       0.021968156 0.13331605 0.0113954395 -0.0709809
0000f0 e2 35 16 be 40 11 43 3c 80 48 de bc e2 a5 13 be
       -0.14668992 0.011905968 -0.02713418 -0.14418748
000100 fa cd 23 bd fc 3a 15 3d d0 56 23 3c 70 59 4e 3d
       -0.039991356 0.036433205 0.009969428 0.050378263
000110 c2 0d 84 3d 28 80 3c 3d 10 c4 07 bc 8e 82 ed bd
       0.064479366 0.046020657 -0.008286491 -0.11597167
000120 58 7e 9d 3c 3e f3 dd bd cd d9 8f bd 3c 06 ac 3d
       0.019225284 -0.108374104 -0.07023964 0.083996266
000130 b2 25 0d be d6 de e9 3d 26 a7 a0 3d f8 74 38 3d
       -0.13783911 0.11419456 0.07844381 0.045033425
000140 6a 2f 87 bd e2 8c bf 3d 3e e7 6b bd bf 9c 0d 3e
       -0.066008404 0.09353043 -0.057593577 0.13829325
000150 a0 68 14 be ea ca d0 bd 46 93 15 be 70 8c c2 3c
       -0.14493036 -0.10194953 -0.14606962 0.023748606
000160 00 06 08 ba 06 ff aa 3d ae b7 16 bd aa 24 a8 3d
       -0.00051888824 0.08349423 -0.036796264 0.08210118
000170 4a 86 3d bd 2c 4a 6b bd d6 de 21 be 1c b5 ab 3d
       -0.046270646 -0.057443783 -0.15807661 0.08384153
000180 16 d0 dd 3d 8c 9f 14 be ce 06 f9 3d 6d 4d 0d be
       0.10830705 -0.14513987 0.12159501 -0.13799067
000190 38 20 ea bd 70 ef 9f bc 2d b9 0c be 49 29 14 be
       -0.114319265 -0.019523352 -0.13742514 -0.14468874
0001a0 eb 7f b0 bd 62 7c a2 bd a7 f8 a1 bd d0 6e b9 bc
       -0.086181484 -0.079338804 -0.07908755 -0.022635847
0001b0 08 88 e1 3c f6 d0 d3 bd cf 4e 03 3e 66 bf 05 be
       0.027530685 -0.103425905 0.12823032 -0.13061294
0001c0 1d 10 85 bd 6e 54 f7 bd e8 c9 51 3d 00 4a b2 3d
       -0.06497214 -0.120766506 0.051217943 0.08705521
0001d0 f0 4d f4 bc 36 51 a6 3d 20 e1 fb 3c e4 2c 5b 3d
       -0.02982232 0.081209585 0.030746996 0.053509608
0001e0 98 d2 d4 bd a0 7c 37 bc d5 d2 b7 bd 98 b1 ad 3d
       -0.1039173 -0.0111991465 -0.0897576 0.08481139
0001f0 3c 85 1c be 10 fc f8 bc 60 e5 e3 bb 53 07 c3 bd
       -0.152852 -0.03039363 -0.006954834 -0.09522881
000200 3d 9c 01 be 0a e6 b0 bd 72 bc 1a bd 5a e7 91 bd
       -0.12657256 -0.086376265 -0.03777737 -0.07124205
000210 38 2b 81 3c 00 dd b1 3b ac 69 d0 bd 87 04 17 3e
       0.015767679 0.0054279566 -0.10176405 0.14747821
000220 e6 ba dc 3d de f0 48 bd 23 57 1d 3e 58 58 85 3c
       0.107778355 -0.049057834 0.15365271 0.016277477
000230 00 83 40 3c a0 e5 5f 3c 27 ac 95 bd 7f ec 15 be
       0.011749983 0.013665587 -0.07308226 -0.14640997
000240 90 67 50 3d 8a 1c 68 bd 80 27 02 bd 18 c6 6a 3d
       0.050880015 -0.056667842 -0.03177595 0.057317823
000250 00 89 df bc b4 bd c7 bd 14 82 33 bd d6 f8 0a be
       -0.027287006 -0.0975298 -0.043825224 -0.13571486
000260 c2 55 e6 3d a0 b7 40 bc 31 2d a4 bd 80 49 d2 bd
       0.11246826 -0.01176253 -0.08016432 -0.10267925
000270 51 6d 15 3e 32 88 65 bd 51 7b 02 be fa e6 bd 3d
       0.14592482 -0.05603809 -0.12742354 0.09272571
000280 24 0c d9 bd 94 2d 68 3d 37 5a 8e bd c6 97 e9 3d
       -0.10598019 0.05668409 -0.06950801 0.114059016
000290 00 00 5f b6 7a af f8 3d 3c db a6 3d e4 bb 53 bd
       -3.322959e-06 0.121428445 0.081472844 -0.05169286
0002a0 e0 3f d1 3c e4 fc 36 bd e6 26 1a be d7 d8 90 bd
       0.025543153 -0.04467477 -0.15053901 -0.07072609
0002b0 aa 0a 50 bd 42 15 c4 3d 9e 9c 98 bd a0 79 bf bc
       -0.05079142 0.09574367 -0.07451747 -0.023373425
0002c0 34 7a 3a 3d b8 3d 7a bd c8 53 e4 3c 0b 1a 1f be
       0.0455267 -0.061094016 0.027871981 -0.15537278
0002d0 de 58 db 3d 71 b7 0e 3e b2 b9 86 3d 02 83 e4 3d
       0.107103094 0.13937165 0.06578387 0.111578
0002e0 62 44 1e be d0 16 be bc 9b 16 13 3e 36 be 0b be
       -0.15455773 -0.023204237 0.14364092 -0.13646778
0002f0 78 7d 0f be e0 93 bc 3c 62 0e e9 3d 2c d6 99 3d
       -0.14012706 0.023019731 0.113796964 0.07511553
000300 cf 14 ec bd 1f 5f 06 be d2 0a bb 3d ea 3c c1 bd
       -0.115274064 -0.13122223 0.09132923 -0.094354466
000310 97 cf 12 be 77 81 b4 bd 1f 28 09 3e 90 65 44 3d
       -0.14337002 -0.08813756 0.13394211 0.04794842
000320 30 c9 7c 3c 54 2d 13 3d a8 83 f5 3c 36 3e 02 be
       0.015428826 0.0359319 0.029970005 -0.12719044
000330 fe 72 c5 3d 78 74 fb bc 17 94 07 3e e0 3b 0a bc
       0.09641074 -0.030695185 0.13240086 -0.008437127
000340 10 4e 8e bd 67 50 0d 3e 8e cf 9b 3d 40 62 47 bc
       -0.06948483 0.13800202 0.07607947 -0.012169421
000350 10 5a 3a 3d a0 3f e6 3b 76 87 f6 3d e5 5e 13 be
       0.045496047 0.0070266277 0.12037556 -0.14391668
000360 38 93 9d 3d 02 e5 c0 3d 38 11 08 bd a8 76 d5 3c
       0.076940954 0.0941868 -0.033219546 0.026057556
000370 68 cb 57 3d 80 0f ea 3b 67 0e 1b 3e 92 bc 1f be
       0.052684218 0.007142961 0.15142213 -0.15599278
000380 6a 82 d8 3d 60 32 ab bc f0 bc 30 bc 63 8a 11 be
       0.105717495 -0.020898044 -0.010787234 -0.14212947
000390 30 ad 5b 3d bc 63 b8 3d ec 06 85 3d f8 1d c7 bd
       0.05363196 0.09003398 0.06495461 -0.09722513
0003a0 0a 85 d7 bd 18 50 54 3d 00 cb cb 3b cd c9 f1 bd
       -0.10523422 0.051834196 0.006219268 -0.118060686
0003b0 80 cf c4 ba b4 04 1a bd 86 89 75 bd 00 ea 1d bc
       -0.0015015453 -0.03760214 -0.059945606 -0.0096383095
0003c0 a6 01 bc bd 56 bc e7 bd 80 6c 70 3c 60 db a0 3d
       -0.09180002 -0.11315219 0.014674306 0.078543425
0003d0 5c a1 fd bd c2 70 ca bd c0 f6 83 bb e2 b2 bc bd
       -0.123842925 -0.09884788 -0.0040272176 -0.09213807
0003e0 9e cb 38 bd 0a 9b 08 bd 20 26 03 bc b0 c2 9e 3c
       -0.04511606 -0.03335098 -0.008004695 0.019379944
0003f0 8e c2 fa 3d 0f a0 c4 bd 18 35 85 3c b6 8a 6c bd
       0.122441396 -0.09600841 0.016260669 -0.057749473

lstm.bias_ih_l0 f4 [160]
000000 3a 97 f5 3e ef eb 7c 3d c6 72 e8 3e 5d e9 a3 3e
       0.4796694 0.06174844 0.45400065 0.3201398
000010 97 c9 3f 3e 83 47 9b 3e a8 1e e7 3e fc ff c9 3d
       0.18729244 0.30327997 0.45140576 0.09863278
000020 c1 72 77 3e dd 7a a7 3e 37 80 84 3e ea 53 11 3e
       0.24164869 0.32710925 0.2587907 0.14192167
000030 c4 9a b4 3e db b2 0d 3e 56 40 41 3e eb be c0 3e
       0.35274327 0.13837759 0.18872198 0.3764566
000040 a8 7a 3b 3e 38 11 51 3e 86 2d ce 3e a2 08 a0 3e
       0.18308508 0.20416725 0.40269107 0.31256586
000050 82 34 ab 3e d7 ba 4b 3e ee 6a a4 3e 81 5c 83 3e
       0.33438498 0.19895492 0.3211283 0.25656512
000060 93 2a a8 3e 11 0b 77 3e f5 6e 7b 3e cd 98 c4 3e
       0.32844982 0.24125315 0.24554045 0.38397828
000070 82 40 0a 3e de 4c a9 3e fc d0 75 3e d3 05 9c 3e
       0.1350117 0.33066458 0.24005502 0.30473194
000080 41 f5 8e 3e e8 51 bc 3e 41 67 c7 3e e9 80 83 3e
       0.2792149 0.3678124 0.38945964 0.25684288
000090 83 de 79 3e 90 0e a6 3e 09 4d fd 3e d2 70 3f 3e
       0.24401288 0.32432985 0.49472836 0.18695381
0000a0 88 63 9a 3d 68 04 cd 3c 81 af c4 bd 98 d5 9e bd
       0.07538515 0.025026515 -0.09603787 -0.077555835
0000b0 06 8f e7 3d 40 0b 3f bd 1f b8 0b 3e 98 de 97 bd
       0.113065764 -0.04664159 0.13644455 -0.07415503
0000c0 00 20 65 3d 88 d9 81 bc b0 2f cf bc 3d 2f 11 be
       0.05593872 -0.015850797 -0.025291294 -0.14178176
0000d0 96 14 fb 3d e0 62 34 3d 80 d8 90 bb cf 44 82 bd
       0.12259786 0.044039607 -0.00442034 -0.063607804
0000e0 80 bb 53 bc ae 46 d6 3d d8 c9 f0 bd a8 bc a9 bc
       -0.012923121 0.104627 -0.11757249 -0.020719841
0000f0 04 01 6c 3d f0 5a a8 bd f0 5f fc bc 80 c8 ca 3a
       0.057618156 -0.0822047 -0.030807465 0.0015471131
000100 78 73 ea 3c c4 38 04 3d cd bf 04 3e 66 74 38 bd
       0.028619513 0.0322807 0.12963791 -0.04503288
000110 cc 1a f9 bd 8d 4a a9 bd 78 60 9b 3c 1a fd c4 3d
       -0.12163314 -0.082661726 0.018966898 0.09618588
000120 3a 9a ea 3d f4 bb 00 bd a9 b4 b2 bd e7 7f 84 bd
       0.11455198 -0.031429246 -0.087258644 -0.06469708
000130 60 50 c3 3b fc 49 0f be d8 a2 c7 3c a6 fe d3 3d
       0.005960509 -0.13993067 0.024369642 0.10351305
000140 a9 fd c6 be 4c de 43 be 64 76 22 be ad 45 08 3e
       -0.38865402 -0.19127768 -0.15865475 0.13307829
000150 91 7d 88 be a4 a9 d8 bd 2d 8d 27 bc 75 23 20 3e
       -0.266583 -0.105792314 -0.01022653 0.15638526
000160 f3 87 00 be f2 32 89 3e 1d a0 92 be b8 8f 9c bd
       -0.1255186 0.2679668 -0.28637782 -0.076446
000170 5f e5 aa be 33 90 d6 ba d8 3c 44 bd f1 97 a7 bd
       -0.3337812 -0.0016369879 -0.047909588 -0.081832774
000180 56 44 3e 3e c5 ed f8 3d 7f e1 54 3d 40 35 b3 3d
       0.18580756 0.12154726 0.051972862 0.08750391
000190 26 78 75 bd cd bc 69 bd 82 15 41 be 21 7c 81 bd
       -0.059929036 -0.05706482 -0.18855861 -0.06322504
0001a0 0f 7a ac 3e 32 b3 37 be 3f 73 ce 3c a9 23 ca bd
       0.33686873 -0.17939451 0.025201438 -0.09870083
0001b0 c6 17 99 3d 7e 5a 88 bc 38 91 59 3e e5 4e 00 3c
       0.074752375 -0.016644713 0.21246803 0.00783131
0001c0 14 ba 15 be f3 fd 35 3e 57 c9 b4 3c fe 4a 6a bd
       -0.14621764 0.17772655 0.022068663 -0.057200424
0001d0 6b 03 df bd ab 6f b9 3c 6f ac ba 3d a8 71 30 3e
       -0.10889324 0.022636255 0.0911492 0.17230856
0001e0 62 47 b1 3e 4b ea d0 3d 1d 30 bb 3e 07 66 bf 3e
       0.34624773 0.10200938 0.36560145 0.37382528
0001f0 cb da 5c 3e af 71 c2 3d ad 75 ab 3e 99 20 ce 3e
       0.21567838 0.0949434 0.33488217 0.40259245
000200 20 41 4f 3e 0c e4 9f 3e 57 22 b3 3e 72 91 87 3e
       0.20239687 0.31228673 0.34987137 0.26478153
000210 71 8e 06 3f 05 6d 10 3e f1 e4 06 3e f1 24 8d 3e
       0.525611 0.14104088 0.13173272 0.27567247
000220 ef 88 a4 3e dc 5e c8 3e f6 a0 0f 3f 56 f1 a3 3d
       0.32135722 0.39134872 0.5610498 0.080050156
000230 05 69 b8 3e 53 2d 6e 3e a8 30 60 3e 44 7b db 3e
       0.36017624 0.23259477 0.21893561 0.42867482
000240 ea 0d f8 3e bb cd 98 3e 8b 80 97 3e d7 81 b1 3e
       0.48448116 0.2984446 0.29590258 0.34669372
000250 27 8a 87 3e 56 ba 7d 3e 43 42 83 3e ee f1 16 3e
       0.2647259 0.24778113 0.2563649 0.14740726
000260 5b e5 fa 3c 92 64 e9 3d fb 7a aa 3e 14 42 81 3e
       0.030626943 0.113961354 0.33296952 0.25245726
000270 0a db 12 3e b6 ac 1f 3d 29 2e 7c 3e 2d 98 32 3e
       0.1434137 0.03898307 0.24626984 0.17440863

lstm.bias_hh_l0 f4 [160]
000000 9a de bb 3e 4d f1 8b 3e 32 2a c3 3e 93 72 9c 3e
       0.3669327 0.27332535 0.3811813 0.30556163
000010 15 16 90 3e 77 fb c3 3d 40 0c 9f 3e 88 de 31 3e
       0.28141847 0.095694475 0.31064034 0.17370045
000020 09 a0 6b 3e 36 b5 87 3e 17 72 a9 3e e4 8f 73 3e
       0.23010267 0.2650544 0.33094856 0.23785359
000030 95 ae 97 3e 21 7d 49 3e 0c 79 0b 3e 83 48 bb 3e
       0.29625383 0.19676639 0.13620394 0.3657876
000040 dc dc 90 3e 9f e8 c8 3e ac 4b dc 3e a4 dc 9b 3e
       0.28293502 0.39239976 0.43026483 0.30441773
000050 96 09 5b 3e 95 37 b4 3e 7c fd 32 3e c9 e3 a2 3e
       0.21390375 0.35198656 0.17479509 0.3181441
000060 e4 c8 0d 3f 75 ab 4b 3e 5e 60 af 3e 9f 99 d5 3e
       0.5538466 0.19889624 0.3425321 0.41718766
000070 fd f4 00 3e a8 9e 45 3e 3d cc 67 3e 77 e6 c9 3e
       0.12593456 0.19298804 0.22636504 0.39433643
000080 e5 e0 97 3e 3b cc 80 3e 54 33 8f 3e ec b3 a0 3e
       0.29663768 0.25155815 0.27968848 0.3138727
000090 18 61 b7 3e b8 99 f4 3d 8d b2 80 3e 5a 78 30 3e
       0.35816264 0.11943382 0.25136223 0.1723341
0000a0 a5 40 01 be 36 89 2c bd bc 6c a9 3d 61 39 03 be
       -0.12622316 -0.042123042 0.082726926 -0.12814857
0000b0 20 1e 05 bc 34 2e 80 3d 28 c1 03 3d dc b8 04 be
       -0.008124858 0.062588125 0.03216663 -0.12961143
0000c0 96 50 a4 3d eb 63 03 be 45 ea 10 3e 08 f9 1b 3d
       0.08023183 -0.12831084 0.14151867 0.03807929
0000d0 d1 bd 89 bd 40 65 69 3b ea ec 37 bd 40 4d 2e 3c
       -0.06725658 0.0035613328 -0.044903673 0.010638535
0000e0 e6 7a 21 be 12 11 57 bd 66 ae cb 3d e2 28 b3 bd
       -0.15769538 -0.052506514 0.09945373 -0.08748032
0000f0 19 70 b0 bd fe 44 2a bd 3e 83 39 bd 31 8f 1b 3e
       -0.08615131 -0.041569702 -0.045291178 0.15191342
000100 40 ae eb bd fc b9 0a be 88 29 f1 bd 86 7c 50 bd
       -0.11507845 -0.1354751 -0.117754996 -0.050900005
000110 fe 2b dc bd 92 e3 aa bd b8 80 4c 3d a8 f5 cc bd
       -0.10750578 -0.08344187 0.049927443 -0.10007793
000120 7f 2a 15 3e 8f 52 c0 bd 1a ce 4e bd 98 16 0c 3d
       0.14566992 -0.09390747 -0.050489523 0.034201235
000130 a7 f9 c1 bd 3a d4 c6 bd dd 12 a9 bd 04 c6 29 3d
       -0.094714455 -0.09708448 -0.08255551 0.041448608
000140 33 04 86 be d2 51 62 be 2d a0 71 be 7f 46 6f 3c
       -0.2617508 -0.22101524 -0.23596258 0.01460421
000150 44 ee 3c bd bb 60 19 be 81 09 8a be 60 c3 8c bd
       -0.046125665 -0.14978306 -0.26960376 -0.06873202
000160 fd ee 87 be 01 44 57 3e 61 d3 c3 be a1 8b 2d be
       -0.2654952 0.21022035 -0.38247207 -0.16947795
000170 97 e3 48 be 29 96 ee 3d db 40 13 be 76 6b 02 be
       -0.19618069 0.116497345 -0.14380209 -0.12736306
000180 a9 f6 79 3e c0 17 29 3e 77 40 3c 3e 2a 28 a7 bd
       0.244105 0.16512966 0.18383966 -0.081619576
000190 2b e9 09 3e 63 62 4f bd 3f 22 c6 bd 81 12 de bd
       0.13467853 -0.05063094 -0.09674501 -0.10843373
0001a0 f7 cd 7f 3e d6 f7 64 3d 2a fa 0e 3e 6c 79 08 be
       0.24980913 0.055900417 0.13962618 -0.13327569
0001b0 78 d4 87 3e 44 1f bc bd 67 d0 48 bb 68 8a aa 3b
       0.26529288 -0.09185651 -0.0030641796 0.0052044876
0001c0 3c 07 70 be 7f 91 e3 3d 02 f2 98 3e ec 41 3d be
       -0.2344026 0.111117356 0.29872137 -0.18482178
0001d0 6b c9 02 be 9f c7 1e 3e f3 a9 68 3e 00 dd 5b 3e
       -0.12772147 0.15505837 0.2272108 0.21471024
0001e0 3d 7e b1 3e a1 78 21 3e 4e 51 8e 3e d1 18 39 3e
       0.34666625 0.15768673 0.27796406 0.18075873
0001f0 8f 3a 86 3e dc 72 44 3e dd ad ff 3e 60 76 0e 3e
       0.26216552 0.1918444 0.49937335 0.13912344
000200 03 ac 83 3e 2c d4 bf 3e 20 99 82 3e b0 a7 95 3e
       0.25717172 0.37466562 0.2550745 0.29229498
000210 04 23 0a 3f c7 6c 8c 3e 2b d3 93 3e 35 c6 20 3e
       0.5395968 0.2742674 0.28872046 0.1570061
000220 b6 b2 aa 3e ff 8a 4e 3e 28 0a e5 3e 82 d5 5e 3e
       0.3333947 0.2017021 0.4473431 0.21761134
000230 49 60 bd 3e 0b 51 c8 3e 74 11 44 3e 04 df 0d 3e
       0.36987522 0.3912433 0.19147283 0.13854605
000240 a2 b0 80 3e 3f 30 b1 3e 15 d6 94 3e d3 3d a7 3e
       0.2513476 0.3460712 0.29069582 0.32664356
000250 b8 44 3e 3e 09 50 b6 3e 83 2f 63 3e 93 c5 8d 3e
       0.18580902 0.35607937 0.22186093 0.276898
000260 53 42 87 3d ae 5e 21 3e b3 86 ed 3e ac 13 07 3f
       0.06604447 0.15758774 0.4639183 0.5276439
000270 dd fd b4 3e d4 6a 9c 3e 2b 4a c7 3e a1 ed a9 3e
       0.35349932 0.30550253 0.38923773 0.3318911

lstm.weight_ih_l1 f4 [160, 40]
000000 6b b3 4a be 64 10 77 3d 0d 6f b3 3e c7 cd ac 3e
       -0.19795005 0.060318366 0.35045663 0.33750746
000010 b8 a9 dd bc 23 4a 4c be 03 f1 b3 3e d0 8f 0f bd
       -0.027058467 -0.19950156 0.35144815 -0.03504926
000020 ae fd 68 3e 4a fc 13 be f9 e5 bc be 8e 78 cb 3d
       0.22753021 -0.1445171 -0.36894205 0.09935103
000030 47 81 5e be 72 e9 86 3e 1c 41 05 3d 5a ed d5 3e
       -0.21729003 0.2634998 0.032532796 0.41782647
000040 4e ad b6 bd 80 cd 43 be 8f 85 0d be eb 0e a2 be
       -0.08919774 -0.19121361 -0.1382048 -0.31652007
000050 3e ec 92 be af f8 aa be 5b c4 8d 3e 19 2f ef 3e
       -0.28695863 -0.33392856 0.2768887 0.4671562
000060 38 4c 82 3d 20 52 8c 3e 1c e1 b3 3e 3a 6b 87 3e
       0.06362194 0.27406406 0.35132682 0.26448995
000070 94 a3 6f bc 3f 67 63 3e d2 8c 85 3e 2e 18 ba be
       -0.014626402 0.22207354 0.26084 -0.36346573
000080 b5 74 c6 3c 99 f8 86 bd 3c f1 64 3c 93 da 08 3e
       0.024225572 -0.06590385 0.01397353 0.1336463
000090 48 e0 3a 3e 4a 05 87 bd 05 3f 50 be d8 95 c5 be
       0.18249619 -0.06592806 -0.2033654 -0.38590884
0000a0 db 11 03 bf 85 e4 e8 bd cb 12 c9 be d9 e8 04 bd
       -0.5119912 -0.11371712 -0.3927215 -0.032448623
0000b0 4c 6e 9a be 33 65 51 be 60 05 97 be ec 1d 26 be
       -0.30162275 -0.2044876 -0.29496288 -0.16222352
0000c0 7d 01 32 be 62 e8 af 3e 7c d3 f9 be ca 3c 72 3e
       -0.1738338 0.34356982 -0.48794162 0.23656002
0000d0 ee 2d 88 be 72 3e b4 3d 24 40 99 3b ff 57 a5 bd
       -0.26597542 0.08800973 0.0046768356 -0.080734245
0000e0 b9 8f 07 3f 22 bc 5a 3e 46 21 b3 3e 52 00 ce 3d
       0.5295368 0.2136083 0.34986323 0.10058655
0000f0 40 7b 32 bb ab 3f 18 be 1d 19 d3 bd f6 0f b2 bd
       -0.0027234107 -0.14868037 -0.10307524 -0.086944506
000100 f5 69 e2 3e e3 25 88 be 4d e7 29 3e 30 3e ea be
       0.44221464 -0.26591405 0.1659214 -0.4575057
000110 a5 95 10 3e 0e b5 43 bd 6a 95 d5 3e aa 72 62 3d
       0.14119585 -0.04778009 0.41715556 0.055285133
000120 81 1e 44 3d bc 15 88 bd 09 55 81 3e 36 c4 b7 be
       0.047880653 -0.066447705 0.2526019 -0.35891885
000130 69 a8 6a be 12 ac 88 3e 9d 5d da 3e 21 20 11 3e
       -0.22915806 0.2669378 0.42649546 0.14172412
000140 77 30 0a be 43 ef 9f be eb 00 e5 be 43 f6 01 be
       -0.1349505 -0.3123723 -0.44727263 -0.12691598
000150 70 63 9d be ab 1a fe bd 13 aa d5 be 8a 81 db bd
       -0.30739927 -0.1240743 -0.4173132 -0.10718067
000160 f7 05 94 be 49 75 cd 3e bd d6 6f be 57 d4 c3 3d
       -0.289108 0.40128544 -0.2342176 0.09561985
000170 44 72 ca bd 24 57 89 bd f7 03 16 3d 74 6c 96 be
       -0.09885076 -0.06706074 0.036624875 -0.29379618
000180 c3 6f 05 3f da 40 ff 3e e4 8c b7 3e 0a fa 4b 3e
       0.5212366 0.49854165 0.3584968 0.19919601
000190 55 8d 55 3e d8 01 01 3d 69 3a d4 be 40 1a 9c be
       0.20854695 0.0314959 -0.41450813 -0.30488777
0001a0 b2 bc 16 3f 45 3c d3 be 6a 4e 9d 3e 1d 96 10 bf
       0.58881676 -0.4125692 0.30723888 -0.56479055
0001b0 7f bf 19 3e e1 e5 89 be 52 b4 13 3e 7f 11 33 3e
       0.15014456 -0.26933196 0.14424255 0.17487143
0001c0 ec 55 2c be 82 e0 54 3e a8 88 03 3f e7 5d 94 be
       -0.16829652 0.20788768 0.51380396 -0.28977892
0001d0 fa 32 b3 be 68 09 e2 3e d6 ee b9 3e 33 cd d4 3e
       -0.3499983 0.441478 0.3631503 0.41562805
0001e0 9d ef 34 be d8 67 b3 be 74 58 32 3e fd 25 25 be
       -0.1766953 -0.35040164 0.17416555 -0.16127773
0001f0 34 e3 d0 be cc d4 f6 bd ac 74 a8 3d a1 9e ff 3d
       -0.40798342 -0.120523065 0.082253784 0.12481428
000200 30 03 92 3d 5c 0b 09 3e 8e 2f b1 be 99 e0 b2 3c
       0.07129514 0.1338324 -0.34606594 0.021835612
000210 ab b7 6b be 19 5c bf 3d 8b fe 66 bd 70 d5 93 3d
       -0.23019283 0.09343738 -0.056395095 0.07218444
000220 0a f8 8b 3e 11 4c f8 bd 1f 00 9a 3e 3d 87 36 3e
       0.27337676 -0.121238835 0.30078217 0.17825027
000230 46 1b 90 3e 61 87 5b bd 51 82 0a bd 7e 28 6c bd
       0.28145808 -0.053595904 -0.033815686 -0.057655804
000240 a3 b4 b6 3e 76 cc 70 3d f5 b4 8f 3e b9 1a 46 3d
       0.3568469 0.05878874 0.28067747 0.04836533
000250 1d f6 8b 3d 99 da 1c bd 1a e8 93 3e 1a 06 82 3e
       0.06834052 -0.03829441 0.28888017 0.2539528
000260 fd 18 35 be 69 79 10 3e e5 aa a6 3e 6a d5 66 be
       -0.17685314 0.14108814 0.32552257 -0.22542349
000270 42 e1 23 be b4 6e a4 3e 93 27 27 3e 42 c5 60 3d
       -0.16003898 0.3211571 0.1632369 0.05487562
000280 39 a6 d9 be 4e 81 45 bd 7d e9 09 bd 1c 92 cd bd
       -0.4250963 -0.048219018 -0.033669937 -0.10037634
000290 a7 55 cb bd f8 a6 a9 be 84 91 99 bd 0f 2f 87 3e
       -0.09928446 -0.331352 -0.07498458 0.2640309
0002a0 f7 d1 bd bd ee 1e fa 3d 5b 7b 90 be 42 1f 08 be
       -0.09268563 0.122129306 -0.28219113 -0.13293174
0002b0 2e a5 54 bd 39 63 24 3e 76 81 23 be 6a 63 44 be
       -0.05191534 0.16053475 -0.15967354 -0.19178548
0002c0 81 e5 3a 3e f3 37 60 3e c6 5d f5 ba c6 2f 06 3e
       0.18251611 0.21896343 -0.0018719963 0.13104162
0002d0 d7 e8 8d 3d ae 02 d3 bc 00 fc 75 bd 4c 16 87 bd
       0.06929176 -0.025758114 -0.06005478 -0.0659605
0002e0 7e 4f 30 3e f6 1c dd bd 9d f8 94 3e 62 d8 69 bd
       0.17217824 -0.107965395 0.29095927 -0.057091124
0002f0 9e 64 98 3e 07 ea 7d 3d 5d 7d 3e 3e ca 31 71 bd
       0.29764265 0.061990764 0.1860251 -0.058885373
000300 89 e3 66 be 5b 88 f3 3b 4c 4f d8 3e e1 8f 56 be
       -0.22547735 0.0074320263 0.42248 -0.20953323
000310 0c ac a4 be bf ba 6c 3e 62 04 3f bd 4c d0 b7 3c
       -0.3216251 0.23118113 -0.04663504 0.02243819
000320 87 07 0f bf 99 f2 33 be 35 dd 98 be d1 b9 fd 3d
       -0.5587086 -0.17573012 -0.29856268 0.12388957
000330 37 b4 f3 be 08 9e 18 be a2 0c f5 be 62 74 ca 3d
       -0.4759843 -0.14904034 -0.478612 0.098854795
000340 de 12 bc be e9 af ba 3e e3 de 36 bf 00 18 7f 3e
       -0.36733145 0.36462334 -0.7143385 0.24911499
000350 c9 10 cc be ff 1b 7d 3e 11 ae 1f be e2 60 e0 bd
       -0.39856556 0.24717711 -0.15593745 -0.10955979
000360 c9 68 0d 3f 41 36 6d 3e 80 68 d5 3e f4 ce 40 be
       0.55238014 0.23165227 0.4168129 -0.18828946
000370 ca fe db bd 42 17 80 be bf a9 34 bd 00 8c 27 be
       -0.107419565 -0.25017744 -0.044107195 -0.16362
000380 04 6e c3 3e c4 93 4a be f2 e9 bb 3e 3e 83 a2 be
       0.38169873 -0.1978293 0.36701924 -0.31740755
000390 b5 74 23 bc e9 4e d9 3d 1d 6a 1d 3f 8b c9 26 be
       -0.009976556 0.10610754 0.6149004 -0.1628782
0003a0 c7 fa 74 be d3 e2 57 3e 38 d3 16 3f 7e 9f f6 be
       -0.23923789 0.2108262 0.58916044 -0.48168558
0003b0 4f 5c 09 be 4d 6c 97 3e f3 27 d0 3e 95 49 07 3e
       -0.13414119 0.29574814 0.4065548 0.13211663
0003c0 eb 65 83 3d fb 8c 0a be 34 c4 f8 3d 78 cc 26 3c
       0.06415924 -0.13530342 0.12146798 0.010180585
0003d0 f9 db 0d 3d 83 c2 4c be d6 66 4b bd 5c db 02 3f
       0.03463361 -0.19996075 -0.04965862 0.51115966
0003e0 fe 44 19 bb ba 3b e6 3d 7b c9 6f bd 96 d0 ef be
       -0.002338707 0.11241861 -0.058541756 -0.46838826
0003f0 e7 ed 1c bc e2 04 66 be 03 20 d0 be f2 19 35 3b
       -0.009578205 -0.224628 -0.40649423 0.0027633873

lstm.weight_hh_l1 f4 [160, 40]
000000 b7 cf a6 bd 64 c2 f9 bd 21 08 17 3e f5 88 0c be
       -0.08145087 -0.1219528 0.14749195 -0.1372412
000010 a4 98 71 3d b6 a9 eb 3d 2e a4 c5 3d 3c 90 95 bd
       0.05898346 0.11506979 0.096504554 -0.07302901
000020 e1 f2 13 3e 91 5f 1f 3e af 18 c4 bd 80 1d e2 3a
       0.1444812 0.155638 -0.095750205 0.0017251223
000030 42 af c2 3d 30 16 b1 3d 2a a4 b2 3d 2c 5f 10 3d
       0.09506084 0.0864681 0.08722718 0.035247013
000040 ae 6c 86 3d eb 99 1c be b0 18 03 be 80 c1 28 3d
       0.06563698 -0.1529309 -0.12802386 0.04120016
000050 00 a0 ab bb 5c f9 84 3d ae 22 b0 3d 88 d5 47 3d
       -0.0052375793 0.06492874 0.086003646 0.048787624
000060 d0 e0 cc 3c c0 d7 0a bc f6 4f ad 3d 91 c0 f7 bd
       0.025009543 -0.00847429 0.08462517 -0.12097276
000070 76 0a cd 3d e0 cc 0d bc 4e e3 80 bd 42 23 61 bd
       0.10011761 -0.008654803 -0.06293355 -0.054965265
000080 63 0d 1c 3e b0 ab 78 3d 2c 3a 1b 3d ac 21 47 3d
       0.15239482 0.06071061 0.037897274 0.048616096
000090 50 ab 17 3c 4e 27 86 bd 48 fd 6f 3d 07 b4 14 be
       0.009257153 -0.065504655 0.058591157 -0.145218
0000a0 0c 77 83 3d 20 de 71 3c bb c0 1f 3e f8 cd e1 bd
       0.06419191 0.014762431 0.15600865 -0.110256135
0000b0 08 4a e0 bd fd d1 11 3e c8 84 2c 3d 4a 86 89 bd
       -0.1095162 0.1424026 0.042118818 -0.06715067
0000c0 78 71 1a 3d 98 ba e3 bd 06 92 c5 bd 28 8d 18 be
       0.03770587 -0.11119574 -0.096469924 -0.14897597
0000d0 5f 4b 06 3e a7 ea 07 3e d0 05 e0 bd e0 87 c2 3b
       0.1311469 0.13273107 -0.10938609 0.0059366077
0000e0 2c 25 44 3d 80 7c cd bb e8 8e e2 3c 8c 50 07 be
       0.047887012 -0.006270945 0.027656034 -0.1321432
0000f0 b6 f8 f0 3d f6 42 b3 3d 90 a2 a2 3c 1a b6 fb 3d
       0.11766188 0.08753006 0.019852906 0.122905925
000100 bd 1e 13 3e 10 12 60 bc 72 63 01 be c2 c9 dc 3d
       0.14367194 -0.013676181 -0.12635592 0.1078067
000110 9e 76 f0 bd c2 23 f0 3d a8 0b 99 3c 4d f4 ad bd
       -0.117413744 0.1172557 0.018682316 -0.08493862
000120 8c b0 7d 3d 62 4a 84 bd 9d fb d2 bd b7 a2 04 be
       0.061935946 -0.064595 -0.10301898 -0.12952696
000130 90 ad 05 3d 90 60 82 3d ff 47 09 3e 90 9f 09 3d
       0.032636225 0.06366074 0.1340637 0.033599436
000140 82 18 ed 3d 40 85 16 bc e0 e4 fa 3b aa d9 9a 3d
       0.1157694 -0.009187043 0.0076566786 0.075610474
000150 be e2 c0 3d fb 77 cb bd 36 52 ab 3d e8 13 a3 3c
       0.09418248 -0.09934994 0.0836529 0.019906953
000160 38 7a ee bc 7d 9c 18 be e0 f0 ee bb 8a 35 82 bd
       -0.029111013 -0.14903446 -0.007291898 -0.06357868
000170 6e 08 81 3d 20 26 62 3d 46 ad ff 3d 52 e5 07 bd
       0.06300436 0.05521214 0.12484221 -0.03317768
000180 b8 21 a0 3d f3 07 a5 bd 8c ba 91 bd a0 12 59 bc
       0.07818931 -0.08058157 -0.07115659 -0.013249069
000190 68 d4 64 bd 5a ef b8 3d 80 49 2f bc e3 61 b8 bd
       -0.05586663 0.09030028 -0.010698676 -0.090030454
0001a0 70 a9 29 3c 0d 3e 04 3e a8 96 e5 bd db d0 ec bd
       0.010355338 0.12914295 -0.11210376 -0.115632735
0001b0 f8 ee ca bc 80 b3 69 3c da 5e d0 3d 36 ea 02 be
       -0.024772152 0.014263988 0.101743415 -0.12784657
0001c0 7e bb 4f bd 77 50 ef bd d8 dd 3c bd 18 cb 04 bd
       -0.050715916 -0.11685269 -0.046110004 -0.032420248
0001d0 88 d1 9b 3d 00 48 92 3c da 94 01 be 8b d5 87 bd
       0.07608324 0.017856598 -0.12654439 -0.06632527
0001e0 c8 b9 44 bd f8 71 06 3d 50 cf 41 3d 20 92 b6 3d
       -0.048028737 0.032823533 0.04731685 0.0891459
0001f0 af 28 82 bd 93 df ab bd f1 88 0f 3e 86 f4 e5 3d
       -0.06355416 -0.08392253 0.14017083 0.1122828
000200 7e ae 8d 3d cd d5 17 3e 68 b3 31 3d f6 d4 e1 3d
       0.06918047 0.14827652 0.043383986 0.11026947
000210 a8 ac 0d be 9c e8 cd bd 52 78 f5 3d 28 3d 95 3d
       -0.13835394 -0.10054132 0.1198584 0.07287055
000220 ba 9b b0 bd 3e 0f cc 3d fc 33 98 bd 2f b0 0c be
       -0.086234525 0.09963845 -0.0743179 -0.13739084
000230 96 c7 7c bd ba 11 2e bd 8e e9 ce 3d 80 2e f2 ba
       -0.061713777 -0.042497374 0.10103141 -0.0018476993
000240 1c e5 cd bd 16 f8 e2 3d 1a d8 a4 3d 80 8d ba 3d
       -0.10053465 0.11082475 0.080490306 0.0910902
000250 e7 57 01 3e bb 98 07 3e ca 67 e0 3d 60 54 b2 bb
       0.12631188 0.13241856 0.10957296 -0.005442187
000260 ca aa e8 3d b8 02 96 bd 38 5e c9 3c ee 83 75 bd
       0.113607004 -0.07324737 0.02458106 -0.05994027
000270 00 ff ab 3a b0 3d 70 3d 94 03 0b bd 30 3d a0 3c
       0.001312226 0.05865258 -0.03393896 0.019560426
000280 ad 48 0b 3e 50 83 64 3c dc bf a4 bd 72 cd a8 3d
       0.13601942 0.013947323 -0.08044407 0.082423106
000290 a0 86 b9 bb a6 e9 e9 bd 8a f4 d9 3d 9e 45 fe bd
       -0.0056618005 -0.11421518 0.10642345 -0.12415622
0002a0 37 15 a7 bd e0 a4 87 bb 28 3b 68 3d 06 c5 ec 3d
       -0.08158343 -0.0041395277 0.05669704 0.11561017
0002b0 36 36 be 3d 40 44 17 bc 67 cb a1 bd 38 29 83 3c
       0.09287684 -0.009232581 -0.07900124 0.016010866
0002c0 88 4d 08 be aa 04 ed 3d 40 64 15 bb 22 a6 70 bd
       -0.13310826 0.11573155 -0.002279535 -0.058752187
0002d0 a0 a0 9b 3b f2 67 e1 3d b4 ee 5d 3d 74 0a 2a 3d
       0.0047493726 0.11006154 0.054182723 0.041513875
0002e0 80 41 27 3d eb 0d 00 3e 97 37 08 3e c0 2c e9 3b
       0.04083395 0.1250531 0.13302456 0.0071159303
0002f0 98 76 26 3d 5c 5a a7 bd 2e 52 cc 3d ac 89 79 3d
       0.040640444 -0.081715316 0.09976612 0.06092231
000300 3c 9a 37 3d f0 92 04 3c f7 22 20 3e 26 9a bf 3d
       0.044824824 0.008091673 0.15638338 0.09355573
000310 94 3c 58 bd 90 f7 c2 3c f6 7d fe 3d a7 4d 12 3e
       -0.052792147 0.023799688 0.12426369 0.14287435
000320 88 94 73 3d f4 1d 12 be 5a 2b 87 3d bd 5a 96 bd
       0.059467822 -0.14269239 0.066000655 -0.07341526
000330 8f 6f 1a 3e 1a 38 e4 3d 46 86 8a 3d 7e f1 40 bd
       0.15081619 0.11143513 0.06763892 -0.047105305
000340 00 f0 ca b8 6c 0c 21 be 16 25 d6 3d 58 35 b4 bd
       -9.676814e-05 -0.15727395 0.10456292 -0.08799237
000350 d4 f1 3d 3d 74 65 35 bd 3c fe 4e 3d 78 ac a3 bc
       0.046373203 -0.044286206 0.050535426 -0.0199797
000360 18 f4 ba bd 15 c5 21 3e c0 d2 86 3c c6 5c 75 bd
       -0.091285884 0.15797837 0.016457915 -0.05990293
000370 68 24 93 bc 78 2c 92 3c 2c f7 87 3d e0 83 99 bc
       -0.017961696 0.01784347 0.06638941 -0.01873964
000380 90 24 d3 bd 24 7f 24 bd 00 bc bb 39 4a 31 c5 3d
       -0.10309708 -0.040160313 0.0003580749 0.09628542
000390 78 3e 59 3d 7d 07 ee bd 18 df 8b bc a8 17 b2 3c
       0.05303809 -0.11622522 -0.017074153 0.021739796
0003a0 90 e2 0f 3d 18 dc 00 bd 97 9e 8b bd d6 2e ef bd
       0.035128176 -0.031459898 -0.06817358 -0.11678855
0003b0 24 1e 1f 3d 2a 17 11 be 18 9c 8a 3d 1d 24 1a 3e
       0.038847104 -0.14168993 0.06768054 0.15052839
0003c0 76 5c f6 3d 60 b9 6f bd 70 d3 64 bc ad 93 09 be
       0.12029354 -0.058526397 -0.013966426 -0.1343524
0003d0 52 77 f9 3d 79 2c 00 3e 2e 4a 96 3d 8e 0a e3 3d
       0.12180962 0.12516965 0.073383674 0.110859975
0003e0 5e 45 ff 3d b4 d3 e3 bd b4 1a db bd 53 51 0a 3e
       0.124644026 -0.111243635 -0.106984526 0.13507585
0003f0 09 0d 16 3e fc bf 04 be a0 a4 c7 bd 94 26 21 be
       0.1465341 -0.12963861 -0.097481966 -0.15737373

lstm.bias_ih_l1 f4 [160]
000000 4c 35 29 3e 6c 32 85 3e 82 ec 4b 3e 2b 8c c4 3e
       0.16524237 0.2601503 0.1991444 0.3838819
000010 e4 11 a6 3e a7 43 f4 3d d3 6b ec bc f3 1a 61 3e
       0.32435524 0.11926966 -0.028860008 0.21982937
000020 6f 28 90 3e 0c 3f e2 3d e8 df 73 3e 0a c8 bd 3d
       0.28155848 0.110471815 0.23815882 0.0926667
000030 9e 1d bf 3e ad 5a 3b 3e a6 6d ba 3d 84 82 8d 3e
       0.37327284 0.18296309 0.09102945 0.27638638
000040 86 2b 89 3e c1 5d 56 3e b2 a6 8e 3e 81 d1 13 3e
       0.26791018 0.20934202 0.27861553 0.14435388
000050 77 f1 b8 3e ce c1 1f 3d a3 7e 1a 3f ac 2b 96 3e
       0.36121723 0.039003186 0.6034948 0.29330194
000060 65 b3 d5 3e 9f 07 de 3e 21 d8 9f 3d 5a b6 33 3e
       0.4173843 0.4336519 0.07804895 0.1755003
000070 2c d2 4a 3e f1 47 03 3f 34 38 bd 3e 06 a6 82 3e
       0.19806737 0.5128165 0.36956942 0.2551729
000080 c9 8f 91 3e e0 33 a9 3e fe 9c cc 3e 15 ad b3 3e
       0.28430012 0.3304739 0.39963526 0.3509299
000090 46 aa bc 3e 5c dc 74 3e a7 50 0e 3e fc 03 0a 3f
       0.36848658 0.23912185 0.13897954 0.5391233
0000a0 4b 1a d4 bd 46 e7 cb 3d a6 32 d0 bd e0 b3 92 bb
       -0.103565775 0.09956221 -0.101659104 -0.004477009
0000b0 d8 f0 cb bc 3b 3d 21 3e 28 ef f0 bc 2a c3 ed bd
       -0.024895117 0.15746014 -0.029410914 -0.1160949
0000c0 b0 5f a9 3c ba 72 c5 bd 9d 7b 9f bd 02 bc f3 bd
       0.02067551 -0.09641023 -0.07787249 -0.11901094
0000d0 25 6e 0e 3e 21 a9 21 be 2b 80 92 bd 6a ea 6a bd
       0.13909204 -0.15787174 -0.07153352 -0.05735246
0000e0 6a 6c ef bd d6 9a c6 3d 56 3e d9 bd d0 d7 7f bc
       -0.116906 0.09697501 -0.10607593 -0.015615419
0000f0 79 8a 06 3e 5c 2f ab 3d 5e 4a 01 be dc 66 78 3d
       0.1313876 0.083586425 -0.12626025 0.06064497
000100 7f 08 05 3e d2 1e 69 bd 37 17 81 bd cd fa d8 bd
       0.12991522 -0.05691416 -0.06303256 -0.105947115
000110 f2 03 bb 3d b1 ed 02 be b3 29 b2 bd 8e c4 a1 bd
       0.09131612 -0.12785985 -0.0869936 -0.07898818
000120 fe b7 af 3d de 2b a6 bd f9 b5 12 3e b4 1d c6 bd
       0.085800156 -0.08113836 0.1432723 -0.09673634
000130 f0 f8 af 3d b5 16 14 be 52 3d 05 be b0 f8 b0 bd
       0.08592403 -0.14461787 -0.13011673 -0.086411834
000140 08 95 3f 3e 9f 3f 70 3d d1 3a c2 3c 41 6c db 3d
       0.18709195 0.058654424 0.023709686 0.10714007
000150 d5 e4 31 bd 50 ae ad 3d 60 19 f3 3d e8 0b 40 3e
       -0.04343112 0.08480513 0.11870074 0.18754542
000160 5d 81 4c bc 24 9b 66 bc db b7 31 bd 65 a8 08 3d
       -0.0124820145 -0.014075074 -0.04338823 0.03336372
000170 ac 23 1c be b9 ab d2 bd ba e9 cf 3d 81 84 17 3a
       -0.15247983 -0.1028666 0.10152002 0.00057799375
000180 b0 fb 94 bd 85 1e 8d 3c a6 d6 cc 3d 1b 6c db 3d
       -0.07274568 0.017226467 0.100018784 0.10713979
000190 7c df 4b be e5 84 cb bd d5 32 b2 bd 34 c6 b8 bc
       -0.19909471 -0.09937457 -0.08701102 -0.022555448
0001a0 4a 1c 59 bb 4a 62 a0 3d 1a 13 40 3e d7 d9 48 bd
       -0.0033128434 0.07831247 0.18757287 -0.049035873
0001b0 bd 4d 81 3e f6 30 9d 3d 0f c7 1f bd f3 44 fb 3d
       0.25254622 0.07675354 -0.039008196 0.122690104
0001c0 21 32 9a 3e 03 0b 82 bc ef 85 52 be da b1 11 3e
       0.3011637 -0.015874391 -0.20558904 0.14228001
0001d0 c9 72 2e 3d df 7d a8 bd ee 2b e2 3b 04 95 59 be
       0.042589936 -0.08227133 0.0069022095 -0.21248251
0001e0 96 d9 5b 3e 54 3e cf 3e 15 2c 9e 3e fd 7b 05 3f
       0.21469721 0.4047724 0.30893007 0.52142316
0001f0 63 ea e0 3e 31 d9 2a 3e 31 17 35 3e 7c c7 a3 3e
       0.43928823 0.16684414 0.17684628 0.31988132
000200 65 02 8d 3e 0f 8a a0 3e f6 73 e4 3e 03 f5 ab 3e
       0.2754089 0.3135533 0.4461972 0.33585367
000210 ce a0 97 3e 0c 4c 0b 3e 6f 20 95 3e c9 38 42 3e
       0.29614872 0.13603228 0.29126307 0.18966974
000220 f7 8f 13 3e 1b 3b 01 3f ae 86 08 3f d4 4f b9 3e
       0.14410387 0.5048081 0.53330505 0.36193717
000230 b7 ad 1a 3f 9f 12 03 3e bd 0b 0b 3f b8 ff db 3e
       0.6042132 0.12800072 0.54314786 0.42968535
000240 95 86 69 3e 6e a6 b2 3e 1a c3 7a 3e a7 5b c4 3e
       0.22805245 0.348926 0.24488488 0.38351175
000250 a9 ef 3f 3e 90 88 d4 3e 06 e3 85 3e df b7 b7 3e
       0.18743767 0.4151044 0.26149768 0.3588247
000260 70 6d af 3d e4 cb f7 3e fc 6f e0 3e 72 dd 99 3e
       0.085657954 0.48397744 0.43835437 0.30051762
000270 9c 0d f6 3e 9c de aa 3e 1f c2 dd 3d da 18 e1 3e
       0.48057258 0.33372962 0.10828041 0.43964273

lstm.bias_hh_l1 f4 [160]
000000 c1 12 a5 3e be c9 d1 3e fd 6d 86 3e cd 0e f1 3e
       0.3224087 0.4097423 0.2625579 0.47081605
000010 2b 2e cd 3e df c7 c0 3e 61 a5 19 3e 06 80 e9 3e
       0.40074286 0.3765249 0.15004493 0.45605487
000020 95 f0 85 3e da 80 92 3e 51 3e 3d 3e a6 5f aa 3e
       0.26160112 0.2861393 0.18480803 0.332761
000030 2e f7 af 3e 95 b2 86 bd 94 ee 89 3e 9e 4a 9b 3e
       0.3436827 -0.065770306 0.26939833 0.30330366
000040 d2 61 84 3e b3 d4 bd 3e c5 e7 fe 3e 81 21 1c 3e
       0.2585588 0.3707634 0.497862 0.15247156
000050 4c b3 0c 3f d2 f9 6b 3d d9 82 05 3f 9b f7 bf 3e
       0.54961085 0.057611294 0.5215278 0.37493595
000060 67 06 06 3e 73 d3 f6 3e 35 35 09 3e be 26 34 3e
       0.1308838 0.48208198 0.13399203 0.17592904
000070 4c 00 31 3e ca 74 e4 3e 9c ee aa 3d 92 01 83 3e
       0.1728527 0.44620353 0.083462924 0.25587136
000080 84 0b 94 3e 2b ed 9a 3e c6 d3 9c 3e 63 9f 85 3e
       0.28915036 0.3025907 0.3063032 0.26098165
000090 a6 44 d9 3e bb 74 6f 3e 7b ab 86 3e cd c1 16 3f
       0.42435187 0.23384373 0.26302704 0.58889467
0000a0 c7 75 91 bd 7c 6b 56 3d 4e 3c be 3d a0 d0 43 3d
       -0.07102542 0.0523486 0.09288846 0.047806382
0000b0 e4 f7 b9 3d 57 89 20 be 64 f9 7c 3d 43 e2 a6 bd
       0.090804845 -0.15677391 0.061761275 -0.08148625
0000c0 80 4b 5b 3d 38 fc 8a bc 09 4c 11 3e 6a 2b 15 be
       0.0535388 -0.01696597 0.14189161 -0.14567342
0000d0 fe 9f 01 be 39 c4 b8 bd bc 3e 29 3d 80 fa a6 ba
       -0.12658688 -0.090218015 0.041319594 -0.001273945
0000e0 c6 f2 cf 3d 04 46 06 bd 08 f6 92 bd 50 da 92 3c
       0.10153727 -0.032781616 -0.07175833 0.017926365
0000f0 7c 30 00 bd a6 93 81 bd 10 c0 56 3c 7f 8a 17 be
       -0.03129624 -0.0632699 0.013107315 -0.14798926
000100 2e 5e bc 3d 00 d8 7b bd b2 a4 c2 3d e0 41 3d 3c
       0.09197651 -0.06148529 0.095040694 0.01155135
000110 09 30 92 bd a8 86 75 bd e0 87 ed 3c fd 40 15 3e
       -0.07138068 -0.05994287 0.028995454 0.14575572
000120 a6 7e d3 bd e0 0d c0 bb fa a2 0e be e6 d9 bf bd
       -0.10326891 -0.005861029 -0.13929358 -0.09367733
000130 93 73 04 3e f8 67 bb 3d 05 1c 0c be 5e 49 f0 3d
       0.12934713 0.0915069 -0.13682564 0.11732744
000140 8d 62 99 3e 4f 15 33 be 64 c4 8b 3d e2 10 6e bc
       0.29958 -0.17488597 0.06824568 -0.014530392
000150 38 02 c1 bd 7a 1d 3a be f8 72 d4 bd 82 a2 39 3e
       -0.09424251 -0.18175307 -0.10373491 0.18128398
000160 91 88 c0 3d 14 48 e0 3c 2e 15 9f bd de 4d 52 bd
       0.09401048 0.02737812 -0.077677116 -0.05134379
000170 46 07 0e be b3 e9 a7 bd 18 f2 c1 3d d3 09 ab bc
       -0.13869962 -0.081988715 0.09470004 -0.020878708
000180 27 e8 f1 3c c4 8e f0 bd 81 ec f7 3d 87 40 16 3e
       0.029529644 -0.117459804 0.121056564 0.14673053
000190 df 21 d6 bd 6b 8e 50 bd f0 06 64 be d0 f5 29 bd
       -0.10455679 -0.05091707 -0.22268271 -0.04149419
0001a0 8e b5 13 bc 70 05 8c 3c cb 9e 01 3e dc a2 08 3e
       -0.009015454 0.017092437 0.12658231 0.13343376
0001b0 cd b3 ad 3e 2c b0 4e bc 9f 9c 7a 3d 8e d1 0b 3e
       0.3392624 -0.012615245 0.06118452 0.13654158
0001c0 77 10 8b 3e df b9 16 be 34 27 5a bd ca de 93 bd
       0.27161 -0.14719342 -0.053260043 -0.07220228
0001d0 ca 53 ca bc 1c 93 4f 3d f0 29 40 be 33 88 6e 3d
       -0.024698157 0.050677404 -0.18765998 0.05823536
0001e0 02 55 5e 3e 60 0d d0 3e 3c c8 a9 3e 42 60 f2 3e
       0.21712115 0.40635204 0.3316058 0.47339064
0001f0 4d f6 68 3e 33 34 95 3e 1c 72 21 3d bb 50 87 3e
       0.22750206 0.29141387 0.039415464 0.2642878
000200 5b bd e6 3e 46 66 19 3e 4c fe 8b 3e 9b 5e 7a 3e
       0.45066342 0.1498042 0.2734245 0.24450152
000210 70 20 dd 3e 81 24 fa 3d 38 40 3a 3e 44 ec a6 3e
       0.4318881 0.12213994 0.1818856 0.3260213
000220 ba 14 f1 3d e8 c2 db 3e 00 63 e6 3e be b4 93 3e
       0.117715314 0.4292214 0.44997406 0.28848833
000230 c9 ae ae 3e ed a8 83 3d 5d dc 24 3f ea 84 e5 3e
       0.34117725 0.064287044 0.6439875 0.44827968
000240 e3 2b 43 3e 64 f8 a7 3e 79 04 75 3e eb 06 8b 3e
       0.1905971 0.32806695 0.23927487 0.27153715
000250 67 20 de 3e 59 8f 13 3f 59 f0 50 3e d4 2c 7b 3e
       0.43384096 0.57640606 0.20404185 0.2452882
000260 37 0d 4a 3c 37 62 b2 3e 62 cd 93 3e 55 f8 3b 3e
       0.012332252 0.34840557 0.28867632 0.1835645
000270 e2 6c da 3e a3 f4 84 3e 3c 26 8d 3e e4 dd bf 3e
       0.42661196 0.25967893 0.27568233 0.37473977
