models/186/state_dict.pt (torch_old, 25727 bytes, 10 tensors)

lstm.weight_ih_l0 f4 [80, 10]
000000 e3 9b aa bf fa 3c 9f bf 72 cd ab bf 7e ac 99 3b
       -1.3328823 -1.2440484 -1.3422072 0.004689752
000010 67 97 88 c0 bc 01 ad 3f 34 b7 ba 3e a4 e7 87 c0
       -4.2684817 1.3516154 0.36467898 -4.2470264
000020 25 5e d2 3f 81 1d ac 3e 03 f1 cb 3e bd d2 ad c0
       1.6434981 0.3361626 0.39832315 -5.431975
000030 da f2 0b 3f eb ea 59 be 46 4a 6b bf 90 6e 92 3f
       0.5466744 -0.2128102 -0.9191021 1.1439991
000040 bf d1 ba 3e a8 f7 85 bf 09 15 bb 3f ba 70 b4 3e
       0.3648815 -1.0466204 1.4615794 0.35242254
000050 4a 07 fe bd 5a 2f 74 40 05 83 34 40 13 b5 60 3e
       -0.12403734 3.81539 2.8204968 0.21944074
000060 12 e3 37 40 0d 7a ed bf ef 71 bf c0 75 69 36 40
       2.8732343 -1.8552872 -5.982658 2.8501866
000070 48 ab f9 bf 1a aa b7 c0 9d dc a5 be 05 88 de 3f
       -1.9505396 -5.7395144 -0.32394877 1.738526
000080 2d dd 12 c0 14 23 c9 3f f5 65 80 c1 91 56 7e 3f
       -2.2947495 1.571383 -16.049784 0.9935084
000090 69 d2 cd be eb bd 83 c1 3a 8b 97 3f cc f2 fd be
       -0.40199593 -16.467733 1.1839364 -0.49599302
0000a0 ed b5 92 3e 9f 3f 71 40 43 48 2f 40 a1 fd e6 be
       0.28654423 3.7695081 2.7387855 -0.45115378
0000b0 3c 0a 25 40 b5 f6 0a c0 98 8d ab c0 4d b2 1b 40
       2.5787497 -2.1713078 -5.3610344 2.4327576
0000c0 6f 0d 0e c0 55 f5 af c0 0e ee fd be 5c 3e 06 41
       -2.21957 -5.4986978 -0.49595684 8.390224
0000d0 55 e7 f7 3d 1c a9 17 c0 75 fa b1 be 84 05 93 c0
       0.1210467 -2.3696966 -0.34761396 -4.5944233
0000e0 c2 d6 84 c0 d6 a2 03 bf 3c b2 8f c0 51 43 85 c0
       -4.1512156 -0.5142034 -4.490507 -4.1644673
0000f0 4b 3c 56 3e b5 84 66 c0 4e cb 45 40 ae db 55 c0
       0.20921437 -3.6018498 3.0905337 -3.3415332
000100 39 1b 83 3f 08 06 a6 3f 5c f7 ba bf 84 ca 82 3f
       1.0242683 1.297059 -1.4606738 1.0218053
000110 16 da 7d 3f 3a c6 b2 bf d4 b8 2e 3f d8 44 a0 bf
       0.991609 -1.3966744 0.68250775 -1.252101
000120 37 be e3 3e f0 d8 1d be a4 cb 9d 40 74 7c bd bf
       0.4448106 -0.15414786 4.9311085 -1.4803605
000130 dc 29 84 3f aa 3a a4 40 13 b3 b7 bf 66 47 8d 3f
       1.0325274 5.132161 -1.4351524 1.1037414
000140 9a 80 04 3f e1 11 8c c0 96 af 66 bf b9 48 e2 bd
       0.5175873 -4.3771825 -0.9011167 -0.11049027
000150 c4 23 5e bf a7 d7 86 3f 7d 82 0a 40 42 1f 8b bf
       -0.86773324 1.0534562 2.1642144 -1.0868914
000160 2e 14 99 3f 7e 66 16 40 e3 f7 b7 bf 11 28 c5 c0
       1.1959283 2.3500056 -1.4372524 -6.161141
000170 ac a4 ac 3e 76 0e 20 3f a9 14 ae bf b4 cb 04 40
       0.33719385 0.62522066 -1.3600055 2.074933
000180 d2 14 aa 3e 3e c2 a2 bf fd 5e 09 40 74 5a 0a 3f
       0.3321901 -1.2715528 2.1464226 0.5404427
000190 1d 4c bb 3e 92 2b 19 c0 ca ab 15 40 1e 50 89 bf
       0.36581507 -2.3932843 2.3386102 -1.0727575
0001a0 8f cb a5 3f 3b 4c 01 3f a0 7a 18 bf 3e 0f a3 3f
       1.2952746 0.50506943 -0.5956211 1.2739027
0001b0 0e ea 56 3e b9 0c a6 be be e7 c4 be 9b b3 a7 40
       0.20987722 -0.32431582 -0.38458055 5.2406745
0001c0 03 60 e7 bd d9 ce 83 bf bc 7b 90 3b 56 9a 14 c0
       -0.1129761 -1.02975 0.0044092815 -2.32192
0001d0 13 e3 66 bf 88 05 fc 3d ba e9 0e c0 de 8a 5f bf
       -0.9019024 0.123057425 -2.2330155 -0.8732127
0001e0 a5 5f 0f 3f c9 8e 40 c0 57 3d 2d 40 e3 90 00 41
       0.56005317 -3.008715 2.706869 8.035373
0001f0 51 31 a4 40 f9 60 a4 40 53 b5 3d bf d3 c1 af 40
       5.13102 5.1368375 -0.74104804 5.49241
000200 0b ad 9f 40 00 ff 42 bf 42 53 6f 3e 3d d0 1c 3f
       4.9898734 -0.7617035 0.23371604 0.61255246
000210 4b 1f 06 bf f7 02 15 3f 9d 63 3a c0 17 a1 bd 3f
       -0.523915 0.5820765 -2.91233 1.4814786
000220 cd 35 91 bf 7d a1 3a c0 65 fb e9 3f ef d5 aa bf
       -1.1344544 -2.9161065 1.8279845 -1.3346537
000230 ab 3c f6 3e 19 70 23 c0 f5 05 03 3d ab 6c 6f 3f
       0.4809316 -2.553717 0.031988103 0.9352519
000240 c8 b1 83 3e f1 8f 2b 40 d7 7e 00 3d 1c 65 bf 3e
       0.25721574 2.6806605 0.031370964 0.37381828
000250 65 d2 25 40 af 6c d4 3d 3f 98 c2 be 80 53 55 bf
       2.5909665 0.10372292 -0.3800678 -0.83330536
000260 e5 a7 32 3f 56 66 e1 3d 00 d7 96 c0 40 58 3a 40
       0.69787437 0.11005847 -4.713745 2.9116364
000270 9e 58 45 c0 38 8e 8f c0 c9 5b 31 40 f8 6f 4e c0
       -3.0835338 -4.4861107 2.7712271 -3.225584
000280 ee af 9e be e4 e1 88 c0 b2 fd f1 bf e0 11 2a 3f
       -0.309936 -4.2775745 -1.8905547 0.66433525
000290 52 55 5d bf 53 b6 ca 3f 06 54 09 40 4e fc 75 bf
       -0.86458313 1.5836891 2.1457534 -0.9608811
0002a0 91 6f ea 3f 22 21 0e 40 9f 9c 59 be 53 cf 9d 3f
       1.8315297 2.2207723 -0.21251152 1.2328895
0002b0 62 04 40 40 11 6e 3e 3f 37 f5 68 40 f4 7b 25 bf
       3.0002675 0.743867 3.6399667 -0.6464226
0002c0 c9 ba 11 c0 19 86 54 40 f5 65 47 bf 52 16 06 c0
       -2.2770255 3.3206847 -0.7788995 -2.0951123
0002d0 0e 90 e5 3e ff 05 16 40 73 82 35 40 19 d9 68 be
       0.44836468 2.344116 2.836087 -0.22739066
0002e0 a0 4a 47 40 d0 da fb bf e2 2b d6 bf 31 78 50 40
       3.1139297 -1.9676151 -1.6732142 3.257336
0002f0 e1 10 0d c0 92 6f f9 bf 9e 1f 67 3f 3f 5e d1 c0
       -2.2041552 -1.9487174 0.9028262 -6.5427547
000300 d3 a8 61 c0 22 5a 0d 3f ea 39 0f c0 b6 2e 0a 40
       -3.5259292 0.55215657 -2.2379098 2.159101
000310 21 7a a3 40 11 d0 04 c0 d7 de 0e 40 01 e7 a1 40
       5.1086583 -2.0751994 2.232351 5.0594487
000320 18 22 87 bd 5c a2 26 3e 73 09 ee bd d0 8c 3a 3d
       -0.065983 0.16272873 -0.11622896 0.045544446
000330 84 c1 e6 3d 6a 87 55 be 78 02 bf 3d 94 4d cb 3d
       0.11267379 -0.20852438 0.09326643 0.09926906
000340 3b 95 1d be 58 51 2c bd 77 a1 e8 bd a8 b6 c6 bc
       -0.15388958 -0.042069763 -0.11358922 -0.02425702
000350 16 3a 35 be 26 c9 28 3e 74 0a 60 be 9d 41 ed bd
       -0.1769794 0.16482982 -0.21878988 -0.1158478
000360 35 0c e1 bd 58 84 81 3d d4 5a 23 bd 7e 03 52 3e
       -0.109886564 0.06324071 -0.039881542 0.20509145
000370 f2 12 40 be e0 16 23 be 50 d7 13 3d 64 90 14 bd
       -0.18757227 -0.15926695 0.03609401 -0.036270514
000380 b0 05 c7 3d ee f4 e3 bd d9 aa 58 be c2 1f 31 3e
       0.09717882 -0.11130701 -0.21158923 0.17297271
000390 56 56 38 be ec 7a ed 3d 2e b8 49 3e a0 32 2d bd
       -0.18001685 0.11595711 0.19699165 -0.042284608
0003a0 d2 8c 53 3e e2 fe 5b 3e 50 a1 8e bd 1b aa 44 be
       0.20659187 0.21483949 -0.06964362 -0.19205515
0003b0 80 79 52 3d 60 0d 47 3d 90 af 4f bc 0c 49 82 bd
       0.051385403 0.04859674 -0.012676135 -0.06361589
0003c0 46 59 1e 3e 68 1d ec 3d 58 a4 3e be 27 e6 18 be
       0.15463743 0.11529046 -0.1861738 -0.14931546
0003d0 14 1b 36 3e 03 1d 59 be b0 99 73 bc c1 cd db bd
       0.17783767 -0.21202473 -0.014868185 -0.10732604
0003e0 80 78 53 3b c7 91 61 be 1e 81 13 3e f0 4c 30 3d
       0.0032267869 -0.22028266 0.14404723 0.043042123
0003f0 20 fa e4 3d 98 7e a4 3d 88 01 57 3d e4 8f 88 3d
       0.1118052 0.08031958 0.052491695 0.0666807

lstm.weight_hh_l0 f4 [80, 20]
000000 68 8a a5 3c a4 4d 10 3e 93 78 38 be e8 bd 3e 3e
       0.020207599 0.14092118 -0.18014745 0.18627131
000010 24 1a 0f 3e c0 62 53 bc d8 47 c5 bd 90 df 59 bd
       0.13974816 -0.012901962 -0.09632844 -0.05319172
000020 60 86 0c 3e 65 c8 4b be 16 d0 60 3e eb 09 0b be
       0.13723135 -0.19900663 0.21954378 -0.13578002
000030 70 54 0b bd b0 91 8e bd bc 35 19 be a8 2c c9 3c
       -0.034016073 -0.069613814 -0.14961904 0.024557427
000040 a8 0e f1 3d 68 f8 2e 3d b4 c6 52 3e c8 ae bb 3d
       0.117703736 0.042717367 0.20583612 0.09164196
000050 a0 89 90 3c 4e 08 07 3e 60 39 47 3c 48 1c 12 3e
       0.01764375 0.13186762 0.012159675 0.14268601
000060 62 30 12 3e 90 73 3b 3e 5a 00 1c 3e 70 46 5c 3d
       0.14276269 0.18305802 0.15234509 0.053778112
000070 de d6 1a be 10 f4 24 3e 4c ce 95 bd 47 e8 3f be
       -0.15121028 0.16108727 -0.07314739 -0.1874095
000080 f0 50 61 3d 5e ee d0 bd 8e b0 5e 3e 10 3c 50 3c
       0.05500883 -0.10201715 0.21747038 0.0127096325
000090 78 93 98 3d 98 43 34 be 03 11 32 be 02 c3 80 bd
       0.074500024 -0.1760391 -0.17389302 -0.06287195
0000a0 0e 33 aa bd b8 6d 15 3d f0 58 ce 3d 54 5e e0 3d
       -0.08310519 0.03648159 0.10075557 0.10955492
0000b0 00 4d 9c 3d 20 d2 24 3c 78 2d ac bc c4 7b 1f be
       0.07631874 0.010059863 -0.021017775 -0.15574557
0000c0 ba 9d 18 be dc 8f 01 3e 28 9b 6d 3d 8e 9e 39 be
       -0.14903918 0.12652534 0.058009297 -0.1812689
0000d0 66 a6 33 be 5a 9b 0e 3e e8 40 fa 3d 2a 53 00 be
       -0.17543945 0.1392645 0.12219411 -0.12531725
0000e0 56 15 03 be c8 07 3f 3e 68 df f6 3d d8 fc 5a 3d
       -0.12801108 0.18655312 0.1205433 0.053463787
0000f0 34 97 1a be 0a 6a 4b 3e 82 4b 21 be 54 d4 a9 bd
       -0.15096742 0.1986467 -0.1575146 -0.082924515
000100 60 3a e5 3d b0 44 11 3c e6 cd 87 bd 4c 96 d1 bd
       0.11192775 0.008866474 -0.06631069 -0.10233745
000110 2e 14 56 3e e0 d5 4b be 5a 27 43 3e 08 d4 3c 3e
       0.20906135 -0.19905806 0.1905798 0.18440259
000120 48 46 a6 3d 78 8a e4 3d 00 06 a7 ba c0 28 12 3e
       0.08118874 0.11159223 -0.0012742877 0.14273357
000130 80 e7 cb bb a8 1e 6e 3d 70 af 1b 3d e0 08 0c 3d
       -0.0062226653 0.058134705 0.038009107 0.03418815
000140 5c b0 ee bd 6c 5b 11 be 10 3a 56 3d b8 b0 64 3d
       -0.11654732 -0.14195031 0.052301466 0.055832595
000150 c8 e4 b0 3c ee ed 98 bd ec d7 27 bd a2 8c 81 bd
       0.021593466 -0.074672565 -0.040977404 -0.06325652
000160 59 4e 57 be 80 78 64 be 6d fd da bd b7 af d7 bd
       -0.21025981 -0.22311592 -0.106928684 -0.10531562
000170 2c 2e 64 3e d6 e8 15 3e 40 5d 11 3d c8 fc 3b 3d
       0.22283238 0.14639601 0.03548932 0.045895368
000180 58 91 ae bd 24 fa 87 3d c9 54 00 be 08 17 2b 3e
       -0.08523816 0.066395074 -0.12532343 0.16708004
000190 a0 6d a7 3c 07 b5 31 be 00 3e 20 be d0 57 1b 3d
       0.020438015 -0.17354213 -0.15648651 0.03792554
0001a0 28 3a b7 3c 7a 76 3e be ce de 01 3e 56 53 5a be
       0.022366598 -0.18599883 0.1268265 -0.21320853
0001b0 20 08 41 3d 16 46 a1 bd 0e 6b 8c bd 22 37 39 3e
       0.04712689 -0.07874696 -0.068563566 0.18087438
0001c0 70 fe 51 3d 48 2a 6c bd 2a e9 0b 3e 40 d4 83 3d
       0.05126804 -0.05765751 0.13663164 0.06436968
0001d0 ad f7 cf bd 30 66 9f bd d8 14 ef 3d 4c 70 ed 3d
       -0.10154662 -0.077831626 0.116738975 0.115936846
0001e0 8c ee 8d 3d c0 05 63 3b 08 c7 60 bd cc 7a 86 3d
       0.06930265 0.0034640878 -0.05487731 0.065663904
0001f0 e0 ed 40 3e f0 32 f9 3d 74 9c 32 3e 08 e0 37 3e
       0.18840742 0.12167919 0.17442495 0.17956555
000200 a4 f2 1f be 24 80 81 3d a0 ce 82 bb 12 7e 2c 3e
       -0.15619904 0.06323269 -0.003991917 0.16844967
000210 40 2e 9a 3d 88 43 2a 3e 97 74 33 be 52 cd 12 3e
       0.07528353 0.16627324 -0.17524944 0.14336136
000220 7c 1b 3e 3e d8 88 75 bd 58 3d 21 bd 7c ec 71 bd
       0.18565172 -0.059944957 -0.039365143 -0.05906342
000230 e8 bc 45 3d 80 b1 45 be eb 7e 61 be 72 77 b6 bd
       0.04827586 -0.19305992 -0.22021072 -0.08909501
000240 1c fc 9b bd 2e 00 3f be 70 1c 3a 3e 4b 6e 51 be
       -0.076164454 -0.18652412 0.1817491 -0.2045223
000250 24 ff e2 3d c8 4d 0d 3d 00 f2 46 3b e1 9f 25 be
       0.110838205 0.034498006 0.0030356646 -0.1617427
000260 cc 70 0f bd 80 73 01 bb 5e a8 c0 bd c0 c7 d5 3d
       -0.03501968 -0.0019752681 -0.094071135 0.1043849
000270 54 ae e7 3d 60 92 0d 3d b8 76 7d bd 4c e4 4c 3e
       0.11312547 0.034563422 -0.061880797 0.20008963
000280 36 3d 46 be 24 88 48 3e 38 6a c4 3d 34 d6 2f 3e
       -0.19359288 0.19583184 0.09590572 0.17171556
000290 74 6e 96 bd 40 61 5d bb d0 5d 40 bd 9c f4 b1 3d
       -0.07345286 -0.003377989 -0.046964467 0.08689234
0002a0 1c 91 c1 bd 28 eb 9f bc 59 11 49 be c2 bf 38 be
       -0.094515055 -0.01952131 -0.19635524 -0.180419
0002b0 81 84 39 be 8e 32 37 3e 86 23 0b 3e 70 26 04 3e
       -0.18116952 0.17890379 0.1358777 0.12905288
0002c0 78 47 2f 3d 4c b3 aa bd 6c f0 3c be e6 05 1f 3e
       0.042792767 -0.083349794 -0.18451089 0.15529594
0002d0 ab 5f 51 be 9e 3a 84 bd 70 25 27 3e 18 1b 0a be
       -0.2044665 -0.06456493 0.16322875 -0.13486898
0002e0 6c e5 ea 3d 18 03 55 be ec 0f dc 3d df b7 e4 bd
       0.1146954 -0.20801961 0.10745224 -0.11167883
0002f0 e2 02 30 3e 8f b8 61 be 40 93 90 3d f8 7b 61 3d
       0.171886 -0.2204306 0.07059336 0.055049866
000300 18 69 57 3d 78 63 40 3e c8 7d 9a 3d 9c c0 5a bd
       0.05259046 0.18787944 0.07543522 -0.053406343
000310 3a f2 85 bd ba ce 35 be d0 3f 51 3d 7e 29 0f 3e
       -0.06540342 -0.17754641 0.051086247 0.13980672
000320 70 29 25 3e a5 29 63 be 9c 99 50 3e fc ba 16 bd
       0.16129088 -0.22183855 0.20371097 -0.036799416
000330 c8 e8 5c 3e 98 22 5c 3d 2c 6b 9f bd b5 7c 2e be
       0.21573174 0.05374393 -0.07784113 -0.1703976
000340 78 42 08 bd f0 02 65 bc 1c 53 2a 3e 20 02 60 3d
       -0.033266515 -0.013977751 0.16633266 0.054689527
000350 40 f1 2e be 8c 50 64 3e a8 7b 99 bd 1c b0 84 bd
       -0.17084217 0.22296351 -0.07494289 -0.06478903
000360 6e c4 fe bd e6 5e 84 bd 80 62 68 bc 5a ba 04 3e
       -0.1243981 -0.06463413 -0.0141836405 0.12961712
000370 fe ce 0e 3e 30 46 d8 3c 48 66 dc 3d 98 04 c4 bc
       0.13946149 0.026400656 0.10761696 -0.023927972
000380 dc 76 9a bd 40 d2 51 3e 96 af 51 be 10 a8 1c 3e
       -0.07542202 0.2049036 -0.20477137 0.15298486
000390 c8 03 e9 3d b6 ec 50 be d4 f9 c5 3d 64 cf 23 be
       0.11377674 -0.20402798 0.096667916 -0.15997082
0003a0 f6 53 39 be 10 63 64 be d6 e4 29 3e f0 a0 70 3d
       -0.18098435 -0.22303414 0.165912 0.058747232
0003b0 7c 5e 3c 3e 9c d1 1e bd fc 9f 21 bd f7 d6 d4 bd
       0.18395418 -0.038774118 -0.039459214 -0.10392564
0003c0 8c 11 3d 3e 66 eb 07 be 74 9e ac 3d 4a f7 3a 3e
       0.18463725 -0.13273391 0.0842866 0.18258396
0003d0 00 79 71 3a 30 3e 27 3c c0 5d 58 bd 40 8d e0 bb
       0.0009211451 0.010207698 -0.052823782 -0.006852776
0003e0 b8 73 0d 3d 98 d5 5e be c5 6f 0e be e4 df 3c 3e
       0.034534186 -0.21761167 -0.13909824 0.18444782
0003f0 5c 8e 2b bd 9c f8 03 3e 3c ee c2 3d 66 c4 21 be
       -0.04188381 0.12887806 0.09518096 -0.15797576

lstm.bias_ih_l0 f4 [80]
000000 fc 4a 0b c0 88 33 0a 40 35 9c 55 3e d7 6b 9c be
       -2.1764517 2.1593952 0.2086037 -0.30551025
000010 28 1d f0 3d 4d 70 23 bf b4 1c 0a 40 d8 ee ac 3f
       0.11724311 -0.6384323 2.158002 1.3510389
000020 1f 79 29 40 8e 0d 21 c0 7e 42 3c 40 f5 7f 50 bf
       2.6480176 -2.5164523 2.9415584 -0.81445247
000030 a9 ac 91 3f 61 ee d2 3f ea ae 60 40 ff 26 54 be
       1.1380817 1.6478997 3.510676 -0.20718001
000040 22 e9 98 3f 84 24 b9 3f 2d 88 f7 3f 1f 5b c5 3f
       1.1946146 1.4464269 1.9338433 1.5418433
000050 4d 9f 25 be 1f be dd bd 9a 40 51 3e b4 b9 d4 bd
       -0.1617405 -0.10827278 0.204348 -0.103869826
000060 c7 b4 f7 bd 30 8d 56 bc 18 57 de 3d fd e9 dd bd
       -0.120950274 -0.013095185 0.108564556 -0.10835645
000070 42 e7 15 3e 00 24 14 39 20 49 71 bc 6c dd 29 3e
       0.14638999 0.00014127791 -0.014726907 0.16588372
000080 ac 0d f9 3d 9c 23 27 be 2c 10 db 3d bc 0f 49 bd
       0.12160811 -0.16322178 0.10696444 -0.04908727
000090 b8 ca 93 bd 77 c9 1e be aa 18 12 be 70 a8 63 3e
       -0.072164 -0.1550654 -0.14267221 0.22232223
0000a0 af 5a fa be 27 c3 50 3f 14 6d cf bf 0d ca 00 c0
       -0.4889731 0.8154778 -1.6205163 -2.0123322
0000b0 c0 2c 09 3e b1 a6 00 3f b8 fb 32 bf 53 aa 0b bf
       0.13395977 0.5025435 -0.6991534 -0.5455677
0000c0 49 6a 89 3f 3e a2 dc be 76 74 0a c0 c4 66 b3 bf
       1.0735561 -0.4309253 -2.1633582 -1.4015737
0000d0 49 52 2b c0 5e 13 a2 3e 4b 4f a8 bf 81 46 83 3e
       -2.6768973 0.316554 -1.3149198 0.25639728
0000e0 1e cf 3a c0 44 ef 56 bf 84 e1 cb 3d 3a ac e3 be
       -2.9188914 -0.8395884 0.09955123 -0.44467336
0000f0 64 c8 a9 3e 64 4b 08 c0 34 8b e2 bf e9 f9 a0 3e
       0.33160698 -2.1296015 -1.7698731 0.31440666
000100 01 c7 82 bf bc f6 ad be 9a 3d 90 3f 95 77 e2 3d
       -1.0216981 -0.33977306 1.1268799 0.11057965
000110 64 ea dc 3e 96 52 da 3f 59 27 90 3f 82 75 27 c0
       0.43147576 1.7056453 1.1262008 -2.616547
000120 73 32 cc 3e 2d 15 49 c0 44 88 cd 3f 59 ef 27 be
       0.3988224 -3.1419175 1.605721 -0.16399898
000130 26 c7 7a 40 86 40 d7 bf 77 c1 0f 40 49 63 ef 3f
       3.918405 -1.6816566 2.2461832 1.8702174

lstm.bias_hh_l0 f4 [80]
000000 db e4 13 c0 94 67 0d 40 6e 6b 49 bd 07 1a ab be
       -2.3108432 2.209447 -0.04917472 -0.33418295
000010 5e 6b 95 3d 38 63 5a bf 46 3c 10 40 f4 a1 d4 3f
       0.07295869 -0.85307646 2.2536788 1.6611924
000020 ae d7 23 40 e4 88 21 c0 bc f0 2d 40 d9 36 2e bf
       2.560039 -2.5239801 2.7178183 -0.6805244
000030 f8 55 a2 3f 4b 85 cf 3f 2c 57 56 40 ae 3f 93 be
       1.2682486 1.6212553 3.3490705 -0.2875952
000040 a4 e7 8b 3f 44 ec 9d 3f 47 d6 fe 3f 71 22 d6 3f
       1.0930066 1.2337728 1.9909142 1.6729261
000050 d8 df d8 3d 98 0c 3f be 34 ea bd 3d 16 ff 05 3e
       0.1058957 -0.18657148 0.09273186 0.13085589
000060 e2 e7 9a bd f4 8f 0f 3e f0 75 9b 3c 1a 00 1c be
       -0.075637594 0.14019758 0.018977135 -0.15234414
000070 d7 95 4c be 30 c5 6f 3d f6 77 41 3e 54 9b 47 3e
       -0.19979034 0.058537662 0.18893418 0.19492847
000080 9a 4b 4e be 44 e9 28 be 0c 0e cf bd cc 68 47 be
       -0.20146027 -0.16495234 -0.10110101 -0.1947357
000090 f6 c9 14 3e c0 a0 bf bc 3c 0e e9 bd 20 f8 bf 3d
       0.14530167 -0.023392081 -0.11379668 0.09373498
0000a0 59 e6 fb be 2d 86 7a 3f 3e 7f c7 bf 6c a2 09 c0
       -0.4919918 0.97860986 -1.5585706 -2.1505384
0000b0 96 c7 5f 3e 03 f4 ac 3e ea c9 1a bf b6 fe 09 bf
       0.2185348 0.33779916 -0.60464346 -0.53904283
0000c0 16 af 80 3f cc 55 1c bf 84 5f eb bf d4 0e ae bf
       1.0053432 -0.61068416 -1.8388524 -1.3598275
0000d0 8b f0 1a c0 47 9d 93 3e ad 4b ab bf 4e 8d a8 3e
       -2.4209316 0.2883093 -1.338247 0.32920307
0000e0 d8 9f 45 c0 58 70 2e bf 2a 01 48 be 34 45 1d bf
       -3.087881 -0.6814017 -0.19531694 -0.6143372
0000f0 0c a9 af 3e 0f e4 0e c0 d7 ae fb bf 85 ff 3d 3e
       0.3430866 -2.2326696 -1.9662732 0.18554504
000100 5e a1 84 bf b8 ca 12 bf 21 c9 75 3f b3 bf 7c be
       -1.0361745 -0.57340574 0.96010023 -0.24682502
000110 22 ac da 3e a6 3b dc 3f d5 38 88 3f 7a f5 32 c0
       0.42709452 1.7205703 1.0642344 -2.7962327
000120 09 55 04 3f 15 f5 3b c0 4c 3f 9d 3f a2 49 1d bb
       0.51692253 -2.9368336 1.2284942 -0.0024000187
000130 f6 df 76 40 38 9a d4 bf 75 af 0e 40 e0 87 ea 3f
       3.8574195 -1.6609564 2.229459 1.8322716

lstm.weight_ih_l1 f4 [80, 20]
000000 f1 cf 9a 3d 37 82 f1 c0 a0 a7 9e 3e 35 31 6c 3f
       0.07559193 -7.5471454 0.30987263 0.92262584
000010 17 19 fe 3e 8c df 5b be ed be 9c 40 a3 ae 02 3f
       0.49628517 -0.21471995 4.8983064 0.51047724
000020 0e 32 46 be a1 0a 9f 3f 0f b3 e1 3e 27 02 af 3f
       -0.19355032 1.2425119 0.44081923 1.3672532
000030 ee fe 0b 41 c8 56 4d bf 3b 46 90 3f d7 d4 20 bf
       8.749739 -0.8021054 1.1271433 -0.6282477
000040 05 9d c5 3e ac 22 c7 3d c2 ca 0f 3d 3d d9 08 3e
       0.3859636 0.0972341 0.035105474 0.1336412
000050 f5 14 a6 c0 09 f8 3d bf 9c 0c 9c be 9f 4a 86 c0
       -5.190058 -0.74206597 -0.3047837 -4.196609
000060 47 6a 62 40 c6 26 28 c0 f8 08 60 bf 4c 41 16 bf
       3.5377367 -2.6273665 -0.87513685 -0.58693385
000070 7e 8c 9b bc c3 5a 81 be ef de 02 3f a7 53 91 3f
       -0.01898789 -0.25264558 0.5112142 1.1353654
000080 f6 48 88 3e 96 da 87 c0 38 b9 e4 3e 6f 04 35 bf
       0.26618165 -4.245433 0.4467256 -0.7070989
000090 86 7b 28 c0 29 53 85 bf 8e 87 f9 3f 5a 94 4d 3d
       -2.6325393 -1.0416003 1.9494493 0.050190307
0000a0 87 18 a2 3e 10 31 1a bf 99 dd fc bd 74 c3 90 be
       0.31659338 -0.60231113 -0.12346954 -0.2827412
0000b0 36 5e be be 38 4d 80 be 73 cf f3 bc d1 f4 94 be
       -0.37181252 -0.25058913 -0.029762005 -0.2909303
0000c0 18 6c 09 be 14 55 4b 3e 50 14 6d bc 16 45 e2 be
       -0.1342014 0.19856673 -0.014470175 -0.44193333
0000d0 7d b6 09 3f 27 ee 1d 3f f0 3b 0c bf 20 77 a1 be
       0.5379408 0.61691517 -0.5477896 -0.31536198
0000e0 1e b6 f9 3e 89 b2 ab bb 3b 52 c1 be b3 11 c3 3e
       0.48771757 -0.005239789 -0.3775805 0.3809944
0000f0 87 3f d5 be c5 09 93 40 f1 62 3d 3e 05 69 09 40
       -0.4165003 4.5949426 0.18494774 2.147035
000100 56 4c d4 be f7 9c 43 bf d2 f3 5b be 60 9c b2 3e
       -0.4146449 -0.76411384 -0.21479729 0.3488493
000110 ca 2b be 40 9e 63 e1 40 a7 47 21 3e 25 6e 86 40
       5.9428453 7.0434103 0.1574999 4.2009454
000120 e2 dc 39 3e f9 c7 d6 bf de 95 70 3d 08 be 37 c0
       0.18150666 -1.6779777 0.058736674 -2.8709736
000130 e6 62 06 c0 ed 1a ba 3c d7 f4 78 be 06 7b 0a c0
       -2.0997863 0.022717917 -0.24312149 -2.1637588
000140 d7 26 15 c0 08 02 df bf 99 9d 16 c0 d7 f9 8f 3c
       -2.3304956 -1.7422495 -2.353369 0.017575188
000150 1c b7 b7 c0 62 3c 25 bd 82 1a c4 c0 6b 9c e2 bf
       -5.741102 -0.04034079 -6.128236 -1.7703985
000160 a1 50 33 40 db 7f 9f 3f dc 18 05 c0 0a f9 ad bf
       2.8017962 1.2460893 -2.0796423 -1.3591626
000170 fc cc 5f 40 f5 69 18 c0 72 30 ee bf 73 a9 88 bf
       3.4968863 -2.381467 -1.8608534 -1.0676712
000180 5e ed 22 40 85 84 50 c0 37 3a 1a bf a3 88 af c0
       2.5457377 -3.2580884 -0.6024508 -5.4854293
000190 b8 d8 49 3e 6e 6e 55 3e 97 3c cb bf 6f 70 47 40
       0.19711578 0.20842907 -1.5877866 3.1162374
0001a0 33 21 ed 3e 64 88 35 3f 71 15 7d c0 6b d7 6b 40
       0.46314391 0.7091124 -3.9544337 3.685023
0001b0 9b 12 82 40 2e 04 41 40 11 d4 69 be 88 75 cc 3f
       4.064771 3.01588 -0.22834803 1.5973368
0001c0 68 71 36 bf 92 cf c4 3f 82 f4 77 c0 b4 c7 20 40
       -0.71266794 1.5375845 -3.8742986 2.512189
0001d0 e8 eb 32 c0 49 58 e9 3e 1d 85 c9 40 e7 4c f8 bf
       -2.7956486 0.4557517 6.297499 -1.9398469
0001e0 a5 18 06 40 5b 2f 03 bd 70 13 83 3f 8f 20 97 3f
       2.0952542 -0.032027584 1.0240307 1.1806811
0001f0 35 e8 03 c0 de c0 2a bf cf e5 d2 40 cd b7 f7 3f
       -2.0610478 -0.6670054 6.590553 1.9352967
000200 9b 7a 2c c0 1f 9e e4 bf 1e 8d b5 40 63 f9 cf bf
       -2.6949832 -1.7860755 5.673476 -1.6247982
000210 e9 90 ec 3f ed e5 98 40 1c 2b c1 3f 09 aa 25 40
       1.8481723 4.778067 1.5091281 2.5885031
000220 51 cc 82 be 5a 10 6a 3e b5 9a ab bd 60 75 37 40
       -0.25546506 0.228578 -0.083791174 2.866539
000230 dc fa 3b be 17 a3 d5 40 5a e5 cc 40 48 71 1f 40
       -0.18357414 6.6761584 6.402997 2.4912891
000240 2b ba f3 40 a6 9f ea c0 66 a1 80 40 73 8e e9 3f
       7.6164756 -7.3319883 4.019702 1.8246597
000250 85 56 4f be 01 2f 0a c0 56 bf 3c 40 c4 66 23 41
       -0.20247848 -2.159119 2.9491782 10.212589
000260 f0 94 58 c0 47 17 42 3c 1a 55 a9 40 d9 b8 91 3e
       -3.3840904 0.01184637 5.2916384 0.2846134
000270 50 d5 8b 3f a2 74 aa 40 5e 5b 4f 41 b2 f3 d7 be
       1.0924473 5.3267374 12.959806 -0.42178112
000280 d5 4d 8c 40 6d 6b 2c c0 f8 0d be bf 2f c9 c6 3f
       4.384501 -2.6940567 -1.4848013 1.5530146
000290 a0 4a 2b bf c6 de 1b 40 95 06 8e 3f 6d 32 b0 3d
       -0.66910744 2.435472 1.1095759 0.08603368
0002a0 b5 5f d4 be 57 6f c3 bf 1d ef 89 bf e0 c8 0e c0
       -0.4147927 -1.5268353 -1.0776097 -2.2310104
0002b0 29 18 97 3e 48 91 ed 40 a2 fa 2a bf 64 6a b2 40
       0.2951062 7.4239845 -0.66788685 5.575487
0002c0 1b e5 b3 bf 52 bc 13 3f b0 58 25 3f be 67 d0 3e
       -1.4054292 0.5770923 0.6458845 0.4070415
0002d0 a6 89 0b c0 5c 45 0c c0 0f a1 c7 bf 0f a1 3d 40
       -2.1802764 -2.1917334 -1.5596026 2.9629552
0002e0 bc f3 12 c0 83 19 e1 3f 1e 70 76 be 1e 25 22 bf
       -2.2961264 1.758591 -0.24066207 -0.63337886
0002f0 f7 c2 4f 40 23 17 05 41 9e 68 89 bf 25 cb b8 c0
       3.2462747 8.318149 -1.0735052 -5.774798
000300 be a1 a1 bf 1d 2a a2 c0 3a a8 07 c0 a2 d6 bd c0
       -1.2627485 -5.067641 -2.1196427 -5.9324503
000310 32 60 6d 40 8a 73 fe bf 19 46 1f bf 4a 26 16 c1
       3.7089963 -1.987901 -0.62216336 -9.384348
000320 11 04 98 3f d3 ed 40 c0 1a 8b 50 c0 dc bb 2b c0
       1.1876241 -3.0145156 -3.25849 -2.683341
000330 54 d7 f3 bf 7b 97 53 3f 57 0f 10 c0 a1 69 3e be
       -1.9050088 0.82653016 -2.2509363 -0.18594982
000340 da 7e ad 40 2e 2e ec 40 95 78 36 c0 60 05 d8 c0
       5.421735 7.380637 -2.8511097 -6.750656
000350 6c e3 09 c0 a8 d9 0e c0 26 2b 1d c0 8b 4a 43 3e
       -2.1545057 -2.2320347 -2.4557586 0.19071405
000360 d3 65 60 40 6b c0 45 c0 4e 9b 85 bf a4 75 04 c1
       3.5062149 -3.0898693 -1.043802 -8.278721
000370 95 d3 d5 3d dd 14 61 bc ff f3 3e be f5 0e 4b bc
       0.10440747 -0.013737884 -0.18647765 -0.012393703
000380 3c f2 55 3e 2e 64 1a be 93 34 5e bd 05 dd f8 bd
       0.20893186 -0.15077278 -0.054249357 -0.12151531
000390 57 96 14 3e 85 d1 d1 bc ac c2 ff 3d 25 b6 3b be
       0.14510475 -0.025612602 0.124883026 -0.18331201
0003a0 5b d7 50 3e cf 6d 8e ba 51 b8 08 3e bb 25 96 3b
       0.20394652 -0.0010866466 0.13351561 0.0045821345
0003b0 d5 4b aa bc 7f 3e 83 bd e8 ee a8 3d 7b 33 45 3d
       -0.020788113 -0.064084046 0.08248693 0.0481448
0003c0 ba 02 ad c0 9e c7 03 bf 49 03 21 3e 28 96 90 40
       -5.406583 -0.51476467 0.1572391 4.5183296
0003d0 93 20 0e 41 51 91 ba bf de 61 92 c0 8b 33 fe 3e
       8.882953 -1.4575597 -4.5744467 0.496487
0003e0 14 20 fc be b7 a3 a0 3f dd 80 aa be 15 c9 b9 be
       -0.49243224 1.2549962 -0.3330144 -0.36286226
0003f0 e7 ce 93 c0 bb c9 ae c0 ab 7f 22 c1 39 d4 40 c0
       -4.6190066 -5.4621253 -10.156169 -3.012953

lstm.weight_hh_l1 f4 [80, 20]
000000 22 09 45 3e 88 ac b1 bc d4 33 cb 3d 0f a9 05 be
       0.19241765 -0.021688715 0.09921995 -0.13052772
000010 37 e3 47 be 37 0c ec bd 1a 92 3a be 04 22 83 bd
       -0.1952027 -0.11525767 -0.18219796 -0.06402972
000020 57 67 1c be 84 cb 3b be 1e 28 24 be 12 f5 24 be
       -0.15273796 -0.18339354 -0.16030928 -0.16109112
000030 60 53 3a 3d 50 9e 4d 3d dc 29 2b be 4f 03 4d be
       0.04548967 0.050199807 -0.16715187 -0.20020793
000040 89 8c 59 be 31 94 2e be 80 f1 14 3e c6 c3 95 bd
       -0.21245016 -0.17048718 0.1454525 -0.073127314
000050 e8 49 b1 3d 5a ad 21 3e 44 60 cc 3d c0 47 09 3c
       0.086566746 0.15788785 0.09979299 0.008378923
000060 b0 15 a9 3d f0 e2 1b 3d b3 77 4e be 38 9e 7b 3d
       0.0825609 0.03805822 -0.20162849 0.061430186
000070 cd 43 f7 bd 60 66 19 bc 14 28 09 bd 64 97 78 bd
       -0.12073479 -0.009362787 -0.033485487 -0.060691252
000080 68 41 97 3d 40 a3 2a be 74 60 47 bd c8 2e 96 3d
       0.07385522 -0.16663837 -0.04867597 0.073331416
000090 f8 84 1c bd da 53 33 3e 38 b5 f7 3d 1e c3 26 3e
       -0.038212746 0.17512456 0.120951116 0.16285369
0000a0 81 09 21 be 21 b7 0b be ac 87 47 bd 30 04 71 bd
       -0.15726282 -0.13644077 -0.04871337 -0.058841884
0000b0 2d f6 33 be 50 f6 5e 3e 70 f1 64 3d 83 b2 41 be
       -0.17574377 0.21773648 0.055894315 -0.18915753
0000c0 ac 69 3f 3e dc 16 2b 3e a0 fa 68 bc ae a2 b9 bd
       0.18692654 0.16707939 -0.01421991 -0.09064232
0000d0 76 47 50 3e 3c 75 2d 3e 48 66 91 3d c0 51 92 bb
       0.2033976 0.16939253 0.07099587 -0.0044653118
0000e0 10 b4 b9 3d 08 60 3c 3d f1 8e 28 be 2e 00 47 3e
       0.09067547 0.04599002 -0.16460778 0.19433662
0000f0 52 9c 02 be ac 29 36 3e 47 ca 08 be c0 c0 a8 3d
       -0.12754944 0.17789334 -0.13358413 0.08239889
000100 82 19 12 3e d8 b0 d9 3d 57 c5 15 be 24 10 b1 3d
       0.14267543 0.106294334 -0.1462606 0.08645657
000110 1c 2f 33 3e 58 a8 5a 3d d1 e2 38 be 30 f3 57 3d
       0.1749844 0.0533832 -0.18055274 0.052722156
000120 f0 24 48 be 06 fd 0a be c0 48 55 3e 20 e8 9e 3d
       -0.1954534 -0.13573083 0.20828533 0.07759118
000130 04 54 8c 3d 88 bc 4e 3e 20 a4 ff bb 42 f6 48 3e
       0.06851962 0.20189106 -0.0078015476 0.1962519
000140 90 65 04 3c 05 c3 f0 bd 94 ff 3f 3e 08 cf 00 3d
       0.008080855 -0.11755947 0.18749839 0.03144744
000150 be f5 2a be f4 a5 58 bd 24 c8 28 be 38 f8 1b 3e
       -0.16695306 -0.05289264 -0.16482598 0.15231407
000160 d8 a8 1c 3d 88 63 02 3d 94 06 2f 3e 00 53 a3 3d
       0.03824696 0.0318332 0.17092353 0.07974815
000170 ee 66 14 be d0 8c 43 bd 36 97 5f 3e 4c 6b 3e be
       -0.1449239 -0.04774171 0.21835026 -0.18595618
000180 20 f9 6d 3c 00 ec f4 3c 27 48 5f be e4 dc f1 bd
       0.014524728 0.02989769 -0.21804868 -0.1180971
000190 70 38 e8 bd 60 d9 aa bd f8 eb 2c be fc ab a3 3d
       -0.113388896 -0.08342242 -0.1688689 0.07991788
0001a0 14 d5 d0 3d b8 fe 3d 3e 00 89 6b bb ba 3b 61 3e
       0.101968914 0.18554199 -0.0035939813 0.2199544
0001b0 cc fb a2 bd 4c 85 32 be a6 9e b0 bd ae 44 1f 3e
       -0.07958183 -0.17433661 -0.0862401 0.15553543
0001c0 8c f0 09 bd 5c be 5a bd 38 d5 97 bd 9b f4 d3 bd
       -0.03367667 -0.053404197 -0.07413715 -0.10349389
0001d0 04 ab 4a be e2 d5 1b 3e 30 3c 54 3d 10 09 20 bd
       -0.197918 0.15218309 0.05181521 -0.039071143
0001e0 e4 ca 50 bd 62 87 26 3e 20 61 0e 3d 50 4d 56 bd
       -0.05097474 0.16262582 0.034760594 -0.052319825
0001f0 e0 67 e5 3c 1d 6c 02 be 98 35 11 be ff 15 49 be
       0.028003633 -0.12736554 -0.141806 -0.19637297
000200 c0 4e fd 3c 67 cd f7 bd 7a 1d 1d 3e 68 e4 a5 3c
       0.03092134 -0.12099724 0.15343276 0.020250514
000210 20 b8 27 be 64 49 74 bd 00 fc da 3b 00 69 26 be
       -0.16378832 -0.059640303 0.006682873 -0.16250992
000220 e0 b1 6f 3d 81 52 11 be 58 4e 1a bd 80 07 1a bd
       0.058519244 -0.14191629 -0.03767237 -0.03760481
000230 44 12 2d 3e b8 14 b3 3c 9d d8 5e be b9 9d 60 be
       0.16901499 0.021860465 -0.21762319 -0.21935166
000240 8e ad 19 3e 50 d2 0e 3d 31 c3 13 be b4 6f 2a 3e
       0.15007612 0.03486854 -0.14429928 0.16644174
000250 34 77 37 be 88 ef 9a bc b8 a9 f1 3d 3a c6 58 3e
       -0.17916566 -0.018913046 0.117999494 0.21169367
000260 98 7a df bd 2f 37 5e be 00 86 bf bb 36 2a 04 3e
       -0.10912055 -0.21700738 -0.0058448315 0.12906727
000270 96 ee 5a 3e a2 33 03 3e 4e 70 28 be 9c 0d 23 be
       0.21380076 0.12812665 -0.16449091 -0.1592316
000280 42 61 10 be c4 cd 11 be fc d3 1e 3e 78 7f c0 bc
       -0.14099601 -0.1423865 0.15510553 -0.023498282
000290 7c da a3 bd 4a c8 84 bd c0 61 2e bd 70 0d 00 3d
       -0.08000657 -0.064835146 -0.04257369 0.031262815
0002a0 c0 95 fb bb a0 23 35 3d f0 89 1d 3e e6 ec 3b be
       -0.0076777637 0.044223428 0.1538465 -0.18352088
0002b0 b0 4c 25 bc f1 b3 4e be a4 ec cb 3d 20 00 7f bd
       -0.0100890845 -0.2018583 0.09957245 -0.06225598
0002c0 28 57 67 bd 3a 25 cc bd 0c 80 ea 3d ec ba 5c 3e
       -0.056479603 -0.09968038 0.11450204 0.2155568
0002d0 08 6a a5 bc 06 69 0f be 24 79 4e 3e b9 25 e7 bd
       -0.020192161 -0.14004907 0.20163399 -0.11286492
0002e0 d8 71 46 be a8 8d bf 3c e2 21 4f 3e 5a bb 1c be
       -0.19379365 0.023382977 0.20227769 -0.15305844
0002f0 10 56 94 3d 40 43 64 3b c8 81 a1 3d 8c 13 f2 3d
       0.072429776 0.0034830123 0.07886082 0.118201345
000300 cc ec 4a be 77 f3 3e be 80 37 33 bc 56 73 27 3e
       -0.19816893 -0.18647562 -0.010938525 0.16352591
000310 d8 a2 09 bd 1a 66 45 be d7 7e 5a be 48 2e 21 be
       -0.033602566 -0.1927723 -0.21337448 -0.15740311
000320 84 df c2 3d 00 30 7a 38 52 0b 13 3e c0 ad 81 3d
       0.095152885 5.964935e-05 0.14359787 0.06331968
000330 18 c9 dc 3d b4 5d d2 3d 3e 40 b7 bd 4c 3a 9a bd
       0.10780543 0.10271779 -0.089478 -0.075306505
000340 6b df 46 be 7d 9f 37 be c0 90 ed 3d 78 75 82 bc
       -0.19421165 -0.17931934 0.115998745 -0.015925154
000350 90 76 13 be 84 1d f0 3d ac 04 ca 3d 60 6e ec 3c
       -0.14400697 0.1172438 0.09864172 0.028861225
000360 50 e6 03 3e f0 40 dd 3d 7c 77 15 be d7 47 01 be
       0.12880826 0.108034015 -0.14596361 -0.12625061
000370 dc 13 52 bd 0e dc 52 3e e0 00 24 be 36 ba 21 3e
       -0.05128847 0.20591757 -0.16015959 0.1579369
000380 e2 54 af bd 16 ed 4f 3e 80 77 a5 bd 78 ff 8f 3d
       -0.08561112 0.20305285 -0.080794334 0.07031149
000390 22 a4 30 be 5c 56 62 bd 70 08 23 bc d6 1d 46 3e
       -0.17250112 -0.05525814 -0.009950742 0.19347319
0003a0 08 81 32 3d 88 d7 1d bd ca 3b 50 be 54 f5 4b bd
       0.043580085 -0.038535625 -0.20335308 -0.04979451
0003b0 70 a5 0c 3d 18 58 a2 bd 90 d6 60 3e 40 e2 f5 3d
       0.03433746 -0.07926959 0.21956849 0.120060444
0003c0 10 a5 ee bc 70 a7 6d 3d 80 4f 4b 3e 73 77 1d be
       -0.029131442 0.05802101 0.19854546 -0.15377598
0003d0 56 cc 0e 3e ba 9c 33 3e 00 65 b5 bd 40 07 3a bb
       0.13945135 0.17540255 -0.08857155 -0.002838567
0003e0 50 44 d4 3d 80 25 21 be a0 22 56 be ee aa 39 3e
       0.10364592 -0.15736961 -0.20911646 0.18131611
0003f0 a4 f8 d7 bd 32 e9 0d be 28 80 aa bc 50 64 c8 3d
       -0.10545471 -0.13858488 -0.020813063 0.09784758

lstm.bias_ih_l1 f4 [80]
000000 0f ae 1a bf 90 ba 19 3f 43 f5 87 bc 0f d7 41 bf
       -0.6042184 0.60050297 -0.016596442 -0.7571878
000010 d0 85 b2 3d 04 02 81 be c4 a1 b3 3d 6b 18 3c 3e
       0.08716929 -0.2519685 0.08771089 0.1836869
000020 b4 e3 0e 3f a7 d6 12 3f 85 42 38 be 12 00 eb bd
       0.558162 0.57358783 -0.17994125 -0.11474623
000030 71 f5 fe be c1 70 9d 3e 9a 2a 48 3f 80 67 04 3f
       -0.49796632 0.30750087 0.78190005 0.5172043
000040 9f ba ba 3c b5 bc 4a 3f 96 11 16 3f 39 31 ce 3d
       0.022794066 0.79194194 0.58620584 0.10067982
000050 8b 5d ff bd 68 89 dc bc 62 c1 1f be c4 16 1c bd
       -0.12469014 -0.02692099 -0.15601113 -0.03810765
000060 0a e3 9f bd 12 af 09 3e ea b9 59 be f8 2e 0d 3e
       -0.07806976 0.1344569 -0.21262327 0.13787448
000070 1d 6f 56 be 48 fc 30 3d b0 7e 78 bd 20 a6 b7 3c
       -0.20940824 0.043209344 -0.060667694 0.022418082
000080 b0 47 be 3d 00 e3 e4 bd 98 92 ab 3c d0 c4 3f 3d
       0.09291017 -0.11176109 0.020943925 0.046818554
000090 f1 8f 29 be db 76 da bd fa 34 36 3e 64 15 07 3e
       -0.16558816 -0.10667201 0.17793646 0.13191754
0000a0 f6 e5 6c 3f 2e c6 a7 3e c1 a3 20 bf a9 e8 60 3d
       0.9253839 0.32768387 -0.6274987 0.054909382
0000b0 7b af 1b 3f 27 0c 62 be 24 c2 67 3f dc 45 cc 3f
       0.60814637 -0.22074948 0.9053061 1.5958819
0000c0 5b fc e8 3f 89 08 0e 3f 76 66 11 3f d3 9b f6 be
       1.8202013 0.55481774 0.5679697 -0.4816576
0000d0 18 67 19 bf 3c 96 63 bd 19 ee 49 bf fe b7 56 3f
       -0.59922934 -0.055563197 -0.78878933 0.838745
0000e0 12 63 b7 be c0 5e c0 3e 12 5a 54 3f 47 56 83 be
       -0.35817772 0.3757229 0.82949936 -0.25651762
0000f0 85 43 a3 3f 66 74 75 be e0 7f f9 bc b1 16 8a 3e
       1.275498 -0.23970184 -0.030456483 0.26970437
000100 13 b9 ef 3e c7 30 85 3f a1 ca 54 bf 8b 78 a1 3f
       0.46820888 1.0405511 -0.8312169 1.2614912
000110 6b 57 ba be ed a4 0e bf 4c b7 60 bf f9 f1 6f 3d
       -0.3639482 -0.55720407 -0.8777969 0.058580372
000120 33 1a 37 3f cc 6a 2b bf c5 8b cd be 16 82 99 be
       0.7152435 -0.66959834 -0.40145698 -0.2998206
000130 d0 70 00 be ff c7 a8 be 2e 61 76 bf 98 c0 c6 bc
       -0.12543035 -0.32965085 -0.96242034 -0.024261758

lstm.bias_hh_l1 f4 [80]
000000 b1 dc 15 bf 26 3e e4 3e fd 2c a4 bd b7 9f 54 bf
       -0.58539873 0.44578665 -0.08016393 -0.83056206
000010 40 17 7a bc 46 69 ee bd db 4d d8 3e e1 69 7c 3e
       -0.015264332 -0.11641173 0.422469 0.24649765
000020 96 09 4a 3f b7 49 14 3f e5 6c 82 be b8 97 35 be
       0.78920877 0.5792498 -0.25473705 -0.17733657
000030 69 d1 11 bf bb f8 07 3f 40 64 5a 3f 44 b1 4b 3f
       -0.5696016 0.5311391 0.8530922 0.7956736
000040 b2 7f dc bd 9f 4d 47 3f 08 3a 9f 3e 68 d6 38 be
       -0.107665434 0.77852815 0.31098962 -0.1805054
000050 33 58 d6 bd 50 c7 73 bd 4c a7 82 3d 70 57 5a be
       -0.104660414 -0.05951625 0.063795656 -0.21322417
000060 98 af 9d bd 40 e6 54 bd 2c 6a 15 bd 1b 9a 36 be
       -0.076995075 -0.051977396 -0.036478207 -0.17832224
000070 48 2d a0 3c 86 71 53 be d4 49 b7 3d c0 73 05 bc
       0.019552842 -0.20648775 0.089496285 -0.008145273
000080 0a 20 5a 3e 4c 1d fb 3d 6c 43 5c bd a6 3f e0 bd
       0.21301284 0.12261447 -0.053775236 -0.1094964
000090 54 eb 50 be 92 a7 52 3e 14 36 04 3e 90 f4 32 3e
       -0.2040227 0.20571736 0.12911254 0.17476106
0000a0 69 75 82 3f a3 99 7e 3e 35 5d 4b bf f7 1d 08 3d
       1.0192081 0.24863295 -0.794391 0.0332317
0000b0 0e 0a 18 3f c8 75 87 be ea 0d 5d 3f 56 05 d3 3f
       0.5939034 -0.26457047 0.86349356 1.6486003
0000c0 a5 97 e7 3f 2d d9 76 3f bf 8d 16 3f 54 8c e5 be
       1.8093153 0.96425134 0.5881004 -0.44833624
0000d0 b5 e7 17 bf f0 fc ee 3c 30 fe 30 bf 82 3f 59 3f
       -0.5933793 0.029173344 -0.6913786 0.8486253
0000e0 fa 41 ca be 0a 6d 59 3e ea 91 72 3f 74 ff 85 be
       -0.3950346 0.21233001 0.947539 -0.26171458
0000f0 7c a1 67 3f 92 a2 86 be 31 39 88 3e e2 e5 91 3e
       0.9048078 -0.26295906 0.26606134 0.284957
000100 4a af 14 3e 63 88 b4 3f d7 fd 69 bf 09 29 8c 3f
       0.14519992 1.4104122 -0.91402954 1.0950023
000110 2a 2d 35 bf a0 93 37 bf 46 f3 31 bf 6f cd 15 3e
       -0.7077204 -0.7170963 -0.6951183 0.14629148
000120 1f c5 11 3f 01 4c 14 bf e3 fe 39 bf 79 01 09 3c
       0.5694141 -0.5792847 -0.7265455 0.0083621675
000130 ea 41 1c 3c b5 c7 bc be bc 15 4a bf d2 4b 22 be
       0.0095371995 -0.36871114 -0.78939414 -0.15849236

linear.weight f4 [6, 20]
000000 e9 7a 9b 3f f1 f7 3f be 61 36 2d 3d d9 78 17 be
       1.2146884 -0.18746926 0.042288188 -0.14792193
000010 ae a0 79 3e 68 2b 5a bd 5f b5 54 3f cb 46 07 be
       0.243777 -0.05326405 0.8308925 -0.13210599
000020 00 3f cf 3d d7 f0 88 3e 6c 70 68 3f 95 56 73 3d
       0.10119438 0.26746246 0.9079654 0.059408743
000030 7b 67 4c 3e 82 21 33 be d5 89 92 bd c5 16 ca 3e
       0.1996135 -0.17493251 -0.071551956 0.39470497
000040 e3 a5 5f bb ff f9 9b be 12 ee 83 3e 57 a1 0a 3e
       -0.0034125976 -0.3046417 0.2576757 0.13538109
000050 80 7f 42 be d2 a3 96 be 3d a2 bf be 50 f1 11 3e
       -0.1899395 -0.2942186 -0.37428465 0.1425221
000060 ca f4 90 3e a6 cb 83 3d b6 cc 7b be 0d 19 ba be
       0.2831176 0.06435327 -0.2458981 -0.36347237
000070 5f 08 7b 3e a9 56 1b 3f c7 d1 7b 3e 81 4a 40 3c
       0.24514912 0.6067911 0.24591742 0.011736513
000080 ce 50 89 3e 66 04 20 be 70 53 4b 3d 79 7b fd 3e
       0.26819462 -0.15626678 0.04964012 0.49508265
000090 c5 de 1e be a8 04 50 bf 66 8a 48 bf 93 86 4e 3e
       -0.15514667 -0.81257105 -0.7833618 0.20168523
0000a0 9d a8 98 bf 5c 6a bb 3d e2 72 92 bd ae 10 fb 3e
       -1.1926457 0.09151146 -0.071508184 0.49036163
0000b0 fb 14 be be 18 7f 75 3e ea 40 eb bf 84 69 3c 3c
       -0.37125382 0.23974264 -1.8379185 0.011499766
0000c0 2d a2 4f 3d 63 fe b2 3d d9 c9 fa 3c 00 08 58 3d
       0.050691772 0.08739927 0.030613827 0.052742004
0000d0 d3 c1 ae 3e 00 1a 6b 3d 8e 83 c9 3e a0 6f e4 bc
       0.3413225 0.057397842 0.3935818 -0.027885258
0000e0 df 8c fc bc 41 ba e8 be 88 cf ce bf 8b fa 09 3d
       -0.030828891 -0.454546 -1.6157084 0.033686202
0000f0 54 06 0d c0 51 6d a4 be c0 25 b3 3e 4c 55 17 40
       -2.2035112 -0.32114652 0.34989738 2.364581
000100 c1 23 ac be 8c 7a b7 3f 3f c2 e2 c0 e3 93 c7 bf
       -0.33621028 1.4334273 -7.0862117 -1.5592006
000110 29 0f a6 3f 93 33 ba 3f f7 c5 d0 3e b5 7d 0a bd
       1.2973377 1.4546989 0.40776035 -0.03381129
000120 55 2b dc 3f 2e e4 05 3b 6a 35 9a 3f 24 6e e1 3e
       1.7200724 0.0020430195 1.2047551 0.44029343
000130 ec c2 d5 bd 69 b5 70 c0 43 32 19 c1 1b 99 c3 bd
       -0.10437569 -3.7610724 -9.574771 -0.09550687
000140 85 34 e1 c0 0e e9 15 40 eb 95 df be ab c2 79 40
       -7.037661 2.3423495 -0.43669066 3.9025066
000150 b2 03 c2 bf de aa c5 3f e4 36 e0 c0 c1 78 33 3e
       -1.5157378 1.544277 -7.0067005 0.17526533
000160 1f a6 31 3e 5c 92 16 3e a7 6e 3f bf 87 31 13 3b
       0.17348526 0.14704269 -0.7477822 0.002245994
000170 d4 c3 71 3f 4f fa bd 3f 27 a7 f7 3f 78 95 80 be
       0.94439435 1.4842013 1.9347886 -0.25114036
000180 bb a7 e1 3c c3 fc 42 bf 56 ae 29 c0 de 81 45 3e
       0.0275458 -0.76166934 -2.6512656 0.19287822
000190 a3 91 8b bd 2d a0 3f 40 47 2f 6f bf 4d 1f e1 bd
       -0.068148874 2.9941514 -0.93431515 -0.10992298
0001a0 aa e9 ac bf 02 bd e0 bd f5 bf dd 3d ed d2 30 40
       -1.3508809 -0.109735504 0.108276285 2.762874
0001b0 8e 94 99 be e5 31 65 c0 f5 73 68 c0 61 96 71 3d
       -0.2999615 -3.5811703 -3.6320775 0.058981303
0001c0 12 98 db bf 68 dc 15 40 67 4a 33 be e3 bc 2a c0
       -1.7155783 2.3415775 -0.17508851 -2.6677787
0001d0 82 cd d5 bc db 3b 94 40 74 b5 da 3e 6a e5 3e 3e
       -0.02609897 4.6323066 0.42716563 0.18642202

linear.bias f4 [6]
000000 f2 59 a4 b9 ae 90 82 bd 7b af 34 be 57 a6 c7 be
       -0.00031347532 -0.06375252 -0.17645065 -0.38994095
000010 b3 e5 96 bf 3b 64 ea 3c
       -1.1788849 0.028612247
