models/537/state_dict.pt (torch_old, 25727 bytes, 10 tensors)

lstm.weight_ih_l0 f4 [80, 10]
000000 3d 91 ed bd 24 d8 9b 3e 0a 3c 09 3f f2 2d a5 3d
       -0.11599968 0.3043834 0.5360724 0.08065404
000010 83 30 c6 3e 8c 34 1c be 23 d6 37 bd 6f 09 96 3e
       0.38708887 -0.1525442 -0.04488195 0.29304072
000020 f8 16 9d be 70 d1 66 be 07 f8 9a bb 14 a4 f4 3e
       -0.30681586 -0.22540832 -0.004729274 0.47781432
000030 7b f9 73 bd 61 4f 00 c0 47 ea 15 3f 37 85 94 3f
       -0.059564095 -2.004845 0.58560604 1.1603154
000040 f7 c4 d9 be 4e b1 71 3f 08 e0 a0 3f da a4 35 be
       -0.42533085 0.9441117 1.2568369 -0.17738667
000050 ca e3 18 bd e4 01 47 be ca de ae bd 96 c2 85 3f
       -0.03732661 -0.19434315 -0.085385874 1.0450008
000060 22 97 06 be 0c 38 8c bd 34 64 80 be ac d2 83 3e
       -0.1314359 -0.068466276 -0.2507645 0.25746667
000070 53 d2 ad be b1 a8 f4 be d4 fd 38 bd bd 79 7c bf
       -0.33949527 -0.4778495 -0.045163944 -0.9862326
000080 8a 8e 96 be 61 94 ad 3f ad f6 13 bf c5 c9 96 bf
       -0.29405624 1.3560907 -0.5779827 -1.1780325
000090 1f 06 5c bf 24 50 5c be a3 08 65 bf 8a ab 69 bf
       -0.8594684 -0.21514946 -0.89466304 -0.9127737
0000a0 0d 37 8c bd ab b7 7c 3e 0a 8b ab 3e af 76 a8 3e
       -0.068464376 0.24679439 0.33504516 0.32903048
0000b0 3a 25 3b be 4a b1 ab bd 94 92 4e bf 4d 78 5f 3e
       -0.1827592 -0.083834246 -0.8069241 0.21823235
0000c0 4a c6 88 be 68 ea 4c bf 31 51 cb bb f0 3d 9f bd
       -0.26713783 -0.80045176 -0.006204747 -0.077754855
0000d0 6c 0e 71 be 76 40 52 bf b6 6d aa 3f 28 8f 3a 3f
       -0.23540658 -0.8212961 1.3314731 0.7287469
0000e0 0c 38 e8 3d f7 dd 9b 3f 2a 47 6a 3f d8 ad 74 3d
       0.11338815 1.2177113 0.9151484 0.059736103
0000f0 a8 64 25 be 4c f7 0c 3f 66 42 36 3f 2c 72 05 3f
       -0.16151679 0.55064845 0.71195066 0.5212734
000100 65 a4 37 bf b1 bc 87 be 09 25 44 3f 1d 60 2d bf
       -0.7173522 -0.26511148 0.7661901 -0.6772478
000110 2b 6e 9e be 9b e5 79 3f 6a 8d 94 bd 30 be d4 be
       -0.30943426 0.97615975 -0.07253535 -0.41551352
000120 3a 2c 53 bf ee 2e 93 be 30 94 b1 3e 25 2e 8c 3d
       -0.8248936 -0.28746742 0.3468337 0.06844739
000130 09 68 ed be aa 2d cb 3e d3 39 80 3e ee 6e 2f bf
       -0.46368435 0.39683276 0.25044116 -0.6852864
000140 fa a2 07 3e 6d 68 cc 3d 93 2f 49 be 15 79 33 bf
       0.13245764 0.09980855 -0.19647054 -0.7010663
000150 62 87 fe bb 1b 3d 9e 3d e5 ad da be a1 a0 d1 3c
       -0.0077676037 0.07726499 -0.42710796 0.02558929
000160 ff ff 66 3e e1 14 dd be 97 0e e2 bd 53 6f 05 bf
       0.22558592 -0.43179992 -0.11037939 -0.5212299
000170 78 49 b2 bf 3b f2 60 bf 87 d6 63 3f 77 50 33 3e
       -1.3928671 -0.87869614 0.8899922 0.17511164
000180 46 f6 8b bf 9f 4e 89 3f 1d 19 d0 3d 15 a0 5a bf
       -1.0934532 1.0727118 0.1016104 -0.85400516
000190 22 c8 30 ba ee f2 68 bf 29 a8 95 bf a4 19 51 3e
       -0.00067436893 -0.9099568 -1.1691943 0.20419937
0001a0 90 7c f5 3d bc 0f 2b be 18 57 e5 be 09 8d e1 3d
       0.11986649 -0.16705221 -0.4479301 0.110132284
0001b0 97 1f 1e bd 50 69 fa be 60 b4 c1 3c de 67 88 bf
       -0.038604345 -0.48908472 0.02364558 -1.0656698
0001c0 09 88 87 bf 4e d1 7c 3d 1c c0 25 3e db 4a 5c be
       -1.058839 0.061723046 0.16186565 -0.2151293
0001d0 be 75 fe be 2d be b9 3e a7 82 66 be 00 d3 f6 be
       -0.49699205 0.36277905 -0.22510777 -0.48207855
0001e0 83 0a 6a bc e1 e2 d9 3c 0b 7a b7 be 36 75 12 bf
       -0.014284733 0.026597442 -0.358353 -0.572101
0001f0 7c fd 97 3e 41 b0 be bc 27 ba ab be 4a 03 b7 3e
       0.2968558 -0.023277404 -0.3354046 0.35744697
000200 a1 3d 74 3d 67 92 16 bf 54 a7 d5 3d 04 a6 31 bd
       0.059629086 -0.5881714 0.10432306 -0.043371215
000210 22 7b 02 3f 30 5f 1a 3f 38 01 90 be be d4 f0 be
       0.50969136 0.60301495 -0.2812593 -0.4703731
000220 46 63 48 be 4a c6 6d be 07 81 02 bf f2 9f f4 be
       -0.1956912 -0.23220173 -0.5097813 -0.4777828
000230 07 92 21 be b2 7f 1f 3e df 21 ee bc fb 00 73 3f
       -0.15778361 0.15576056 -0.029068885 0.9492337
000240 04 ac 82 3d 94 06 1e be 95 31 45 bd a3 40 71 be
       0.063804656 -0.15432197 -0.04814299 -0.23559813
000250 64 54 90 be 4b b3 5f be 55 a9 c3 3d 80 a6 05 bf
       -0.28189385 -0.21845739 0.09553782 -0.52207184
000260 d7 ab c0 be e6 f4 3b 3d 63 6c 47 3e 74 bc 2a bb
       -0.37631103 0.04588785 0.1947494 -0.0026052268
000270 d1 7e a7 be 32 9d 75 bd 89 46 95 be 03 b7 1c bf
       -0.3271394 -0.059964366 -0.29155377 -0.61216754
000280 9b 36 81 bd 99 95 6c be 0d 4d 2c bf 5c 74 2e be
       -0.06309243 -0.23103942 -0.6730507 -0.17036575
000290 de 5b 4a 3c 05 e6 2a 3c b5 97 32 be 9b e7 09 3d
       0.012351004 0.0104308175 -0.17440684 0.03366814
0002a0 0a 90 7a 3e dd 49 b7 be 6f f7 68 3e aa 3d 53 bf
       0.24469009 -0.3579854 0.22750638 -0.82515967
0002b0 1d e1 7b bf de a1 79 3e 1e fc d4 3e 73 f0 d4 be
       -0.9839037 0.24378154 0.415986 -0.41589698
0002c0 72 f1 c8 be 0a 64 80 3e 83 c8 cc be 7a 81 4a bf
       -0.39246708 0.25076324 -0.39996728 -0.79103816
0002d0 e7 b3 12 3e ce 48 8d be 71 ef 9d bf 62 47 a7 bd
       0.1432644 -0.27594608 -1.2338697 -0.08167912
0002e0 47 d4 5a 3e ad 25 0b be 09 97 79 bf d1 e5 99 3e
       0.2137004 -0.13588591 -0.97496086 0.30058149
0002f0 0b 53 ec bd 05 55 6f bf ce e7 46 be 9b 5d 00 bf
       -0.11539277 -0.93489105 -0.19424364 -0.5014283
000300 20 37 0c bf 9e 21 8b be ab da e3 3d 85 99 10 3e
       -0.54771614 -0.27174085 0.11125692 0.14121063
000310 a9 d8 cf be 1c d3 92 3e e5 92 9e 3d 9e 74 1f be
       -0.40594986 0.2867669 0.07742862 -0.1557183
000320 0f d2 19 be 40 2e 01 3d 72 19 37 3e b4 87 1a 3e
       -0.15021537 0.031538248 0.178808 0.15090829
000330 e5 1f 1a be d8 18 63 3e 1e d3 fe bd d6 24 d5 bd
       -0.1505123 0.22177446 -0.12442611 -0.104074165
000340 18 c3 ce bc 54 ba c7 3d ba 9c 30 be 24 5f 11 3e
       -0.025239512 0.09752336 -0.17247286 0.1419645
000350 18 56 97 3d fe 1a 31 3e d0 d7 4d be 05 69 25 be
       0.07389468 0.17295453 -0.20101857 -0.16153343
000360 00 07 f9 3b 1c 3f 55 be e0 5f 5b bd 00 b0 e3 3a
       0.0075997114 -0.20824856 -0.05355823 0.0017371178
000370 bc 3a 4f bd e4 27 05 be 08 ba 7d bd 20 50 4f 3d
       -0.050593123 -0.13003498 -0.06194499 0.050613523
000380 d9 5c 03 be 1c 8d e9 3d 93 b0 f9 bd 18 fc bc 3d
       -0.12828387 0.114038676 -0.12191882 0.092277706
000390 50 45 10 3e aa bb 13 be 4c 69 28 be c8 d3 d4 bd
       0.1408894 -0.14427057 -0.16446418 -0.103919566
0003a0 8c 5d 8f bd 4c 90 88 bd 50 b8 39 3d ee 12 4a 3e
       -0.070002645 -0.066681474 0.04534179 0.19733784
0003b0 f2 e1 36 3e d2 6a 51 be 44 41 92 bd 35 70 09 be
       0.17859629 -0.20450905 -0.07141355 -0.1342171
0003c0 00 e3 91 3a 00 13 ff 3d 88 99 a4 3d 4f c6 60 be
       0.0011130273 0.12454796 0.08037096 -0.21950649
0003d0 9c fb 48 be a8 fc a3 3d 02 9d 09 be 52 b8 98 bd
       -0.19627231 0.08007175 -0.134388 -0.07457031
0003e0 38 cc fa bc 78 83 b8 3d 16 08 4d 3e 28 31 8a 3c
       -0.030614957 0.09009451 0.20022616 0.016869143
0003f0 30 75 45 bd 06 d1 09 be b8 0f 9e 3d c0 a2 d9 bc
       -0.04820746 -0.13458642 0.07717842 -0.026566863

lstm.weight_hh_l0 f4 [80, 20]
000000 e2 4a 02 3e 70 28 df 3d 16 35 2e 3e 05 9a 5b be
       0.12723878 0.10896385 0.17012438 -0.21445473
000010 00 c8 d0 3b eb 41 00 be 1a a6 27 3e de b6 5c be
       0.006371498 -0.12525146 0.16371956 -0.21554133
000020 76 7f 3e be f4 be 42 bd 2e d7 17 3e 20 b0 d9 bb
       -0.1860331 -0.04754539 0.14828178 -0.00664331
000030 64 35 a3 bd 37 0e ed bd b8 31 22 3e f0 b4 81 bd
       -0.07969168 -0.11574977 0.15839279 -0.06333339
000040 72 24 0d be 10 6c 17 bd a8 f2 5e 3e 4e da 43 be
       -0.13783434 -0.03696829 0.21772254 -0.19126245
000050 f3 f1 59 be 8c 4a d7 bd ce a6 1d be 3e fe 29 be
       -0.21283703 -0.105122656 -0.15395662 -0.16600892
000060 84 73 36 3e 74 7a ce bd c4 db 9e 3d 12 c6 bb bd
       0.17817503 -0.1008195 0.07756761 -0.09168638
000070 b1 34 d8 bd 02 cf 3e 3e f8 f6 28 3d fa 66 5e 3e
       -0.10556925 0.18633655 0.041251153 0.2171897
000080 80 40 33 3b 44 c3 82 3d 68 4b 5a 3d 2c 16 5b bd
       0.0027351677 0.063849 0.05329457 -0.05348794
000090 b8 5c 42 3e 38 99 14 bd 30 36 45 3c 58 ed 7a bd
       0.18980682 -0.036278933 0.012036845 -0.061261505
0000a0 d4 5a a3 3d 90 23 50 be 6a 95 18 3e 20 60 ee 3b
       0.079763085 -0.20326066 0.14900747 0.0072746426
0000b0 c8 31 8c 3d 72 7b 2a 3e 7c f2 9c 3d fc 6c ee 3d
       0.068454325 0.16648653 0.07663438 0.11641881
0000c0 1c b5 26 be c8 60 56 be 24 43 5a bd 60 cc 75 bd
       -0.16280025 -0.20935357 -0.053286687 -0.06000936
0000d0 9a 7a 4b 3e 58 f3 fc bc 4a 8d 56 3e 00 f0 6d 3a
       0.19870988 -0.030877754 0.20952335 0.00090765953
0000e0 d0 cc 35 3d 96 52 5a 3e 56 01 26 3e 00 7f 65 bb
       0.044384778 0.21320567 0.16211447 -0.0035018325
0000f0 c0 f4 06 3d e8 b5 91 bd 20 f6 d0 bc 60 8d 26 3e
       0.032948256 -0.07114774 -0.025507987 0.16264868
000100 d6 c3 3b 3e 80 7b 1e 3e 40 f1 b9 3d 9a ef 27 3e
       0.18336424 0.15476799 0.09079218 0.16399994
000110 30 a8 96 3d a0 8b 4f be 60 20 bb 3b 84 c0 b9 bd
       0.07356298 -0.20268106 0.0057106465 -0.090699226
000120 16 a0 63 3e 94 a9 84 3d 60 4b 78 3d e8 c6 71 3d
       0.22229037 0.06477657 0.06061876 0.059027582
000130 94 62 54 be ce 8a 30 be 10 28 45 be 80 47 d0 ba
       -0.2074073 -0.1724045 -0.19253564 -0.0015890449
000140 60 67 77 3d b8 5f e9 bc c1 8c d2 bd 54 a2 37 3e
       0.06040132 -0.028488025 -0.10280753 0.17933017
000150 04 51 c3 3d f8 b6 da 3d 02 a0 19 3e e0 a2 b9 3d
       0.09536937 0.1067943 0.15002444 0.09064269
000160 40 39 77 3b 6c b3 83 bd 54 1c 15 bd b0 cf 39 3e
       0.0037723333 -0.064307064 -0.03640397 0.18145633
000170 a0 5b 2b 3e da 7c 07 3e b8 48 11 bd 5a f9 3d be
       0.16734171 0.13231221 -0.03546974 -0.18552151
000180 68 22 59 bd 18 e4 e2 bc 64 41 56 be 06 f2 26 be
       -0.053011328 -0.027696654 -0.20923382 -0.16303262
000190 24 fc 1e be dc 9f 2c 3e 20 11 ab 3b 98 ed 09 3e
       -0.15525872 0.16857857 0.0052205473 0.13469541
0001a0 99 9a 5b be 02 1d 3e 3e f4 5a 18 bd ab 30 18 be
       -0.21445693 0.18565753 -0.037196115 -0.14862315
0001b0 96 42 18 be 22 6f 8a bd 84 b7 07 be 86 81 1c 3e
       -0.1486915 -0.06759478 -0.132536 0.15283784
0001c0 48 d0 0d 3d a0 f8 61 3d f8 f1 b8 3d 2c 76 83 3d
       0.03462246 0.055168748 0.09030527 0.06419024
0001d0 c6 c5 c9 bd 30 ab 12 3c 4c b3 23 bd 40 b5 66 bb
       -0.098521754 0.008951947 -0.039965913 -0.0035203248
0001e0 1b 3d ff bd bc 77 1f be 3c d0 53 bd 34 aa d5 bd
       -0.12462827 -0.15573019 -0.05171226 -0.10432854
0001f0 70 0d 3f bd a4 a1 d0 3d 10 59 86 bc 30 b8 ea 3c
       -0.046643674 0.101870805 -0.01639989 0.02865228
000200 34 36 64 3e 5e bc 63 3e dc 30 b6 3d 8e 41 07 be
       0.22286302 0.22239825 0.08896038 -0.13208601
000210 08 ad af 3c fc 86 0d bd 00 4a e6 3c 00 0a 4e be
       0.021444812 -0.03455256 0.028111458 -0.20121002
000220 88 02 41 bd 34 0b 19 be 78 5a be bc 88 62 7e 3d
       -0.047121555 -0.1494568 -0.023236498 0.062105685
000230 66 12 84 bd 20 17 29 be 08 d1 ab 3d 7c 45 21 be
       -0.06448822 -0.16512728 0.08389479 -0.15749162
000240 70 af c8 bc 86 b0 46 3e 18 c4 0d 3e 58 f1 55 3d
       -0.024497718 0.19403276 0.13844335 0.052232116
000250 50 00 21 3e 50 2c b1 3d 82 43 45 3e b3 cc ee bd
       0.15722775 0.0865103 0.19264033 -0.11660137
000260 88 b8 3f 3d f6 eb 1e be 90 ca a1 bc 6c a1 ab 3d
       0.046806842 -0.155197 -0.01974991 0.08380398
000270 f8 d4 fa 3d c2 06 4a 3e 80 17 20 3b 1c e8 67 bd
       0.12247652 0.1972914 0.002442807 -0.05661784
000280 8d 19 d1 bd ec 4e 3f bd 18 86 f0 bc c8 1e 97 3d
       -0.102099515 -0.046706125 -0.029360816 0.07378918
000290 f8 1b 37 3d 98 4a 64 3e 80 9d 2f 3d 80 e2 41 bb
       0.044704407 0.2229408 0.042874813 -0.0029584467
0002a0 e8 0c 56 3e de 50 2b be a3 9c 52 be 04 00 98 bd
       0.20903361 -0.16730067 -0.20567565 -0.07421878
0002b0 50 7f b7 3c 57 4a 51 be 72 4c 1c be 4c fd 48 3e
       0.022399575 -0.20438515 -0.15263537 0.19627875
0002c0 6c 15 14 be c0 b9 ea bc ba 91 54 3e ce 41 86 bd
       -0.14461297 -0.028653026 0.20758715 -0.0655552
0002d0 31 40 fd bd d4 85 fd 3d 48 a9 c4 3c 5e e6 b6 bd
       -0.12365759 0.12379041 0.0240065 -0.08930658
0002e0 50 fd 37 3e 1c 37 d9 3d 84 ef 9d 3d c8 3c 21 bd
       0.17967725 0.106062144 0.077116996 -0.039364606
0002f0 a4 c8 96 3d f8 b0 92 3c 40 c1 5f 3b 08 93 23 be
       0.07362488 0.01790665 0.0034142286 -0.15974057
000300 a8 fd 2d bd 90 01 a7 3d 00 f4 d7 3c 80 e9 50 bc
       -0.042478234 0.08154595 0.026361465 -0.012750983
000310 fe 6f 33 be 00 fa fe 3b 08 71 09 bd 20 64 b4 bd
       -0.1752319 0.007781267 -0.03355506 -0.0880816
000320 70 39 22 3e 60 53 2a 3d 7a f8 33 3e 18 bc 3a 3d
       0.15842223 0.04158342 0.17575255 0.045589536
000330 c6 49 16 3e 1c 77 cd 3d aa e0 b6 bd c0 b6 6c 3d
       0.1467658 0.10032484 -0.0892957 0.05779147
000340 98 df 59 3d b8 b7 9d bc 2c 8a 03 bd 74 f8 92 bd
       0.05319175 -0.019252643 -0.032114193 -0.07176295
000350 ec 6e 42 bd 2d 7b 13 be b0 c4 e4 3c 58 15 8b bd
       -0.047469065 -0.14402457 0.02792582 -0.0679118
000360 eb 75 f8 bd ec e8 01 3e 6c 85 5f 3e 68 40 9a bc
       -0.12131866 0.12686509 0.2182824 -0.01882954
000370 52 47 0a be 80 b8 b7 3d e0 fc 8e bb 00 cc 16 bb
       -0.13503769 0.089707375 -0.004363641 -0.0023009777
000380 5e 73 4f be 40 67 e5 3c ae ad c9 bd 82 ef 3f 3e
       -0.20258853 0.028003335 -0.0984758 0.18743709
000390 c4 03 16 bd 2c 64 51 be ef 13 2b be f2 27 35 be
       -0.036624685 -0.20448369 -0.16706823 -0.17691019
0003a0 fa a7 84 bd 89 79 55 be 54 db 25 3e 0e bb 3e 3e
       -0.064773515 -0.20847143 0.16196948 0.18626043
0003b0 a6 09 32 3e 8f 3f 20 be dc 29 4e 3e ae 03 ac bd
       0.17386493 -0.15649246 0.20133156 -0.08399139
0003c0 00 70 32 3a 1a af 2f 3e 62 9d 28 3e da ae 4a be
       0.00068068504 0.1715664 0.16466287 -0.19793263
0003d0 cc fb 23 3e a2 3b a9 bd 0a 23 58 3e 08 0b 32 3e
       0.16014022 -0.08263327 0.21107116 0.1738702
0003e0 e4 b7 8d 3d 1c 7e 1b be c0 b7 00 3d 5c ba 00 be
       0.0691984 -0.15184826 0.031425238 -0.1257109
0003f0 70 0a 8a 3c e4 64 e4 3d 56 d6 8d bd 44 ee 89 bd
       0.01685068 0.11152056 -0.06925647 -0.06734899

lstm.bias_ih_l0 f4 [80]
000000 c4 81 a5 3f 2a 1f 5e 3f 85 55 af 3f 55 38 02 3f
       1.2930226 0.867663 1.3697973 0.50867206
000010 68 a2 2c 3f 99 82 89 be 6d 2f 23 3f fa 58 96 3f
       0.6743531 -0.2685745 0.6374424 1.1745903
000020 82 84 9a 3f b3 7e 33 3f 13 d5 97 3f 38 fe 3c 3f
       1.2071688 0.701152 1.18619 0.7382541
000030 88 aa 97 3f 27 e2 7b 3f a3 3b c5 3f 26 1c 83 3f
       1.1848917 0.98391956 1.5408825 1.0242965
000040 df 57 92 3f d2 ef 27 3f 8a 50 82 3f 76 e8 81 3f
       1.1433066 0.6560031 1.0180829 1.0149066
000050 f0 0c 3c 3d ce ff 0b 3e c8 21 51 3d 5c 06 40 3e
       0.045910776 0.136718 0.051057607 0.18752426
000060 fc de cb 3d 1b fd 04 be d4 0d a5 bd d0 ae e0 3d
       0.0995464 -0.12987177 -0.08059278 0.10970843
000070 54 49 87 3d c0 f9 9b 3b ba 2f 3b 3e 08 30 95 3d
       0.06605783 0.004759997 0.18279925 0.07284552
000080 ac 6a cf 3d 6a 02 29 be 60 1e 63 3c 54 f7 45 3e
       0.10127768 -0.16504827 0.013862222 0.1933263
000090 3e 7f 0e 3e c5 42 e9 bd f0 c2 18 3d a3 1f 1e be
       0.13915727 -0.113896884 0.037295282 -0.15441756
0000a0 32 66 1e be f1 2d 39 3f a1 98 11 3f fb 52 04 3e
       -0.15468672 0.72335726 0.5687352 0.1292228
0000b0 1a d4 44 be 65 50 2a 3f 3c fe 13 3e 40 40 1b bf
       -0.19221535 0.6652892 0.14452451 -0.6064491
0000c0 bc 5b 25 bf 73 f9 62 3e cf e8 73 3e 4e 4e 7e 3e
       -0.645931 0.2216547 0.23819278 0.24834558
0000d0 ff 38 97 3e 73 03 44 3e a0 b0 f5 3d 69 87 4c 3e
       0.29535672 0.19141941 0.11996579 0.1997353
0000e0 07 d5 80 be 20 8b 90 3e a0 97 45 3f 79 18 0a bf
       -0.25162527 0.28231144 0.77184486 -0.5394359
0000f0 64 be 80 3f 64 e9 86 3f 42 4c 90 3f 8f c8 5b 3f
       1.0058103 1.0539975 1.1273272 0.85852903
000100 36 e3 35 3f 39 6c 49 be b7 86 67 bd 48 1d 26 3e
       0.7104982 -0.1967019 -0.05652496 0.16222107
000110 81 85 9c 3f 7c c4 0e 3f 28 79 23 3f db 07 5f 3f
       1.2228242 0.5576856 0.63856745 0.8712136
000120 fb 70 f9 3e 8e 69 71 3f e9 7d c1 3f bd c8 c0 3e
       0.4871901 0.9430169 1.511655 0.3765315
000130 38 e0 10 3f 71 69 5d 3f 77 54 9e 3f 1f f4 c6 3e
       0.5659213 0.86489016 1.2369527 0.38858125

lstm.bias_hh_l0 f4 [80]
000000 16 5b 6b 3f 9f e2 31 3f 9b 52 c8 3f c7 86 04 3f
       0.9193586 0.6948642 1.5650209 0.51768154
000010 42 ac 2c 3f 4b e7 95 be 2b cc 34 3f 3a 19 66 3f
       0.67450345 -0.29278025 0.70624036 0.8988224
000020 d4 e1 b5 3f 20 22 72 3f fe ed 79 3f 79 d6 80 3f
       1.4209542 0.9458332 0.9762877 1.0065452
000030 a8 21 9e 3f 9c ef 95 3f 2f e2 aa 3f d5 45 a0 3f
       1.2354021 1.1713748 1.3350276 1.2521311
000040 71 32 93 3f c2 76 3a 3f 70 a0 a0 3f 52 64 49 3f
       1.1499768 0.7283746 1.2548962 0.786687
000050 08 ab f4 3d 64 ed 4c be d0 69 0e 3e f8 32 2f be
       0.11946684 -0.20012432 0.13907552 -0.17109287
000060 fc 3e 0b be 88 aa 5f be 80 ce 74 3d 5c ac 16 be
       -0.13598245 -0.21842396 0.059767246 -0.14714187
000070 a8 68 c7 bc 74 1c 19 be 3e 66 59 3e 0c ad 34 be
       -0.024341896 -0.1495226 0.21230409 -0.17644137
000080 50 13 08 bd 8f 42 38 be 12 61 20 be 20 3c c2 bd
       -0.033221543 -0.1799414 -0.1566203 -0.09484124
000090 64 37 1b 3e bd d1 50 be c0 60 2c 3e 10 8e e1 3c
       0.15157849 -0.20392509 0.16833782 0.027533561
0000a0 5a ad 9f be ef 9d 2e 3f b6 b1 2f 3f b3 ea cf 3e
       -0.31186944 0.6820974 0.6863054 0.4060875
0000b0 be 8b 64 bd 1d 48 6d 3f fe 6d 37 3e fd eb ad be
       -0.05579733 0.9268816 0.17913052 -0.33969107
0000c0 fa 0a 1a bf 23 36 fa 3e 4b 15 7e 3e be 5e 22 bd
       -0.60173 0.48869428 0.2481281 -0.039641134
0000d0 86 f4 32 3e 8b db b8 3e b1 5b 4e bd 8c 0d ca 3e
       0.17476091 0.36104998 -0.050380412 0.3946346
0000e0 c3 44 26 be ca 62 13 3e a0 7d de 3e d8 2c e9 be
       -0.16237168 0.14393154 0.4345522 -0.45542026
0000f0 b0 75 8c 3f 64 12 95 3f c1 8e 97 3f 35 a1 1a 3f
       1.0973415 1.1646237 1.184044 0.6040223
000100 42 27 26 3f 51 40 e9 be c9 2a 77 be 28 89 0c 3f
       0.6490365 -0.45556882 -0.24137415 0.54896784
000110 4b 6a 69 3f 4a bd 21 3f 15 7e 7c 3f a4 d2 75 3f
       0.91177815 0.6317946 0.98629886 0.9602454
000120 ff c5 d4 3e f8 c1 2b 3f b9 83 96 3f c6 df 26 3f
       0.4155731 0.6709285 1.1758949 0.651852
000130 68 b7 47 3f d4 fa 80 3f 13 e3 93 3f 4c f9 28 3f
       0.7801423 1.0076547 1.1553673 0.66005397

lstm.weight_ih_l1 f4 [80, 20]
000000 8b 3a 2d bf 77 d5 af 3f 98 fd ab be 0e b5 16 bf
       -0.67667454 1.3737019 -0.33591914 -0.5887002
000010 0e 0f 88 3e 0e 36 03 3f 2f 5d 60 be 6e d8 ba be
       0.26573986 0.51254356 -0.21910547 -0.36493248
000020 46 1d ea bf 86 e8 ea 3e c5 27 24 bf f4 e4 51 3f
       -1.8290184 0.45880526 -0.64123183 0.8198998
000030 c7 01 8d bf 72 20 52 3b b9 3b d2 3d fa af 30 3f
       -1.1016167 0.0032062796 0.102652974 0.6901852
000040 2f c2 b3 bf 12 96 e2 be ba 54 a8 bc ba dd 0a bf
       -1.4043635 -0.4425512 -0.020548213 -0.5424458
000050 b5 df ed bb 81 23 58 3f 31 4c b8 3f 16 c9 c0 3f
       -0.007259334 0.84429175 1.4398252 1.5061367
000060 0e 17 9a bf 5a 6a c7 3e 90 53 24 40 12 f0 75 be
       -1.2038286 0.38948327 2.5676003 -0.24017361
000070 d9 d3 b4 be 61 21 6e be d2 cb 4a 3f 8b 94 ca be
       -0.35317877 -0.2325492 0.79217255 -0.39566454
000080 f7 64 0f be 33 c4 d0 3f 81 84 d6 be b8 ba 2b bf
       -0.14003359 1.6309875 -0.41897967 -0.67081785
000090 dd 51 61 3e 47 59 15 3f 31 48 b2 bf aa a3 96 3e
       0.22003885 0.5833935 -1.3928281 0.2942174
0000a0 2e e3 cb be a6 41 b0 3d 9c f1 7a 3f 48 0c 33 3f
       -0.39821762 0.086062714 0.98024917 0.69940615
0000b0 6b 1f 94 be d9 5b a1 3f 51 3e d1 be 62 29 9b 3f
       -0.2893022 1.2606155 -0.40867856 1.2122004
0000c0 d8 ce 10 3e aa 58 f9 bf bc 83 77 3f 76 d1 0a c0
       0.14141405 -1.9480183 0.96685386 -2.1690345
0000d0 8e 3f 39 3e 93 4a 3c 3f 60 21 79 bf 98 91 86 be
       0.1809065 0.7355129 -0.9731655 -0.26282954
0000e0 9a 9c 67 3f e0 f5 6e 3f 98 0b 1a bd 11 27 e6 3f
       0.9047333 0.93343925 -0.037608713 1.7980672
0000f0 2a 3e 47 3d 24 33 b2 bd 84 64 b7 3d df 91 1d 3e
       0.04864327 -0.087011606 0.08954719 0.15387677
000100 34 af 51 3e b7 c1 4a bd 0d fa ff 3d 9c 70 45 be
       0.20476991 -0.049501147 0.12498865 -0.19281238
000110 e7 4c 35 bd 68 62 3e be 5e 63 21 3e 6e 49 47 be
       -0.044262793 -0.18592227 0.15760562 -0.19461605
000120 3a b9 c8 3d 6d f9 b2 bd a5 79 4b 3e e8 51 07 3e
       0.09800954 -0.087389804 0.19870622 0.13214839
000130 a0 38 6a be 1b 73 7b 3d b7 40 5d be a6 11 6e bd
       -0.22873163 0.06138907 -0.21606718 -0.0581223
000140 d7 7f 4f 3e f4 b9 27 be 49 61 15 be 5f 0e 2a 3e
       0.20263611 -0.16379529 -0.14587893 0.16607045
000150 e9 5c 02 3e fa 28 48 be 67 ab 3d 3d f6 5a a7 3d
       0.12730755 -0.19546881 0.04630604 0.08171646
000160 89 32 1a be b0 af 13 3e 12 db 0a 3e 48 c5 c8 3d
       -0.1505834 0.14422488 0.13560131 0.098032534
000170 84 fe 26 3d 82 20 4c bd 1c 6f 4e 3e 6c b9 2f be
       0.04077007 -0.04983569 0.20159572 -0.17160577
000180 33 c4 a9 3d f5 8e 29 3d 04 c7 58 be a0 f2 e0 3d
       0.08289375 0.0413961 -0.21169668 0.10983777
000190 aa 4f ed be d4 4c 1c 3f cd a5 0a bf b2 a3 d5 be
       -0.4634984 0.6105473 -0.5415924 -0.41726452
0001a0 e2 bf d0 3e 1b 88 87 3f 5b d6 bf be e7 36 0d 3e
       0.40771395 1.0588411 -0.37468228 0.13790475
0001b0 54 24 ae 3e ee 6c 55 bf 2b 15 eb bd 0a c8 c3 bf
       0.3401209 -0.8336934 -0.11478647 -1.5295422
0001c0 8f c3 73 3e 4c 5b c4 be 8e 00 b9 bf 85 5d ab be
       0.23805068 -0.38350904 -1.4453294 -0.33469787
0001d0 5f 67 d1 3e ab b5 0d bf 7d 1a c7 3e ad 99 ad 3e
       0.40899178 -0.5535533 0.38887396 0.33906308
0001e0 87 4c 70 3e e2 45 60 be 36 72 dd 3f da ba d0 3f
       0.23466693 -0.21901658 1.730048 1.6307023
0001f0 f7 86 4e bf 6f b4 57 bd 5d ee d2 be c2 66 f3 be
       -0.8067469 -0.05266231 -0.41197482 -0.47539335
000200 b6 4a 94 bf 6c ee bf 3f f8 7c 0c 3f ec 4d b4 3e
       -1.15853 1.4994636 0.5487819 0.352157
000210 ab ff 83 c0 2c 44 13 3f 60 c9 35 bf 17 99 a5 be
       -4.1249595 0.575259 -0.710104 -0.3234336
000220 fd 0e ac be a5 0f e4 3e b7 6e 2d bf 69 f9 9e 3d
       -0.33605185 0.44543186 -0.6774706 0.07762415
000230 1a a6 85 bf 59 44 a4 be 45 24 db 3f aa 90 b2 3f
       -1.0441315 -0.32083395 1.7120444 1.3950398
000240 7f 9b 1a bc d9 0e 58 3f 56 6e af 3d 56 68 76 3f
       -0.009436487 0.84397656 0.08565967 0.96252954
000250 d8 25 cb 3e 42 a0 99 bf 99 93 f7 3f 6f 4e b9 bf
       0.3967731 -1.2002032 1.9341918 -1.4477061
000260 56 20 34 3f 73 3e 8c 3e de 8f af be 85 84 c4 3d
       0.7036184 0.27391395 -0.3428945 0.095955886
000270 06 dc 10 3f cd d0 e2 3f a0 90 96 3e aa 42 7a 3e
       0.5658573 1.7719971 0.29407215 0.24439493
000280 0d 86 71 3e d0 a1 38 3f f3 5a b9 3e 1e fd 94 3f
       0.23586293 0.72121906 0.362022 1.1639745
000290 a2 d5 67 be f6 a0 c2 bc b3 e3 19 bf 6b 18 4f bf
       -0.22640088 -0.023758393 -0.60113066 -0.80896634
0002a0 b9 21 01 bf 3a aa fb 3f 0d 5f d0 bd 0b 75 20 be
       -0.5044208 1.9661324 -0.101743795 -0.15669648
0002b0 22 3a ca be 25 93 a7 3e 95 bc 0d bf a7 aa ae 3e
       -0.39497477 0.3272945 -0.5536588 0.34114572
0002c0 53 22 e4 be c5 96 b5 bc 1b 79 f1 bf f5 a0 95 be
       -0.44557437 -0.02216662 -1.8865083 -0.29224363
0002d0 4b d5 05 3e bc 91 4d be 8b 18 29 3f 95 11 91 3e
       0.13069646 -0.20075125 0.66053075 0.28333727
0002e0 0e 47 07 bf c2 e8 3e bd de bc b6 bd 35 1a ce be
       -0.52842796 -0.046608694 -0.08922742 -0.4025437
0002f0 10 3c 40 bf d3 ea ef 3f af ff 85 3e 14 e2 e1 bd
       -0.7509165 1.8743538 0.26171634 -0.11029449
000300 03 33 23 c0 5f e3 06 3d a8 1d cf be e6 7c 94 be
       -2.5499885 0.03293168 -0.40452313 -0.2900154
000310 de 67 4a 3c 62 19 1c 3f 10 d5 7c 3d cb 12 9e 3e
       0.012353865 0.6097623 0.06172663 0.30873713
000320 7a 99 8d be dd 64 66 3f 39 86 c5 3e e0 93 74 3f
       -0.27656156 0.89997655 0.38578966 0.9553814
000330 36 fd b3 bf 80 ba 1e 3f f0 c0 2a 3d e9 ab b2 be
       -1.4061649 0.62003326 0.041687906 -0.34896782
000340 b0 ff 17 bf 87 9f 26 3f a9 ab b0 be 14 75 b1 3e
       -0.59374523 0.6508717 -0.34505966 0.34659636
000350 63 4f 8f bf e0 c4 11 40 cd af 8c be e6 fd 7a 3e
       -1.1196102 2.2776413 -0.27477875 0.24510917
000360 44 19 cf bd d4 c1 99 be 2f b2 3f bf 0b c2 d1 3c
       -0.10112241 -0.30030692 -0.7488126 0.025605222
000370 ab cc 13 3e cf ed 58 3f d3 d3 2d 3f f1 11 9a 3f
       0.14433543 0.8473787 0.67901343 1.2036725
000380 aa cf da 3d c6 c4 c6 3e 1b 27 7a be 4f 71 9a bf
       0.1068414 0.38822 -0.2442898 -1.2065829
000390 a2 2d 22 bf bc e2 f0 3f 8f 7f 10 be f7 01 00 3e
       -0.6335088 1.8819194 -0.1411116 0.1250075
0003a0 27 b1 13 be 9e fe 55 3e 6b b2 9f 3e fb 19 b0 3b
       -0.14423047 0.2089791 0.3119081 0.005374191
0003b0 94 92 b5 be a2 2b 65 3e 92 a4 aa bf 3c 3e 51 be
       -0.35463393 0.22379926 -1.3331473 -0.20433897
0003c0 13 65 6e 3f ea 74 20 bf e2 40 f4 be 6a 75 47 be
       0.93122977 -0.62678397 -0.47705752 -0.19478384
0003d0 c4 cc bf 3e c9 4a d7 bf 27 8d 72 3f 3d bb e3 3e
       0.3746091 -1.6819698 0.9474663 0.4447879
0003e0 ea ad 1c 3f 2a 79 20 be 81 0f 4a bf 37 de bd 3e
       0.6120287 -0.1567122 -0.7892991 0.370836
0003f0 af d3 a2 3e 6a 2f d6 bc 34 59 98 3e a4 5f 74 be
       0.31802127 -0.026145656 0.29755557 -0.23864609

lstm.weight_hh_l1 f4 [80, 20]
000000 a0 da df bb 62 e4 32 be a0 22 5d 3e 36 5b 62 be
       -0.006831482 -0.17469934 0.2159524 -0.22105107
000010 0c 85 8e 3d 16 35 2a 3e 94 c1 22 bd cb 27 ff bd
       0.069589704 0.16621813 -0.03973539 -0.12458762
000020 a8 26 ce 3c 22 c2 46 be 00 06 c8 ba e6 7e 5b 3e
       0.025164917 -0.19409993 -0.0015260577 0.21435127
000030 c0 2d e9 3c 00 4a a7 3a d8 0d 47 be 32 66 5e be
       0.028464198 0.0012763143 -0.19438875 -0.21718672
000040 f4 15 d9 3d aa 23 4e be 36 b0 bc bd 00 7f 77 3c
       0.1059989 -0.20130792 -0.09213297 0.015105963
000050 30 b6 16 3d 8c 7d 9b bd 78 14 9a bc 40 ae 46 3d
       0.03679484 -0.075923055 -0.018808588 0.04850602
000060 40 6d 14 be 20 71 0a bd 22 cc 16 3e e4 e7 b3 3d
       -0.144948 -0.03379929 0.14726308 0.08784464
000070 b8 b6 9f 3d b0 8c 64 be f8 59 ca 3d 1c 1f 49 3e
       0.07798523 -0.22319293 0.098804414 0.19640774
000080 bc 3b 58 3e 10 d4 30 3c 90 bf 1b 3d 33 f2 5c be
       0.21116537 0.010792747 0.038024485 -0.21576767
000090 06 b1 96 bd e8 1d 51 3d 12 b1 28 be 6f 4e e7 bd
       -0.07357983 0.05105391 -0.16473797 -0.11294257
0000a0 78 7c 4b bd d0 f0 b7 bd a8 69 ac 3d 22 b1 d3 bd
       -0.04967925 -0.08981478 0.0841859 -0.1033652
0000b0 00 34 ef 3d ae 49 06 be fa 41 21 be 40 81 1f 3b
       0.1167984 -0.13114044 -0.15747824 0.0024338514
0000c0 be 9d 07 be 9c 3b 0c 3e 3e e2 5b be 5c 83 47 3e
       -0.13243768 0.13694614 -0.21473023 0.19483703
0000d0 78 c3 3b bd 94 f0 84 3d 20 df a3 bb 38 a4 f9 3d
       -0.04584071 0.06491199 -0.005000964 0.12189525
0000e0 40 64 1c bb fe 9c 28 be d4 8b 0e be 4c e9 8c 3d
       -0.0023863465 -0.16466138 -0.13920528 0.06880435
0000f0 56 c4 33 3e a8 18 14 3e aa 57 0f 3e b2 af 4b 3e
       0.17555365 0.1446253 0.13998285 0.19891241
000100 c4 a1 90 3d 0e 22 0f be 7e 61 c0 bd 24 60 97 3d
       0.07062104 -0.13977835 -0.09393595 0.07391384
000110 80 f9 d7 bb 10 2b 17 bd 84 cf 29 be 20 1f 2b 3e
       -0.006591022 -0.036906302 -0.16583067 0.16711092
000120 28 f9 c6 bd 32 52 58 3e 00 bb e2 3c 0c 49 95 3d
       -0.097154915 0.21125105 0.02767706 0.07289323
000130 c4 ec ac 3d 30 8b 64 be 24 e5 08 bd f0 6f 3f be
       0.08443597 -0.22318721 -0.03342165 -0.18695045
000140 cb f8 03 be 7b 2b 17 be 96 d8 f1 bd b0 75 d2 3d
       -0.12887876 -0.1476268 -0.118088886 0.10276353
000150 70 0f bf 3d 37 ae 2a be c0 55 f8 3d 0a f8 51 be
       0.09329116 -0.1666802 0.121257305 -0.20504776
000160 7b 8b e1 bd 22 c5 63 3e b0 80 3b 3c 12 81 b3 bd
       -0.11012932 0.22243169 0.011444256 -0.087648526
000170 69 b3 5e be 98 2f e3 3d 86 67 00 3e 80 08 75 3c
       -0.21748127 0.11093062 0.12539491 0.01495564
000180 e8 5c da 3d 3a f6 44 be b6 a7 d1 bd 06 78 36 be
       0.10662252 -0.19234553 -0.102370664 -0.17819223
000190 e8 57 e4 3d c4 d7 64 3e d0 2c 32 3e 9c 6d 34 bd
       0.11149579 0.22347933 0.17399907 -0.044049844
0001a0 56 d0 0d be 00 c5 77 3c e8 a7 95 bd b2 c9 52 3e
       -0.13849005 0.015122652 -0.07307416 0.20584753
0001b0 e0 50 19 3e aa f2 56 3e f4 d3 07 be b0 7d 7f 3c
       0.14972258 0.20991006 -0.13264447 0.015593931
0001c0 e8 29 37 3d e8 e1 d6 3d 98 36 a1 bc 94 9a af 3d
       0.0447177 0.10492307 -0.019679353 0.08574405
0001d0 28 9f 05 3d 68 2c a6 bd 1a 6c 2e be 04 50 fa 3d
       0.032622486 -0.081139386 -0.17033425 0.12222293
0001e0 34 60 50 bd 6c a0 02 3e a0 46 21 be 8e 5c 1a be
       -0.050872996 0.12756509 -0.15749598 -0.1507437
0001f0 2c 53 0f 3e d6 09 0c be 1c 5c dd bd 80 63 1a 3d
       0.13996571 -0.13675627 -0.10808584 0.037692547
000200 fc 8c 3a bd e0 bd b5 bb fc 84 37 3e 4e 99 5a 3e
       -0.04554461 -0.0055463165 0.17921823 0.21347544
000210 18 20 d1 3d 69 31 30 be b4 e6 ca 3d 14 67 34 bd
       0.102111995 -0.17206348 0.099072844 -0.044043615
000220 23 e1 d9 bd 75 f9 0b be 82 e6 5f 3e 66 c0 4b 3e
       -0.106386445 -0.13669379 0.21865276 0.19897613
000230 68 a0 9f 3d c9 54 4c be 54 72 b4 3d 4e 8a b8 bd
       0.07794267 -0.19954218 0.08810869 -0.090107545
000240 fa 93 0b be cd 29 28 be c2 9e 29 be 50 57 00 3e
       -0.13630667 -0.16422196 -0.16564468 0.12533307
000250 bc 03 a1 3d c0 31 1c 3b cc 17 89 3d 0c 7c 58 bd
       0.078620404 0.0023833364 0.06693992 -0.052852675
000260 c0 cf a8 bc ac 17 cc bd d0 01 a6 bc 0d 20 09 be
       -0.020606875 -0.099654526 -0.020264536 -0.13391133
000270 4e 29 43 be 7a c5 df bd cc 35 fe 3d 6e d6 1a be
       -0.19058725 -0.109263375 0.12412605 -0.15120861
000280 ba 2c c9 bd 90 32 98 3d c6 db 1b be d6 32 29 be
       -0.09822984 0.07431519 -0.15220556 -0.16523299
000290 36 36 9b bd eb 29 3f be da 17 4c 3e 00 9a 84 bb
       -0.07578699 -0.18668334 0.19930974 -0.0040466785
0002a0 4c 63 d3 3d c2 7e 5f be a6 00 07 3e 86 c5 42 3e
       0.10321674 -0.21825698 0.13183841 0.19020662
0002b0 d4 84 90 3d 40 91 30 3c fe d3 4b be aa cf 2c 3e
       0.07056585 0.010776818 -0.19905087 0.16876093
0002c0 38 2e d2 3c 3e 96 53 3e 1c f7 26 be e9 48 ec bd
       0.025656804 0.20662782 -0.16305202 -0.11537344
0002d0 4c fc eb 3d d4 0d 14 be a8 51 b9 3d 28 65 0e be
       0.11522731 -0.144584 0.09048778 -0.13905776
0002e0 30 c7 24 3c 18 83 06 3d 52 54 22 3e c6 e3 54 be
       0.010057256 0.032839864 0.15852478 -0.20790014
0002f0 48 6c 56 3e 74 14 b5 bd 00 7e 34 3e c4 d1 b7 3d
       0.20939744 -0.08841792 0.1762619 0.089755565
000300 41 d8 52 be 3a 25 80 bd 34 7c 3d 3e 46 a0 62 3e
       -0.20590307 -0.062571004 0.18504411 0.22131452
000310 3c dd e8 bd 6b ef 41 be c2 08 24 3e 9c 9a 3b 3e
       -0.11370322 -0.18938987 0.16018966 0.18320698
000320 be c6 4b 3e 40 ae c5 3d a0 98 ed bb 30 02 26 3d
       0.19900033 0.09652376 -0.0072508603 0.04052943
000330 70 17 50 bd 01 c1 13 be 75 9e 0b be 50 91 3f 3c
       -0.0508036 -0.14429094 -0.13634665 0.01169236
000340 b4 de 9f 3d d3 c1 dc bd 2a 30 41 3e 2d 9c e6 bd
       0.07806149 -0.107791565 0.1886603 -0.11260257
000350 2c 13 46 be 96 95 5e be 50 c8 06 3c ee 2d 3a 3e
       -0.19343251 -0.2173675 0.008226469 0.18181583
000360 e4 93 1e 3e 78 75 55 3d 60 87 11 3c 80 25 81 3c
       0.15486103 0.05211398 0.008882374 0.015764952
000370 5c de 0e 3e 04 38 a6 3d f0 ac dc 3d 58 91 2f 3d
       0.13952011 0.08116153 0.10775173 0.04286322
000380 60 51 1d be d0 7a 4d 3d c0 84 58 bd 9c e3 b7 3d
       -0.15363073 0.05016595 -0.052860975 0.0897896
000390 70 b4 21 3e d5 fb cb bd e0 e2 5a 3e c0 86 cd bd
       0.15791488 -0.099601425 0.21375608 -0.10035467
0003a0 38 8e 0f 3d 10 f1 a7 3d 54 a9 c2 3d 3c 32 64 be
       0.03504774 0.08200276 0.09504953 -0.22284788
0003b0 80 18 c6 3b a0 79 c5 3c 24 28 39 3e a8 51 04 be
       0.006045401 0.024105847 0.18081719 -0.12921774
0003c0 f0 b4 1b 3e 40 8a 46 bb d0 a3 ee 3d 24 99 2a be
       0.15205741 -0.0030294806 0.116523385 -0.16659981
0003d0 c0 24 a8 bb 98 b3 fa bd e4 53 62 3e dc 82 36 bd
       -0.005131334 -0.12241286 0.22102314 -0.04455839
0003e0 19 23 d2 bd 2c 03 b4 3d 96 d9 aa bd 08 ea 4a bd
       -0.102606006 0.087896675 -0.083422825 -0.049539596
0003f0 93 30 0f be 34 c2 1f 3e 18 11 19 3d 60 50 27 3e
       -0.13983373 0.15601426 0.037369817 0.16339254

lstm.bias_ih_l1 f4 [80]
000000 eb e6 97 3e 8d a9 16 3e 42 40 0e bd bb e9 42 bc
       0.29668364 0.14713116 -0.03472925 -0.011896546
000010 aa ac 28 be 43 6f c5 3e 90 7a 10 be 5e c1 83 3e
       -0.16472116 0.38561448 -0.14109254 0.25733465
000020 a5 0b 51 3e 23 bf 24 bf a4 8d 10 3f f8 db 92 3e
       0.20414598 -0.6435415 0.56466126 0.28683448
000030 22 fa d9 3e 9a 16 5d 3f 0d c3 d2 3e e4 58 5d 3f
       0.4257365 0.8636261 0.41164437 0.8646376
000040 3e 05 3c 3c 63 d4 08 3f b0 f0 39 3e d8 75 e7 3c
       0.011475859 0.53449076 0.18158221 0.028254434
000050 6a 35 2e 3e 1e 2e 91 bd 40 cc 4a 3c 68 20 25 3e
       0.17012563 -0.07088874 0.012377799 0.16125643
000060 56 b5 c8 bd 42 61 14 be 72 78 51 be 48 15 6c 3d
       -0.09800212 -0.14490226 -0.20456102 0.057637483
000070 00 14 70 bb e8 97 94 3d c0 4b 07 3b 9b d7 2c be
       -0.0036633015 0.07255536 0.0020644516 -0.16879122
000080 20 24 ad bd 7e b6 0e be 00 42 89 bb fc 5f da 3d
       -0.08454156 -0.13936803 -0.004188776 0.10662839
000090 90 3b b4 3d 08 77 b9 3c b0 7a c3 3c 72 dc 41 3e
       0.08800423 0.022639766 0.023862213 0.1893175
0000a0 c2 2d e7 bd c2 8c c1 be 63 8a 43 3e 58 55 a9 bd
       -0.112880245 -0.37802702 0.19095759 -0.08268231
0000b0 0d c2 a7 be c8 1b d2 be df 3a 04 bc 2a 92 87 3e
       -0.32765236 -0.4103682 -0.008070677 0.26478702
0000c0 90 99 1f 3d af c3 9f 3d 06 f1 45 be cf 51 a6 be
       0.038964808 0.078009956 -0.19330224 -0.3248429
0000d0 26 46 08 3f d9 cf 3b 3f 6c 24 23 3f e8 b8 04 3f
       0.5323204 0.73364025 0.6372745 0.51844645
0000e0 4d 41 b8 3c b3 ee d2 3e 4c 47 c8 3e 36 3f 41 3e
       0.022492075 0.41197738 0.39116895 0.1887177
0000f0 4d 33 b4 3e 95 ed c8 3d f3 75 31 be 69 0a 77 be
       0.3519539 0.0981094 -0.1733015 -0.24125065
000100 f3 ae d5 3b bf 83 4e be 95 f2 75 be 4f 1b bd 3d
       0.0065210997 -0.20167445 -0.24018319 0.09233724
000110 47 80 2b be aa 8a 39 bf 87 36 d9 3e 56 2a 59 3e
       -0.16748153 -0.7247721 0.42424414 0.21207556
000120 44 49 e7 bd 22 b3 80 3f 75 97 96 3e a1 cb 1b 3f
       -0.11293271 1.0054667 0.29412428 0.6085759
000130 e2 10 88 be 3b 9b bc bd 04 3a e5 3d ec 0a 17 3e
       -0.2657538 -0.09209295 0.11192706 0.1475026

lstm.bias_hh_l1 f4 [80]
000000 98 e2 e4 3e 57 52 b5 3e 91 e4 73 be a7 ee fc 3c
       0.44704127 0.35414383 -0.2381766 0.030875517
000010 a3 5b d3 bd 9f 2e b5 3e 2b 81 02 bf 12 2c d4 3e
       -0.10320213 0.35387132 -0.50978345 0.41439873
000020 c6 18 0a 3e 79 4a f1 be ac 2b ba 3e ce c2 b1 3e
       0.13486013 -0.4712713 0.36361444 0.34718937
000030 e2 0c 5c 3e a0 c5 39 3f 81 a1 d1 3e a8 99 85 3f
       0.2148929 0.72567177 0.4094353 1.0437517
000040 c5 d0 c9 3e 1f 5d bd 3e 74 71 ad bd 84 dd b9 3b
       0.3941709 0.36985108 -0.08468905 0.0056721587
000050 1e 31 26 3e 18 0b f5 bc ed b3 59 be 64 0f 22 3e
       0.16229674 -0.029912516 -0.21260042 0.15826184
000060 92 f1 19 3e 30 9a 5a 3e b8 59 e3 3d d6 bf ea bd
       0.15033558 0.2134788 0.11101097 -0.11462371
000070 cc 80 33 be 0a 25 3f 3e f8 d8 0b be c8 0e 50 be
       -0.17529601 0.18666473 -0.13656986 -0.20318139
000080 9c b6 74 bd 74 d3 a8 3d e2 d3 16 be 38 19 de bc
       -0.059744462 0.082434565 -0.14729264 -0.027111635
000090 00 79 57 3e c0 0d 76 3d be 13 0f 3e b7 73 ce bd
       0.21042252 0.060071707 0.13972375 -0.100806646
0000a0 60 a0 59 be de a6 ca be c4 c8 44 3e 23 21 b8 be
       -0.21252584 -0.39580435 0.19217211 -0.3596278
0000b0 e6 f1 f3 bd 3f 23 15 be c8 8f af bb 2c b9 49 3e
       -0.11911373 -0.14564227 -0.005357716 0.19699544
0000c0 64 0a e0 bd d0 70 f4 3d 97 06 c2 bd 7d 29 d2 be
       -0.10939482 0.1193558 -0.09473913 -0.41047278
0000d0 0b f3 fa 3e da 0a 21 3f fc b3 2b 3f ed 00 90 3e
       0.49013552 0.62907183 0.6707151 0.28125706
0000e0 16 d2 29 be 7d 2a b9 3e d3 aa 00 3f 3e 47 2f 3e
       -0.16584048 0.36165228 0.5026066 0.1711702
0000f0 38 fc 73 3e d4 0c 67 3e 0f 01 c5 bd 03 0a 2f 3d
       0.23826683 0.22563487 -0.096193425 0.042734157
000100 f0 dc 4a be c7 0b 04 3d 9d 4e ad be 51 de e0 bd
       -0.19810843 0.032237794 -0.3384904 -0.109799035
000110 a2 39 de be 00 d6 54 bf 86 93 d8 3e 72 ad 4f 3e
       -0.43403345 -0.8313904 0.4230005 0.20281008
000120 d9 13 7f be 07 02 2f 3f 77 37 d5 3e 2f ee 56 3f
       -0.24909915 0.6836247 0.4164388 0.8395719
000130 9a 1c c2 bd ba 63 68 3d 7a f8 a0 3c 78 20 0a 3e
       -0.094781116 0.05673573 0.019649733 0.13488948

linear.weight f4 [6, 20]
000000 7c 36 ac be cd 02 77 be aa b8 d7 3e 7f d6 33 3d
       -0.33635318 -0.24122162 0.42133075 0.04390573
000010 c3 8d c7 bd 60 82 02 3e b3 d1 0c bf 4b 63 29 3e
       -0.09743836 0.12745047 -0.55007476 0.16541784
000020 3e b8 23 bf 2c 3f 31 bf 3c ec 42 bf b4 60 42 bf
       -0.63953006 -0.6923702 -0.76141715 -0.7592881
000030 57 bb 19 be 3d 6f 58 3f 4d 66 cc bd e4 88 0e 40
       -0.1501287 0.84544736 -0.0998045 2.2271051
000040 e6 3a 1f bf f0 91 34 bd b0 2a a6 be 49 ce ce be
       -0.62199247 -0.04408449 -0.32454443 -0.40391758
000050 8d 15 0a 3c 14 e5 8c bf 00 7f 8b bd 5c 07 34 be
       0.00842799 -1.1007409 -0.06811333 -0.17580932
000060 f9 b2 81 3d 5e 3d 92 be 24 24 a0 bf 6e d0 64 bd
       0.063329645 -0.28562444 -1.2511029 -0.055862837
000070 f2 70 3c bf 05 71 33 bf 9a cd 1f bf e4 74 17 bf
       -0.7360984 -0.7009433 -0.624231 -0.59162736
000080 fa fb db 3e cc 96 44 40 b5 ef 52 3f 17 46 6e 40
       0.4296568 3.071704 0.82397014 3.723028
000090 04 f5 98 3d 70 79 d3 3f df 6f 1d be d7 98 a8 be
       0.07468608 1.6521435 -0.15374707 -0.32929108
0000a0 0a c6 52 3f 31 bb b0 be 22 da ed bf 8e 1e c1 bd
       0.82333434 -0.34517816 -1.8582194 -0.09429656
0000b0 bb 93 06 be 74 c4 87 bf 6c ac cf 3d 79 10 e2 bf
       -0.13142292 -1.0606828 0.10140309 -1.7661277
0000c0 e1 24 91 3e f5 3a 29 3f a4 65 af 3e 7e 37 b7 3e
       0.2834845 0.66105586 0.34257233 0.35784525
0000d0 e3 1b c7 3f 54 87 d3 3d cf b4 87 3f 80 b2 72 be
       1.5555385 0.10328546 1.0602053 -0.23700905
0000e0 e5 a3 1a 3f 8e 6b c5 3f 8b 6c 28 3f 8f 76 09 3f
       0.60406333 1.5423448 0.65790623 0.5369653
0000f0 a0 f0 09 be 47 b9 5d 3f 04 ff 26 3e 05 81 84 3c
       -0.13470697 0.86610836 0.16308218 0.016174803
000100 7a 02 b3 bd dc ef 50 3f d1 8b 49 3e d3 a5 03 3f
       -0.08740707 0.81615996 0.19682242 0.514249
000110 d1 63 b2 3d 00 e5 1b 3e 14 0d ae bd 0a 3a a7 3d
       0.08710445 0.15224075 -0.08498588 0.08165367
000120 1e bf 5d be c8 f7 38 bd 41 d9 98 be ba 9f 53 bd
       -0.21654937 -0.045158178 -0.29853252 -0.051666
000130 a6 47 99 bd 5f ee 94 be fd 29 00 be 7a 32 d2 bb
       -0.07484369 -0.29088113 -0.12516017 -0.0064147087
000140 34 80 0e bf be 57 bd 3e 02 03 3f 3f fb 9a fe 3d
       -0.5566437 0.36981004 0.74613965 0.12431904
000150 79 23 0e 3d 63 9c 78 3f d1 4a 61 be 77 df 01 3f
       0.034701798 0.9711363 -0.22001196 0.50731605
000160 22 d3 4c bf 16 0d 51 3d 56 69 a5 be 71 fa ed be
       -0.80009663 0.05103787 -0.32306927 -0.46480134
000170 20 c5 ed be 98 81 92 bc f0 b2 86 be 58 51 ec 3d
       -0.46439457 -0.01788406 -0.26308393 0.115389526
000180 a8 a0 42 bf b2 b7 a8 be 3f cb 2d bf 8c bb 5c bf
       -0.7602639 -0.32952648 -0.67888254 -0.86223674
000190 c9 46 e5 bd ae c2 ae bf 35 8b cc bd e7 b8 35 3e
       -0.11195142 -1.3653162 -0.09987489 0.17746316
0001a0 30 fc 37 3d 23 b4 c2 be 44 49 95 bf c9 fd 6d bd
       0.04491824 -0.38028058 -1.1662984 -0.058103357
0001b0 6b 14 86 bf c5 84 42 3c 8e 51 d3 be d1 c8 86 bf
       -1.0474981 0.011872475 -0.4127316 -1.0530034
0001c0 06 d6 a5 bb 01 ff ed 3e 72 6d b5 3d 8f 11 0e 3f
       -0.005060914 0.46483615 0.08858766 0.5549554
0001d0 77 99 7a be d0 e9 f1 3d 0b 95 0f be e0 ae ac be
       -0.24472605 0.11812174 -0.14021699 -0.3372717

linear.bias f4 [6]
000000 10 44 b3 3f 04 98 cd 3f cf ac a1 be c6 e6 a0 be
       1.4005146 1.6062016 -0.31577155 -0.31426066
000010 94 1f c3 3e a5 0e 60 3f
       0.3811003 0.87522346
