models/329/model.pt (torch_old, 108056 bytes, 12 tensors)

weight_ih_l0 f4 [160, 10]
00000000: 3b8d 193f 7186 d33e a32c 653e 7c4f fcbe
00000010: 5bfd 56be 9662 ddbe 708f a2bd 2cca 7ebe
00000020: 929f ecbe e275 37bd 7e2a 413f 49f6 0cbd
00000030: 587b c1be 0505 53be 779c e2bd 7a83 87bb
00000040: 1a32 093f 140d 3dbe 2fcb 37be f54b fa3e
00000050: cd90 263f 6b91 8f3e 9aeb 793e d367 9e3c
00000060: ce7e b0bd 51f2 8c3c 48a7 31be 1940 533d
00000070: 4101 f73d b4ad 8dbd 5d58 bf3d 2877 533e
00000080: 21e0 7c3e af67 58be 3aef 90be a911 75be
00000090: f1e1 7dbe 5650 26be fcd6 9bbe dd6f f3bd
000000a0: 557f 843e 3fdb c3bc a6b0 e13b 677d 853e
000000b0: a247 903e 5ab4 e83e c0dd 0ebd 5c6c 9b3e
000000c0: 6af3 9a3e ffab 193e 340b dfbe 6e71 823e
000000d0: 4bbf ba3e a9b2 b53d 5c9f c23e 7c50 853d
000000e0: e9ef a8be 8c70 c83e c2b3 1e3c 47a1 8fbe
000000f0: f51a 60bc 5c6c 8fbe 30ac 013c 4caf ab3e
00000100: 9b23 233e b6e3 ca3e 9c6e 863d 5156 a23d
00000110: 27a9 003e 69ee 8a3e 9320 5a3e 5d69 57be
00000120: 5bea d6be 0fbf a93d 8f8c 2dbe 894d 713e
00000130: 3243 093f 5bca d2bd ab7d a83e 6cf1 043f
00000140: 5353 b8be a90a ab3e 13d8 653e 7941 fb3d
00000150: ad45 913e bba8 363d adbb cdbe 785f 5d3e
00000160: 4dd3 26be 4982 a2be 61ad ffbd 6184 633d
00000170: b56a 783e eff8 7cbd e2a8 2d3e 3d88 ec3d
00000180: 2882 c4bc 79e3 8bbd 844e 73bd 1e79 6b3d
00000190: 8018 ff3e 0b4d 813e 16b5 153e 0397 44be
000001a0: e695 7dbe cb2e b8be 9265 6bbe d797 53bd
000001b0: 5f88 bcbe 84e0 3cbd 0496 483f ced0 063e
000001c0: 2459 31bc 88c6 86bc 34d1 963d b447 a8be
000001d0: 64c7 9bbd ac9a b13d b452 a8be 7688 2dbe
000001e0: af54 bdbd b0ee c0be 711d 34bf 08ca 23bd
000001f0: b0be 7dbe 1c16 7fbc 4385 523f b1dc d0be
00000200: 52b6 3a3c bd4c 543f ec79 f83e 5898 f23e
00000210: 2310 a93e 96a3 08bf 2b3e 73bc 17cd edbe
00000220: 40ca 85bd 970a 95bc 6b09 f0be 5661 0dbe
00000230: 2e54 b03d 9604 c13e 621c da3d f34f 76be
00000240: 55ed f1be afd6 f6be a097 44be bf26 a5be
00000250: b941 84be 221d 1dbe c08a 34bf 6102 d03e
00000260: f218 783d aa53 a2be 3501 99bc d9fb 8cbe
00000270: 419c 3fbe 1d7f 65be 29db d1bd 1b74 75be
00000280: bb96 e9bc 4dbe e23d 493a 30be 824e 17be
00000290: d42f 0abd 1bf6 e53c 491b 683e 135c 3a3c
000002a0: b71f c03d f886 1ebd 6941 c63e 0181 183f
000002b0: 49a7 ac3e ccd2 c0be da12 c1bc 2510 03bf
000002c0: e587 80be f048 9abd ad61 1dbf 6ef1 0fbe
000002d0: 3f08 ae3e 1ba5 543c c196 6bbd 8de8 1fbe
000002e0: 087e 4fbe 27e4 28be 55f0 a33e e287 98bd
000002f0: 3b68 d4bc 0fcf 923e e850 bfbd a0e2 a9bd
00000300: d1e9 273e fc52 693e 34ce 5d3d c22c db3e
00000310: d353 1c3e e361 aa3e 0a7d ac3e 4ee0 e8bc
00000320: dc99 7fbe 0f29 253e aeef 1ebe e62e 84bd
00000330: 9663 003d 4446 c2bd 5324 9d3d bad2 9cbb
00000340: 281c 913d 3194 98bc af33 a33e 6933 083e
00000350: 84cd 023e 96fa d23d c459 24bd f442 cd3d
00000360: 0b6d 8c3c 2f58 01bd 1621 623e 9cda 4e3d
00000370: f4d6 843e fdf9 f73a 8db1 eb39 2d32 a3bd
00000380: 7d71 cf3d cbf6 afbb 2e71 08bd 5245 9c3c
00000390: a0ec b3bd 1e13 90bd 7354 06be ce8b e1bd
000003a0: d646 31be bd78 3e3e 272e 0a3e c0cd 06bd
000003b0: 1999 3a3e adf3 103e e0a5 bfbc 3122 d8bc
000003c0: dfb2 e83d 11c5 0ebe 8d6e efbc 6dba 9bbd
000003d0: 6e8b 13bd c196 623e e76c f8bc ec94 c0bd
000003e0: 03cd 1c3e 39b3 ff3d 302e 48be c363 8e3e
000003f0: 20d3 a23e 5284 a73d 3faf b33e 0eef 933d
0.59981126 0.41313508 0.22380309 -0.49279392 -0.20995085 -0.43239278 -0.07937515 -0.2488181
-0.46215492 -0.044790156 0.7545546 -0.034414563 -0.37789416 -0.20607384 -0.110649996 -0.0041355463
0.53592074 -0.1846202 -0.17948602 0.48886076 0.650647 0.28040633 0.24406281 0.019336617
-0.08617936 0.01720539 -0.17348969 0.0515748 0.12060786 -0.06917897 0.09343026 0.20650923
0.24694873 -0.21133302 -0.28307515 -0.23932518 -0.24793221 -0.16241583 -0.30437458 -0.118865706
0.25878397 -0.023908256 0.006887513 0.26072237 0.28179651 0.45450097 -0.034879446 0.3035611
0.30263835 0.15007018 -0.43563235 0.25477165 0.3647407 0.08871967 0.38012207 0.06509492
-0.32995537 0.39148366 0.009686412 -0.28052732 -0.013678302 -0.2801236 0.007914588 0.33532178
0.15931551 0.39626855 0.06564066 0.0792662 0.12564526 0.27135018 0.21301489 -0.21036287
-0.41975674 0.08288395 -0.1694815 0.23564734 0.53618157 -0.102925025 0.32908377 0.5193088
-0.3600107 0.3340657 0.22445707 0.12268347 0.2837347 0.044594508 -0.40182248 0.2161845
-0.16291542 -0.31740025 -0.12484241 0.05554617 0.24259456 -0.06176084 0.16958955 0.11549423
-0.023987845 -0.06830496 -0.05940105 0.057488553 0.4982338 0.25254092 0.1461986 -0.19198231
-0.24764213 -0.359732 -0.22987965 -0.051658478 -0.36822793 -0.046112552 0.78353906 0.1316559
-0.010824475 -0.016452089 0.07364121 -0.32867205 -0.0760639 0.086720794 -0.32875597 -0.16946587
-0.09244668 -0.37682104 -0.70357424 -0.039987594 -0.24779773 -0.015569236 0.8223459 -0.40793374
0.011396008 0.82929593 0.4853052 0.47381854 0.33020124 -0.5337461 -0.014846365 -0.46445534
-0.06532717 -0.018193526 -0.46882185 -0.13806662 0.08609806 0.3769881 0.10649945 -0.24053936
-0.47251382 -0.48210666 -0.19198465 -0.32256123 -0.25831392 -0.15343145 -0.70524216 0.40626815
0.060570665 -0.31704456 -0.018677333 -0.27535895 -0.1871195 -0.22411771 -0.102468796 -0.23970072
-0.028514257 0.11071453 -0.17209734 -0.14776042 -0.03373702 0.028071454 0.22666658 0.011374491
0.09381049 -0.038702935 0.3872178 0.59571844 0.33721378 -0.37660825 -0.02356856 -0.5119651
-0.2510368 -0.07533443 -0.61477166 -0.14056942 0.33990666 0.012978817 -0.057516817 -0.15616055
-0.20262921 -0.16493283 0.32019296 -0.074477926 -0.025928607 0.28673598 -0.093416035 -0.082951784
0.16397788 0.22785562 0.05415173 0.42807585 0.15266351 0.33277807 0.33689147 -0.02842727
-0.24961036 0.16128944 -0.15521118 -0.06454258 0.031344973 -0.09486058 0.07672944 -0.0047858628
0.070854485 -0.01862535 0.3187537 0.13300861 0.1277371 0.10301702 -0.04012467 0.10022536
0.01714184 -0.03157824 0.22082934 0.05050145 0.25945246 0.0018919107 0.00044954979 -0.07968555
0.10129068 -0.005369996 -0.03331106 0.019076023 -0.08785367 -0.07034896 -0.13118152 -0.11012994
-0.17312178 0.18600745 0.13494168 -0.032911062 0.18222465 0.14155455 -0.023394525 -0.026383491
0.11362242 -0.13942362 -0.02922752 -0.07603917 -0.036021642 0.2212782 -0.030325366 -0.094034046
0.15312581 0.12485356 -0.19548869 0.27810487 0.318017 0.08179535 0.3509464 0.072233304

weight_hh_l0 f4 [160, 40]
00000000: 550d 84bd 40c9 87bc 8895 ebbc 6fe6 8bbd
00000010: 904d eebc b838 a13c e159 0e3e 7c13 b03d
00000020: 602c ba3b a806 1abe c0d8 ba3d 68a7 dabc
00000030: 21f3 d1bd f080 b83d 807a 45bd bc8c 86bd
00000040: a846 d53c 6eb7 953d 2dbb 0abe 16d2 3abd
00000050: 4824 98bd 74ce e2bd ef02 213e 62d3 b5bd
00000060: b3b3 1b3e 2e82 953d 70f1 6fbc 60b6 a5bc
00000070: be2f dbbd 7246 f43d 001e 773c 05ea 033e
00000080: c666 823d 16c0 cb3d 2bec dabd e082 393c
00000090: 30e2 38bc 6e9d bc3d 6e5b 2ebd f87d e1bc
000000a0: adda 063e e6f2 efbd 6d70 173e e5ac 033e
000000b0: 9764 a4bd 2e57 fdbd 185c bebc 81d1 1e3e
000000c0: 5039 afbc 209b c43b bf09 96bd ae36 86bd
000000d0: 094b 08be 2a79 ccbd 00f2 86bc a214 bd3d
000000e0: 7ce3 01bd e29e be3d 30bc 10be 10ba d1bc
000000f0: e0e4 ebbc 5685 c83d 8c60 553d f5e6 02be
00000100: 9652 1bbe 305e 863c 56a4 ef3d c9c6 04be
00000110: 084c 13be d8ef 99bc cfb4 053e a104 a3bd
00000120: 18d6 81bc 7423 a03d d19f 07be 2cf1 11be
00000130: ee54 963d 6609 973d 5a41 c73d f17f 013e
00000140: eaa4 75bd f04c 493d d4cd 113d 1c6a e9bd
00000150: e07a d53c 2065 3bbc 9efd bf3d b854 9abc
00000160: 884f 05bd 7b18 b3bd bf13 cbbd 4c4d e4bd
00000170: 7925 1fbe 120b 8ebd 6026 f53b 5836 913d
00000180: e44f 02be 9349 133e 1896 a7bc a541 003e
00000190: 8c28 c8bd 9043 153d 0050 57bc 25df c2bd
000001a0: 7e47 bf3d b211 823d 3a0e 853d 30c5 4f3d
000001b0: 81b1 19be bef6 d23d 3226 76bd 1a61 933d
000001c0: 8060 87bb 4009 1ebb 1238 18be f030 bd3c
000001d0: 801b 083c d019 723c 22a6 43bd 712a d1bd
000001e0: e2b7 bc3d 7b7c f4bd 34ae eabd b6d5 cd3d
000001f0: 00b2 6e3d 18d3 8f3d abed abbd 60c5 c33b
00000200: 5630 9c3d 58cb 8e3d 9a07 fb3d 8d45 08be
00000210: e37e 183e d0e8 c3bd dfaa 093e 206c afbb
00000220: 9ae2 c63d 9cb2 0e3d 20d7 563d d4bb 683d
00000230: 70fb b33c f0c2 653d 3a01 9c3d 6fb4 1f3e
00000240: 87a9 1d3e 08a3 0ebe 3116 0a3e 5c07 933d
00000250: d06a 903d 70bd 733d 9af7 3dbd d8f1 f1bc
00000260: 008e 46ba 4bab ecbd f24e 73bd caa9 b03d
00000270: 50de 2e3d c8bd 3c3d 20c8 cdbd 40d4 923b
00000280: cd0f 133e 362c df3d 6897 67bd 7db6 e7bd
00000290: 4269 6dbd 8033 e63c acc6 2a3d c869 a6bc
000002a0: 1272 05be bb55 cdbd 1cd3 833d 7892 09be
000002b0: 80b7 c6bd 5b55 88bd 4288 2fbd ca35 df3d
000002c0: a8d4 6b3d 81f6 d2bd 1635 e0bd df26 83bd
000002d0: c423 423d 10e2 3cbc 437c 1e3e 9851 d7bc
000002e0: 4cb8 6d3d eee2 47bd e467 af3d e992 153e
000002f0: 6e0c 893d 42dd de3d 06a4 0bbe c23b c03d
00000300: 00af 56bd 882b bbbc 8465 593d ee07 f73d
00000310: d4ae 0abd 22aa 5fbd a72e b9bd 45b5 113e
00000320: a142 193e d8f2 bd3c b87f 423d b225 ac3d
00000330: 9679 db3d 2077 f7bc 728c c53d ecf9 0e3d
00000340: 6612 fa3d 8812 d1bc 7efe dd3d b03b 373d
00000350: b103 b7bd acb2 0cbe b804 9e3c 0f8b 15be
00000360: 256e 0d3e 49fa 203e b680 d53d 4006 5d3c
00000370: 7899 afbc d6ba af3d 0012 7c3b 833f 1f3e
00000380: 4a71 2ebd 1239 de3d 5865 703d 8484 9abd
00000390: 5b32 163e 402e 0b3b d057 0cbe eaab e03d
000003a0: 00fd 47bb ba90 57bd 68b8 dbbc 082c f9bc
000003b0: 82a9 d03d c0fb 0f3c 9aa5 d4bd d9bb bebd
000003c0: 98ad 013d dc58 a63d 23cc 06be bbf0 b3bd
000003d0: 7855 32bd 58fd ddbc d406 73bd 887e 1e3d
000003e0: 9e0c b7bd e400 4b3d d882 b33d 0cbc 7abd
000003f0: 8962 bebd 6494 423d f37f 88bd 44c6 7e3d
-0.064478554 -0.016575456 -0.028757825 -0.06831061 -0.029089719 0.019680366 0.13901474 0.08597466
0.0056815594 -0.15041602 0.09123373 -0.026691154 -0.10251451 0.09008968 -0.04821253 -0.06569812
0.026034668 0.07310377 -0.13547964 -0.04561051 -0.07428795 -0.11074534 0.15723775 -0.08878209
0.15205269 0.073002204 -0.0146449655 -0.020228565 -0.107024655 0.11927499 0.015082836 0.1288224
0.06367259 0.09948747 -0.10689577 0.011322707 -0.011284396 0.09209715 -0.042567663 -0.027525887
0.13169356 -0.11716251 0.14788981 0.12858923 -0.080269985 -0.12370144 -0.023237273 0.15509607
-0.021389633 0.0059999377 -0.07326078 -0.06553398 -0.13309874 -0.09984048 -0.016472816 0.09232451
-0.031711087 0.09307648 -0.14134288 -0.025601417 -0.02879566 0.09791057 0.052094027 -0.12783416
-0.15168223 0.016402334 0.117012665 -0.12966456 -0.14384472 -0.018791124 0.13057254 -0.07959867
-0.015849158 0.07819262 -0.13244559 -0.14252156 0.07340418 0.073748395 0.09729262 0.12646462
-0.059971727 0.04914564 0.035596684 -0.11397192 0.026059568 -0.011437684 0.093745455 -0.018839225
-0.03254655 -0.08744904 -0.09915876 -0.11147556 -0.15541638 -0.06935705 0.0074813813 0.070904434
-0.12725788 0.14383535 -0.020457312 0.12525041 -0.09773359 0.036441386 -0.013141632 -0.09515218
0.09339808 0.06351031 0.06496854 0.050725162 -0.15009119 0.103009686 -0.06009502 0.07196255
-0.0041313767 -0.00241144 -0.14865139 0.023094624 0.008307338 0.014776662 -0.04776586 -0.10213173
0.0921476 -0.11937805 -0.11459008 0.10050528 0.058275223 0.07022685 -0.08394941 0.0059744567
0.07626407 0.069723785 0.12257309 -0.13307782 0.14892153 -0.0956589 0.13444088 -0.0053534657
0.097111896 0.034838304 0.052451253 0.05681975 0.02197048 0.05609411 0.076174214 0.15596174
0.15396701 -0.13929379 0.13485028 0.07179138 0.07051623 0.059506834 -0.04637871 -0.029534265
-0.000757426 -0.11556109 -0.05940146 0.08626135 0.042692482 0.046079427 -0.100479364 0.0044808686
0.14361496 0.108971044 -0.056540877 -0.11314104 -0.05796171 0.028100729 0.041693375 -0.020314112
-0.13031796 -0.100261174 0.0643675 -0.1343478 -0.097029686 -0.06656905 -0.042854555 0.10898931
0.05757585 -0.10300923 -0.10947625 -0.064038984 0.04739739 -0.011528507 0.1547709 -0.026284024
0.058037087 -0.0488004 0.085647374 0.14606823 0.06691824 0.10882045 -0.13636789 0.09386398
-0.052412987 -0.022847906 0.05307533 0.12062059 -0.033858135 -0.05460561 -0.09042101 0.14229305
0.14966823 0.023187086 0.047485083 0.08405627 0.1071655 -0.03020817 0.096459284 0.034906313
0.122105405 -0.025521532 0.10839556 0.044734657 -0.08936251 -0.13740033 0.01928936 -0.14603828
0.13811548 0.15720476 0.1042494 0.01349026 -0.021435484 0.08580558 0.0038462877 0.15551572
-0.04258851 0.10850729 0.0586904 -0.075448066 0.14667647 0.0021237284 -0.13705373 0.1097029
-0.003051579 -0.052628256 -0.02682133 -0.030416504 0.10188581 0.008788049 -0.103831485 -0.09313173
0.031659693 0.08122417 -0.1316381 -0.0878615 -0.04353854 -0.027098343 -0.059332684 0.03869489
-0.089379534 0.049561396 0.08765191 -0.06121449 -0.09296138 0.047504798 -0.066650294 0.0622008

bias_ih_l0 f4 [160]
00000000: 2d8a 9e3e adec af3e c077 4f3e 6202 673e
00000010: 9612 e83e 743a 3b3e 5cd4 aa3e df1c 913e
00000020: 3511 e83d 0f21 403e 27b1 dd3e 8acc 713e
00000030: 6faf ea3d 265e 3e3e 6048 833e 143a 7c3e
00000040: 3674 4b3e 7cb4 883e 641d 013e b005 553e
00000050: 4f36 773e d9e8 863e d9fd c83d c2cb 683e
00000060: d57c 8e3e 3a96 693e fe58 aa3e 08bd ae3e
00000070: 52f2 663e 413c 843e be9d 143e 2db9 163e
00000080: 6531 ca3e 767c 053f e322 9d3e b3c9 dc3c
00000090: 468c f43d dd00 1c3e 28ea b53e 41d3 cc3e
000000a0: b885 043d 182a ba3d 6603 f63d 0058 74ba
000000b0: f815 89bd 7659 953d 5435 643d c875 f7bc
000000c0: 9ead 8c3d 9278 813d 9343 87bd 4c82 a6bd
000000d0: a8fb d6bc be07 0fbe 8c9c bdbd 5c38 513d
000000e0: 50bc 663c d0e7 dc3c 6ac2 ffbd 320e fd3d
000000f0: a472 b33d efc6 1c3e e08b 5c3c c8f6 86bc
00000100: d2b2 8d3d 8f95 13be c715 c1bd 3f32 193e
00000110: d0db 0f3d 982a 14bd 9ed6 ba3d 48e5 1bbe
00000120: 4d3c 1b3e aa60 2dbd 60d9 c5bb 2650 db3d
00000130: 331e 023e 44f8 d7bd 3303 123e bf2b afbd
00000140: 3252 263e 914c 8e3e d5da c23d 4419 61bd
00000150: 217a 59bd e3d8 7e3e c9ae ccbc 7b5a 64bc
00000160: 5ca7 acbe 798b 1fbe da50 2ebe 03ae cc3d
00000170: 3011 443d c6e3 27be c897 2e3e 503e 823e
00000180: 1d1f 51bd 9d0a 5abe 6b4a 61bd 853e d83d
00000190: 83fb 373e dbcd 523b 4d80 52bd d971 513e
000001a0: d5a7 1d3d d9da 47bd 0adf 143e 74f2 0e3d
000001b0: c86f a0bd 619a d2bd 80fc 70be e60f 633d
000001c0: 1d5c 4b3d 74d7 a8bd 9908 86be 67ee fabd
000001d0: 916f d3bd 1bc4 40be 1cf4 c53d d183 a2bc
000001e0: 79a9 cd3e b18b dc3e 5a0a 853e 3779 d53e
000001f0: a484 bf3e 25ed 643d 44b6 e13d 1c62 763d
00000200: 6750 3b3e e636 993e 694f 0b3f 272d c63e
00000210: 0e3c 863d 944c aa3e 7505 8d3e bd8d 4a3e
00000220: f935 dd3c 3e6a 1e3e b723 0c3e f70e 8f3e
00000230: 79a2 4b3e 0368 bd3e 02e1 913e 4e2f 883e
00000240: 4fca 193e f4c3 6f3e 23f9 b23e d68f d13e
00000250: f516 843e 238b b83e 2301 993e 6dbf b23e
00000260: 4e1f 443e e00d 0c3f 0993 123e bf76 643e
00000270: d52e c73d f692 ac3e cd17 af3e ad66 313e
0.30964795 0.34360257 0.20260525 0.22559503 0.4532668 0.18284017 0.33365142 0.2834234
0.11331407 0.18762611 0.4329922 0.23613182 0.114592426 0.18590602 0.25641155 0.2463153
0.1986855 0.267002 0.12608868 0.20802951 0.24141811 0.26349524 0.098140426 0.22733977
0.27829614 0.22811213 0.3327102 0.34128594 0.22553375 0.2582722 0.14513299 0.14719076
0.3949081 0.5214304 0.3069068 0.026951646 0.119408175 0.15234704 0.3553021 0.40004924
0.032354087 0.0909006 0.12012367 -0.00093209743 -0.06693643 0.07292454 0.05571492 -0.03020753
0.06869052 0.06321825 -0.06604686 -0.08130321 -0.026243046 -0.13967797 -0.092583746 0.05107914
0.014082983 0.026966006 -0.124882534 0.12356223 0.087621 0.15310262 0.013461083 -0.016475096
0.06918873 -0.14412521 -0.09427982 0.14960574 0.03512174 -0.036173433 0.09122966 -0.15224183
0.15159722 -0.042328514 -0.006037876 0.107086465 0.12706833 -0.105454 0.14259033 -0.08553266
0.16242293 0.2779279 0.09514395 -0.054955736 -0.053094987 0.24887423 -0.024985688 -0.013937588
-0.33721435 -0.15580548 -0.1702303 0.099941276 0.047867954 -0.16395482 0.17050087 0.25438166
-0.051055063 -0.21293111 -0.05500261 0.105588 0.17967038 0.0032166156 -0.05139189 0.20453586
0.038490135 -0.048792694 0.14538208 0.03489919 -0.078338206 -0.10283352 -0.23533821 0.055435084
0.049648393 -0.082442194 -0.26178434 -0.12252503 -0.10324014 -0.18824808 0.09665701 -0.019838246
0.4016836 0.43075326 0.2598446 0.41694042 0.37405884 0.05589022 0.110210925 0.06015216
0.1829239 0.29924697 0.54418045 0.38706324 0.06554423 0.3326155 0.27543226 0.19780631
0.027003275 0.15470216 0.13685499 0.27941105 0.19886197 0.36993417 0.2849198 0.2659859
0.15018581 0.23414594 0.349557 0.4093005 0.25798765 0.36043653 0.2988368 0.3491167
0.19152567 0.5470867 0.14313902 0.22310923 0.097257294 0.33705872 0.34197846 0.17324324

bias_hh_l0 f4 [160]
00000000: c147 b33e 1f48 a83e 683e 5a3e 0fc6 b53d
00000010: 22d8 ff3e c302 b33e 86bd a63e f475 1b3e
00000020: 1b6d 8a3e 5def 4a3e 4210 8c3e 9741 343e
00000030: 9723 243e 58e5 573e a0e9 bf3d 5e46 e4bc
00000040: 68ef 0bbd f376 803e 7128 883e 07ac 9c3e
00000050: 5b09 cf3e 0b23 8a3e 09b3 413e bc5c 9d3e
00000060: 3eab 983c 894a dd3d 285d 443e 68dc a63e
00000070: ba0e ec3e a829 d73e 64b8 a03e 1167 483e
00000080: 5547 283e 360b dd3e 6355 0f3e 5d32 92bc
00000090: c65d 713e 1dad a73e d2eb b63e 2ba1 883e
000000a0: b170 153e 46e2 ca3d 171e 06be 00c9 4b3d
000000b0: 1e0f bc3d 600f 9abd 28b9 8bbd 4187 a4bd
000000c0: e032 13bc b64a ef3d f481 913d a430 ac3d
000000d0: 20d7 033c f2ca f33d 5262 64bd 08fd a73d
000000e0: 308a 283d 6d42 8cbd cb13 a1bd 8b89 113e
000000f0: 3662 f93d a6b4 fabd a07e 453c 6e2b f53d
00000100: 6267 8a3d cb9a 173e 6d01 213e de0b d43d
00000110: a174 023e bac4 fb3d 3f0e 9dbd f92b 0b3e
00000120: 4e8a f33d 507a a33d 8c4d a3bd 8e56 c43d
00000130: 0ac9 d63d 481b 9fbc 44d7 053d 3efe bfbd
00000140: cf37 903e ec51 d03d 3462 103e 5a13 003e
00000150: bfdd 54be 3675 883e e8de 0ebe a005 57bd
00000160: 459b 89be 2050 e6bd 7637 8fbe 113a cebc
00000170: d320 943e e857 23be 383f 353e 5027 973e
00000180: e84c 2c3e 4346 30be 7a41 94bd f700 03bd
00000190: 5e27 9a3c ea44 293c eaa5 65be b54d 703d
000001a0: 4166 10be 9b5b 8fbc f1d6 853e c2be c8bd
000001b0: 6244 2fbe b3ae 32be a80c da3c c05d d8bd
000001c0: 9da0 7fbd aaf3 38be 9390 2fbe ff1d 17be
000001d0: 0de3 05bd 8bdb 7abe fdde 073d ea9f 63be
000001e0: 6bb1 ee3e 6b9d ee3e 5c48 483e 6d17 713e
000001f0: eaae 8d3e dad1 363e d386 a43d ee6e 4e3e
00000200: c319 b53e 59ec 6d3d 689a ed3e 363b 623e
00000210: 5e6d ee3b aea6 bf3e acfc fe3c 8177 513e
00000220: 1a0b 5f3e 56ad cb3e 247c 9f3e aa7f 2f3e
00000230: 57a2 9b3e b6b3 0f3e 8e0d 283e 31f7 503e
00000240: 860e 2abd 2caf f03d f7c1 223e 0e7c 933e
00000250: 9d35 793e 014e 673e aabf b53d 3365 3c3e
00000260: 58cc 523e 444b ef3e 57a3 003e 3184 f73d
00000270: 278d 7a3e 52a3 9f3e 6d5a 9f3e c317 6b3e
0.3501568 0.32867524 0.21312869 0.08875667 0.49969584 0.34963045 0.3256647 0.15181714
0.27036366 0.19817872 0.27356154 0.17603146 0.16029201 0.21083581 0.09370732 -0.027865585
-0.034163862 0.2509075 0.26593354 0.30599996 0.40436825 0.2697986 0.18915953 0.30734813
0.018636342 0.10805232 0.19176161 0.32590032 0.46104985 0.4202397 0.3139068 0.19570567
0.16433461 0.43172616 0.13997416 -0.01784628 0.23570928 0.32749262 0.35726792 0.2668546
0.1459377 0.099064395 -0.13097416 0.049752235 0.09182571 -0.07522464 -0.06822425 -0.0803361
-0.0089842975 0.11684172 0.07104865 0.08407715 0.008046895 0.11903943 -0.055757828 0.08202559
0.04114741 -0.06848607 -0.07865103 0.14212625 0.121769354 -0.12241487 0.0120541155 0.11971174
0.06758 0.14805143 0.157232 0.10353826 0.12739803 0.12293382 -0.07668733 0.13590993
0.11891614 0.07982314 -0.07973775 0.095868215 0.10487564 -0.019422188 0.032675996 -0.09374665
0.2816758 0.10171875 0.14099962 0.12507382 -0.20787714 0.26651925 -0.1395222 -0.0524956
-0.26876274 -0.112457514 -0.27972 -0.025174173 0.28931293 -0.15951502 0.17699897 0.2952218
0.16826212 -0.17214303 -0.07239051 -0.031983342 0.0188176 0.010331372 -0.22426572 0.058667857
-0.14101507 -0.017499736 0.2614055 -0.09802009 -0.1711593 -0.17449455 0.026617363 -0.105647564
-0.062409032 -0.180617 -0.17144994 -0.14757536 -0.032687236 -0.24497811 0.033171643 -0.22228971
0.46619734 0.46604475 0.19558853 0.23544092 0.2767251 0.1785349 0.08033528 0.20159504
0.35371217 0.058086727 0.46406865 0.220929 0.007276221 0.37431854 0.031126343 0.20455743
0.21781579 0.39780682 0.311494 0.17138544 0.30397293 0.14033398 0.1641142 0.20406796
-0.041517757 0.117521614 0.15894304 0.28805584 0.24336858 0.2258835 0.08874448 0.1839798
0.20585763 0.4673711 0.12562309 0.120857604 0.24467908 0.3117929 0.31123677 0.22958283

weight_ih_l1 f4 [160, 40]
00000000: a92b b4be 8889 f43e 2b6f 84be 37f6 4bbe
00000010: ff26 773d abaf acbd 4999 543e c9ec 733e
00000020: c329 a03d eb5a 9cbe 1b5c 543e 3dec 88bd
00000030: 750c 8bbe 8576 823e 03b8 c5be 08d3 c73d
00000040: 1d4c 0ebe e1f8 923e edaf cb3e 50b1 693e
00000050: acac 85bd e8c0 c8bd 65a6 1d3e 78b6 cdbd
00000060: fc2a 24be 52e1 a9bd 585a 13bc eba5 7d3e
00000070: 34b0 4b3e 5d9a 1d3e 054e 713d 8da7 363e
00000080: efca 3a3e 290c 4d3d 886e c8bb 774d 0abe
00000090: e263 92be 1e2c 33bd ef16 cbbd db01 25be
000000a0: 163a e6bd 3dbc c2bd e881 e63d c8be 413d
000000b0: 1722 06be 301e 803d 9e1f 16be b6fb d63e
000000c0: c96e e83d 631c e1bd d702 933c 71c1 573e
000000d0: bf12 81be b520 84bd be5f 5b3a f99a 69be
000000e0: 0884 9fbd f7d9 f8bd b8f6 14be 9c6c 1f3e
000000f0: f8bd 85bd 1cc3 5ebe 9ac8 c93c bf12 eb39
00000100: 3fde 0dbe 249b 583e beb6 99bd ace4 503e
00000110: 1ee7 fa3d b9b5 0ebe 05bd df3d 63c6 adbe
00000120: 7e82 273e fb53 663d 6f45 cbbc b048 cb3e
00000130: 7924 db3d 0505 72be 6448 7d3e c323 243e
00000140: 70e8 2b3e 3a17 66be c7fe ddbc a668 ba3e
00000150: 3d55 ffbc ff5d 523e 1f5b bcbd a25d 493d
00000160: 602a 81bd 882b f33a da50 77be 88e2 233e
00000170: 4d6e 6a3e 5888 02be 8d89 b93e 5743 89ba
00000180: d4fe cb3d 4d8e 77be 4065 26be 37ed bfbd
00000190: a795 8e3d d2bd 00be 8765 9c3d 05ff 0dbe
000001a0: 0ace 303d 682d 8e3e be28 f6bc 21a2 36be
000001b0: 983e 03be fa43 1dbe 2f94 f43d 5bb8 92be
000001c0: 2b95 b0bd f934 943d 392e 8e3d 9d73 b23e
000001d0: 4de8 3a3e 680a a53d bed5 89ba 9027 1c3e
000001e0: 23f2 123d b3d2 1abe 30b0 573d 3465 c73d
000001f0: 9641 153d a71f 10bd de36 c03c 16df 803d
00000200: 8c4b 0a3e bc0b 013e f4fb d23d 3749 b9bd
00000210: 3830 4abd 4960 8ebd 60a0 aabe bdaf 553d
00000220: 6690 79bd 2baf 85bb dded d5bc 170d 323d
00000230: a38b 403e 61d3 cbbd e18a e3bd c89c 4fbd
00000240: 56eb ef3d ee4a 4bbe 5561 833d 373c 89be
00000250: 34ab d3bc 663b 8a3e 7615 01be b990 ca3e
00000260: df38 ab3e b063 f23d 74a5 18be 1120 c3be
00000270: 2cc3 f5be 489c 95be 199e 32bc 5c43 9b3d
00000280: a3e7 843e af44 1abd 36e6 343a b2f5 053e
00000290: d5c9 07be 4af4 093e 0c25 76be 2f9a 90bc
000002a0: 90b7 debd f5cb 843e 1e59 81be 4dce 1f3e
000002b0: 434a 963e ae2c b8bd 48c3 af3e d8dd 34be
000002c0: 7e2f 5b3e 5ec0 dabe b781 55bd 82c4 89be
000002d0: a65a 073e 4a4f 69bd 613d 503e 5ba0 90bd
000002e0: 4f7f 153e 20bb 353d f3ee 11bd 821c 3b3d
000002f0: cc9e b4bd 220c ccbd fe26 383d c493 2cbc
00000300: ca58 de3d 8795 1bbe 5026 f43b 08b7 6a3e
00000310: bb8e 423e 2ac2 53bd 33ef a03d 159b c1bd
00000320: 87f8 513d 7434 6dbd 36ac acbd ee39 e4bd
00000330: 6450 65be db0e 2dbe e5a3 6eba 55a5 773e
00000340: 14b3 433e b6e5 3f3d 5c8b 5f3c 2199 abba
00000350: 3234 16bd d20b 7f3d 7e0e 74bd f10c bdbd
00000360: 2703 803e c060 6abd 0365 70be 0ed9 b2bd
00000370: 3ba3 483e 1d76 00be c2d4 1cbd 0320 913d
00000380: dcc2 3c3d 6966 c13c 80b4 593d 9a60 393e
00000390: 7151 d23d 7918 5ebd 97e5 48be b451 03be
000003a0: b500 683e e04a 28bd ef53 203d f517 10bd
000003b0: e14c 0cbd 6f35 a3bd 4410 f9bd 7d4d 893d
000003c0: fb89 e73d cd7d 043e 0932 893d f22b 7b3e
000003d0: d9c8 38be d118 9b3e f1c5 a4be b436 20be
000003e0: 2d44 3ebe 2dab 823e c974 9abe a800 243e
000003f0: 7aab 053e aaaf 28be 3a44 bf3e a1c2 03bd
-0.3518956 0.47761178 -0.25866064 -0.19918142 0.060339924 -0.084319435 0.20761599 0.23820795
0.078204654 -0.30538115 0.2073826 -0.06685684 -0.2715794 0.25481048 -0.38616952 0.09757048
-0.13896222 0.28705505 0.39782658 0.22821546 -0.06527075 -0.09802419 0.15395506 -0.10044569
-0.16032022 -0.082949296 -0.008993708 0.24770324 0.19891435 0.15390916 0.058912296 0.17837353
0.18241476 0.050060425 -0.006116692 -0.13506113 -0.2859183 -0.043743245 -0.099164836 -0.16113989
-0.11241548 -0.0950856 0.112552464 0.047301084 -0.13098942 0.06255758 -0.14660498 0.41988915
0.113492556 -0.109917425 0.01794569 0.21069886 -0.25209615 -0.06451551 0.0008368454 -0.22813024
-0.07788855 -0.121509485 -0.1454724 0.15568775 -0.06530374 -0.21754116 0.024631787 0.0004483666
-0.13854311 0.21152931 -0.075055584 0.20399731 0.12251113 -0.13936509 0.109247245 -0.3394042
0.16358373 0.056232434 -0.024813382 0.39703894 0.10700316 -0.23634727 0.24734646 0.16029267
0.16787887 -0.22469798 -0.027099026 0.36407965 -0.031168574 0.20543669 -0.091970675 0.04916156
-0.063069105 0.0018552402 -0.24151936 0.16004384 0.22893639 -0.12747324 0.36237755 -0.0010472339
0.09960714 -0.24175377 -0.16249561 -0.09371417 0.06962138 -0.1257241 0.07636552 -0.13866813
0.043165244 0.27769017 -0.030048724 -0.17835285 -0.12816846 -0.15357962 0.11942326 -0.28656277
-0.086222015 0.07236666 0.0694241 0.3485383 0.18252678 0.080586255 -0.0010515971 0.15249467
0.03587545 -0.15119438 0.05265826 0.097361 0.0364395 -0.035186436 0.023463663 0.0629255
0.13505381 0.12602133 0.103019625 -0.09047168 -0.04936239 -0.06951959 -0.3332548 0.05216955
-0.060928725 -0.0040797195 -0.026114399 0.043469515 0.18803267 -0.09952427 -0.111104734 -0.050686628
0.11714809 -0.19852802 0.06415049 -0.26803753 -0.025838472 0.26998442 -0.12605843 0.3956354
0.33441827 0.1183542 -0.14906865 -0.38110402 -0.48000467 -0.29220796 -0.010901951 0.07581207
0.25957975 -0.037663158 0.0006900759 0.13082007 -0.13260587 0.13472095 -0.2403757 -0.017651645
-0.108748555 0.25936857 -0.25263304 0.15606041 0.29353532 -0.08992897 0.34328675 -0.17662752
0.21404836 -0.4272489 -0.05212566 -0.26907736 0.13218173 -0.05696038 0.20335914 -0.070618354
0.14599346 0.04436791 -0.03562827 0.045681484 -0.088193506 -0.09963252 0.04495906 -0.010533277
0.10856779 -0.15193759 0.0074508563 0.22921383 0.1899976 -0.05169884 0.07858124 -0.09453408
0.051262405 -0.05791135 -0.08431284 -0.11143862 -0.22393948 -0.16900198 -0.00091034017 0.24184163
0.19111282 0.04684993 0.013644066 -0.0013091901 -0.03667087 0.062267132 -0.059584133 -0.09230984
0.25002405 -0.057221174 -0.23476033 -0.08732806 0.19593517 -0.12545057 -0.03828884 0.07086184
0.04608427 0.023608403 0.053150654 0.18103257 0.1026944 -0.054222558 -0.19618832 -0.12824136
0.2265652 -0.04108703 0.039142545 -0.035179097 -0.034253005 -0.07969176 -0.121613055 0.06704233
0.113056146 0.12938614 0.066989966 0.24528483 -0.18045367 0.3029237 -0.32182267 -0.15645868
-0.18580694 0.25521222 -0.30167225 0.16015875 0.13053694 -0.1647326 0.3735674 -0.032168034

weight_hh_l1 f4 [160, 40]
00000000: 168d f73d 9cac 0cbd 9a6e c03d 704f 023c
00000010: 54a9 bb3d aeec cc3d 60fc 973d 9ce2 8e3d
00000020: 46a0 11be d02b c4bd cc81 18bd 3e09 cdbd
00000030: f09e 5a3d 78cc 9dbc 891b c5bd aba4 083e
00000040: 5fd3 153e df7f 09be c639 e0bd 88b9 023d
00000050: f60b 5fbd b01c 1d3c 5e5c 3cbd beec ee3d
00000060: 324f f03d f8a9 bcbd 53ac 0fbe 0838 bdbc
00000070: ca8a 963d 8f90 083e 3059 313c fa34 1fbd
00000080: 4075 75bc e585 1d3e a0b2 703d 5a75 f63d
00000090: f520 b1bd 749e 193d 32fa dc3d aab3 01be
000000a0: a0e1 9e3c 904f a83c 6cf3 453d f149 f2bd
000000b0: 0070 903a f861 243d 4e86 d23d 400e 3dbb
000000c0: c784 043e a47d e4bd 560b f03d d165 8cbd
000000d0: 94ed 733d b549 b5bd 7c83 50bd 8d58 acbd
000000e0: 307c 03bd 58a9 0e3d 0872 8ebc ea6e 10bd
000000f0: b7b1 b5bd 4270 943d 3d62 0e3e e82c c63c
00000100: 0087 093c 8af7 01be 3051 1abe 90cb 453d
00000110: 081c eebc 3c4b 523d 00f3 17bc 2002 023c
00000120: 3093 1a3c 200c cb3b e6d8 febd c0cd 7f3b
00000130: 0f1d 16be ea02 e03d bc3d 16be 9c77 09be
00000140: 3891 cb3c a9a9 103e 92f3 3abd 00da ea3b
00000150: 80aa a63a 8a6b b3bd 26d0 f43d 356c 02be
00000160: afbc 90bd bad5 c93d eaea c63d fa6d e6bd
00000170: 34f9 a83d fe2c 15bd aac0 f23d 0d3c 05be
00000180: f988 153e 121e 6cbd 0ad1 7abd 0fb9 0d3e
00000190: 2595 ddbd 6ab0 883d 10aa a8bc 20eb 3e3c
000001a0: 5eda 21be 9c5e 07bd 38b3 f4bd 101f 4abd
000001b0: 34c3 5e3d 4eb3 913d 9053 fcbc ccd1 793d
000001c0: b05e cebd bfc0 123e 401d 993d 3603 b73d
000001d0: b827 b2bc c0e8 10bb 9630 ac3d d28c c23d
000001e0: 9844 d63c dc79 3c3d 500b 9a3d 6d08 dcbd
000001f0: a0dc adbc 22bb 62bd 957a cabd 1ddd e0bd
00000200: 7561 ebbd 4513 08be 4a14 8c3d ab2c 073e
00000210: 64ab 8b3d 6cf6 243d 48f4 923c cafd d93d
00000220: 726a e43d f8f3 0b3d bcf6 07bd 6ce0 58bd
00000230: 7c99 693d 5bc2 193e e7d5 06be 593f 153e
00000240: c351 dcbd 90fe 743d 8a01 d83d 6ea1 44bd
00000250: 1289 f53d 40c3 a43d 32bb 84bd d09e 36bc
00000260: 1cae 0cbd 6e39 83bd 4089 b63c a1a5 013e
00000270: 0012 0c3c 02db 983d 8008 843a e660 01be
00000280: 6020 26bc cc03 68bd c97a 20be c08f 503d
00000290: b48f 47bd c8b2 c93c 7212 eb3d a0b9 b6bb
000002a0: f33f 9ebd 4f78 0a3e 5050 0a3d 98ae 3a3d
000002b0: 8019 843b d6d4 10bd 2411 3b3d 8004 343d
000002c0: 8020 fb3b ccc4 80bd aa9f d33d 739b 043e
000002d0: b359 15be 524f c63d b860 98bd 4dce 0fbe
000002e0: 7dc0 033e 8268 bc3d 8fe1 033e 50cf 3e3d
000002f0: 6ecb fb3d 2cac a7bd cbc3 113e f8b2 21be
00000300: c0d7 3bbd 97f4 9cbd 7615 b43d 44e8 b03d
00000310: f2ad bd3d 9455 dbbd 38ae 96bc 4676 e73d
00000320: e03c f63c dc38 eebd 0545 033e 168d cc3d
00000330: 2854 65bd 8ca1 0ebe 59d3 013e cc91 343d
00000340: d874 d4bc c439 74bd e20c 71bd 70c1 5abc
00000350: 562f 8a3d 40a8 a23c 48a5 d3bd 9ea9 b63d
00000360: 40c0 0f3b 288b 8b3d 2292 f23d 7044 1cbe
00000370: 3d22 113e bed6 d13d d2c6 fc3d 509d 4c3c
00000380: 9a3a c8bd 60d6 96bd 0439 583d 5ac5 82bd
00000390: 9004 833d 7ff7 143e 0a23 d83d b762 0dbe
000003a0: 365e c13d 80fe ca3c 2ff2 103e b41a f7bd
000003b0: 35a4 183e df6a 0cbe 3010 55bd 5589 a6bd
000003c0: f04a 413d 8813 ffbc 48c0 8bbc 6034 3d3c
000003d0: e0e2 583d c665 4cbd 8052 8ebc e02c f8bb
000003e0: 021e df3d 6888 e3bc dd60 20be b5e0 d1bd
000003f0: 7763 063e 38a2 b53c 4c9a 4dbd 3e6e e03d
0.12087457 -0.0343443 0.093960956 0.00795351 0.09163156 0.100060806 0.074211836 0.06976816
-0.14221296 -0.09578669 -0.03723316 -0.100115284 0.05337423 -0.019262537 -0.096243925 0.13344066
0.14631413 -0.13427685 -0.109485194 0.031915218 -0.054454766 0.009589359 -0.045986526 0.11666249
0.11733855 -0.092121065 -0.1403058 -0.023098007 0.07350691 0.13336395 0.010824487 -0.03886888
-0.014981568 0.15383108 0.0587641 0.12034102 -0.08648864 0.03750463 0.107899085 -0.12666193
0.019394696 0.02054575 0.04832785 -0.118305095 0.0011019707 0.040132493 0.10279523 -0.0028847605
0.12941276 -0.111567765 0.11720912 -0.068553574 0.059552744 -0.08851949 -0.050906643 -0.08415327
-0.032100856 0.034829468 -0.017388359 -0.035262026 -0.08871787 0.07247974 0.13904662 0.024191335
0.008394003 -0.12692085 -0.15070033 0.048289835 -0.0290661 0.05134128 -0.009274244 0.007935077
0.009434506 0.006196514 -0.12443714 0.0039032549 -0.14659522 0.10938056 -0.14671987 -0.13424534
0.02484952 0.1412722 -0.045642443 0.007167101 0.0012715608 -0.08760746 0.11953764 -0.1273659
-0.070672385 0.09855218 0.09712775 -0.11251445 0.08250657 -0.03641986 0.11853154 -0.13011189
0.14603032 -0.057645865 -0.06123451 0.13840126 -0.10819463 0.06674273 -0.020588905 0.011652738
-0.15805957 -0.03304921 -0.11948246 -0.04934603 0.05438538 0.07114278 -0.030801564 0.060991094
-0.10076654 0.1433134 0.07476282 0.08936159 -0.021747455 -0.0022111386 0.084077045 0.094995156
0.026155755 0.04601465 0.07521689 -0.107437946 -0.021223366 -0.055354245 -0.09886662 -0.10979674
-0.11493198 -0.132886 0.06839807 0.13200633 0.068197995 0.04027407 0.017938748 0.106441095
0.11153115 0.034168214 -0.03319429 -0.0529484 0.05703114 0.15015547 -0.13167535 0.14574946
-0.10757782 0.059813082 0.105471686 -0.048005514 0.11989035 0.080450535 -0.06481017 -0.011146262
-0.03434573 -0.06407438 0.022282243 0.12660839 0.008549213 0.074636474 0.0010073334 -0.1263462
-0.010139555 -0.056644246 -0.15671839 0.05091834 -0.04872103 0.024621382 0.114781275 -0.0055763274
-0.07727041 0.13522457 0.033768 0.04557666 0.00403136 -0.035359226 0.045670643 0.043949604
0.0076637864 -0.06287536 0.10333188 0.12949924 -0.14584999 0.09683098 -0.07440323 -0.14043541
0.12866397 0.09199621 0.12879013 0.046584427 0.122946605 -0.08187136 0.14234845 -0.15790927
-0.045860052 -0.07663839 0.08793156 0.08638051 0.09261693 -0.10709682 -0.01839362 0.11301856
0.030058324 -0.11631939 0.12819298 0.099878475 -0.05598846 -0.13928813 0.12678279 0.044084355
-0.025934622 -0.059625402 -0.058850177 -0.013351783 0.0674731 0.019855618 -0.10334259 0.08919071
0.0021934658 0.06813651 0.11844279 -0.15260482 0.14173217 0.10246037 0.123426095 0.012488678
-0.09776802 -0.073651075 0.05278875 -0.06385298 0.063973546 0.14547537 0.10553558 -0.13807188
0.094417974 0.024779558 0.14154886 -0.1206564 0.1490639 -0.13712643 -0.05201739 -0.08131663
0.047190607 -0.031137243 -0.01705946 0.011548132 0.05295074 -0.049901746 -0.017373323 -0.007573709
0.108943954 -0.027775005 -0.1566195 -0.102479376 0.1312388 0.022172078 -0.050195977 0.10958527

bias_ih_l1 f4 [160]
00000000: af54 b63e 5509 343e a3ea 463e 10bb 913e
00000010: ac62 38bd fb35 1f3e 7bfb b33e c833 673e
00000020: 17a8 903d 75f2 373e a09c 603e fd2c 173f
00000030: 60b1 df3d 08e1 a83e e89c 87bd 26ef 0c3e
00000040: 177b 9a3e d00d d43e e71c 923d b7e0 993d
00000050: bf4f 45bc 9df1 bb3d e7cc 3c3e 44ac 3c3e
00000060: 0a3c 1e3d 0163 f13e cf40 463e 35ec 783e
00000070: 2b8d 513e 3e98 183e 1bac f03e f714 ba3e
00000080: 5a76 fa3d 9631 633e 5e8d be3e 3e3b 9f3e
00000090: 8add 663e d107 7e3e 58f3 853e c9e2 503d
000000a0: c023 b03c 20bd 673d 0811 fa3c 2e90 b43d
000000b0: cb53 053e 1230 ecbd 2eda fdbd 2c7a 123d
000000c0: d046 d33c c65d c93d c806 253d a00a 603d
000000d0: fe49 0cbe 35ad 163e 8c3e 403d 9598 fabd
000000e0: db0c 043e 4001 54bc 00ed 0f3d fca9 063d
000000f0: a6e9 e63d 10cc 07bd 3a59 84bd 2845 903c
00000100: d7e4 1cbe 60fe cabb 9913 073e 108e 61bc
00000110: 56bb 01be f684 2fbd 275d a8bd 4fe1 133e
00000120: 0c13 ab3d 24b5 083d c31b a3bd 8daf a0bd
00000130: 1866 973d c6ba f73d 361c fa3d 86cb e23d
00000140: 39b0 20bc fc00 bdbd 358a 16bd f0e7 c5bd
00000150: ebec 063e 0ca3 91bd eee3 d0bc aba3 27bd
00000160: 1896 6bbd 0446 6b3d 2e28 e2bc f0a7 1a3d
00000170: 936e a8bc 259f 083d 152d 793b 79e9 60bc
00000180: 90cc 223d a8d8 b73d a0c1 9ebd 43b7 253d
00000190: df56 4cbd 2d23 583d 2658 debd d535 dfbd
000001a0: 568a 7cbd fe6c 0a3e 4f8d 8d3d a05d 2a3c
000001b0: d02e f2bc 852b bc3d 587d 313b cbcc 643c
000001c0: 1628 103e 1bf2 d1b9 bee4 96bd f5aa 0f3d
000001d0: 8279 4d3d 5526 e23c 6522 c03b 12a6 4d3d
000001e0: 0ca7 813e 5fba a03e 6a95 b23d 9d66 853e
000001f0: 811a 683d 704b 273e 9c71 ab3e c489 043d
00000200: e000 513e eb2a 233e f0d2 8e3e a37f b03e
00000210: 0b95 893e 2aea 243e 76e5 8b3d 0daf c33d
00000220: c4b6 5f3e 8ed0 c83e 08af 35bc 1f96 7e3e
00000230: b317 a73d fc30 203e 2055 4e3e 8e62 46bd
00000240: c72f cb3c 1764 db3e 25ac cc3d 0e38 333e
00000250: e99a 553e f792 e43d 01c1 f93e a711 823d
00000260: 2602 243e a18b 9e3e 2936 8a3e 1b06 be3d
00000270: ae02 f3bc b3ac 76bd 528e 4d3e 630d 253d
0.35611483 0.17581685 0.19425444 0.2846303 -0.045015976 0.15547936 0.35152802 0.22578347
0.070633106 0.17963584 0.21934748 0.5905302 0.109225035 0.32984185 -0.06621724 0.13763103
0.30172035 0.41416788 0.07134419 0.07513564 -0.012042939 0.091769435 0.18437539 0.18425089
0.038631476 0.47145846 0.1936066 0.24308856 0.20464008 0.14901826 0.47006306 0.3634412
0.12229605 0.22186884 0.3721723 0.31099886 0.22545448 0.24807669 0.2616222 0.05099753
0.021501422 0.056576848 0.0305257 0.088165626 0.13020246 -0.11532606 -0.1239513 0.035761043
0.025790602 0.09832339 0.04028967 0.054697633 -0.13700101 0.1471451 0.04693465 -0.12236134
0.12895529 -0.012939751 0.03513813 0.032876953 0.11275034 -0.033153594 -0.06462331 0.017611101
-0.1532167 -0.0061948746 0.1319107 -0.0137667805 -0.12669119 -0.04285141 -0.082208924 0.14441417
0.08353242 0.033375874 -0.079642795 -0.07845984 0.0739252 0.12096171 0.12212412 0.11073975
-0.00980764 -0.092287034 -0.0367529 -0.09663379 0.13176315 -0.07111177 -0.02549931 -0.04092757
-0.057516187 0.05743982 -0.02760705 0.037757814 -0.020560538 0.033354897 0.0038021256 -0.013727539
0.039745867 0.08976871 -0.07751775 0.040457975 -0.049887534 0.05276792 -0.10856657 -0.108989395
-0.061655365 0.1351814 0.06911718 0.0103982985 -0.029563338 0.09187988 0.0027082767 0.013964842
0.14077792 -0.0004004397 -0.07367848 0.035075147 0.050164707 0.027606169 0.005863475 0.050207205
0.2532276 0.3139219 0.08719905 0.2605485 0.0566659 0.16337371 0.33485115 0.032357946
0.2041049 0.1593434 0.27895308 0.3447238 0.26871523 0.16104952 0.068308756 0.09554873
0.21847063 0.39221615 -0.011089094 0.24861954 0.08158817 0.15643686 0.2014966 -0.048433833
0.024803055 0.428498 0.099937715 0.17501852 0.20859875 0.11160844 0.48780063 0.06351023
0.16016445 0.30965903 0.26994446 0.09278508 -0.029664364 -0.060223293 0.20073822 0.04029597

bias_hh_l1 f4 [160]
00000000: 2ced 803e a475 fd3d f039 8b3e c6fc 753e
00000010: 8dd1 ba3d cfef b53e 053b 9b3e 4b28 2d3e
00000020: 981b da3c 17d9 663e b7a2 e43d a4f0 b43e
00000030: 4474 cc3d 2256 a53e 99b4 4d3e 6f22 8e3e
00000040: b340 593e 43e8 303e de6a a63c 2ef7 133e
00000050: 1ac7 4b3e 93bf 233e 281e cd3e c9b4 9f3d
00000060: 74e9 17bd ff5f 683e 837f 173e 0874 8a3e
00000070: 7ad9 fc3e f215 7f3e aa66 1d3f 2600 243e
00000080: 497e a83d 8352 cd3e 3495 183e c4e3 ab3e
00000090: ca4c 8c3d 75c9 933d 0b7a 1b3e b87e 023e
000000a0: d00b a23d 12c6 933d 3e2a c03d f047 cfbc
000000b0: d4c2 53bd 1494 5b3d 6a58 a1bd c15a 9abd
000000c0: 4533 1a3e f1b3 1a3e 7ae8 12bd 9441 773d
000000d0: ce77 ba3d b422 41bd cac8 e5bd a044 a2bb
000000e0: 705f c9bd 1bc0 1bbe 50b7 82bd bb2a e3bd
000000f0: 2e50 f2bd b805 7f3d ca50 dfbd 5cf0 0bbd
00000100: e888 133d 0470 8bbd 22f7 b43d 08a5 c23c
00000110: ec5d 043d eee0 e83d ee13 e6bd 9819 fe3c
00000120: b818 d03c 02de df3d 0664 ba3d 0c40 13bd
00000130: 0010 a33b de99 b83d 6c57 79bd faab f53d
00000140: afe5 edbc ac4c 83bc 545a abbd 3e36 e63c
00000150: b54b d5bd 1ef8 bfbd cefb b23b 1a9c b43c
00000160: 6c81 0d3b fed9 ec3d a535 a63c e0f4 bc3d
00000170: 4762 8a3d 81ab b4bc e88d edbc cb9d 06be
00000180: 424d 153d d824 cd3d e6ab 65bc a581 0cbc
00000190: 8602 b13d ad67 c5bd b8fb 0abc 3188 1d3d
000001a0: 7c02 a1bd 384b b0bd 53de c03d 905b 3e3b
000001b0: 03f5 203c 869b e93c bfaf 243e 9df8 e23c
000001c0: c647 c0bd 95e7 f73c c5fd e83d 3738 a8bc
000001d0: 77aa bcbc e74c 2ebe 45dc c5bd d8fc ddbc
000001e0: 3f39 643e 0f7e 893e e8b2 423e e44c a73d
000001f0: 8f4f fa3c 14b2 693e f288 903e 23bb 7e3d
00000200: 541d 713e ff32 7d3e f0f5 993e 33d7 8c3e
00000210: 03a7 b53d 6e1d 303e 2afa d83d ad8d 023d
00000220: 6eb6 183e 3934 813e c20c e63d 5366 953d
00000230: f2ad 2f3e 9641 5cbd 7e71 4a3e 68e7 2f3e
00000240: 2757 33bd a577 d83e ca78 2f3e 581b 2c3e
00000250: 256b 5d3e ba52 3f3e eb7a c73e 27d9 923e
00000260: 54d3 d9bc ece1 783e 756e d83d c77a 873e
00000270: 85af 6d3e 0e1f 1f3e 5eb9 703e 009c 993e
0.25180948 0.12375954 0.2719264 0.24022207 0.09122 0.35534522 0.30318466 0.16909902
0.026624486 0.2254375 0.11163848 0.35339844 0.099831134 0.32292277 0.20088424 0.27760646
0.21216087 0.17276101 0.02031463 0.1444976 0.1990017 0.15991049 0.4006207 0.07798154
-0.037087873 0.2269287 0.14794736 0.2704165 0.4938467 0.24910715 0.6148478 0.16015682
0.08227212 0.40102014 0.14900666 0.3357221 0.06850584 0.07216159 0.15183274 0.12743652
0.07912409 0.07215513 0.09383057 -0.025302857 -0.051699474 0.053608015 -0.07878192 -0.07536841
0.1505862 0.15107705 -0.03586624 0.060365275 0.09104882 -0.047152236 -0.11219938 -0.0049520284
-0.098326564 -0.15210001 -0.0638262 -0.110921346 -0.11831699 0.062261313 -0.10904081 -0.03416477
0.036019236 -0.06808475 0.08836199 0.023760334 0.032316133 0.11371027 -0.1123427 0.031018063
0.025402412 0.109310165 0.09101109 -0.03594975 0.0049762726 0.09013723 -0.060874388 0.119956926
-0.029040186 -0.016027771 -0.08366838 0.028102037 -0.104148306 -0.093734965 0.0054621464 0.022047091
0.0021592034 0.11565016 0.020289252 0.09226394 0.06757026 -0.022054436 -0.02899833 -0.1314613
0.036450632 0.10016793 -0.014018035 -0.008575832 0.086430594 -0.09638915 -0.008482866 0.03845996
-0.07861802 -0.08608097 0.09417405 0.0029046275 0.00982404 0.028516542 0.16082667 0.027706439
-0.0938869 0.030261794 0.11376528 -0.020534618 -0.023030503 -0.17021523 -0.09661154 -0.027098104
0.22287463 0.26853988 0.1901356 0.081689626 0.030555515 0.22821838 0.2822948 0.062190186
0.23546344 0.24726485 0.30070448 0.27507934 0.088697456 0.17198727 0.1059459 0.031873394
0.14913341 0.25235155 0.11232902 0.072949074 0.17156199 -0.053773485 0.19769856 0.17178118
-0.043784287 0.42278782 0.17135921 0.16807306 0.21622904 0.18683901 0.38960966 0.286813
-0.026590027 0.24304932 0.10567943 0.2646086 0.23211487 0.1553919 0.23508212 0.3000183

weight f4 [6, 40]
00000000: 45b5 9a3d 319d 2c3d eb54 063d f300 bebd
00000010: 42b6 103d 47f9 bd3d fe7f a0bc a8c0 b83d
00000020: f6a6 29bd a944 b4bc 0046 5cbd 4ecc 133d
00000030: f765 acbd 55d6 8abd e664 303d 7b02 4dbc
00000040: 7bbd 23bd f84f 06bd 7330 4ebc 6a5a 003e
00000050: 0b33 8ebd e03f cd3d 6b49 06bd 7ec1 aebd
00000060: 2449 b1bd e070 2c3d ab8b b0bd 1bb2 03be
00000070: 166b 913c b335 5f3c f4f9 cb3d 0728 80bd
00000080: 077a 0abd d489 abbc 6b73 8f3d 795f 4fbc
00000090: 88dd 43bc 45e5 e9bd 73cc 0dbd 3d53 85bd
000000a0: 3a51 683e 784e 8b3c 0d7d 5fbd 5ecc 73be
000000b0: 2cbf ea3b 4e04 e43d 5bf2 7dbc 7d1e f33d
000000c0: 1592 26be 5051 1b3d 61b3 5fbe fb48 623e
000000d0: 0b91 98bc 6b29 8ebe 656b 893d 84b4 c23d
000000e0: cc7d dd3a 8690 293d d0a1 d8bd bcb6 7b3e
000000f0: e139 8dbe e6c7 a93e 9959 6bbe f8ef 87be
00000100: 48dd 89be 5e95 533e 887f bcbd c634 25be
00000110: 465d 54bd 6e93 853d 06e4 cf3d 3ac6 e9bd
00000120: 8a12 443d f858 fabd 0934 913e 2acd c6bd
00000130: 5ede 143d 4997 9ebe 30b7 a33c 05ba 1bbd
00000140: cd35 86bd b152 3bbe af79 89be 31ca af3d
00000150: eaba b6be 6727 5cbe fd39 6b3e d2f1 9bbd
00000160: 2633 27be 23b7 9b3e ce46 3abd 2380 b23c
00000170: f6f7 5b3e a3f0 413d 2251 25be 92d7 953e
00000180: 137d 343e fbec 4f3e 343f 43be 1508 7d3d
00000190: 0e30 e4bd 771b 793c 7834 98bd ebbf 013d
000001a0: 2a10 8739 c425 3c3d de3f f63d 28bc a03d
000001b0: 011b 31be 0b10 b13d 8726 8bbd b3b7 033e
000001c0: 0b15 9f3e d8c5 65be a14b 19bc 1565 0ebe
000001d0: 2e7a 183e d4f3 263d 7bab 893e ed24 a33e
000001e0: 54bf 4c3d f973 20be d523 3fbe 10fc ddbb
000001f0: 63c1 4abe 4b95 0dbd ffe4 023e 9a0b 163c
00000200: 5fb2 aebe 951a 523e c3ee 9fbd c630 6c3d
00000210: 45d0 053e b307 a6bd 1269 03be f64c 613e
00000220: 6a84 533e 9661 283e ccd4 93be e602 8a3d
00000230: 2af2 03be 3ce5 103d ba03 0cbe 6a57 15bd
00000240: 2447 1abe 3d34 b83d 34ba b23d 6fd1 303c
00000250: c833 80be 34a7 7e3e f29c 8bbc cc4e f5bc
00000260: 9583 0b3e b807 77be d3be 583d 41ab 74be
00000270: cb86 8c3e 9865 c5bd 2df6 fd3d 9f77 bb3d
00000280: 2ee3 01be 4148 30bf 4a84 28bf c0d7 bf3d
00000290: 1875 14bf effa b3be e3b3 fc3e f26f 74be
000002a0: a275 c4be b62a 3d3f 0140 713d 6905 8dbd
000002b0: 8d5e 1b3f f75e 593b 8a77 3ebf cf0c c93e
000002c0: 5b1c 193f 8113 2a3f d2a9 d1be 0807 7dbd
000002d0: 02da 41bd 3044 d0bd c53a 0cbe 4ef9 323d
000002e0: 7897 14be 8fd3 5b3d bb1d e63e 5c6d 8e3e
000002f0: 8b0e d1be e0ca 873e bf31 54be 39f5 c93d
00000300: c035 f93e f8e3 c6be e8e2 d2bd 2a35 aabe
00000310: be9d 393f 29be 633d fc13 003f b320 c13e
00000320: f999 36bf e5fc 85be 6088 9e3c d36f ab3e
00000330: 42f5 d03d 2db5 37be 0b33 043d 6a53 2dbf
00000340: 8242 8a3e 3a72 163d 4326 403f 160d 12bf
00000350: e17d a03e 0c25 233f 5f2b 5cbe ff1c 5dbe
00000360: 63de 8dbd 474b a93c 5dd2 cf3e c054 33bf
00000370: 24a4 2d3f 05fb babe cee4 203f ae9d 803e
00000380: 90f3 2c3f d87d 0bbf 736e b93e 7392 d93e
00000390: 99d9 273e f3a3 02bf c34d c7be acf7 cc3e
000003a0: d315 043e 8174 a93e 79c8 17bf 0cc6 9e3e
000003b0: 267e 92bd cb97 093f 38ec 8dbd 59ac 983d
0.07554106 0.042142097 0.032795828 -0.09277525 0.035330065 0.092760615 -0.019592281 0.09021121
-0.041418992 -0.022005396 -0.053777695 0.036083512 -0.08417886 -0.06779162 0.043064974 -0.012512798
-0.039975625 -0.032791108 -0.012584793 0.1253449 -0.069433294 0.10021949 -0.03278486 -0.085329995
-0.086565286 0.042099833 -0.086203896 -0.1286091 0.017751258 0.013623643 0.09959784 -0.062576346
-0.03380778 -0.020939745 0.07004436 -0.01265704 -0.011954673 -0.11420683 -0.034618806 -0.06510017
0.22687235 0.01700519 -0.054562617 -0.23808429 0.0071639027 0.111336336 -0.015499677 0.118710496
-0.16266663 0.037919343 -0.21845771 0.22098152 -0.01862385 -0.27765974 0.06709937 0.09507087
0.0016898452 0.041397594 -0.10577738 0.24581426 -0.2758322 0.33160323 -0.22983398 -0.2655027
-0.26926637 0.20662448 -0.09204012 -0.16133413 -0.051846765 0.065222606 0.10150914 -0.11414762
0.047869243 -0.12224001 0.28360012 -0.09707101 0.03634488 -0.30974796 0.019984812 -0.0380192
-0.065532304 -0.18293263 -0.2685065 0.08583487 -0.3568948 -0.21499406 0.2297134 -0.07614483
-0.16328105 0.3041316 -0.04547768 0.021789616 0.21481308 0.04734863 -0.16144231 0.2926603
0.17625837 0.20305245 -0.19067079 0.061775286 -0.11141978 0.015204302 -0.074318826 0.031677168
0.0002576125 0.045934454 0.120239004 0.07848388 -0.17295457 0.08645638 -0.06794458 0.12863044
0.31070742 -0.22438753 -0.00935641 -0.13905747 0.14890358 0.040759876 0.26888642 0.3186411
0.049987152 -0.1566924 -0.18666013 -0.006774433 -0.19800334 -0.034566205 0.12782668 0.009158039
-0.3412046 0.20517953 -0.07809212 0.0576637 0.1306773 -0.08106937 -0.1283305 0.22002015
0.2065598 0.16443476 -0.2887329 0.06738834 -0.12885347 0.035374865 -0.13673297 -0.036460318
-0.150662 0.08994339 0.08726922 0.01079212 -0.25039506 0.2486847 -0.01704261 -0.0299448
0.13624413 -0.24124038 0.05291636 -0.23893453 0.2744659 -0.09638518 0.1240047 0.09153675
-0.12684318 -0.6886025 -0.6582686 0.09367323 -0.5799117 -0.35152385 0.49355993 -0.23870829
-0.38370997 0.73893297 0.05889893 -0.068857975 0.6069115 0.0033168176 -0.7440115 0.39267585
0.5980889 0.6643601 -0.40949875 -0.061774284 -0.04732705 -0.10169256 -0.13694294 0.043694787
-0.14510906 0.053668555 0.44944558 0.2781781 -0.40831408 0.2652197 -0.20722102 0.09861226
0.4867382 -0.388458 -0.10297185 -0.33243686 0.7250632 0.055601273 0.50030494 0.3772026
-0.71328694 -0.26169506 0.019352138 0.33483753 0.10203029 -0.17940207 0.03227524 -0.67705405
0.27003866 0.03673003 0.7505838 -0.5705122 0.31346038 0.63728404 -0.2150092 -0.21593092
-0.069271825 0.020665778 0.40590182 -0.70051193 0.67828584 -0.36519638 0.6284913 0.251203
0.67559147 -0.544889 0.3621708 0.42494544 0.163916 -0.51031417 -0.38926515 0.4003271
0.1289895 0.33096698 -0.5929027 0.31010473 -0.07152967 0.5374724 -0.06929821 0.07454748

bias f4 [6]
00000000: 848e 733d 8352 063e 5841 8d3a 31ca 613c
00000010: 0bb9 493e 19a5 633e
0.059462085 0.13117413 0.001077692 0.013781116 0.19699495 0.22230949
