models/529/state_dict.pt (torch_old, 25727 bytes, 10 tensors)

lstm.weight_ih_l0 f4 [80, 10]
-0.56778634 -1.5930753 -0.7895001 -0.3467941 1.3724455 3.4015517 -1.9889112 1.3734878
3.6323032 -1.9869127 0.5042206 -0.15789926 -3.9549792 -1.2276969 1.8985759 1.6884995
0.028165288 2.1234298 1.6038967 -0.13998558 -0.40709484 0.10231241 2.3429945 -7.0170813
3.8455915 -4.2777743 -0.23397204 3.9797792 -4.2539635 -0.19173694 -0.32061782 2.535809
-1.9314684 -0.7215617 0.7225715 -1.3860692 2.917431 0.64507514 -1.2648524 2.8016884
-0.88536924 0.25126383 -3.2409635 2.39715 -2.307596 -3.0889752 1.3169417 -2.5276783
-3.0986614 1.5003788 -1.0511597 0.9590354 -3.2065618 2.7925293 -2.7836795 -1.8897624
1.8832041 -2.6935813 -1.6791108 1.7560145 -0.94096315 2.647005 4.3412437 -1.0096697
0.2642125 -2.2194014 2.2592154 0.2148956 -2.2048874 2.3619397 -0.5780841 0.587953
-1.0562558 5.7072186 -3.7580485 5.185718 0.8556927 -3.7865403 5.472465 0.5314957
0.12566988 -2.5317266 1.7943449 2.0358052 -1.398278 0.67205405 -2.452384 -1.5970948
0.84519255 -2.2296062 -0.03187588 -1.2895569 -2.6260216 -0.29773864 0.75821817 1.7957379
-1.4687307 0.98198736 1.612413 -1.2314099 -0.9496446 -1.9809443 -1.0638677 -2.3364832
2.5311558 -0.53429085 -2.067822 2.6770751 -0.53803474 -2.3751464 0.16609208 -2.6455019
0.7771719 -0.39659953 0.911194 0.05953953 -2.8719556 0.97226995 0.28977934 -2.6017008
0.25283334 0.3034195 -3.2267265 2.496251 -1.5689846 3.5901933 0.9270284 -1.450911
3.4775 1.095802 0.45048243 0.09437427 -2.1684446 3.0666966 -2.8781362 -1.3200037
0.902935 -3.035177 -1.5816759 1.007971 -0.59708905 -3.0013304 -4.7686524 1.3508868
-0.17003705 1.6614432 -2.050791 -0.1804311 1.7913455 -2.3014338 0.27409425 0.11764542
-2.777005 -1.4256729 1.1330004 -2.9235957 0.8033798 1.414513 -2.9103158 0.89346015
-0.047958665 -0.2231272 2.8303237 -4.703444 3.485874 -3.6407073 -0.88083875 3.6536448
-3.502012 -0.59296465 0.53726846 3.2991652 -2.39294 0.6158116 -1.0362502 -0.76710165
4.3145113 -1.1576904 -0.64707917 4.3877645 0.28708568 0.7650697 2.9352374 -2.0200672
2.0322948 4.4729323 -0.06906573 1.8546897 4.5078883 -0.40012708 -0.5805329 1.5529176
-0.8354871 1.1969032 -1.7381489 -1.3918372 2.1285334 -1.5891669 -1.4954344 2.3125322
-0.013325229 -0.11134025 0.07066938 -0.14400545 -0.09946468 0.14870349 0.1113179 0.15748966
-0.068256274 0.12281451 -0.06628515 -0.1067265 0.013824999 0.05732596 -0.022628099 -0.05962275
0.18047884 -0.1019129 0.15761581 -0.12504765 -0.06891841 0.03195417 0.028261751 -0.043890044
0.17259124 0.20004627 -0.10599252 -0.19964024 0.14607921 0.12260869 -0.1308219 0.22180346
0.019837618 -0.11282454 -0.042099357 -0.13824992 0.13997385 -0.073453724 0.12438846 0.0071768165
0.09919131 -0.012033746 -0.030054227 0.18728 0.1242989 -0.058593363 0.09763157 0.09808418
-0.15638244 0.17845064 0.115772724 -0.15891868 0.12579072 -0.17644851 0.14672422 -0.10241419
00000000: 725a 11bf e4e9 cbbf ae1c 4abf ff8e b1be
00000010: 4bac af3f 06b3 5940 a494 febf 73ce af3f
00000020: a877 6840 2853 febf 9a14 013f 58b0 21be
00000030: 611e 7dc0 2c25 9dbf 8904 f33f c020 d83f
00000040: e4ba e63c 46e6 0740 7d4c cd3f 6158 0fbe
00000050: bc6e d0be 2b89 d13d 9ff3 1540 ee8b e0c0
00000060: 2c1e 7640 87e3 88c0 5e96 6fbe b4b4 7e40
00000070: 7820 88c0 b056 44be 0528 a4be b24a 2240
00000080: 5b3a f7bf 44b8 38bf 72fa 383f b76a b1bf
00000090: 31b7 3a40 a523 253f afe6 a1bf dd4e 3340
000000a0: 8fa7 62bf a7a5 803e f26b 4fc0 e86a 1940
000000b0: a7af 13c0 c5b1 45c0 8c91 a83f 7bc5 21c0
000000c0: 7850 46c0 6a0c c03f 678c 86bf 5883 753f
000000d0: 4f38 4dc0 cdb8 3240 ce27 32c0 bce3 f1bf
000000e0: d50c f13f a363 2cc0 1aed d6bf 15c5 e03f
000000f0: f6e2 70bf 8868 2940 78eb 8a40 db3c 81bf
00000100: dc46 873e ac0a 0ec0 fc96 1040 980d 5c3e
00000110: e01c 0dc0 052a 1740 52fd 13bf 1684 163f
00000120: 6433 87bf 89a1 b640 de83 70c0 67f1 a540
00000130: ad0e 5b3f ad56 72c0 6f1e af40 1a10 083f
00000140: 9baf 003e cf07 22c0 18ad e53f a24a 0240
00000150: c6fa b2bf bc0b 2c3f dcf3 1cc0 9a6d ccbf
00000160: 8a5e 583f deb1 0ec0 4890 02bd 3310 a5bf
00000170: bd10 28c0 3371 98be 961a 423f bdda e53f
00000180: 5eff bbbf 8663 7b3f 8d63 ce3f d79e 9dbf
00000190: e91b 73bf 958f fdbf d12c 88bf f188 15c0
000001a0: 75fe 2140 49c7 08bf 3257 04c0 3355 2b40
000001b0: a5bc 09bf 6602 18c0 0b14 2a3e e74f 29c0
000001c0: bdf4 463f 180f cbbe 0344 693f b9df 733d
000001d0: 1fce 37c0 afe6 783f f55d 943e 4482 26c0
000001e0: 5f73 813e cd59 9b3e b082 4ec0 94c2 1f40
000001f0: 7dd4 c8bf bac5 6540 bc51 6d3f 74b7 b9bf
00000200: 5c8f 5e40 3d43 8c3f a2a5 e63e 4c47 c13d
00000210: ccc7 0ac0 c244 4440 6233 38c0 e2f5 a8bf
00000220: c026 673f 5740 42c0 5b74 cabf 3205 813f
00000230: d4da 18bf cc15 40c0 cd98 98c0 dce9 ac3f
00000240: 311e 2ebe 2caa d43f 2940 03c0 eec2 38be
00000250: cf4a e53f b14a 13c0 1556 8c3e 15f0 f03d
00000260: 73ba 31c0 737c b6bf 2806 913f 311c 3bc0
00000270: 4caa 4d3f c30e b53f 9d42 3ac0 ceb9 643f
00000280: 4e70 44bd 757b 64be 0624 3540 9d82 96c0
00000290: 8f18 5f40 5901 69c0 a67e 61bf 51d5 6940
000002a0: f720 60c0 88cc 17bf 6d8a 093f 8625 5340
000002b0: ee25 19c0 d4a5 1d3f d9a3 84bf c660 44bf
000002c0: 7a10 8a40 332f 94bf fba6 25bf 9168 8c40
000002d0: e5fc 923e 9cdb 433f eeda 3b40 c848 01c0
000002e0: 1e11 0240 4322 8f40 5572 8dbd 7966 ed3f
000002f0: 9f40 9040 75dd ccbe ce9d 14bf 01c6 c63f
00000300: 7ce2 55bf 2034 993f aa7b debf b927 b2bf
00000310: e439 0840 d269 cbbf 656a bfbf 8700 1440
00000320: 1052 5abc 5b06 e4bd 1cbb 903d 2a76 13be
00000330: 23b4 cbbd ba45 183e a4fa e33d f844 213e
00000340: f2c9 8bbd 2c86 fb3d 82c0 87bd 6c93 dabd
00000350: 4082 623c a0ce 6a3d 905e b9bc fc36 74bd
00000360: 72cf 383e b6b7 d0bd 0a66 213e 7e0c 00be
00000370: 1825 8dbd 60e2 023d 3085 e73c 0cc6 33bd
00000380: c2bb 303e eed8 4c3e 9b12 d9bd 7e6e 4cbe
00000390: ca95 153e 441a fb3d 2df6 05be 7220 633e
000003a0: 8082 a23c 8d10 e7bd 6070 2cbd 6391 0dbe
000003b0: 4e55 0f3e e86e 96bd 60bf fe3d 802b eb3b
000003c0: d024 cb3d 3029 45bc 4834 f6bc 54c6 3f3e
000003d0: 6c90 fe3d 98ff 6fbd 10f3 c73d 5ce0 c83d
000003e0: b822 20be c4bb 363e 401a ed3d 94bb 22be
000003f0: 48cf 003e ebae 34be e03e 163e 88be d1bd

lstm.weight_hh_l0 f4 [80, 20]
0.17390594 -0.059388548 0.08413994 -0.17031762 -0.09097034 0.088369876 0.001805678 0.15466076
0.09653595 -0.16400412 0.11670655 0.13560781 0.13900131 0.17451796 0.069146305 -0.031753674
-0.123094186 -0.044816956 0.028579026 0.12161404 0.07438037 0.042245924 -0.18752503 -0.20783867
-0.004493296 -0.09533884 -0.089081705 0.16346273 -0.0127862245 -0.12167601 -0.19799216 -0.20389578
0.18688911 -0.17061724 -0.20294495 -0.07567462 -0.0024468154 -0.15978083 -0.13705644 0.14789245
-0.12588027 0.20296308 -0.059295386 0.07076296 -0.17805679 0.19305906 0.01065281 0.19326514
-0.048620477 -0.02061674 -0.102219366 -0.16759077 -0.028477222 0.11903712 0.05715415 -0.06543836
0.13556105 -0.15842512 0.17445439 0.05572781 -0.00428167 0.1353238 0.17532039 -0.06945908
-0.2111454 0.20893133 0.0819819 0.01386416 -0.010542348 0.10988787 -0.086643726 -0.13370435
0.22057858 0.17245069 -0.19799906 0.025463149 -0.10459609 0.15322602 -0.19860338 0.027662516
0.009531438 -0.059342623 0.04147947 -0.0006381124 0.011723414 0.111064106 0.14406723 0.18883345
0.04714638 0.07999888 -0.04218249 -0.09709214 -0.08075334 0.0038003474 -0.06792964 -0.013596371
0.010918841 0.0786033 0.11382145 0.15055487 -0.22184214 0.045588642 -0.11133524 -0.04116516
0.091769874 -0.032158047 0.06939137 -0.061899677 -0.149417 0.055674285 0.16981307 -0.006253734
-0.17737843 0.12060514 0.20829257 -0.03029637 -0.16364864 -0.0213283 -0.10352719 -0.078563645
0.13418707 0.094742954 0.05024156 -0.08756861 -0.17523038 -0.13507348 0.12466475 0.16236451
0.0642187 -0.037742406 0.10587984 0.14371184 0.22100097 0.18774065 -0.20797324 0.063281655
-0.09963453 0.109876096 0.19432214 -0.15455577 -0.0010091364 -0.16542779 0.027737796 -0.15249372
-0.09693785 0.08045873 -0.039812535 0.1931192 -0.02483593 0.12781027 -0.011264592 0.009871975
0.111747086 0.19088385 0.10098708 0.00030331314 0.17577568 -0.15091626 0.043923378 0.06520137
-0.019516438 0.22292852 0.012786865 -0.19483022 0.13656113 0.0030552 0.2221494 -0.06499599
0.21728063 -0.13176158 -0.1973768 0.05887112 0.17559731 -0.18244968 0.13027173 0.03990385
0.12779355 0.063872814 -0.21842258 0.12647805 0.021312654 -0.15346007 0.0946942 0.17404225
0.21996763 -0.11239135 0.090874314 0.12702751 -0.17792095 -0.14640486 0.052552193 -0.050949678
0.057232857 -0.19812413 -0.215586 -0.051861122 -0.17216557 0.12326139 -0.18627647 0.07725468
-0.08545898 0.056370705 -0.16915917 0.20652476 0.2158125 0.13068748 -0.22162308 -0.16400576
0.15239713 -0.08519286 0.11943501 -0.12078159 0.020942613 -0.11064261 -0.011356682 -0.05216445
0.023958609 0.12768933 -0.11770013 -0.22186221 -0.13951987 0.1114867 -0.16439003 0.17316595
-0.20520863 0.07347292 -0.10146073 0.04242122 -0.05983506 0.040082157 0.00047279894 -0.16866167
0.16497868 -0.013105929 -0.05778639 -0.104340516 -0.19709958 0.20214763 0.17598373 0.08448723
0.1449903 0.14484018 -0.08137578 0.16422498 -0.16055873 -0.008674204 0.13057673 -0.15930848
-0.1839542 -0.14463131 -0.061963066 0.023186594 0.002180174 -0.15821852 -0.19362883 0.12305933
00000000: 6614 323e 6841 73bd 9051 ac3d be67 2ebe
00000010: a84e babd 44fb b43d 80ac ec3a 645f 1e3e
00000020: a4b4 c53d b2f0 27be d803 ef3d c6dc 0a3e
00000030: 5c56 0e3e d6b4 323e 949c 8d3d 2410 02bd
00000040: ce18 fcbd fc91 37bd 901e ea3c c810 f93d
00000050: bc54 983d 100a 2d3d 9006 40be a9d3 54be
00000060: 803c 93bb 0241 c3bd 7870 b6bd c662 273e
00000070: 507d 51bc 4631 f9bd 75be 4abe 0eca 50be
00000080: dc5f 3f3e 49b6 2ebe cdd0 4fbe 4cfb 9abd
00000090: c05a 20bb 969d 23be 8658 0cbe 1e71 173e
000000a0: c2e6 00be 8ed5 4f3e b8df 72bd 2cec 903d
000000b0: 8554 36be 46b1 453e 2089 2e3c 4ce7 453e
000000c0: 4426 47bd 70e4 a8bc 6358 d1bd ea9c 2bbe
000000d0: 1049 e9bc bcc9 f33d 781a 6a3d 8c04 86bd
000000e0: 84d0 0a3e 323a 22be 2ca4 323e d842 643d
000000f0: 404d 8cbb 5292 0a3e 3087 333e 9040 8ebd
00000100: 8036 58be 18f2 553e 20e6 a73d 8026 633c
00000110: d0b9 2cbc e40c e13d 4472 b1bd cbe9 08be
00000120: 5adf 613e ea96 303e 44c0 4abe 1898 d03c
00000130: 7a36 d6bd 48e7 1c3e af5e 4bbe 809c e23c
00000140: c029 1c3c 4011 73bd 60e6 293d 0047 27ba
00000150: 9013 403c 9475 e33d 5c86 133e 8e5d 413e
00000160: 901c 413d 74d6 a33d 8cc7 2cbd 3ed8 c6bd
00000170: 0262 a5bd 400f 793b b21e 8bbd 50c3 5ebc
00000180: f0e4 323c c4fa a03d 381b e93d 0e2b 1a3e
00000190: 962a 63be 28bb 3a3d bb03 e4bd cc9c 28bd
000001a0: d8f1 bb3d 28b8 03bd 101d 8e3d 848a 7dbd
000001b0: c500 19be b80a 643d 7ae3 2d3e 20ec ccbb
000001c0: b1a2 35be d4ff f63d a64a 553e 1830 f8bc
000001d0: 8293 27be b0b8 aebc 1006 d4bd fae5 a0bd
000001e0: 5668 093e 9808 c23d 18ca 4d3d 2c57 b3bd
000001f0: 986f 33be b450 0abe 3c50 ff3d e242 263e
00000200: 1885 833d c897 1abd 88d7 d83d 3229 133e
00000210: 144e 623e 163f 403e f0f6 54be d099 813d
00000220: 300d ccbd b806 e13d 62fc 463e de43 1ebe
00000230: 0045 84ba e765 29be 603a e33c 5027 1cbe
00000240: 5a87 c6bd 8cc7 a43d 7812 23bd 0ac1 453e
00000250: b874 cbbc b2e0 023e 208f 38bc 10be 213c
00000260: a8db e43d 0e77 433e 50d2 ce3d 0006 9f39
00000270: 8afe 333e cb89 1abe 00e9 333d 4c88 853d
00000280: f0e0 9fbc 6047 643e 0080 513c 9381 47be
00000290: aed6 0b3e c039 483b 227b 633e 9e1c 85bd
000002a0: d07e 5e3e 82ec 06be 251d 4abe d822 713d
000002b0: c8cf 333e 17d4 3abe f465 053e 3872 233d
000002c0: 50dc 023e c0cf 823d 2baa 5fbe 7683 013e
000002d0: e097 ae3c a324 1dbe 08ef c13d 2238 323e
000002e0: 323f 613e 702d e6bd 501c ba3d 8013 023e
000002f0: e930 36be 28eb 15be f840 573d 9cb0 50bd
00000300: 006d 6a3d 0de1 4abe 94c2 5cbe 546c 54bd
00000310: 2c4c 30be 7870 fc3d 42bf 3ebe b437 9e3d
00000320: 1e05 afbd f8e4 663d 1038 2dbe 3a7b 533e
00000330: f4fd 5c3e f0d2 053e 29f1 62be 20f1 27be
00000340: fe0d 1c3e 9879 aebd 589a f43d 575c f7bd
00000350: d88f ab3c 9898 e2bd 6011 3abc 64aa 55bd
00000360: d844 c43c fec0 023e c40c f1bd d92f 63be
00000370: 4cde 0ebe 2453 e43d dc55 28be 6a52 313e
00000380: 3622 52be f878 963d a5ca cfbd e0c1 2d3d
00000390: 9c15 75bd 302d 243d 00e2 f739 a5b5 2cbe
000003a0: 2cf0 283e 40ba 56bc 6cb1 6cbd 7bb0 d5bd
000003b0: 79d4 49be caff 4e3e 1435 343e a407 ad3d
000003c0: 5678 143e fc50 143e 58a8 a6bd 982a 283e
000003d0: 8269 24be 401e 0ebc e8b5 053e c321 23be
000003e0: 7d5e 3cbe 3b1a 14be fccc 7dbd d0f1 bd3c
000003f0: 40e1 0e3b 0904 22be a346 46be 8806 fc3d

lstm.bias_ih_l0 f4 [80]
-2.165942 1.806053 -0.6342308 -0.34876174 -2.0404935 -2.2168245 -1.546034 -1.2472463
-0.24440819 2.4460974 -2.1352723 -1.6307908 0.6805767 0.70225734 -2.3298273 1.6037805
-0.18395446 2.2060034 0.25579005 -0.72809047 0.10082045 0.03308603 0.05723539 0.09136966
-0.09545085 0.13009006 -0.093876004 -0.016981795 0.08899352 0.12510762 0.0906958 0.061697572
0.08312619 0.09614599 -0.2093233 0.11984417 0.2039476 -0.14099321 -0.094754994 -0.20336139
-1.6932342 -0.13325743 -0.59152514 -1.4212873 0.03755145 -0.96822906 0.89439046 0.409336
-0.5373407 3.1125517 -1.3120446 -0.8584379 -0.025926279 0.41170907 -1.0344714 -1.4054105
-0.07328794 -1.3733236 -0.6787331 -1.6736182 -0.7948874 -0.6218818 -0.8634736 -1.517142
-1.316485 -0.07438586 -2.347746 -2.0393121 0.051194113 -1.9482353 -1.853542 -1.7310575
0.5975211 0.8124227 -0.61864877 1.8733848 -0.37669542 -0.48322016 -0.6795638 -0.11583413
00000000: cb9e 0ac0 bf2c e73f f35c 22bf e690 b2be
00000010: 7297 02c0 74e0 0dc0 71e4 c5bf c4a5 9fbf
00000020: 2446 7abe dc8c 1c40 4da8 08c0 c1bd d0bf
00000030: 463a 2e3f 23c7 333f e41b 15c0 ae48 cd3f
00000040: 8f5e 3cbe 292f 0d40 eaf6 823e 2364 3abf
00000050: f47a ce3d 3885 073d a86f 6a3d 0420 bb3d
00000060: bc7b c3bd 5436 053e 1042 c0bd 681d 8bbc
00000070: 3c42 b63d 361c 003e b8be b93d 98b6 7c3d
00000080: 103e aa3d 30e8 c43d d958 56be dc70 f53d
00000090: a4d7 503e 8660 10be e80e c2bd f83d 50be
000000a0: e6bb d8bf a374 08be 316e 17bf beec b5bf
000000b0: 8dcf 193d dcdd 77bf c6f6 643f 7d94 d13e
000000c0: 298f 09bf 0c34 4740 14f1 a7bf 96c2 5bbf
000000d0: 5963 d4bc 88cb d23e 8f69 84bf 7ee4 b3bf
000000e0: fd17 96bd 11c9 afbf 74c1 2dbf 1f39 d6bf
000000f0: be7d 4bbf a533 1fbf 9b0c 5dbf b631 c2bf
00000100: 9582 a8bf 9d57 98bd 7841 16c0 1784 02c0
00000110: ebb0 513d c65f f9bf dd40 edbf 4b93 ddbf
00000120: 25f7 183f effa 4f3f c45f 1ebf 13cb ef3f
00000130: 39de c0be a268 f7be e5f7 2dbf 723a edbd

lstm.bias_hh_l0 f4 [80]
-2.3276374 1.8478082 -0.5333488 -0.7228375 -2.0828266 -2.4471898 -1.7687873 -1.2411995
-0.43454838 2.6393666 -2.1262403 -1.7153858 0.94868493 0.5801985 -2.4639862 1.8722535
0.18056878 2.0215533 0.23474807 -0.8891911 0.1001586 0.09560689 -0.10454777 -0.06009938
0.14326006 -0.006181553 -0.17081271 -0.009703502 -0.04754232 -0.22176255 -0.052042946 -0.045453906
0.07996887 0.21669316 -0.10621619 0.0038456023 -0.061038464 0.03535092 -0.14757839 0.097798645
-1.8753564 0.2047534 -0.49375665 -1.0860072 -0.24482481 -0.98804533 1.1755266 0.46811065
-0.6465396 2.9879541 -1.5535531 -0.8806728 0.05498436 0.64648527 -1.4530934 -1.437425
-0.26326624 -1.0477 -0.8243835 -1.7263736 -0.86695147 -0.33102313 -0.81380445 -1.1760483
-1.1237003 -0.18846484 -2.7646337 -1.9909201 0.04814182 -1.7210836 -1.9208044 -1.926555
0.64624876 0.52934104 -0.7144382 1.8972025 -0.3283062 -0.5807263 -0.7612615 0.1402494
00000000: 03f8 14c0 fb84 ec3f 8c89 08bf e10b 39bf
00000010: 084d 05c0 c29e 1cc0 9f67 e2bf a0df 9ebf
00000020: 207d debe 62eb 2840 5214 08c0 c391 dbbf
00000030: 04dd 723f e487 143f f3b1 1dc0 01a6 ef3f
00000040: 06e7 383e 2161 0140 cc61 703e 07a2 63bf
00000050: f41f cd3d 8ccd c33d 241d d6bd c42a 76bd
00000060: c4b2 123e a08e cabb 87e9 2ebe 70fb 1ebc
00000070: bcbb 42bd b915 63be fc2a 55bd e02d 3abd
00000080: b8c6 a33d d0e4 5d3e e087 d9bd 8006 7c3b
00000090: 7803 7abd 20cc 103d ca1e 17be a84a c83d
000000a0: ae0b f0bf e0aa 513e accd fcbe 4902 8bbf
000000b0: 5bb3 7abe 8af0 7cbf a877 963f 33ac ef3e
000000c0: 9f83 25bf a43a 3f40 d4da c6bf c673 61bf
000000d0: 4837 613d 0f80 253f f7fe b9bf 8bfd b7bf
000000e0: d5ca 86be 091b 86bf cc0a 53bf cff9 dcbf
000000f0: 88f0 5dbf dd7b a9be 7d55 50bf c088 96bf
00000100: 69d5 8fbf edfc 40be c2ef 30c0 78d6 febf
00000110: 5b30 453d 784c dcbf ebdc f5bf 5b99 f6bf
00000120: 8f70 253f e582 073f 6ce5 36bf 88d7 f23f
00000130: c017 a8be 7baa 14bf 09e2 42bf 8a9d 0f3e

lstm.weight_ih_l1 f4 [80, 20]
1.1127405 -8.022054 -2.3191538 1.6822668 2.6252224 -4.0632772 1.3280163 -3.0341425
4.5470486 6.7976947 -1.1737689 0.7286722 2.5530136 -2.4971738 1.7108189 -0.32015687
-3.8224232 2.343094 -0.41350868 1.3153951 0.32524607 10.202571 -9.027866 -1.2752348
-1.6533715 0.8136206 -0.9080747 -0.45355147 -1.84747 -6.3246813 4.6749306 -5.0049644
-1.6698656 4.7527127 -3.0086355 -0.9402467 5.910074 2.759592 1.1255232 -6.257726
-2.2283952 3.1977253 -0.28979972 -1.3783308 -7.02877 5.4268117 0.5179787 4.1890693
-4.7244263 -3.7102666 1.3748193 -2.6206546 -4.344637 1.2158684 -0.8473332 -3.1205108
1.5344739 -3.0306978 -3.452651 0.50622916 1.2567034 -3.4910007 1.1147699 -1.2599978
1.7173653 -4.8787103 -1.9563662 -1.7217218 3.9572282 0.23791237 0.064311676 2.5927036
2.2091467 -0.8815098 2.0166414 1.6777978 -0.3822866 2.7003934 -0.12686995 0.3167874
2.6204054 1.6399788 -3.990722 0.2374161 -5.4006495 5.200233 -0.2778089 -0.42860216
-3.8974168 -4.219562 2.549141 -2.6131744 -2.5951223 5.3342032 -2.006397 -2.8429744
-0.40822393 0.4694158 -1.7395486 -3.2837152 3.826679 -0.012711941 0.88578504 -0.9149496
-0.8781525 4.3198333 2.014988 -2.5907729 -3.1578975 -1.0050721 2.8306584 -4.569781
-2.3462076 -0.22567731 -0.19331086 5.557887 -3.8303266 5.6364226 0.7465932 0.8403075
-0.10442538 -0.34383893 3.368024 -4.1474876 0.21035674 0.1340586 0.15452968 -0.19159777
-0.2064871 -0.40900618 2.0161474 -0.80688715 0.60113394 2.228772 0.710346 0.79145974
-2.5009568 0.18643841 -7.0391364 1.895016 0.5648984 -0.49533203 1.318377 3.4543562
-4.707463 1.7751286 3.9776278 -0.29908913 -0.2665049 0.5903464 -6.7170653 1.3369424
1.2100252 -4.6160326 -0.12191531 1.2030827 0.19765024 2.0844977 10.035505 1.7993203
-2.6169798 -1.1313463 2.7597492 0.81612855 -0.53705245 -2.068127 1.7491709 0.47971606
3.2089407 3.4359396 -8.248052 7.60585 1.8755023 -4.561237 0.47691697 2.3522062
-0.9147282 -5.3958817 1.3128245 2.2100627 -0.8158 1.0622171 2.3533082 -0.933498
-1.9759156 8.2537365 -0.91019475 2.028459 -2.9227505 0.2510157 -0.53995776 -0.26329857
0.4628764 4.615522 -0.45401934 3.960879 -0.28511977 3.3754718 1.1442381 1.3298552
0.4382988 9.042429 -2.029757 0.38887426 -4.429527 2.541583 0.7178973 2.782467
-3.4714708 -4.478845 2.8037639 -1.1169552 -2.0846283 6.025521 -0.80884385 -3.730574
3.5472467 -0.4002524 0.08698512 -0.5019125 -0.21001405 -0.009351886 -0.22174239 -0.0858087
-0.014294354 0.035178535 -0.1433265 0.10469994 -0.112440266 0.20054717 -0.058902916 -0.12915656
-0.039385296 -0.18447748 0.13143374 -0.08934925 -0.18814726 -0.14440931 0.11890916 -0.22282307
-4.5305505 -0.3477732 2.2887862 0.93571216 -0.32989928 -2.1295803 2.0999286 1.8344883
2.571796 3.155151 -9.861553 8.918105 1.8500842 -5.3388453 0.60931104 3.1465962
00000000: 486e 8e3f 555a 00c1 046d 14c0 8554 d73f
00000010: a503 2840 5e06 82c0 70fc a93f 642f 42c0
00000020: 6c81 9140 b786 d940 0f3e 96bf 438a 3a3f
00000030: 9364 2340 b2d1 1fc0 1dfc da3f 9aeb a3be
00000040: 95a2 74c0 41f5 1540 69b7 d3be de5e a83f
00000050: a786 a63e bb3d 2341 2472 10c1 e53a a3bf
00000060: ada1 d3bf 7149 503f 9577 68bf e637 e8be
00000070: e679 ecbf ca63 cac0 0899 9540 ab28 a0c0
00000080: 28be d5bf 3916 9840 7c8d 40c0 02b4 70bf
00000090: 541f bd40 289d 3040 2511 903f 4b3f c8c0
000000a0: 079e 0ec0 88a7 4c40 a160 94be 256d b0bf
000000b0: afeb e0c0 71a8 ad40 419a 043f db0c 8640
000000c0: 802e 97c0 0275 6dc0 14fa af3f ceb8 27c0
000000d0: 4407 8bc0 93a1 9b3f d4ea 58bf 73b6 47c0
000000e0: a469 c43f f4f6 41c0 3cf8 5cc0 3c98 013f
000000f0: a8db a03f 8e6c 5fc0 c8b0 8e3f 9c47 a1bf
00000100: a0d2 db3f 651e 9cc0 356a fabf 6161 dcbf
00000110: 3a43 7d40 4d9f 733e d7b5 833d dbee 2540
00000120: a962 0d40 a0aa 61bf a710 0140 14c2 d63f
00000130: 12bb c3be 3fd3 2c40 32ea 01be f531 a23e
00000140: b9b4 2740 d3ea d13f fd67 7fc0 351d 733e
00000150: 1fd2 acc0 4f68 a640 f83c 8ebe be71 dbbe
00000160: 476f 79c0 a706 87c0 2025 2340 403e 27c0
00000170: 7c16 26c0 cbb1 aa40 cf68 00c0 4bf3 35c0
00000180: ba02 d1be 4557 f03e 87a9 debf 6428 52c0
00000190: 4fe8 7440 bf45 50bc cfc2 623f 233a 6abf
000001a0: 9ace 60bf 133c 8a40 90f5 0040 39cf 25c0
000001b0: fe1a 4ac0 34a6 80bf 8229 3540 a53b 92c0
000001c0: 4428 16c0 f417 67be 48f3 45be 36da b140
000001d0: 1224 75c0 935d b440 bb20 3f3f 641e 573f
000001e0: f9dc d5bd a80b b0be b58d 5740 38b8 84c0
000001f0: c267 573e a846 093e 073d 1e3e 3532 44be
00000200: 5b71 53be 4269 d1be 8f08 0140 2890 4ebf
00000210: eae3 193f 33a4 0e40 3cd9 353f 1b9d 4a3f
00000220: ad0f 20c0 b6e9 3e3e 9b40 e1c0 e28f f23f
00000230: 2e9d 103f 299c fdbe 94c0 a83f 2c14 5d40
00000240: 89a3 96c0 6a37 e33f 7491 7e40 3622 99be
00000250: 5573 88be f120 173f 33f2 d6c0 ee20 ab3f
00000260: 1be2 9a3f 8ab6 93c0 bcae f9bd 9dfe 993f
00000270: d364 4a3e 6968 0540 6e91 2041 2150 e63f
00000280: 997c 27c0 f5cf 90bf bb9f 3040 cded 503f
00000290: 457c 09bf 315c 04c0 d5e4 df3f 589d f53e
000002a0: 495f 4d40 6fe6 5b40 05f8 03c1 2063 f340
000002b0: 7610 f03f a7f5 91c0 762e f43e 8c8a 1640
000002c0: a12b 6abf 10ab acc0 a20a a83f ab71 0d40
000002d0: 45d8 50bf bbf6 873f 9a9c 1640 baf9 6ebf
000002e0: cdea fcbf 4e0f 0441 8602 69bf 46d2 0140
000002f0: 580e 3bc0 2185 803e ac3a 0abf 12cf 86be
00000300: 23fe ec3e 5bb2 9340 3975 e8be 0b7f 7d40
00000310: 38fb 91be bb07 5840 6576 923f b238 aa3f
00000320: b368 e03e caad 1041 8ae7 01c0 871a c73e
00000330: afbe 8dc0 4ca9 2240 1ec8 373f f013 3240
00000340: 942c 5ec0 b352 8fc0 de70 3340 63f8 8ebf
00000350: 8d6a 05c0 11d1 c040 6410 4fbf b9c1 6ec0
00000360: 1706 6340 e2ed ccbe 4125 b23d 567d 00bf
00000370: ec0d 57be a738 19bc 7010 63be 79bc afbd
00000380: de32 6abc 5e17 103d 2fc4 12be ec6c d63d
00000390: 1547 e6bd 3d5c 4d3e 2f44 71bd 9e41 04be
000003a0: 7a52 21bd aae7 3cbe 9196 063e bdfc b6bd
000003b0: ada9 40be 09e0 13be a586 f33d bb2b 64be
000003c0: 45fa 90c0 540f b2be 797b 1240 d58a 6f3f
000003d0: 8fe8 a8be 0b4b 08c0 3b65 0640 83d0 ea3f
000003e0: 4e98 2440 feed 4940 ecc8 1dc1 8fb0 0e41
000003f0: 8fcf ec3f d2d7 aac0 cffb 1b3f d561 4940

lstm.weight_hh_l1 f4 [80, 20]
0.14292312 0.0686706 0.08370614 -0.11387555 0.030516505 -0.18193474 -0.08384101 -0.21972024
-0.11113745 -0.03685452 -0.090752035 -0.08744109 -0.15153053 0.2229779 0.04539314 0.033842564
0.09776378 -0.05735387 -0.050725266 -0.19943064 -0.19216532 -0.08800982 0.21452147 -0.16838935
-0.0968924 -0.09635264 -0.023576036 0.06626427 0.18704551 -0.11629499 -0.054160923 0.03432548
-0.021092504 -0.13824242 -0.17284906 0.19120061 0.1820012 0.20252264 0.12344512 -0.042240605
-0.21772645 -0.06688136 -0.17387733 -0.064667374 -0.040396854 0.19058225 0.11288273 -0.04229808
0.18092713 -0.11261617 0.22072405 0.04723531 -0.21444987 -0.121751316 0.023899615 0.17843232
0.09578121 0.19889206 -0.06845316 -0.21507671 -0.06342794 0.21347988 -0.16163206 -0.09143624
0.12996438 -0.17866167 -0.10940716 -0.15506414 0.1087572 -0.10212972 -0.13635795 -0.055865183
0.19256103 -0.18890998 0.06967303 0.16843063 0.031445175 -0.038916707 0.20642513 -0.07334955
0.16586086 0.21969539 0.08764437 0.18185109 -0.053126484 -0.19408078 -0.21142124 0.008022204
0.09079769 -0.19356844 0.06919804 0.13389271 0.123387665 -0.18804044 -0.13421741 -0.104263775
0.15873158 0.133391 0.04945904 0.08409408 -0.061793983 -0.08754982 0.16856346 -0.045321375
-0.012192294 0.101726174 -0.10694651 0.059880912 -0.06471148 0.009080216 0.062188745 -0.22161004
0.100431025 -0.05526483 0.1479767 0.17320254 -0.03720264 -0.08241883 -0.22148886 0.1900936
0.09809816 0.047565162 -0.16405314 0.15592042 0.054500073 -0.2032595 -0.069928646 -0.007330075
-0.039922938 0.021226019 -0.17497006 -0.14558554 0.020049155 -0.11354246 -0.15374354 -0.18024656
-0.035241753 0.17158973 0.20014647 0.13255677 0.2069993 0.008187503 -0.14575443 0.05626446
-0.1778138 -0.11764138 0.022055522 0.15992635 -0.04898423 0.1803278 -0.022553697 -0.070314065
-0.094605714 -0.124636345 -0.17279339 0.16306806 0.19041556 0.16608289 -0.21622314 0.2181983
0.20171726 0.024586484 0.067248344 -0.20826237 0.13219792 0.045797884 0.16554898 -0.047716603
-0.18253025 0.042877287 -0.112723455 -0.056144297 0.018778011 0.01909785 0.091796935 -0.21238254
-0.13441102 0.0928731 0.14641687 0.052481174 -0.12843235 -0.062164128 -0.22305043 -0.18094532
0.028247982 0.21518257 -0.07228561 -0.18702242 -0.17877382 0.088136494 0.009489134 -0.1330463
-0.0011622608 -0.15709889 0.13011798 -0.065962255 0.18458617 0.052615345 -0.21317112 -0.037317082
-0.083649635 0.20632026 -0.104513675 -0.097084984 0.12388757 -0.11588979 0.17114002 0.1107198
0.051867366 0.102401435 0.09947187 0.01797396 0.046592474 0.19654572 0.018820211 0.18722638
0.19408327 -0.059575617 -0.0044564605 -0.139712 0.072800845 0.16554502 0.20339048 -0.1419298
-0.11935227 0.13277835 -0.12844512 0.062880784 0.1057848 -0.17360702 0.10270023 -0.11046638
-0.11023621 0.048934013 0.11515728 -0.062349632 -0.11777871 -0.11679825 0.052939534 0.14946625
0.088018894 0.19154698 0.13208771 -0.15386079 0.031318843 0.17782205 0.026076525 0.22279644
0.14327028 -0.2029221 0.14785904 0.019611165 -0.07003458 0.21198016 0.1917687 0.21635562
00000000: 705a 123e 2ca3 8c3d 206e ab3d 9637 e9bd
00000010: c0fd f93c 1a4d 3abe d6b4 abbd 58fe 60be
00000020: 089c e3bd c4f4 16bd 34dc b9bd 5014 b3bd
00000030: d22a 1bbe 5254 643e 28ee 393d 809e 0a3d
00000040: 6038 c83d e4eb 6abd 4cc5 4fbd 8c37 4cbe
00000050: fcc6 44be 7e3e b4bd 84ab 5b3e 426e 2cbe
00000060: 866f c6bd 8854 c5bd 8822 c1bc 90b5 873d
00000070: dc88 3f3e 112c eebd d8d7 5dbd e098 0c3d
00000080: 30ca acbc 6c8f 0dbe 58ff 30be 18ca 433e
00000090: 865e 3a3e 1862 4f3e ccd0 fc3d 7c04 2dbd
000000a0: aff3 5ebe 18f9 88bd e60c 32be 5470 84bd
000000b0: 2c77 25bd fe27 433e 102f e73d c040 2dbd
000000c0: f644 393e 4ea3 e6bd 7c05 623e d079 413d
000000d0: bf98 5bbe c158 f9bd 20c9 c33c f6b6 363e
000000e0: f028 c43d 5caa 4b3e 2c31 8cbd 123d 5cbe
000000f0: 82e6 81bd 789a 5a3e e082 25be ec42 bbbd
00000100: 6215 053e 16f3 36be dc10 e0bd 22c9 1ebe
00000110: 18bc de3d 6329 d1bd 6ba1 0bbe e4d2 64bd
00000120: b82e 453e 9e71 41be bcb0 8e3d 1479 2c3e
00000130: a8cc 003d 2067 1fbd 1c61 533e 4a38 96bd
00000140: 6ed7 293e d4f7 603e e47e b33d 2c37 3a3e
00000150: 289b 59bd 1dbd 46be cf7e 58be 906f 033c
00000160: 24f4 b93d ce36 46be b4b7 8d3d 2c1b 093e
00000170: acb2 fc3d ac8d 40be 4a70 09be 3f88 d5bd
00000180: 888a 223e a697 083e 9095 4a3d 8439 ac3d
00000190: b01b 7dbd 524d b3bd e69b 2c3e e8a2 39bd
000001a0: 30c2 47bc d055 d03d c606 dbbd b045 753d
000001b0: 7487 84bd 30c5 143c a0b9 7e3d beed 62be
000001c0: c8ae cd3d 605d 62bd 3487 173e 025c 313e
000001d0: cc61 18bd 34cb a8bd facd 62be e6a7 423e
000001e0: b0e7 c83d b0d3 423d 8cfd 27be 9aa9 1f3e
000001f0: 783b 5f3d 4223 50be c036 8fbd 2031 f0bb
00000200: 3c86 23bd 30e2 ad3c 5a2b 33be 6014 15be
00000210: 203e a43c f388 e8bd f26e 1dbe 8e92 38be
00000220: a859 10bd 38b5 2f3e 32f3 4c3e f6bc 073e
00000230: a0f7 533e e024 063c a640 15be 9075 663d
00000240: d214 36be f7ed f0bd c8ad b43c bcc3 233e
00000250: b0a3 48bd daa7 383e 88c2 b8bc d200 90bd
00000260: a4c0 c1bd 5741 ffbd c0f0 30be 50fb 263e
00000270: 4cfc 423e a211 2a3e 9969 5dbe 606f 5f3e
00000280: f88e 4e3e 9869 c93c 80b9 893d bb42 55be
00000290: e45e 073e 9096 3b3d ac85 293e 7c72 43bd
000002a0: 36e9 3abe 18a0 2f3d 8edb e6bd 90f7 65bd
000002b0: 58d4 993c 1873 9c3c 0800 bc3d cf7a 59be
000002c0: 0ba3 09be 4034 be3d 4eee 153e 80f6 563d
000002d0: c583 03be d09f 7ebd 5567 64be bb49 39be
000002e0: 5068 e73c d258 5c3e 7a0a 94bd ce82 3fbe
000002f0: 7c10 37be e880 b43d 5078 1b3c 4a3d 08be
00000300: 0057 98ba 88de 20be a63d 053e 3817 87bd
00000310: 2804 3d3e 3083 573d 8849 5abe ccd9 18bd
00000320: 8050 abbd 9e45 533e 440b d6bd 7ed4 c6bd
00000330: c4b8 fd3d a057 edbd 543f 2f3e 10c1 e23d
00000340: e072 543d d8b7 d13d e8b7 cb3d 203e 933c
00000350: c0d7 3e3d 4843 493e d82c 9a3c 46b8 3f3e
00000360: c4bd 463e 9005 74bd 8007 92bb aa10 0fbe
00000370: 9c18 953d a284 293e 9845 503e 0c56 11be
00000380: f76e f4bd 0cf7 073e 1e87 03be a4c7 803d
00000390: b4a5 d83d 0ac6 31be 8054 d23d 333c e2bd
000003a0: 86c3 e1bd 086f 483d 94d7 eb3d 5462 7fbd
000003b0: f735 f1bd ec33 efbd 20d7 583d ae0d 193e
000003c0: 4043 b43d e424 443e 0042 073e af8d 1dbe
000003d0: 3048 003d fc16 363e 709e d53c c024 643e
000003e0: 72b5 123e d0ca 4fbe 5c68 173e 98a7 a03c
000003f0: 4a6e 8fbd 5411 593e 045f 443e 548c 5d3e

lstm.bias_ih_l1 f4 [80]
0.37462538 -0.43303004 0.25072792 1.5416833 -0.05156398 0.9139911 -0.37102643 -0.12292139
-0.5408599 0.79436225 -0.12002167 0.09663958 -0.54309773 0.9508225 -0.16171001 1.2486409
0.23305684 -0.003886151 0.1541274 2.795415 -0.20162383 0.10968247 -0.195522 -0.13736933
-0.10637234 -0.113044634 -0.10898026 -0.19721207 -0.03643474 0.19421265 -0.22242926 -0.14410457
0.09210712 -0.193792 0.13288036 -0.026958734 0.11659962 0.20640558 -0.08604802 0.21335903
0.4775859 0.53832626 -0.29826957 0.47794127 0.45644882 0.9361517 0.3716241 -0.26390138
0.17861582 0.17266114 0.6696053 -0.31678683 0.6294571 0.02068317 -0.23427105 0.8673238
-0.36427525 -0.33234006 -0.2939958 0.16873536 -0.9340979 -0.32764027 -0.49017662 -0.7559152
-0.7192403 -0.8005086 0.32446092 0.46593124 -0.60562986 -0.83665675 -0.20616837 0.0168128
-0.6614154 -0.8189136 -0.13998498 -0.7059979 -0.6410576 -0.20100926 0.052747425 -0.7031961
00000000: e6ce bf3e 1db6 ddbe 695f 803e e155 c53f
00000010: c034 53bd 52fb 693f 2df7 bdbe 36be fbbd
00000020: cb75 0abf 535b 4b3f eccd f5bd f9ea c53d
00000030: 7408 0bbf 1a69 733f 4f97 25be 77d3 9f3f
00000040: 74a6 6e3e cbae 7ebb 93d3 1d3e 14e8 3240
00000050: 7a76 4ebe 34a1 e03d eb36 48be 8caa 0cbe
00000060: bed9 d9bd f283 e7bd 0b31 dfbd f6f1 49be
00000070: 983c 15bd aedf 463e 7fc4 63be 2690 13be
00000080: a8a2 bc3d 6971 46be ca11 083e 90d8 dcbc
00000090: c8cb ee3d fc5b 533e f239 b0bd ca7a 5a3e
000000a0: 2486 f43e c0cf 093f cab6 98be b8b4 f43e
000000b0: a9b3 e93e a3a7 6f3f 8445 be3e 151e 87be
000000c0: 11e7 363e 15ce 303e 416b 2b3f e231 a2be
000000d0: 1a24 213f c06f a93c c0e4 6fbe ef08 5e3f
000000e0: 4982 babe 7a28 aabe 9e86 96be f6c8 2c3e
000000f0: 0a21 6fbf 77c0 a7be 6ef8 fabe a983 41bf
00000100: 2220 38bf 22ee 4cbf be1f a63e 8a8e ee3e
00000110: 8f0a 1bbf 232f 56bf cd1d 53be ffba 893c
00000120: 8552 29bf 52a4 51bf 3958 0fbe 47bc 34bf
00000130: 5a1c 24bf 5fd5 4dbe af0d 583d a904 34bf

lstm.bias_hh_l1 f4 [80]
0.29129755 -0.24499692 0.13803808 1.652743 -0.04916245 0.8062086 -0.33861157 -0.20399715
-0.30132848 0.9764997 -0.2964084 0.015805706 -0.5266342 1.2079241 -0.30293265 1.0850124
0.023123251 0.07163453 0.132021 2.3960288 -0.14267631 -0.0077869594 0.116184324 0.011155188
-0.14413294 -0.05419022 0.009417117 0.19770694 -0.11312266 -0.17827228 -0.21304409 0.003734216
0.070359826 0.09935677 0.18940422 0.16039851 0.19666341 -0.032158285 0.086814255 -0.13639751
0.4982649 0.65934896 -0.10509298 0.49534696 0.58925354 0.68175715 0.5498115 -0.15007746
-0.055193253 0.31504422 0.888316 -0.36563116 0.3657891 -0.21474306 -0.6677889 0.95105475
-0.14268388 -0.3422976 -0.3241031 0.13433777 -0.74349356 -0.020545151 -0.58794945 -0.9353463
-1.0717022 -0.7387489 0.05421077 0.33718508 -0.47171134 -0.8640223 -0.481457 -0.17777343
-0.54610807 -0.68926466 -0.04292049 -0.62231344 -0.52337366 -0.2033894 -0.07477454 -0.6923625
00000000: f424 953e 79e0 7abe db59 0d3e 158d d33f
00000010: 915e 49bd b063 4e3f 7f5e adbe a1e4 50be
00000020: ba47 9abe e2fb 793f d8c2 97be f87a 813c
00000030: 80d1 06bf 429d 9a3f fd19 9bbe b0e1 8a3f
00000040: f96c bd3c 20b5 923d 8330 073e 8958 1940
00000050: bd19 12be c029 ffbb 0cf2 ed3d 40c4 363c
00000060: 9697 13be 90f6 5dbd 404a 1a3c b073 4a3e
00000070: daac e7bd 028d 36be 3b28 5abe c0b9 743b
00000080: d018 903d 907b cb3d 2ef3 413e 823f 243e
00000090: 2262 493e 68b8 03bd accb b13d caab 0bbe
000000a0: 941c ff3e 18cb 283f fd3a d7bd 1e9e fd3e
000000b0: 52d9 163f a387 2e3f 72c0 0c3f e8ad 19be
000000c0: 5212 62bd 7a4d a13e ad68 633f 0234 bbbe
000000d0: b548 bb3e 9be5 5bbe 37f4 2abf 5378 733f
000000e0: b91b 12be a241 afbe d7f0 a5be d78f 093e
000000f0: 9855 3ebf 4e4e a8bc db83 16bf db72 6fbf
00000100: 8a2d 89bf a61e 3dbf 1d0c 5e3d 86a3 ac3e
00000110: 2684 f1be 9130 5dbf 8881 f6be 3d0a 36be
00000120: bdcd 0bbf a673 30bf 65cd 2fbd ef4f 1fbf
00000130: d1fb 05bf 5045 50be 6523 99bd ab3e 31bf

linear.weight f4 [6, 20]
-0.25868395 0.5143948 1.4280216 -1.2891273 1.1939824 -0.4376192 0.21577975 -0.5801648
-1.5302908 -0.7620124 0.5746752 0.059162796 -0.93259555 -0.12770876 0.055540714 -0.045756176
0.9120129 0.18341197 0.12564029 -0.064540744 -0.036586616 -0.33184722 -0.35399482 -0.11777071
-0.819051 -0.1360494 0.32670915 0.25020385 0.83523357 0.21484043 -0.21307316 0.0061240736
0.48084906 0.25728574 -0.019362299 -0.5378428 -0.27247512 0.15522109 -0.01964242 0.37131846
-2.4239028 -0.6575336 0.4306066 -2.1757295 -0.26128507 -2.1500328 1.2109121 0.09985495
-0.29985234 -0.30855682 -0.12757087 -0.11897442 0.27447504 0.94605666 -0.042808637 -1.52375
0.7520265 -0.12902717 -0.056437965 1.4463904 13.26918 3.044646 -0.7503601 9.513856
1.1801994 11.639314 -7.2484684 -0.28869712 -0.40381688 1.8135707 1.3276017 0.17456172
-1.3337464 -5.20979 0.241594 8.004528 -3.148812 -0.019027557 0.20858555 -7.8987975
-4.0852137 -0.5592185 2.697941 -7.2603 0.7503063 -5.393899 4.3047676 -0.4439663
-2.0539598 -2.1163166 0.30826223 -0.07453709 -0.27616268 3.2957754 0.10809486 -4.8494716
2.602425 0.12597956 0.0049314904 1.4272687 -2.2321303 4.2163935 8.359888 -1.5748496
6.894256 -1.1688391 0.61078066 -3.5954854 -9.187096 -3.919755 3.040247 0.027644292
-4.9037323 -1.0343992 0.013206357 1.3801169 5.8801017 -0.1533827 -0.16167675 -0.42651135
00000000: 3972 84be 61af 033f 69c9 b63f 2002 a5bf
00000010: 6ad4 983f a00f e0be 5ef5 5c3e ae85 14bf
00000020: 92e0 c3bf 3f13 43bf ea1d 133f b054 723d
00000030: 95be 6ebf 16c6 02be a97e 633d d46a 3bbd
00000040: ad79 693f 59d0 3b3e d9a7 003e f02d 84bd
00000050: d9db 15bd e1e7 a9be cf3e b5be c531 f1bd
00000060: 54ad 51bf 8950 0bbe 6c46 a73e b81a 803e
00000070: ded1 553f 21ff 5b3e da2f 5abe 74ac c83b
00000080: d931 f63e f5ba 833e af9d 9ebc 11b0 09bf
00000090: dc81 8bbe 47f2 1e3e 24e9 a0bc 741d be3e
000000a0: 3921 1bc0 1f54 28bf 7878 dc3e 273f 0bc0
000000b0: 28c7 85be 239a 09c0 2bff 9a3f c180 cc3d
000000c0: 3f86 99be 29fb 9dbe f0a1 02be dca8 f3bd
000000d0: fe87 8c3e c530 723f 1c58 2fbd 3d0a c3bf
000000e0: cf84 403f b31f 04be 7f2b 67bd 5223 b93f
000000f0: 904e 5441 7bdb 4240 9917 40bf c138 1841
00000100: c610 973f a13a 3a41 74f3 e7c0 1cd0 93be
00000110: 16c1 cebe 1623 e83f daee a93f 4fc0 323e
00000120: 34b8 aabf 9ab6 a6c0 6b64 773e 8c12 0041
00000130: 2386 49c0 aedf 9bbc 7397 553e f3c2 fcc0
00000140: 12ba 82c0 f228 0fbf 11ab 2c40 6154 e8c0
00000150: 1314 403f d29a acc0 a8c0 8940 8d4f e3be
00000160: 1474 03c0 bb71 07c0 8cd4 9d3e e7a6 98bd
00000170: 3265 8dbe fced 5240 d760 dd3d df2e 9bc0
00000180: 228e 2640 c900 013e 5798 a13b beb0 b63f
00000190: 39db 0ec0 b2ec 8640 1ac2 0541 ac94 c9bf
000001a0: bf9d dc40 859c 95bf 1f5c 1c3f 6f1c 66c0
000001b0: 58fe 12c1 44dd 7ac0 6893 4240 4876 e23c
000001c0: 60eb 9cc0 3167 84bf 7a5f 583c aca7 b03f
000001d0: cb29 bc40 5b10 1dbe 978e 25be b25f dabe

linear.bias f4 [6]
0.03730285 0.00018477347 0.01048212 -0.17030665 0.02417572 -0.10151539
00000000: e0ca 183d c0bf 4139 33bd 2b3c de64 2ebe
00000010: 290c c63c 4de7 cfbd
