models/90/state_dict.pt (torch_old, 88287 bytes, 10 tensors)

lstm.weight_ih_l0 f4 [160, 10]
000000 02 03 e3 bd b0 19 d1 bd b9 73 17 be 20 82 86 be
       -0.11084558 -0.102099776 -0.14790238 -0.26271152
000010 48 92 ba bd 0d d6 03 bd 7a 6a db 3d 62 2f 33 bd
       -0.09109932 -0.032186557 0.10713668 -0.04374636
000020 10 64 50 3e 09 7a 51 3d 7e d4 6d bc 01 12 61 3e
       0.20350671 0.051141772 -0.014515994 0.21979524
000030 9a 08 aa bd f2 b3 45 be cc 92 53 3e ca 34 92 3d
       -0.08302422 -0.19306925 0.20661467 0.07138975
000040 b5 ae c2 3c f0 9b 83 bd 09 f9 c3 bd b4 50 40 be
       0.023764947 -0.06426227 -0.09568984 -0.18780786
000050 fb 22 68 bd 8d b4 d3 3c 49 77 94 be 23 ad 43 be
       -0.056673985 0.02584293 -0.28997257 -0.19109015
000060 b6 dc 36 be 5f 9c a7 3d 1f 9c 4d bd 37 06 eb 3c
       -0.17857632 0.08184122 -0.050197717 0.028689487
000070 09 c5 cd 3d 5e 41 4a 3e 2c 52 e3 bd 6a 43 58 3e
       0.10047347 0.19751498 -0.110996574 0.21119466
000080 03 e5 a6 bd 68 a7 ee bd e6 f5 bd 3d b0 1b 5a be
       -0.08149149 -0.11653024 0.09275417 -0.21299624
000090 62 a9 c7 3d 28 c8 7b bd dc 73 8c bd b7 51 47 bc
       0.09749104 -0.06147018 -0.06858036 -0.012165478
0000a0 19 14 5e be 1b eb 83 bc f3 08 00 be 0d d7 c3 be
       -0.21687354 -0.016103318 -0.12503414 -0.38250008
0000b0 19 64 ad be cf 37 0f be b3 01 fa bc 45 41 a8 be
       -0.3386543 -0.13986133 -0.030518388 -0.32862297
0000c0 97 e6 18 be 6d 57 6a bd ff c2 b4 3d a4 73 38 be
       -0.14931713 -0.057212282 0.08826255 -0.18012863
0000d0 7f 37 5a 3e 78 fd 06 3d 0f de 0f 3f 16 3f bf 3e
       0.21310233 0.03295657 0.5619821 0.37352818
0000e0 1d b9 21 3d fd ae 16 3f 56 2b c3 3e 66 a5 6a 3e
       0.03948318 0.5886076 0.38119 0.22914657
0000f0 43 02 06 3e 6b eb b0 bd 57 30 59 be 55 20 89 be
       0.130868 -0.086386524 -0.21209846 -0.2678248
000100 17 07 25 be fd e2 a2 3e 26 8f ba 3e 9f c5 69 be
       -0.16115986 0.31813803 0.3643734 -0.22829293
000110 c7 b4 27 3e 40 3a d8 3e 9c 7d 53 3e 72 7a 4a 3e
       0.16377555 0.4223194 0.20653385 0.19773272
000120 2b b1 4b be 31 1a b5 bd d0 82 1e be c1 a5 6d 3c
       -0.19891803 -0.08842886 -0.15479589 0.014504851
000130 80 39 83 3e 28 00 35 be 5b be 35 3e ec 50 8f 3e
       0.25629807 -0.17675841 0.17748396 0.27991426
000140 2e b5 e3 3d ee 7e 2d 3e a9 a6 3b bd 07 9e cb bd
       0.11118542 0.16942951 -0.045813236 -0.09942251
000150 ca 92 ce 3e 5f de c3 bd 76 f9 07 be 4c 06 a9 3e
       0.40346366 -0.09563898 -0.13278756 0.33012617
000160 45 c5 0a 3e ea 70 87 bd eb d5 0f bd b2 13 18 3e
       0.13551815 -0.066133335 -0.035116117 0.14851263
000170 14 23 89 be 0a c5 94 bd cf 5d b6 bd 1b 7d 63 3e
       -0.26784575 -0.07264145 -0.08904611 0.22215693
000180 6c c0 93 3c df 3e 04 bd c8 1f 16 3b 3b 5b 83 3e
       0.01803609 -0.03228652 0.0022907127 0.2565554
000190 c1 33 0b be f8 73 30 3e 13 b9 2b 3e 7d 37 ac bd
       -0.13593961 0.17231739 0.16769819 -0.08409021
0001a0 02 8b 17 3d c4 77 43 bb b3 fe 53 3c c2 ab 19 3e
       0.036997803 -0.0029826025 0.012939143 0.15006927
0001b0 c6 28 b2 bc ff 09 b7 bd 3e 3d 80 3d f9 e3 6c 3d
       -0.021747958 -0.089374535 0.06261681 0.0578346
0001c0 20 26 d9 bd 3f d2 1d bd 53 51 2d bd a0 0f 20 3e
       -0.10602975 -0.038530584 -0.042313885 0.1563096
0001d0 07 ce 5c 3e 39 64 87 be a4 69 db 3d d1 89 9b 3d
       0.21562968 -0.2644365 0.10713509 0.07594646
0001e0 2d 6e 26 3c 3c 6c a5 3e 97 ee ee bd 90 63 44 be
       0.010158104 0.3230914 -0.11666601 -0.19178605
0001f0 a3 3a aa 3c 2c ba af 3d ed 01 66 bd bf 5d e1 3c
       0.020779913 0.08580431 -0.05615418 0.027510522
000200 7a 5a 5e 3c 86 6e 47 3d 73 33 25 3d 6f ec 93 3d
       0.013571376 0.048689388 0.04033227 0.072228305
000210 70 3b 54 be 6e 0f 64 bd 6d c2 8b be 06 62 84 3c
       -0.20725799 -0.055678777 -0.27296773 0.016160022
000220 70 da 1b 3e 42 60 d3 bc 93 8b 94 3d d4 c8 b3 3d
       0.15220046 -0.025802735 0.07253184 0.08778539
000230 32 c1 3b be e9 ac 67 3e 88 e3 9e 3c d9 9b 5a be
       -0.18335417 0.22624554 0.019395605 -0.21348514
000240 25 99 da 3c 71 5c 82 bd 2a 69 78 be 80 29 46 bd
       0.026684353 -0.06365288 -0.24258867 -0.04837942
000250 28 ba 92 bd 83 80 13 be fd 21 bd bb 32 f0 e4 3d
       -0.07164413 -0.14404492 -0.005771874 0.11178626
000260 fa a9 b8 be b0 1a fe bd 15 65 6c be 25 4d 18 bd
       -0.36067182 -0.12407434 -0.23085435 -0.037182946
000270 f0 d2 90 3d 74 af 41 bd e4 02 a2 bd 57 6e 33 3e
       0.07071483 -0.047286466 -0.079107076 0.1752256
000280 a4 f2 0a 3e 36 09 f7 bd 00 b6 fe bd dc 38 28 3d
       0.13569123 -0.12062304 -0.124370575 0.04106985
000290 75 3a 1d 3e 82 21 35 3e 08 37 e4 3c 83 3e 8f ba
       0.15354331 0.17688563 0.027858272 -0.0010928664
0002a0 6f 64 90 3e 68 cf 82 3d 61 e4 9b bd 2d 51 0f be
       0.28201625 0.06387216 -0.07611919 -0.1399581
0002b0 09 c0 71 3c 85 b0 b3 bd 89 8b 14 3e db d8 b5 3e
       0.014755257 -0.08773903 0.14506353 0.3551701
0002c0 49 e5 9b 3d 59 d3 7c 3d 7b e1 ae 3e e8 65 0a 3e
       0.07612092 0.061724994 0.34156403 0.13515437
0002d0 11 80 28 be 67 0d 3a bd 0c e2 29 bd d6 19 75 bd
       -0.16455103 -0.045422938 -0.04147534 -0.059839092
0002e0 7f ff 0a 3e c6 c3 0f be 7b ef ab bc d5 5b 9b 3d
       0.13574027 -0.14039525 -0.020988217 0.07585875
0002f0 41 80 ee 3c 6f d4 42 bd 6d 08 ee 3b 76 24 73 3c
       0.02911389 -0.047565874 0.007264188 0.014840236
000300 9f cd 35 be 22 f5 09 be 3f 76 5e 3d 1e 44 82 bc
       -0.1775422 -0.13472417 0.054311987 -0.015901621
000310 89 f0 7e 3d 99 9c c3 3d 7c 79 a1 bd ae 58 4f 3c
       0.06224111 0.09551353 -0.078844994 0.01265542
000320 43 a5 1b be 43 ea ca 3c 84 3e 10 3e f9 6b 67 3d
       -0.15199761 0.024769908 0.14086348 0.056499455
000330 3b 79 77 3e 14 18 65 3e 30 f8 16 3d c6 7f a5 3d
       0.2416734 0.22372466 0.036857784 0.080810115
000340 c6 55 59 3e fa 30 7d bd a9 0b d1 3b 1a e5 97 3e
       0.21224126 -0.061814286 0.006379564 0.29666978
000350 82 22 1e be 42 5a 95 3c 77 ea 34 3d 6e fa 98 be
       -0.15442851 0.018231515 0.044168916 -0.29878563
000360 a0 c6 5f be 19 dd 3c 3d 9c 78 a1 be 88 28 0c be
       -0.21853113 0.046109293 -0.3153733 -0.13687336
000370 06 6d cf bd 12 8d 8e 3e 58 24 6d bd ba 7c ad bd
       -0.101282164 0.27842003 -0.05789599 -0.08471055
000380 fa 9a 40 bd ce 58 70 be ad c7 83 bd f7 5c 15 bc
       -0.047022797 -0.23471376 -0.064345695 -0.009116403
000390 b7 20 de bd 07 fc 00 be 70 1f d8 bc 5a 58 8f be
       -0.108460836 -0.12596141 -0.026382178 -0.27997094
0003a0 1b 21 53 3d b8 85 d6 bc 91 d5 93 3e 92 e6 c5 3e
       0.051545244 -0.026186809 0.28873876 0.38652474
0003b0 94 bc ad 3e ec 4d 03 3e ee ba 90 3e 12 12 15 3e
       0.33932936 0.12822694 0.28267616 0.14557675
0003c0 57 00 8f 3e 9a 2b 33 bd ac eb 32 bc 6a b6 dc 3b
       0.27929947 -0.043742754 -0.010920446 0.0067356126
0003d0 66 3f d3 3d e5 7c 05 3e 80 b4 59 3c 8f a0 9d 3e
       0.10314827 0.13035925 0.013287663 0.3078656
0003e0 cf d2 8b 3e 1e e5 e7 3d 10 2c d7 3d f5 8a 14 3c
       0.27309272 0.113229975 0.10506451 0.009066333
0003f0 c0 32 36 be 5d 83 1f 3d c7 58 94 3d 42 c5 d9 bd
       -0.17792797 0.038943637 0.072434954 -0.10633327

lstm.weight_hh_l0 f4 [160, 40]
000000 80 a2 5d bb 78 ab dc bc 40 51 37 bd a6 f0 7b bd
       -0.0033818781 -0.026937231 -0.04475522 -0.061508797
000010 40 85 62 bb aa d1 3c bd ba 4f 8c 3d 00 00 ad 3b
       -0.0034564286 -0.04609839 0.06851144 0.005279541
000020 80 29 26 bb b8 f2 c8 bc 04 fe 58 3d 10 e1 97 3c
       -0.0025354326 -0.0245298 0.052976623 0.018539935
000030 95 a4 01 be 4b 76 08 be 56 de bf bd e1 45 b8 bd
       -0.1266044 -0.13326375 -0.09368579 -0.08997703
000040 e2 60 d7 bd 64 7b 13 be 0a 05 fd 3d 4e d4 00 be
       -0.10516526 -0.14402539 0.12354477 -0.12580988
000050 0c d7 6a bd 52 0b f5 3d 00 70 88 bb c0 4e 04 bb
       -0.05733399 0.1196505 -0.004163742 -0.002018854
000060 83 8a f2 bd bb c3 0c be 4d 08 16 3e 06 4c db 3d
       -0.11842825 -0.1374654 0.14651604 0.1070786
000070 0a 57 1f be b0 e4 7d 3c d8 b3 8c bd 1f e8 07 3e
       -0.15560547 0.015496418 -0.0687024 0.13272141
000080 d2 5f e4 3d 10 48 15 bc 46 42 2f bd e8 e1 21 bd
       0.11151089 -0.009111419 -0.042787813 -0.03952208
000090 b5 7b 00 3e ea 27 b0 3d 34 1f 01 bd d4 bc dd bd
       0.1254719 0.08601363 -0.0315239 -0.10827032
0000a0 da a2 aa bd fa c1 c0 3d 13 d0 04 3e e8 3f 59 3d
       -0.08331843 0.09411998 0.12969999 0.05303946
0000b0 77 13 0a 3e 20 86 a7 3c 12 0d 66 bd f3 e7 85 bd
       0.13483988 0.020449698 -0.05616481 -0.065383814
0000c0 60 e1 bc bc 44 71 57 3d 0c fb 25 bd ff bc 06 3e
       -0.023056686 0.052598253 -0.04052262 0.13158034
0000d0 20 d6 e8 bc 94 21 91 3d b8 34 20 be f2 8a 0e be
       -0.028422415 0.07086483 -0.1564511 -0.13920191
0000e0 80 ba f4 bc 21 ee 00 be 68 e1 27 bd 8b c0 f8 bd
       -0.029874086 -0.12590839 -0.04098645 -0.121461
0000f0 58 a0 99 bc 82 85 ae 3d c0 85 0c bc cb a1 f5 bd
       -0.018753216 0.08521558 -0.00857681 -0.1199375
000100 80 d2 86 3d 7c 56 03 3d ac 5c b7 bd 46 92 cb bd
       0.065831184 0.0320649 -0.08953223 -0.09940009
000110 4a f1 f9 bd 1a fd 18 be 08 a9 5a 3d 10 51 07 bc
       -0.12204225 -0.149403 0.053383857 -0.008259073
000120 94 21 55 3d 40 3d 92 3b a2 0e 92 bd 2a 14 b5 3d
       0.052033976 0.004462868 -0.07131697 0.088417366
000130 c2 b3 ce bd 34 ff e3 bd 10 aa 44 3c 2d 98 a6 bd
       -0.1009288 -0.111326605 0.012003437 -0.08134494
000140 48 2d e0 3c c6 aa e1 bd 34 09 b3 bd 9c 0d 6d 3d
       0.027365342 -0.110189006 -0.0874199 0.057874307
000150 c5 13 13 3e d2 a7 07 be b0 ba 41 bc 32 6d cf bd
       0.1436301 -0.13247612 -0.011824295 -0.10128249
000160 c0 f2 ef 3b 4a 62 e7 3d 1c a8 47 bd 88 35 cc bd
       0.007322639 0.11298044 -0.048744306 -0.09971148
000170 72 ce cc bd 52 88 8f bd f8 a8 38 3d b2 f1 0d bd
       -0.10000314 -0.07008423 0.045083016 -0.034654327
000180 c8 a0 9e 3d 6d 1d 1e 3e d7 9b 07 be 90 de b3 3c
       0.0774551 0.15440913 -0.13243042 0.021956712
000190 39 e4 df bd 54 49 02 bd 00 e0 98 3c 22 58 97 3d
       -0.10932202 -0.031808212 0.018661499 0.07389857
0001a0 2b ca 0b 3e 88 65 3e 3d 48 32 90 3c 60 84 f8 3c
       0.1365134 0.046483546 0.017602101 0.030336559
0001b0 c0 48 8a bd 60 20 dd bc 68 b7 23 bd e8 7b 00 be
       -0.06752157 -0.026992977 -0.03996983 -0.12547266
0001c0 30 b4 1a bc e8 9f 02 3d c1 92 a3 bd a4 90 03 be
       -0.009442374 0.03189078 -0.079869755 -0.12848145
0001d0 28 65 31 bd 08 e4 7d bd 40 ea 57 3c 0c 2b 3b bd
       -0.04330936 -0.061985046 0.013178408 -0.04569535
0001e0 62 c0 f5 3d 3a 86 92 bd fa 0a 10 be 96 13 81 bd
       0.11999585 -0.07154508 -0.14066687 -0.06302564
0001f0 06 4e e6 3d e0 10 6a 3d 20 23 ca 3c 05 d1 1a 3e
       0.112453505 0.057145 0.024674952 0.15118797
000200 da 89 82 3d 1e 17 e7 bd 3d 66 04 3e 28 f1 6a 3d
       0.06373949 -0.11283706 0.12929626 0.05735889
000210 00 c5 98 3a a7 f6 03 be 2c 19 a1 bd 60 ee 31 3c
       0.001165539 -0.12887059 -0.07866129 0.010860056
000220 95 30 f0 bd cb 19 b9 bd b6 d0 f3 bd 5c 00 35 3d
       -0.11728016 -0.09038123 -0.11905043 0.044189796
000230 0e c5 ea bd 70 4a d7 bd d6 bc d4 3d be a4 76 bd
       -0.114633664 -0.10512245 0.1038758 -0.060215704
000240 57 58 ad bd c8 71 05 3d 80 d0 1f bc 20 b9 f7 bb
       -0.08464115 0.032579213 -0.0097543 -0.0075599104
000250 17 47 1c be d4 8a 92 3d e4 f7 58 3d 78 42 95 3c
       -0.15261494 0.071553856 0.052970782 0.018220171
000260 40 55 6a bb b8 3a 18 3d 57 e2 05 3e 80 f5 72 3c
       -0.003575638 0.037165374 0.13074623 0.01482904
000270 ba 38 c2 bd 30 ad 7a bd f6 b6 93 bd 92 47 c5 bd
       -0.09483476 -0.06120032 -0.072126314 -0.096327916
000280 93 1f f8 bd ba 2d a8 3d 50 ef 05 3d 87 20 0c 3e
       -0.12115397 0.08211847 0.03269893 0.13684283
000290 44 38 ba bd ae 4f 07 be 54 d5 14 be 70 65 9a bc
       -0.09092763 -0.13213989 -0.14534503 -0.018847197
0002a0 ed ac 0e 3e c2 65 89 3d 46 91 da 3d 38 df 9b bd
       0.13933153 0.06708862 0.1067224 -0.07610935
0002b0 80 84 66 bc a0 15 b5 bd 28 34 d9 bd 4b 4a 89 bd
       -0.014069676 -0.08842015 -0.10605651 -0.067036234
0002c0 58 d1 df bc 36 18 fa 3d cf 5d 1c be 64 9f 26 3d
       -0.027321503 0.12211649 -0.1527016 0.04067935
0002d0 3c ed 1a 3d 03 4d a1 bd 82 67 bd 3d 66 11 da 3d
       0.0378239 -0.07876017 0.09248258 0.1064785
0002e0 80 54 5c 3d 80 e3 08 3b cc 69 0d be 89 2b 05 3e
       0.053791523 0.0020887554 -0.1380989 0.13004889
0002f0 4a 76 ce 3d a6 fd ba bd 8f 96 08 be f0 60 79 bc
       0.100811556 -0.09130411 -0.13338684 -0.015220866
000300 58 ab e3 bd d9 0b 15 3e 92 79 fc 3d e0 ad a7 3c
       -0.111166656 0.14555301 0.12327875 0.020468652
000310 ea 4b 0b bd 5e 2f 8f 3d 63 b5 02 3e a5 f6 0f 3e
       -0.034007944 0.069914564 0.12764506 0.14058931
000320 f4 99 26 3d 5e 1a f1 3d 70 59 6b 3c 38 c5 1f 3d
       0.040674165 0.11772607 0.014364585 0.03900644
000330 e0 66 22 3d 80 bf 73 3d 8a ed 29 bd 9b 23 0c 3e
       0.03964889 0.0595088 -0.0414863 0.13685457
000340 f0 45 20 3c b0 3e 68 bc e0 11 db 3c 2d ee 15 be
       0.009782299 -0.014175102 0.026741922 -0.14641638
000350 c8 f3 6c 3d 3e dc 94 bd a8 68 a4 bc 39 e3 86 bd
       0.057849675 -0.0726857 -0.020069435 -0.06586308
000360 08 62 a9 3d 9c 35 68 3d 7f 45 21 3e 16 8e f2 bd
       0.08270651 0.05669175 0.15749167 -0.11843507
000370 a9 72 08 3e 90 5d 30 3c fa f9 ea 3d 74 4e 2a 3d
       0.1332499 0.010764495 0.114734605 0.041578725
000380 00 ef f1 3c 5e ca 18 be ac 56 88 3d f0 4b 63 bc
       0.02953291 -0.14920947 0.06657156 -0.013873085
000390 04 9b 81 3d f0 d6 33 3c fd 89 bd bd 86 df f4 3d
       0.06328395 0.010976538 -0.09254835 0.11956696
0003a0 f8 aa 08 be c0 6f 9d 3d b8 0d 68 bd 85 0b 18 3e
       -0.1334647 0.0768733 -0.05665371 0.14848144
0003b0 92 8b bd 3d 80 d9 35 bb 8a e7 a6 3d 30 ad 69 3d
       0.092551365 -0.0027748048 0.08149631 0.05704993
0003c0 bc e8 01 be 40 0c 74 3d 79 a1 99 bd a0 ea 45 3c
       -0.12686437 0.059581995 -0.075015016 0.012079865
0003d0 74 bf f6 bd d3 85 0c be 82 57 d2 bd d8 07 cf bd
       -0.120482355 -0.13722925 -0.10270597 -0.10108918
0003e0 42 3d 8a bd e0 cc 5e bc e4 84 ba bd ed 01 b4 bd
       -0.06749965 -0.013598651 -0.09107378 -0.0878943
0003f0 10 a2 30 bc c2 07 3c bd ea f3 af 3d be c4 dd 3d
       -0.010780826 -0.045905836 0.08591445 0.10828541

lstm.bias_ih_l0 f4 [160]
000000 47 46 6c 3e 92 cb 64 3e e5 e2 a7 3e 3f 04 9c 3e
       0.23073684 0.22343281 0.32790294 0.3047199
000010 64 d8 32 3e dd b1 8b 3e 3b c5 d1 3e 87 83 3f 3e
       0.17465359 0.27284136 0.40970787 0.18702517
000020 57 91 98 3e 74 d4 9a 3e 54 b4 0a 3e 77 44 91 3e
       0.29798386 0.30240214 0.13545352 0.28372547
000030 e5 b0 4e 3e 61 48 a4 3e d7 fd 6a 3d cb 83 95 3e
       0.20184667 0.3208647 0.057370987 0.29202113
000040 0f 53 6a 3e 97 d2 7f 3e 08 70 bb 3d a4 37 b3 3e
       0.22883247 0.24982677 0.09152228 0.35003388
000050 d1 13 4d 3e 83 90 6f 3e 3d 8b 57 3d ce 05 8e 3e
       0.2002709 0.2339497 0.052623022 0.27738804
000060 d9 8e c9 3d 95 76 73 3e 93 fe 06 3e 4e 19 90 3e
       0.09841699 0.23775704 0.1318305 0.28144306
000070 89 d6 0d 3f 61 06 81 3e 22 a2 5b 3d e6 17 94 3e
       0.5540548 0.2520018 0.05362142 0.28924483
000080 ed fb 92 3e 10 fa f7 3e 99 bd a5 3e 52 44 b0 3e
       0.2870783 0.4843297 0.32371214 0.34427124
000090 66 6f 6c 3e 4a 4b a8 3e a5 45 fb 3c bd c7 a7 3e
       0.2308937 0.3286994 0.030672858 0.32769576
0000a0 a8 8f 29 bd a6 66 98 3d a2 6d 24 bd 81 b8 09 3e
       -0.041396767 0.07441454 -0.040143616 0.13449289
0000b0 ca de ec 3d f8 4c 8e 3c 58 7a 08 bd 70 69 b8 bc
       0.11565931 0.017370686 -0.0333198 -0.022511214
0000c0 aa 23 11 be 06 fa 85 bd c8 f5 a4 bc 8e 5c 3a bd
       -0.14173761 -0.06541829 -0.020136729 -0.045498423
0000d0 b4 bb 88 3d 40 6e 29 bc 3a 7b f0 3d c0 0c 35 3b
       0.066764265 -0.010341227 0.117422536 0.0027626008
0000e0 c8 75 99 3c d6 6a a4 bd a2 f9 5c bd e3 79 04 3e
       0.01873292 -0.0802819 -0.053949006 0.12937121
0000f0 48 b0 81 3c 30 bf d1 bd a8 56 a7 3d ba e9 f5 3d
       0.015831128 -0.10241544 0.08170825 0.120074704
000100 a4 64 67 3d 80 62 d0 3a 8c d0 01 bd 8d bd 0c 3e
       0.056492463 0.0015898496 -0.031693026 0.13744183
000110 e9 9d 13 3e 4c 4a 08 be 7a fc 25 bd 78 24 e4 bd
       0.14415707 -0.13309592 -0.040523984 -0.11139768
000120 3c 69 d1 bd 3e 0e ac 3d 20 6c f2 bd c0 e9 54 bd
       -0.1022515 0.08401154 -0.118370295 -0.051980734
000130 1a 28 cc 3d f6 f3 43 bd a8 17 d8 3c ae ae 8b 3d
       0.09968586 -0.04784008 0.026378468 0.06820427
000140 af 58 55 3e 4a fb f7 bd 3f 56 aa bd cb 79 7a 3b
       0.20834611 -0.121084765 -0.083172314 0.0038219567
000150 7c 6c f2 3c fb 9b 82 be 29 7d fb 3d b3 f6 af bd
       0.029592745 -0.2550963 0.12279732 -0.08591976
000160 c1 7d 4f be 35 d5 92 bd 1f 25 a8 bd e4 28 91 3d
       -0.20262815 -0.07169572 -0.08210205 0.070878774
000170 22 cd cd 3d 40 d2 ca bc 72 01 90 bd 2e fc 31 be
       0.100488916 -0.024758458 -0.07031526 -0.17381355
000180 3e f2 b9 3d 2a ee 9e bd 90 0e 34 be 10 df 28 3e
       0.09079407 -0.0776027 -0.1758368 0.16491342
000190 9d 96 a6 3d 8a 95 98 3c c7 c5 62 bc 95 35 f1 3d
       0.08134196 0.018625993 -0.013841099 0.11777798
0001a0 e2 c2 7d 3e de 2b d0 bd e6 c0 cb 3d a8 5e 62 3e
       0.24781373 -0.10164617 0.09948902 0.22106421
0001b0 1e c9 9a 3d f0 77 21 be 44 99 37 3d 6d cc 2d bd
       0.07557891 -0.15768409 0.0448239 -0.042431284
0001c0 f8 47 38 be 1c 93 d8 3d 58 71 84 bd 1f f8 81 be
       -0.17996204 0.10574934 -0.06466931 -0.25384614
0001d0 7d 43 12 3e df d7 2e 3e 04 45 87 3e 7d ba 3f bd
       0.14283557 0.17074536 0.26419842 -0.04680871
0001e0 5c a3 b7 3e c9 2f 75 3e ae a1 6b 3e 0e 58 25 3e
       0.3586682 0.2394401 0.23010895 0.16146871
0001f0 3e 0e 9d 3d 41 87 98 3e ec 1f b8 3e fa be a4 3e
       0.07668732 0.2979069 0.35961854 0.32176954
000200 d0 e6 14 3e c4 fa 8a 3d 8a f4 8d 3e e4 1c b5 3e
       0.14541173 0.06786111 0.2772563 0.35373604
000210 01 96 f1 3d 9d 49 9a 3e 05 2d 3e 3e a2 c7 49 3d
       0.11796189 0.30134287 0.18571861 0.04926265
000220 d8 ab 9d 3e 62 78 4e 3e 2a 9e e8 3d 34 a0 8c 3e
       0.3079517 0.2016311 0.113582924 0.27465975
000230 3e 5b c7 3e 85 93 02 3e 2c db 7b 3e 4b 7e d3 3e
       0.389368 0.12751587 0.24595326 0.4130729
000240 66 9a 0b 3e e3 7e 28 3e ad 19 9a 3e ad 97 bd 3e
       0.13633117 0.16454653 0.30097714 0.37029782
000250 d4 3c b8 3e c8 98 91 3e ef 1b 91 3e af 03 74 3e
       0.35983908 0.28436875 0.28341624 0.2382953
000260 14 03 84 3e 46 da d3 3e 5a 7d e1 3c 80 43 eb 3e
       0.25783598 0.41377467 0.027525593 0.45949936
000270 46 ce 8d 3d a7 2f a4 3e 01 81 09 3e fd 14 a0 3d
       0.06924109 0.32067606 0.13428117 0.07816503

lstm.bias_hh_l0 f4 [160]
000000 0d 00 ae 3e 04 f6 64 3e be b3 78 3e bd e8 51 3e
       0.33984414 0.22359473 0.24287316 0.20498939
000010 3e a9 7b 3e b5 50 84 3e a0 9e 82 3e e0 0a e2 3d
       0.2457628 0.25842825 0.25511646 0.110372305
000020 04 4b 1c 3e 73 1c 78 3e 3c 69 b9 3e 07 c2 92 3e
       0.15262991 0.24229603 0.362131 0.28663656
000030 5b a6 67 3e 71 2a 5b 3e 93 04 53 3e 3f 13 ca 3c
       0.22622053 0.21402909 0.20607214 0.02466738
000040 de 5b b4 3e 90 18 51 3e 21 ad 60 bd 6a b1 81 3e
       0.3522634 0.20419526 -0.05485261 0.2533067
000050 8c 7c b0 3e 33 84 42 3e 41 e9 16 3e ba 7f c3 3e
       0.34470022 0.18995742 0.14737417 0.38183385
000060 51 9c 51 3e ee fc b5 3e 76 df ff 3d 5f 5b 86 3e
       0.20469786 0.35544533 0.12493794 0.26241586
000070 f2 45 cb 3e f2 0a ef 3d 7f f0 8c 3e ea 11 c2 3e
       0.39701802 0.116720095 0.27527234 0.37904292
000080 88 53 59 3e 07 e7 ff 3e 6d 4f ae 3d da 41 ce 3e
       0.21223271 0.49980947 0.08511243 0.40284616
000090 98 b6 8f 3e 0a 2c c9 3e d5 dc a5 3d 61 52 2b 3e
       0.28068995 0.39291412 0.08098761 0.16730644
0000a0 4e 20 e7 3d 02 b8 ee 3d 96 78 0c be 14 59 03 3d
       0.112854585 0.116561905 -0.13717875 0.032067373
0000b0 02 2e a8 3d 80 13 3d 3d 8e 68 c8 3d 2a 95 be 3d
       0.082119 0.046161175 0.09785567 0.093057945
0000c0 07 3f 04 be 62 ec 03 be 8e 80 b6 3d c3 9e ad bd
       -0.12914668 -0.12883142 0.089112386 -0.08477547
0000d0 20 9f f8 bc 58 da 06 be 29 b5 99 bd 4c 94 78 3d
       -0.030349314 -0.13169229 -0.07505257 0.060688302
0000e0 0f 96 04 be f0 4c 28 bc ef 74 82 bd 0b 7b 01 3e
       -0.12947868 -0.01027225 -0.063699596 0.12644593
0000f0 20 8c 9f bc ac b5 18 3d 20 3b 58 3c aa 2d 07 be
       -0.019475996 0.03728263 0.01319769 -0.13201013
000100 52 ce 25 bd 85 31 c3 bd 90 a8 a2 3d c0 95 33 3c
       -0.040479966 -0.095309295 0.07942307 0.010960996
000110 78 ec d2 3c a6 05 a2 bd 49 5f 1a 3e 30 52 0a 3c
       0.025747523 -0.079112336 0.15075411 0.008442447
000120 00 60 3e 3a 2b dd 08 3e 4f 39 15 3e 08 9a ad 3c
       0.000726223 0.13365619 0.14572643 0.021191612
000130 00 9e b3 3d 80 c6 e5 3c ff ee 08 3e 68 6d c8 bc
       0.087703705 0.028048754 0.1337242 -0.024466231
000140 42 41 6f ba 54 10 2a be cc 06 07 39 71 9d ff bd
       -0.00091268506 -0.16607791 0.00012877135 -0.124812014
000150 e1 94 00 be d5 b5 33 be e1 4a 7f 3b c6 1a 34 3d
       -0.12556793 -0.17549832 0.0038954543 0.043970846
000160 35 7f f7 bd 13 64 8f bd 96 66 74 be 22 03 63 be
       -0.1208481 -0.070015095 -0.23867258 -0.22169164
000170 0b 74 1e 3d 89 22 5b be 2f e0 05 3d ec ec 2d be
       0.038684886 -0.21399893 0.0326845 -0.1698491
000180 ea 3b 8e 3c f5 29 71 3d c5 18 7c be 5a 3a be bb
       0.017362554 0.058877904 -0.24618824 -0.005805296
000190 60 b5 2b 3e f5 cf 5f be 8e 5f e2 bc a7 6c 02 3e
       0.16768408 -0.21856673 -0.027633455 0.1273676
0001a0 67 cc 02 3e 2d 18 9e 3d af 6d 03 3e f3 8c 5b 3d
       0.12773286 0.07719455 0.1283481 0.053601217
0001b0 02 4c 40 3e cc 4f 37 bd 71 74 4e 3e 3b b8 22 3c
       0.18778995 -0.044753835 0.20161606 0.009931619
0001c0 d2 a7 db bd e1 d5 40 3e cb ff 16 be c5 c7 52 be
       -0.107253686 0.18831588 -0.14746015 -0.20584019
0001d0 f4 4c 96 3d 09 33 03 3e 41 a2 2a 3e 4f d2 a2 bd
       0.073388964 0.12812437 0.16663457 -0.079502694
0001e0 56 66 d8 3e d5 f0 ae 3e f3 fc 98 3d 60 2b df 3e
       0.42265576 0.34168115 0.07470121 0.4358778
0001f0 b3 aa b7 3e d1 69 95 3e 04 56 92 3e 9c e6 3d 3e
       0.3587242 0.29182294 0.2858125 0.18545002
000200 db 26 09 3e e3 37 a6 3d 48 c7 b9 3e 31 c4 8a 3d
       0.13393728 0.08116128 0.36284852 0.06775702
000210 64 a6 93 3e 27 50 5c 3e cb cd eb 3d 1c 30 2d 3d
       0.28837883 0.2151495 0.11513861 0.04228221
000220 4b 00 68 3e 08 ba 12 3e 65 54 59 3e b2 56 be 3e
       0.22656362 0.14328778 0.212236 0.37175518
000230 ac b8 a0 3e a2 d7 01 3e a6 46 07 3e b1 fd f7 3e
       0.31390893 0.12679914 0.13210544 0.4843574
000240 68 49 e5 3d 6f 87 12 3e 64 1d 6d 3e 01 69 83 3e
       0.11195642 0.14309476 0.23155743 0.2566605
000250 b0 37 d5 3e 8d 3e 42 3e 4e e6 a2 3e 14 5d 9a 3e
       0.4164405 0.18969174 0.31816334 0.30149138
000260 1a 0a a4 3e c0 21 f9 3e 9e 27 17 3e de 62 a5 3e
       0.32038957 0.48658562 0.14761207 0.32301992
000270 58 2b b6 3d 72 93 1d 3e 77 5f d3 3d 74 df 9a 3d
       0.08894986 0.15388277 0.10320943 0.075621516

lstm.weight_ih_l1 f4 [160, 40]
000000 28 68 82 3e 00 ec 80 be d8 f4 6e be 6b e1 f4 3d
       0.2547009 -0.25180054 -0.23335588 0.119570576
000010 7c d6 58 be 6c f6 89 be ba b1 22 3e a7 04 8a bc
       -0.2117557 -0.26945817 0.1588811 -0.016847922
000020 7d 3f ea bd 93 d3 de be a8 fd 96 be 76 7d 3e be
       -0.11437891 -0.43520793 -0.294904 -0.18602547
000030 6c dc 49 3e 75 a1 c4 be 1c 38 b2 bc 50 c2 50 be
       0.1971299 -0.38404432 -0.02175527 -0.20386624
000040 be a3 ab bd 15 3b b7 3b 63 b6 37 be b3 9f 31 3d
       -0.08380841 0.00559176 -0.17940669 0.04336519
000050 cf 64 37 3e 69 cc 7f bd ae 74 ca bd a5 d4 52 3e
       0.17909549 -0.0624508 -0.09885536 0.2058893
000060 3e 0f ee 3e d7 82 15 3d e8 f1 fa 3d b7 3b 81 3e
       0.46496004 0.03650173 0.12253171 0.2524087
000070 fe 37 f3 3d 26 41 aa be 5d 8d b9 3d 40 57 4f be
       0.11875914 -0.3325283 0.09060166 -0.20248127
000080 02 83 70 be 86 d0 09 3d f4 48 7e bd 77 27 84 be
       -0.23487476 0.03364613 -0.062081292 -0.2581136
000090 67 a7 8d 3e e6 e7 a3 3d e2 8c c3 3e 5b 9c 9f be
       0.2766678 0.080032155 0.38193423 -0.31173977
0000a0 1f ba 10 3e 3b af dc 3d bf 85 95 3d 27 02 cd 3d
       0.141335 0.1077561 0.07300901 0.10010176
0000b0 f8 9c f2 bd b1 07 41 be 8a bd 80 be 40 1c 58 bd
       -0.11846346 -0.1885059 -0.25144607 -0.052761316
0000c0 38 04 fb bb 0e 72 25 bd 42 7e fe bd 7a e9 da bd
       -0.007660415 -0.040391974 -0.124264255 -0.10689063
0000d0 40 aa 47 bd d8 2d 7d be 0c fa 45 be a4 47 22 be
       -0.048746347 -0.24724519 -0.19333667 -0.15847641
0000e0 1d 84 bd 3d 78 6c 4c 3d ab b2 77 3c ea 5e 01 be
       0.09253714 0.04990813 0.015118281 -0.12633863
0000f0 18 95 60 3c 80 d2 7a bd cf f6 fe 3d b9 f8 6e 3e
       0.013707422 -0.061235905 0.12449419 0.23337068
000100 9c 01 57 3d 5c 08 f7 3d a7 9b fe 3d 3a f2 32 3e
       0.05249177 0.12062141 0.12432032 0.17475215
000110 f7 39 af 3d 78 21 81 be e3 b5 62 3a 74 73 a2 3d
       0.08555978 -0.25220847 0.0008648319 0.07932177
000120 b5 ba 86 bc 0f 24 76 bd 7f ab 1e be e2 a9 8a be
       -0.01644645 -0.060092982 -0.15495108 -0.27082735
000130 c6 e7 6c 3e 24 63 5e 3d 24 22 a2 3e c8 bc 80 bd
       0.2313529 0.054293767 0.31666672 -0.06286007
000140 6e dd 2a 3e 1f 7b 8c bd af e0 0d be 3b 2e 91 3d
       0.16686031 -0.06859421 -0.13855241 0.07088896
000150 f6 c4 67 be 1c e3 12 bf a8 c6 69 3d 49 b7 81 be
       -0.22633728 -0.5737779 0.05707422 -0.25335148
000160 1e 81 dc bd cc 8c 8b be 47 5e 71 be 15 d9 b8 bd
       -0.10766815 -0.27255857 -0.2357112 -0.0902578
000170 f5 36 15 bd 1d 0a 8d be 55 a3 8c 3d a6 a3 f0 bd
       -0.036429364 -0.27546778 0.068670906 -0.117499635
000180 f5 9e 9e be 23 aa 6d 3e 3e 11 ba bd 9c 78 f3 3c
       -0.3098065 0.23209433 -0.0908532 0.029720597
000190 72 ba d5 3d 56 3d b7 bd 28 50 94 3d 1a ff 96 3e
       0.10435952 -0.08947246 0.07241851 0.29491502
0001a0 53 35 be 3e 7f ed 84 3e 5b 30 ef 3d bd 9e 86 3e
       0.37150058 0.25962445 0.11679145 0.26292983
0001b0 97 8a fd 3d 46 69 6a be 01 5a 84 3e cc fe c5 bd
       0.123799495 -0.22891721 0.25849918 -0.09667739
0001c0 3f 3a 6c be 39 b9 e8 3d 4f 55 d8 bd 64 04 08 bf
       -0.23069094 0.113634534 -0.10563146 -0.531317
0001d0 b2 83 be 3e 7b 7d 8b 3e 63 bf 3b 3e 5e b9 45 be
       0.3720985 0.27244172 0.18334727 -0.19308993
0001e0 41 38 7b 3e ef 51 fd bd 54 c1 41 bd 03 12 8b be
       0.24533178 -0.12369143 -0.047303513 -0.2716218
0001f0 b8 f0 6b be 0d 62 31 bf 73 28 19 3d 24 53 21 be
       -0.23041046 -0.6929024 0.03739209 -0.15754372
000200 1c 05 ab be ae 1c 0c bc 87 bb 1b bd f3 2d 9f bd
       -0.33402336 -0.00855176 -0.038020637 -0.07772436
000210 48 48 78 bc 68 d1 80 be f1 f2 05 3e 50 c9 8f 3d
       -0.015153952 -0.25159764 0.13080956 0.07020819
000220 11 2d 87 3d 8c b2 1f 3d 24 21 08 bd 7f 2a b9 bd
       0.066003926 0.038988635 -0.03323473 -0.090413086
000230 a3 94 db 3d e7 2a 22 be 0e 8c af 3d 68 6e 0f 3f
       0.107217096 -0.15836678 0.08571635 0.5602784
000240 3d 81 96 3d 01 0a 02 be 18 62 46 3d 43 6f 6f 3d
       0.07348869 -0.12699129 0.048433393 0.058455717
000250 b7 da 4e 3e 8f 47 42 be b8 be de 3d 1f 98 d7 3d
       0.2020062 -0.1897261 0.108762205 0.10527062
000260 4f b1 5a 3d a0 22 0d 3e f8 54 2c be cd 8f fc be
       0.05339175 0.1378274 -0.16829288 -0.4932846
000270 be 3e a8 3e 60 6b 5a 3c 47 2a be 3e 62 42 59 bd
       0.32860368 0.013331264 0.3714163 -0.053041823
000280 b6 40 ea 3c e7 cc 89 bb 05 dc 18 3e 3a d4 97 be
       0.02859531 -0.0042053345 0.14927681 -0.29654104
000290 3c ce e4 3b 20 d6 35 bf bd d8 31 be 43 f3 94 3d
       0.006982593 -0.71029854 -0.17367835 0.07272961
0002a0 c8 ed 51 be 4d ad 1a 3e 31 34 09 3c 06 c4 f5 3d
       -0.20500863 0.15105172 0.00837426 0.12000279
0002b0 93 ac b6 bb ee 3f b9 3d 26 fd 6f be 90 83 07 3e
       -0.0055747717 0.09045397 -0.23436412 0.13233781
0002c0 5b 0d dd 3d 41 76 a5 bd f6 b6 55 be 9f 1e 4f 3d
       0.10793563 -0.08079196 -0.20870575 0.050566312
0002d0 e4 36 5c 3e f6 46 93 3d 85 53 27 bd 2f da 0b 3f
       0.21505314 0.07191269 -0.040851135 0.54629797
0002e0 8c 0e 1a 3d 91 0e 0e 3c 05 d8 15 be ce 31 54 be
       0.03761153 0.008670465 -0.14633186 -0.20722124
0002f0 46 2e ab 3e ae ad 13 be 70 c2 a1 3d 54 3c 0f bd
       0.3343374 -0.14421722 0.07898414 -0.034969643
000300 fe bb eb 3d 29 bf 0e 3c 70 37 22 3e a3 00 5c bf
       0.11510466 0.008712568 0.1584146 -0.8593847
000310 e1 c3 4b 3c b0 5c 57 be c5 e8 0a 3e fd b9 44 3d
       0.012436838 -0.21031451 0.13565357 0.048028935
000320 ae 42 f9 3d 71 08 87 bd da 08 37 be d7 8f a2 be
       0.12170921 -0.06593407 -0.1787447 -0.31750366
000330 04 f3 33 be 75 be 31 bf b4 6c cd 3c fe 49 fc bc
       -0.17573172 -0.6943124 0.025076248 -0.030797001
000340 26 89 87 be 8f 51 a2 bd 13 c4 b9 be 1a 9b fd bd
       -0.26471823 -0.07925712 -0.36282405 -0.12383099
000350 84 af fb 3d 1e 30 0b be 1b 82 80 3d d2 82 c9 bd
       0.12289336 -0.13592574 0.06274816 -0.09839405
000360 a2 e3 09 bd b5 19 80 3e 34 01 92 be c4 ae 17 3d
       -0.033664353 0.25019613 -0.28516543 0.037031904
000370 f2 e7 c0 3e 59 ae 42 be 67 ba 9b bd d4 29 17 3f
       0.3767696 -0.19011821 -0.07603913 0.590482
000380 e1 39 54 3e 71 67 66 3d e3 2e 0b 3e a3 65 76 3e
       0.20725204 0.056250993 0.13592105 0.24062209
000390 41 de c1 3e d6 5b e7 be f2 8a 77 3e 0e c4 02 bd
       0.3786488 -0.45187253 0.24174097 -0.031925254
0003a0 4f 84 ed bd 9d 80 ae 3d 4c d1 a4 bd 98 06 f9 be
       -0.115975015 0.08520625 -0.08047733 -0.48637843
0003b0 22 ec d6 3d a0 5e 28 bc ff a0 83 3e 44 a8 27 3d
       0.104942575 -0.010276467 0.25708768 0.040931955
0003c0 95 35 94 3e 81 14 a0 be 67 e4 1b be 76 54 35 3e
       0.2894713 -0.31265643 -0.15223847 0.17708
0003d0 70 1b 5d be 9d b4 ab be e4 11 69 3e eb fc 15 3d
       -0.21592498 -0.33536234 0.22760731 0.036618154
0003e0 39 12 8e bd 80 da 32 be 38 36 aa 38 f9 00 8c bc
       -0.069370694 -0.17466164 8.116331e-05 -0.017090308
0003f0 19 82 08 3e 33 02 8a be a2 79 11 be ae 0d 7a be
       0.13330878 -0.26954803 -0.14206555 -0.24419281

lstm.weight_hh_l1 f4 [160, 40]
000000 70 eb 4d 3d 59 32 13 3e 40 27 7f 3b 97 46 11 3e
       0.05027336 0.14374675 0.0038933307 0.14187084
000010 e0 65 ae bc c8 fb fa bd cc 4c 32 3d 12 5c d2 3d
       -0.021288812 -0.12255055 0.04353027 0.10271467
000020 80 77 57 3b 20 65 b3 3c 62 25 10 be 9e cc a4 3d
       0.0032877624 0.021898806 -0.1407676 0.0804684
000030 60 14 f5 3c 60 f9 bc bb 34 dd 74 3d e8 66 1f 3d
       0.029916942 -0.0057670325 0.05978127 0.0389165
000040 00 1a 7c 3a 98 b0 dd bc 98 3e f7 bc bd 3d 9b bd
       0.00096169114 -0.027061746 -0.030181214 -0.07580135
000050 74 00 0e 3d 0f f9 0d 3e 90 8f 12 3c 87 28 cb bd
       0.0346684 0.1386454 0.008945361 -0.09919839
000060 f2 57 f2 bd c0 4d 0a 3b 4a de b6 bd e6 f0 da bd
       -0.118331805 0.0021103472 -0.08929117 -0.10690479
000070 e8 b2 05 be 34 dc 15 be 00 00 df ba ee 25 e3 bd
       -0.13056529 -0.14634782 -0.001701355 -0.11091219
000080 88 44 00 bd 37 64 8e bd b1 46 11 3e 2a 1e 2b bd
       -0.031315356 -0.06952708 0.14187123 -0.041776814
000090 f3 49 1f be 84 b0 8e bd 9c 9b 9a 3d 30 5b 6f bc
       -0.15555553 -0.069672614 0.075492114 -0.014609143
0000a0 f9 59 06 3e aa ac e9 3d 2a f9 93 3d 42 87 5d bd
       0.1312026 0.11409886 0.07225259 -0.05408407
0000b0 bf cb 1b 3e 45 b0 05 3e 52 f3 5b bd 55 f9 03 3e
       0.15214442 0.13055523 -0.053698845 0.12888081
0000c0 58 9b 98 bc b8 3c 8d bc 18 dc a4 3d 74 88 f6 bd
       -0.018628761 -0.017240867 0.08049792 -0.12037745
0000d0 60 c4 b8 3b 52 ad b5 3d 2f 04 1d be 5a 5a b1 3d
       0.005638644 0.08870949 -0.15333627 0.08659811
0000e0 00 58 7f 3a 3b 8b 04 be 4a c7 c9 3d c9 4b b6 bd
       0.0009740591 -0.12943737 0.098524645 -0.089011736
0000f0 88 b6 de 3c 32 92 cd 3d d8 3e fb bc 97 c9 0b be
       0.027186647 0.1003765 -0.030669615 -0.13651119
000100 2a 5e f7 bd d8 7b 10 3d 09 bf 07 3e 79 79 f5 bd
       -0.12078507 0.035274357 0.13256468 -0.1198606
000110 f0 b6 99 3d e6 65 4d bd 9e 6e 5d bd 20 88 a6 3d
       0.07505596 -0.050146006 -0.05406057 0.081314325
000120 e0 d4 21 3d f3 79 ca bd 60 3b 47 3d bf 32 d0 bd
       0.039509654 -0.09886541 0.04864061 -0.10165929
000130 44 6d 0f 3d fc 65 7e 3d 96 bd cb 3d 29 06 a3 bd
       0.035016313 0.06210898 0.0994827 -0.07960159
000140 8a 23 b5 bd 3a 61 ef 3d 60 6f f2 3c 1e 91 7d bd
       -0.08844669 0.11688466 0.029594123 -0.061905973
000150 18 0a fc bd 06 54 2f bd d2 da 53 bd 0a 03 ba bd
       -0.12306613 -0.04280474 -0.051722355 -0.09082611
000160 20 ca c1 3b a0 89 8a 3b 4a 2e d6 3d c8 ae b3 bc
       0.0059139878 0.004227832 0.10458048 -0.021933928
000170 a1 7f 1f 3e 34 56 17 be 1a ca 1c bd ed 79 0d be
       0.1557603 -0.14778978 -0.038278677 -0.13816042
000180 ad 73 0c 3e 4c eb a3 bd 00 64 6a 39 48 66 64 3d
       0.13716002 -0.08003864 0.00022353232 0.055761606
000190 86 85 e2 3d 36 b2 f7 3d 46 a4 c9 3d aa f1 c7 bd
       0.11060624 0.12094538 0.09845786 -0.09762891
0001a0 05 36 00 3e dd f3 08 3e 9e 7f c0 3d bb 0c 13 be
       0.12520607 0.13374276 0.09399341 -0.14360325
0001b0 47 47 0a 3e 88 e7 ce 3c 65 ce 1c 3e e6 51 0e be
       0.13503753 0.025256887 0.15313108 -0.1389843
0001c0 c9 6a 87 bd b1 4d 10 be 40 dd c5 3c a0 d7 e6 bc
       -0.066121645 -0.14092137 0.024153352 -0.02817899
0001d0 90 b9 2d bc b2 8c 29 bd 6a c2 9b bd b4 97 bb 3d
       -0.010603324 -0.041393943 -0.07605441 0.091597944
0001e0 70 ea da 3c ce c8 f9 3d 5a b4 cc 3d ae f1 98 bd
       0.026723117 0.121965036 0.09995337 -0.07467972
0001f0 2e ed d8 3d 10 c8 87 bc 4f 52 09 3e 70 40 b2 3d
       0.105921134 -0.01657489 0.13410304 0.08703697
000200 70 ac 63 3c 66 ae 80 3d 50 41 fe bc 00 92 48 3b
       0.013896093 0.06283264 -0.031037003 0.00306046
000210 d1 8c 1b 3e e0 04 a6 3d 60 6c a9 3d 00 9a e2 3a
       0.15190436 0.081063986 0.08272624 0.0017288327
000220 18 73 ec bc 0a 2b c1 3d 97 75 05 3e 80 97 89 ba
       -0.028863475 0.09432037 0.13033138 -0.0010497421
000230 98 55 fe bc 05 65 a3 bd 13 aa 03 be 26 7d b6 3d
       -0.031046674 -0.07978252 -0.12857847 0.08910589
000240 30 da dd bc 00 ce a5 bc 57 41 06 3e 2c d0 9d 3d
       -0.027081579 -0.02023983 0.13110863 0.07705721
000250 d2 bc b1 3d 3a e1 1d bd 03 03 b7 bd 00 7a cd bc
       0.08678593 -0.03854487 -0.08936121 -0.025082588
000260 58 db b3 3d 92 62 2b bd db e6 12 3e 9c 1e 82 3d
       0.08782071 -0.04184205 0.14345877 0.063534945
000270 9f 31 02 3e b0 e1 bc bd 50 e5 7d bd 26 75 1f bd
       0.12714241 -0.09222734 -0.061986268 -0.03893008
000280 64 c2 a7 3d 81 a8 a0 bd 18 c1 cf 3c a2 b6 0e be
       0.08191374 -0.078446396 0.025360629 -0.13936856
000290 9c c4 4d bd e6 50 17 be 78 1a 2f bd 6c 20 9e 3d
       -0.05023633 -0.14776954 -0.042749852 0.07721028
0002a0 ee f3 f5 3d c8 cc 46 3d 10 b7 b0 3c d2 fa c7 3d
       0.120094165 0.04853514 0.021571666 0.09764637
0002b0 78 18 fd bd 91 57 09 3e 86 f2 4a bd d4 63 18 be
       -0.12358183 0.1341231 -0.049547695 -0.14881831
0002c0 c0 70 14 3c dd b2 16 be 80 4c 68 bb 08 7c 08 be
       0.009060085 -0.14716668 -0.0035445988 -0.13328564
0002d0 60 72 a8 3c 3a 84 e9 3d c5 57 0e 3e e5 00 17 3e
       0.02056235 0.11402173 0.13900669 0.14746435
0002e0 d4 f8 85 3d ba 7b d9 3d 6d fc c2 bd a0 de cf bc
       0.06541601 0.10619302 -0.09520803 -0.02537471
0002f0 03 3a 21 be 9c 68 1a 3d 88 57 ae 3c 73 55 15 3e
       -0.15744786 0.03769742 0.021281973 0.14583378
000300 29 b3 03 3e 6d 9f 02 be 30 25 a4 3c 66 6d 68 bd
       0.12861313 -0.12756129 0.020037264 -0.056744955
000310 30 e2 97 bc fe e3 46 bd d8 51 5e 3d c6 49 d1 3d
       -0.018540472 -0.048557274 0.05427727 0.10219149
000320 80 ea ba 3d 2c 05 ef bd 06 2f 82 3d 6a 90 80 3d
       0.091267586 -0.11670908 0.06356625 0.06277545
000330 36 1c 1a be 5f dd 0f be 0c 06 61 bd 80 6e e8 bb
       -0.15049824 -0.1404929 -0.054937407 -0.0070932508
000340 6e 84 a4 bd 12 4c eb 3d 6e 26 ea 3d 69 52 9e bd
       -0.080330715 0.11489119 0.11433111 -0.07730562
000350 a0 3a 36 bc 32 48 d4 bd d0 72 49 3c ac c3 00 be
       -0.011122376 -0.10365333 0.01229544 -0.12574643
000360 50 f5 99 bc c0 15 74 3b c9 7c 1d be 73 bb 07 3e
       -0.018793732 0.003724441 -0.15379633 0.132551
000370 70 ac c1 bc 85 d3 1e 3e ec d9 52 bd b0 d6 75 bc
       -0.023641795 0.15510376 -0.051477358 -0.015004799
000380 6c 1f 2d bd ba 76 c0 bd 50 27 5a bc 34 ca 4e 3d
       -0.042266294 -0.09397645 -0.013315037 0.050485805
000390 8f d4 0b be ea 81 fd bd f5 dc 20 3e 64 a4 f8 bd
       -0.13655303 -0.12378295 0.15709288 -0.1214073
0003a0 42 38 91 3d a2 18 62 bd 55 9c a7 bd b8 7a c1 3c
       0.070908085 -0.055199273 -0.08184115 0.023618087
0003b0 f7 c8 00 3e f4 2d 45 3d 3c 87 a4 bd 5f 56 0c be
       0.12576662 0.048139527 -0.080336064 -0.13704823
0003c0 ec b3 73 3d 64 9e bb bd 0e 88 0e be 90 cd 4a 3c
       0.05949776 -0.0916107 -0.13919088 0.0123781115
0003d0 76 c2 e1 3d 52 78 61 bd d1 2f 97 bd 80 1d 20 bd
       0.110234186 -0.055046387 -0.07382167 -0.039090633
0003e0 fa 55 a1 3d c6 8e 31 bd 22 aa f3 3d 54 66 0c bd
       0.07877727 -0.04334905 0.11897685 -0.034277275
0003f0 e2 fd b4 3d 40 b3 b1 bb 86 44 f9 3d 78 ae db 3c
       0.08837487 -0.0054229796 0.12171273 0.026816592

lstm.bias_ih_l1 f4 [160]
000000 28 64 c4 3e cf 01 83 3e 33 95 8a 3e 4a 0d 97 3e
       0.38357663 0.25587317 0.27066955 0.29502326
000010 59 2d 29 3e 55 2c bd 3e ae 5b 43 3e 83 be a3 3e
       0.16521205 0.36947885 0.19077942 0.31981286
000020 19 69 8f 3e 6c 41 b4 3e c4 10 a2 3d 9f 11 76 3e
       0.2800987 0.35206163 0.07913354 0.2403016
000030 e1 83 09 3e d8 8a 94 3e 5c 8d ec 3e eb 8e 45 bd
       0.13429214 0.2901218 0.462016 -0.048232
000040 81 ae e1 3e 72 63 c4 3e c0 fd 68 3e fe 2e 09 3d
       0.44078448 0.3835712 0.22753048 0.03349208
000050 b0 11 67 3e df 83 3f 3d 6b 0c 7d bd 14 cf 89 3e
       0.22565341 0.04675662 -0.06177942 0.269158
000060 39 b0 58 3e 50 1e 8b 3e c9 79 37 3e 5d 72 b3 3e
       0.21160974 0.27171564 0.17917551 0.3504819
000070 24 49 b3 3e 11 86 0f 3e c6 02 ab 3e 8a 80 ac 3e
       0.3501674 0.14015986 0.33400553 0.33691818
000080 74 e3 b1 3e 39 da b5 3c c8 cb f5 3e 51 c1 90 3e
       0.34743845 0.022198783 0.48007035 0.2827249
000090 15 87 a5 3e 6f ae 89 3e 5d 3e 94 3e 55 15 23 3e
       0.32329622 0.26890895 0.2895383 0.15926106
0000a0 86 56 dc bd 6e 48 ea 3d 53 65 17 3e 84 8d fa bd
       -0.107586905 0.11439596 0.14784746 -0.12234023
0000b0 df 05 d3 bd 4f 42 16 3e 28 6c 07 3d fe 34 db 3d
       -0.10303854 0.14673732 0.03306213 0.10703467
0000c0 e8 fa f9 3c b6 53 1c bd 1e f9 1c bd 8a 14 fd 3d
       0.03051515 -0.03816577 -0.038323514 0.12357433
0000d0 9c 2b b6 3d ae 23 88 3d bc e4 1b bd f6 24 b0 bd
       0.088950366 0.0664743 -0.038059935 -0.086008
0000e0 8e 38 bd 3d b4 19 13 be 70 4e a4 bc 80 e7 78 3c
       0.092393026 -0.14365274 -0.020056933 0.015191913
0000f0 f9 3c 96 bd 82 0c c5 3d 4c 9c 58 bd 32 94 fb 3d
       -0.07335848 0.09621526 -0.05288343 0.122841254
000100 9c 2c c9 bd 02 62 0e be 44 8e 76 3d f8 24 4f 3d
       -0.09822962 -0.13904575 0.06019427 0.050572366
000110 a0 30 4d bc bb 01 b8 bd 44 89 8d 3d fb 9c b0 bd
       -0.0125238 -0.08984705 0.06910947 -0.08623692
000120 e0 20 36 3d e5 ca 98 bd aa b7 f1 3d d3 10 e2 bd
       0.044464946 -0.07460574 0.11802609 -0.11038365
000130 10 4f 2d 3c c8 6c 64 3d 2c 52 56 bd 50 0d d5 bd
       0.010577932 0.055767804 -0.05232446 -0.1040293
000140 d5 45 96 bb b0 e5 f6 3d 13 3b 15 3e 1b 4d 19 bc
       -0.0045859613 0.12055528 0.14573316 -0.009356762
000150 45 1e fd bd e0 d1 1d be 11 ac 3b bd 5a dc ad 3d
       -0.12359289 -0.15412092 -0.045818392 0.08489294
000160 f4 97 2c 3e 72 57 66 bd 47 12 88 be 12 eb cd bd
       0.1685484 -0.056235738 -0.26576445 -0.10054602
000170 62 64 8a be 11 2f 21 be d2 0e 34 3e c9 d8 30 3e
       -0.2702971 -0.1574061 0.17583779 0.17270197
000180 b7 88 07 3e d7 12 5a bb 26 d1 9d 3d ec f3 01 be
       0.13235746 -0.003327539 0.077059075 -0.12690705
000190 b2 8b c2 3d b0 ae 6c 3d af b5 96 bd 1b ff 3e bd
       0.09499301 0.057783782 -0.07358872 -0.046630006
0001a0 32 d0 0e 3b ab d4 bd bd ff 54 77 bd c1 d0 e1 bd
       0.0021791575 -0.09269079 -0.060383793 -0.11026145
0001b0 0a 07 88 3d 1a 4f 10 be 4c 41 95 bc 4e ef 0d bd
       0.066419676 -0.14092675 -0.018219613 -0.034652047
0001c0 e7 c4 1e 3d b5 06 ee 3d 1e bc 46 bd ab ce 9c 3d
       0.038762 0.11622373 -0.048519246 0.07656606
0001d0 9a 37 95 3d bd 28 d5 3d 5b 01 91 bd 8d a7 a9 3c
       0.07285996 0.10408161 -0.07080337 0.020709777
0001e0 5e 97 1a 3e a2 f4 93 3e a5 e6 a8 3e 3d ec ad 3e
       0.15096804 0.28897578 0.32988468 0.33969298
0001f0 d5 7a cb 3e f6 12 bf 3e ec 5a 1e 3e d9 08 c7 3e
       0.3974215 0.37319154 0.15464371 0.38873938
000200 fb d7 83 3d 57 fa 9e 3e 9e 32 6d 3e 5a ea cb 3e
       0.064376794 0.3105037 0.2316384 0.39827234
000210 8e cf 95 3b b5 d3 d0 3e 0d ac c8 3e 07 ee 38 bc
       0.0045718616 0.4078652 0.39193764 -0.011287219
000220 8b 09 6d 3e 4e c8 d5 3e a3 ec 51 3e b9 a5 c8 3d
       0.23148172 0.41754383 0.20500426 0.09797234
000230 05 d1 97 3e 3a cd 66 3d 21 4f 2c 3d 1e 76 93 3e
       0.29651657 0.056348063 0.04206765 0.28801054
000240 90 01 c5 3e c6 ea 8e 3e 7c 46 6e 3e 9c 4f c6 3e
       0.38477755 0.27913493 0.23269075 0.38732612
000250 cb 8b 99 3e 86 8e ab 3e d7 0c 07 3f 73 a2 a3 3e
       0.29989466 0.33507174 0.5275397 0.31959876
000260 34 eb f2 3e bd bf 8a 3e 40 70 b3 3e 01 94 89 3e
       0.4744507 0.2709941 0.35046577 0.2687073
000270 5d e7 a0 3e b2 b2 c0 3e 8f 7e 38 3e 41 3d 79 3e
       0.31426516 0.37636334 0.18017028 0.24339773

lstm.bias_hh_l1 f4 [160]
000000 c4 9f 91 3e cb b1 58 3e bc 03 87 3e b0 24 ad 3e
       0.28442204 0.21161573 0.26370037 0.33817053
000010 20 be 6a 3e 9b 59 cf 3e 4d 27 cf 3e 05 51 e9 3e
       0.2292409 0.4049805 0.40459672 0.45569625
000020 7b 9d 9c 3e 4b 0b 1c 3e d6 b3 87 3e dc 60 af 3e
       0.30588898 0.15238683 0.2650439 0.34253585
000030 3b 41 95 3e f0 94 83 3c 79 d0 c7 3e e3 52 06 bc
       0.2915133 0.01606223 0.3902624 -0.008198473
000040 cf 30 92 3e 9c 94 d2 3e 9c 88 64 3e f7 b0 1d 3e
       0.28552863 0.41129005 0.22317737 0.15399538
000050 de e4 3d 3e 6a 37 87 3e 94 eb d2 3d c8 8c bd 3e
       0.18544337 0.26409465 0.10298839 0.3702147
000060 48 19 b7 3e e4 3e 8c 3e 9b 81 ed 3d 2f 14 a8 3e
       0.35761476 0.27391732 0.11596986 0.328279
000070 59 08 db 3d 0b 38 0b 3e 00 af fd 3e fa 84 8b 3e
       0.106949516 0.13595597 0.49547577 0.2724989
000080 54 1b a9 3e a6 65 02 3e c9 7b 9c 3e d7 23 67 3e
       0.33028662 0.12734088 0.3056319 0.22572266
000090 45 ac ea 3e 23 05 53 3e 89 54 52 3e db 15 b2 3d
       0.45834556 0.20607428 0.2054006 0.08695575
0000a0 e0 75 83 3d 86 7c e8 bd aa a3 4a bd 34 0b 1a 3d
       0.06418967 -0.11351876 -0.04947249 0.03760834
0000b0 ef 1d 09 3e e5 3a 17 3e 48 a2 b6 bc e4 9a c7 bd
       0.13390325 0.1476856 -0.022294179 -0.0974634
0000c0 e0 6c f1 3b bb 10 ac bd 84 21 01 3d 73 8c 1f be
       0.0073677152 -0.084016286 0.031526104 -0.15580921
0000d0 5e 81 0d be 88 f4 bf 3c 56 65 de 3d c4 f4 00 be
       -0.13818881 0.023432031 0.10859172 -0.1259337
0000e0 3e 91 f0 3d 2b f1 03 3e af 52 19 3e 90 dc 22 3c
       0.11746453 0.12884967 0.14972948 0.0099402815
0000f0 e8 44 99 bc 33 5e 1b 3e 80 d6 3f 3b 54 8c b3 bd
       -0.018709615 0.15172653 0.002927214 -0.08767
000100 54 a2 51 3d 40 2a 9b bc c0 f0 b2 bc 57 b0 00 3e
       0.0511802 -0.018941045 -0.021843314 0.12567268
000110 09 64 21 be 18 fd dc 3c be 3b dd bd b0 24 6f 3c
       -0.15760817 0.026976153 -0.108024105 0.014596149
000120 cc f1 96 3d e0 b3 0f bc 56 40 c4 3d 28 62 4f 3d
       0.07370338 -0.008770913 0.095825836 0.05063072
000130 a5 ad 8a bd c0 29 d3 3b 89 b8 03 3e b0 3c b2 bc
       -0.06771401 0.006444186 0.12863363 -0.021757454
000140 de 6e d0 3d d8 b9 e4 3c 71 9d e6 3c a1 54 99 bb
       0.10177396 0.027920648 0.028151246 -0.004679278
000150 5c 34 03 bd 0a 0a 4c be 73 2b 22 3c 3b 69 16 3d
       -0.032032356 -0.19925705 0.009898054 0.03672145
000160 34 72 33 3e 7e c2 4f 3e d5 03 94 be 90 be 10 bd
       0.17524034 0.20289037 -0.28909174 -0.035337985
000170 c3 62 7e be 5f b6 78 bc c4 8e 12 3e 95 0d 2c 3e
       -0.24842362 -0.015180199 0.14312273 0.16802056
000180 cb 2d ad 3c 73 14 1b be dd 1e 31 3e 1f 41 a2 3d
       0.02114 -0.1514452 0.1729693 0.07922577
000190 73 91 9e bc e9 ff ef 3d ac ed 09 3e ce fd a3 bc
       -0.019356465 0.11718733 0.13469571 -0.020018484
0001a0 ba 02 79 3d 03 f3 e4 bc 8f 13 29 be f1 24 01 bd
       0.060793616 -0.027947908 -0.16511367 -0.03152937
0001b0 ce 2f b1 bd ce 21 44 3b af 22 70 bd d3 38 ad bd
       -0.08651696 0.0029927376 -0.058626827 -0.08458104
0001c0 41 7e 12 bd de 4f 5a 3e 76 0d a5 bd 80 36 86 bb
       -0.035764936 0.2131953 -0.08059208 -0.0040958524
0001d0 4a 73 d6 bd 64 83 79 3d a3 b9 f6 bd 65 cb 15 3d
       -0.104712084 0.06091632 -0.12047126 0.036570925
0001e0 24 b4 19 3e 07 6e 13 3e a6 1a f9 3d 4d 33 21 3e
       0.15010124 0.14397441 0.12163286 0.15742226
0001f0 1d b6 98 3e 58 0e c7 3e 1a b6 28 3e 71 1f 88 3e
       0.2982644 0.3887813 0.16475716 0.26586488
000200 0a ca 87 3e c7 2b cf 3e c9 81 4c 3c f9 a2 28 3e
       0.2652133 0.40463087 0.012482115 0.16468419
000210 dc f3 5a 3e 45 c9 c0 3e 8d 02 ad 3e 9f 05 dd 3d
       0.21382087 0.37653556 0.3379101 0.10792088
000220 c7 d6 b3 3e 96 1e d2 3e bc 1f cb 3e df 4a 4d 3d
       0.351248 0.4103896 0.3967265 0.05012023
000230 29 33 9e 3e af 66 62 3e d8 6f 19 3e 4c 6f 9b 3e
       0.30898407 0.22109483 0.14984071 0.3035835
000240 5c ba b0 3e 6e 10 54 3e 0e 1a 3c 3d 8a ce b9 3e
       0.3451718 0.20709392 0.045923285 0.3629039
000250 1a b6 19 3e 7c 40 93 3e 1e 50 1d 3f 3a 1a bc 3d
       0.15010872 0.28760135 0.61450374 0.0918469
000260 8d 78 ff 3e 11 08 53 bb 32 af bf 3e 49 05 ac 3e
       0.4989666 -0.0032200853 0.3743835 0.33597782
000270 46 75 07 3f 26 ae 0d 3f 23 1c ae 3e 11 d1 36 3e
       0.5291332 0.55343854 0.34005842 0.1785319
