models/344/model.pt (torch_old, 108056 bytes, 12 tensors)

weight_ih_l0 f4 [160, 10]
0	0xbcd3be4d	-0.025847578
1	0x3ccf4286	0.025300276
2	0xbe03f24e	-0.128854
3	0xbd6445a8	-0.055730492
4	0x3e3e392d	0.18576498
5	0xbe4b93ad	-0.19880553
6	0x3d6c85a8	0.057744652
7	0xbd3fd8dc	-0.046837673
8	0x3d54c733	0.051947784
9	0x3e346760	0.1761756
10	0x3c29ed46	0.010371512
11	0xbd9ee891	-0.07759202
12	0xbd5c6b57	-0.053813305
13	0x3d81be7e	0.063351616
14	0xbdce6415	-0.10077683
15	0xbdf2d6ed	-0.118574
16	0xbd0bf7ec	-0.034171984
17	0xbc0130fe	-0.007885216
18	0xbe40e1a7	-0.1883608
19	0xbd392759	-0.04520354
20	0xbd81d82e	-0.06340061
21	0xbe464f63	-0.19366221
22	0x3c8bde88	0.017073885
23	0xbe213593	-0.15743093
24	0xbbaef63d	-0.0053394125
25	0xbdcab7bd	-0.098983265
26	0xbd291450	-0.041279137
27	0x3dc19ae4	0.09453371
28	0xbe168c86	-0.14702043
29	0xbe00a707	-0.12563716
30	0xbcb3135b	-0.021859815
31	0x3e22d3d7	0.15901123
32	0xbc29f063	-0.010372254
33	0xbe006f67	-0.12542497
34	0xbd7fda7d	-0.062464226
35	0x3dbb5132	0.09146346
36	0x3e31681c	0.17324871
37	0xbd40e748	-0.047095567
38	0x3e208028	0.15673888
39	0x3d5527e8	0.05204001
40	0xbd8607bb	-0.06544443
41	0x3daa7bf8	0.083244264
42	0xbb74b85d	-0.0037341334
43	0x3ebcb38c	0.36855733
44	0xbd5353c1	-0.051593546
45	0x3e8488d0	0.2588563
46	0x3ccbf4fb	0.02489709
47	0xbc9621a3	-0.018326586
48	0x3e2df295	0.16987069
49	0xbd47f7bf	-0.048820253
50	0xbddffbe3	-0.109367155
51	0x3c8efce5	0.017454574
52	0x3e2f9058	0.17144907
53	0x3d3c7cbb	0.04601739
54	0xbe1f2e67	-0.15545045
55	0xbe0d8982	-0.13821986
56	0xbe2db8a8	-0.16964972
57	0xbe9d7795	-0.30755296
58	0xbe49e9f6	-0.19718155
59	0xbeccf2dc	-0.40029037
60	0x3d3ffb34	0.046870425
61	0xbe54d941	-0.20786001
62	0xbdf1a594	-0.1179916
63	0xbec0ee61	-0.3768187
64	0x3ddfb0ef	0.10922419
65	0xbe59e88d	-0.21280117
66	0x3e235c52	0.15953186
67	0x3e8a8399	0.27053526
68	0xbdbbe2c2	-0.0917411
69	0x3e036ff7	0.1283568
70	0x3d7fe38a	0.062472858
71	0xbe820b8e	-0.2539944
72	0x3e04f5a0	0.12984324
73	0xbec6845f	-0.38772866
74	0x3d82aad3	0.063802384
75	0xbe8fe4cb	-0.28104243
76	0xbe1ab5ea	-0.15108457
77	0xbe141451	-0.14460875
78	0xbe8a4471	-0.27005342
79	0xbd5d1007	-0.053970363
80	0xbb3e944e	-0.0029080096
81	0xbe11c24e	-0.14234278
82	0x3e074c08	0.13212597
83	0x3dcfab60	0.10140109
84	0xbc802f0b	-0.015647432
85	0x3d278743	0.04090048
86	0xbd04a2b5	-0.032381732
87	0x3d1e4e29	0.038648758
88	0xbe6ee7bc	-0.23330587
89	0xbe52a473	-0.20570545
90	0xbdf10e2a	-0.1177028
91	0x3e0159fb	0.12631981
92	0xbe5103af	-0.20411561
93	0xbe578752	-0.21047714
94	0xbd56303f	-0.052292105
95	0xbdd223b0	-0.10260713
96	0x3e666123	0.22497992
97	0x3d0ffe62	0.035154708
98	0xbe27be08	-0.16381085
99	0x3d90bf27	0.070677094
100	0x3d11a7ab	0.03556029
101	0xbd2681e2	-0.04065121
102	0xbd2c5752	-0.042075463
103	0xbe0deef1	-0.1386068
104	0x3dabe951	0.08394111
105	0xbe1cba4f	-0.15305446
106	0x3c1da7de	0.009622542
107	0x3ddc6851	0.10762084
108	0xbdd10b86	-0.10207276
109	0x3d84fc76	0.064934656
110	0x3dfc6d40	0.12325525
111	0xbdb64f38	-0.089018285
112	0x3dc6bd84	0.09704116
113	0xbe602b5d	-0.21891542
114	0x3d04371b	0.032279115
115	0xbd763e6f	-0.060118135
116	0x3d58a399	0.052890394
117	0xbd31650d	-0.04330926
118	0xbe1781ec	-0.14795655
119	0xbe0fe4ad	-0.14052077
120	0xbdf6a8fd	-0.12043951
121	0xbd9b129f	-0.07571911
122	0xbc241376	-0.0100144055
123	0xbd9aa93f	-0.075518124
124	0xbd7f7d8d	-0.062375594
125	0xbe9a7ae3	-0.3017188
126	0x3e2bf39f	0.16792153
127	0x3e002a95	0.12516244
128	0xbe16602d	-0.14685126
129	0x3df0fdc4	0.11767152
130	0xbc725e68	-0.014793016
131	0xbdff6c02	-0.12471773
132	0x3e122693	0.14272527
133	0xbe475595	-0.1946624
134	0xbdd059ac	-0.101733536
135	0xbe952474	-0.29129374
136	0xbdd2d44c	-0.10294399
137	0xbe146c53	-0.14494447
138	0xbdfe0a11	-0.12404264
139	0xbd8ebaa4	-0.069691926
140	0x3d3ee8ec	0.04660885
141	0xbe126f03	-0.1430016
142	0x3da092b7	0.07840484
143	0xbdf24be8	-0.11830884
144	0xbe00d350	-0.1258061
145	0xbdb58228	-0.08862716
146	0xbe82aa17	-0.25520393
147	0xbc008ba6	-0.007845795
148	0xbdd96e56	-0.10616748
149	0xbe550137	-0.20801245
150	0xbd995fa1	-0.07488943
151	0xbda23a76	-0.07921307
152	0xbd8351e8	-0.06412107
153	0x3de88e47	0.11355262
154	0x3c2ea6cd	0.010659886
155	0xbd419d43	-0.047269117
156	0x3e78b01e	0.24285933
157	0x3c2070af	0.009792491
158	0x3d12e16f	0.03585952
159	0x3c575821	0.01314357
160	0x3cac697c	0.021046393
161	0xbcdf2931	-0.027241321
162	0xbdfc4607	-0.12318044
163	0x3e39cfd1	0.18145682
164	0xbc1001da	-0.008789504
165	0x3e3049c0	0.17215633
166	0xbd935858	-0.071945846
167	0x3d736d54	0.059430435
168	0x3e6c2bb6	0.2306355
169	0xbc99c4bc	-0.018770568
170	0xbc7c5b33	-0.015402603
171	0xbe2133a5	-0.15742357
172	0xbd0cf9e3	-0.034417998
173	0xbec37ed9	-0.38182715
174	0x3dc05841	0.09391833
175	0xbeb95aa3	-0.36201963
176	0x3d4c80e8	0.049927622
177	0x3ea05b23	0.31319532
178	0xbe49f938	-0.19723976
179	0x3c23736e	0.009976251
180	0x3d4ce147	0.05001953
181	0xbe1e9a84	-0.1548863
182	0x3cea6cc1	0.028616311
183	0x3d295ae1	0.041346435
184	0xbe2f3665	-0.17110594
185	0x3dd63a5c	0.1046035
186	0xbe3a6ba9	-0.18205132
187	0x3d8532b4	0.065038115
188	0x3dc15e7a	0.09441848
189	0xbded4b97	-0.11586683
190	0xbd0f7da8	-0.035031945
191	0x3d2c1ebc	0.042021498
192	0x3d994af1	0.07484997
193	0x3cb6cd69	0.022314744
194	0xbe5a351a	-0.21309319
195	0xbdf65885	-0.120286025
196	0xbd909986	-0.07060532
197	0x3cf3d6cc	0.02976551
198	0xbe0c55b6	-0.13704571
199	0xbe7e767e	-0.24849889
200	0xbd9d145c	-0.07669899
201	0xbe53e11d	-0.20691343
202	0xbd153f65	-0.03643741
203	0xbed2a386	-0.41140383
204	0x3e6026f5	0.21889861
205	0xbdeef5b3	-0.11667957
206	0x3ddf488f	0.10902511
207	0x3d531eab	0.05154292
208	0xbda7a8ef	-0.081865184
209	0x3e52d7fa	0.20590201
210	0xbb3761b1	-0.0027981813
211	0xbca7488a	-0.020420332
212	0xbde252e8	-0.11050969
213	0xbe09ddd5	-0.13463528
214	0x3e5079cb	0.2035896
215	0xbccbde83	-0.024886375
216	0xbe174233	-0.14771347
217	0x3e3a84f7	0.18214785
218	0xbe07e240	-0.13269901
219	0xbdad782d	-0.08470187
220	0x3d8b97f6	0.068160936
221	0xbd915041	-0.07095385
222	0xbea094a7	-0.31363413
223	0xbe20fec1	-0.15722181
224	0x3e185a31	0.14878155
225	0xbda77c84	-0.08178046
226	0x3e442e6e	0.19158337
227	0x3d89b26e	0.06723486
228	0xbde8cbc3	-0.113669895
229	0x3d377ca0	0.044796586
230	0xbcdff0d6	-0.02733652
231	0xbe93eab6	-0.28890008
232	0x3e8149ef	0.2525172
233	0xbe757533	-0.23970489
234	0xbe13e026	-0.14440975
235	0xbe9539ec	-0.29145753
236	0xbeb83fb9	-0.35986117
237	0xbe71a866	-0.23599395
238	0xbf0071a4	-0.501734
239	0xbebcf603	-0.36906442
240	0xbc0e1675	-0.008672346
241	0xbdec32c5	-0.11533121
242	0xbcc4fe0f	-0.024046926
243	0x3d3ca4cb	0.046055596
244	0x3e531efd	0.2061729
245	0x3e1629ae	0.14664337
246	0x3dcd1c5e	0.10015176
247	0x3e2cd20a	0.16876999
248	0x3c9110ac	0.017708145
249	0xbd938e60	-0.0720489
250	0x3ccf8f2c	0.025336824
251	0xbe877461	-0.26455978
252	0xbe5a979e	-0.213469
253	0xbe8d08e0	-0.27545834
254	0x3d8e9e1f	0.06963753
255	0xbea56673	-0.32304725

weight_hh_l0 f4 [160, 40]
0	0xbcd5a668	-0.026080325
1	0xbb3c34c0	-0.0028717965
2	0xbdcc6b26	-0.099813744
3	0xbd8e0d79	-0.069361635
4	0xbe02793b	-0.12741558
5	0xbd29fc94	-0.041500643
6	0x3e1ed031	0.15509106
7	0xbd9a76d2	-0.075421944
8	0xbdce93ae	-0.100867614
9	0x3e0609eb	0.13089721
10	0x3dd276c2	0.102765575
11	0x3d451b5c	0.048121795
12	0x3d5c26e8	0.05374804
13	0xbe0f864c	-0.14016074
14	0xbcd0ad60	-0.025473297
15	0xbde6e0de	-0.11273359
16	0xbe1269d8	-0.14298189
17	0x3e13075b	0.14358275
18	0xbdf4a74a	-0.1194597
19	0x3d73099c	0.059335336
20	0x3d56c908	0.052437812
21	0xbc5b0aa0	-0.013369232
22	0xbd76ba76	-0.060236417
23	0xbe04f5c0	-0.12984371
24	0xbc075e20	-0.008262187
25	0xbc2ad7e0	-0.010427445
26	0xbd18c6ca	-0.037298955
27	0x3d872974	0.065997034
28	0xbd9e45a2	-0.07728125
29	0xbd8cf8dc	-0.06883404
30	0xbe0c7fee	-0.13720676
31	0xbc525dd0	-0.012839749
32	0xbdc96c32	-0.0983509
33	0x3d640d10	0.05567652
34	0x3dffb9be	0.124865994
35	0x3dc81a42	0.09770633
36	0x3e1fdabf	0.15610789
37	0x3dc40892	0.09571947
38	0xbb6fc0c0	-0.0036583394
39	0xbe204b53	-0.15653734
40	0x3e218e0b	0.15776841
41	0xbc79cdd0	-0.015246823
42	0x3d1803cc	0.037112996
43	0x3dae638c	0.08515081
44	0xbcb86df0	-0.02251336
45	0x3d7cfccc	0.061764523
46	0x3dc3983e	0.09550522
47	0x3d40f140	0.047105074
48	0xbda6d728	-0.081465065
49	0x3ded17fe	0.11576842
50	0x3d1fae3c	0.038984522
51	0xbdc45186	-0.09585862
52	0x3e114907	0.14188014
53	0xbdc2b9a1	-0.09508062
54	0xbe0a356f	-0.13496946
55	0xbc7b0960	-0.015322059
56	0xbcc5b7a8	-0.024135426
57	0xbe07f31a	-0.1327633
58	0xbd86f56a	-0.06589778
59	0x3dab586e	0.08366476
60	0xbd3a286a	-0.045448698
61	0x3dc61f16	0.09673898
62	0xbd698b40	-0.057017565
63	0xbdc54ad2	-0.096334115
64	0xbd3f10a0	-0.046646714
65	0x3da956a6	0.0826848
66	0x3d819258	0.06326741
67	0xbe1f6fef	-0.15570043
68	0x3d825ae4	0.06364992
69	0x3e039167	0.12848435
70	0x3da32ac8	0.07967144
71	0x3de4453a	0.111460164
72	0x3e0a989b	0.13534777
73	0x3cbcc2d0	0.023042113
74	0x3d131f1c	0.03591834
75	0xbdce4492	-0.100716725
76	0x3d83f83a	0.0644383
77	0xbe1ad6f4	-0.1512106
78	0x3e03ff8b	0.1289045
79	0x3dd8aa9e	0.10579418
80	0xbdddd712	-0.10832037
81	0x3e11d231	0.14240338
82	0x3df2bff2	0.11853017
83	0x3cdd9d30	0.027052492
84	0x3e1ca111	0.15295817
85	0xbdbce4e8	-0.09223348
86	0xbde02387	-0.10944276
87	0x3d70eafc	0.05881785
88	0x3dab2ce4	0.083581716
89	0x3e13cfe9	0.1443478
90	0x3e00154b	0.12508123
91	0x3cb973a8	0.022638157
92	0xbde10438	-0.10987133
93	0xbdaa0f6a	-0.08303721
94	0x39819000	0.00024712086
95	0x3e198885	0.14993484
96	0x3d8ae950	0.06782782
97	0xbc86fb28	-0.016477183
98	0xbd325068	-0.043533713
99	0x3e12ab87	0.14323245
100	0xbcd4a398	-0.025956914
101	0xbd015fa4	-0.03158535
102	0xbdf26a90	-0.118367314
103	0xbe11bb3e	-0.14231583
104	0xbdb151e7	-0.086582
105	0x3d987f70	0.07446182
106	0x3d334b04	0.043772712
107	0xbba9a500	-0.0051771402
108	0x3d8bf3f6	0.06833641
109	0xbc633560	-0.013867706
110	0x3dac940e	0.08426677
111	0x3cdafc80	0.02673173
112	0x3d94b1f8	0.07260507
113	0xbe12d2e5	-0.14338262
114	0xbc92c930	-0.0179182
115	0xbc893540	-0.016749024
116	0xbde984fe	-0.11402319
117	0xbd9d7b20	-0.076895
118	0x3d8f1902	0.06987192
119	0x3e15a77f	0.14614676
120	0x3e14e781	0.14541437
121	0x3d6accd0	0.05732423
122	0x3dfa3eb6	0.122189924
123	0xbd9b1899	-0.07573051
124	0x3e0885f3	0.13332348
125	0x3dcf802a	0.10131867
126	0xbd9584b9	-0.073007055
127	0x3e0d9c37	0.13829122
128	0x3e07a52d	0.13246603
129	0x3e00d889	0.12582602
130	0xbba54ca0	-0.005044535
131	0xbe12f448	-0.14350998
132	0x3b8c52e0	0.0042823404
133	0x3e1bdc07	0.15220653
134	0xbdb751aa	-0.08951123
135	0x3c88a0f0	0.016678303
136	0xbdaeb531	-0.08530653
137	0xbdaf3d65	-0.08556632
138	0x3df2d90e	0.11857806
139	0x3d6933d4	0.056934193
140	0xbd919f09	-0.07110412
141	0x3cb2bf60	0.02181977
142	0x3e0bf14b	0.13666265
143	0xbda76ee5	-0.08175448
144	0x3e118b59	0.14213313
145	0xbdcbf310	-0.0995847
146	0x3d1a4c40	0.037670374
147	0x3c732c50	0.014842108
148	0x3daefacc	0.085439295
149	0x3e19e5c9	0.15029062
150	0xbdb65a8d	-0.0890399
151	0x3db146b0	0.08656061
152	0xbe19f1b9	-0.15033616
153	0x3d83156e	0.06400572
154	0xbdcf94dc	-0.101358145
155	0xbe09d616	-0.13460574
156	0x3dbef18a	0.09323414
157	0xbe1f815c	-0.1557669
158	0x3dafe47e	0.08588503
159	0xbda2384b	-0.07920893
160	0x3e1a8e77	0.15093409
161	0xbde55b67	-0.11199074
162	0x3e03e143	0.128789
163	0xbd53f9fe	-0.051752083
164	0xbda8ba43	-0.082386516
165	0xbde83b86	-0.11339478
166	0x3d645fac	0.055755302
167	0x3d4a07a0	0.049323678
168	0xbdffa8e1	-0.12483383
169	0x3e1d4397	0.15357815
170	0x3cf382d8	0.029725477
171	0x3d53ce44	0.051710382
172	0xbda69e7b	-0.081356965
173	0x3d84f77c	0.064925164
174	0x3c5fe010	0.0136642605
175	0x3e1e0857	0.15432869
176	0xbdea7fb6	-0.1145014
177	0x3c900068	0.017578319
178	0xbd4cd960	-0.050011992
179	0x3dcff872	0.10154809
180	0xbd1541a4	-0.036439553
181	0xbe093452	-0.13398865
182	0xbd3b3d3c	-0.045712695
183	0x3e1da039	0.15393151
184	0x3d5b658c	0.05356364
185	0x3dd9f9a6	0.1064332
186	0xbdc89eca	-0.097959116
187	0x3dd2246a	0.10260852
188	0x3e048241	0.12940313
189	0x3e1a8a13	0.15091734
190	0xbe079aaa	-0.13242593
191	0x3d014274	0.031557515
192	0xbe1e2676	-0.15444359
193	0x3de3b082	0.111176506
194	0x3d6dc048	0.0580447
195	0xbd80c995	-0.06288449
196	0x3d60c73c	0.054877505
197	0x3e02b623	0.12764792
198	0x3dec02ca	0.115239695
199	0xbd3e976a	-0.04653112
200	0xbdebaeef	-0.11507975
201	0xbcf92010	-0.030410796
202	0x3e1927d5	0.14956601
203	0xbdde6e46	-0.10860877
204	0xbdacbcc4	-0.08434442
205	0xbd882196	-0.06647031
206	0xbe0aab2c	-0.1354186
207	0xbd2e751a	-0.042592146
208	0xbc317a00	-0.01083231
209	0xbdf947a4	-0.121718675
210	0xbdb7b89d	-0.08970759
211	0xbd78b5da	-0.060720302
212	0x3dc0435e	0.09387849
213	0x3d47432c	0.048648044
214	0x3e17f621	0.14839984
215	0x3d0134ac	0.031544372
216	0xbd89b1e6	-0.067233846
217	0xbe060311	-0.13087107
218	0x3de9b3aa	0.11411221
219	0x3d8a8282	0.06763174
220	0xbd1744fa	-0.036931016
221	0xbda723ac	-0.08161101
222	0xbd5ff6be	-0.05467867
223	0x3c92e830	0.017932981
224	0xbda02e41	-0.07821322
225	0x3dfb1d02	0.12261392
226	0xbcaf0650	-0.021365315
227	0x3e0d0671	0.13771988
228	0x3dd75bc2	0.10515548
229	0x3d96ec52	0.07369293
230	0xbb4bc280	-0.0031091273
231	0x3d9f548c	0.07779798
232	0xbde17ac1	-0.110097416
233	0xbde33e3d	-0.110958554
234	0x3dec938a	0.11551578
235	0x3d0291c8	0.03187731
236	0xbd2cb4f4	-0.042164758
237	0x3d08b2f8	0.033373803
238	0xbe0f15b8	-0.13973129
239	0x3d18eb24	0.037333623
240	0xbdd9ee84	-0.10641196
241	0x3bc46fc0	0.005994767
242	0x3d61a400	0.055088043
243	0xbe0e6163	-0.13904338
244	0x3dfeebd6	0.12447326
245	0xbdf0f440	-0.11765337
246	0x3db26190	0.08710015
247	0x3de7dac2	0.113210216
248	0xbdacc8fe	-0.08436774
249	0xbde0f974	-0.109850794
250	0xbe1d5d80	-0.15367699
251	0x3b07dec0	0.0020732135
252	0xbda3ec3a	-0.08004041
253	0xbc3e6180	-0.0116199255
254	0xbd67c178	-0.05658099
255	0x3e1f2941	0.15543081

bias_ih_l0 f4 [160]
0	0x3d8f4e68	0.06997377
1	0x3dd5150d	0.10404406
2	0x3e9a1fa0	0.30102253
3	0x3df0a624	0.11750439
4	0x3e814322	0.2524653
5	0x3e8bfa76	0.27339524
6	0x3e7e4f1e	0.24834868
7	0x3eb59711	0.35466817
8	0x3dd2f616	0.103008434
9	0x3eae84f9	0.34085825
10	0x3e2be8bf	0.16788004
11	0x3e02c1fe	0.12769315
12	0x3cac85a5	0.02105982
13	0x3e87c8aa	0.26520282
14	0x3e55000b	0.20800798
15	0x3e31b1e8	0.17353022
16	0x3e3e1979	0.18564405
17	0x3eb1dcf4	0.34738886
18	0x3eb0cef4	0.34532893
19	0x3e804840	0.25055122
20	0x3e38065f	0.1797118
21	0x3ebca1e7	0.36842272
22	0x3ddeccbd	0.108788945
23	0x3d3a804d	0.045532513
24	0x3e909293	0.28236827
25	0x3daa645a	0.08319922
26	0x3e8dddd0	0.27708292
27	0x3e189c09	0.14903273
28	0x3e731212	0.23737362
29	0x3e39d791	0.18148638
30	0x3e550d23	0.20805793
31	0x3e784d4e	0.2424824
32	0x3e110730	0.14162898
33	0x3dafcc10	0.08583844
34	0x3e4e43f5	0.20143111
35	0x3e25c0c6	0.16186818
36	0x3e757b5e	0.23972842
37	0xbdd769e3	-0.10518243
38	0x3e8e856d	0.2783617
39	0x3eba4a2f	0.36384723
40	0xbd42e694	-0.047583178
41	0xbdbde693	-0.09272494
42	0xbc51cc20	-0.012805015
43	0xbdbc38ca	-0.09190519
44	0x3e1c3f37	0.1525849
45	0x3e0c1f51	0.13683821
46	0x3e055411	0.1302035
47	0xbdcc7684	-0.099835426
48	0xbdab6e93	-0.083707
49	0x3e17a339	0.14808358
50	0x3d9b2942	0.07576229
51	0xbd8569a3	-0.06514289
52	0xbc843d20	-0.016142428
53	0x3d6bbac0	0.057551146
54	0x3d86423c	0.06555602
55	0x3c84e6a8	0.016223267
56	0x3e087701	0.13326646
57	0x3d2710dc	0.040787563
58	0xbd19a94a	-0.037514962
59	0x3c1585a0	0.009126097
60	0x3de0941e	0.10965751
61	0xbd4e10fa	-0.05030916
62	0xbc829230	-0.015938848
63	0xbce9ed50	-0.028555542
64	0x3d4423e8	0.047885805
65	0x3e12fcd1	0.14354254
66	0xbe0764a7	-0.1322199
67	0x3d6603f0	0.0561561
68	0xbdecc324	-0.115606576
69	0x3e19564b	0.14974324
70	0xbdc47e18	-0.09594363
71	0xbd2af0d8	-0.041733593
72	0xbcbd2dc8	-0.02309312
73	0x3e0be8d3	0.13663034
74	0xbdac5b9e	-0.08415912
75	0xbdb96a15	-0.09053437
76	0x3d83ef6a	0.06442149
77	0x3bc1e5c0	0.005917281
78	0x3dea685a	0.11445685
79	0xbd96a672	-0.07355966
80	0x3c23318c	0.009960543
81	0xbce22a6f	-0.027608125
82	0xbd4706c4	-0.048590437
83	0x3e2d8595	0.16945489
84	0x3e411e48	0.18859208
85	0xbe37da65	-0.17954405
86	0x3e12e8ae	0.14346573
87	0x3e671280	0.22565651
88	0xbe8a9bef	-0.27072093
89	0x3b3b88b7	0.0028615424
90	0xbe1b0e6c	-0.1514222
91	0xbde50216	-0.111820385
92	0xbe8a8df7	-0.27061436
93	0x3c29a16d	0.010353428
94	0x3b9290e5	0.004472839
95	0xbd4efd70	-0.050534666
96	0xbe700c33	-0.23442154
97	0xbdd6422b	-0.10461839
98	0x3b02c339	0.0019952788
99	0xbe208b0c	-0.15678042
100	0x3ddf55d1	0.1090504
101	0xbd7581ab	-0.059938114
102	0xbdd98d6e	-0.10622679
103	0xbe1e1c56	-0.15440497
104	0x3e02ad8a	0.12761512
105	0xbe5d17ac	-0.21591061
106	0x3e262c29	0.16227783
107	0x3e19328e	0.14960691
108	0xbe226f78	-0.15862834
109	0x3e460140	0.19336414
110	0xbe0aa020	-0.13537645
111	0x3dd4d184	0.103915244
112	0xbe390623	-0.18068747
113	0xbdcaff08	-0.099119246
114	0x3e094343	0.13404565
115	0x3d91605f	0.070984595
116	0xbe3449df	-0.17606305
117	0x3ca2d580	0.019877195
118	0xbbeda7a0	-0.0072526485
119	0x3e204f56	0.15655264
120	0x3e5e32bb	0.2169904
121	0x3eb1f4f1	0.34757188
122	0x3df75f01	0.120786674
123	0x3eab67e5	0.33477703
124	0x3e68cb66	0.2273384
125	0x3e5f6c7e	0.2181873
126	0x3eb62be2	0.35580355
127	0x3ed09c9b	0.4074448
128	0x3ea1ac43	0.31576738
129	0x3ea064fe	0.3132705
130	0x3d897702	0.06712152
131	0x3ec1868b	0.3779796
132	0x3dae56d9	0.085126586
133	0x3ea04cca	0.31308585
134	0x3e2d92ed	0.16950579
135	0x3edf3f59	0.43603018
136	0x3e318a01	0.173378
137	0x3ece8b11	0.40340474
138	0x3edddeb6	0.43333977
139	0x3e8f9963	0.28046712
140	0x3e4bf5f7	0.19918047
141	0x3f073f8c	0.5283134
142	0x3e26a4fb	0.16273873
143	0x3da65fd9	0.0812375
144	0x3e3d42e5	0.1848255
145	0x3e2b8713	0.16750745
146	0x3e1489cf	0.14505695
147	0x3ea50839	0.32232836
148	0x3e88541c	0.2662667
149	0x3e935a02	0.28779608
150	0x3ec7e6ba	0.39043218
151	0x3e1d11ad	0.15338774
152	0x3db8d2d6	0.09024589
153	0x3e3d9e3b	0.18517391
154	0x3e198ba5	0.14994676
155	0x3e17f4c1	0.1483946
156	0x3e3910f0	0.18072867
157	0x3e73d31e	0.23811004
158	0x3e8f9195	0.28040758
159	0x3e633193	0.2218688

bias_hh_l0 f4 [160]
0	0x3eafee65	0.34361568
1	0x3e96a815	0.2942511
2	0x3e5121d4	0.2042306
3	0x3e2c400b	0.16821305
4	0x3e8f4bfa	0.27987653
5	0x3e848f50	0.2589059
6	0x3e3a29fc	0.18180078
7	0x3df351b0	0.11880815
8	0x3d9a6c12	0.07540144
9	0x3e8f73c1	0.28018
10	0x3ebabb4c	0.3647102
11	0x3ed8da65	0.42354122
12	0x3e87dd33	0.2653595
13	0x3dab7f50	0.08373892
14	0x3b7162fe	0.0036832686
15	0x3ec9ee16	0.39439458
16	0x3dc75611	0.09733213
17	0x3e7d7e6e	0.2475526
18	0x3ea4db5a	0.32198602
19	0x3e174fd2	0.14776543
20	0x3e884ca6	0.26620978
21	0x3e4d35cd	0.20040055
22	0x3e551b06	0.2081109
23	0xbc5e71ea	-0.013576964
24	0x3e26baf7	0.16282259
25	0x3e43d426	0.19123897
26	0x3e569185	0.20953949
27	0x3cbefad5	0.023312965
28	0x3e988ce4	0.2979499
29	0x3d24e100	0.04025364
30	0x3db7d579	0.089762636
31	0x3d501306	0.050799392
32	0xbd4b33a6	-0.049609803
33	0x3e50720e	0.20356008
34	0x3eb81048	0.35949922
35	0x3e648cc2	0.2231932
36	0x3e070cc1	0.13188459
37	0x3e35845e	0.17726275
38	0x3de3ffd5	0.111327805
39	0x3ec44cb3	0.38339767
40	0xbccf0500	-0.025270939
41	0x3dbd65b6	0.092479154
42	0xbe1b317c	-0.15155596
43	0x3d57f124	0.052720204
44	0xbda3e8fe	-0.08003424
45	0xbdda1598	-0.1064865
46	0xbd88682f	-0.066604964
47	0x3db978e0	0.09056258
48	0x3cb9d4e0	0.022684515
49	0xbcd65470	-0.02616331
50	0x3dc09d3a	0.094049886
51	0xbdc512e8	-0.09622747
52	0x3d8fc1b2	0.07019366
53	0x3dfb03de	0.12256597
54	0xbc92c040	-0.017913938
55	0x3d022ebc	0.03178285
56	0xbddf304f	-0.10897886
57	0xbd9d6c25	-0.076866426
58	0xbe20e5e6	-0.157127
59	0xbdecbdf6	-0.1155967
60	0xbdb50501	-0.08838845
61	0xbd523692	-0.051321574
62	0xbd9b8161	-0.075930364
63	0xbe1f36f0	-0.155483
64	0x3d00a17c	0.031404004
65	0x3d87786e	0.06614767
66	0xbd02583c	-0.031822428
67	0xbdd402a2	-0.10352065
68	0xbc914318	-0.017732188
69	0xbd3146ae	-0.043280296
70	0xbe1ab1ee	-0.15106937
71	0xbd7f6d7a	-0.062360264
72	0xbd2d2a3c	-0.042276606
73	0xbe156dba	-0.14592639
74	0x3ccb6e68	0.02483292
75	0xbda5f681	-0.081036575
76	0xbccf53f8	-0.025308594
77	0x3dc276be	0.094953045
78	0x3dc49242	0.09598209
79	0x3cef4200	0.029206276
80	0xbde57b5e	-0.11205171
81	0x3c6d4db4	0.014483858
82	0xbda9eb3b	-0.0829682
83	0xbd32e495	-0.043675024
84	0x3e3adea8	0.18248999
85	0xbe198735	-0.14992984
86	0x3e81dd11	0.25363973
87	0x3ea2e65f	0.31816384
88	0xbc70bc78	-0.014693372
89	0x3e510cd5	0.20415051
90	0x3e0d30c4	0.13788134
91	0xbe88f8bf	-0.26752278
92	0xbd978468	-0.07398301
93	0xbe707d0b	-0.234852
94	0xbe00af7a	-0.12566939
95	0x3da75392	0.08170237
96	0xbda4bba2	-0.080436006
97	0xbdc7ebb1	-0.097617514
98	0xbd6d08a0	-0.057869554
99	0xbe1c7592	-0.15279225
100	0x3e1c6e35	0.15276416
101	0x3ddac92d	0.106829025
102	0xbe25655b	-0.16151945
103	0x3d2d75c2	0.04234863
104	0x3c943184	0.018090017
105	0xbe8fd63a	-0.2809313
106	0x3e8b9b32	0.27266842
107	0x3b42b166	0.0029707788
108	0x39dd9ef2	0.00042270828
109	0x3e4ccd20	0.20000124
110	0xbe5ab093	-0.2135642
111	0xbdcf8792	-0.1013328
112	0xbe3d6445	-0.18495281
113	0xbe9666b1	-0.29375222
114	0x3e222ad3	0.15836649
115	0x3bca6739	0.006176856
116	0xbe359b43	-0.17735009
117	0xbbe0b779	-0.006857809
118	0xbd86945d	-0.06571267
119	0x3db7b9f2	0.08971013
120	0x3e1c7cf9	0.15282048
121	0x3e8a027d	0.26955023
122	0x3e6b6be6	0.22990379
123	0x3e868279	0.26271418
124	0x3e5208c6	0.2051116
125	0x3e4fd166	0.20294723
126	0x3e03c25b	0.1286711
127	0x3e5e93af	0.21736024
128	0x3e9a65af	0.30155703
129	0x3eaa295c	0.3323468
130	0x3e899dc1	0.2687817
131	0x3eedd077	0.4644811
132	0x3e8e2acc	0.27767026
133	0x3ea576e4	0.3231727
134	0x3b4fe5a8	0.003172258
135	0x3e88e5c7	0.26737806
136	0x3eb6ac62	0.35678393
137	0x3f0831c0	0.5320091
138	0x3ef3cf15	0.4761893
139	0x3d6eba68	0.05828324
140	0x3eab867c	0.3350104
141	0x3ecd3f4d	0.40087357
142	0x3e00b2e9	0.12568249
143	0x3dace147	0.08441406
144	0x3eb5c2c6	0.35500163
145	0x3e88b39b	0.26699528
146	0x3e1a9e91	0.15099551
147	0x3e3ea03e	0.18615815
148	0x3e90cc21	0.28280738
149	0x3e147428	0.14497435
150	0x3e554164	0.20825726
151	0x3ebea31e	0.37233824
152	0x3cf2e6ee	0.029651131
153	0x3eab4005	0.3344728
154	0x3eb1a92d	0.34699383
155	0x3ec20645	0.37895408
156	0x3e6c0cb2	0.23051718
157	0xbc318b14	-0.010836381
158	0x3ebf6115	0.37378755
159	0x3ea40b31	0.32039788

weight_ih_l1 f4 [160, 40]
0	0xbe1cfa19	-0.1532978
1	0x3d0f9569	0.035054598
2	0xbe5715b2	-0.2100437
3	0xbd07782e	-0.033073597
4	0xbe5513fd	-0.20808406
5	0xbe906b96	-0.28207082
6	0x3dcef07a	0.10104461
7	0xbe635e29	-0.22203888
8	0xbd9a5024	-0.07534817
9	0x3da7f83d	0.082016446
10	0x3d3c55af	0.04598015
11	0xbd1f9b30	-0.038966358
12	0x3c841ad2	0.01612607
13	0xbe3058ca	-0.1722137
14	0xbddce7a4	-0.107863694
15	0x3e89b5b7	0.2689645
16	0x3ec28c87	0.3799784
17	0xbea9c3aa	-0.33157092
18	0x3ddb7984	0.10716537
19	0xbdb20f81	-0.086943634
20	0xbd960bdc	-0.07326481
21	0x3c8daa86	0.017293226
22	0xbea0596b	-0.3131822
23	0x3ea71c4f	0.32638785
24	0xbe1da559	-0.15395106
25	0x3d4e9e70	0.050444067
26	0x3e69ec47	0.22844039
27	0x3c089eee	0.008338673
28	0x3d113000	0.035446167
29	0xbf11f069	-0.5700746
30	0x3f0b0acf	0.5431337
31	0x3d60b7ef	0.054862913
32	0x3e16816f	0.14697812
33	0xbe56af9e	-0.2096543
34	0xbd02f8f6	-0.03197571
35	0xbe816ce4	-0.2527839
36	0x3e53e9db	0.20694678
37	0x3e3a45d3	0.18190698
38	0xbe4b9578	-0.19881237
39	0xbe6ea948	-0.23306763
40	0x3afdee8a	0.0019373458
41	0xbd1affb9	-0.037841532
42	0x3e2d6f26	0.16936931
43	0x3dcb7e07	0.09936147
44	0x3e605ca7	0.21910344
45	0xbe3c9bd1	-0.18418814
46	0x3bd77efa	0.006576416
47	0x3e238cc4	0.15971667
48	0xbe1384a6	-0.1440607
49	0x3db7e02c	0.08978304
50	0xbdaf90b3	-0.08572521
51	0xbd85045f	-0.06494974
52	0xbddec342	-0.10877086
53	0xbea66628	-0.32499814
54	0x3e4d0614	0.2002185
55	0x3cbdfb46	0.023191106
56	0xbd5f66b7	-0.054541316
57	0xbe061bae	-0.13096496
58	0x3d06d60f	0.032918986
59	0xbe45b484	-0.19307142
60	0xbc681b1c	-0.01416662
61	0xbd9ecbfd	-0.077537514
62	0xbd2f10a1	-0.042740468
63	0xbe40c3d3	-0.18824701
64	0xbda0a8e4	-0.07844713
65	0xbe3ec7e5	-0.18630941
66	0x3d8471dc	0.064670295
67	0x3d333ad0	0.04375726
68	0xbc9e70f7	-0.019340975
69	0x3dfc0cdf	0.123071425
70	0xbe822335	-0.25417486
71	0xbe08ecc3	-0.13371567
72	0xbe23497c	-0.15946001
73	0xbe3e9469	-0.18611301
74	0x3e872fc2	0.26403624
75	0x3d5d76b2	0.054068275
76	0xbda47be7	-0.08031445
77	0x3e48c7b9	0.19607438
78	0x3da7697a	0.08174415
79	0x3d5faa81	0.054605965
80	0x3d158d2a	0.036511578
81	0xbebed622	-0.37272745
82	0xbce1ddd5	-0.027571598
83	0xbdfc4366	-0.12317543
84	0xbeb35c84	-0.3503152
85	0xbebf66af	-0.3738303
86	0x3e04c74a	0.12966648
87	0xbe1be7f1	-0.15225197
88	0xbe3990a5	-0.18121584
89	0x3d268ddd	0.040662635
90	0x3e870ebb	0.26378426
91	0xbe72616d	-0.23669977
92	0x3e31d90b	0.17367952
93	0x3e3b9a16	0.18320498
94	0xbb96592d	-0.0045882673
95	0x3e9612ca	0.2931121
96	0x3e8fd703	0.28093728
97	0x3cff1581	0.031138184
98	0x3e06a482	0.13148692
99	0xbeb8db81	-0.36104968
100	0x3e342a6f	0.17594312
101	0xbd9f09af	-0.07765519
102	0xbe943648	-0.28947663
103	0x3e1e2a2e	0.15445778
104	0xbe14711b	-0.14496271
105	0xbe318acb	-0.17338102
106	0x3de22728	0.11042625
107	0xbb19f5d3	-0.002349247
108	0x3e01e2f7	0.12684236
109	0xbe436d6d	-0.19084711
110	0x3db6e487	0.08930307
111	0x3d9f2d91	0.07772363
112	0xbdc0b5cc	-0.09409675
113	0xbcb464a8	-0.022020653
114	0x3e21f064	0.15814358
115	0xbe3d45ec	-0.18483704
116	0xbe29d8b3	-0.1658657
117	0x3bb5eaa0	0.005551651
118	0xbe70ae76	-0.23504052
119	0x3d00b2f3	0.03142066
120	0xbb7c953b	-0.0038541097
121	0xbc3b2e73	-0.011424649
122	0xbdd4e076	-0.10394375
123	0xbe00a4db	-0.12562887
124	0xbeb34fc1	-0.35021785
125	0xbd08bf6a	-0.03338567
126	0xbe07a631	-0.1324699
127	0xbe9dad1d	-0.30796137
128	0xbdeebd59	-0.11657209
129	0x3da95c32	0.08269538
130	0x3d618b1a	0.0550643
131	0x3d8332aa	0.06406148
132	0xbdecdaa3	-0.11565139
133	0xbdbfb332	-0.09360351
134	0xbd39df62	-0.04537905
135	0xbc0358ae	-0.008016748
136	0x3ebc9f88	0.36840463
137	0xbdc59ccc	-0.09649047
138	0x3e28b66d	0.1647584
139	0xbd3e6bea	-0.046489634
140	0xbecc1620	-0.3986063
141	0x3e28caf6	0.16483673
142	0xbdcce1ec	-0.10004029
143	0x3da93825	0.08262662
144	0xbe3a4094	-0.18188697
145	0x3e833c3e	0.256319
146	0xbcb88f99	-0.02252941
147	0xbc43d2b7	-0.011952094
148	0x3d77f0f2	0.060532518
149	0xbec26d74	-0.3797413
150	0x3ec530ba	0.38513738
151	0x3de0e042	0.10980274
152	0x3edb4e49	0.42833164
153	0x3e03106b	0.12799232
154	0xbef22076	-0.4729039
155	0xbe5c411f	-0.21509217
156	0x3e9d8402	0.30764776
157	0xbcf86f1c	-0.030326419
158	0xbd479ef5	-0.048735578
159	0xbeb62060	-0.35571575
160	0xbd932159	-0.07184095
161	0xbd24f70a	-0.040274657
162	0x3e91fbbb	0.28512368
163	0xbdf1041c	-0.11768362
164	0x3e21ff82	0.15820125
165	0x3e73696d	0.23770685
166	0x3d63d5d1	0.055623833
167	0x3d1e3c5d	0.038631786
168	0xbb5ffb1c	-0.0034176772
169	0xbec0e6be	-0.37676042
170	0xbe0086a6	-0.12551364
171	0xbdba94ae	-0.0911039
172	0xbd1017d2	-0.035178967
173	0xbd20dfeb	-0.039276045
174	0x3e019ee0	0.12658262
175	0xbdda7ac8	-0.1066795
176	0xbdc3b6f1	-0.09556378
177	0xbbc29b41	-0.005938918
178	0x3cd3c9e7	0.02585311
179	0x3e671c4f	0.22569393
180	0x3d9b30a7	0.07577639
181	0x3ddf1704	0.10893062
182	0x3e98841b	0.29788288
183	0xbd853666	-0.06504516
184	0xbdb5ec96	-0.08883016
185	0xbd763b29	-0.060115013
186	0x3db059d6	0.08610885
187	0xbe4fe410	-0.20301843
188	0x3dfb53c5	0.12271837
189	0xbce5145e	-0.027963813
190	0x3d8a09f5	0.067401804
191	0xbe275ec0	-0.16344738
192	0x3cd9335a	0.026513744
193	0xbba179fe	-0.0049278727
194	0x3dce2d3a	0.1006722
195	0xbe49bcff	-0.19701003
196	0xbd3f7990	-0.04674679
197	0xbc70ffac	-0.014709394
198	0x3e0fcd74	0.14043218
199	0xbe651efa	-0.22375098
200	0xbdb08500	-0.08619118
201	0xbcde43ba	-0.027131904
202	0xbd25a911	-0.040444437
203	0xbe403c03	-0.18772893
204	0xbe478e3b	-0.1948785
205	0xbebca427	-0.36843988
206	0xbe029067	-0.12750398
207	0xbdeae2cd	-0.1146904
208	0xbe5b77e9	-0.21432461
209	0x3e009a70	0.12558913
210	0xbe03528d	-0.1282446
211	0x3c84a0fb	0.016190043
212	0xbd04d6ad	-0.032431293
213	0xbe64b753	-0.22335558
214	0x3e3361c4	0.17517763
215	0x3e405901	0.18783952
216	0x3e17c6f9	0.14821996
217	0xbeaf50eb	-0.34241423
218	0x3cea04ac	0.02856668
219	0xbd87339a	-0.06601639
220	0xbe12b103	-0.14325337
221	0x3dad2c67	0.08455735
222	0xbe4fd8d3	-0.20297556
223	0xbe1191e9	-0.14215817
224	0xbe61b309	-0.22040953
225	0xbd5af66e	-0.05345767
226	0xbcb37912	-0.021908317
227	0x3d6d6989	0.057961974
228	0x3e0994cd	0.13435669
229	0xbead906b	-0.33899245
230	0x3d963e51	0.07336105
231	0xbde00518	-0.109384716
232	0x3e76bcfb	0.24095528
233	0x3de7f4ca	0.11325987
234	0xbde731bc	-0.11288783
235	0xbd63d730	-0.05562514
236	0x3e6f8fa4	0.23394638
237	0x3b0b7ed2	0.0021285308
238	0xbdfadc20	-0.12249017
239	0x3cada595	0.02119712
240	0xbd9a8147	-0.07544189
241	0x3db37dc4	0.08764222
242	0x3e1e0e0f	0.1543505
243	0x3a8d7db0	0.0010794904
244	0xbd1a4b92	-0.037669726
245	0xbe89d4c7	-0.2692015
246	0xbd2e19d2	-0.042505093
247	0xbdf64216	-0.12024324
248	0xbe887a66	-0.26655883
249	0x3cf1694a	0.029469151
250	0xba59be67	-0.0008306265
251	0xbd66ae48	-0.05631855
252	0xbd395001	-0.045242313
253	0xbd8e1a26	-0.06938581
254	0x3e21ddcb	0.15807264
255	0x3e555149	0.20831789

weight_hh_l1 f4 [160, 40]
0	0x3e0b9363	0.13630442
1	0xbd79bd12	-0.060971327
2	0x3d27d590	0.040975153
3	0xbcfab640	-0.030604482
4	0x39df2400	0.00042560697
5	0x3e1dd30d	0.1541254
6	0xbe0b316b	-0.1359307
7	0x3d1da7cc	0.0384901
8	0x3d7a5f6c	0.061126158
9	0xbdf2ac10	-0.118492246
10	0xbc72fa30	-0.014830157
11	0xbdb51ebd	-0.088437535
12	0x3dc29b0e	0.095022306
13	0xbce1fa70	-0.027585238
14	0x3d481fac	0.04885833
15	0xbe089312	-0.13337353
16	0xbe0513cd	-0.12995835
17	0xbdb6d146	-0.089266345
18	0xbdc0bbf3	-0.094108485
19	0xbdbb12db	-0.09134456
20	0x3e0cf51f	0.13765381
21	0xbc8e7fd8	-0.017394945
22	0xbcca9048	-0.024727002
23	0x3d6484c0	0.055790663
24	0xbd044870	-0.032295644
25	0xbcf52948	-0.029926911
26	0xbd2e012a	-0.04248158
27	0xbe15d244	-0.14630991
28	0xbe14deab	-0.14538066
29	0xbd6138f0	-0.05498594
30	0x3d119ec8	0.035551816
31	0x3ddd09e2	0.107929006
32	0xbd5c941a	-0.05385218
33	0xbd5e471c	-0.054267034
34	0x3e0c9673	0.13729267
35	0x3d748314	0.05969532
36	0x3de36236	0.111027166
37	0x3d1839e4	0.037164584
38	0x3dd29a0e	0.1028329
39	0x3d2ed140	0.042680025
40	0x3d9c2322	0.076238886
41	0xbdcae76f	-0.09907424
42	0xbc8227f0	-0.015888184
43	0x3da9a21c	0.08282873
44	0xbe0943a2	-0.13404706
45	0xbd42cc22	-0.047557957
46	0xbe1f2afc	-0.15543741
47	0x3dc537fa	0.09629817
48	0x3de5fe5a	0.11230154
49	0x3c3434a0	0.010998875
50	0xbbaf4780	-0.0053490996
51	0xbde7e621	-0.113231905
52	0xbdd8c8ae	-0.105851516
53	0x3ded9602	0.11600877
54	0x3d0a1630	0.033712566
55	0x3e1e7aa7	0.15476476
56	0xbdd4985c	-0.10380623
57	0xbdc79284	-0.097447425
58	0xbb319900	-0.0027099252
59	0x3db29572	0.08719911
60	0xbd683b98	-0.056697458
61	0xbd9814d6	-0.07425849
62	0x3be71380	0.007051885
63	0xbda5e091	-0.08099473
64	0x3ddd8e16	0.10818116
65	0x3d9c7064	0.07638624
66	0xbc7a3cd0	-0.015273288
67	0xbe150f45	-0.14556606
68	0x3db41830	0.08793676
69	0xbd74d9e0	-0.059778094
70	0xbc16ff80	-0.009216189
71	0x3de25f72	0.11053361
72	0xbd183650	-0.03716117
73	0xbe0faf21	-0.1403165
74	0xbd9ef61e	-0.07761787
75	0x3e115383	0.14192013
76	0x3d6cfcd0	0.05785829
77	0x3e10a7cd	0.14126511
78	0xbcff6080	-0.031173944
79	0xbdc1068d	-0.094250776
80	0xbd191eaa	-0.03738276
81	0xbc1212a0	-0.008915573
82	0x3cb68000	0.022277832
83	0x3b533c00	0.0032231808
84	0xbe00986e	-0.12558147
85	0xbdfc275b	-0.12312194
86	0xbd6ca1d0	-0.057771504
87	0x3db78050	0.089600205
88	0x3d96061e	0.073253855
89	0x3c8fe690	0.017565995
90	0x3d85a484	0.065255195
91	0xbd0d8934	-0.034554675
92	0xbd25cef0	-0.040480554
93	0x3dc7d1a2	0.09756781
94	0xbd17b0f8	-0.037034005
95	0xbd9f717e	-0.07785319
96	0x3d5d3a34	0.054010585
97	0x3e1cbddb	0.15306799
98	0xbe16e2d9	-0.14734973
99	0xbc32e850	-0.010919645
100	0xbe0ac3ab	-0.13551204
101	0x3d9d9344	0.07694104
102	0xbe17c6e6	-0.14821967
103	0xbd6fc156	-0.05853399
104	0xbd7f20ca	-0.06228713
105	0xbe11e0a3	-0.14245848
106	0x3d9be5de	0.07612203
107	0xbd94b1cc	-0.072604746
108	0xbd3f5efe	-0.04672145
109	0x3c624d90	0.013812438
110	0x3e04b2ab	0.12958781
111	0x3d76cac0	0.06025195
112	0xbe07befb	-0.13256447
113	0xbd3669f8	-0.044534653
114	0xbdd34d4a	-0.10317476
115	0x3d7ae98c	0.061257884
116	0xbd485d08	-0.048916847
117	0xbdcd7e51	-0.100338586
118	0xbdcc191e	-0.09965728
119	0xbde5fae6	-0.11229496
120	0xbe1b8efe	-0.15191266
121	0xbe0c2bd4	-0.13688594
122	0x3dc929f6	0.098224565
123	0xbcf2ab28	-0.02962263
124	0xbdd923dc	-0.10602543
125	0x3d56f85c	0.052482948
126	0xbd38b8ae	-0.045098
127	0x3c771800	0.015081406
128	0x3dda9986	0.106738135
129	0x3b481a40	0.0030533224
130	0xbd580352	-0.05273754
131	0x3d2ae4b0	0.041722
132	0xbd68f740	-0.05687642
133	0x3d983552	0.07432045
134	0x3d66ce1c	0.056348905
135	0xbe1b938f	-0.15193008
136	0xbdddd2ff	-0.1083126
137	0xbcfc7b90	-0.030820638
138	0xbd97d79b	-0.0741417
139	0xbe169b9b	-0.14707796
140	0x3d97206c	0.07379231
141	0x3cbaf658	0.022822544
142	0xbca7bde0	-0.020476282
143	0xbd992c3c	-0.0747914
144	0x3d77ce70	0.06049961
145	0xbe0a62d7	-0.13514267
146	0xbda88be0	-0.08229804
147	0xbc2f7f10	-0.010711446
148	0x3e110029	0.14160217
149	0x3d920a18	0.071308315
150	0x3cd86d28	0.026419237
151	0x3e055391	0.1302016
152	0x3dcf2b0a	0.10115631
153	0x3e20bb4f	0.15696453
154	0x3e031e49	0.12804522
155	0x3daff476	0.08591549
156	0x3c0dd150	0.008655861
157	0x3e10393d	0.14084335
158	0xbd25381e	-0.04033672
159	0x3af06400	0.0018340349
160	0xbda0f5cb	-0.07859381
161	0xbe1095a2	-0.1411958
162	0x3d2f86c4	0.042853132
163	0xbde437e6	-0.11143474
164	0x3e03d029	0.12872376
165	0x3e1ceef5	0.1532553
166	0xbda54725	-0.0807021
167	0xbdc6b370	-0.09702194
168	0x3de95262	0.113926664
169	0x3e19dbff	0.15025328
170	0x3ce47510	0.027887851
171	0xbd8d5c26	-0.069023415
172	0x3c3344f0	0.010941729
173	0x3c37ebf0	0.0112256855
174	0xbe0a801e	-0.13525435
175	0xbe15c62d	-0.1462638
176	0x3e07d537	0.13264929
177	0xbdec5181	-0.11538983
178	0xbcddfae0	-0.027097166
179	0xbc4ab5c0	-0.012372434
180	0xbd292794	-0.04129751
181	0xbd5819e4	-0.052759066
182	0x3d8044a8	0.06263095
183	0x3dc7430a	0.097295836
184	0x3e095551	0.13411452
185	0x3db385d6	0.087657616
186	0xb94f7c00	-0.00019787252
187	0xbe1e2adb	-0.15446036
188	0x3de178a2	0.11009337
189	0xbcbdd168	-0.023171142
190	0x3d61f8d0	0.055168927
191	0xbc7d0500	-0.015443087
192	0x3da95392	0.08267893
193	0xbe1e3eca	-0.1545364
194	0x3d583800	0.05278778
195	0x3d975286	0.07388787
196	0xbe210c8c	-0.15727443
197	0x3dbf6ff2	0.09347524
198	0x3cbd1ba8	0.023084477
199	0xbd9c9aaa	-0.07646687
200	0xbd28d48c	-0.041218325
201	0x3d15c498	0.03656444
202	0x3d2b2dc0	0.041791677
203	0x3d8cc39e	0.068732485
204	0x3d01c300	0.031680107
205	0xbe03d06c	-0.12872475
206	0xbde9604a	-0.11395319
207	0xbdb70197	-0.0893585
208	0xbb813b60	-0.0039438456
209	0x3d4349d8	0.047677845
210	0x3e0a9b71	0.13535859
211	0x3c4c9d10	0.0124886185
212	0xbd883adf	-0.06651854
213	0xbd210d8e	-0.039319567
214	0xbda3784c	-0.07981929
215	0x3d1d54b4	0.038410857
216	0xbc85e5f0	-0.016344994
217	0x3e1a2c15	0.15055878
218	0x3c17ed50	0.009272888
219	0xbe0cb387	-0.13740359
220	0x3b150e80	0.0022744238
221	0xbdc5c9f7	-0.09657662
222	0xbd6280e8	-0.055298716
223	0x3dae4170	0.08508575
224	0xbdbee736	-0.09321444
225	0xbd606d7c	-0.054791912
226	0x3dbac8fc	0.09120366
227	0x3ddcad36	0.10775225
228	0xbd7d78e8	-0.061882883
229	0xbe1e3591	-0.15450121
230	0x3d03452c	0.03204839
231	0x3e1af211	0.15131404
232	0x3e19fe63	0.15038447
233	0xbd79828c	-0.060915515
234	0xbe16e7a5	-0.14736803
235	0xbe0c510f	-0.13702796
236	0xbe13c6ac	-0.14431256
237	0xbd526d4c	-0.051373765
238	0x3cb74048	0.022369519
239	0xbd4b3a80	-0.049616337
240	0xbd87db4b	-0.06633624
241	0x3e0d496b	0.13797538
242	0x3c6d3c70	0.014479741
243	0x3e0bd3ad	0.13654967
244	0xbced7918	-0.028988406
245	0x3d4cb3b0	0.04997605
246	0x3df306ca	0.11866529
247	0xbc8de7a8	-0.017322376
248	0xbcd71988	-0.026257291
249	0xbcdeb3c8	-0.027185336
250	0x3e0e3093	0.13885717
251	0x3de11dda	0.10992022
252	0x3d6cde24	0.057829037
253	0xbd92d31c	-0.07169172
254	0x3dd04692	0.1016971
255	0xbdb2c907	-0.08729749

bias_ih_l1 f4 [160]
0	0x3e07cf95	0.1326278
1	0x3dfad0fc	0.12246892
2	0x3d94c1e6	0.07263546
3	0x3e9d4e66	0.30723876
4	0x3e30a961	0.17252113
5	0x3e0af89a	0.13571396
6	0x3e9440f4	0.28955805
7	0x3e41eca7	0.18937932
8	0x3e91c97b	0.2847403
9	0x3eca4e84	0.39513028
10	0x3e2212d8	0.15827501
11	0x3eb03eeb	0.34423003
12	0x3e41533f	0.18879412
13	0x3e9b8889	0.30377606
14	0x3e97ecd0	0.2967286
15	0x3d3532f5	0.04423805
16	0x3c819565	0.015818307
17	0x3ec05427	0.37564203
18	0x3e21c83e	0.15799043
19	0x3eccbd56	0.39988202
20	0x3e9961a0	0.29957294
21	0x3e1fa602	0.1559067
22	0x3e7a8bff	0.24467467
23	0x3e8dd82c	0.2770399
24	0x3e7c778b	0.24654977
25	0x3f02457f	0.5088729
26	0x3e609860	0.21933126
27	0x3db6d39e	0.089270815
28	0x3ceaa6cd	0.02864399
29	0x3e94ff91	0.29101232
30	0x3e3555ce	0.17708513
31	0x3ea9341d	0.33047572
32	0x3ddcc11b	0.107790194
33	0x3dcffbd0	0.10155451
34	0x3e5d709b	0.21624987
35	0x3e2b3340	0.16718769
36	0x3e2c2a3a	0.16812983
37	0x3edcec36	0.43148965
38	0x3e3c608e	0.18396208
39	0x3e16d9c4	0.14731508
40	0x3c9d0270	0.019166201
41	0x3e1cd723	0.15316443
42	0x3d55b154	0.052171066
43	0x3d4ca564	0.049962416
44	0xbdc4f078	-0.09616178
45	0x3e10e0c7	0.14148246
46	0xbc95efa8	-0.018302754
47	0x3da0f940	0.07860041
48	0xbd9fa9bc	-0.07796046
49	0xbdc38f7b	-0.09548851
50	0x3dd01246	0.101597354
51	0x3e039d87	0.1285306
52	0xbe143156	-0.14471945
53	0x3df81aae	0.12114464
54	0xbe1bcce6	-0.15214881
55	0x3e14e6ef	0.14541219
56	0xbd5c5ed6	-0.05380138
57	0x3db2a3e6	0.087226674
58	0xbd543ffa	-0.051818825
59	0xbc266080	-0.010154843
60	0xbdb0ea4a	-0.08638437
61	0x3d932e88	0.071866095
62	0xbd910fd0	-0.07083094
63	0xbc82cbd8	-0.01596634
64	0xbcbbea50	-0.022938877
65	0xbe0401ce	-0.12891313
66	0xbe114ce1	-0.14189483
67	0x3dbc80de	0.09204267
68	0xbc559f30	-0.013038442
69	0x3dd4605a	0.1036994
70	0x3d8c4286	0.06848626
71	0x3c8235f0	0.01589486
72	0x3db82646	0.08991675
73	0xbce4fd30	-0.02795276
74	0xbda5b238	-0.08090633
75	0x3da5347a	0.0806665
76	0xbd397656	-0.04527887
77	0x3c63ef30	0.013912007
78	0xbdda9b2c	-0.10674128
79	0x3e179a4d	0.14804955
80	0xbcd0deed	-0.025496924
81	0xbd88b277	-0.066746645
82	0x3d3fb186	0.04680016
83	0xbb549d0f	-0.0032442247
84	0x3d90b360	0.07065463
85	0xb9d66c7e	-0.00040898094
86	0x3dd43301	0.10361291
87	0x3d014c88	0.031567127
88	0x3d452d36	0.04813882
89	0xbd9ce7a3	-0.07661369
90	0xbdaff932	-0.08592452
91	0xbd519e7d	-0.051176537
92	0xbc0ea809	-0.008707055
93	0x3db98ac7	0.09059673
94	0xbd6070f2	-0.054795213
95	0xbdf50c99	-0.119652934
96	0xbce26b8e	-0.027639177
97	0xbdeff063	-0.11715772
98	0xbb7e35c0	-0.0038789362
99	0x3d8eef19	0.06979198
100	0x3c8fd40c	0.017557167
101	0x3d81a461	0.06330181
102	0xbc168c28	-0.009188689
103	0xbdf70d24	-0.12063053
104	0x3e09a799	0.1344284
105	0x3db15833	0.08659401
106	0x3d4b5614	0.049642637
107	0xbd448a65	-0.047983546
108	0x3d85d04b	0.06533869
109	0x3e094509	0.13405241
110	0x3d0110ec	0.03151028
111	0xbd93134f	-0.07181417
112	0xbc8091b6	-0.01569448
113	0xba0edb58	-0.0005449555
114	0x3d5713dd	0.052509177
115	0xbcd3bcbe	-0.025846835
116	0x3ccaecb5	0.024771074
117	0x3d8cc36d	0.06873212
118	0x3d1d1615	0.038351137
119	0x3d6f97ad	0.05849426
120	0x3e8f364f	0.27971122
121	0x3cfda7d7	0.030963821
122	0x3e43106b	0.19049232
123	0x3e348119	0.17627372
124	0x3dba2a7f	0.09090137
125	0x3e09e5ec	0.13466614
126	0x3e86f09b	0.26355442
127	0x3da2381c	0.07920858
128	0x3d9d3e6b	0.07677921
129	0x3eb20c44	0.34774983
130	0x3d898110	0.0671407
131	0x3dfbd9db	0.12297412
132	0x3ea7087f	0.3262367
133	0x3eb71e24	0.35765183
134	0x3e9c3b85	0.3051416
135	0x3e632329	0.22181381
136	0xbd2ffa13	-0.0429631
137	0x3ee42d40	0.44565773
138	0x3e693cc2	0.22777084
139	0x3ea6f97b	0.32612213
140	0x3eab68ab	0.33478293
141	0x3dd2dfe4	0.1029661
142	0x3e4ac334	0.19801027
143	0x3dd1999c	0.10234377
144	0x3dcb1939	0.0991692
145	0x3eb3c1e2	0.35108858
146	0x3de2ee10	0.11080563
147	0x3e9a53d3	0.30142078
148	0x3d8949fc	0.067035645
149	0x3e4c1891	0.19931246
150	0x3e23db0e	0.16001531
151	0x3e9a2724	0.30107987
152	0x3d19b871	0.037529413
153	0x3e1f5514	0.15559798
154	0x3ed0ef14	0.40807402
155	0x3e60f35e	0.21967837
156	0x3e73fb80	0.23826408
157	0x3e1b663c	0.15175718
158	0x3e9f7db8	0.31150603
159	0x3db9d4b4	0.09073773

bias_hh_l1 f4 [160]
0	0x3e1d906d	0.15387125
1	0x3eb742f8	0.3579328
2	0x3ea50035	0.3222672
3	0x3e8cd10a	0.27503234
4	0x3e991b9a	0.2990387
5	0x3e8debea	0.2771905
6	0x3ead4402	0.33840948
7	0xbd332e32	-0.043745227
8	0x3e8edf61	0.279048
9	0x3e92e726	0.28691977
10	0x3e93a8c3	0.28839692
11	0x3ec3d7ad	0.38250485
12	0x3d7bc430	0.061466396
13	0x3e56974a	0.2095615
14	0x3e39ed1b	0.18156855
15	0x3d0c38dd	0.034233917
16	0x3c34011a	0.010986591
17	0x3e1eb6bb	0.15499394
18	0x3dd05881	0.10173131
19	0x3e338199	0.17529906
20	0x3e71ae7b	0.23601715
21	0x3db4d0cb	0.088288866
22	0x3e9657c1	0.29363826
23	0x3d2da8e8	0.04239741
24	0x3e489307	0.19587336
25	0x3ed7d202	0.4215241
26	0x3e649730	0.22323298
27	0x3c724886	0.014787799
28	0x3e9e91ef	0.30970713
29	0x3e1920c9	0.14953913
30	0x3e6555ce	0.22396013
31	0x3eb4e42b	0.35330328
32	0x3e92e4b1	0.28690103
33	0x3e435b41	0.1907778
34	0x3e57f667	0.21090089
35	0x3e58911a	0.21149102
36	0x3e5c089e	0.21487662
37	0x3ed208a0	0.41022205
38	0x3ea05dcb	0.31321558
39	0x3d7ec909	0.06220344
40	0xbd8b2ded	-0.06795869
41	0x3def1af6	0.11675064
42	0xbe1d7c77	-0.15379511
43	0x3df2181e	0.11821006
44	0xbd7456cc	-0.05965309
45	0xbb979dc0	-0.0046269596
46	0x3cf0b860	0.029384792
47	0xbdb21085	-0.08694557
48	0x3de683a6	0.11255579
49	0x3d1c50ec	0.03816311
50	0x3da1186e	0.07865988
51	0x3d8c4f6e	0.068510875
52	0x3d821ee4	0.06353548
53	0xbc8c0a88	-0.017094865
54	0xbe1750f4	-0.14776975
55	0xbdb457c0	-0.088057995
56	0xbccb0fc8	-0.024787799
57	0xbe05f361	-0.13081123
58	0x3d84ecf2	0.06490506
59	0xbd8f6bc8	-0.070029795
60	0xbda15083	-0.078766845
61	0x3cc01948	0.023449555
62	0x3df4f2ba	0.11960359
63	0x3e1ae66d	0.15126963
64	0x3db77666	0.089581296
65	0xbd00a4e0	-0.031407237
66	0xbdc57ed2	-0.0964333
67	0xbe1d39e9	-0.15354122
68	0xbdd08434	-0.10181466
69	0x3ddd2226	0.10797529
70	0xbd9a0dc6	-0.07522158
71	0xbd587a66	-0.052851103
72	0x3d542fc8	0.05180338
73	0x3b9c5160	0.004770443
74	0xbda4616d	-0.08026395
75	0xbe0d8a3d	-0.13822265
76	0x3dc50406	0.09619908
77	0xbdbf8852	-0.09352173
78	0xbc28b140	-0.010296166
79	0xbcf0d838	-0.029399976
80	0x3da07f3e	0.078367695
81	0x3db54dc7	0.088527255
82	0xbd232fcd	-0.03984051
83	0x3e052944	0.13004023
84	0xbe1d4315	-0.15357621
85	0xbd051987	-0.032495048
86	0xbd146c9f	-0.0362364
87	0x3c0d6cae	0.008631868
88	0x3d16aa24	0.036783352
89	0x3dee236e	0.116278514
90	0x3df7a472	0.12091912
91	0x3a332cf3	0.0006835006
92	0xbaeda6b1	-0.0018131343
93	0xbda67bbf	-0.081290714
94	0x3e4611b2	0.19342688
95	0x3d8d425d	0.068974234
96	0x3e6f1f19	0.23351707
97	0x3d9a085b	0.07521125
98	0x3cd018a4	0.025402375
99	0xbdb321f9	-0.08746714
100	0xbd99d018	-0.07510394
101	0xbdc24dd8	-0.09487504
102	0x3d3260e3	0.04354943
103	0x3a6b876c	0.0008984718
104	0x3dc9af9d	0.09847949
105	0xbcbdd258	-0.023171589
106	0xbdc7cc26	-0.09755735
107	0x3d823085	0.063569106
108	0x3bb26a57	0.0054448056
109	0xbdf9a511	-0.12189687
110	0x3dc16546	0.094431445
111	0x3db918d5	0.090379395
112	0xbc56faf9	-0.01312136
113	0x3e17ebdc	0.14836067
114	0xbd08d84d	-0.033409405
115	0x3d20395c	0.039117202
116	0xbc1774fc	-0.0092442
117	0xbdd06073	-0.10174646
118	0x3d1a2017	0.03762826
119	0x3cfb211d	0.030655438
120	0x3eb677c7	0.35638258
121	0x3e558459	0.20851268
122	0x3e918dbe	0.28428453
123	0x3dd4f781	0.1039877
124	0x3e399b50	0.18125653
125	0x3e4fa7d0	0.20278859
126	0x3d176ff2	0.036971994
127	0xbd15e811	-0.03659827
128	0x3ebd0c8d	0.36923638
129	0x3ecc751c	0.39933097
130	0x3e9020da	0.28150064
131	0x3ec78e8e	0.38975948
132	0x3e86c909	0.26325253
133	0x3ef151e8	0.47132802
134	0x3e8930bd	0.26794997
135	0x3e716d47	0.23576842
136	0x3cc91c98	0.024549767
137	0x3e57cf0f	0.2107508
138	0x3e4c55e6	0.19954643
139	0x3e8f7c01	0.28024295
140	0x3e1d97a7	0.15389882
141	0x3eb4f2c2	0.3534146
142	0x3ed0b54e	0.40763324
143	0x3e828f47	0.25499937
144	0x3e7564e0	0.23964262
145	0x3e5152d5	0.20441754
146	0x3da51162	0.08059956
147	0x3d02807d	0.031860817
148	0x3e2d501b	0.16925089
149	0x3e353bbf	0.17698573
150	0x3e7c332b	0.24628894
151	0x3f09df2a	0.53856146
152	0x3e90cefb	0.28282914
153	0xbcdb3a6a	-0.026761252
154	0x3e94ef9e	0.29089063
155	0x3ddf29a0	0.10896611
156	0x3e203dc8	0.15648568
157	0x3e4c1ef4	0.19933683
158	0x3d85e294	0.06537357
159	0x3e80ac43	0.25131425

weight f4 [6, 40]
0	0xbe658d82	-0.22417262
1	0xbdd1e6de	-0.102491125
2	0x3e3984ca	0.18117061
3	0xbe94cb49	-0.29061344
4	0xbd28e4fb	-0.041233998
5	0xbe3b7539	-0.18306436
6	0x3e29f034	0.16595536
7	0xbe547404	-0.20747381
8	0xbce6e590	-0.028185636
9	0xbe978b5e	-0.29598516
10	0x3cb5b12b	0.022179207
11	0x3e3c8763	0.18411021
12	0xbe8e2f5b	-0.27770504
13	0x3ab891eb	0.0014081573
14	0xbd717331	-0.058947746
15	0xbdba0a0b	-0.09083947
16	0x3b534abc	0.003224059
17	0x3b9fd95b	0.0048782057
18	0xbce93865	-0.028469274
19	0x3d338e0d	0.043836642
20	0x3d397616	0.04527863
21	0x3e7d3d3f	0.24730395
22	0xbcbbc543	-0.02292121
23	0xbbd66701	-0.0065430407
24	0xbedba0d4	-0.4289614
25	0x3cd27680	0.02569127
26	0xbcbd2902	-0.023090843
27	0xbea2c930	-0.3179412
28	0x3dc56c83	0.096398376
29	0xbd206ecd	-0.039168168
30	0x3deef39d	0.11667559
31	0x3c873064	0.016502567
32	0xbec6fb9f	-0.38863847
33	0x3ed592a8	0.41713452
34	0x3df8ad95	0.12142483
35	0x3e1e18f4	0.15439206
36	0x3c3bd0c8	0.011463352
37	0xbe357ac6	-0.17722616
38	0xbe493967	-0.19650804
39	0xbd897bc1	-0.06713057
40	0x3b85093f	0.00405994
41	0x3e26e4fa	0.16298285
42	0x3c1328e5	0.008981918
43	0x3aa0241f	0.0012217796
44	0x3eb04444	0.34427083
45	0x3d07bce9	0.033139143
46	0xbd687d4b	-0.056760114
47	0xbd529a50	-0.051416695
48	0x3ebd1aa8	0.369344
49	0xbc06786f	-0.008207425
50	0x3e2a195d	0.16611238
51	0x3ca1a808	0.019733444
52	0xbc56a022	-0.013099702
53	0xbea5a917	-0.32355568
54	0x3e26a16d	0.16272517
55	0x3ea1c33d	0.31594267
56	0x3ecc5f8e	0.39916652
57	0xbe930778	-0.28716636
58	0x3e4b655e	0.19862887
59	0xbe26b7e5	-0.16281088
60	0x3db342f2	0.08753003
61	0xbb989506	-0.004656437
62	0x3ed3f439	0.41397265
63	0xbeb848c7	-0.35993025
64	0x3ce492d5	0.027902046
65	0x3e2b6529	0.16737808
66	0x3ec74aae	0.38924164
67	0xbbc6534d	-0.0060524107
68	0x3defc2e0	0.11707091
69	0x3f12ba1e	0.5731524
70	0x3d89676f	0.067091815
71	0xbe9162d0	-0.283957
72	0xbc194bb8	-0.009356432
73	0x3d0c1d50	0.034207642
74	0x3ca881c7	0.020569695
75	0xbde71da7	-0.112849526
76	0x3e7bc518	0.24586904
77	0xbb48ca40	-0.0030638129
78	0xbce06b37	-0.027394874
79	0x3e6423d8	0.22279298
80	0xbdd1e03f	-0.1024785
81	0xbc16ad86	-0.009196645
82	0x3e2a512a	0.16632524
83	0xbddbce52	-0.10732712
84	0x3d19f1a9	0.03758398
85	0xbd28b788	-0.041190654
86	0x3d4db6b0	0.050223053
87	0xbe77ab8e	-0.24186537
88	0x3cac5538	0.02103673
89	0xbe11095a	-0.14163724
90	0x3d873b8c	0.066031545
91	0x3de44eec	0.11147866
92	0xbe32e20d	-0.17469044
93	0xbd1cee14	-0.038312986
94	0x3c9504cb	0.018190762
95	0x3be0fec1	0.0068663065
96	0x3d7a97fd	0.061180104
97	0xbce2e774	-0.027698256
98	0x3cef4690	0.029208452
99	0xbd21d076	-0.039505444
100	0x3d9aae18	0.07552737
101	0x3e0d7588	0.13814366
102	0x3cada13a	0.021195043
103	0xbd8b2b9c	-0.06795427
104	0xbe283bef	-0.16429113
105	0x3d322d3d	0.043500174
106	0x3d2617f1	0.040550176
107	0xbe50d7b9	-0.20394792
108	0x3e322cae	0.17399856
109	0x3c7e3f76	0.01551806
110	0x3df9e737	0.12202304
111	0xbb923389	-0.00446171
112	0xbe8d0819	-0.2754524
113	0x3e9560f8	0.29175544
114	0x3e00f78b	0.1259443
115	0x3d12f06e	0.035873823
116	0x3d4caa9c	0.049967393
117	0xbdda4c2b	-0.10659059
118	0xbe4c30de	-0.19940516
119	0x3c1c9021	0.009555847
120	0x3c4c0fd6	0.012454947
121	0xbe5043ac	-0.20338315
122	0xbe184959	-0.1487173
123	0x3cabb786	0.020961534
124	0xbf1f5a92	-0.62247574
125	0xbd264cf0	-0.040600717
126	0x3d1096a2	0.035299905
127	0x3d6313d1	0.05543882
128	0xbf0c8de7	-0.54904026
129	0x3cdd18ee	0.026989426
130	0xbed11337	-0.40834972
131	0xbd99120a	-0.07474144
132	0x3ba47553	0.005018869
133	0x3f27d40c	0.6555793
134	0xbe8511bb	-0.2599009
135	0xbed24611	-0.4106908
136	0xbe8bd7c1	-0.27313045
137	0x3f1728e7	0.5904679
138	0xbf33fa26	-0.7030357
139	0x3ed8c68d	0.42338982
140	0xbe741a15	-0.23838075
141	0xbd7acc98	-0.061230272
142	0xbf16b12b	-0.58864087
143	0x3f181a0b	0.5941474
144	0xbcbbb431	-0.02291307
145	0xbeb3db6d	-0.35128346
146	0xbf265eac	-0.6498821
147	0x3db01949	0.08598573
148	0xbe096697	-0.13418041
149	0xbede6a0a	-0.43440276
150	0xbdafbff8	-0.08581537
151	0x3eeb0f53	0.4591013
152	0x3d80b10a	0.062837675
153	0xbda89342	-0.08231212
154	0xbdae96b6	-0.085248396
155	0x3ddb0391	0.106940396
156	0xbee0ad55	-0.43882242
157	0xbc3ca0ac	-0.011512917
158	0x3dc61d6e	0.09673582
159	0xbe44d30d	-0.19221134
160	0xbf033e91	-0.51267344
161	0xbea7dca1	-0.32785514
162	0x3ef9721b	0.48719868
163	0xbf0fb55a	-0.56136096
164	0xbd75995c	-0.059960708
165	0xbee93762	-0.45550066
166	0x3ee2f01f	0.44323823
167	0xbeab5697	-0.334645
168	0x3cf1e03f	0.029525874
169	0xbf26f441	-0.6521645
170	0x3e993f32	0.29931027
171	0x3f0b8b2f	0.5450925
172	0xbf153150	-0.5827837
173	0x3c55a763	0.013040396
174	0xbeb297fe	-0.34881586
175	0xbdfb8bd4	-0.122825295
176	0x3e04b349	0.12959017
177	0x3dc3838f	0.09546577
178	0xbd992a0c	-0.07478723
179	0x3e697bd1	0.22801138
180	0x3ed83a02	0.42231756
181	0x3f0f3436	0.5593904
182	0x3c83db8b	0.016095897
183	0xbe7dd190	-0.24786973
184	0xbf0639aa	-0.5243174
185	0x3e8eee0b	0.27915987
186	0x3c5ac8d7	0.013353548
187	0xbf0d5ff4	-0.5522454
188	0x3ec2256e	0.37919182
189	0xbc806a22	-0.015675608
190	0x3ead7227	0.33876154
191	0x3dec85e1	0.11548973
192	0xbed14c4d	-0.40878525
193	0x3ec3bdf3	0.38230857
194	0x3efda43b	0.4953936
195	0x3eccea6f	0.4002261
196	0x3e62c97d	0.22147174
197	0xbec511ff	-0.38490292
198	0xbecbe06e	-0.39819664
199	0xbe9de4e8	-0.30838704
200	0xbd1a371d	-0.037650216
201	0xbe80344f	-0.25039908
202	0x3d2ee626	0.042699955
203	0xbcbbc7a1	-0.022922339
204	0xbeacb843	-0.3373433
205	0xbdc36738	-0.09541172
206	0x3e1c991c	0.15292782
207	0x3ae64382	0.0017567726
208	0xbe621337	-0.22077642
209	0xbd28cd8b	-0.041211646
210	0xbe4059b2	-0.18784216
211	0x3d251799	0.040305708
212	0xbd34c9d5	-0.044137795
213	0x3eadbaa4	0.33931458
214	0xbec8d01e	-0.3922128
215	0xbedc0ce6	-0.4297859
216	0xbe14fb64	-0.14549023
217	0x3ebc2c50	0.36752558
218	0xbeba7c17	-0.36422798
219	0x3ed6f0e7	0.4198067
220	0xbd64acef	-0.055828985
221	0x3d869c04	0.06572726
222	0xbea95c0b	-0.33078036
223	0x3e8a75bc	0.2704295
224	0xbda7f908	-0.08201796
225	0xbdfbdfcb	-0.122985445
226	0xbe74a138	-0.23889625
227	0xbd41cb2a	-0.047312893
228	0xbd066363	-0.032809626
229	0xbe98880b	-0.29791293
230	0x3d4a7bb2	0.04943437
231	0x3eb89d88	0.36057687
232	0xbcfbbfac	-0.030731045
233	0x3c92451c	0.01785522
234	0x3d316aed	0.043314863
235	0x3e4cf525	0.2001539
236	0xbe3ea2ea	-0.18616834
237	0xbda95008	-0.08267218
238	0xbd08db71	-0.0334124
239	0xbe8d3b7a	-0.2758444

bias f4 [6]
0	0xbe7db3d6	-0.24775633
1	0x3d74a73b	0.059729796
2	0xbe05aac0	-0.13053417
3	0xbcd51c33	-0.026014423
4	0x3e110750	0.14162946
5	0x3bbfd4f6	0.0058542443
