models/171/state_dict.pt (torch_old, 88287 bytes, 10 tensors)

lstm.weight_ih_l0 f4 [160, 10]
00000000: 44c5 393d 26ba 3bbe f58b 72bd ccb5 7e3e
00000010: 2319 78bd d472 e03d 4ee0 2d3d 2f5d 5fbd
00000020: 503f 6d3d 6b0a 083d 3f61 67be 04b4 333e
00000030: 307c a13d b704 0c3d b84f e8ba 1f0d 88bc
00000040: d398 99bd d6ba 653e 5616 f23a fb83 74bd
00000050: bfc4 70be 4325 cabe aa96 85bd 1a3f 1a3e
00000060: 150c 49bd b7f5 8f3d 2502 e13d c72f b73d
00000070: c145 3f3d ebc5 ad3e 86dc 0abf 6747 33be
00000080: 9f03 56be 3a4b fbbd aa1b 15be 6a54 1fbe
00000090: 2221 bf3c 5c38 28be 2d99 a23d d23a 093e
000000a0: 0519 ad3e 2e1f a53d 6d8c 89bd 455b e6bd
000000b0: 1fd6 bcbe 14e2 b0be ff87 26bc 2576 c2be
000000c0: 3f30 48be 62b6 0a3e f792 793e 789d 87be
000000d0: b5fe 4cbe 324c 17bd 4beb 5dbe 6466 62bc
000000e0: b51e c33d c1fe 18be 2261 6ebe 4fa6 b23e
000000f0: a4eb 1dbf 12a9 1bbd 9891 cebd 740b b63d
00000100: 2141 c3bd 7a9f 043e f98e 483e 72c8 df3a
00000110: 7425 c43d 11c1 433e e90a b1bd f2f9 babd
00000120: ad43 983c b0c1 4a3e e799 3c3e 3c9c ed3d
00000130: f26f f13d 197d 1a3e 6cdc 883d 4a32 183e
00000140: 096a e6be 4a8d 04be d88c e4bd ce4e 9cbe
00000150: 191a 96be cc9f 12be 246a 293e 9c21 7fbe
00000160: 803a dbbd ff7d d63d 7111 1f3f 7598 91bd
00000170: b658 ee3c 67ec 8e3d 6f13 563e bd9d cf3d
00000180: 6793 853d d9c5 d33d 9f35 cf3d 64c9 46bd
00000190: e159 073a 2704 48bc 4b2a e13b 9361 003f
000001a0: f52b b73e 586d 153e 9695 1dbe f79d 9a3e
000001b0: f643 3b3e bed6 37be ae12 ba3e 7b1e bfbe
000001c0: 459b bebe 28b9 8d3e 8102 933c 0166 c63e
000001d0: e3f0 a33e 9b41 153e 55a5 b03e a1fb c53e
000001e0: 7ab8 27bd bf87 093d 2f00 893e 0f48 db3d
000001f0: 4337 123e 9b12 eabd 4f74 85be cccc 183e
00000200: 108d 033e f23f a6be d6b5 373d 7d33 74be
00000210: c4e4 6b3b bb4a 673e 85cb bcbd 0422 06be
00000220: 8b6a 3d3e 4521 0e3e a9b9 143e 755c b0bc
00000230: d153 22bf 0ef4 df3c 1d02 393e dd63 003e
00000240: c583 9abd 4780 dabd 3b98 5dbe bbb6 f1bd
00000250: caa7 773d c4e7 b63d b60e 8f3d cab7 d7be
00000260: 774c 3cbd ffa8 723e af8e ad3d 45c2 573b
00000270: 0cc7 bf3e 9e8b 583d 0b82 45bd b524 493e
00000280: 18ac ecbd 8bc5 8b3d d5d0 613e adf9 3a3e
00000290: a808 473e dce0 943d 6e25 46bd 324e 7b3e
000002a0: 57bf 5ebd 0e0d 9ebe d4f1 3ebe 3c7f 6ebd
000002b0: d6b0 b1bd d880 8e3d d260 463d 7bff a43e
000002c0: 62e6 333e 7203 c93d c5e2 8a3e 1880 e2bc
000002d0: 4038 88be 0bd3 e5bd dd94 8ebd 18a9 6e3d
000002e0: 097a 1d3e 97e6 c73c 3fd0 26bd f982 6d3b
000002f0: 801d d33d 7656 893b 1f2b e33e c922 003d
00000300: 8a32 243e f39c 993e 9a6d a73e dcca 2d3e
00000310: 9d84 99bd 586a 3c3e 1ba8 8d3d 4661 11bd
00000320: 7de0 813e 377f bcbe f64e f2bd 6e51 023e
00000330: d25b 92bd ddd7 853c 3d42 b93d a6d0 633b
00000340: 17a6 3a3d a9af 8e3e c092 0f3f c5ff a83b
00000350: 1268 343e 3c85 c63e f255 043f 4fb7 963e
00000360: 5c1f 16bd a696 083f 5ea9 c23e 5951 8c3d
00000370: 27cc a9be a50a 3abe 3e85 8ebe c9f6 84bd
00000380: 71cf 80be c4bd 4dbe 1c48 5b3e 8219 c3be
00000390: ea7f 10be 4832 763e f4be c03e 40bd 743d
000003a0: e787 e9bd 453d a2bd a3b3 3dbd b03c 0a3e
000003b0: f444 ef3a a512 483e e84c 523d 2ce5 bebd
000003c0: cc1c 39bf 7c43 3a3e 50f0 003e ed42 963d
000003d0: 09fd bbbb 2234 f1bd b9a3 083d 6b0b 14be
000003e0: 5e50 23be 301f a2bd 5b7b cdbd 7e6a f03d
000003f0: 5e48 563e e17c d53c d76c 0e3b 6765 dd3d
0.045354143 -0.18332729 -0.059215505 0.24874038 -0.060570847 0.10959402 0.04245024 -0.054532226
0.057921708 0.03321306 -0.2259569 0.1754914 0.07885015 0.034184184 -0.0017723953 -0.01660782
-0.07499852 0.22434554 0.0018469791 -0.05969618 -0.23512553 -0.39481553 -0.065228775 0.15063134
-0.049083788 0.07029288 0.10986737 0.0894466 0.046697382 0.33940062 -0.5424274 -0.17507707
-0.20899819 -0.12270208 -0.14561334 -0.15559545 0.023331229 -0.1642775 0.07939372 0.13401344
0.3380815 0.08062588 -0.06716237 -0.11247877 -0.3688211 -0.34547484 -0.01016426 -0.37980762
-0.19549654 0.13546136 0.24372469 -0.26487327 -0.20019038 -0.0369379 -0.21671788 -0.013818357
0.09527341 -0.14940931 -0.2327924 0.34892508 -0.61687684 -0.038003035 -0.100863636 0.08888903
-0.09533907 0.1295146 0.1958579 0.0017073287 0.09577456 0.19116618 -0.08644659 -0.091297045
0.018586958 0.19800448 0.18418084 0.11602065 0.1178893 0.15086783 0.06682667 0.14862934
-0.45002773 -0.12944523 -0.11159676 -0.30528873 -0.29316786 -0.1431877 0.16544396 -0.24915165
-0.10704517 0.104732506 0.6213599 -0.07109157 0.029095035 0.06978684 0.20905851 0.10137508
0.065222554 0.10340471 0.10117649 -0.048531905 0.00051632343 -0.012208021 0.006871497 0.50148886
0.35775724 0.14592493 -0.15389094 0.30198643 0.18287644 -0.17953011 0.36342376 -0.37327942
-0.37227836 0.27680326 0.01794553 0.38749698 0.3201972 0.14575808 0.34501138 0.3866854
-0.040947415 0.033576723 0.26757953 0.107071035 0.14278893 -0.1142933 -0.260653 0.14921874
0.1284678 -0.3247066 0.044851147 -0.23847766 0.003599451 0.22587101 -0.09218506 -0.13098913
0.18497674 0.13879879 0.14523949 -0.021528462 -0.63409144 0.027338054 0.18067212 0.12538095
-0.07544664 -0.10668998 -0.21640103 -0.11802431 0.06046275 0.089309245 0.06985228 -0.42132407
-0.04597136 0.2369728 0.0847448 0.003292219 0.37456548 0.052867524 -0.04821972 0.19642909
-0.11556262 0.06824788 0.2205232 0.18259306 0.19436896 0.07269451 -0.04837554 0.24541548
-0.054381695 -0.30869335 -0.18646938 -0.05822681 -0.08676307 0.06958169 0.04843218 0.32226166
0.17568353 0.0981511 0.27126136 -0.02764897 -0.26605415 -0.11221894 -0.06961987 0.05826673
0.15378584 0.024401946 -0.040725943 0.0036241396 0.10308361 0.004191215 0.44368836 0.031283174
0.16034904 0.30002555 0.32700807 0.16971916 -0.07495997 0.18399942 0.06916829 -0.035493158
0.25366583 -0.36815807 -0.11831467 0.12726375 -0.071464196 0.016338283 0.09045837 0.0034761815
0.045568552 0.27868393 0.560833 0.005157443 0.17617825 0.38773525 0.5169364 0.29436728
-0.036651 0.5335487 0.38019842 0.06851453 -0.33163568 -0.18168123 -0.2783603 -0.06492383
-0.25158265 -0.20091921 0.21414226 -0.38105398 -0.14111295 0.24042618 0.37645686 0.059750795
-0.114028744 -0.079218425 -0.046313893 0.13499713 0.0018254803 0.19538362 0.051342875 -0.09321055
-0.72309566 0.18189806 0.12591672 0.07336984 -0.0057369513 -0.11777522 0.033359263 -0.1445748
-0.15948626 -0.07916105 -0.10033294 0.11739062 0.20926043 0.026060523 0.0021732354 0.108103566

lstm.weight_hh_l0 f4 [160, 40]
00000000: 44e7 af3d 5470 1cbd 7e81 0cbe 00b6 74ba
00000010: d1ed a0bd f335 1d3e 4e19 823d a603 36bd
00000020: b700 bbbd 8aac d4bd 009e b4ba 60fa 0f3d
00000030: 6859 0dbe 2f61 053e 289a 373d 686f 1c3d
00000040: 0199 073e 20ca ff3c 17a9 1a3e c00a 043b
00000050: 003a 933a ad3e 093e b8fe 703d 92b6 c83d
00000060: 26dd cfbd 4ec1 d53d 92ad 94bd 001d d3bc
00000070: 6c34 2fbd e88e d83c 78f8 4f3d 443a 4d3d
00000080: c0bc b3bb f5be b2bd 9e7b d73d 8b06 f0bd
00000090: 000d d8ba 5e37 8d3d dc80 6b3d beaf 963d
000000a0: a05f bd3b e63b 16be a8b9 973d 3f6a 053e
000000b0: f0f8 debc 8cb3 6a3d 80b6 583c f882 003d
000000c0: 26ef 04be a82e 50bd e2ee b3bd 0020 e6b9
000000d0: c86b 323d 2830 96bd 5159 13be 82d4 22bd
000000e0: 8017 0f3c e030 8d3b 50a5 453d ffa6 0f3e
000000f0: c18e b2bd c6e5 33bd 63da 0bbe f058 523d
00000100: aab5 fb3d c372 193e 9bef 043e 10dc 7dbc
00000110: 6082 d7bb 87e2 133e b56d 193e 3caa 69bd
00000120: 707e 2c3d 56b8 9a3d 7298 d43d 903f 7ebc
00000130: 7358 b0bd 2095 cabd 40cf 4dbc 17f3 bcbd
00000140: bf57 203e b1aa 213e c04d 5abc 24bb 813d
00000150: 9097 f93c a9de c7bd ddf1 123e fee3 bf3d
00000160: 4857 28bd 5680 e23d 5a20 acbd 8803 d83c
00000170: 68e1 f9bc 62c5 b2bd 650d 1d3e 00ec 0abb
00000180: b8d6 9b3d 3459 3c3d 357e 81bd 5e9e c03d
00000190: c4a7 8c3d ee60 b03d 6450 0e3d fef0 28bd
000001a0: f3e0 a6bd 0eff 15be d465 583d f0b0 96bc
000001b0: 038b b1bd 5ffb 20be d941 0c3e e3ea 153e
000001c0: 5c0e 993d f2f0 fdbd b6dd bd3d 58de 403d
000001d0: 8e3f c63d 3ddc 143e 500f 10bd b547 1d3e
000001e0: c651 2fbd a8d7 acbd 6cc8 3f3d 185c 9b3c
000001f0: 7809 78bd 7d2f 13be f8f8 9cbd df64 ffbd
00000200: f89e 65bd 2278 ccbd b282 2abd e04a 81bc
00000210: cb7d 003e 12cb a53d 404d 84bd 5fe7 94bd
00000220: ad40 0b3e ae6b ab3d 1049 763d 2fab 0f3e
00000230: 2013 14be c012 a43c 00a1 32bb a4eb 86bd
00000240: 1599 113e 3480 edbd efcd f8bd f028 6c3d
00000250: 3030 213c b152 1a3e cbbd 0bbe 58e3 fcbc
00000260: 10e1 4ebc 53c0 1f3e fc36 1ebe 25e2 053e
00000270: 4990 063e 4154 d1bd c09d e4bc 7466 393d
00000280: 4186 a8bd 2698 f73d 095d 203e 7057 9b3d
00000290: ffd5 84bd 40ee 53bc c86a 993c 8049 a6ba
000002a0: 10eb 09bc 07f4 b4bd b001 e8bc a04f 21be
000002b0: 78e0 ba3c 38fc 9b3c b506 1abe b115 0d3e
000002c0: e986 84bd ac74 623d 2e7d b5bd dc5f b3bd
000002d0: ba6c b33d 7092 4fbc 7042 47bc f8bc 96bc
000002e0: 9448 213d 80fe 65bb 94f9 ccbd 1661 11bd
000002f0: a32c d6bd 0129 20be 75d8 08be 481c b7bd
00000300: 593b 203e 000a c93c e40e 56bd 2707 8dbd
00000310: a02f 05be 544b 66bd bc15 cbbd 28cf 433d
00000320: 6618 d23d 7206 cd3d 801b deba 7eb1 fa3d
00000330: b415 52bd ce41 8cbd cbfe c3bd f1d2 0d3e
00000340: d3d2 f6bd 0ac0 e5bd 97c3 10be ab00 023e
00000350: 9669 e53d 52ca dd3d f84f a93d 2065 963d
00000360: 34c0 583d 88c2 943d d698 aebd a2ce 09be
00000370: 0e60 8b3d 4cc4 2dbd 7016 39bc 905e 6d3d
00000380: 788e dabc 0405 563d 000a c2b9 772f f8bd
00000390: 88ff 603d 10a6 54bc 1e9d c5bd 01c6 083e
000003a0: d8b8 e8bd bc1e eabd a5a4 0fbe 7151 c0bd
000003b0: acb7 1f3d ff94 113e 057e 13be 0ca1 703d
000003c0: 150d 003e f0c1 3abc 9209 ba3d 42e9 e8bd
000003d0: 003a 9abb 2899 6b3d 6b4f afbd 4e27 a03d
000003e0: 50fc 4e3c c8ac 623d b13c babd 94a9 323d
000003f0: e227 8fbd 0010 acba bf51 1a3e 14fe 083d
0.08589032 -0.038193062 -0.13721272 -0.00093349814 -0.0785786 0.15352611 0.06352483 -0.044437073
-0.09130996 -0.10384472 -0.0013779998 0.035150886 -0.13803637 0.13025354 0.04482475 0.038192183
0.1324196 0.03122431 0.15103565 0.002014801 0.0011232495 0.13402815 0.05883667 0.098004475
-0.101496026 0.104372606 -0.072596684 -0.025770664 -0.042774603 0.02643533 0.050774068 0.050104395
-0.0054851472 -0.087278284 0.10521625 -0.11719998 -0.0016483366 0.06895326 0.057495937 0.07357739
0.0057792217 -0.14671287 0.07408458 0.13028811 -0.027218312 0.057300135 0.013227105 0.0313749
-0.12981853 -0.050825745 -0.08785798 -0.0004389286 0.04355982 -0.07333404 -0.1438954 -0.039753444
0.00873363 0.004308805 0.048253357 0.14028548 -0.087186344 -0.0439203 -0.13657527 0.05135435
0.12290509 0.14985184 0.12982027 -0.0154943615 -0.006576821 0.14441882 0.14983256 -0.057047114
0.042112768 0.075546905 0.10380639 -0.015518084 -0.0861062 -0.098917246 -0.012561619 -0.09226053
0.15658472 0.1578777 -0.013324201 0.06334522 0.030467778 -0.09759266 0.14350076 0.09369658
-0.041098863 0.110596344 -0.08404608 0.026368871 -0.03050299 -0.08729054 0.15337141 -0.0021197796
0.07609314 0.04598351 -0.063229 0.09405206 0.06867936 0.08612238 0.034744635 -0.041245453
-0.081483744 -0.14648077 0.052831486 -0.018394917 -0.086690925 -0.1572089 0.13696994 0.14640383
0.07473442 -0.12399472 0.09270804 0.047087044 0.09680091 0.14537139 -0.035170853 0.15359385
-0.042802595 -0.08439571 0.046821997 0.018964812 -0.060555905 -0.14373584 -0.076646745 -0.124704115
-0.056059808 -0.09983851 -0.041628547 -0.015782773 0.12547986 0.08095373 -0.06460047 -0.07270693
0.1359889 0.08370148 0.06012827 0.14030145 -0.1446042 0.020028472 -0.0027256608 -0.06587914
0.14218552 -0.115967184 -0.12148654 0.05765623 0.009838149 0.15070607 -0.13646619 -0.030870125
-0.012626901 0.1560071 -0.15450662 0.13074549 0.13140978 -0.10221148 -0.027907252 0.045263723
-0.08228732 0.12089567 0.1566049 0.07585037 -0.06486129 -0.012935221 0.018727675 -0.00126867
-0.00841786 -0.08835607 -0.028321117 -0.15753031 0.022812113 0.019041166 -0.15041621 0.13777806
-0.064710446 0.05528705 -0.08861767 -0.08758518 0.08760972 -0.012669191 -0.012161836 -0.018400654
0.039375857 -0.003509432 -0.10008541 -0.03549298 -0.104577325 -0.15640642 -0.13363822 -0.08940941
0.1564764 0.024540901 -0.052260295 -0.0688613 -0.13006449 -0.056224182 -0.09916255 0.04780498
0.1025856 0.10010995 -0.0016945451 0.12240885 -0.05129023 -0.06848489 -0.09570082 0.13849999
-0.1205193 -0.11218269 -0.14137112 0.12695567 0.112017795 0.10829605 0.08267206 0.07343507
0.052917674 0.072636664 -0.08525245 -0.1345773 0.0680543 -0.04242353 -0.011296853 0.05795151
-0.026679263 0.052250877 -0.00037010014 -0.12118428 0.054931194 -0.0129790455 -0.09649108 0.13356782
-0.11363381 -0.11431643 -0.1402765 -0.09390534 0.038993523 0.14216994 -0.14403541 0.058747336
0.1250499 -0.011398777 0.09083857 -0.113726154 -0.004706621 0.057519108 -0.0856007 0.07819997
0.012633398 0.05534056 -0.09093607 0.043618754 -0.06990029 -0.0013127327 0.15070246 0.033445433

lstm.bias_ih_l0 f4 [160]
00000000: e11a 153e 20c2 8f3d fff0 973e 4661 a53e
00000010: 7447 ab3e b188 363e e213 733d a701 203d
00000020: 0c33 7f3e eb64 b83e b04d 7f3e d134 953e
00000030: 9d50 263e c823 f73d d88b 36bd ffd7 6b3e
00000040: e590 a03e d88f 463e 1796 9e3e 478d 5abc
00000050: 55fd 343e 97d4 c43d 83c2 a83d c3a3 aabb
00000060: ba58 8abc f135 553e 807d 843d da45 973e
00000070: 7a1f ad3e 366a 493e 0c50 c23d 124d c43e
00000080: c41c 8b3e a36d f43d 9ae4 7d3e 3fd9 833e
00000090: e203 8a3d 6a3a 613e 3808 b23e 7ef1 5c3e
000000a0: 528e f6bd 84d7 35bd c20f f63d 88ba e03c
000000b0: 1994 1e3e 4d81 20be 0062 7e3b 40ed e73c
000000c0: 00d4 aa3c 7aa1 da3d 701e bb3d 226d c33d
000000d0: a8de 1bbe 82d6 15bd 2a6d 823d 49be c2bd
000000e0: 79f3 023e 38bf 933d dfd3 013e 156b 07be
000000f0: dd00 03be 502f 97bd c080 e4bb 5d83 e8bd
00000100: a005 46bd 7028 d43c 0e4f 993d 1212 9fbd
00000110: 84e8 993d c1ad 02be 22da 7ebd 98d1 eb3c
00000120: 4039 debb 26a0 d03d 6edb 87bd 47fb 0e3e
00000130: fbb6 f2bd 30db fd3c 72e3 8e3d 70b1 1dbd
00000140: eabd 1dbe d416 353e be99 30be 58ed 2bbe
00000150: 7619 33be 706a 34be e527 45be 5f27 653e
00000160: 58b3 663d 8894 92be 5848 18be 5e4f 173e
00000170: 99a6 9abd 4f59 3d3e 2e6b 40be a009 cebd
00000180: e8da 1ebe b4e7 83be 049a 033e c8ea 033d
00000190: 5d6f 2dbd f1a8 a8bc 0b47 63bd 1058 7fbe
000001a0: c3fc 3cbe 288b 72be 8cf1 5cbe 609c 2f3d
000001b0: 9bf0 593e 6d8c a3bc 6df1 f7bc 47a5 58be
000001c0: 315f 17be 3df1 9c3d 44f9 113e 7605 0ebd
000001d0: dab8 2d3e 7727 6fbe a60a 25be d787 5cbe
000001e0: d56f 963e fcb3 003e cbae 9e3d 7538 733e
000001f0: 9854 c43e 7a5d bd3e 7644 d73c 5a08 de3d
00000200: 67ff e23e 77a7 983e 6f13 893e 04d0 893e
00000210: a583 623e 2e97 b93e f579 21bc 1a3a ae3e
00000220: 69eb cf3e 155f 7a3e f9b7 163e 994c bc3d
00000230: 31bb 603e da16 cc3d da80 153e c927 f6bd
00000240: 9c09 ab3d d24d 663e 269f c73e 7439 c33e
00000250: edd6 3b3e 930a e63e b0c4 5a3e 25f6 6f3e
00000260: 1488 ef3d 00f7 943e 5868 913e 4dfa b43e
00000270: 6b61 903e d139 c8ba 6230 7e3e d282 a43e
0.14561035 0.07019448 0.29676053 0.32300776 0.33452952 0.17825581 0.059345134 0.039064076
0.24921817 0.36014494 0.24931979 0.29141858 0.16241689 0.120673716 -0.04456696 0.23031615
0.31360546 0.1939081 0.30973884 -0.013339347 0.17674764 0.09610861 0.08240225 -0.00520751
-0.016888011 0.20821358 0.0646925 0.2954548 0.33813077 0.19669423 0.09487924 0.3834005
0.27170384 0.11934974 0.24794236 0.25751683 0.06739022 0.2199494 0.34771895 0.21576497
-0.12038864 -0.044394985 0.12014724 0.027432695 0.15486182 -0.15674324 0.0038815737 0.028311372
0.020853043 0.106753305 0.09136665 0.095423 -0.15221655 -0.036581524 0.06368478 -0.0950895
0.1278819 0.072142065 0.12678479 -0.13224442 -0.12793298 -0.07382071 -0.006973356 -0.113531806
-0.04834521 0.025898188 0.074857816 -0.077671185 0.07515052 -0.12761594 -0.062219746 0.028786466
-0.006781727 0.10186796 -0.0663365 0.13963042 -0.11851307 0.030988306 0.069769755 -0.038499296
-0.15404478 0.1768449 -0.17246148 -0.16789758 -0.17490181 -0.17618728 -0.192535 0.223783
0.05632338 -0.28628945 -0.14871347 0.1477637 -0.07551307 0.184911 -0.18790886 -0.100604296
-0.15513194 -0.25762713 0.12851721 0.032206327 -0.042342532 -0.02058837 -0.055487674 -0.24935937
-0.18455796 -0.23685896 -0.21576518 0.04287374 0.2128319 -0.019964421 -0.030266488 -0.21156798
-0.14782406 0.076632 0.14255244 -0.034673177 0.16965047 -0.23354898 -0.16117343 -0.21536194
0.29382196 0.12568659 0.07748183 0.23752005 0.3834579 0.3698538 0.026277762 0.10841437
0.44335482 0.29815266 0.2677264 0.26916516 0.22120531 0.36248153 -0.009855737 0.34028703
0.4060929 0.24450333 0.14718617 0.09194297 0.21946408 0.09965296 0.14599934 -0.12019307
0.08351442 0.22490624 0.38988608 0.3812977 0.18343706 0.44929942 0.21364093 0.2343374
0.11695877 0.29094696 0.2839992 0.35347214 0.28199324 -0.001527602 0.24823144 0.32131058

lstm.bias_hh_l0 f4 [160]
00000000: 468f cb3e a3f3 2e3e 5062 813e 8bf1 f03d
00000010: fe7c d63e 8f32 783e 8294 3d3e 32b3 00bc
00000020: aaef b03d 5a29 ad3e eb64 963e 5758 cc3e
00000030: 9f20 a03e d7e9 8a3e e142 433e 4759 6b3e
00000040: 7932 b63e 5486 943e a938 3c3e ad3f 56bb
00000050: cd94 453e 368b 363e 0955 723e 1b20 ed3a
00000060: f300 a43d 7f5e b33d 3343 8a3e c4ad 913e
00000070: 3fe8 363e 374b 8a3e 9847 063d 06d6 e83e
00000080: cf2a 023f a98d 513e 6d29 ba3e b318 aa3e
00000090: 6e89 313e 3499 1f3e e881 e03e 46ae db3e
000000a0: 3a6f 96bd 63ca 203e b026 50bc 5cf7 c1bd
000000b0: f0ea aa3d 5a0f 853d e007 c63b f0b3 993c
000000c0: 7862 05be c00d 443b dac4 fd3d 35cc 0c3e
000000d0: 2cf6 fcbd 68cf 9e3d 5ab8 e0bd fcdf 733d
000000e0: 5d66 8dbd e138 143e f0cf 62bc 6df4 89bd
000000f0: fc4f 05bd 6876 453d a236 cf3d 1817 a73c
00000100: 0e0d bd3d a819 c5bc a0bf d5bd 9423 93bd
00000110: 2de4 203e 6537 09be 3c4c 9a3d c2de c23d
00000120: f450 1bbe 4165 96bd f001 913c b6c8 863d
00000130: 12a3 44bd 3c1f 113d c820 923c 8050 62bb
00000140: 703c 15be 8a37 4a3e 25d0 7fbe 08eb 62be
00000150: 7ecd 09be 274d 0f3d b38f 78be 8737 623e
00000160: 91c4 8a3e be42 6dbe 11cd 0cbe 8875 2d3d
00000170: b3db c9bd e831 583d 8e1b 01be 8e92 90bc
00000180: cac9 143e 32c0 95be a659 eb3d 7a77 383e
00000190: 5513 78be 2372 e3bd 27c9 5fbd c80b 3fbe
000001a0: 2fed 61bd c6dd 27be 8c43 723b 1475 b8bd
000001b0: f241 a4bb 7b33 56bd 6640 7b3e 07c5 70be
000001c0: 2334 3bbe 7ed7 503d 5480 703e afa9 9cbe
000001d0: 62b7 303e cb05 4fbe 319b f5bd 7b4f 21be
000001e0: 6381 7c3e 86f3 ff3c f7cb 993e 1575 3b3e
000001f0: 16e8 a13e 1090 b93e ccbf 023d fb10 6a3e
00000200: 99d8 9c3e 2bc7 443e 792e 913e 524b 8a3e
00000210: 7736 a73e 6ce2 973e e88f 003e 681f 0b3e
00000220: 037a 993e 326a 883e e795 4f3e 4afd 883e
00000230: 7dc6 0b3e d602 7e3d d3b7 a23e 1f2f a03c
00000240: 987a 283e 59cf db3d 4f31 e83d 73e8 513e
00000250: 6366 463e 57c7 a73e f723 cc3d 22e3 ca3e
00000260: 03ed ab3d 8702 3d3e 93dd 5a3e d961 df3e
00000270: fabf 4c3e 9506 2a3e 873b ae3e a7e6 753e
0.39757746 0.17085128 0.2527032 0.11764821 0.41892236 0.24238037 0.18513682 -0.0078552235
0.08639462 0.3382061 0.2937387 0.39911148 0.31274888 0.2713153 0.19068481 0.22983275
0.35585383 0.29008734 0.18380989 -0.0032691762 0.19295044 0.17826542 0.23665251 0.0018091233
0.080079935 0.08758258 0.27004394 0.28452885 0.17862032 0.2701051 0.03278312 0.45475787
0.5084657 0.20464195 0.3635973 0.3322197 0.17337582 0.15585786 0.4384911 0.42906398
-0.073454335 0.15702204 -0.012704536 -0.09471008 0.08345592 0.06497069 0.0060434192 0.018762559
-0.13025844 0.0029915422 0.12391062 0.13749774 -0.12351641 0.07754403 -0.10972662 0.05953978
-0.0690429 0.14474823 -0.0138435215 -0.06736074 -0.032546982 0.048208624 0.10117842 0.020396754
0.092310056 -0.024060085 -0.1043694 -0.0718452 0.15712042 -0.13400038 0.07534072 0.09515144
-0.151676 -0.073435314 0.01770112 0.06581251 -0.04800708 0.035430178 0.017837897 -0.0034532845
-0.14573836 0.19747749 -0.24981745 -0.2215997 -0.13457295 0.034985688 -0.24273567 0.22091495
0.27103093 -0.23169991 -0.13750102 0.042348415 -0.098563574 0.05278197 -0.12608168 -0.017648008
0.14530101 -0.29248196 0.114917085 0.18014327 -0.24226125 -0.11105754 -0.054635193 -0.18656838
-0.055157837 -0.16393194 0.003696653 -0.09006706 -0.005012744 -0.05229519 0.24536285 -0.2351266
-0.18281607 0.05098676 0.23486453 -0.30598208 0.17257455 -0.20217054 -0.11992491 -0.15752976
0.24658732 0.03124405 0.30038425 0.18306382 0.3162238 0.36242723 0.031921193 0.2285804
0.30634 0.19216602 0.28355768 0.2701059 0.3265874 0.29664934 0.12554896 0.135862
0.299759 0.2664352 0.20272027 0.26755744 0.13649936 0.062014423 0.31780872 0.01955372
0.16453016 0.10732908 0.1133753 0.20498829 0.19374995 0.32769272 0.09967797 0.39626414
0.08394816 0.18457995 0.21373586 0.4362934 0.19995108 0.16604073 0.3402979 0.24013768

lstm.weight_ih_l1 f4 [160, 40]
00000000: a35c 25be 9923 613e 3290 b8be 13b6 b03d
00000010: 5424 5b3e 1413 18be 067b 18be 18fe 013e
00000020: 2bd0 68be b82f 83be edda cabd 1cd2 84bd
00000030: 3bbc 06bd baac 833e 070a 48be 9633 aa3d
00000040: 36c9 febd 57e0 04bf 9e74 0dbe 04ca 323c
00000050: 4ba6 aebe 2d23 903d 94f6 483d 6798 bfbd
00000060: 3f84 153d 607a c9bd 3ed6 8a3e 5421 2bbd
00000070: 8bef 983c 1b43 97be c480 9a3d dd41 a2be
00000080: 27d8 aebd da81 173d 6645 b53e 6f35 a4bd
00000090: 4d93 053e 146e a6bd 9dca e4bd df80 cebd
000000a0: ef89 b4bd 389c 853a 9bbf a5bd a18e 84be
000000b0: b725 2cbe e7f8 88be 6f4c 28be 746b 963e
000000c0: b0c0 3c3d ecf5 bf3d ee8a 953e a2a1 903d
000000d0: 2e41 9f3e d32e b43d d72c 38bd 460b ea3d
000000e0: b971 48be bf7e 4dbe 4bd1 013e 6c36 30bd
000000f0: 1722 4b3e 1647 0d3d ba73 9dbe ab90 90be
00000100: 7538 ccbd 9cec 2cbd ce99 e0bd c7c0 50bd
00000110: 0a8a 5b3c 0ef8 b5bc 98d1 553e d59c 803d
00000120: a114 87be ab91 c43e 0423 6b3e 2a5f 053e
00000130: 393c 873d b62f 76be 40b4 6cbd 5df7 11be
00000140: 9fcf 263e a5b5 5cbd 7d66 ee3d 8ba9 aa3e
00000150: c80c b9bd 08c4 3cbd e2b3 d73e 991d 9f3e
00000160: 13fb 88be 505b 24bc 78d0 913e d99b 1d3e
00000170: 5028 ea3e 0548 e5bd c047 993e e400 393e
00000180: 647d 82be 85f8 9f3b b615 86bd e520 60be
00000190: 9436 a93d 6e8c 573c 79fe 0c3e 495c 7bbe
000001a0: 2044 0a3e a2fa b6bb 5e28 9a3d 908a 55be
000001b0: 1e31 cf3e bb6b 6ebe c35a cf3e 23d1 563e
000001c0: 2a57 193e 3195 2f3e a1a4 9d3d 3246 fc3d
000001d0: 5f0c 913e f854 4fbe 0f06 603e 147d 263d
000001e0: d633 73bd 6ce7 9f3d 3bb3 0abe 5f67 f2be
000001f0: 8ca7 383e 7937 a0be c6e0 0cbf af4f 7a3d
00000200: e623 8c3e 9b88 cbbd 6831 e73d 99e1 46bd
00000210: 47e0 193e 1a9f 4cbe 0d8e f33d a619 513a
00000220: 54b9 3d3d 2de4 67be ae7c ba3b 6dbe 773e
00000230: 7a94 813d dc76 5abd ab96 9fbe 2b7d b5be
00000240: 3ac8 dbbd 3e0a 22be cf43 9abe a9ab 03be
00000250: d62b 0abd 416e 76be 684c 5dbe 456f 0bbd
00000260: b751 30be fc9c 78bd 6df5 22be 5185 7a3d
00000270: 6f28 e03d e6d9 28bc 944a acbe 01b3 83be
00000280: 4b79 aebd f75b 633d 47c9 353e aaf2 76be
00000290: 916d 7dbe eb6c 65bd 985d 3dbe 5820 263e
000002a0: ffe3 363e d6a2 9d3b c291 6c3e ad95 bcbd
000002b0: 1926 36be 224d 853e 3b2b 74be f1e7 bfbd
000002c0: 27be 863e d2b6 b7bd 88a9 58bd 8f4a 30be
000002d0: f65c 5abe 1af4 ec3d cbf1 f1bd f7a2 2d3d
000002e0: 9e0f 79bc ea24 3cbe 6028 e53d c8b5 843e
000002f0: 3e35 1abd b3ef 53bc 88d6 913d a4bd 79bd
00000300: b438 3bbe 36d6 643e add4 8e3e 63eb ea3c
00000310: 2504 933d 931e b6bd 0795 69be bf43 95bd
00000320: 57dd a83b 5e9a 553e 7a49 a83d c4ee 83bc
00000330: 7b48 11be 412d 803e 2709 04be f088 403c
00000340: ad97 8abe b954 8ebe 2b98 92be 4b4b 873e
00000350: 6aa1 8bbe f3f1 30bd e6c7 0dbe 20de ff3d
00000360: 1fc9 b7bd 05a5 493e 96c4 da3d c60a 0d3e
00000370: 8307 4cbc 24cf a5be 5a57 943e e462 a43c
00000380: cfa7 91be 71b2 853c a77e 3dbe 4849 273d
00000390: 9ffb 763e 77ad 083e e5d3 583e 2d97 053d
000003a0: 5773 af3e d80e f33c 3f43 c43d 8234 9cbe
000003b0: 61d7 203c 7f1c d7bd 519f ce3d 1528 c13c
000003c0: d38a 06be 5521 663e e899 7bbe d5ad 68be
000003d0: 1175 f63d ffa9 a3be 43df 1f3d 51a4 4d3e
000003e0: 13ac cf3e 84b7 913d e184 ed3d 1516 50bd
000003f0: b0ae f4be d336 883e 7d4b 90be 033d 1ebe
-0.1614862 0.21986236 -0.36047512 0.08628478 0.21400577 -0.14851028 -0.1489068 0.12694585
-0.2273566 -0.25622344 -0.09905038 -0.06485388 -0.032894354 0.25717717 -0.19535075 0.083106205
-0.12440722 -0.51904815 -0.13814017 0.010912422 -0.34111246 0.07037959 0.04906328 -0.0935524
0.036503073 -0.09837794 0.2711658 -0.04177983 0.01866891 -0.29543385 0.07544091 -0.31690875
-0.085373215 0.03698907 0.3540451 -0.08018004 0.13044472 -0.081264645 -0.11171458 -0.10083174
-0.08815371 0.0010193652 -0.080931865 -0.25890067 -0.16811262 -0.26752397 -0.16435407 0.29378855
0.0460822 0.09373078 0.29207557 0.07062079 0.31104416 0.087979935 -0.044964638 0.114279315
-0.19574632 -0.20067881 0.12677495 -0.04302065 0.19837223 0.03449162 -0.30752355 -0.28235373
-0.09971706 -0.042217836 -0.10966836 -0.050965097 0.01339961 -0.022213008 0.20880735 0.06279913
-0.26382926 0.38392386 0.22962576 0.13024583 0.066032834 -0.24041638 -0.057789087 -0.14254518
0.16290139 -0.053884167 0.11640642 0.33332476 -0.09035641 -0.046085387 0.42129427 0.3107727
-0.26754054 -0.010031536 0.28479362 0.15391482 0.4573388 -0.11195377 0.29937553 0.18066746
-0.2548629 0.0048819208 -0.0654711 -0.21887548 0.08262363 0.01315604 0.13768949 -0.24546923
0.1350255 -0.005584077 0.07527231 -0.20853639 0.4046716 -0.23283283 0.40498933 0.20978217
0.14974657 0.17146756 0.07697416 0.12318076 0.2832975 -0.20247257 0.21877311 0.040646628
-0.059375606 0.07807812 -0.13544933 -0.4734449 0.18032664 -0.31292322 -0.5503048 0.06111115
0.27371138 -0.09938165 0.1128872 -0.04855499 0.15026961 -0.19982567 0.118923284 0.0007976539
0.04631932 -0.22645636 0.0056911325 0.24193735 0.06327148 -0.05333601 -0.31169638 -0.35447058
-0.107315496 -0.1582422 -0.3012986 -0.12858452 -0.03373321 -0.24065496 -0.21611178 -0.03404166
-0.17218672 -0.060696587 -0.15913935 0.061162297 0.10945212 -0.010305857 -0.3365065 -0.25722507
-0.085192285 0.055507626 0.17752562 -0.24116006 -0.24748828 -0.056012075 -0.18492734 0.16223276
0.17860411 0.0048106713 0.23102477 -0.09208236 -0.1778797 0.2603541 -0.23844616 -0.09370411
0.2631695 -0.08970417 -0.052896053 -0.17215942 -0.21324524 0.11569996 -0.118136965 0.042391744
-0.015201477 -0.18373457 0.111893415 0.25919938 -0.037648432 -0.012935567 0.07120997 -0.06097187
-0.1828335 0.2234734 0.27896634 0.028676694 0.07178525 -0.0889255 -0.22810756 -0.07288312
0.005153339 0.20859668 0.082171395 -0.016105063 -0.14187805 0.25034526 -0.12894116 0.011751398
-0.27068844 -0.27799013 -0.2863172 0.2642463 -0.27271587 -0.04319949 -0.13845786 0.12493539
-0.08973908 0.19691856 0.10682027 0.13773641 -0.012452963 -0.32384598 0.28972894 0.020066686
-0.2844834 0.016320439 -0.18505345 0.04084137 0.24119423 0.13347422 0.21174581 0.032614876
0.34267685 0.029670164 0.09583139 -0.3050881 0.009816975 -0.10503482 0.10088981 0.023578683
-0.13138895 0.22473653 -0.2457043 -0.22722562 0.120340474 -0.31965634 0.03903128 0.20082213
0.4056097 0.07115081 0.1159761 -0.05080231 -0.47789526 0.26604328 -0.28182593 -0.15452962

lstm.weight_hh_l1 f4 [160, 40]
00000000: 0036 47bc baec f13d a894 f83c 7069 0cbc
00000010: c871 efbc 9fcf 0b3e a0a6 cfbb 0ecf e33d
00000020: 00cc 1dba 2453 1ebe 7016 4cbc 12cd 973d
00000030: a09d a03c 50cf 993c d089 613d 5079 bc3c
00000040: b0bb fcbd 5b2c a2bd 98a7 a3bc 8cba 813d
00000050: aa27 da3d 080a c83c 205a bc3c d675 68bd
00000060: 4387 83bd 79c9 bfbd bcfd 053d e246 c53d
00000070: f840 f0bc 708d aa3d ca9d d93d e077 fbbb
00000080: ac2a 05bd 81e9 183e 8af5 d33d d063 8c3d
00000090: 70bc 9d3c 6aa6 10be 4c78 6e3d 805b 0e3c
000000a0: ecd0 0d3d e020 483c 2178 1bbe d8ea f8bc
000000b0: 4a54 74bd 00b9 ebba 5402 5d3d 4f7c edbd
000000c0: be10 16be 90ec 3c3d e038 27bc ccf7 033d
000000d0: e62d 923d 004b 3dba 9bfa 98bd 9609 a23d
000000e0: e6e9 cd3d f600 e13d 8c6d 893d 885a 76bd
000000f0: 062f 58bd c119 02be 9a59 ef3d 50c8 833d
00000100: ede0 91bd 8042 5dbc 6213 d83d 6043 083c
00000110: 943f 7ebd bacb d53d f309 a2bd e817 a6bc
00000120: 96e1 f23d fcce 6abd 4060 b33b 1665 d93d
00000130: 8093 613d 7bce 1e3e 5b1f 0e3e c080 783d
00000140: fb9c a6bd c84f 843d e05a 0fbc 0034 06be
00000150: 0bbb 8bbd 197e 203e f4a0 04bd 4496 9a3d
00000160: 668f ff3d 40f6 313b 1cca 9b3d fe36 973d
00000170: f03c 2ebd b48a 44bd 872b 183e c085 053c
00000180: 6790 1cbe e86c 5d3d 183c ab3c 2588 163e
00000190: 00fd 32ba 2eb6 eb3d 604b cc3b e8e1 2ebd
000001a0: f0e4 733d ad0b 1e3e bc43 c3bd 5e67 87bd
000001b0: 9785 f2bd 699b efbd b8d1 94bd a8ef dfbc
000001c0: 705a e03c 82be bc3d c57d 1b3e 4007 77bb
000001d0: f07d 723c 94a6 32bd 22b1 c03d fd7f 95bd
000001e0: dc99 a53d ce79 b73d 0024 e73a 0a96 94bd
000001f0: 50b1 aa3d fc3f 813d 30ed 113d e098 073c
00000200: 0086 7fbc d8bf 99bc e2e0 e2bd 351b 123e
00000210: aba1 183e 60d8 8bbc 2032 2e3d 9e75 a43d
00000220: 6458 08bd 6101 1e3e 207a f43c 3e1b ec3d
00000230: c01c 263b 1b06 093e 84d4 173d 4b56 053e
00000240: 508b bf3c 9714 a5bd 4834 e13c 988e 113d
00000250: ec17 923d 2a64 e73d a043 4dbd 609d 19bd
00000260: 8f5c 18be 6212 68bd 0283 07be 009b bf3c
00000270: f085 67bc ec32 7d3d 8cb5 abbd 564c 15bd
00000280: f289 fc3d fce8 d5bd 1278 ba3d d5eb 15be
00000290: 9ef8 a0bd e58e 013e 499f 0a3e c0aa 4d3c
000002a0: 00f3 fdbb 0e10 9b3d 0e3d 833d 0551 213e
000002b0: 821c b13d 9879 efbd e876 32bd 4a5e ba3d
000002c0: 3011 81bd 587c d9bd 92f9 be3d 384f 28bd
000002d0: a383 173e 04a8 7a3d d095 70bc e9a6 09be
000002e0: 78e8 d0bd dccb 5f3d bae2 f8bd 1e97 fa3d
000002f0: 1c91 103d cd89 133e b2b8 823d 104e 7d3c
00000300: 8600 ac3d 688a 82bd d20f 32bd 1139 213e
00000310: a218 a73d 00ef 0cbc 90e8 f5bc 1ca2 223d
00000320: 06ff 92bd f80e 5cbd 82ea 873d 0e3c a63d
00000330: 762f febd afec 113e 8588 163e e092 debd
00000340: f0f0 3abd 6baa c3bd 00a1 a0bc 60db 17bc
00000350: 46ef 8a3d 588d 1abe 268e d83d c0e7 4c3d
00000360: d044 593c 9828 f4bd 0c76 20bd 1a88 f83d
00000370: 386c 98bc 984e 933c 94eb 5fbd 4492 3f3d
00000380: 8ce3 11bd c0b7 5d3b 1fd9 1a3e 4807 25bd
00000390: 5779 b2bd 3956 00be 3a49 64bd 688e 2cbd
000003a0: 4ef6 ddbd c4b2 b4bd b026 473c 152e 133e
000003b0: 431c 02be 0637 f93d aad2 fc3d c621 a13d
000003c0: 8444 8e3d 9801 fcbd 49eb 103e f8ba b23c
000003d0: 3c34 7ebd 1fc5 203e 52d1 37bd 6662 56bd
000003e0: 40c4 9abc 2c35 6e3d 243f 163d be56 cf3d
000003f0: 0e90 e43d 0c24 903d 9e09 b83d 5f85 0b3e
-0.012158871 0.1181273 0.030344322 -0.00857006 -0.02922906 0.1365342 -0.006337002 0.11123477
-0.0006019473 -0.15461403 -0.012456521 0.07412161 0.019606411 0.018775612 0.05506307 0.023007065
-0.12340486 -0.079186164 -0.019977376 0.06334409 0.106520966 0.024418846 0.022992194 -0.056753002
-0.064222835 -0.093646 0.032712683 0.096326604 -0.029327855 0.08327758 0.10625799 -0.0076742023
-0.0325114 0.14932825 0.10349567 0.06854975 0.019254893 -0.14125982 0.058220193 0.0086888075
0.03462307 0.012214869 -0.15182544 -0.03038542 -0.059650697 -0.0017984211 0.0539573 -0.115959756
-0.14654824 0.04612404 -0.010206431 0.03221874 0.07137661 -0.00072209537 -0.07469674 0.079119846
0.10054378 0.109865114 0.067103475 -0.06014493 -0.05277922 -0.12705137 0.11687012 0.06434691
-0.07122979 -0.013504624 0.10550572 0.008316845 -0.06207235 0.104392484 -0.07912054 -0.020275071
0.11859433 -0.057326302 0.0054741204 0.10614984 0.055072308 0.15508454 0.13879149 0.06066966
-0.081354104 0.064605296 -0.008749694 -0.13105774 -0.06822785 0.15673102 -0.03238006 0.07548192
0.12478523 0.0027154833 0.07606909 0.07383536 -0.042538583 -0.04798384 0.14860354 0.008149564
-0.1528946 0.05405894 0.020902678 0.14700373 -0.0006827861 0.115093574 0.0062345713 -0.04269591
0.059544504 0.15434141 -0.09534404 -0.066115126 -0.118418865 -0.11699564 -0.07266563 -0.027335957
0.027386874 0.09216024 0.15184696 -0.003769353 0.014800534 -0.043615893 0.094087854 -0.072998025
0.08085987 0.08958779 0.001763463 -0.0725518 0.08334601 0.06311032 0.03562659 0.008276194
-0.015595913 -0.018768236 -0.11078049 0.14268191 0.14905421 -0.01707095 0.04252827 0.08030246
-0.03328742 0.15430214 0.02984339 0.115286335 0.0025346726 0.13381235 0.037067905 0.130212
0.023381859 -0.08060568 0.02749075 0.03553638 0.07133469 0.11298402 -0.05011332 -0.0375036
-0.14879058 -0.056658156 -0.1323357 0.02338934 -0.014131054 0.06181614 -0.08384237 -0.036449753
0.123309985 -0.10444829 0.09104933 -0.14640744 -0.0785992 0.12652166 0.13537325 0.012552917
-0.007749915 0.075714216 0.0640813 0.15753563 0.086480156 -0.11693114 -0.04357043 0.091000155
-0.063021064 -0.1061942 0.093249455 -0.041091174 0.14796309 0.06119539 -0.014684156 -0.13442577
-0.1020059 0.054637775 -0.1215262 0.122358546 0.035294637 0.14408036 0.06382884 0.015460506
0.08398537 -0.06374055 -0.04347212 0.15744425 0.08158995 -0.008601904 -0.030018121 0.03970538
-0.07177548 -0.053725213 0.06636526 0.08116923 -0.12411396 0.14250444 0.14700516 -0.10867858
-0.045639932 -0.09553989 -0.01960802 -0.009268612 0.06783919 -0.15092981 0.10573988 0.0500257
0.013261035 -0.11921805 -0.03917508 0.12135334 -0.01860629 0.017981812 -0.054668024 0.04677035
-0.035617396 0.0033831447 0.15121888 -0.040290147 -0.0871455 -0.12532891 -0.055733897 -0.042127997
-0.108379945 -0.08823159 0.01215522 0.14373048 -0.12706093 0.12168698 0.123448685 0.0786777
0.06946662 -0.123049915 0.14152254 0.02181767 -0.062061533 0.15700196 -0.044877358 -0.052339934
-0.018892407 0.058156177 0.03668131 0.10123967 0.11160289 0.070381254 0.08986209 0.13625096

lstm.bias_ih_l1 f4 [160]
00000000: ff7b 473e 88fb c33e 751e 823e 90da da3d
00000010: fc21 453e 677a c83e ed73 af3e 18c0 803e
00000020: ee1b 173e 0070 3b3e bd65 663e e370 4e3e
00000030: 1525 c23e 9f1b 863e 1634 783e 63c2 2a3e
00000040: 4af5 b73e 5ff6 513e 3b45 983e ba90 c43e
00000050: a613 d73e 8984 e13e 0ec0 ee3d 5044 1b3e
00000060: d6d8 013b 3d62 d83e fe3b 293e dba6 223e
00000070: 14e5 8a3e 0d52 b33e 848a c43d c124 813e
00000080: b404 4d3e 5fc8 7f3e e06d ad3e 89c0 463e
00000090: 0402 aa3e 7584 a93e a689 3e3e efc9 003e
000000a0: c2c1 c23d c4fa a7bd faf2 80bd 7892 1ebe
000000b0: a1e2 e5bd 80b6 fd3a f6e1 903d 50dd 773c
000000c0: 2830 d5bc ee03 eabd 8029 1abd b403 8c3d
000000d0: d6c4 fa3d 2cec 3a3d 5eb1 04be b081 c6bc
000000e0: af70 0f3e 8cdd e8bd 885c c4bd 0f97 203e
000000f0: 222d d33d 50c4 7ebd 0804 b73d aa37 d63d
00000100: a0b8 1cbe 0605 81bd 9c9a 71bd 1c86 69bd
00000110: e81b 01be 8017 00bc 80ff b4ba 69bb 043e
00000120: 480d ea3c 14f8 cfbd 16e5 b13d a055 1cbd
00000130: a4a0 0a3d fbd4 81bd 9c20 4a3d 0053 ebbc
00000140: ba40 d53b d78f e5bc fb49 13bd f8c2 82bd
00000150: e2e3 073e ffeb 53bc 0ae2 79bd 1f88 88bd
00000160: 92ea 3f3d 6e9b 4dbc 83ed a73a 43d6 c73d
00000170: caea 41bd 119a c63d c45f 2e3d e233 383d
00000180: 9eb5 2e3d 4053 923d 6e23 083e f8d8 b43d
00000190: e783 23bd 1753 2cbe 7d67 3cbd 0622 3ebe
000001a0: 6067 0fbe 563d b2bd 380f a73c 93f1 803e
000001b0: 6a4d 70bd 6d3c 8ebd 9897 0a3d a5a2 92bb
000001c0: 4254 d63d 5efe b63d 4f7d df3c 752f 2cbe
000001d0: 632a babb a4c9 14bd e3d4 e43d e68d 24bd
000001e0: 0e75 b13e accb cf3e 595b 8a3e 2ef1 c53d
000001f0: 0de3 9f3e 5912 a13e 150d c83e d2c9 c33e
00000200: c4c4 313d 2d64 7a3e 8e24 d13e e5e6 bb3d
00000210: 457d c13e b151 b93e 4da1 d63e 23e7 123e
00000220: 8824 023f a208 ad3e df04 493e 499e eb3e
00000230: 090b ca3e b465 4e3e 61c6 7e3d 1736 1a3e
00000240: e57e 713e 13ce ac3e 21b8 033e 9620 133e
00000250: 1979 e93e d099 633e 5e49 983e d288 823e
00000260: b616 5b3e 0823 0e3e 29db 783e cb4f e23e
00000270: f4f1 8c3e 236a 723e 593d 4c3e 830d 273e
0.19480895 0.3827784 0.25413862 0.10686219 0.19251245 0.39155886 0.34268132 0.25146556
0.14756748 0.18304443 0.22499748 0.2016025 0.37918916 0.26192948 0.24238619 0.16675715
0.35929328 0.2050414 0.2974032 0.38391668 0.42007178 0.4404643 0.11657725 0.15162778
0.0019813082 0.4226245 0.16526791 0.15883963 0.27127898 0.35023537 0.09596732 0.25223354
0.20021325 0.2497878 0.3387289 0.19409384 0.33204663 0.3310887 0.18607196 0.12577032
0.095096126 -0.082021266 -0.06296344 -0.15485561 -0.11224867 0.0019356757 0.07074349 0.015128449
-0.02602394 -0.11426531 -0.037637234 0.06836644 0.12244575 0.045635387 -0.12958285 -0.024231762
0.14007829 -0.11370382 -0.095879614 0.15682624 0.10311343 -0.062198937 0.08936316 0.10459836
-0.15304804 -0.06299786 -0.058985338 -0.057012662 -0.12608302 -0.007818103 -0.0013809055 0.12962116
0.028570786 -0.10154739 0.08686273 -0.038167596 0.033844605 -0.06339451 0.049347505 -0.0287261
0.00650796 -0.02802269 -0.035959225 -0.063848436 0.13270524 -0.012934684 -0.061006583 -0.06666588
0.046854563 -0.012549264 0.0012811873 0.09757664 -0.047343053 0.096973546 0.042571798 0.044971354
0.042653672 0.07144785 0.13294765 0.08830446 -0.039920714 -0.16828571 -0.04599713 -0.18567666
-0.14004278 -0.08703105 0.020392999 0.25184307 -0.058667578 -0.06945119 0.033835977 -0.004474955
0.1046529 0.089352354 0.027281431 -0.16814978 -0.0056813224 -0.036325112 0.111734174 -0.040174387
0.34659618 0.40585077 0.27022818 0.09665142 0.31227913 0.3145931 0.3907248 0.38239914
0.04340054 0.24452277 0.40848202 0.09174899 0.37790886 0.36195138 0.41919938 0.14345984
0.5083699 0.3379565 0.19630764 0.460192 0.39461544 0.20155984 0.062200908 0.15059696
0.23583563 0.33750972 0.12863208 0.143679 0.45600203 0.22226644 0.29743475 0.2549501
0.21395382 0.13880551 0.24302353 0.44201502 0.27528346 0.236733 0.19945277 0.16313748

lstm.bias_hh_l1 f4 [160]
00000000: 2447 973e 72a2 863e 04e8 643e 2ed8 8d3e
00000010: 9ce4 c23e bf2f 753e 79e5 b93e 6b6f ca3e
00000020: 133b 923e da44 813e f3f3 ae3e 6d8a 743e
00000030: 738a 183f 0ad7 c33e 7d8a d23e c552 843e
00000040: 6478 ed3e b53d cb3e 7cdb 4b3e 5af4 923e
00000050: 3e13 923e 671b 5a3e 361d 653e 521c cf3d
00000060: ffc7 683d ddeb 9f3e bebb c73e e9c5 913e
00000070: bbf5 a53e 9147 a13e 7425 bb3e cb45 513e
00000080: 12a4 583e bfe9 813e 822a d93e f778 1c3e
00000090: 3bb2 653e a845 103e 608a 803e 2dfd 553e
000000a0: f843 fc3c 0c82 09be e671 6abd 64ec 6f3d
000000b0: e967 debd 5853 d5bc f8b0 ebbd d2be f53d
000000c0: 9890 483d b8d4 563d fa13 fcbd 7a14 cbbd
000000d0: ee56 c73d 4b25 20be 9026 a13c f5f3 8fbd
000000e0: f2b3 ce3d ec82 313d a62f b93d 8caa 523d
000000f0: 6db9 92bd 3837 14bd 606f 593d 54ed c7bd
00000100: acff 3f3d b07d 66bd 5fd5 f1bd 9292 9fbd
00000110: 8e05 11bd 4bae 1dbe 822d a9bd 004c aa39
00000120: 245f 83bd 84a8 32bd 70ef aabc 1c60 1c3d
00000130: 43ec b9bd b097 2b3c 4c63 65bd 0e39 d83d
00000140: d4cd 05bd 7b10 3bbd 1cc0 50be 7104 393d
00000150: 1583 123d cbfe 7b3c b0aa 0dbe a891 fb3d
00000160: e60a aebd 2d95 cdbd bba6 acbd b5ba 843d
00000170: 767f 1f3d 8b26 8cbc a84e 9c3d 233f 03be
00000180: 9701 bd3d 1bd9 a43d 86f7 87bd 3872 8cbd
00000190: bc3e 113d fce9 97bc 61ff bfbc 1b6e c9bd
000001a0: 3597 ca3d a4a2 9a3c 5acf 8ebc 1a8d 163e
000001b0: e348 9cbc e28a 263e ffa4 09be 1f00 3ebd
000001c0: 4256 d53d b843 8a3d 6056 bf3d 8930 c13c
000001d0: 9234 a93d a152 8d3c 0de5 34be 03f9 82bd
000001e0: 74d0 b43e 80a4 923e c82f 6f3e 85aa 9f3e
000001f0: d5b7 643e 8d77 a63e 50e4 823e ad9d 143e
00000200: d708 633e 5ecd 9a3e 68d9 a93e 0191 6d3d
00000210: e756 9e3e 8f58 8a3e 7d06 053e 4d1a c43e
00000220: d7bd 643e 18b9 513e d70a 0d3e a7c8 6d3e
00000230: 8bd6 843e 3bc2 863e ac4c 5a3e 410b 833e
00000240: aa7d 0e3d 07f6 3d3e 7338 873e 175b b93e
00000250: ef7c c73e 9a36 d33d fac8 933e 4af7 a33e
00000260: dd3d a83e 1358 8e3e f63c a93e 3b53 d93e
00000270: 3822 d73e aac0 c83e b681 923e f903 a43e
0.29546463 0.2629581 0.22354132 0.27703995 0.3806504 0.23943995 0.36307886 0.3953813
0.28560695 0.25247842 0.34170493 0.2388093 0.59586257 0.3825 0.41121283 0.25844398
0.46380913 0.39695516 0.19907945 0.2870205 0.28530306 0.21299516 0.22374424 0.101128235
0.056831356 0.31234637 0.39010423 0.28471306 0.3241404 0.31499913 0.36552012 0.2043678
0.21156338 0.25373647 0.42415243 0.1528052 0.22431271 0.14089072 0.25105572 0.2089736
0.030794129 -0.13428515 -0.05723753 0.05857505 -0.10859663 -0.026040718 -0.115083635 0.11999287
0.04896602 0.05244896 -0.12308498 -0.09916015 0.097333774 -0.15639226 0.019671708 -0.07028953
0.100929156 0.043337747 0.09042291 0.051432177 -0.071642734 -0.036185473 0.05308473 -0.097620636
0.046874687 -0.05627221 -0.118082754 -0.07791628 -0.035405688 -0.15398519 -0.08260633 0.0003248155
-0.06414631 -0.04361774 -0.020866126 0.038177595 -0.090782665 0.010473177 -0.0560029 0.10557757
-0.032666996 -0.045670014 -0.20385784 0.04517025 0.03576954 0.015380572 -0.13834643 0.12283641
-0.084981725 -0.10038219 -0.08430239 0.06480924 0.038939916 -0.017108222 0.0763219 -0.12817053
0.09228819 0.08049222 -0.06639008 -0.06857723 0.03546022 -0.01854419 -0.023437204 -0.09835454
0.09892122 0.018876381 -0.017432857 0.14702263 -0.019077724 0.16263917 -0.13441847 -0.046386834
0.10416843 0.067511976 0.093426466 0.023582714 0.0826198 0.017251315 -0.17665501 -0.063951515
0.35315287 0.2864113 0.23358071 0.31184784 0.22335751 0.32513085 0.25564814 0.14513274
0.22171341 0.30234808 0.3317368 0.057999615 0.30925676 0.2702069 0.12990756 0.38301316
0.22338043 0.20480764 0.13773666 0.23221074 0.25944933 0.2632006 0.2131831 0.25594524
0.03478781 0.18550883 0.26410255 0.3620231 0.38962504 0.10313149 0.2886427 0.32024604
0.32859698 0.2780157 0.33054322 0.42446312 0.42018294 0.3920949 0.28614587 0.3203428

linear.weight f4 [6, 40]
00000000: fc5a b43e 985c 983d af71 6e3e 376e 84be
00000010: 35c6 823e 7b9e 82bd 8568 d8be 98ea 16bf
00000020: 7460 b4bc 0b1a f1be 3f29 293d e60a 9dbc
00000030: 706d a33e c2de 9d3d 4cf0 c83e 7e25 4d3d
00000040: bd86 a4be 3f4f 5a3e 6541 e23e 6d30 d83e
00000050: 8288 ddbe 4c46 ff3e 9f81 053f 64b3 a6be
00000060: ee37 ce3d 9cf1 4bbe df63 9a3e 5cb0 89be
00000070: 5a69 efbe b2d9 0cbe 4d7a 77be 7aaa 6d3c
00000080: f129 9a3e f566 523e d112 173d 89f1 d9be
00000090: 6c1b b53d 8727 debd 2b79 093e f96d 013f
000000a0: 5d21 8d3e e1ae 603d 3cf7 993d 1f65 60be
000000b0: fb8e 2e3d ab35 89be 8a92 85be 141e f5bd
000000c0: 6efb ec3d f789 91be 3317 e2bd 33f9 973d
000000d0: d3e7 873e 62c7 48bd 7c53 dc3d cacc 243d
000000e0: 0253 8bbe fce0 a13d 9a8f 743e 16da 363e
000000f0: b55c 75be b7ea 8e3e 9879 fe3d d4f5 33be
00000100: 6c07 8c3e 569b 26be b0a3 b13d ca8c c5bc
00000110: a0c0 cbbd 667c c5bc c0e3 51be 18d1 97bd
00000120: d88a 073e 6c94 70bc 6735 233e e5ec 0cbe
00000130: bb2c 3c3e f063 963d 133e 943d 7d37 c33d
00000140: cd49 cf3d 4a48 d1be e8ee 19bf 7041 b2be
00000150: a20a b3bd 2ed7 11bf bf59 23bd 4d21 7d3e
00000160: b0ea f3bd 249f 93be fba4 ebbe e417 803f
00000170: 39fe d03e 0eef 0ebf 523b 73be 7856 b53e
00000180: 6099 a2be b1ad 6fbe ca78 2f3e cb06 17be
00000190: 22f0 15be 955b dcbd ba75 c5be debd cdbd
000001a0: bf05 1d3f 88ba a9be dfef 03bd b0a1 df3e
000001b0: 802c 483d b598 503f 4542 f0bc 5e86 e5be
000001c0: 8ab8 17be 0148 bfbe 0c61 0e3f 2d51 e93d
000001d0: 0144 673e 0bf3 e53e 575d f4be 0b31 12be
000001e0: e6cf 073e 3484 73be 121b 1cbe 6df2 89bd
000001f0: 58ad a5be d521 a4be b3ac dfbc 7367 7d3d
00000200: 85f1 96ba b2d7 89be 8ec9 88be 4ed4 3f3e
00000210: 6553 e33e 57bf 9bbe 278a 83be 07e7 0e3f
00000220: b271 b7be 297d 4fbe 0e57 9f3e 5dc5 4a3c
00000230: 091d 92bd 259e 2a3e 4001 1bbe 7ff1 4c3e
00000240: cb5a cdbc a7c2 38be ab8c cebd ef5f 58bd
00000250: f013 d43d 877f b93e fdaa 6fbd 0ac4 cfbe
00000260: cda7 70be ede0 14bf 8ae5 da3e 8886 523e
00000270: 47a2 cb3e 3252 973e 1dcf 56be b91b 27bd
00000280: 3d8e a63d 9810 5dbe e889 98bd 8c55 53be
00000290: a568 86be d15c 12bd 4e9a b93d f297 583d
000002a0: ca57 26bd f52b 9b3d aed5 26be 0499 153e
000002b0: c5da 243d ac3b 0fbe fa53 d0bd 2dc1 553e
000002c0: c901 c1bd 7889 82be 4116 193e cf46 53be
000002d0: 38b1 1b3c 017e ce3d 8d3a a43b 6087 3b3e
000002e0: a229 523d 7e6b 91bd 7d43 a4bd f8ca 34bd
000002f0: 33de 323e 4103 643d 1f66 45bd 6bf1 24be
00000300: 0fbe 2abe 77c0 c5be 62dd 093e 714e 283e
00000310: ef56 fb3c acbf 4b3e 87a5 a6be cb20 45bd
00000320: 3578 7abe 8c6e 68be fedd 9ebd 9133 3fbe
00000330: 0d60 dfbd 3a13 f73d f3c9 ed3e 0888 4b3e
00000340: 2be8 1cbf 756a c43e 8909 5abd 8271 673d
00000350: fd1a 6ebe c8a0 743e 16f0 a8bd 3457 273d
00000360: d53d 673e 9cf5 c6be f597 0cbe eebd f9be
00000370: c105 8f3e f477 87be 6323 63bd 9f9a 373e
00000380: d59c c2bd 44cd 9e3e 8286 12bf edf8 873e
00000390: 5f95 a13e 78f2 9ebc 8d3a 2b3f b838 5b3e
000003a0: 8664 06be e8ae 693d 305a f1bb 5b1f bb3e
000003b0: e191 91be 891c ce3d 1154 5ebe 9e5a b3be
0.35225666 0.07439536 0.23285554 -0.25865337 0.25541845 -0.06377884 -0.42267242 -0.5895171
-0.022018649 -0.47090182 0.0412991 -0.019170236 0.31919432 0.07708503 0.39245832 0.050084583
-0.32134047 0.21319292 0.44190517 0.42224446 -0.4326821 0.4985832 0.5215091 -0.3255874
0.100692615 -0.19916385 0.3015432 -0.26892364 -0.46760064 -0.13754919 -0.24167748 0.014505977
0.30110124 0.20547087 0.03688318 -0.4256709 0.08843121 -0.10847383 0.13425128 0.5055843
0.27564517 0.054854278 0.07517859 -0.21913575 0.042616826 -0.26798758 -0.26088363 -0.119686276
0.11571394 -0.2842557 -0.11039581 0.07420578 0.26544055 -0.04901827 0.10758111 0.040234365
-0.27211767 0.079042405 0.23882905 0.1785663 -0.23961146 0.27913448 0.12425536 -0.17574245
0.27349412 -0.16270193 0.08673799 -0.024114985 -0.0994885 -0.02410717 -0.20497036 -0.07412928
0.13236558 -0.014683824 0.1593834 -0.13762243 0.18376438 0.0734328 0.07238402 0.09532068
0.10121498 -0.40875465 -0.60130167 -0.3481555 -0.087422624 -0.56968963 -0.03988051 0.24719734
-0.119099975 -0.28832352 -0.46024308 1.0007291 0.40818956 -0.5583352 -0.23753098 0.35417533
-0.3175764 -0.23406102 0.17135921 -0.14748685 -0.14642385 -0.107596554 -0.3856638 -0.1004598
0.6133689 -0.33150125 -0.03221118 0.43678045 0.048870564 0.8148301 -0.029328475 -0.44829077
-0.1481649 -0.37359622 0.5561683 0.11392436 0.22584535 0.4491199 -0.47727463 -0.14276521
0.132629 -0.237809 -0.15244702 -0.06735692 -0.32358813 -0.32057062 -0.02730403 0.061866235
-0.001151607 -0.26922375 -0.26716274 0.18733332 0.44399562 -0.30419418 -0.2569134 0.5582127
-0.3582893 -0.20262589 0.31121105 0.012376157 -0.07134444 0.1666189 -0.15137196 0.20013998
-0.025067708 -0.18043004 -0.10085424 -0.052825864 0.10355365 0.36230108 -0.058512677 -0.40579253
-0.23501511 -0.5815571 0.4275325 0.20559132 0.39772245 0.29554898 -0.20977445 -0.040797923
0.081325985 -0.21588361 -0.074481785 -0.20638102 -0.26251712 -0.035733048 0.090626344 0.05287928
-0.040611066 0.075767435 -0.1629245 0.14609152 0.040247697 -0.13987607 -0.10172267 0.20874472
-0.094241686 -0.25495505 0.14949895 -0.2063248 0.009502701 0.10082627 0.0050118626 0.1831336
0.051309235 -0.07100581 -0.08020685 -0.04413888 0.17467575 0.055667166 -0.048193093 -0.16107719
-0.16674064 -0.38623402 0.13463357 0.16436173 0.030681102 0.19897336 -0.32548162 -0.048126977
-0.24459918 -0.2269842 -0.077571854 -0.18672015 -0.10906992 0.12064214 0.46443138 0.1987611
-0.6129176 0.3836247 -0.05323175 0.056504734 -0.23252483 0.23889458 -0.08248918 0.040854648
0.22582181 -0.3885926 -0.13729842 -0.48777717 0.27934077 -0.26458704 -0.05545367 0.17930077
-0.095025696 0.3101598 -0.5723649 0.26557103 0.31559274 -0.019402727 0.66886216 0.21408355
-0.13124284 0.05705157 -0.0073654875 0.3654736 -0.2843161 0.100640364 -0.21711756 -0.35030073

linear.bias f4 [6]
00000000: 982a 123e 2498 6a3e 0e0c be3e 4ba7 56be
00000010: 6e4f 5bbc 8c70 c63c
0.1427406 0.229096 0.37118572 -0.20962255 -0.013385637 0.024223588
