models/59/state_dict.pt (torch_old, 25727 bytes, 10 tensors)

lstm.weight_ih_l0 f4 [80, 10]
000000 f2 53 32 bf f1 42 6d 3f 5a 17 59 3f f3 af 0e 3f
       -0.6965934 0.9268027 0.84801257 0.5573723
000010 d6 7e 6e c0 f7 86 b6 3f f9 cb 97 3f 15 ab 56 c0
       -3.7264915 1.4259938 1.1859123 -3.354192
000020 35 8e 9f 3f d0 6b 9d 3f 43 53 6b bf 59 05 b3 be
       1.2465273 1.2298527 -0.9192392 -0.34965017
000030 2b 28 c9 3f f3 05 43 3f 6f 93 89 c0 ef 7b cd 3e
       1.5715383 0.7618095 -4.2992473 0.40133616
000040 32 11 ac 3e 7c cb 8e c0 56 7e 3e 3e a2 fc fb 3e
       0.3360687 -4.4623394 0.18602881 0.4921618
000050 d3 a9 b4 bd fd 37 7d bf 66 43 88 3e dd 43 93 be
       -0.08821454 -0.98913556 0.2661392 -0.28762713
000060 7e e8 e5 3c 08 5f 10 bf 90 d9 09 3e 6c 8c 6c 3c
       0.028064962 -0.56395006 0.134619 0.014437776
000070 88 82 30 bf 9f 96 f4 3e f5 f1 55 be 62 22 ac 40
       -0.68949175 0.47771165 -0.2089308 5.379197
000080 73 c4 82 be 9a ff 0e bf 87 01 11 bf 6b 95 16 40
       -0.25540504 -0.5585877 -0.56642956 2.3528697
000090 17 ae 6a 3e f5 b1 15 bf 82 02 1e 40 8b 18 00 be
       0.22917973 -0.58474666 2.468903 -0.12509362
0000a0 ec 13 01 3f 3a 95 01 40 96 6e e0 be a8 17 b6 3e
       0.50421023 2.024733 -0.4383437 0.35564923
0000b0 03 5f 0d 40 d3 1f 89 3f 77 8b 00 bf 73 47 14 40
       2.208924 1.0712837 -0.50212806 2.316861
0000c0 c8 cf 74 3f d5 97 13 bf 8f e4 d2 bd 71 9b d0 3e
       0.9562955 -0.5765355 -0.102975 0.40743592
0000d0 18 5e aa 3e b8 62 3a bd 6c c4 99 be 32 fc 12 bd
       0.33274913 -0.0455043 -0.3003267 -0.035885043
0000e0 a7 b3 cc be fd 4e cb be 15 b6 57 3e 26 42 32 be
       -0.39980814 -0.397087 0.21065553 -0.17408046
0000f0 30 7f 78 be 27 8e 52 3e 1e 9d f2 be 0d ce 01 bf
       -0.24267268 0.2056204 -0.47385496 -0.50705034
000100 01 27 35 40 3f 97 ae be 92 2a 3d bf a4 76 26 40
       2.8305056 -0.34099767 -0.7389308 2.6009912
000110 a8 01 89 be 77 b2 79 bf 9c 58 46 be 5a 0f 83 40
       -0.26759076 -0.9753794 -0.1936974 4.095624
000120 be fd a7 3e 5d 53 e1 3e 55 71 40 bf 22 db 8e 3f
       0.32810777 0.44008914 -0.7517293 1.1160624
000130 56 02 40 bf 42 09 58 bf e2 fe c1 3f 8e 54 0c bf
       -0.75003564 -0.84389126 1.5155909 -0.5481652
000140 3a ab 4e 3e db df 37 40 27 25 97 bf 67 1a 7b 3f
       0.20182505 2.873038 -1.1808213 0.9808716
000150 0f 09 78 3f 15 b7 d5 3f 4f 60 5f 3f c0 a1 62 3f
       0.9688882 1.6696497 0.8725633 0.8852806
000160 d9 57 cd 3f 9a 9a 4f 3f 4d c7 eb 3b 5f e2 93 bf
       1.6042434 0.8109528 0.0071953894 -1.1553458
000170 7f 06 f7 3e 3c c1 82 3f b7 d3 37 bf d1 1d a9 3d
       0.48247144 1.021522 -0.71807426 0.0825764
000180 07 14 fc bc 76 82 1b bf 00 8d 04 3d f1 c6 8f bd
       -0.030771269 -0.6074594 0.03236103 -0.07020367
000190 b5 f7 15 3f 68 b0 04 c0 8f 0d 97 3f 91 79 15 3e
       0.58581096 -2.073267 1.1801013 0.14597155
0001a0 a9 e4 48 c0 87 ad 49 bf ad da 43 be ee 2d 37 c0
       -3.1389563 -0.78780407 -0.19126387 -2.8621783
0001b0 4b 6a 4b bf 6f f2 0e 3d a0 03 d0 bd 85 5d 52 be
       -0.79459065 0.03489917 -0.101569414 -0.20543487
0001c0 c2 9e d8 bf 1e 54 a7 be cb ef 95 40 3a 2b c6 be
       -1.6923449 -0.32681364 4.6855216 -0.38704854
0001d0 7b 08 ff 3e e2 27 90 40 50 c0 0b bf 50 c2 c9 3e
       0.49811158 4.5048685 -0.5459032 0.3940606
0001e0 e9 a1 ad 3e e7 3a ad bf c8 c4 c4 3e 25 4e 7c be
       0.3391259 -1.35336 0.38431382 -0.24639185
0001f0 c5 45 95 c0 66 61 0a bf fd 20 64 3f d1 19 8d c0
       -4.664767 -0.5405487 0.89112836 -4.4094014
000200 d3 ed 95 be a3 83 30 3f a3 dd 24 bf ee bd 70 40
       -0.29283008 0.6895086 -0.6440069 3.7615924
000210 a7 1a 73 bf 8f 09 11 c0 47 f3 0b 3e e2 43 bc 3f
       -0.94962543 -2.2662084 0.13667022 1.4708216
000220 45 b0 f7 3e bf 08 8c 3e 19 ec cd 3f a9 08 c9 3d
       0.4837667 0.27350423 1.6087676 0.09816105
000230 6e 2b 3d 3f 60 1d e9 bf 5e fe 2c bf 1e c3 a4 bd
       0.73894393 -1.821209 -0.67575634 -0.08045028
000240 f1 1d 1d 40 e8 3b 96 bf 57 5f 95 bf 04 e4 1c 40
       2.4549525 -1.1737032 -1.166972 2.451417
000250 ab f7 af bf 79 a6 98 bf b5 52 27 bf 14 61 aa 40
       -1.3747457 -1.1925803 -0.65360576 5.3243504
000260 2f 2d 2e 3e d8 10 95 be 72 d7 01 bf 72 02 36 40
       0.17009424 -0.29114413 -0.5071937 2.8438993
000270 c3 dd 16 bf f9 bd d0 be 0c 4a 1c 40 42 db 40 be
       -0.5893213 -0.40769938 2.4420195 -0.1883364
000280 8e f8 62 3f db 94 dc 3e e7 93 43 3d 41 9c 3d 3f
       0.88660514 0.43082318 0.047748473 0.7406655
000290 f1 4b 10 bf 7d fa 25 3f 23 08 c3 bd cf 13 c4 be
       -0.5636588 0.6483534 -0.09523036 -0.38296363
0002a0 68 18 0a 3f 82 a9 cf 3c 65 af 66 3d 62 79 b2 40
       0.5394349 0.025349382 0.056319613 5.577317
0002b0 b0 73 22 bf 7d 80 b8 bf b4 00 9a bd 83 7e 60 3f
       -0.63457775 -1.4414212 -0.07519665 0.8769304
0002c0 59 e3 40 3f c9 39 44 3d 63 09 36 3f c4 b7 02 3f
       0.75346905 0.04790667 0.71108073 0.51061654
0002d0 cb ca 0e 3e fa 6d 2f be d5 10 02 bf 81 f2 8a be
       0.13944547 -0.17131796 -0.50806934 -0.2713814
0002e0 b1 72 5d 40 71 e1 41 bf 55 c0 06 c0 d8 0f 50 40
       3.4601252 -0.7573462 -2.105489 3.250967
0002f0 2b be 3d bf 51 1b 0b c0 ff 78 5c be 93 ad 1e bf
       -0.741183 -2.1735423 -0.21530531 -0.61983603
000300 f4 27 55 3f 81 d4 3f 3f 58 34 16 c0 30 70 81 3f
       0.8326409 0.7493363 -2.3469448 1.0112362
000310 28 fb cd 3d 82 87 1c c0 db 25 33 3f 37 9c 69 3e
       0.1005767 -2.4457707 0.6997964 0.22813497
000320 8a 1f 89 bd 58 c1 e0 3d f8 3d 2d 3e 39 42 53 be
       -0.06695469 0.109743774 0.1691817 -0.2063073
000330 fc 6d 64 bd 38 5f b3 bc cc 42 6e bd e8 f2 9c 3d
       -0.05576895 -0.02189599 -0.05816917 0.07663518
000340 40 3c 1a 3e 23 7e 48 be 18 63 0b 3e 04 e7 3d be
       0.15062046 -0.19579367 0.1361202 -0.18545157
000350 56 27 34 be 74 71 f7 3d 36 22 0a 3e f8 b6 45 be
       -0.1759313 0.12082186 0.13489613 -0.19308078
000360 90 cc 4c 3d dc 1f 3a 3e 64 c0 c3 bd 10 a2 23 3c
       0.049999774 0.18176216 -0.0955818 0.009987369
000370 30 00 fa 3c 70 98 6f 3d b4 67 dd 3d 2e 20 9c bd
       0.030517668 0.058494985 0.108107954 -0.07623325
000380 ee 34 fe bd 55 b6 2d be 00 f8 95 b8 ac 4c e7 3d
       -0.12412439 -0.16964085 -7.151067e-05 0.11293921
000390 20 c5 d6 3c 90 35 04 3c f0 c0 cb bd ba 79 a8 bd
       0.026217043 0.008069411 -0.09948909 -0.082263425
0003a0 57 9f 4d be 56 4b 29 3e 90 bb af 3d fa b4 24 3e
       -0.20080315 0.16532645 0.085806966 0.16084662
0003b0 96 1f 0f 3e a5 ae 0e be 60 65 c9 3d b8 9b 68 3d
       0.13976893 -0.13933809 0.09833789 0.05678913
0003c0 f6 f3 94 bd 78 bf 79 bd 68 8b cc 3c 90 d2 e2 bd
       -0.07273094 -0.060973614 0.024968818 -0.11075318
0003d0 78 3c f9 3d b4 b1 ad bd c0 f1 ed 3c 5c 87 2d be
       0.121697366 -0.0848116 0.02904594 -0.16946167
0003e0 74 5e 38 3e 80 e7 9d 3a 62 e9 10 3e 7c 08 7f bd
       0.18004781 0.0012047142 0.14151528 -0.06226395
0003f0 45 91 54 be 12 e7 fc bd 92 54 4d be 80 5e f5 3b
       -0.20758541 -0.12348761 -0.20051792 0.007488072

lstm.weight_hh_l0 f4 [80, 20]
000000 c0 b9 58 bb 04 23 cf 3d b0 77 3e 3e 30 f6 25 be
       -0.00330697 0.101141006 0.18600345 -0.16207194
000010 3c f1 aa 3d 48 d8 0f be 3c b5 37 bd 96 bc 3d 3e
       0.08346793 -0.14047348 -0.044850573 0.18528971
000020 66 f5 f0 bd 78 24 d8 3d 3a 6d 29 3e 3a fb 2d 3e
       -0.11765556 0.10553831 0.16545573 0.16990367
000030 c0 69 21 3c 06 16 1b 3e d7 92 d6 bd 51 71 58 be
       0.009851873 0.1514512 -0.10477226 -0.21136977
000040 48 97 18 3e 08 65 10 bd 87 df 2b be b8 e7 99 3d
       0.14901459 -0.0352526 -0.16784488 0.075149
000050 a8 11 92 bd 50 f2 25 3d 82 21 37 3e 20 2f d8 3c
       -0.07132274 0.04051429 0.17883876 0.026389658
000060 54 e3 3e 3e 26 ab 4d 3e 30 f3 86 3c 18 8f b9 3c
       0.18641406 0.20084819 0.016473383 0.02265124
000070 46 39 4b be 15 2b 49 be 48 b0 5d 3d e8 ef 27 bd
       -0.19846067 -0.1964534 0.054123193 -0.041000277
000080 cc 42 15 bd a6 dc 1c be ac aa 58 be 3c 64 be 3d
       -0.036440656 -0.15318546 -0.21158856 0.09296462
000090 98 66 57 3d 00 c6 8b 3d 24 c4 dc bd 28 e1 32 bd
       0.052588075 0.06824875 -0.10779598 -0.043671757
0000a0 29 02 e2 bd 52 cf 4b be 50 00 2c bd 98 d6 20 3d
       -0.11035568 -0.19903305 -0.041992486 0.039267153
0000b0 88 4f 01 3d cc 53 1d 3e 00 56 21 3b f0 99 ec 3c
       0.031569988 0.15363997 0.002461791 0.028881997
0000c0 42 e2 54 be 30 7e df 3d 5e 4e 43 be d6 1f fc bd
       -0.20789436 0.1091274 -0.19072863 -0.1231076
0000d0 28 ba 94 3c 58 98 26 be 3e 1a 0b be 06 15 13 3e
       0.018155172 -0.16269052 -0.1358423 0.14363489
0000e0 64 43 03 be 66 37 5d 3e 18 39 04 be f8 d3 48 be
       -0.12818676 0.21603164 -0.12912405 -0.1961211
0000f0 b8 a1 9e bc 9a f1 e9 bd 08 23 30 3e a0 d2 d4 bc
       -0.019364223 -0.11423035 0.17200863 -0.02597934
000100 ca b9 c7 bd 20 de 0d bc a4 b3 e3 3d d8 49 3e be
       -0.09752233 -0.008658916 0.11118248 -0.18582857
000110 bc c6 9d 3d f8 82 23 3d b6 52 09 be 40 0d 10 3b
       0.07703921 0.039919823 -0.13410458 0.0021980554
000120 00 f3 32 3e e8 2d ad bc fc 42 a2 3d 4c 51 08 3e
       0.1747551 -0.021140054 0.079229325 0.13312262
000130 a0 0a 8b bd 00 09 c2 ba 4c 8f 0e 3e 75 47 ee bd
       -0.06789136 -0.0014803708 0.13921851 -0.11634723
000140 a2 7e a7 bd 73 5b 3c be da b4 39 3e 34 94 2d be
       -0.0817845 -0.1839426 0.18135396 -0.16951066
000150 91 bf 36 be 92 3c df bd c4 c9 b5 3d 30 9d 08 be
       -0.17846514 -0.10900225 0.08876374 -0.13341212
000160 52 fe eb bd 2c 86 6a bd f4 49 7e bd c6 31 2f 3e
       -0.11523117 -0.057256863 -0.062082246 0.17108831
000170 60 b6 fa 3c 2e 5a 0b 3e e8 a4 05 be 38 11 ab 3c
       0.030604541 0.1360862 -0.13051188 0.020882234
000180 ae e2 53 3e 60 6f 1f 3c 24 a4 fd 3d 6e f0 96 bd
       0.2069194 0.009731144 0.12384823 -0.07370077
000190 28 70 40 3e 78 4f 16 be 80 e6 46 3d 08 d9 a7 3d
       0.18792784 -0.14678752 0.048559666 0.08195692
0001a0 e0 5a f5 3d 00 86 c7 bb 1e 42 50 3e 58 3f 06 be
       0.11980224 -0.006088972 0.20337722 -0.13110101
0001b0 aa 57 eb bd fc e7 27 bd 58 89 4b be e6 94 15 3e
       -0.1149133 -0.040992722 -0.19876611 0.14607581
0001c0 58 9d 16 3d e0 53 33 3d 86 c3 62 be 90 b6 d9 3d
       0.03677115 0.04378116 -0.22144899 0.10630524
0001d0 6c fe 46 3e ec 02 1e be 80 92 ce 3d 16 63 1e 3e
       0.19432992 -0.15430802 0.100865364 0.15467486
0001e0 f4 7a 33 3e 10 f8 c2 bc 42 78 0e 3e c8 23 5c 3e
       0.17527372 -0.023799926 0.13913062 0.21498024
0001f0 3e f7 4e 3e f0 12 4d bc 20 72 e2 bc e1 6e 36 be
       0.20211503 -0.012516722 -0.02764231 -0.17815734
000200 5c 7d a3 3d 20 03 2e be 4c b5 2f 3e 28 b2 09 be
       0.07982895 -0.1699338 0.17159003 -0.13446867
000210 e8 9d 32 be 28 55 31 be 80 21 4f be 8e 47 98 bd
       -0.17443049 -0.17317641 -0.20227623 -0.07435523
000220 98 8d 69 3d 04 50 25 3e fc e9 5b be 78 6a 3d 3d
       0.0570198 0.16143805 -0.21475977 0.046244115
000230 de 5c 80 bd 99 e0 55 be 84 19 f3 bd c4 97 5e be
       -0.06267713 -0.20886458 -0.11870101 -0.21737581
000240 cb 01 13 be 60 49 5a 3e 6c 93 08 be 30 a1 b1 3d
       -0.14356153 0.21317053 -0.13337487 0.08673322
000250 71 78 5e be d8 63 20 3d dc 65 c7 3d 0e 17 cc bd
       -0.21725632 0.03915772 0.09736225 -0.09965335
000260 00 d5 d8 3b 28 83 e0 3d 18 56 52 be c1 f1 47 be
       0.0066171885 0.10962516 -0.20540655 -0.19525816
000270 00 04 38 3c f6 b6 08 be c4 98 24 bd ea 5d c8 bd
       0.011231422 -0.13351044 -0.04018475 -0.09783538
000280 d0 17 ff 3d 14 72 ec bd c8 44 2d be 6b 3a 30 be
       0.12455714 -0.11545196 -0.16920769 -0.17209785
000290 08 38 10 3e a4 fd 99 3d 54 59 b0 bd 00 e0 c2 bb
       0.14083874 0.07519081 -0.08610788 -0.005947113
0002a0 cd 75 38 be ee 0e a1 bd ec cc 71 bd 24 6d 0e be
       -0.18013687 -0.07864176 -0.05903332 -0.13908821
0002b0 d2 fb b0 bd 60 0e 50 3e 5d 64 d2 bd 34 b8 64 3e
       -0.08641781 0.20317984 -0.10273049 0.22335893
0002c0 49 5e d2 bd 92 fe 43 3e 90 57 01 bc 00 7f 37 bc
       -0.1027189 0.1914008 -0.007894412 -0.011199713
0002d0 48 f0 42 bd ca a0 35 3e 84 fd a6 3d 48 6e 02 3e
       -0.04759243 0.17737117 0.08153823 0.12737381
0002e0 e0 eb 80 bd 6a ec 24 be a4 d1 20 3e 08 0b a0 3c
       -0.062949896 -0.1610581 0.15704972 0.01953651
0002f0 68 dd 34 3e 40 cc 4c 3b eb ee 4f be c0 7f 99 3c
       0.17662585 0.0031249672 -0.20305984 0.018737674
000300 b3 f6 14 be d0 4d 4e 3c 2a df 3b be 08 ae 32 be
       -0.14547233 0.012591794 -0.18346849 -0.174492
000310 88 58 5f be d6 1b 02 3e a4 20 94 bd 6e dd 28 3e
       -0.21811116 0.12705931 -0.07232788 0.16490719
000320 64 c7 7e bd 68 eb 7a bd 02 0c 37 3e b6 68 54 3e
       -0.062201872 -0.061259657 0.17875674 0.20743069
000330 ac 57 3d be a2 eb 29 be 58 0d 2b bd 20 fb d0 3d
       -0.18490475 -0.16593793 -0.041760772 0.10204148
000340 80 5e d9 3c e5 51 dd bd 40 b5 41 3e 40 51 c8 bc
       0.026534319 -0.10806636 0.18916798 -0.024452806
000350 31 b6 12 be 3c 35 87 3d bc 87 3f be d8 8e 7f 3d
       -0.14327313 0.066019505 -0.18704122 0.062392086
000360 06 6d 40 be 24 99 09 3e 2c fe de bd 18 0b de bc
       -0.18791589 0.13437325 -0.10888323 -0.0271049
000370 7e a1 2c 3e 78 e6 2a 3e ec 9f 6a bd cc f4 1e 3e
       0.1685848 0.1668948 -0.05728142 0.1552307
000380 48 7a 71 3d da 41 03 3e 96 9f d7 bd 26 d1 46 3e
       0.058954507 0.12818089 -0.105284855 0.19415721
000390 2c 27 31 3e 40 d8 5d 3e 94 4a 77 bd c0 e3 3b bc
       0.17300099 0.21664524 -0.060373858 -0.011467874
0003a0 8e 3d cb bd 80 7e 71 3d 08 b6 53 bd 88 fe f6 bc
       -0.0992385 0.05895853 -0.05168727 -0.030150667
0003b0 00 06 ad 3c 1c b5 1f 3e 34 3c 85 3d 62 68 47 be
       0.021121025 0.15596431 0.065056235 -0.19473413
0003c0 b5 d5 1e be 40 21 8d bb b0 40 a5 bd bf 18 25 be
       -0.1551121 -0.004306942 -0.08068979 -0.16122721
0003d0 5a 59 0a be b8 a4 25 3d 48 23 d1 bc 45 6a ec bd
       -0.13510647 0.04044029 -0.025529519 -0.11543707
0003e0 f0 ba 5e bc 44 25 37 be 2a e4 a2 bd 20 3a 5d 3d
       -0.013594374 -0.1788531 -0.07953675 0.05401051
0003f0 e1 00 0c be 61 db 5a be 7e c1 5c be 5b 84 38 be
       -0.1367221 -0.21372749 -0.21558186 -0.1801924

lstm.bias_ih_l0 f4 [80]
000000 91 9d a7 3c ba 6e f1 bf fa 02 51 40 5b a1 96 bf
       0.020460876 -1.8861916 3.2658067 -1.1767992
000010 cb 8c a0 3f 4d e8 18 40 f9 2c d4 3f ab 16 66 3f
       1.2542967 2.3891785 1.6576225 0.8987834
000020 90 08 bb 3f 6d 81 15 40 e1 f0 c8 3f 52 7d 22 3f
       1.4611988 2.3360245 1.569851 0.63472474
000030 07 7c 38 3f a8 ac 0f bf 7f 98 9c 3f 18 ba 7b bd
       0.7206425 -0.5612283 1.2234038 -0.06145677
000040 eb 92 1c 40 1f ea a2 3f 2b 7f 04 3f 5a 25 19 40
       2.4464672 1.2727698 0.5175654 2.3929048
000050 0e fc 08 3e 8a 02 43 3e 4c b0 77 bd bd dc 35 be
       0.13377401 0.19043937 -0.060470864 -0.17759986
000060 82 0a b7 bd a1 d1 45 be 18 29 06 3d 24 d0 38 3e
       -0.08937551 -0.19318248 0.032754034 0.1804815
000070 36 d7 3b 3e 20 2a bd 3d d0 1f 22 3d ba 70 0b be
       0.18343815 0.0923655 0.03958112 -0.1361722
000080 64 70 8c 3d ca 5c bb bd f8 56 d6 bc 40 fd 02 3d
       0.06857374 -0.091485575 -0.026164517 0.0319798
000090 e2 08 40 3e 3a 2a 01 3e 68 cf 36 3e 24 af c6 bd
       0.18753389 0.12613764 0.17852557 -0.09701374
0000a0 cf 8e c6 3e 33 42 b8 3e 7a 95 a2 be e1 ce c9 3f
       0.3878083 0.35988006 -0.31754667 1.576626
0000b0 d9 b8 91 3f 58 87 c8 3f 1c 0e 28 be bd df be bf
       1.1384536 1.5666304 -0.16411632 -1.491203
0000c0 8d 9d 16 c0 ae 44 35 3f b4 0d 22 3f 8b 29 89 bf
       -2.3533661 0.7080792 0.6330216 -1.0715803
0000d0 03 09 b2 bf a9 56 f2 bf 6f 4f a8 3f 6b 38 99 bf
       -1.3909 -1.8932697 1.3149241 -1.1970342
0000e0 d3 39 77 3e c8 02 ae bf 7c b0 e5 bf 70 b4 d2 be
       0.24143152 -1.3594599 -1.7944484 -0.41153288
0000f0 a0 b3 67 3f 4b 0f 20 3f 13 86 b9 3f 0a cc 94 bf
       0.9050846 0.62523335 1.4494041 -1.1624768
000100 42 a3 59 3e 63 b6 3e 40 d7 80 8c 3e 36 aa a4 bf
       0.21253684 2.979882 0.27442047 -1.2864444
000110 d6 32 8c 3f 54 3c dd 3f 36 19 cc 3f ef eb 03 c0
       1.0953014 1.7284036 1.5945194 -2.0612752
000120 e3 74 87 bf a5 64 8e bf 18 4f fa be e4 69 c5 bf
       -1.0582546 -1.1124464 -0.4888847 -1.542294
000130 bb bf f0 3f 32 50 89 3f c3 0a db 3f a2 ba 26 40
       1.8808511 1.0727599 1.7112659 2.6051412

lstm.bias_hh_l0 f4 [80]
000000 a0 5d 48 bd e4 37 01 c0 24 4d 45 40 92 af 9f bf
       -0.048917413 -2.0190363 3.0828333 -1.2475455
000010 c7 c2 b6 3f 05 5d 2e 40 4b a3 cf 3f 67 96 7a 3f
       1.4278191 2.7244275 1.6221708 0.97885746
000020 b6 50 a0 3f c7 6d 0a 40 17 4c c9 3f 7e 35 2f 3f
       1.2524631 2.1629503 1.5726346 0.68441
000030 f4 f2 0a 3f 9c e2 4e bf cb eb b8 3f bc 04 9b be
       0.5427697 -0.8081453 1.4446958 -0.3027705
000040 97 5a 17 40 e5 2e a6 3f 49 3e dc 3e 52 5f 1e 40
       2.3649042 1.2983061 0.4301627 2.474568
000050 39 d4 55 be 78 45 51 be 3e 23 1d be 50 75 99 3c
       -0.20881738 -0.20436656 -0.15345475 0.018732697
000060 a0 05 e7 3c a5 d0 14 be ac 40 51 bd c0 a8 26 bc
       0.028200924 -0.14532717 -0.051087067 -0.010172069
000070 97 6f f2 bd 9c d3 e5 3d 60 e5 9e bd a8 71 20 3e
       -0.1183769 0.11222002 -0.077585936 0.15668356
000080 40 2b 0c 3e 3a 0f bd bd 84 7a 4a 3e c8 7f e8 bc
       0.13688374 -0.0923142 0.19773299 -0.028381243
000090 24 b6 bd bd 14 29 af 3d 08 f7 89 bd 94 90 4f be
       -0.09263256 0.08552757 -0.067365706 -0.20269996
0000a0 03 93 a5 3d 45 ab ba 3e bf 59 fb be b1 62 b7 3f
       0.08084681 0.36458793 -0.49091908 1.4326993
0000b0 97 4d 7c 3f a8 05 cf 3f a2 15 69 be 75 a9 c0 bf
       0.9855589 1.6173601 -0.22762159 -1.5051714
0000c0 07 ae 15 c0 e2 29 55 3f 12 f8 1d 3f c6 da 6f bf
       -2.3387468 0.83267033 0.6170665 -0.93693197
0000d0 65 20 b6 bf d3 57 c1 bf 83 f4 b4 3f 09 f8 c0 bf
       -1.4228636 -1.5104927 1.4137119 -1.5075694
0000e0 c9 2b 81 3e 73 99 93 bf 21 a5 e1 bf 6a 09 ec be
       0.25228718 -1.1531204 -1.7628518 -0.46100932
0000f0 30 47 54 3f 71 e0 44 3f 79 98 cf 3f c6 15 bc bf
       0.82921124 0.7690497 1.6218406 -1.4694145
000100 2a e6 96 3e 5b ec 39 40 11 c9 6a 3e f7 04 b3 bf
       0.29472476 2.905051 0.22928263 -1.398589
000110 09 2e 88 3f 54 59 fb 3f c0 ce b4 3f 9d 03 f8 bf
       1.0639049 1.9636636 1.4125595 -1.9376103
000120 78 90 48 bf 5b df 88 bf f1 eb c3 be 8c d8 cb bf
       -0.7834544 -1.0693163 -0.38265947 -1.592546
000130 41 1f 07 40 d9 bb 68 3f b9 d6 b6 3f d8 70 22 40
       2.1112826 0.9091163 1.4284278 2.5381374

lstm.weight_ih_l1 f4 [80, 20]
000000 05 b0 d4 bd f7 a3 98 bd 4f c9 b3 bd 09 d9 9e bd
       -0.103851356 -0.07453149 -0.08778631 -0.0775624
000010 1f a0 6d bd b3 d0 8b be 0e d8 9e bc 6c 97 20 3d
       -0.05801403 -0.27307662 -0.019390132 0.039206907
000020 5c 45 73 3e e7 81 bf be 0e ca 01 be 06 c9 a9 be
       0.23756927 -0.37403795 -0.12674734 -0.3316118
000030 74 65 3b 3d 2f fc 4c 3e 54 d9 da bd 18 5d c1 3d
       0.04575105 0.20018075 -0.10685983 0.09441584
000040 67 a4 58 3e 60 51 da bd 16 b1 c6 3e 3c d0 5e 3d
       0.21156465 -0.10660052 0.3880698 0.054397807
000050 54 43 5a be 98 15 aa 3f 28 88 c8 bf 8f db 34 3f
       -0.21314746 1.328784 -1.5666552 0.7064752
000060 18 d4 f7 bf e0 65 f4 bf 2e e5 1a bf d6 bb 91 bf
       -1.9361601 -1.909359 -0.6050595 -1.1385448
000070 5d 19 28 bf 3a 72 b8 bc ac c9 6e 3f 87 75 51 c0
       -0.656637 -0.022515405 0.93276477 -3.2727983
000080 c9 00 31 40 eb 09 84 bf d1 64 8b be f3 61 23 bf
       2.765673 -1.0315527 -0.27225354 -0.63821334
000090 76 9f 00 40 e3 27 e2 be 74 ff 48 3e 30 9e ab 3f
       2.0097327 -0.44171056 0.19628698 1.340765
0000a0 64 98 45 bf f8 15 b4 b9 e1 08 6d 40 ba 10 0c 40
       -0.77185655 -0.00034348643 3.703667 2.188521
0000b0 9c 3c ec bf 26 17 d0 be 9f a7 7d c0 8f 91 2f c0
       -1.8455997 -0.4064266 -3.9633558 -2.7432592
0000c0 6d 42 65 bf 9f 6d 6f be 21 1a ee be 0c e9 79 3e
       -0.8955448 -0.23381661 -0.4650431 0.24405307
0000d0 3f 3e 67 3e db 31 07 c0 98 6f ad c0 43 54 16 c0
       0.22582339 -2.112418 -5.4198723 -2.348893
0000e0 3c bd d5 be 5d 69 2e 40 20 3e b6 40 27 f2 3b 3f
       -0.41745937 2.7251809 5.6950836 0.7341637
0000f0 88 f1 36 bf b6 62 2f 3f 82 e3 17 3f bf 95 91 bf
       -0.714623 0.68509996 0.59331524 -1.1373824
000100 61 64 5e 3f f1 88 61 3f bc a4 d3 3e 23 e6 37 3f
       0.86871916 0.8809958 0.4133662 0.71835536
000110 4a f9 2a 3d ba 08 59 3f 52 23 fc 3c 1b 8f 7c 3f
       0.041741647 0.8477894 0.03077856 0.9865586
000120 6b a5 a7 be e2 b5 8f 3d e1 13 b1 3e 3f b3 50 3f
       -0.3274339 0.07017113 0.3458548 0.8152351
000130 f9 fd da bf 49 a8 cf 3e dc df 89 3d 0f 59 58 bf
       -1.7108756 0.4055808 0.06732151 -0.8451089
000140 d1 92 52 c0 fb 55 66 3f 80 a3 54 40 a6 d7 49 be
       -3.290211 0.89974946 3.3224792 -0.1971117
000150 08 1a 70 40 dd 86 bf bd c1 ea da bf 87 ac 95 3d
       3.7515888 -0.09351895 -1.7102891 0.073082976
000160 3f 6c a0 3f 26 1a a7 3f e5 78 07 bc 9b e8 7a 40
       1.2533034 1.3054855 -0.00826857 3.920447
000170 0e b0 12 c0 6d 24 fe 3f 5d 7d 8b bf fa 91 15 3f
       -2.2919955 1.9854866 -1.0897633 0.5842587
000180 49 d8 d9 bf 8b f7 92 3f 2c aa 9c 3f b5 44 b9 bf
       -1.701913 1.1481794 1.2239432 -1.4474093
000190 75 05 50 be a9 ce da bb 52 0c 22 bd b3 1a f6 3d
       -0.20314582 -0.006677468 -0.03956253 0.12016811
0001a0 2c dd 12 3e c6 12 30 bd d2 e5 8d 3d ff 7d df bd
       0.14342183 -0.042986654 0.069286 -0.10912704
0001b0 87 c7 80 3d 12 e6 35 3d 25 80 52 3e dd 67 9d 3c
       0.06288057 0.044408865 0.20556696 0.019214565
0001c0 63 48 02 be 5a b3 c9 bc af 1c 5c be e6 c7 a5 bc
       -0.12722926 -0.024621654 -0.21495317 -0.02023692
0001d0 d9 c7 b2 bd c2 dc 29 3d 27 56 8d 3d 4e 57 09 3e
       -0.08729524 0.041470297 0.06901198 0.1341221
0001e0 1d fd 09 3e 67 55 81 bf 6b 4c c6 be 4b 7f 88 bc
       0.13475461 -1.0104188 -0.38730177 -0.01666226
0001f0 85 bf 8a 3f 72 70 42 3f d7 ea 89 3f 8d 54 f0 be
       1.0839697 0.7595283 1.0774792 -0.46939507
000200 aa 62 0d 3f 83 b0 2a 40 62 3e dd bf 36 07 81 3f
       0.55228674 2.6670234 -1.7284663 1.0080326
000210 f8 ae 2b c0 c0 2c 84 be d1 9b 92 40 51 36 c7 3e
       -2.6825542 -0.25815392 4.5815206 0.38908628
000220 2d bb 8a 3c 21 10 04 3f 15 2e 55 bf 9a 6d bd 3f
       0.016934955 0.5158711 -0.8327344 1.4799073
000230 ab 9e dc 3e 39 a9 1e 3f 46 f4 a5 c0 af e5 24 c0
       0.43089804 0.61976963 -5.1860685 -2.5765188
000240 71 82 81 bf f6 41 b5 bd 4f 5c a4 3f 62 39 7e 3f
       -1.0117933 -0.08850472 1.284067 0.9930631
000250 c4 79 86 bf 64 69 38 3e 9f d2 77 3e 33 bc d6 be
       -1.050591 0.18008953 0.2420144 -0.4194046
000260 f0 c3 60 be fa ea 2b 3f 79 0f 00 40 cf 27 13 40
       -0.21949744 0.6715542 2.0009444 2.2993047
000270 7c 07 c7 3e dc 77 aa be ee c4 95 bf e1 dd 95 3e
       0.38872898 -0.3329457 -1.1700723 0.29270843
000280 b8 88 20 c0 53 3e d9 3f 6d 62 45 40 f8 51 23 c0
       -2.5083447 1.6972145 3.0841324 -2.551878
000290 b3 bd 31 bd 34 15 4e 3f 41 6a 76 bf da 1c 17 be
       -0.043393802 0.80501103 -0.9625588 -0.147571
0002a0 52 ce 5d bf 89 4f 7c 3f 21 9f 21 bf e0 a3 d9 3f
       -0.86642945 0.9855886 -0.63133436 1.7003136
0002b0 09 90 1d c0 97 c1 18 40 d0 47 0f bf 6d 73 34 40
       -2.4619162 2.3868158 -0.5596895 2.819545
0002c0 5a 59 79 bf 7f fd 01 bf f5 f5 16 3f a7 1d c9 bf
       -0.97401965 -0.5077743 0.5896905 -1.5712174
0002d0 0a c3 65 3e 4c 27 8f bb cf 76 58 be 95 b2 3b be
       0.22437683 -0.004368698 -0.21139072 -0.18329842
0002e0 10 34 b4 bc 0b 7e d0 3d 78 c7 f6 ba 24 dd 4b be
       -0.021997482 0.10180291 -0.0018827757 -0.19908577
0002f0 8d 53 70 bd e4 62 57 3e 36 8f cb 3d 07 7f 29 be
       -0.05867343 0.21033818 0.09939425 -0.16552363
000300 e1 69 52 3e 8e cd f5 bd ee 39 f4 3d 37 0e 8a bd
       0.20548202 -0.12002097 0.11925112 -0.067409925
000310 59 ef 14 3e fc 21 2c 3e 9d 25 1b 3e 82 a8 50 3e
       0.14544429 0.16809839 0.15151067 0.2037678
000320 19 59 24 40 49 4d be be 4d c6 e0 3f 73 fb 30 3f
       2.567938 -0.3716834 1.7560517 0.6913368
000330 cf 01 ed 3f 30 d9 6d be e2 56 26 be 7a 9e ea 3a
       1.8516177 -0.23227382 -0.1624408 0.0017900013
000340 cd cd aa 3f 9b 91 92 3f 19 a9 b4 bf af c5 1e 40
       1.3344055 1.1450685 -1.4114105 2.4808156
000350 95 fe ac bf 08 0b f7 3e d7 66 8f 40 f7 7c d5 bc
       -1.3515192 0.48250604 4.4813037 -0.026060564
000360 23 fb 06 bf 99 d9 fe 3f 22 51 45 bf c1 f5 4d 40
       -0.52726954 1.9910156 -0.77076924 3.2181246
000370 d2 c0 a1 3f fc cc 30 c0 09 64 15 40 c3 9e e2 3f
       1.2636969 -2.7625113 2.3342307 1.77047
000380 03 0e 02 3f c8 15 80 bf a6 6c b7 be db 27 37 c0
       0.5080263 -1.0006647 -0.3582508 -2.8618076
000390 8c 61 05 3f a8 d0 8f be cf f5 cc bf 96 21 ad be
       0.5210197 -0.2808888 -1.6012515 -0.33814687
0003a0 ac e0 37 3f ac cf d9 be 5b 45 9b bd 43 cf c7 bf
       0.718272 -0.42541254 -0.07581588 -1.5610126
0003b0 39 d9 51 3f 7a 2b 3b 40 ae 5b af 3f 19 a0 86 3f
       0.8197208 2.9245286 1.3699853 1.0517608
0003c0 1f 9e ea 3f 5e c5 b0 3f 29 21 d4 bf 9c aa f0 3f
       1.8329505 1.3810232 -1.657262 1.8802066
0003d0 ff 7f 8f bf 0b 6d 4c c0 67 1c 00 bf 35 cc 1f 3e
       -1.1210936 -3.1941555 -0.5004334 0.15605243
0003e0 a8 38 c7 bf 18 89 8d 3e 72 b5 55 c0 44 0e 01 c0
       -1.5564165 0.27643657 -3.3391995 -2.0164957
0003f0 27 03 4f 40 ce 8a 24 c0 f4 d8 18 be 85 7c 34 c0
       3.2345674 -2.570972 -0.14926511 -2.8201

lstm.weight_hh_l1 f4 [80, 20]
000000 f8 16 e2 bd 30 a9 e8 3d 20 6f ae 3c 2a de a5 bd
       -0.11039537 0.11360395 0.021293223 -0.08099015
000010 16 38 58 be 57 8b 58 be 10 94 0d bc ba aa 21 be
       -0.21115145 -0.21146904 -0.008641258 -0.15787783
000020 52 b1 3b 3e 32 0f 63 3e 14 5e 22 3e 64 f4 20 3e
       0.18329361 0.22173765 0.158562 0.15718228
000030 60 64 90 3d bc 1b 4a 3e 44 e2 c0 3d 04 89 80 3d
       0.07050395 0.19737142 0.09418157 0.06276134
000040 1c c6 47 be 02 15 ef bd ee 32 3d 3e 40 82 39 bd
       -0.19509166 -0.11673929 0.1847646 -0.04529023
000050 70 18 4d 3e b4 4d fb 3d 12 fd 14 be fa 1e 3b be
       0.20028853 0.1227068 -0.14549664 -0.18273535
000060 6a ce 37 be e0 e9 41 bd 92 0b 0b be 64 68 4c be
       -0.17949834 -0.04734218 -0.13578632 -0.19961697
000070 08 e0 34 3d ea 27 28 be f4 96 1f be 99 40 e8 bd
       0.044158965 -0.16421476 -0.15584928 -0.11340446
000080 60 5f f7 3c f6 d5 17 3e 80 1b d0 bc b8 01 2d bd
       0.030196846 0.14827713 -0.025403738 -0.042237967
000090 c8 aa 1b 3e 3e 68 f5 bd 24 78 9e bd ea 0a 3e 3e
       0.15201867 -0.11982773 -0.07737759 0.18558851
0000a0 f0 18 0a be 60 38 62 3e 94 0e a8 bd 94 ec b7 3d
       -0.13486075 0.22091818 -0.082059056 0.089806706
0000b0 64 d5 dd bd 70 2a d4 3d c8 3c 02 3d 78 f6 34 3d
       -0.10831717 0.10359657 0.031796247 0.044180363
0000c0 4c d3 6a bd e0 a7 36 3e 62 cd c8 bd 88 4e 1b 3d
       -0.057330415 0.17837477 -0.09804799 0.03791669
0000d0 92 e1 09 3e a0 62 a0 3c 08 c2 14 be 40 cf c4 3c
       0.13464954 0.019578278 -0.14527142 0.024024606
0000e0 18 bc 16 3d da 32 21 be 70 54 c9 3d 9d 64 26 be
       0.036800474 -0.15742055 0.09830558 -0.16249318
0000f0 f8 38 bc 3c b8 17 4d bd 98 39 5b bd 26 1e 18 3e
       0.022976384 -0.050071448 -0.053521723 0.1485525
000100 be 43 12 be 20 50 67 3d a0 26 dc 3c 76 c4 4b be
       -0.14283654 0.056472898 0.026873887 -0.19899163
000110 b2 b3 91 bd 06 b5 32 3e 03 b5 57 be 7c 7d d6 3d
       -0.07114352 0.17451867 -0.21065144 0.10473153
000120 7a 4e 02 3e 00 48 f3 bd 74 d1 0b be 46 e4 02 3e
       0.12725249 -0.11878967 -0.13654119 0.12782392
000130 a8 98 04 3d 5c 57 3f 3e 88 c3 6e bd 60 9e c3 3c
       0.032372147 0.18685669 -0.058291942 0.02387923
000140 68 18 3f be e8 44 b9 bc 34 0f 1d 3e 00 a5 94 3d
       -0.18661654 -0.022615865 0.15337831 0.07258034
000150 c0 f4 a0 bc 44 2f f7 3d 08 79 4b 3d 60 49 5d 3e
       -0.019647956 0.12069562 0.04967597 0.21610022
000160 8c 60 65 bd 5a bf 0e 3e 6a 29 26 be e6 e2 36 3e
       -0.056000277 0.13940182 -0.16226736 0.17859992
000170 40 ee e8 3c f8 91 3f bd ac 09 c9 3d 28 7d e3 3d
       0.028433919 -0.046770066 0.09816298 0.11107856
000180 d3 3f 60 be 58 b4 3d be d2 68 3c 3e 44 cc 03 3e
       -0.21899347 -0.18525827 0.18399361 0.1287089
000190 2c f9 34 3e e3 c1 56 be 91 fd 2e be 20 80 25 3e
       0.17673177 -0.209724 -0.17088915 0.16162157
0001a0 9a 29 5a 3e 94 9a f2 3d 42 d4 3f be 89 97 02 be
       0.21304932 0.1184589 -0.18733314 -0.12753119
0001b0 ec b2 0f bd a6 f8 80 bd 9e 96 11 be 12 79 40 3e
       -0.035082743 -0.06297426 -0.14217612 0.18796185
0001c0 18 f3 2d 3e 52 43 0e 3e 44 d4 8c 3d ce 9c 1d 3e
       0.16987264 0.13892868 0.06876424 0.15391847
0001d0 50 2a 53 bc 58 b1 35 bd cc a6 43 be c0 41 32 3e
       -0.012888506 -0.04435858 -0.19106597 0.17407894
0001e0 1b 5c 0a be 20 6a 00 3d 28 82 aa bd f0 6c 43 3e
       -0.13511698 0.03135121 -0.083256066 0.19084525
0001f0 00 e9 92 bc 59 fc 4e be 60 6c 21 bd 46 4c 29 3e
       -0.017933369 -0.2021345 -0.039409995 0.16533002
000200 4a 24 63 3e f0 49 59 be ec 77 29 3e 80 21 e2 3c
       0.22181812 -0.21219611 0.16549653 0.027603865
000210 a4 c7 57 3e a4 c6 e7 3d 98 91 b5 3d d0 f2 1e 3d
       0.2107225 0.113171846 0.088656604 0.038805783
000220 a8 bc 2f 3d a0 5b 9b bd 32 af 39 3e a0 74 46 3e
       0.042904526 -0.075858355 0.18133238 0.19380426
000230 f8 0a 3b be dd b4 2c be f0 25 27 3d fc 1b 5a 3e
       -0.18265903 -0.16865869 0.040807664 0.21299738
000240 f8 d8 fc bd b9 99 d2 bd 08 66 1d 3e c0 29 c3 bc
       -0.12346071 -0.102832265 0.15370953 -0.023823619
000250 60 76 2b bc c0 30 fe 3d fa 31 e6 bd 06 35 c1 bd
       -0.0104652345 0.12411642 -0.11240001 -0.094339415
000260 7c 7a 57 3e 98 24 21 be 8c da 71 bd fc d5 54 3e
       0.21042818 -0.15736616 -0.059046313 0.20784754
000270 4c 3d aa bd 70 63 e4 3c da 30 1d be 9a 76 25 3e
       -0.08312473 0.027879447 -0.15350667 0.16158524
000280 c4 e5 4a 3e f8 5c 85 bd 02 b4 ba bd 34 c8 a7 3d
       0.19814211 -0.06511873 -0.09116365 0.081924826
000290 d8 95 fa 3d fc f2 f5 3d 28 67 6f bd be 20 2f 3e
       0.12235612 0.12009236 -0.058447987 0.17102334
0002a0 06 8a 14 3e fc e1 0d be 9c 71 d9 3d 88 c1 3b 3e
       0.14505777 -0.13855737 0.106173724 0.18335545
0002b0 0c ad 9b 3d 10 1a 38 3c 60 e1 4b 3e 9a c1 b9 bd
       0.076013654 0.0112366825 0.19910192 -0.0907013
0002c0 00 af 4b 3d 46 3d 5d 3e 1c 3f ad bd ca 0e 1d be
       0.04972744 0.21605405 -0.08459303 -0.15337673
0002d0 9c 70 41 3e 96 ce 19 be 28 84 f6 bc 16 db 9d bd
       0.18890613 -0.15020213 -0.030092314 -0.07707803
0002e0 a4 be 30 be 64 87 f2 3d 7e bc f0 bd 70 37 90 bd
       -0.17260224 0.1184223 -0.11754702 -0.07041824
0002f0 5e 92 08 3e 2e ad 4e 3e 88 cf bb 3c 0e 2c 46 be
       0.13337085 0.2018325 0.022926107 -0.19352743
000300 78 9a 4d bd 89 9f ef bd 8c 8a fa 3d 9c 3c 14 be
       -0.05019614 -0.11700351 0.12233457 -0.14476246
000310 e8 cb 42 be c8 b0 78 3d 21 e8 50 be 22 69 98 bd
       -0.19023097 0.060715467 -0.2040105 -0.074419275
000320 00 2b 55 3d c8 51 04 be bf 77 54 be d4 49 27 3e
       0.05204296 -0.12921822 -0.20748805 0.16336757
000330 56 19 04 3e d0 26 0c 3d 2e 3b 38 be 9e 76 9e bd
       0.1290029 0.034216702 -0.17991325 -0.07737468
000340 c0 fd 72 3c 80 b3 36 3c 66 60 4a 3e 6c b9 c5 bd
       0.0148310065 0.011151195 0.19763336 -0.09654507
000350 c8 44 35 bd a8 16 70 bd 62 9f 5a be 00 4a e8 3a
       -0.044255048 -0.058615357 -0.21349862 0.0017722249
000360 e0 43 6d 3d 48 d8 47 3d 52 85 21 be 52 86 3a be
       0.05792606 0.048790246 -0.15773514 -0.18215302
000370 d5 b8 59 be 00 8e 76 bb de ce e0 bd 16 4c 40 be
       -0.21261914 -0.003762126 -0.10976957 -0.18779024
000380 b0 95 31 bd 5c 9f e8 3d 18 92 0e be dc 57 ae 3d
       -0.043355644 0.113585204 -0.13922918 0.085128516
000390 90 f0 a6 3d 40 90 b6 3d fc de 2c 3e 10 ae ee bc
       0.081513524 0.08914232 0.16881937 -0.029135734
0003a0 91 b0 ed bd 2c 8c 29 bd d5 5d 21 be 00 4d 38 bd
       -0.11605943 -0.041393444 -0.1575845 -0.044995308
0003b0 46 68 33 3e c4 68 f0 bd 5c 06 5c 3e 0d e2 32 be
       0.17520246 -0.117387325 0.21486801 -0.17469044
0003c0 84 bd e6 3d ac c5 ab 3d 80 c1 8a ba e0 58 b4 bc
       0.11266616 0.08387312 -0.0010586232 -0.022015035
0003d0 df a4 d7 bd b8 78 3b be b8 6f 86 bc dc f9 4c bd
       -0.105294935 -0.1830777 -0.016410694 -0.050042972
0003e0 9a f0 3f be ec 4b 60 3e 0b de 52 be b4 ce ee 3d
       -0.18744126 0.21903962 -0.20592515 0.11660519
0003f0 80 1d 0b 3b e9 e4 3f be e0 be 29 3e da a7 24 be
       0.00212273 -0.18739666 0.1657672 -0.16079655

lstm.bias_ih_l1 f4 [80]
000000 b9 0e e7 be a0 b4 59 3f 6f 58 30 3e b0 50 91 3f
       -0.4512842 0.85041237 0.17221235 1.1352749
000010 ab f6 13 3f 66 44 18 be bd fd ee bd cd af bc 3e
       0.5779826 -0.14869842 -0.116694905 0.36852875
000020 51 e7 81 3f 85 68 3c be 32 29 50 3f d6 97 eb 3e
       1.0148717 -0.18399246 0.8131286 0.4601428
000030 c0 31 93 bc 23 2d 32 3f b2 33 84 3e 20 0e 5a 3f
       -0.017968059 0.69600123 0.2582069 0.85177803
000040 e7 95 58 be c7 b5 2f 3f 3b 27 f8 be 53 a0 90 3e
       -0.21150933 0.68636745 -0.4846743 0.28247318
000050 c0 01 ec 3c f1 34 41 be 90 08 bd bd 08 71 2f be
       0.028809428 -0.18867852 -0.09230149 -0.17132962
000060 34 a8 89 3d 26 bb 04 be 50 21 23 bd 00 82 5b 3d
       0.06721535 -0.12962016 -0.03982669 0.053590775
000070 d3 73 22 be 50 a9 5b bc fa cf 46 3e 8c 75 c1 3d
       -0.15864496 -0.013407066 0.19415274 0.094462484
000080 80 a7 13 3e 66 56 19 be 78 7b c3 3d 48 77 28 3d
       0.14419365 -0.14974365 0.09545034 0.04112938
000090 b0 62 59 bc b4 c4 1d bd be 71 4e 3e 30 ee 3a 3c
       -0.013268158 -0.03851767 0.20160577 0.011409327
0000a0 40 d1 bd be cc 8d 47 bf c7 2d 5c 3f cd d8 25 3e
       -0.37073708 -0.7795074 0.8600735 0.16195984
0000b0 28 9f 2a 3f 04 71 a5 be 01 e5 bc be 6a 24 79 3f
       0.66649103 -0.32312787 -0.36893466 0.9732119
0000c0 63 74 4e 3f 04 78 26 be 06 f8 90 3f aa 99 f1 be
       0.8064634 -0.1625672 1.1325691 -0.4718755
0000d0 2b 2c 64 3f c9 bd 05 3f 60 e7 c6 3e e6 b1 7f 3e
       0.89129895 0.52242714 0.388484 0.24970207
0000e0 b7 d0 27 3e 35 2f c1 3f b9 33 03 bf 9d 6f d2 3e
       0.16388212 1.5092531 -0.512508 0.4110078
0000f0 72 50 a8 be 2a 5c 3a 3e da bf 68 3f cf 6f 1b 3f
       -0.32873875 0.1819922 0.9091774 0.6071748
000100 76 43 a2 3f 60 ac 60 be c3 2c 62 bf bd b9 a7 bd
       1.2676837 -0.21940756 -0.8834955 -0.08189724
000110 58 64 45 3f 21 b6 60 be 47 8a a3 be a8 f0 84 3e
       0.7710624 -0.21944477 -0.31941435 0.25964856
000120 07 c9 55 3f 0a 0c 9f 3e b8 68 17 3d 37 0a 58 be
       0.8350987 0.31063873 0.036965102 -0.21097647
000130 84 bb 71 3f f3 5a 16 3f 4b 23 03 bf 2a 4c c8 be
       0.9442675 0.5873253 -0.5122573 -0.3912061

lstm.bias_hh_l1 f4 [80]
000000 f0 65 c8 bd 7e 9d 6f 3f 16 79 23 be 9a 7c 8b 3f
       -0.09785068 0.9359969 -0.1596416 1.08974
000010 7b b3 17 3f 4f 4b 68 be 0a f5 11 bd 61 4a bd 3e
       0.5925824 -0.22684978 -0.035634078 0.3697081
000020 aa 97 b6 3f 8d 8f 53 be 5e 16 7c 3f 5d c2 34 3e
       1.4265034 -0.20660229 0.9847163 0.17652269
000030 32 fa 38 be cb 2f 01 3f 40 3e 11 3e da 54 53 3f
       -0.18064192 0.5046355 0.14183903 0.8255135
000040 df 35 3d 3e 11 c0 2e 3f 22 99 05 bf 5a 78 94 3e
       0.18477581 0.6826182 -0.5218679 0.2899807
000050 3c cf d3 bd 04 f9 91 3d 1e 73 39 be ab e8 e1 bd
       -0.10342261 0.07127574 -0.1811032 -0.11030706
000060 07 8c 5e be 80 9b 85 3c be 7a 5b be e0 bc 02 bc
       -0.21733104 0.0163095 -0.21433541 -0.007979602
000070 4c ce 14 3e 8c 8e cc bd 72 e6 11 be 9d 59 48 be
       0.14531821 -0.09988126 -0.14248064 -0.19565435
000080 f5 af 4a be 70 1b 15 bd 20 7e 89 bd 27 bb 15 be
       -0.19793685 -0.03640312 -0.067135096 -0.14622174
000090 46 79 25 3e 4e f9 87 bd d4 98 2c be bc 71 9c 3d
       0.16159543 -0.06639348 -0.16855174 0.076388806
0000a0 6c f3 e4 be 79 80 3c bf 75 83 5c 3f 56 83 b0 3e
       -0.44716966 -0.73633534 0.8613809 0.344752
0000b0 8e 78 4b 3f b6 1c a8 be e1 80 2b 3d c3 87 9c 3f
       0.79480827 -0.32834405 0.041870955 1.2228931
0000c0 ef c0 4d 3f 65 97 ac be f1 63 a5 3f f6 f5 73 be
       0.8037252 -0.33709255 1.2921125 -0.23824295
0000d0 31 61 5c 3f c9 61 2a 3e 80 28 74 3e 00 aa 94 3e
       0.860858 0.16638865 0.23843575 0.2903595
0000e0 ad 37 4b 3e 0f 5c c4 3f d9 22 90 be 18 9c ec 3e
       0.19845457 1.5340594 -0.28151587 0.4621284
0000f0 83 07 56 be 37 4e ab 3e 8c b5 1c 3f e4 ae b0 3e
       -0.20901303 0.3345811 0.6121452 0.3450843
000100 28 f2 aa 3f 3c ea d2 bd bf d6 5a bf 01 36 24 be
       1.335515 -0.10298583 -0.85483927 -0.16036226
000110 94 7b 30 3f 6e e6 e8 3d 09 89 28 be d7 28 5e 3e
       0.68938565 0.11372076 -0.16458525 0.21695267
000120 03 6e 48 3f e5 f4 9c 3e cc cd e5 3d 3d ce 1a be
       0.78292865 0.3065559 0.11220893 -0.15117736
000130 2e 9d 65 3f e1 5c 71 3f a9 26 15 bf b0 b7 dc be
       0.8969296 0.94282347 -0.58262116 -0.43108892

linear.weight f4 [6, 20]
000000 1c 51 c7 3d 3b 66 35 be 7a 79 fd 3e 4e 41 6e 3e
       0.09732267 -0.17714779 0.49506742 0.232671
000010 95 e1 1b 3d f0 e8 28 3a 84 d0 32 be 6b 22 ad be
       0.03805693 0.0006443402 -0.17462355 -0.3381532
000020 d5 50 0e 3c 80 3c 10 be 8f 7a cc 3e 63 77 da 3e
       0.008686264 -0.14085579 0.39937255 0.4266921
000030 e5 a7 c9 3c a2 2c bf bd 65 db 9f 3d c3 4d 88 3e
       0.024616191 -0.09334685 0.07805518 0.26621827
000040 52 0c 45 3e b2 d0 e2 be d0 00 18 bd a0 07 d0 3e
       0.19242981 -0.44299847 -0.03711015 0.40630817
000050 d5 f4 5c bd 72 10 11 bf d2 0b d4 3e 73 6e 3f 3f
       -0.053944428 -0.5666572 0.41415268 0.7477791
000060 d1 eb 01 3f aa b4 d5 3d e0 9a 39 3f 4e 94 8d be
       0.5075045 0.104348496 0.72501945 -0.2765221
000070 da af fa 3e 57 14 2d 3e f7 26 0c 3e a0 f6 a9 3d
       0.4896229 0.1690229 0.13686739 0.08298993
000080 81 c4 92 be d8 e8 0e bf 0c b4 06 bf f8 a3 00 3e
       -0.28665546 -0.5582404 -0.5261848 0.12562549
000090 39 0c a8 be 44 79 37 bc d6 d6 25 bf 93 5d b2 3e
       -0.32821825 -0.011198346 -0.6478094 0.34837016
0000a0 56 0c 11 3e 31 4e 07 3e af d8 26 3e 79 e0 dd be
       0.14164862 0.13213421 0.16293596 -0.43335322
0000b0 ee 04 ae be 7e 59 3b 3e 74 e4 ec 3e 8b 17 e4 be
       -0.33988136 0.18295857 0.46268046 -0.44549212
0000c0 77 37 d7 be ad 51 8b bc c4 9b eb 3d 3f 3a 8d 3e
       -0.42034504 -0.01700672 0.11504319 0.275835
0000d0 fe b4 4f 3e 43 02 79 be 03 73 2d 3f d1 ed 25 3e
       0.20283887 -0.24317269 0.6775362 0.16204001
0000e0 38 e7 f0 3e 44 36 28 bf 48 25 b1 3d 12 75 82 3d
       0.47051406 -0.657078 0.08649689 0.06369986
0000f0 2b fd e1 3d 07 da 8a 3f 60 78 f2 be b7 54 0c bf
       0.11034616 1.0847787 -0.47357464 -0.54816765
000100 15 bc 09 bf 1d f6 be 3b d4 c2 31 be 79 e8 a2 3e
       -0.53802615 0.005827679 -0.17359477 0.31817988
000110 a2 e0 b2 be 3b 8a a6 ba cb 51 7a bc 26 34 a0 3d
       -0.34937006 -0.0012705991 -0.01527829 0.078224465
000120 1b 00 b8 3f 91 e9 bd 3e 13 70 7c 3f 1b 54 1d 3e
       1.4375032 0.3709226 0.9860851 0.15364115
000130 9e b0 b2 3f d6 75 80 be 84 ad 4f 3e dc 73 e7 be
       1.3960149 -0.25089902 0.20281035 -0.4520558
000140 1d 9d 73 3d fe 2a d8 3d a4 cc b3 3f 5d 88 a0 be
       0.059476007 0.10555075 1.4046826 -0.31354037
000150 e8 4e df be 21 2f 71 3d f4 c1 98 3f a5 f5 71 bf
       -0.43614888 0.058882836 1.193419 -0.9451545
000160 76 bc 16 bf 4b 77 af 3d bb 6e 8b 3f 14 78 99 3f
       -0.5888132 0.08567675 1.0893167 1.198977
000170 85 24 7e 3e 81 9e 1a bf d7 a9 2a 40 91 a4 ae 3f
       0.24818619 -0.6039811 2.6666162 1.3643972
000180 29 61 6f 3f 58 0d 88 bf dc 27 46 3e 96 39 87 3e
       0.9350763 -1.0629072 0.19351143 0.26411122
000190 be 04 b1 bc 27 95 8c 3f dd 36 a5 bf bd eb 9a bf
       -0.021608707 1.0983018 -1.2907368 -1.2103192
0001a0 7f 92 38 bf 48 3a 0c be a9 29 a0 bf 0d b6 89 3f
       -0.72098535 -0.13694108 -1.2512714 1.0758682
0001b0 80 72 2e bf 2d c2 3c 3d 85 ea 03 bf fe 9d 2f be
       -0.68143463 0.046083618 -0.51529723 -0.17150113
0001c0 8c 92 1d 3f 8d 5a 5a 3f e1 ec 8e 3f dc d4 f2 be
       0.6155174 0.8529442 1.116604 -0.47428024
0001d0 84 43 5e 3f ec a7 bb 3d e1 32 e1 3d a6 8e 8b bf
       0.8682177 0.09162888 0.109960325 -1.0902908

linear.bias f4 [6]
000000 a7 a9 07 bf c9 84 2c be 07 11 90 be 2b 05 6f bf
       -0.52993244 -0.16847529 -0.2813799 -0.9336726
000010 ee db bd bf fd 68 00 3f
       -1.4832742 0.501602
