models/343/model.pt (torch_old, 108056 bytes, 12 tensors)

weight_ih_l0 f4 [160, 10]
0	0x3b1f49f8	0.0024305563
1	0x3e3f825c	0.18702072
2	0xbe883823	-0.2660533
3	0xbd40c9d8	-0.047067493
4	0x3d3d67c0	0.04624152
5	0xbdefe89e	-0.1171429
6	0x3d89129f	0.06693005
7	0xbe3b80e4	-0.18310887
8	0xbe144d1d	-0.14482541
9	0x3e04e695	0.12978585
10	0xbdef3799	-0.11680526
11	0x3e824d77	0.25449726
12	0xbe25db13	-0.16196851
13	0xbe1121db	-0.14173071
14	0xbd32c1ae	-0.04364174
15	0xbe514fe3	-0.2044063
16	0xbe84ca6f	-0.25935695
17	0xbe42c4c0	-0.19020367
18	0xbd96b42e	-0.07358585
19	0xbe5ac2fb	-0.21363442
20	0x3dc7252b	0.09723886
21	0x3d71a1f5	0.058992345
22	0xbce7cf41	-0.028297069
23	0x3c7b47d1	0.015336947
24	0x3e157201	0.1459427
25	0x3d425c00	0.04745102
26	0xbdfb5369	-0.122717686
27	0x3d901dd0	0.07036936
28	0xbcd07244	-0.025445111
29	0xbe519795	-0.2046798
30	0xbc7813f1	-0.015141473
31	0x3d1b8f4d	0.03797846
32	0x3ba4f56e	0.0050341403
33	0xbdd651e5	-0.10464839
34	0x3da2da75	0.079518236
35	0x3dcecaf3	0.10097303
36	0x3d08289e	0.03324186
37	0x3dd018c1	0.101609714
38	0x3db76bbf	0.08956098
39	0xbdb8f49d	-0.09031031
40	0xbd8077fc	-0.06272885
41	0x3e546457	0.20741402
42	0xbda6ded7	-0.08147972
43	0x3d9339cc	0.07188758
44	0x3d9749db	0.07387134
45	0x3cc60290	0.024171144
46	0xbdbfc122	-0.09363009
47	0x3dac3629	0.08408768
48	0xbe65a859	-0.22427501
49	0xbe6a0425	-0.22853144
50	0x3c7e2f09	0.015514144
51	0x3db5dff8	0.08880609
52	0x3d916aae	0.07100426
53	0xbd84a3f7	-0.06476586
54	0x3e744990	0.23856187
55	0xbbffb98b	-0.007804101
56	0xbe04d15a	-0.12970486
57	0x3cc81938	0.024426088
58	0xbdc5a071	-0.096497424
59	0x3d7e3cd0	0.062069714
60	0xbd7556af	-0.05989712
61	0x3de55126	0.111971185
62	0x3d80f6aa	0.062970474
63	0x3de6f500	0.11277199
64	0x3dec67e9	0.11543257
65	0xbdecd4ae	-0.11564003
66	0xbe17f15c	-0.14838165
67	0x3e055317	0.13019978
68	0xbe5843ff	-0.21119688
69	0x3d2dbcb1	0.04241628
70	0xbcfa57fa	-0.030559529
71	0x3e0a1452	0.13484314
72	0x3d03a70d	0.032141734
73	0x3d12cc9b	0.03583966
74	0x3cc4f2c1	0.024041535
75	0xbdf40b9a	-0.11916275
76	0x3b05f31a	0.002043909
77	0x3df69563	0.12040212
78	0xbdb11814	-0.08647171
79	0xbe30f868	-0.1728226
80	0xbd879a1e	-0.066211924
81	0x3e6a9b3f	0.22910784
82	0x3d78bc11	0.06072623
83	0xbe38a579	-0.18031873
84	0xbd71b5a2	-0.05901111
85	0xbe0dfe57	-0.13866554
86	0xbaae8e94	-0.0013317638
87	0x3d1d261a	0.038366415
88	0x3d56e703	0.052466404
89	0x3d6a7051	0.05723602
90	0x3c604c08	0.013690002
91	0xbdfd3015	-0.123626865
92	0x3a827636	0.0009953442
93	0xbe792fe3	-0.24334674
94	0xbcaef1df	-0.021355567
95	0x3dc2ba75	0.0950822
96	0x3e132e40	0.14373112
97	0xbdd2740b	-0.1027604
98	0x3dff9acc	0.12480697
99	0x3c92590e	0.01786473
100	0x3dbfc088	0.09362894
101	0xbd9073d9	-0.07053346
102	0x3c7cf86b	0.015440087
103	0x3d0d5333	0.034503173
104	0x3cf7f525	0.030268261
105	0xbbc65ef6	-0.0060538007
106	0xbd9548d1	-0.07289279
107	0x3dc3d338	0.09561771
108	0xbc58c64c	-0.013230871
109	0x3e37fdcd	0.17967911
110	0xbd8ec1ae	-0.06970535
111	0xbd4e86ea	-0.050421633
112	0xbc8a9dc0	-0.016920924
113	0xbe16e742	-0.14736655
114	0xbd23188e	-0.03981834
115	0x3c5b6bd7	0.01339241
116	0x3cb6541d	0.022256905
117	0xbdd1965f	-0.10233759
118	0xbe0da01a	-0.13830605
119	0x3e0b9ade	0.13633296
120	0x3dcf7b8e	0.10130988
121	0xbb3bdd62	-0.002866589
122	0x3e148c25	0.14506586
123	0xbe00d18d	-0.12579937
124	0xbe062d22	-0.13103154
125	0xbd8d2f5c	-0.06893799
126	0x3da5532d	0.08072505
127	0xbd5c05de	-0.053716533
128	0xbcb78cc8	-0.022405997
129	0x3b0f90b7	0.0021906325
130	0x3a79f0b4	0.0009534464
131	0xbd676f3b	-0.056502562
132	0xbcdb62b7	-0.02678047
133	0xbdacb611	-0.08433164
134	0x3d2b4b14	0.041819647
135	0xbcfac5a6	-0.030611824
136	0x3d0eb989	0.03484491
137	0x3c9b1c0b	0.01893427
138	0xbdc92ca7	-0.0982297
139	0xba8f4d46	-0.0010933063
140	0x3de6ca6d	0.112690784
141	0xbdba8eff	-0.091093056
142	0x3d24bb2a	0.040217556
143	0xbe116f72	-0.1420267
144	0xbe1b06f3	-0.1513937
145	0x3e1b8dc3	0.15190797
146	0x3d9bbbb3	0.0760416
147	0xbe03da5a	-0.12876263
148	0x3e24d64b	0.16097371
149	0x3ddc92f1	0.10770214
150	0xbcfb1366	-0.030648898
151	0x3d19038c	0.0373569
152	0xbe84d110	-0.25940752
153	0xbd1459a9	-0.03621832
154	0x3d9c8c9c	0.076440066
155	0x3dfef7ea	0.124496296
156	0xbd2e23a5	-0.042514462
157	0x3d0ef5c7	0.03490236
158	0x3dba6b24	0.09102467
159	0xbe0c59bb	-0.13706104
160	0x3d872338	0.06598514
161	0xbceddd3c	-0.029036157
162	0xbc85e333	-0.016343689
163	0xbdb18aea	-0.08669074
164	0xbad910a2	-0.0016560743
165	0x3d9365ed	0.07197175
166	0x3e2fed21	0.17180301
167	0xbd41e339	-0.047335837
168	0xbdc11c2d	-0.09429202
169	0xbde1c8e4	-0.11024645
170	0xbda01665	-0.078167714
171	0x3d590eb4	0.052992538
172	0xbe813f09	-0.25243405
173	0xbe8b03de	-0.27151388
174	0xbdc48c67	-0.09597092
175	0x3e841633	0.25798187
176	0x3dcb88a0	0.099381685
177	0x3c15de07	0.009147174
178	0x3b812668	0.003941346
179	0x3e0ee100	0.13953018
180	0xbdab9dc7	-0.08379703
181	0x3d5b9d9b	0.0536171
182	0x3dd46527	0.10370856
183	0xbddf5af8	-0.10906023
184	0xbca626e8	-0.020282224
185	0x3e11c039	0.14233483
186	0x3d9033fe	0.07041167
187	0x3d4f235a	0.050570823
188	0xbd6b37be	-0.057426207
189	0x3bc0b954	0.005881468
190	0xbd117937	-0.03551599
191	0xbdc1829a	-0.094487384
192	0xbbcfb1fe	-0.006338357
193	0xbe93dd4b	-0.2887977
194	0xbe75ec15	-0.2401584
195	0xbde8ccb6	-0.113671705
196	0x3e36ae5c	0.1783995
197	0x3ce55052	0.027992401
198	0xbd2cfb01	-0.042231563
199	0x3cf60471	0.030031415
200	0xbc0eab03	-0.008707765
201	0x3e24d168	0.16095507
202	0xbe1d4680	-0.15358925
203	0xbd576035	-0.052581985
204	0xbe87f5c9	-0.26554707
205	0xbd39dc88	-0.04537633
206	0x3bbac391	0.005699583
207	0xbd530243	-0.05151583
208	0xbdcbf7c8	-0.0995937
209	0xbe3ae939	-0.1825303
210	0xb9a2c16a	-0.00031043153
211	0x3c9940ec	0.018707715
212	0x3e53e890	0.20694184
213	0x3e6429e7	0.2228161
214	0x3d56650f	0.05234247
215	0x3e4b0f55	0.19830067
216	0x3df97846	0.121811435
217	0xbd14cda5	-0.03632893
218	0xbc1f37ea	-0.009717921
219	0x3dd859d6	0.1056401
220	0x3c286caf	0.010279818
221	0x3e697aba	0.22800723
222	0x3d7ba037	0.06143209
223	0xbe2004ae	-0.15626785
224	0xbd0c7f35	-0.034301
225	0xbdd628b9	-0.10456986
226	0xbdce34a8	-0.10068637
227	0x3da9edcb	0.082973085
228	0xbe8682c8	-0.26271653
229	0xbe5075dc	-0.2035746
230	0x3be0c4fd	0.0068594203
231	0xbc7968a2	-0.0152227
232	0x3ca989e5	0.020695636
233	0xbe46e47e	-0.194231
234	0xbd5de992	-0.054177828
235	0x3d43eca4	0.0478331
236	0x3dbbd01c	0.09170553
237	0xbbeeba27	-0.0072853747
238	0xbe2af436	-0.16694722
239	0x3d7208cb	0.059090417
240	0xbd0f1854	-0.03493531
241	0xbd61f282	-0.055162914
242	0xbe368637	-0.17824636
243	0xbccfa1e0	-0.025345743
244	0xbc5f5185	-0.013630276
245	0x3d92f7d4	0.07176176
246	0x3db4ae7b	0.08822342
247	0xbe42ab33	-0.1901062
248	0x3c3dc619	0.011582875
249	0x3e16eb94	0.14738303
250	0xbe013f15	-0.1262172
251	0x3e27db6c	0.16392297
252	0xbdef8919	-0.11696071
253	0xbca838fe	-0.020534988
254	0xbde12b95	-0.10994641
255	0x3dbfd4b5	0.093667425

weight_hh_l0 f4 [160, 40]
0	0x3e09b153	0.1344655
1	0xbc8d9aa0	-0.017285645
2	0x3c92a450	0.017900616
3	0x3bb62a60	0.0055592507
4	0x3ddc7172	0.107638255
5	0x3db403d8	0.08789796
6	0xbe13a6e1	-0.14419128
7	0x3e0b31f7	0.13593279
8	0xbdf22bf6	-0.11824791
9	0x3d8c1b20	0.06841111
10	0x3e096439	0.13417138
11	0xbdec95b8	-0.11551994
12	0xbafafb00	-0.001914829
13	0xbd5dc672	-0.05414433
14	0xbde7a4c0	-0.113107204
15	0x3dacae14	0.0843164
16	0xbd00db30	-0.031459033
17	0xbc993d30	-0.018705934
18	0xbdb86393	-0.09003367
19	0x3d9eb0c0	0.07748556
20	0x3df8738e	0.12131415
21	0xbdebfbe5	-0.115226544
22	0x3df292da	0.11844416
23	0x3ad1df00	0.0016011894
24	0x3d1073dc	0.035266742
25	0x3e1b3165	0.15155561
26	0xbd9b9534	-0.075968176
27	0xbdca6ac0	-0.09883642
28	0x3dfdba1e	0.12389015
29	0x3dcd06e6	0.100110814
30	0xbe11004d	-0.14160271
31	0xbe0d37c4	-0.13790804
32	0x3ded4e4e	0.11587201
33	0xbe1e129a	-0.15436783
34	0xbe189461	-0.14900352
35	0x3d318424	0.04333891
36	0x3c00b450	0.00785549
37	0x3e1a05cb	0.15041272
38	0x3b3fa440	0.0029242188
39	0xbcd6cc10	-0.026220351
40	0x3d319cf4	0.043362573
41	0x3d608bcc	0.05482082
42	0x3dbd5332	0.09244384
43	0xbd866efd	-0.06564138
44	0xbe12871e	-0.14309356
45	0xbd0f15ac	-0.034932777
46	0xbe0bad5a	-0.13640347
47	0xbe1df786	-0.15426454
48	0x3de5e5ca	0.112254694
49	0x3e1020dd	0.14075036
50	0xbd8e56d1	-0.06950153
51	0xbd1e0052	-0.038574524
52	0x3e151c27	0.1456152
53	0xbca644f8	-0.020296559
54	0xbdd10682	-0.102063194
55	0x3c986b00	0.01860571
56	0xbddc9e3a	-0.10772367
57	0x3d7e2da4	0.062055245
58	0xbe1e9cc5	-0.1548949
59	0x3db6ecaa	0.08931859
60	0xbda675b8	-0.08127922
61	0x3d060fa0	0.032729745
62	0x3c977558	0.018488571
63	0x3ddeeeda	0.10885401
64	0x3daf5d5e	0.0856273
65	0xbd82cbff	-0.063865654
66	0x3d9e816e	0.077395305
67	0x3d5fb128	0.05461231
68	0xbd2b84e0	-0.041874766
69	0x3d84e984	0.06489852
70	0xbd6e87a4	-0.058234826
71	0x3d8682b6	0.065679
72	0x3d8de004	0.06927493
73	0x3d50e288	0.050997287
74	0x3c7715e0	0.015080899
75	0xbd47e8e6	-0.048806094
76	0x3e1c5969	0.15268482
77	0xbdd9e238	-0.10638851
78	0xbd805ec9	-0.06268079
79	0x3d473a5c	0.04863964
80	0xbde9d444	-0.114174396
81	0x3e184edb	0.14873831
82	0x3d08e6c4	0.0334232
83	0x3e17b585	0.14815338
84	0x3dc59c96	0.09649007
85	0x3e0ff1ff	0.14057158
86	0x3e12038b	0.14259164
87	0xbd665d92	-0.05624158
88	0x3e1500ad	0.14551039
89	0xbc5ca980	-0.013468146
90	0xbe002f70	-0.12518096
91	0xbdd54c22	-0.10414912
92	0x3e1c01c3	0.15235047
93	0x3d88d0d0	0.06680453
94	0x3dd633fe	0.104591355
95	0x3dbb5a50	0.09148085
96	0xbc211320	-0.00983122
97	0x3e066c3d	0.13127227
98	0x3cc2da60	0.02378577
99	0x3cac3a90	0.021024019
100	0x3c79a6b0	0.015237495
101	0xbdd109fd	-0.10206983
102	0xbdf2784c	-0.11839351
103	0x3d9502c4	0.07275918
104	0x3d45b9fc	0.04827307
105	0xbce4c288	-0.027924791
106	0xbe20f423	-0.15718131
107	0x3d205858	0.03914675
108	0xbde486b3	-0.11158504
109	0x3d9fc09a	0.07800408
110	0x3d86a04c	0.06573543
111	0xbcde3580	-0.02712512
112	0xbdcdf1c2	-0.10055877
113	0xbd99fb22	-0.07518603
114	0xbdb6dfa2	-0.08929373
115	0xbd841ed8	-0.064511955
116	0xbcf96190	-0.03044203
117	0x3e0c7aa5	0.1371866
118	0x3d4f1518	0.050557226
119	0x3e07d38b	0.13264291
120	0xbe035bd8	-0.12828004
121	0xbcfe9fa0	-0.031081975
122	0x3bc78ee0	0.00609003
123	0xbd85347b	-0.065041505
124	0xbd8adbba	-0.06780191
125	0xbd86446b	-0.065560184
126	0x3e19c261	0.15015556
127	0x3d72b738	0.059256762
128	0x3d837a18	0.06419772
129	0xbdba6fdf	-0.09103369
130	0x3df4f8e6	0.11961536
131	0xbda3d8f2	-0.080003634
132	0xbe1caee1	-0.15301086
133	0x3dd7b036	0.105316564
134	0xbe203bb1	-0.1564777
135	0xbdf49894	-0.119431645
136	0xbe0d6cf5	-0.13811095
137	0xbdaecfdd	-0.085357405
138	0x3dab9478	0.083779275
139	0xbce10be8	-0.027471498
140	0x3e093787	0.13400088
141	0x3e041609	0.1289903
142	0xbe0ca90e	-0.13736364
143	0x3db1a692	0.08674349
144	0xbcfdbca0	-0.030973732
145	0x3c939f50	0.018020302
146	0x3cea5c08	0.028608337
147	0x3da0d4e4	0.07853106
148	0xbdac7a08	-0.08421713
149	0xbd8df962	-0.069323316
150	0x3d2cc3b8	0.04217884
151	0xbd3b84b8	-0.045780867
152	0xbd3e443a	-0.046451785
153	0x3e0eda21	0.13950397
154	0xbd2385a4	-0.03992237
155	0xbb8bf0a0	-0.004270628
156	0x3c3dd070	0.01158534
157	0xbd2b3b18	-0.041804403
158	0xbdecd078	-0.115632
159	0xbd5ccc96	-0.053906046
160	0x3c904fd0	0.017616183
161	0xbc9ef7c8	-0.01940526
162	0xbdbb3b49	-0.09142167
163	0x3e15d41f	0.14631699
164	0x3e021e07	0.12706767
165	0x3d8eb73c	0.06968543
166	0xbcf02fd8	-0.029319689
167	0xbdf68cd9	-0.12038583
168	0xbd783ac8	-0.060602933
169	0xbd2f88cc	-0.04285507
170	0x3d7ddf58	0.061980575
171	0x3e0ab13d	0.13544174
172	0x3e17eb13	0.14835767
173	0xbde43758	-0.111433685
174	0x3d8bff10	0.06835759
175	0x3e08f863	0.13376002
176	0xbda1f8d5	-0.07908789
177	0xbe118820	-0.14212084
178	0xbd901cb9	-0.070367284
179	0xbdae7a8f	-0.0851947
180	0xbd16aba0	-0.036784768
181	0xbccb5230	-0.024819463
182	0x3c9f6e58	0.019461796
183	0x3e19eff3	0.1503294
184	0x3dc95bfa	0.09831996
185	0x3da6d2de	0.081456885
186	0xbd528c22	-0.051403172
187	0x3df11dca	0.1177326
188	0x3c463610	0.01209785
189	0xbd8edfc3	-0.06976273
190	0x3ccd6c28	0.025075987
191	0x3d621420	0.055194974
192	0xbe100d01	-0.1406746
193	0x3d037638	0.032095164
194	0xbd44651c	-0.047947988
195	0x3e1b6aef	0.1517751
196	0x3e03d1c3	0.12872986
197	0x3b440680	0.00299111
198	0xbdcda53e	-0.10041283
199	0xbe090f83	-0.13384824
200	0x3d54e7e0	0.051978946
201	0x3de67e76	0.11254589
202	0xbdee4b76	-0.11635487
203	0x3dec4bb2	0.11537875
204	0x3d8bc5e2	0.068248525
205	0xbd01e3ec	-0.031711504
206	0xbd3a8104	-0.045533195
207	0x3cd76088	0.026291147
208	0x3e02ea9b	0.12784807
209	0x3e0077ad	0.12545653
210	0x3bda25e0	0.006657347
211	0xbd796250	-0.060884774
212	0xbd7ad360	-0.06123674
213	0x3dcd7166	0.10031395
214	0xbdfaef9b	-0.12252732
215	0x3e0060c1	0.12536909
216	0xbdd9a4b9	-0.106271215
217	0xbd9b7d66	-0.07592277
218	0x3d9186a0	0.07105756
219	0xbdc03836	-0.093857214
220	0x3c250070	0.010070905
221	0x3dbe7322	0.092993036
222	0x3da837ee	0.08213793
223	0xbd846934	-0.064653784
224	0xbcc83950	-0.024441391
225	0xbd9139dc	-0.07091114
226	0x3e0b78f9	0.13620366
227	0x3e1ea789	0.15493597
228	0xbdc581ef	-0.096439235
229	0x3d7ecb40	0.062205553
230	0xbdb03593	-0.086039685
231	0x3c9840c8	0.018585578
232	0x3a599e00	0.0008301437
233	0xbd95571e	-0.07292007
234	0x3d5fc5c0	0.05463195
235	0x3e1e1323	0.15436988
236	0xbda32c80	-0.07967472
237	0xbca891e8	-0.020577386
238	0xbbd80480	-0.0065923333
239	0x3c6a4220	0.014297992
240	0x3ca7b1a8	0.020470455
241	0x3d26ad80	0.040692806
242	0x3d19413c	0.037415728
243	0x3e1b867b	0.15188019
244	0xbe211f14	-0.15734512
245	0x3e1d0deb	0.1533734
246	0x3ddfb89e	0.10923885
247	0x3c875d80	0.016524076
248	0xbccf7a68	-0.025326923
249	0xbe057a40	-0.13034916
250	0xbdc6a8f4	-0.09700194
251	0xbd2127ce	-0.0393446
252	0x3d4b6a90	0.049662173
253	0xbdef9488	-0.11698252
254	0x3db39bbc	0.08769938
255	0x3cd408f8	0.025883183

bias_ih_l0 f4 [160]
0	0x3e244410	0.16041589
1	0x3e9c8d82	0.30576712
2	0x3ed99f91	0.42504552
3	0x3e682fce	0.22674486
4	0x3dbeaca9	0.09310276
5	0x3de09148	0.1096521
6	0x3e6b3029	0.2296759
7	0x3eac660f	0.33671615
8	0x3ead66aa	0.3386739
9	0x3dc74e15	0.0973169
10	0x3e2fe2ad	0.17176314
11	0xbd890af4	-0.06691542
12	0x3e923e67	0.28563234
13	0x3e9c55bf	0.3053417
14	0x3e6dcfb5	0.23223765
15	0x3e892f9e	0.26794142
16	0x3e532dab	0.2062289
17	0x3eac2afc	0.33626544
18	0x3ea0abb5	0.31381002
19	0x3ec6266c	0.3870119
20	0x3cf538bf	0.029934285
21	0x3e32f14e	0.17474863
22	0x3eaf778e	0.342709
23	0x3e338d77	0.17534433
24	0x3e91e7e6	0.28497237
25	0x3eb50fa3	0.35363492
26	0x3ecd1a9e	0.4005937
27	0x3e44a433	0.19203262
28	0x3e21eda3	0.15813307
29	0x3ed088b2	0.4072929
30	0x3eb028c0	0.3440609
31	0x3d85f7cb	0.065414034
32	0x3e9791be	0.2960338
33	0x3e8ee6ff	0.2791061
34	0x3ea78084	0.32715237
35	0x3e5cb2bd	0.21552558
36	0x3e595e93	0.21227483
37	0x3eda2b37	0.42611095
38	0x3eb13f9e	0.3461885
39	0x3e924b11	0.28572896
40	0xbc717f90	-0.014739886
41	0x3db5841c	0.088630885
42	0xbd420816	-0.047370993
43	0xbcc7e018	-0.024398848
44	0x3e062421	0.1309972
45	0xbd8be66f	-0.06831061
46	0xbdb91d1f	-0.090387575
47	0x3d45b2f4	0.048266366
48	0x3d1b31e4	0.037889376
49	0xbd27ec84	-0.040997043
50	0x3ddca57a	0.1077375
51	0xbd20e2ce	-0.039278798
52	0x3e0fe163	0.14050822
53	0x3d887110	0.0666219
54	0xbddfb91c	-0.10923979
55	0x3d9af1c6	0.07565646
56	0xbe1d28c1	-0.15347578
57	0xbdedeb62	-0.11617161
58	0xbbd24820	-0.0064172894
59	0xbd08fa9e	-0.033442132
60	0xbc7a7500	-0.015286684
61	0xbe063995	-0.13107903
62	0xbdaaf7f3	-0.08348074
63	0x3b8211a0	0.003969386
64	0x3d9f505e	0.07779001
65	0x3dc49d12	0.09600271
66	0xbdd11669	-0.102093525
67	0xbde6aa21	-0.11262918
68	0xbe15217b	-0.14563553
69	0xbdd08fb0	-0.10183656
70	0xbd27d20e	-0.040971808
71	0xb8b9f000	-8.866191e-05
72	0xbe208d77	-0.15678965
73	0x3de200ca	0.11035307
74	0x3e0117c1	0.12606718
75	0xbe138dae	-0.14409515
76	0x3ded17f6	0.11576836
77	0xbdec7521	-0.11545778
78	0x3d177eb4	0.036986068
79	0xbc7a6320	-0.015282422
80	0xbd7efc5d	-0.06225239
81	0x3e4f13d7	0.20222412
82	0x3e61ac37	0.22038351
83	0x3e314595	0.173117
84	0x3da4735f	0.08029818
85	0xbe06b9e7	-0.13156854
86	0x3e416f4f	0.18890117
87	0xbe08d034	-0.13360673
88	0x3e8c6c39	0.27426317
89	0x3e2763dd	0.16346689
90	0x3d06e741	0.032935385
91	0xbdf3e681	-0.119091995
92	0x3ce8225e	0.0283367
93	0xbc8e7202	-0.017388348
94	0xbd30beaa	-0.04315058
95	0x3dfb6014	0.12274185
96	0xbceab916	-0.028652709
97	0xbcbac055	-0.02279679
98	0xbe3bc05c	-0.18335098
99	0xbe4e4a71	-0.20145585
100	0x3e57bdd5	0.21068509
101	0xbd3de13a	-0.04635737
102	0x3de9912c	0.114046425
103	0xbda76180	-0.081728935
104	0x3dafc0a7	0.085816674
105	0x3e0516cf	0.12996982
106	0x3e52fd31	0.20604397
107	0xbd7d22aa	-0.061800636
108	0x3d29040e	0.041263632
109	0x3d8f2f29	0.06991417
110	0x3dba396c	0.090929836
111	0x3d0ee345	0.03488471
112	0xbe2221ca	-0.15833202
113	0x3e3daae6	0.18522224
114	0xbda8925e	-0.08231042
115	0xbdda2ec3	-0.1065345
116	0xbca7c17f	-0.020478008
117	0xbd52acbb	-0.05143426
118	0x3d550b9c	0.052013025
119	0xbe5d7a4b	-0.21628682
120	0x3eaef9d4	0.3417498
121	0x3ee7826d	0.45216694
122	0x3e956dbf	0.29185292
123	0x3e7e2915	0.24820359
124	0x3d2f2121	0.042756204
125	0x3db83d4f	0.08996069
126	0x3e16f225	0.14740808
127	0x3e6fdc06	0.23423776
128	0x3eb0a9c4	0.3450452
129	0x3deac9ae	0.114642486
130	0x3e804c18	0.25058055
131	0x3e133a75	0.14377768
132	0x3ec4268d	0.38310662
133	0x3e69a48c	0.22816676
134	0x3e75d4f5	0.24007018
135	0x3ecc9c13	0.39962825
136	0x3ed3c277	0.41359302
137	0x3e0c99a3	0.13730483
138	0x3e910aa1	0.28328422
139	0x3e9cdf38	0.30639052
140	0x3da965c0	0.082713604
141	0x3e3462f9	0.1761588
142	0x3e0c20fe	0.1368446
143	0x3e6cab62	0.23112252
144	0x3dd096ee	0.101850376
145	0x3e94e8c6	0.29083842
146	0x3e789bcb	0.2427818
147	0x3d02fc87	0.03197911
148	0x3e9857c2	0.29754454
149	0x3ec74efa	0.38927442
150	0x3ebca27d	0.3684272
151	0x3dc4e6cb	0.09614333
152	0x3e942190	0.28931856
153	0x3e40863e	0.1880121
154	0x3dd8c289	0.1058398
155	0x3ee07031	0.43835595
156	0x3f034923	0.5128347
157	0x3eb384f5	0.35062376
158	0x3ec34f89	0.38146618
159	0x3ea6583a	0.32489187

bias_hh_l0 f4 [160]
0	0x3ead9e4e	0.3390984
1	0x3e4366c6	0.19082174
2	0x3e8ba119	0.27271345
3	0x3dac8c9c	0.084252566
4	0x3e79b59c	0.24385685
5	0x3e50472f	0.20339654
6	0x3ebd47e7	0.3696892
7	0x3eaa448b	0.3325542
8	0x3e8b960a	0.27262908
9	0x3ea2796d	0.31733266
10	0x3ec32a5f	0.38118264
11	0xbd33a9be	-0.04386305
12	0x3e876beb	0.26449522
13	0x3e7cba86	0.24680528
14	0x3e5ee78b	0.21768014
15	0x3e7a0d50	0.24419141
16	0x3e9e8860	0.3096342
17	0x3e451d5f	0.19249485
18	0x3ebea41d	0.37234583
19	0x3e3d7e35	0.18505175
20	0x3c8b08ce	0.016971972
21	0x3dbf1555	0.09330241
22	0x3eb6acf0	0.35678816
23	0x3e0f19e3	0.13974719
24	0x3e1e44ec	0.15455979
25	0x3e835af2	0.25655323
26	0x3eb98414	0.3623358
27	0x3e5e074b	0.2168247
28	0x3e435123	0.1907392
29	0x3eb8589e	0.3600511
30	0x3eafe6b4	0.343557
31	0x3df4e4e0	0.11957717
32	0x3e985f24	0.29760087
33	0x3e9fe026	0.312257
34	0x3e3428db	0.1759371
35	0x3e4effd7	0.20214783
36	0x3e92a595	0.28641954
37	0x3ee1a493	0.44070873
38	0x3d848cfe	0.064722046
39	0x3e103023	0.14080863
40	0x3dae7242	0.08517887
41	0x3e021da1	0.12706615
42	0x3e159f75	0.1461161
43	0x3e0c082d	0.13674994
44	0xbcc03020	-0.023460448
45	0xbd5e961c	-0.054342374
46	0x3dd8586e	0.105637416
47	0xbe0ca260	-0.13733816
48	0x3aeef500	0.0018230975
49	0xbdd5253d	-0.10407493
50	0xbe02be9e	-0.12768027
51	0x3df71c26	0.12065916
52	0x3ddf8a8e	0.10915099
53	0x3c662610	0.014047161
54	0x3e0ae7d3	0.13564996
55	0xbcef0650	-0.029177815
56	0x3d842794	0.064528614
57	0x3d8b9f80	0.068175316
58	0x3d86550e	0.06559192
59	0xbe197f4b	-0.14989965
60	0xbd9ad1a3	-0.07559516
61	0xbdeb8168	-0.11499292
62	0x3d2ee4e4	0.042698756
63	0xbd57847e	-0.05261659
64	0x3d615f6c	0.055022642
65	0xbe200e8a	-0.15630546
66	0xbdd9aa5e	-0.10628198
67	0x3dd86cf2	0.10567655
68	0xbd844bdd	-0.06459782
69	0xbd17a396	-0.037021242
70	0x3e0c6439	0.13710107
71	0x3dd72b9e	0.10506366
72	0x3e1059ab	0.14096706
73	0x3cbccea0	0.023047745
74	0xbba33780	-0.0049809813
75	0xbdd81237	-0.10550349
76	0x3dabab8a	0.08382328
77	0x3db758c4	0.089524776
78	0x3d0db394	0.034595087
79	0xbcc266b0	-0.023730606
80	0xbe31b9b6	-0.17356
81	0x3e9ca1dd	0.30592242
82	0x3d79a179	0.060945008
83	0x3dff653a	0.12470479
84	0x3de9cce7	0.11416035
85	0xbc8eb0b9	-0.017418252
86	0x3e630461	0.22169639
87	0xbe52677c	-0.20547289
88	0x3e207649	0.15670122
89	0x3e0f8c2b	0.14018314
90	0x3d9344f0	0.07190883
91	0xbe8248a2	-0.2544604
92	0xbdb5ab10	-0.08870518
93	0xbd032eb7	-0.032026973
94	0xbdc0101b	-0.09378072
95	0x3c744b20	0.014910489
96	0xbe2a2792	-0.16616657
97	0x3e5532f2	0.20820215
98	0xbe275244	-0.16339976
99	0x3d8a2795	0.06745831
100	0x3e8f97aa	0.28045398
101	0xbdcd38b2	-0.100205794
102	0xbe23f91e	-0.16013
103	0xbe1f0145	-0.15527828
104	0xbe49ef60	-0.1972022
105	0x3d29c0eb	0.041443747
106	0xbd2df11d	-0.04246627
107	0xbe503c3e	-0.2033548
108	0xbe496018	-0.19665563
109	0x3d912a8f	0.070881955
110	0x3d417fcd	0.04724102
111	0xbe574bb9	-0.2102498
112	0x3d02d1e2	0.03193844
113	0x3e03c778	0.1286906
114	0xbe1cba33	-0.15305404
115	0xbd52995e	-0.051415794
116	0x3d58606e	0.052826338
117	0x3e5bf853	0.21481447
118	0x3dffcbea	0.124900654
119	0xbe119189	-0.14215674
120	0x3e7753c8	0.24153054
121	0x3e802acf	0.2503266
122	0x3e4e3bb2	0.2013996
123	0x3dc44c5d	0.09584878
124	0xbbdac5cb	-0.006676411
125	0x3e17b58b	0.14815347
126	0x3e826b24	0.25472367
127	0x3ef0aa10	0.47004747
128	0x3edb1298	0.42787623
129	0x3e5a742c	0.21333379
130	0x3edef3fa	0.43545514
131	0x3da03e08	0.078243315
132	0x3ee6ba7d	0.45064154
133	0x3e96b334	0.29433596
134	0x3de59d98	0.11211699
135	0x3df96604	0.12177661
136	0x3e09e577	0.1346644
137	0x3eb2db3f	0.34932896
138	0x3e962251	0.29323056
139	0x3e759fd4	0.23986751
140	0x3e2b51f9	0.16730489
141	0x3d6fac58	0.05851397
142	0x3de09bbc	0.10967204
143	0x3e8ddcb1	0.27707437
144	0x3ebc6df1	0.3680263
145	0x3e44b026	0.1920782
146	0x3ebd48f2	0.36969715
147	0x3e252f6c	0.16131371
148	0x3e8d380a	0.27581817
149	0x3ef27b0e	0.47359508
150	0x3e63030e	0.22169134
151	0x3ea9687d	0.3308753
152	0x3e04e662	0.12978509
153	0x3ea8afd8	0.32946658
154	0x3e90b184	0.28260434
155	0x3e932a6b	0.287433
156	0x3ef3e54d	0.4763588
157	0x3eea295b	0.45734677
158	0x3df6cc04	0.12050632
159	0x3e814a9f	0.25252244

weight_ih_l1 f4 [160, 40]
0	0x3e961e81	0.29320148
1	0x3e3ff495	0.18745644
2	0xbc2880b3	-0.010284591
3	0x3c5986e6	0.013276791
4	0x3e176dd5	0.14787991
5	0x3de95ee6	0.113950536
6	0x3dae9d85	0.08526138
7	0x3c86ef9f	0.016471682
8	0x3e2484e7	0.16066323
9	0xbc141130	-0.009037301
10	0x3d8c8c98	0.06862754
11	0xbe30f1ba	-0.17279711
12	0x3da7ac8e	0.08187209
13	0xbcd609f1	-0.026127787
14	0xbe010705	-0.12600334
15	0xbe5304c2	-0.20607284
16	0x3cb4ced2	0.022071276
17	0xbcc82c9a	-0.02443533
18	0xbe00dc6d	-0.12584086
19	0x3c2cdd64	0.0105508305
20	0x3e00e614	0.12587768
21	0xbd35abb5	-0.044353206
22	0x3dea5b6c	0.114432186
23	0x3ccd50ed	0.025063002
24	0x3cba0370	0.022706717
25	0x3caf6e30	0.021414846
26	0x3e2a020c	0.16602343
27	0x3dfb0d22	0.12258364
28	0x3d3010dd	0.042984832
29	0x3e10537d	0.14094348
30	0x3c9e23a7	0.01930411
31	0xbdd07002	-0.10177614
32	0xbd72dd22	-0.05929292
33	0x3d1fde80	0.039030552
34	0xbd5eb324	-0.05437006
35	0xbc7a7b30	-0.015288159
36	0x3d4a44e2	0.049382098
37	0xbd0c5e0b	-0.034269374
38	0x3e2f05c1	0.17092039
39	0x3e0d76bb	0.13814823
40	0x3e3ee037	0.18640219
41	0x3eef9428	0.46792722
42	0xbd291e04	-0.04128839
43	0x3dd7c7b6	0.10536139
44	0x3bfe448c	0.0077596363
45	0x3e3c6de6	0.18401298
46	0xbcec70c3	-0.028862363
47	0x3dbb8650	0.091564775
48	0x3ec6cad5	0.38826624
49	0x3e8f4d96	0.2798888
50	0xbe7a21db	-0.24426977
51	0x3d037fb6	0.032104217
52	0x3e834286	0.2563669
53	0x3e884c3e	0.26620668
54	0xbdc88b76	-0.09792225
55	0xbe05e1c1	-0.130744
56	0xbe6da695	-0.23208077
57	0x3dbf7a41	0.0934949
58	0xbe7411d8	-0.23834932
59	0xbe2f8b91	-0.17143084
60	0xbd85f477	-0.065407686
61	0xbe9fd958	-0.31220508
62	0xbb1e4ce6	-0.0024154722
63	0xbeb9fdc6	-0.36326426
64	0x3dde95c5	0.1086841
65	0x3eb9ad8f	0.36265227
66	0x3af3cd76	0.0018600661
67	0xbe3a5584	-0.18196684
68	0x3e29f122	0.16595891
69	0x3e6d99f9	0.23203267
70	0xbd1685f7	-0.036748853
71	0x3c903e2f	0.017607776
72	0x3e3abaa0	0.18235254
73	0x3df3e4ce	0.119088754
74	0xbebd5980	-0.36982346
75	0x3e59e7a5	0.21279772
76	0x3dd1dd36	0.10247271
77	0xbe45ac33	-0.1930397
78	0xbe11deba	-0.1424512
79	0xbe79d325	-0.24396951
80	0xbdd00781	-0.10157681
81	0x3e23fdcc	0.16014785
82	0x3e195941	0.14975454
83	0xbab7934d	-0.0014005691
84	0x3cd59e11	0.026076348
85	0xbdce5fe5	-0.10076884
86	0x3e1541c4	0.14575869
87	0xbe770fc9	-0.24127115
88	0x3da69c64	0.08135298
89	0x3d188f4a	0.037246026
90	0xbdf6eae9	-0.12056524
91	0x3e0534d1	0.13008429
92	0x3c3459e3	0.011007759
93	0xbd6c8ee2	-0.05775345
94	0x3de6862f	0.11256062
95	0xbe119b6e	-0.14219448
96	0x3e080c98	0.13286054
97	0xbce89173	-0.028389668
98	0x3be38e21	0.0069444333
99	0x3e1bd22d	0.15216894
100	0xbd40795a	-0.04699073
101	0x3d4c9567	0.04994717
102	0x3dce5c51	0.10076202
103	0x3d7b64a0	0.06137526
104	0x3e42821b	0.18994944
105	0x3e2b088f	0.16702484
106	0xbe55d408	-0.20881665
107	0x3c43d8aa	0.011953512
108	0xbd81089e	-0.06300472
109	0xbc5e8d7a	-0.013583535
110	0xbd7e1905	-0.06203558
111	0x3ca1104a	0.019661088
112	0xbd0ba856	-0.034096085
113	0xbd1a6058	-0.037689537
114	0xbd807193	-0.062716626
115	0x3de6a11e	0.112611994
116	0xbcb50a6b	-0.022099694
117	0x3e5e5bc4	0.21714693
118	0xbe0003b7	-0.12501417
119	0x3dfc9287	0.123326354
120	0x3e8d26b7	0.275686
121	0x3ea7a113	0.32740077
122	0xbc9de9b8	-0.019276485
123	0x3e977ae6	0.29585952
124	0x3e8b6fec	0.27233827
125	0x3e14270c	0.1446802
126	0x3e575687	0.21029101
127	0x3e51ec2e	0.20500252
128	0x3ec347c1	0.3814068
129	0x3e8ed68f	0.2789807
130	0xbe60dc01	-0.21958925
131	0xbe849009	-0.2589114
132	0x3e95379b	0.29143986
133	0x3ce1dcc7	0.027571095
134	0xbe562b5e	-0.20914981
135	0xbdb81c64	-0.0898979
136	0xbe988a02	-0.29792792
137	0x3c2d2fec	0.0105705075
138	0xbe5d7b9d	-0.21629186
139	0xbe2c7b1a	-0.16843835
140	0x3a27d46e	0.0006402199
141	0xbe14ecd4	-0.14543468
142	0x3dc7d243	0.09756901
143	0xbe9d0255	-0.30665842
144	0xbd755674	-0.0598969
145	0x3e728395	0.23683007
146	0x3dff3a5d	0.12462304
147	0xbe980ae5	-0.29695812
148	0x3ed531b2	0.41639477
149	0x3d62b1af	0.055345234
150	0xbc64da09	-0.013967999
151	0x3dea61cb	0.11444434
152	0xbe3ce77d	-0.18447681
153	0x3e396dba	0.18108264
154	0xbe911bf1	-0.2834163
155	0xbba6dae8	-0.0050920136
156	0x3e0321cd	0.12805863
157	0xbe6f0dcd	-0.23345108
158	0x3dc38a1d	0.095478274
159	0xbee657a8	-0.4498875
160	0x3c9a6a55	0.018849531
161	0x3d8fd683	0.07023337
162	0x3e3669eb	0.17813842
163	0x3c8ba62c	0.01704701
164	0x3d685bdc	0.05672823
165	0xbe1ea211	-0.15491511
166	0x3d9a4bc4	0.075339824
167	0x3d2a5a27	0.041589882
168	0x3e77a81d	0.24185224
169	0xbe127c1d	-0.14305158
170	0x3d4adf3b	0.049529295
171	0xbe01f3b6	-0.12690625
172	0xbddfd273	-0.10928812
173	0x3c5ac093	0.013351577
174	0x3d4c98b5	0.04995032
175	0xbd901d53	-0.07036843
176	0x3c9d7357	0.019220037
177	0xbc0de2b0	-0.008660004
178	0x3dba6c48	0.09102684
179	0xbe2a044b	-0.166032
180	0x3dd1203f	0.102112286
181	0x3dae0574	0.08497134
182	0x3d7e4a11	0.062082354
183	0xbd6bc7d6	-0.057563625
184	0xbd98d6b9	-0.0746283
185	0x3db51ae5	0.0884302
186	0x3cdeec6b	0.027212342
187	0x3e065ffb	0.13122551
188	0x3db5dd9f	0.088801615
189	0x3db7da5f	0.08977198
190	0x3d0e7c7f	0.034786697
191	0x3e0ecdcd	0.13945694
192	0x3e2dea8b	0.16984002
193	0x3d000fce	0.031265073
194	0x3dee2547	0.11628204
195	0x3e30e3d9	0.17274417
196	0xbe2bdc11	-0.16783167
197	0x3e422645	0.18959911
198	0x3cac0df0	0.02100274
199	0x3e036844	0.12832743
200	0xbd97b63a	-0.07407804
201	0x3e68fae0	0.22751951
202	0x3e1f4b60	0.15556097
203	0x3e00acbc	0.12565893
204	0x3e919b3a	0.2843874
205	0xbe30a320	-0.17249727
206	0x3d94c94b	0.07264956
207	0xbdc672d2	-0.09689869
208	0x3e69deab	0.22838847
209	0x3e9f7ac0	0.31148338
210	0xbcc4a1f0	-0.024002999
211	0xbe240f87	-0.16021548
212	0xbc81df18	-0.01585345
213	0xbd35e5d8	-0.04440865
214	0xbd4eae37	-0.050459113
215	0x3cd0a4ad	0.025469149
216	0x3dc79a65	0.09746245
217	0x3d8cb8ab	0.0687116
218	0x3b9a4166	0.004707503
219	0xbcc44ce9	-0.023962455
220	0xbdf9be86	-0.121945426
221	0xbc8ac69c	-0.016940407
222	0x3d138dc2	0.036023863
223	0xbe37dfaf	-0.17956422
224	0x3dc49451	0.095986016
225	0x3e88004a	0.2656272
226	0x3c930852	0.017948303
227	0xbe0a6a95	-0.1351722
228	0xbe4ccf4a	-0.2000095
229	0xbce19c46	-0.027540337
230	0x3def465f	0.11683344
231	0xbdc3baaf	-0.095570914
232	0x3dc79294	0.097447544
233	0x3d0faa0e	0.035074286
234	0xbdf25b24	-0.1183379
235	0xbdd9f31a	-0.10642071
236	0xbc967b64	-0.018369384
237	0x3e388d66	0.18022689
238	0x3c2496b0	0.010045692
239	0xbe3e61b0	-0.18591952
240	0xbe6424cd	-0.22279663
241	0x3e1baeaa	0.15203348
242	0x3dbea89b	0.09309503
243	0x3e513505	0.20430382
244	0x3e834d63	0.2564498
245	0xbcd4c9a5	-0.025975058
246	0x3e3e48d6	0.18582472
247	0xbe8c414b	-0.27393565
248	0x3d68c81d	0.056831468
249	0x3e03b488	0.12861836
250	0xbd5f061b	-0.054449182
251	0xbe99e59a	-0.30057985
252	0xbd175c10	-0.036953032
253	0x3dd87f4e	0.105711564
254	0x3d9da1b1	0.07696856
255	0xbdbc8dae	-0.09206711

weight_hh_l1 f4 [160, 40]
0	0xbd9e3583	-0.0772505
1	0x3d7eae4c	0.06217794
2	0x3cd39a68	0.025830463
3	0x3d86547e	0.06559084
4	0xbc153a60	-0.009108156
5	0xbda3341f	-0.07968926
6	0xbe165dd4	-0.1468423
7	0x3de61966	0.11235313
8	0x3cd6d368	0.026223853
9	0x3e03bcf1	0.12865044
10	0xbe0535ec	-0.13008851
11	0xbdef7090	-0.116913915
12	0x3da619a0	0.08110356
13	0x3dc78a32	0.097431555
14	0x3e204401	0.15650941
15	0x3dd96672	0.10615243
16	0xbb279840	-0.0025572926
17	0x3e07abd5	0.13249142
18	0x3c4636a0	0.012097985
19	0xbda1cc3c	-0.07900283
20	0xbcba2a30	-0.022725195
21	0xbd9a2312	-0.075262204
22	0x3e215815	0.15756257
23	0xbdf25120	-0.118318796
24	0x3e148e95	0.14507516
25	0xbde6282c	-0.11238131
26	0xbd847256	-0.0646712
27	0xbe1dd1e9	-0.15412106
28	0x3dbaecfa	0.09127231
29	0x3dd2da8e	0.10295592
30	0x3d5ecdac	0.054395363
31	0xbd9c0000	-0.076171875
32	0xbcf4b118	-0.029869601
33	0x3d5dd4e4	0.054158106
34	0x3d43f890	0.04784447
35	0x3bcb7080	0.0062084794
36	0xbe0ce5d4	-0.13759547
37	0xbe016f7c	-0.12640184
38	0x3dcf11ea	0.10110839
39	0x3dda5eaa	0.10662587
40	0x3e0c725b	0.13715498
41	0xbe18bdba	-0.14916125
42	0x3dec9b8e	0.11553107
43	0x3d8a8a9a	0.067647174
44	0x39ef0400	0.00045588613
45	0x3b9d0180	0.0047914386
46	0xbdb1e4fa	-0.08686252
47	0x3c84cba8	0.016210392
48	0xbd747352	-0.05968029
49	0xbe1ba94f	-0.15201305
50	0x3e0486a1	0.12941982
51	0x3dc8be86	0.098019645
52	0xbdea0238	-0.114262044
53	0xbdbab9e1	-0.09117485
54	0x3daf0f7c	0.08547875
55	0x3d6efce8	0.05834666
56	0xbdc17afb	-0.09447285
57	0xbbb70100	-0.005584836
58	0x3db59a64	0.08867338
59	0x3db3f4fa	0.0878696
60	0xbd36d6de	-0.044638507
61	0xbe1e0074	-0.1542986
62	0x3df7da72	0.12102212
63	0xbd9de9cc	-0.07710609
64	0x3e18fc17	0.14939915
65	0xbd278286	-0.04089596
66	0x3e0736a7	0.13204442
67	0x3cde9268	0.027169421
68	0xbd23c0d0	-0.039978802
69	0x3dfa11f2	0.12210454
70	0x3e21b801	0.15792848
71	0x3d80c96e	0.0628842
72	0xbceea640	-0.029132009
73	0x3d3d6c98	0.04624614
74	0x3e0924fb	0.13393013
75	0x3d8e67be	0.06953381
76	0x3d49b7e0	0.049247622
77	0xbc7002e0	-0.014649123
78	0xbcc0d528	-0.02353914
79	0x3daf4a5e	0.08559106
80	0xbdf8c776	-0.12147419
81	0x3dc31062	0.09524609
82	0x3d1e4dfc	0.03864859
83	0xbd80210d	-0.06256304
84	0x3e04b019	0.12957801
85	0xbd0f1e90	-0.034941256
86	0xbd1c2632	-0.038122363
87	0x3dc3c752	0.09559502
88	0xbcdf3310	-0.027246028
89	0xbbe6fce0	-0.007049188
90	0xbd859900	-0.06523323
91	0xbdafb9e9	-0.085803814
92	0xbe1a1f34	-0.15050966
93	0x3d2f0c90	0.04273659
94	0xbcd59738	-0.026073083
95	0x3e0cec8d	0.13762112
96	0xbe0e25be	-0.13881585
97	0x3e1b430d	0.15162297
98	0x3e071a15	0.13193543
99	0xbdb4d8f1	-0.08830441
100	0x3e038193	0.12842397
101	0x3d7278ec	0.05919735
102	0x3aeeec00	0.0018228292
103	0x3e062a73	0.1310213
104	0x3b40bd40	0.0029409677
105	0x3d75cce0	0.060009837
106	0x3e196c99	0.14982833
107	0xbdaa7f2e	-0.08325039
108	0xbe1abf87	-0.15112124
109	0xbe08095a	-0.13284817
110	0x3d3b3818	0.045707792
111	0xbe02fe9a	-0.12792435
112	0xbd83db17	-0.064382724
113	0xbd062de4	-0.03275861
114	0x3df7d6ae	0.12101494
115	0x3da2eb20	0.07955003
116	0x3d4a23c0	0.0493505
117	0xbbf8b3c0	-0.0075897872
118	0xbde458e6	-0.111497685
119	0x3d89b9b4	0.06724873
120	0x3d1dca5c	0.038523063
121	0x3ce70318	0.028199717
122	0x3d80a9c2	0.06282379
123	0x3d03b910	0.03215891
124	0xbcf9a018	-0.030471846
125	0xbdbf47fa	-0.093399
126	0x3e07d281	0.13263895
127	0xbd624144	-0.055238023
128	0x3e13385f	0.14376973
129	0xbda7b278	-0.08188337
130	0xbdf5bfe7	-0.11999493
131	0xbda1874c	-0.07887134
132	0x3da53f08	0.08068663
133	0x3e1782c9	0.14795984
134	0x3d1cb3ec	0.038257524
135	0x3e1ca2c5	0.15296467
136	0xbc9b73b0	-0.018976063
137	0x3db84af2	0.0899867
138	0x3e1f036b	0.15528648
139	0xbd7ca88e	-0.061684184
140	0x3d434b30	0.047679126
141	0xbd41922c	-0.04725854
142	0x3e217179	0.15765943
143	0x3d935cf2	0.07195462
144	0x3dbf6a9a	0.093465045
145	0x3d93e1dc	0.07220814
146	0x3deded06	0.11617474
147	0xbd91f42b	-0.071266495
148	0xbe1d469f	-0.15358971
149	0xbcd6be50	-0.026213795
150	0xbc25d7f0	-0.010122284
151	0x3d11bd40	0.035580873
152	0x3d349094	0.044083193
153	0x3dfe3ade	0.12413572
154	0xbda12df6	-0.078700945
155	0xbe0e27f5	-0.1388243
156	0xbda75ac6	-0.081716105
157	0xbbc74f60	-0.0060824603
158	0xbc6acdf0	-0.014331326
159	0x3db8ae86	0.09017663
160	0xbd35dfe4	-0.044402972
161	0xbdbc79bc	-0.092029065
162	0x3d4dbcd8	0.050228924
163	0xbca729c0	-0.02040565
164	0xbd58abe0	-0.052898288
165	0x3ca964e8	0.020677999
166	0x3dd0fac6	0.10204081
167	0x3d70d564	0.058797255
168	0xbde3799a	-0.11107178
169	0x3da63622	0.08115794
170	0xbded28c9	-0.11580045
171	0xbe16bb00	-0.14719772
172	0x3e1082cb	0.14112394
173	0x3db67050	0.08908141
174	0xbda2ae56	-0.07943408
175	0xbc7e4e10	-0.015521541
176	0xbdd09cb9	-0.101861425
177	0xbce1f5d0	-0.027583033
178	0x3d7518c8	0.059838086
179	0x3dfcddf2	0.1234702
180	0xbd3c7614	-0.046011046
181	0x3e1e1e85	0.1544133
182	0x3debff36	0.11523287
183	0xbdd3dc94	-0.10344806
184	0x3dad4574	0.08460513
185	0xbd20049e	-0.039066903
186	0xbdaf0a37	-0.0854687
187	0xbda31617	-0.07963198
188	0x3de0d70e	0.109785184
189	0x3dbab104	0.09115794
190	0xbc10f9a0	-0.008848578
191	0x3e13c9b7	0.14432417
192	0x3df513ba	0.11966653
193	0xbd929e61	-0.07159115
194	0x3dd31462	0.10306622
195	0x3c510720	0.012758046
196	0x3d533648	0.05156544
197	0xbdbdf9b7	-0.09276145
198	0x3e144455	0.14479192
199	0xbc9454e8	-0.018106893
200	0x3db0a0b4	0.08624402
201	0x3dada7ea	0.08479293
202	0xbdc455e7	-0.09586697
203	0x3db57748	0.08860642
204	0x3dc4d5c2	0.096110836
205	0x3e0bffa7	0.13671742
206	0x3ac45480	0.0014978796
207	0x3c808018	0.01568608
208	0xbc9815f8	-0.018565163
209	0x3e067ccb	0.13133542
210	0xbdb295b1	-0.087199576
211	0xbe0274cf	-0.12739871
212	0xbe0f52b4	-0.13996392
213	0xbdf8f988	-0.12156969
214	0x3cb074b0	0.021540016
215	0xbcfc8648	-0.030825749
216	0x3d190270	0.03735584
217	0x3dbf2b8e	0.09334479
218	0x3e01ad77	0.12663828
219	0xbc38f4f0	-0.011288866
220	0x3d735180	0.059403896
221	0x3c895af0	0.016766995
222	0xbd2aaaf4	-0.04166694
223	0x3dbc1072	0.09182824
224	0xbd978540	-0.07398462
225	0xbdc15e7b	-0.09441849
226	0xbd048f3c	-0.03236316
227	0x3c09c2e0	0.008408278
228	0xbdb8abce	-0.09017144
229	0xbe202b72	-0.15641573
230	0xbb541dc0	-0.0032366365
231	0xbd8a4d1c	-0.06752989
232	0x3df7b61e	0.12095283
233	0xbdd97c32	-0.106193915
234	0xbe177c2b	-0.1479346
235	0x3e039ae1	0.1285205
236	0x3e05335b	0.13007872
237	0x3d103320	0.035205007
238	0xbd256dda	-0.040387966
239	0xbd0880ca	-0.033325948
240	0xbe148968	-0.14505541
241	0x3df3981e	0.118942484
242	0xbe05c60c	-0.1306383
243	0x3d135620	0.035970807
244	0xbdea1031	-0.114288695
245	0x3d4852b8	0.04890701
246	0xbdc99db0	-0.0984453
247	0x3d9d22f6	0.07672684
248	0x3d826792	0.06367411
249	0x3ca830a8	0.020531014
250	0x3cae02b8	0.02124153
251	0x3d0259c8	0.031823903
252	0x3ca18aa8	0.019719437
253	0xbd4ee1e8	-0.05050841
254	0xbe19c887	-0.15017901
255	0xbc701d70	-0.014655456

bias_ih_l1 f4 [160]
0	0x3ea099e9	0.31367424
1	0x3e94fd14	0.29099333
2	0x3e19bfac	0.15014523
3	0x3efc4f40	0.49279213
4	0x3e4c6f21	0.19964267
5	0x3ed598f9	0.4171827
6	0x3df01412	0.11722578
7	0x3e4540a0	0.19262934
8	0x3ec0b2a6	0.37636298
9	0x3ea5e4a6	0.32401007
10	0x3ec5c04e	0.3862328
11	0x3eb4dfd8	0.3532703
12	0x3eae5d4b	0.34055552
13	0x3e9f6c90	0.31137514
14	0x3e606176	0.21912178
15	0x3e5bae89	0.21453299
16	0x3dca44d5	0.0987641
17	0x3e8233fa	0.2543028
18	0x3e5c7695	0.2152961
19	0x3e814b23	0.25252637
20	0x3e8a2179	0.26978663
21	0x3ea6eea8	0.32603955
22	0x3db9f68c	0.09080228
23	0x3ec630b0	0.3870902
24	0x3ea0b876	0.31390733
25	0x3e88a1bd	0.26685897
26	0x3e99ac8b	0.30014452
27	0x3eceaeb6	0.4036767
28	0x3e277b6a	0.16355672
29	0x3eface0c	0.48985326
30	0x3e009179	0.12555493
31	0x3e23b80d	0.15988179
32	0x3e65ee60	0.22454214
33	0x3e5b8277	0.21436487
34	0x3d3aa607	0.045568492
35	0x3eb8e664	0.36113274
36	0x3e4c78f9	0.19968022
37	0x3ea37572	0.3192554
38	0x3e728ad7	0.23685776
39	0x3f035bf3	0.5131218
40	0x3d046454	0.032322243
41	0x3d910ea0	0.070828676
42	0xbd9767a7	-0.07392817
43	0x3d25ea60	0.04050672
44	0xbcc22840	-0.023700833
45	0xbdf1ab1b	-0.11800214
46	0x3d13f13c	0.03611873
47	0x3d5d321c	0.054002866
48	0xbe1212a6	-0.14264926
49	0xbe1331aa	-0.14374414
50	0xbe05b92b	-0.13058917
51	0xbe126751	-0.14297225
52	0xbc0ceb90	-0.008601084
53	0xbde01725	-0.109419145
54	0xbddbc2cc	-0.10730514
55	0xbdcbe012	-0.099548474
56	0x3d0c6fa4	0.034286156
57	0x3def221a	0.11676426
58	0x3db5adca	0.08871038
59	0xbc756b50	-0.014979199
60	0x3d3b4be4	0.04572667
61	0x3e196bd5	0.14982541
62	0xbe0e99ec	-0.13925904
63	0x3d224a68	0.03962174
64	0x3e13c607	0.1443101
65	0x3bdb26a0	0.006687954
66	0xbc849f20	-0.016189158
67	0x3cad5228	0.02115734
68	0xbcbfaa60	-0.02339667
69	0x3d5c55b4	0.05379267
70	0xbe06ab6e	-0.13151333
71	0x3d46ff18	0.04858312
72	0x3bf74f80	0.007547319
73	0x3cc7acc0	0.024374366
74	0xbd6a2f26	-0.05717387
75	0xbdb29c01	-0.08721162
76	0xbbdbfc00	-0.0067133904
77	0xbe1b99f6	-0.1519545
78	0xbc956c20	-0.018240035
79	0xbd3fdb68	-0.0468401
80	0x3db05128	0.08609229
81	0x3d88cced	0.066797115
82	0xbd10094b	-0.035165112
83	0xbe059db8	-0.13048446
84	0xbde8e3cf	-0.11371576
85	0x3da0c4a4	0.07850006
86	0xbd89c614	-0.067272335
87	0x3e0e1686	0.1387578
88	0xbd126d5c	-0.035748824
89	0xbcbf8c5e	-0.023382362
90	0xbe100b66	-0.14066848
91	0x3e24a21d	0.16077466
92	0xbe1e1a81	-0.15439798
93	0xbd826874	-0.06367579
94	0xbe383ca1	-0.17991878
95	0x3d0f9c61	0.035061244
96	0x3cf5c10b	0.029999277
97	0xbde280e7	-0.110597424
98	0x3d286b99	0.041118238
99	0xbd971ec8	-0.07378918
100	0xbd02c378	-0.031924695
101	0xbd4e93cd	-0.050433923
102	0x3db1ff20	0.08691239
103	0x3d1ffd57	0.039059963
104	0xbd9e23fc	-0.07721707
105	0xbd8fc69b	-0.07020303
106	0x3d8c04ed	0.06836877
107	0x3dfbb011	0.122894414
108	0xbe05a3c7	-0.13050757
109	0x36b34280	5.3423573e-06
110	0x3d721654	0.059103325
111	0xbdf0b221	-0.117527254
112	0x3d9ccfcd	0.07656822
113	0xbd8edec8	-0.06976086
114	0x3cf65fdd	0.030075008
115	0x3d730490	0.059330523
116	0xbd555142	-0.052079447
117	0xbd3fe0b7	-0.046845164
118	0xbc00041e	-0.007813482
119	0x3c02a46c	0.007973772
120	0x3e419290	0.18903565
121	0x3eb64045	0.3559591
122	0x3e956c94	0.291844
123	0x3e9c4557	0.30521652
124	0x3e4df429	0.20112671
125	0x3e4456fe	0.1917381
126	0x3e3a4f4b	0.1819431
127	0x3e36478b	0.17800729
128	0x3e8ad2bd	0.27113906
129	0x3ecea569	0.40360573
130	0x3ed474bc	0.4149531
131	0x3defef0d	0.11715517
132	0x3ed02c7a	0.40658933
133	0x3e444b37	0.19169317
134	0x3d4d76cc	0.05016212
135	0x3e8be74e	0.2732491
136	0x3e91a003	0.28442392
137	0x3da40702	0.08009149
138	0x3dd291de	0.10281728
139	0x3e0da1ab	0.13831203
140	0x3ea051ba	0.31312352
141	0x3ecfd9d2	0.4059587
142	0x3e0c2042	0.1368418
143	0x3ef25fe7	0.47338793
144	0x3e14c55c	0.14528412
145	0x3ebc1e98	0.3674209
146	0x3ee24fb3	0.4420143
147	0x3e622b8a	0.22086921
148	0x3e8af3a4	0.27139008
149	0x3e9456c7	0.28972456
150	0x3ed10b18	0.40828776
151	0x3ea65a02	0.32490546
152	0x3e688aea	0.22709242
153	0x3e620224	0.22071129
154	0x3e1b3fa6	0.15160999
155	0x3e72e82d	0.2372138
156	0x3e8aab59	0.27083853
157	0x3e9920f3	0.2990795
158	0x3ea5fc9c	0.32419288
159	0x3ef675bf	0.48136708

bias_hh_l1 f4 [160]
0	0x3dab1270	0.08353126
1	0x3e574859	0.21023692
2	0x3e1e2550	0.15443921
3	0x3efad082	0.48987204
4	0x3e964e7f	0.29356763
5	0x3ea68e7b	0.3253058
6	0x3e9c683a	0.3054827
7	0x3d69aa7b	0.05704735
8	0x3e06f23f	0.13178347
9	0x3e82ef25	0.25573078
10	0x3edac104	0.42725384
11	0x3e233368	0.15937579
12	0x3e55f5d3	0.20894556
13	0x3e7643b3	0.24049263
14	0xbd89cef4	-0.06728926
15	0x3ebb3c57	0.36569473
16	0x3e1b4831	0.15164258
17	0x3eb9994d	0.36249772
18	0xbd03182d	-0.032005478
19	0x3eac29d5	0.33625665
20	0x3eb44531	0.3520904
21	0x3e7f65fd	0.24941249
22	0x3e2e842f	0.17042612
23	0x3e9ea74a	0.30987006
24	0x3e356582	0.17714503
25	0x3ecce349	0.40017155
26	0x3f14a04f	0.5805711
27	0x3e7cad00	0.2467537
28	0x3e17670a	0.147854
29	0x3efba12a	0.49146396
30	0x3eb04cad	0.344335
31	0x3e586ef3	0.21136074
32	0x3e9c6094	0.30542433
33	0x3e674fb7	0.22589003
34	0x3e59ff22	0.21288732
35	0x3ec0963c	0.3761462
36	0x3eb3ba55	0.35103098
37	0x3e685c71	0.22691514
38	0x3eb3c702	0.35112768
39	0x3f02596f	0.50917715
40	0x3d82bede	0.06384061
41	0x3e033f85	0.128172
42	0x3c88ee70	0.016715258
43	0x3d93c4aa	0.07215245
44	0xbe08378a	-0.13302436
45	0x3cfd74d0	0.03093949
46	0x3c625680	0.0138145685
47	0xbd156db2	-0.036481567
48	0x3d2539c8	0.040338308
49	0x3ca53320	0.02016598
50	0xbd061380	-0.03273344
51	0xbc404870	-0.01173602
52	0xbd8c0658	-0.068371475
53	0x3df848d6	0.12123267
54	0xbc477080	-0.012172818
55	0x3cdf5130	0.027260393
56	0x3d6d58d0	0.057946026
57	0x3d25799c	0.04039918
58	0xbdf45d58	-0.119318664
59	0xbdc0cbfb	-0.09413906
60	0xbd5b007a	-0.05346725
61	0x3d97dd84	0.074152976
62	0x3c86dec8	0.016463652
63	0x3dfa38e6	0.12217884
64	0xbe1f2a4a	-0.15543476
65	0xbdbfa68d	-0.09357939
66	0xbe0ac22d	-0.13550635
67	0x3d4a9d60	0.04946649
68	0x3c8aa3c8	0.0169238
69	0x3e0a0dc7	0.13481818
70	0xbe00f566	-0.12593612
71	0x3d986a54	0.074421555
72	0xbcf01b10	-0.02930978
73	0x3d2bc170	0.041932523
74	0x3d8434da	0.06455393
75	0xbdbe558d	-0.09293661
76	0x3e1dfe3b	0.15429012
77	0xbd317d34	-0.043332294
78	0xbd2bd654	-0.041952446
79	0x3dc8def2	0.098081484
80	0x3e0c433d	0.13697524
81	0x3cb34f81	0.021888496
82	0xbd8dc49d	-0.06922267
83	0xbd5a178f	-0.053245123
84	0xbdf8722e	-0.12131153
85	0x3d6e75e5	0.0582179
86	0x3d89c531	0.067270644
87	0xbe05282f	-0.1300361
88	0x3c31c40b	0.010849963
89	0x3db508f3	0.088395976
90	0x3e08cf11	0.1336024
91	0x3d32a243	0.043611776
92	0x3bc29877	0.0059385854
93	0xbdbd56de	-0.09245084
94	0x3c9637da	0.018337179
95	0x3dbbaaf6	0.091634676
96	0xbe018f2c	-0.12652272
97	0xbe0d5ca6	-0.13804874
98	0x3e2f90a5	0.17145021
99	0x3d7d167a	0.061789013
100	0xbcb95ddf	-0.022627769
101	0x3e0cdae0	0.13755369
102	0xbccfcbc4	-0.025365718
103	0x3dc3fc89	0.09569652
104	0x3dd8033e	0.105474934
105	0xbbaf5ee0	-0.005351886
106	0x3dae3a7d	0.085072495
107	0x3d9cc961	0.076555975
108	0x3dc0759d	0.09397433
109	0xbe0392d0	-0.12848973
110	0xbd563eb8	-0.052305907
111	0xbc0fdc32	-0.008780526
112	0xbe2a8d11	-0.16655375
113	0x3dbe9850	0.09306395
114	0x3d063cd2	0.032772847
115	0xbd550deb	-0.052015226
116	0xbdd759ca	-0.10515173
117	0x3e0e9b18	0.13926351
118	0xbdaf4173	-0.08557405
119	0x3d0501cd	0.03247242
120	0x3e38bed6	0.18041548
121	0x3ecfc755	0.40581766
122	0x3dd350f8	0.10318178
123	0x3ee1b3a9	0.44082382
124	0x3d827d28	0.06371528
125	0x3de5d372	0.112219706
126	0x3e3bd0d9	0.18341388
127	0x3e62a3ab	0.22132747
128	0x3ed4cb0d	0.41561165
129	0x3ee3c511	0.44486287
130	0x3ecfc914	0.40583098
131	0x3e9acbc2	0.3023358
132	0x3ed90b64	0.42391503
133	0x3e5e0157	0.21680199
134	0x3d0af0f2	0.03392119
135	0x3ed04de0	0.40684414
136	0x3de632ff	0.112401955
137	0x3e9328f8	0.28742194
138	0x3e0363ed	0.12831087
139	0x3e559281	0.20856668
140	0x3ed7b75a	0.42132074
141	0x3ed9134c	0.42397535
142	0x3e68df1a	0.22741356
143	0x3e9af8dd	0.30267993
144	0x3e63fbf6	0.22264084
145	0x3ec81324	0.39077103
146	0x3ea64271	0.32472566
147	0x3ebae8bf	0.36505696
148	0x3e9790fe	0.29602808
149	0x3ecd9604	0.40153515
150	0x3eda208c	0.42602956
151	0x3e897318	0.26845622
152	0x3e90ec67	0.2830536
153	0x3e9df77a	0.30852872
154	0x3e88b262	0.26698595
155	0x3e261eb5	0.16222651
156	0x3ec179e5	0.3778831
157	0x3e5f601e	0.2181401
158	0x3e95fcac	0.29294336
159	0x3e95d896	0.29266804

weight f4 [6, 40]
0	0x3d4155cf	0.047200974
1	0xbd3b0321	-0.04565728
2	0xbe1ee363	-0.15516429
3	0x3e76a42c	0.24086064
4	0xbe13934e	-0.14411661
5	0x3e519537	0.20467077
6	0x3ebc1dfb	0.36741623
7	0x3e28c233	0.16480331
8	0x3d83c25c	0.064335555
9	0xbf033702	-0.5125581
10	0x3e91c749	0.28472355
11	0x3f1e1f81	0.6176682
12	0x3f07c5bf	0.5303611
13	0x3e34b02f	0.17645334
14	0xbe83c52e	-0.25736374
15	0x3c78da60	0.015188783
16	0x3e9bd18f	0.30433318
17	0xbc97cd5b	-0.018530538
18	0x3e34e7b9	0.1766652
19	0x3e9d05ef	0.3066859
20	0x3ecb3116	0.39685887
21	0xbe41ba87	-0.18918811
22	0xbd185f0e	-0.037200026
23	0x3f0494ac	0.51789355
24	0x3def250d	0.11676989
25	0x3e508324	0.20362526
26	0xbf2071e5	-0.6267379
27	0xbeda38ce	-0.42621464
28	0xbef5523a	-0.47914296
29	0x3ee86dda	0.4539631
30	0x3e813f66	0.25243682
31	0xbdbb02d0	-0.09131396
32	0x3eb49258	0.352679
33	0xbe275391	-0.16340472
34	0x3ecee794	0.40411055
35	0x3f1c19b0	0.60976696
36	0x3ec93d7f	0.3930473
37	0xbed51a92	-0.41621834
38	0xbe888ef0	-0.26671553
39	0xbf0ed037	-0.5578646
40	0xbe549c24	-0.20762688
41	0xbe772689	-0.24135794
42	0x3e2ba0e4	0.16760594
43	0x3e3f3583	0.18672757
44	0x3e400ade	0.18754146
45	0xbdebc5a5	-0.11512307
46	0xbe00cf5b	-0.125791
47	0xbe853e92	-0.260243
48	0x3e256f2b	0.16155688
49	0xbd3b36ba	-0.04570649
50	0xbd8bcba9	-0.068259545
51	0xbd1f7c55	-0.03893693
52	0xbc7ae390	-0.015313044
53	0xbe14a0a7	-0.14514409
54	0x3e50e77a	0.20400801
55	0xbe15bfa1	-0.14623882
56	0x3e334760	0.17507696
57	0x3e61088c	0.21975917
58	0x3db41e51	0.08794845
59	0xbde6f7cf	-0.112777345
60	0x3e0abaa5	0.13547762
61	0xbdd5a35c	-0.10431549
62	0x3e1479c0	0.14499569
63	0x3d535a01	0.051599506
64	0xbe1ec5a0	-0.15505075
65	0x3e4afe68	0.19823611
66	0xbc6df32b	-0.014523308
67	0x3c024467	0.007950879
68	0xbdbea611	-0.093090184
69	0x3dac9b07	0.084280066
70	0xbd81bbb5	-0.063346304
71	0xbe3b5a14	-0.18296081
72	0xbda1fd85	-0.07909683
73	0xbe08bd08	-0.1335336
74	0xbdc814d1	-0.097695954
75	0xbd728dbb	-0.059217196
76	0x3c637253	0.0138822375
77	0xbbaa2e4b	-0.005193507
78	0x3e0196be	0.1265516
79	0xbd02b760	-0.03191316
80	0xbeee4938	-0.46540236
81	0xbf0a81d1	-0.54104334
82	0x3eae6f53	0.3406931
83	0x3ec93388	0.39297128
84	0x3ed85ce8	0.42258382
85	0xbe9c4c44	-0.30526936
86	0xbe4a95c4	-0.19783694
87	0xbf0928b7	-0.5357775
88	0x3f008c24	0.5021384
89	0xbd8a869b	-0.06763955
90	0xbe753e88	-0.23949635
91	0x3c18cdc5	0.009326403
92	0xbd77eb65	-0.060527224
93	0xbee6a1ec	-0.45045412
94	0x3eb09460	0.344882
95	0xbeabfba2	-0.33590418
96	0x3eb06100	0.34449005
97	0x3eea27d2	0.45733505
98	0x3e757bb1	0.23972966
99	0xbea8ddd3	-0.32981738
100	0x3eba9c80	0.36447525
101	0xbee3d2fd	-0.4449691
102	0x3e8e4375	0.2778584
103	0x3e1f64c8	0.15565789
104	0xbeac1273	-0.33607826
105	0x3eb933c4	0.36172307
106	0xbdef3b96	-0.11681287
107	0x3d273f44	0.04083182
108	0xbdf8999c	-0.12138674
109	0x3e86fa46	0.26362818
110	0xbea012c6	-0.31264323
111	0xbf002e81	-0.5007096
112	0xbe5c9072	-0.21539477
113	0xbedb4ee0	-0.42833614
114	0xbe4836a9	-0.19552101
115	0xbd9c83be	-0.07642315
116	0xbd5098dd	-0.05092703
117	0x3e08f30a	0.13373962
118	0x3ebb6ecf	0.36607978
119	0x3d03a3c0	0.032138586
120	0xbebf4799	-0.37359312
121	0xbecce0ea	-0.40015346
122	0x3e88f865	0.2675201
123	0x3ebfccd0	0.37460947
124	0x3ed90df9	0.42393473
125	0xbe95e68b	-0.29277453
126	0xbe126b9b	-0.1429886
127	0xbe896a79	-0.26839045
128	0x3ebd441b	0.36966023
129	0xbd8c072b	-0.06837305
130	0xbe0691f6	-0.13141617
131	0x3da9304a	0.082611635
132	0x3b587185	0.0033026647
133	0xbe985923	-0.29755506
134	0x3e1f25d2	0.15541771
135	0xbefb5130	-0.4908538
136	0x3e94c356	0.2905528
137	0x3eac3b73	0.33639106
138	0x3e09d69f	0.13460778
139	0xbe27c55a	-0.16383877
140	0x3e97a7d1	0.2962022
141	0xbe8d9a83	-0.27656946
142	0x3eff6c02	0.4988709
143	0x3e23c5d5	0.15993436
144	0xbeb2b5b3	-0.3490425
145	0x3ef9e9da	0.48811227
146	0xbc86ba8a	-0.01644637
147	0x3d9a9bab	0.075492226
148	0xbd63aa2c	-0.05558221
149	0x3e2f00b2	0.17090109
150	0xbe6ec61a	-0.23317757
151	0xbea7e17f	-0.32789227
152	0xbe531baa	-0.20616022
153	0xbeb8b816	-0.36077946
154	0xbe2e8b65	-0.17045362
155	0xbcb4039b	-0.021974375
156	0xbd8abee5	-0.067746915
157	0x3da4a402	0.080390945
158	0x3e6b746d	0.22993632
159	0x3ca669ea	0.020314176
160	0x3cfeb6ac	0.031092964
161	0xbb3b8638	-0.0028613936
162	0x3d62031b	0.055178743
163	0xbdca82e5	-0.098882474
164	0xbd51ab35	-0.051188666
165	0xbd2c8fdb	-0.04212938
166	0xbe1101f9	-0.14160909
167	0xbc573d43	-0.0131371645
168	0x3d678ad9	0.0565289
169	0x3dd5e4d6	0.104440376
170	0xbda69a43	-0.08134892
171	0xbe0a429b	-0.1350197
172	0xbde486f9	-0.111585565
173	0xbd30da0f	-0.043176707
174	0xbba13ed0	-0.004920818
175	0xbc79a66a	-0.01523743
176	0xbdb8e22e	-0.09027515
177	0xbd06383a	-0.032768466
178	0x3d92e5ab	0.07172712
179	0xbcfb1bed	-0.030652964
180	0xbd955999	-0.0729248
181	0x3d356821	0.04428876
182	0x3d1250d1	0.035721604
183	0xbe3e2294	-0.18567878
184	0xbdbd7562	-0.092509046
185	0xbc553c88	-0.01301492
186	0x3e008d81	0.1255398
187	0x3e20f6d6	0.1571916
188	0x3e2869fc	0.1644668
189	0xbe37334c	-0.17890662
190	0xbe1620e8	-0.1466099
191	0xbd9e13c8	-0.07718617
192	0xbe2349a4	-0.1594606
193	0x3d040337	0.03222963
194	0xbcabef49	-0.020988123
195	0xbd6a6e2b	-0.05723397
196	0xbe26e363	-0.16297679
197	0x3e42c8b8	0.1902188
198	0x3b0abdeb	0.002117033
199	0x3e13f277	0.14447962
200	0x3db72c94	0.089440495
201	0x3d01fa15	0.031732637
202	0x3e15abce	0.1461632
203	0xbe7cecab	-0.24699657
204	0xbcfd48f4	-0.030918576
205	0xbe2ec99b	-0.17069094
206	0xbea4c77f	-0.32183453
207	0xbd0e2f46	-0.034713052
208	0x3c8a5df0	0.016890496
209	0x3e8c9c40	0.2746296
210	0xbe6d438c	-0.23170298
211	0xbe92b6c1	-0.28655055
212	0xbe95b659	-0.29240683
213	0xbd7df73c	-0.06200336
214	0x3d4b24f9	0.049595807
215	0xbda12515	-0.07868401
216	0xbdac80e3	-0.08423021
217	0xbd3bacb8	-0.045819014
218	0x3cb0d741	0.021587016
219	0xbe0b3fd8	-0.13598573
220	0xbeb3d49d	-0.3512315
221	0x3cd1cde1	0.025610866
222	0x3e1a718a	0.15082374
223	0xbefe1b2c	-0.49630105
224	0xbe6ad7f1	-0.22933938
225	0xbdb22f20	-0.08700395
226	0x3eae3d89	0.34031323
227	0x3ee8524b	0.45375285
228	0x3ea28f61	0.31750014
229	0xbeb92431	-0.36160424
230	0xbe7e2ca3	-0.24821715
231	0x3e090779	0.13381757
232	0xbe5141b8	-0.20435226
233	0x3c6c1653	0.014409619
234	0xbdf6b27f	-0.12045764
235	0xbe4a7727	-0.19772016
236	0xbed5206e	-0.41626304
237	0x3eeadf37	0.45873424
238	0x3d81356a	0.06309016
239	0x3ecc9a1c	0.39961326

bias f4 [6]
0	0x3e153fe7	0.14575158
1	0x3d198c8e	0.03748756
2	0x3c83a032	0.016067598
3	0x3e18c113	0.14917402
4	0x3d0d2549	0.034459386
5	0x3e463666	0.19356689
