models/480/state_dict.pt (torch_old, 25727 bytes, 10 tensors)

lstm.weight_ih_l0 f4 [80, 10]
00000000: a732 40be 2584 7d3e 51cf f2be 927d f73e
00000010: 7272 833e dc8e 383f fcf6 c8be 020e 0b3f
00000020: 5007 673f bec7 f3be aa70 08be 3f38 e4be
00000030: b15b 92bf 6adc 883f faeb 8f3f 0161 06bf
00000040: 575b 413f cfb5 8d3f eb74 2fbf ce6c d43e
00000050: c4b1 0b3f c66c 84bf ce8b 2ebf d742 ce3e
00000060: b182 573f a9bd 88bf 5c86 793f 56f5 f03e
00000070: b83d 98bf b1f7 833f 98d3 583d fc6c c9bd
00000080: 9e50 bd3d 0a83 9dbd c3b2 c93d 16e8 7b3d
00000090: 5852 5c3d 7f7b b23e 96c5 aa3e c518 c2bd
000000a0: 53ab d0bd 52be 1d3e 1e11 f0bf 9e76 bb3f
000000b0: 04c2 bb3f 4883 2e3e f5b0 97be 5849 b53f
000000c0: 36dc 7d3e 1810 d4be 8c34 993e 883e 173d
000000d0: 7f0f 05bf dfe6 cf3e 9b50 7f3e 154e f6be
000000e0: 1d2c 4f3e 7289 aa3e ece5 40bf c12b 2a3e
000000f0: f911 013e d4a4 31bf 19a0 61bf 3266 573f
00000100: a1ff 1b3f 3097 50bf 220e 3d3f 80bb 3c3f
00000110: 3c3f 36bf a88d 033f c0ab ffbd 28c1 04bf
00000120: 34fc a53e 1552 00bf 1af3 843d d7c7 c6bc
00000130: e8b8 8e3e 0464 973c 0f39 6cbe adc1 ae3e
00000140: 241a 57be f479 2bbf 67ed 94be 2b97 b83e
00000150: 9243 7e3e ac44 6ebf 040a 043f b398 e23d
00000160: 658e 45bf e808 033f e2e8 a2bb 4ae3 7b3f
00000170: a50c 6a3f 5ffc 2dbf e8dd 18bf 3b8f 403f
00000180: e7d3 1dbf 2ce0 47bf 3a49 7c3f f579 ddbe
00000190: e0e0 58bd a265 8abf 7da7 4d3e a8d3 7fbc
000001a0: f306 96be 8440 54bf 89dc 2f3f e638 53be
000001b0: 58f1 08bf e979 e63e 81e8 f1be c830 8abf
000001c0: bdb8 33bd 5896 ae3d 2eba e93e ba6d a7bf
000001d0: 1e5c 9b3f 72b2 763e e417 c1bf 6093 703f
000001e0: 692b 29bf a502 b7be 488a 2ebe ec61 333e
000001f0: 15dd 083e bf81 52bf 6548 453f 42e8 6d3e
00000200: 1c9b 54bf 769b 323f 4fe8 10be f358 7bbe
00000210: 1aa7 5c3e dce1 17be a42b 0fbe 387f 8ebe
00000220: 7bf7 a53d 4e04 2abe 726b 9ebd f821 8d3e
00000230: 7861 e9be c14e fcbe bf6d 0140 3861 cbbf
00000240: d38c edbf d45f 6dbd 9279 473e 110f eabf
00000250: 4978 18be 6fe1 d43e f736 ccbe 213d f2be
00000260: 8378 4bbf e0b0 0f3f 3e15 f03e e8a9 52bf
00000270: 21fb a33e 4294 543f 0169 1fbf 600b e43e
00000280: c223 8abd ecdb e83e 816d 0740 ad96 c4bf
00000290: 0f13 04c0 4f2e 2c3e e232 4bbe ac61 ebbf
000002a0: a392 e43e f49a b2be d5bd 453e aa26 38bf
000002b0: ed97 953f 2f24 26bf 07b0 78bf 33ce d8be
000002c0: c931 443f 6b9b 63bf 229b 44bf e2b8 023f
000002d0: e8c9 a4bc 4921 0c3f bd6e 9e3f f67e 98bf
000002e0: b26f 91bf fd7a ea3e 4f63 2cbe 0963 97bf
000002f0: 4053 4e3e b4ef 51be e16a 0ebe a389 86be
00000300: ac52 82bf 58b9 523f e4ab 4f3f 1a71 31bf
00000310: 1af3 e33e 24f8 533f a22f 21bf 395e 323f
00000320: f01c 413d 1c94 273e a0c8 f23b 1837 66bd
00000330: 6c73 f13d f0e7 4dbc 5048 0ebe c012 123b
00000340: 004e 03bb 84db b03d 8ba6 ddbd ca15 2f3e
00000350: 1009 3d3e 8076 503d 544a 53be e14b 4abe
00000360: bcec 93bd 4ee6 583e 549b 1dbd 649e 363e
00000370: b75e 5bbe 3326 2abe ae01 d8bd 9630 e9bd
00000380: 516c f9bd 80fc c53d 28c3 243e 0424 cc3d
00000390: da3b 09be 8aa2 c8bd 18df 063d 725e 25be
000003a0: 3f6c 5abe ce4d 18be 2c7e dfbd 5aba 073e
000003b0: 889a abbd 521d 2d3e 6c9d ba3d 40b4 623c
000003c0: 3eee efbd b590 e9bd bcbd 9cbd d4ee a0bd
000003d0: c8f7 0d3e b270 1d3e 8047 c93b 788c 40be
000003e0: 706b 54bd e54f 08be fc58 113e dc90 c53d
000003f0: 1c34 17be 0026 e13c c02f 553e 6812 753d
-0.18769322 0.2475744 -0.47423795 0.4833799 0.25673252 0.72092986 -0.39250934 0.5431825
0.90245533 -0.4761333 -0.13324228 -0.44574162 -1.1434232 1.0692265 1.1243889 -0.52491766
0.7553 1.1071109 -0.6853778 0.4148926 0.54568124 -1.0345695 -0.68182075 0.4028537
0.84183794 -1.068288 0.9747064 0.47062176 -1.1893835 1.0309964 0.052936167 -0.0983524
0.09243892 -0.07691009 0.09848549 0.06150063 0.053789467 0.34859845 0.3335387 -0.09477381
-0.101889275 0.15404633 -1.8755224 1.4645574 1.4668584 0.17042267 -0.29627195 1.4163008
0.24791035 -0.4141853 0.29922903 0.03692487 -0.5197677 0.40605828 0.24933092 -0.48106447
0.20231672 0.33307987 -0.7535083 0.16618253 0.12604512 -0.6939213 -0.88134915 0.8414031
0.60936934 -0.81480694 0.7384969 0.737236 -0.7119024 0.51388025 -0.124839306 -0.51857233
0.32418978 -0.5012525 0.064916804 -0.024265213 0.27875447 0.018480308 -0.23068641 0.34132138
-0.21006066 -0.6698296 -0.29087374 0.36052832 0.24830464 -0.93073535 0.5157778 0.11064281
-0.771704 0.51185465 -0.0049716095 0.9839369 0.91425544 -0.6796321 -0.597136 0.7521855
-0.6165146 -0.78076434 0.98549235 -0.43257108 -0.052948833 -1.0812266 0.20083423 -0.015614428
-0.29302177 -0.82910943 0.68695885 -0.20627174 -0.5349326 0.45014885 -0.472477 -1.0796137
-0.043877352 0.085247695 0.45649856 -1.3080361 1.2137487 0.24091509 -1.5085416 0.93974876
-0.66081864 -0.35744205 -0.17044938 0.17517823 0.13365586 -0.82229227 0.7706359 0.2323313
-0.8304918 0.69768465 -0.14151119 -0.2454565 0.21548119 -0.14832252 -0.13981491 -0.27831435
0.08103844 -0.16603205 -0.07735337 0.2756498 -0.45582175 -0.49278834 2.0223234 -1.5889044
-1.8558601 -0.057952717 0.19479969 -1.8285848 -0.14889635 0.41578242 -0.39885685 -0.47312263
-0.7948076 0.56129265 0.46891207 -0.82290506 0.32027534 0.83038723 -0.622696 0.44539928
-0.067451015 0.45480287 2.1160586 -1.5358483 -2.0636632 0.1681454 -0.19843629 -1.8389182
0.44643125 -0.34883845 0.19310696 -0.71933997 1.1686989 -0.6489896 -0.97143596 -0.42344818
0.76638466 -0.88909024 -0.76799214 0.5106336 -0.020115808 0.5473829 1.2377545 -1.1913745
-1.1362212 0.45796958 -0.16834758 -1.1827098 0.20148945 -0.20501596 -0.13907959 -0.26276883
-1.018148 0.8231406 0.8112166 -0.69313204 0.4452141 0.8280051 -0.62963307 0.6967502
0.047146738 0.16365093 0.0074091703 -0.056204885 0.11789593 -0.012567505 -0.13894773 0.0022289008
-0.0020035505 0.08635619 -0.10822781 0.17098156 0.18460488 0.05089426 -0.20633823 -0.19755508
-0.07222888 0.21181604 -0.03847821 0.17833859 -0.2142285 -0.16616134 -0.105471954 -0.1138622
-0.12178863 0.09667301 0.16090071 0.09967807 -0.13401738 -0.09796627 0.032927603 -0.1614931
-0.21330355 -0.1487343 -0.10912737 0.13254681 -0.08379084 0.16905716 0.09112057 0.01383692
-0.11715363 -0.11404554 -0.076533765 -0.07858053 0.13864052 0.15375021 0.0061425567 -0.18803585
-0.051860273 -0.13311727 0.14194101 0.0964677 -0.14765972 0.02748394 0.20818996 0.059832007

lstm.weight_hh_l0 f4 [80, 20]
00000000: 8ce5 be3d 3421 ee3d b0ba f13c 4851 7b3d
00000010: 2cc7 abbd e0d0 b33b 7a9b 223e 70b2 5f3e
00000020: f8a5 003d 0a21 2c3e 6e21 aebd 88ec d8bc
00000030: e0ed a03d 2a22 40be ec6b 58be bb0c e5bd
00000040: 945d 5abe c066 873d c093 ef3c 6a6b a0bd
00000050: 78cf 0f3e b067 293d a9c1 49be 90c3 7cbd
00000060: fc36 1dbd 1c0b 3cbd 40f5 21bd 24c8 e43d
00000070: a4e4 27be 4aa8 fbbd 847c 44be ec67 443e
00000080: dc5e e33d 4cab e13d 706f 49bd 5413 863d
00000090: 7035 473c 705c f73d baef 333e faad 0ebe
000000a0: e877 73bd d662 17be 5a7f 0c3e 101b 043c
000000b0: 2adf abbd c49e e8bd 7089 b53d 4fee e4bd
000000c0: 5173 3abe 18b2 673d 38f5 56bd 97ab cdbd
000000d0: d230 0f3e c8ab 093e e9ac 5dbe e489 28be
000000e0: 3e02 363e 3c2c c43d 5ae3 443e 58d3 903d
000000f0: eefb 2cbe 5420 f83d 98dd c93d 410f 05be
00000100: 0a13 3c3e e05d e0bb 2c09 58be 6038 66bd
00000110: 6463 02be 3427 17be b0b0 e13d 101d 7d3d
00000120: f03d 2cbe 248a 53be d8de 01be 4864 2d3e
00000130: 7e5d 383e 80a4 a93b 9ef4 27be ca38 043e
00000140: 54e8 0cbd 52ae 83bd ff42 1fbe 268f 063e
00000150: 1009 3ebd c4c3 513e 5091 64bc 2745 5bbe
00000160: 3a21 393e b045 d33d 20c6 1bbe 34c6 4e3e
00000170: 2975 35be 76c7 0cbe 5667 16be 9675 613e
00000180: fc9c 343e 341f 16be b524 15be 8054 a63d
00000190: 3eb9 123e 909d fa3d dab5 8bbd 5f2c 1cbe
000001a0: f221 1a3e c080 27bb 8884 fdbc 1871 6f3d
000001b0: 5c26 523e a4c7 273e 64e4 5a3e 485a 14be
000001c0: 6063 773c 1039 fe3c 012b 34be 1029 a63d
000001d0: 040d bd3d 000f 15bd 6052 ba3d 3e6f 89bd
000001e0: 6399 3fbe 98a4 d53d a92c dabd 2e9b 643e
000001f0: be88 5c3e 60ed 01bc f2c3 523e d0c9 acbd
00000200: c415 64bd ec0e 75bd 1b24 dabd 00da 01be
00000210: 5aff 0ebe 4ebf 133e 6e0d 493e 84b2 3f3e
00000220: 3020 373e 442c 13be 18da 5abe a0bd 533d
00000230: 881c 4b3e 8864 853d 5079 59bd ca06 2bbe
00000240: 4c08 4cbe d975 d2bd 40a7 d93b 48f4 353e
00000250: 9441 45be e459 dd3d b8c0 ce3d 367f 5a3e
00000260: 4067 d73b 5cce 883d 34f6 60bd c6b8 60be
00000270: 9a5f 563e 765e 0f3e 91a3 fcbd 209e 55be
00000280: 4063 64bd c08d 83bc b455 78bd 0ae2 303e
00000290: 86e6 98bd 541d 173e 80ee ca3d 0006 e6b9
000002a0: be84 4c3e dc9a 843d f8b4 14be 2094 a9bb
000002b0: d00b 11bc 7a5c 333e c018 413e 60da e33c
000002c0: c7b0 44be f82b 28be 209c 133d a08f 76bc
000002d0: 6ec5 87bd e012 61bc b8dd 2ebe 9ced 15bd
000002e0: 5aa9 55be 4069 c7bc 5faf dbbd b3c8 cdbd
000002f0: 0447 09be d0d8 da3d 1425 273e 401d 68bb
00000300: cfe3 4cbe 48b7 9cbd d838 03bd c496 2cbe
00000310: d816 34be 3f8a 47be a02b 233e a812 23be
00000320: a011 963d 6833 8cbc c651 313e d45a 5dbd
00000330: 2091 7f3c 983f 4e3e 64c0 0fbe 90b2 c2bc
00000340: 14af 803d 3436 1cbd a9a7 41be 630a 22be
00000350: 3c49 69bd 962f 4b3e 0456 9f3d 984b edbc
00000360: 5236 063e 00d2 d53d d81e 2a3e da56 1b3e
00000370: 1abc 0e3e 9012 f53d ca62 1a3e f48d 31be
00000380: 364b c2bd f04d 1bbd c426 3b3e a0a0 bbbd
00000390: f6ef 533e ee35 5dbe 50b1 d93c c0c3 c63c
000003a0: b86f 3bbd 9874 f9bc ff54 32be 2447 9d3d
000003b0: 304e 53be df52 58be 68d9 47bd da66 16be
000003c0: 70b7 843c a0c3 2c3e 988c a7bd 24a8 b83d
000003d0: a0eb 83bd f44b 8a3d 881b fa3d 08e2 723d
000003e0: d093 883d 7c1b 5abe 46df 163e 801e e6ba
000003f0: 08de 063e 2813 ea3d 30ba 23be a641 8dbd
0.09321126 0.11627427 0.029507965 0.061356813 -0.083875984 0.0054875463 0.15879622 0.21845412
0.03140828 0.16809478 -0.0850247 -0.026479974 0.07857871 -0.18763033 -0.21134919 -0.11184069
-0.2132476 0.06611395 0.029245257 -0.078329876 0.14043987 0.04135865 -0.19702782 -0.06170994
-0.038382515 -0.045909032 -0.03954053 0.11170986 -0.16395813 -0.12287958 -0.19188124 0.19180268
0.11102077 0.110190004 -0.04917854 0.06546655 0.012158737 0.12078178 0.17571917 -0.13933554
-0.059440523 -0.14783797 0.13720456 0.008063093 -0.083921745 -0.11358407 0.08864105 -0.11178266
-0.18208052 0.056566328 -0.052479953 -0.10042494 0.13983467 0.13444436 -0.21647991 -0.16458851
0.17774293 0.095787495 0.19227353 0.070715606 -0.16892979 0.12115541 0.09856719 -0.129941
0.18366638 -0.0068471283 -0.21097249 -0.056206107 -0.12733227 -0.14761049 0.110200286 0.061795294
-0.16820502 -0.20658165 -0.12682664 0.16932786 0.18004414 0.0051770806 -0.16401908 0.12912288
-0.034401253 -0.06429733 -0.155529 0.13140544 -0.04639536 0.20484835 -0.013950661 -0.21413098
0.18079081 0.10316026 -0.15212297 0.20192796 -0.17720474 -0.13747963 -0.14687857 0.22017512
0.1763801 -0.1466034 -0.14564784 0.08121586 0.14328477 0.12237084 -0.06821795 -0.15251301
0.15052012 -0.0025558919 -0.030946985 0.058457464 0.20522445 0.1638475 0.21376187 -0.14487565
0.015099376 0.031033069 -0.1759453 0.08113301 0.09230998 -0.03639126 0.09097743 -0.06710671
-0.18710856 0.104317844 -0.106530495 0.22324821 0.21536538 -0.00793013 0.2058256 -0.0843693
-0.05568482 -0.059828684 -0.10651418 -0.12680817 -0.13964596 0.14428446 0.1963403 0.18720442
0.17883372 -0.14372355 -0.21372259 0.051694512 0.19835103 0.065133154 -0.05309421 -0.16701809
-0.1992504 -0.10276384 0.006642252 0.17768967 -0.19263297 0.10808161 0.10095352 0.2133759
0.0065735877 0.06679985 -0.054922298 -0.21945485 0.20934907 0.14000878 -0.12335885 -0.20861101
-0.055758715 -0.016058803 -0.060628608 0.17273727 -0.07465844 0.14757282 0.099087715 -0.0004387349
0.19972512 0.064748496 -0.14522159 -0.0051751286 -0.008852914 0.17515746 0.18857098 0.02781409
-0.1920806 -0.16423023 0.036037564 -0.015048891 -0.066294536 -0.01373741 -0.17076766 -0.036603555
-0.20865384 -0.02434218 -0.10726809 -0.10048046 -0.13405997 0.10685885 0.16322738 -0.0035417825
-0.20008777 -0.076521456 -0.032036632 -0.16854388 -0.17586839 -0.1948633 0.1593461 -0.15925086
0.073275805 -0.017114356 0.1731635 -0.0540417 0.015598565 0.20141447 -0.14038235 -0.023766786
0.062833935 -0.03813763 -0.18911614 -0.15824275 -0.056954607 0.19842371 0.07780078 -0.02896671
0.13106659 0.10440445 0.16613328 0.1516985 0.13938943 0.11966431 0.15076748 -0.17339307
-0.094870016 -0.037916124 0.18276507 -0.09161496 0.20697007 -0.21602604 0.026573807 0.024263263
-0.04576084 -0.030451104 -0.17415236 0.076795846 -0.20635295 -0.21125363 -0.04879132 -0.14687672
0.016200751 0.168715 -0.08181113 0.09016445 -0.06441426 0.06752768 0.122122824 0.05929759
0.06668818 -0.21299547 0.1473361 -0.0017556697 0.13170636 0.11429435 -0.15988994 -0.06897287

lstm.bias_ih_l0 f4 [80]
00000000: 15d9 af3f ddec 0dbd 6728 b43e 6f32 ab3f
00000010: 1d6f 20be b9ca 87be dff3 1abc 6637 be3f
00000020: a6b3 9a3f 0e79 a23e 60a7 483f b8d4 c5be
00000030: 54f6 5cbf 84c8 b33f 0f54 71bd ab6d 223c
00000040: 7ce1 2e3e a00b 393e 9dfc e93d 9a16 343f
00000050: 1e3b 12be 0428 14bd 3876 0e3d eccc 91bd
00000060: ecfe 01be 27b2 e2bd b49a ee3d a057 aabb
00000070: b831 bc3d a0a6 22bc 321d 463e 6eea f1bd
00000080: 400b cfbc c60d 063e b229 d1bd 14aa 08be
00000090: 4cbe fa3d 62ff 25be d018 32bd 883b 51be
000000a0: dbf8 a4be f7a3 8ebd 1206 ed3e 2492 1abf
000000b0: 2eac b23d 9dd3 d9be 5dbb 313e 2172 2d3f
000000c0: e325 683e d232 9b3e f7a2 0dbe 6959 cebe
000000d0: eeeb 2cbd aca7 ee3e 8c3e ecbe e136 01bf
000000e0: dc2c 823e 0c9f 11be 6ce2 96bb a2ed 26be
000000f0: 7975 a13f 0e99 e6bc ff53 a93e 6b6c 5b3f
00000100: 71b6 c8be 77e5 dfbe f785 4fbd 54b6 bd3f
00000110: a49a 3a3f 806e c23e f162 1e3f a55c 9ebe
00000120: e1d9 6fbf dd30 bd3f 6ee8 3fbb 14d5 d83d
00000130: 6b95 083f 10a6 883e 2b03 8ebe 8c16 ee3e
1.3738123 -0.03464972 0.35187075 1.3374766 -0.15667386 -0.26521853 -0.009457557 1.4860656
1.2086074 0.31732982 0.78380394 -0.38638854 -0.86313367 1.4045568 -0.058918055 0.009913842
0.17078203 0.18070841 0.11425135 0.7034699 -0.14280364 -0.036170974 0.03478071 -0.07119164
-0.12694901 -0.11069136 0.11650601 -0.005198434 0.091891706 -0.009927422 0.19347075 -0.11812292
-0.02527392 0.13091192 -0.10213031 -0.1334613 0.122433275 -0.16210702 -0.043480694 -0.20432866
-0.32221112 -0.069648676 0.46293694 -0.6037924 0.08724247 -0.4254426 0.1735663 0.6775227
0.22670703 0.3031221 -0.13831697 -0.4030259 -0.042217188 0.46612298 -0.4614147 -0.50474364
0.2542485 -0.14220828 -0.0046046283 -0.16301587 1.2613975 -0.028149154 0.33071896 0.8571231
-0.39201692 -0.43729755 -0.05066487 1.4821267 0.7289221 0.3797493 0.6186972 -0.30930057
-0.9369183 1.4780537 -0.0029282826 0.105875164 0.53352994 0.26689196 -0.27736792 0.46501577

lstm.bias_hh_l0 f4 [80]
00000000: 8deb b53f 4028 3339 5f48 193d 982e 983f
00000010: 51fb 08be 78d7 dd3d b2c8 553d 4a00 ad3f
00000020: cb6c 4f3f 4a19 d93e 946d 853f a907 14be
00000030: 9238 5bbf f554 a53f cea8 343d b00d 2b3e
00000040: db95 733d dac3 993e 197f 1f3c 67a2 023f
00000050: 08e5 a03c 94bb 5a3e 36a6 513e 71d7 64be
00000060: ac15 063e f0d9 acbc b03a 4b3e f239 103e
00000070: 8060 353c d830 bb3d 60fc 99bb d0fc 273d
00000080: ac68 27be 1a90 9fbd 24c1 cfbd 96bc 5bbe
00000090: 80f8 8e3d 2ee1 013e 7e7c fcbd 7e00 babd
000000a0: 7707 dbbe 1067 c9bc dfba 2c3f 6852 ccbe
000000b0: 0a0a f23d fe94 cfbd abf4 b53e d3eb 113f
000000c0: 9947 133f 9bae a73d 4438 8fbe 5191 a7be
000000d0: 8dc5 203e bd67 153f f0e7 83be 2069 2ebf
000000e0: 278d 813e 5247 81be a988 99be 8832 8cbc
000000f0: 5500 bc3f 9bda 02be 7a5a 7c3e 6dfc 1e3f
00000100: db9f 99be 8b96 3cbe 37dc 623e f6fe cc3f
00000110: bfc9 b73e efe7 9c3e c4b2 e43e 086b a8bd
00000120: 2508 15bf c9da ab3f 768c 80bd 9e38 a13e
00000130: 43ac 993e ad78 dc3d b91d f6bd 4fda 313f
1.4212509 0.00017085765 0.037422534 1.1889219 -0.1337712 0.10832113 0.05219335 1.3515713
0.8102538 0.42402107 1.0424066 -0.14456047 -0.85633194 1.2916552 0.044106297 0.1670444
0.059469085 0.30032235 0.009734892 0.51029056 0.01964046 0.21360618 0.2047356 -0.2234781
0.13094205 -0.021100014 0.19846606 0.14084604 0.011070371 0.091401756 -0.004699275 0.041012585
-0.16348523 -0.07791157 -0.101442605 -0.21458659 0.06980991 0.12683555 -0.123284325 -0.09082125
-0.42779133 -0.024585277 0.6747264 -0.3990662 0.11818321 -0.1013584 0.3553823 0.57000464
0.57531124 0.081876 -0.27972615 -0.32728055 0.1570036 0.5836142 -0.25762892 -0.6812916
0.25303003 -0.25249726 -0.29987076 -0.017113939 1.4687601 -0.12778704 0.24643889 0.6210392
-0.30004773 -0.18416803 0.22154318 1.6015308 0.35896108 0.306457 0.44667637 -0.082235396
-0.5821555 1.3426143 -0.06276791 0.31488508 0.30014238 0.107652046 -0.12017388 0.6947374

lstm.weight_ih_l1 f4 [80, 20]
00000000: a461 c73d f1d6 a7bc ac4d efbc d5c4 543e
00000010: 36bd 4b3d 7b6d e13c 68bf abbb 1b58 f73d
00000020: 4f05 ba3d b360 aabd 9135 453e bfeb 81bd
00000030: 0ad0 3e3d cd83 f3bd 11eb 3f3e fbcc a83d
00000040: 6876 75bb 99ed 7bbe 3a4d 1cbe 3cf0 23be
00000050: c451 4ebe 6627 c43c a10e 2abf 4bce 413e
00000060: add4 573d 8646 35be bc48 3fbf 70d8 eebe
00000070: 5dea d4bd bab6 c5be 4025 e7be 0ce0 543f
00000080: d629 38bb 4f20 85bd 15a7 2f3e a83e e03e
00000090: 5797 03bf 7bcb 4e3f e9d3 943f 3507 0d3f
000000a0: 5f07 bebe 6e9e bf3e 55eb 28bf 7a20 253e
000000b0: 697c 673f 8d28 c63e 8ffe ffbc aa00 62bf
000000c0: 4ed0 d6bf 1aa6 ac3f 3fde 83be 8568 123e
000000d0: 212d 783e d2e9 91bf 86ec a1bf adba fdbd
000000e0: fe09 9a3f 8996 69bf 7404 71be a85b bf3c
000000f0: 2967 e0be 1f41 a1bd b964 1dbf 9804 ed3e
00000100: c911 01be b216 113f 46d1 aebe ad69 b43e
00000110: 492a 093e 420a ec3e cd3d 333f 9a6b cdbe
00000120: 2afa 263f 7a95 0cbe 211f 30be 0096 ff3e
00000130: 1271 1fbe 441d d53f 6e72 bdbd 339f ac3e
00000140: 391d 09c0 6bb6 6a3d 4d37 b3bf 6019 103f
00000150: ec9b 993f ebc0 093f ac62 c7be 93ad 923d
00000160: 453c cebf 3321 4abe 138c 8ebd be58 99bd
00000170: 7889 0f3e bc47 5ebf 2743 5dbf 6c8c 1b3e
00000180: 8077 063d 0f74 5b3f 9464 05bf 4681 be3e
00000190: e0d7 c0bf 033a 053f 823c 56bf 3f3c 00be
000001a0: 665e d93f 351d 5bbf bc24 7b3e 7250 40bf
000001b0: 5191 91bf a331 61bf adf0 a5be 8cb6 0f3f
000001c0: d9e0 85bf 4d3a 4bbf 9cbc c8bf 8f14 c03d
000001d0: 3c90 61bf 6b94 eabe 7171 4c3f c74d 58bf
000001e0: a382 343f 639c 9dbf 4a9e 6cbf 58e5 0fbf
000001f0: 7ca1 7dbf 1e1b cc3e f397 86bf f02b f63e
00000200: 0f6a fabd 3349 0fbe f1be 3c3f 99e5 76bf
00000210: 2cdf 443f 6714 043f 461b ed3d 886c 9c3f
00000220: 8ddf 1c3f 596c 053f efb4 9abf 75d9 573f
00000230: 5b13 1b3f d80b 1ebf 0b6e fdbf eb6b 9ebf
00000240: 7417 c5be 969b 273f 4721 d6bf bb6c d33e
00000250: 6d60 1bbf 4a5a 6bbd 421f 44be 8f1d 7cbf
00000260: 9bee 7a3f c474 f43e 196c 8d3e eb9c db3f
00000270: a3ae e33e 8459 983e 4918 1abf 08dc bf3f
00000280: bed7 79be 936c 803e 8e01 983e e1e8 49be
00000290: 7c74 483e f770 17be 8292 b93e d4f5 24be
000002a0: 61d0 d3bd c1cc 1abb 8d6e 90be 5808 2d3e
000002b0: 9e72 00be ed3e 15be 826d 1abe 78d4 3bbe
000002c0: faa4 cb3d 2198 b63d 65da 183d 8cdf 5c3d
000002d0: 9eba 643c 1747 d6be d1de f63d b192 f33e
000002e0: 5b80 47bf 447b 73be 0d49 1ebf 0357 c1be
000002f0: f0ff 05be 2eec 213f 3370 bebf 8320 7c3f
00000300: bd53 81bf 2cd1 023c 3dc3 46bf 1764 0c3f
00000310: c013 fa3d 3a7d 9fbf f92d 9d3e b699 3e3f
00000320: 8eec 603e 578f bfbe 9f39 013f 0a9e b8be
00000330: 05e7 29bf 5178 efbd 1c28 8a3e 3d8e 0c3f
00000340: 7cae c23f 91c2 663f 591a c33e 970d 4fbe
00000350: f971 6b3e f898 583f 6446 0440 47c9 b9bc
00000360: 9934 063f dd40 91be 74a5 51bf 0ce0 9f3d
00000370: 4772 ba3e 25a3 77bf b449 adbe d128 08be
00000380: 5cd8 21bf 8135 383f 36c9 e3be eeff 623f
00000390: 4f92 123f 84dd bdbe c00a a13f 6ce3 63bf
000003a0: 2538 683f d6ed 323f 1e25 453e 535a 373f
000003b0: 49f1 d3be cdac 223f 225e 34bc cab8 f33e
000003c0: aa80 3a3e 6b21 48bd c075 9a3e 9ac5 89bf
000003d0: b4bd 29bd 6734 29bf fa81 a93f b67e 4c3e
000003e0: bb34 31bd f81b 2abf c686 bdbe 759f 303f
000003f0: 4da4 fabe 63b6 bc3e 4be2 c73e 9a0b aabf
0.0973542 -0.020488234 -0.029211842 0.2077821 0.049740992 0.027518025 -0.0052413233 0.12077352
0.09083044 -0.08319225 0.19258715 -0.06343793 0.04658512 -0.118903734 0.18742014 0.08242222
-0.0037454609 -0.24602355 -0.15263835 -0.16009611 -0.20148379 0.023944568 -0.6642857 0.18926351
0.052693058 -0.17702684 -0.7472036 -0.46649504 -0.10396264 -0.38615972 -0.45145607 0.8315437
-0.0028101108 -0.06500303 0.1715358 0.43797803 -0.514028 0.80779237 1.162717 0.5508912
-0.37115 0.3742556 -0.6598409 0.1612567 0.9042421 0.38702813 -0.031249313 -0.88282263
-1.678232 1.348819 -0.25755498 0.14297684 0.24235965 -1.1399481 -1.2650306 -0.12389121
1.2034299 -0.91245323 -0.23536855 0.023359135 -0.43828705 -0.07873749 -0.61481816 0.46292567
-0.12604441 0.56675255 -0.34144038 0.35236874 0.13395037 0.46101576 0.70016176 -0.40121156
0.6522547 -0.13728896 -0.17199375 0.49919128 -0.15570477 1.6649556 -0.09250341 0.3371521
-2.1424086 0.057302874 -1.4001251 0.5628872 1.2000709 0.53809994 -0.38942468 0.07162013
-1.6112143 -0.19739227 -0.06960311 -0.07487629 0.14017284 -0.8682821 -0.8643059 0.15190285
0.032828808 0.85723966 -0.52106595 0.37208003 -1.506588 0.52041644 -0.8368608 -0.12522982
1.6981933 -0.8559144 0.24525732 -0.7512275 -1.1372472 -0.87966365 -0.32410184 0.5613792
-1.0459243 -0.79385835 -1.5682559 0.09378921 -0.8811071 -0.4581636 0.798606 -0.8449368
0.70511836 -1.231335 -0.9242903 -0.56209326 -0.9907453 0.3986444 -1.0515121 0.48080397
-0.1222726 -0.13992767 0.73728853 -0.9644409 0.76903033 0.5159363 0.115774676 1.2220621
0.6127861 0.5211845 -1.2086467 0.8431619 0.6057641 -0.6173682 -1.9799207 -1.2376684
-0.38494456 0.6547178 -1.6728905 0.41293892 -0.6069401 -0.057459153 -0.19152549 -0.984826
0.98020333 0.47745335 0.27621534 1.7157263 0.44469175 0.29755795 -0.60193306 1.4989023
-0.24398705 0.25082836 0.29688686 -0.19717743 0.19575685 -0.14789186 0.3624459 -0.16109401
-0.103424795 -0.0023620578 -0.28209344 0.16897714 -0.12543723 -0.14574786 -0.15080836 -0.18342769
0.09943576 0.08915735 0.037317652 0.05392413 0.013960509 -0.41851112 0.120542176 0.47572854
-0.7793023 -0.23777491 -0.61830217 -0.37761697 -0.13085914 0.63251007 -1.487799 0.9848711
-1.010368 0.007984441 -0.7764166 0.54840225 0.12210798 -1.2460091 0.30699137 0.74453294
0.21965238 -0.37414047 0.5047855 -0.36058074 -0.6636813 -0.116928704 0.26983726 0.5490454
1.5209498 0.90140635 0.3810604 -0.20220028 0.22992696 0.8460841 2.0667963 -0.022678984
0.5242401 -0.283698 -0.81893086 0.078064054 0.36415312 -0.96733314 -0.33845294 -0.1329682
-0.63220763 0.7195664 -0.4448945 0.8867177 0.572545 -0.37083066 1.2581406 -0.89018893
0.9071067 0.6989416 0.1925244 0.716222 -0.41395023 0.63544923 -0.011008771 0.4760192
0.18213144 -0.048859995 0.3016796 -1.0763428 -0.04144068 -0.66095585 1.3242791 0.19970211
-0.04326318 -0.66448927 -0.37016886 0.6899331 -0.48953477 0.368579 0.39039835 -1.328479

lstm.weight_hh_l1 f4 [80, 20]
00000000: cac2 55be d84a e0bd 48ef a2bc cee0 97bd
00000010: 78e6 9f3d d0b9 233e 440f 843d a8dc 4f3e
00000020: ac6b 9f3d 00fa 01be 547b d73d fdfc 2fbe
00000030: c85e 633d 40c9 6b3b e052 6f3d 6e5c 3abe
00000040: 3c8e 27bd d083 4bbc 70a1 d93d 86c6 10be
00000050: 70f1 05bd 4cca 02be 4a4f a2bd 7836 8a3d
00000060: 0c62 ccbd 1abc 1abe a8e3 873d 50c7 cc3c
00000070: f0e7 4b3e 3393 40be 0a5c 193e 7028 debc
00000080: 7c5c 8e3d 8297 0a3e cde1 24be ded6 3dbe
00000090: 3483 963d a5f2 39be 071c 11be 8297 1a3e
000000a0: 9602 5d3e a038 14bd fc08 26be 02e4 55be
000000b0: b8c8 883d eac5 503e 2831 3e3e b899 833d
000000c0: c01c 83bb 5818 81bc 0057 03be 0ad6 4e3e
000000d0: c802 b4bc 1cda 5bbd 34aa 08be 843f 02bd
000000e0: 3ce2 11be f031 40bd 8029 9dbd 38bd 1f3d
000000f0: a87f da3d c83d 91bd 4c31 bc3d cafb 37be
00000100: f8d3 6bbd 4cbb 223e fab7 36be 085c 8bbc
00000110: 682c db3d f8bd 043d 4455 c6bd 0e88 3e3e
00000120: b20a acbd 3a17 b5bd 2029 0d3d 1a7d 1b3e
00000130: 7e6a 553e fc33 d23d 405a 3e3d d731 efbd
00000140: d08e 283e 8000 e23b 23d0 43be 84b4 b3bd
00000150: 808b deba a051 86bb 387d 4b3e 9220 61be
00000160: 5aa2 0dbe 4466 233e 68cc 263e 6c4f 46be
00000170: 52ee 3c3e 4262 4cbe 008f 773d f8e7 7abd
00000180: e059 503e ecb7 95bd a8d7 113d 02a0 523e
00000190: 208e 5b3d 4ec3 8fbd a045 1d3c e826 753d
000001a0: 30e2 723d 5bf3 40be 38d9 a1bd 699b 26be
000001b0: e84e c63c e06a 4bbc c079 eb3c 403a 183b
000001c0: 0461 ebbd 9d5b 49be b657 5b3e a406 45be
000001d0: b856 a4bc 081c 41bd a805 06be 109d 5bbd
000001e0: e8a5 f73d f4b7 083e bd4e d6bd dcff 54bd
000001f0: 1e85 1f3e b049 4bbe 9c58 3dbe 0473 3bbe
00000200: d864 643e e60b 32be cc8a 2b3e 50ea 16bc
00000210: 60f8 64be e0f3 703d 4d65 4abe b0e7 083c
00000220: b04b 3f3e 36fc 4f3e 2c50 4f3e c8bd 543e
00000230: 9442 053e 1fc9 e5bd a41c 413e 9a8f a1bd
00000240: 20f8 6cbd 2a76 103e b643 233e c0a4 f53d
00000250: fc99 cf3d 4883 363d de2a 1e3e a0a5 a63d
00000260: 0aa1 a0bd 48ba c33d 0c30 c8bd bc88 493e
00000270: 64e3 e93d ccef 94bd 40ef 5dbb 4e8e bdbd
00000280: c0a3 c53d 688e 3f3d d9a8 e3bd b039 cbbc
00000290: 9037 ce3d 0683 21be f017 21bc 2a3b b2bd
000002a0: a078 a73b 0003 15be a2c7 9cbd e2a7 34be
000002b0: 98db 553d 4444 afbd 0025 fbba 839a d5bd
000002c0: 8772 2fbe 3c50 e23d 68dd 903d c28b a8bd
000002d0: cf56 34be b6d9 303e 1dec 33be b0e1 203c
000002e0: 8ec4 213e 70a8 b63d b43d 313e 2081 5ebd
000002f0: 267b 593e d87a 1b3e 6805 1ebd 1cc8 1d3e
00000300: 0083 c03d 8ef2 15be bc8e 27be a4ea 80bd
00000310: 7059 b23c c449 193e ed1b 17be 6833 8c3d
00000320: 4875 213e 62c8 35be b871 113e 78a0 f7bd
00000330: 3867 9b3d 8a9b 30be f458 23be 8856 03be
00000340: 8058 feba 00e2 633e 7aed 9cbd 8ae0 e2bd
00000350: b89e a83c 1c2d 71bd a0b3 adbb d62b 073e
00000360: c63f acbd 2a6b 343e d66c 1d3e 5cef 7cbd
00000370: 6681 1e3e 880d 4a3e 0c3f 12bd f094 82bc
00000380: 88e5 513d 802c f73c 5077 4c3e e0e8 99bd
00000390: e28c f2bd 9099 f63d 2b75 1fbe f8fd 343d
000003a0: 4c4a a63d 1e4f 43be cc8d f83d 80a1 bcbc
000003b0: 080b 183e f6f1 22be 1c0d 43be f8f7 063d
000003c0: 489c dbbc 4a50 cebd 70cf aa3c 08b4 1abd
000003d0: 248a 05be b895 173e 2472 013e d835 3f3e
000003e0: 2f56 4cbe 220b 5fbe d020 b6bc c4f1 153e
000003f0: fc73 de3d e8f1 143d 80e9 51be f46d 40bd
-0.20875087 -0.10951775 -0.019889489 -0.07415925 0.0780763 0.1598885 0.06448224 0.20299017
0.07784209 -0.12693024 0.1052157 -0.17186351 0.055510312 0.0035978109 0.058428645 -0.18199322
-0.04090713 -0.012421563 0.10626495 -0.1413823 -0.032700956 -0.12772483 -0.079252794 0.0674867
-0.099796385 -0.15110818 0.06635219 0.024997383 0.19912696 -0.18806152 0.14976516 -0.027118891
0.06951234 0.13534358 -0.16101761 -0.18538997 0.07349244 -0.18158968 -0.14170848 0.15096858
0.21583018 -0.036186814 -0.16214365 -0.2088776 0.06678909 0.20387998 0.18573439 0.06425804
-0.00400123 -0.015758678 -0.12826157 0.20198837 -0.021973982 -0.053674802 -0.13346177 -0.031798854
-0.14246458 -0.046922624 -0.07673931 0.038998812 0.1066888 -0.07091862 0.0918909 -0.17967144
-0.057575196 0.1589176 -0.17843619 -0.017011657 0.10701829 0.03240773 -0.09684232 0.18606588
-0.084004775 -0.08842321 0.034463048 0.15184441 0.20841405 0.102638215 0.046472788 -0.11679428
0.16460729 0.0068970323 -0.19122367 -0.08774665 -0.001697883 -0.004099086 0.19871986 -0.21985081
-0.13831463 0.1595698 0.16288912 -0.19366235 0.18450287 -0.19959357 0.06043911 -0.06125638
0.20346785 -0.07310471 0.035606056 0.2056885 0.053602338 -0.07019673 0.009599119 0.059851557
0.05929774 -0.18842833 -0.07902759 -0.16270222 0.024207547 -0.012415618 0.028744578 0.002322808
-0.11493114 -0.19663854 0.21420178 -0.19240814 -0.020060882 -0.047145873 -0.13088095 -0.053616583
0.12092191 0.13351423 -0.10464237 -0.05200182 0.15578124 -0.19852328 -0.18490833 -0.18305594
0.22304094 -0.17387351 0.16752166 -0.009211138 -0.22360373 0.058826327 -0.19765206 0.00835602
0.18681216 0.20311055 0.20245427 0.20775521 0.13013679 -0.112200014 0.18858582 -0.07888718
-0.057853818 0.14107576 0.15943798 0.11994314 0.10136792 0.044558793 0.1544604 0.08137059
-0.07843216 0.09557015 -0.09774789 0.19681066 0.114203244 -0.072723 -0.0033864528 -0.09255658
0.096503735 0.04676667 -0.111161895 -0.024807781 0.100691915 -0.15772638 -0.009832367 -0.08702691
0.005110815 -0.14551926 -0.076552644 -0.17642167 0.052211374 -0.085579425 -0.0019160807 -0.104298614
-0.17133532 0.1105046 0.0707348 -0.08229782 -0.1761124 0.1727055 -0.17570539 0.009819433
0.15797636 0.08918846 0.17308694 -0.054322362 0.21238384 0.1518358 -0.038579375 0.15408367
0.09399986 -0.14643309 -0.16363043 -0.06294754 0.021771163 0.14969546 -0.14756747 0.068457425
0.15767395 -0.17752221 0.14203537 -0.12091154 0.07588047 -0.17246833 -0.15951902 -0.12825978
-0.0019405037 0.22254181 -0.076624826 -0.11077984 0.020583495 -0.05888091 -0.005300954 0.13200316
-0.08410601 0.17619005 0.15373549 -0.06175171 0.15479049 0.19731724 -0.035704657 -0.01594016
0.05124429 0.030172586 0.19967389 -0.075151205 -0.118432775 0.120410085 -0.1557204 0.044187516
0.0811964 -0.1907315 0.121364206 -0.023026228 0.14847958 -0.15912613 -0.1904797 0.032951325
-0.02680792 -0.10073908 0.020850867 -0.037769347 -0.13040978 0.14803207 0.12641197 0.18672884
-0.19954751 -0.2178159 -0.022232443 0.14643008 0.10861966 0.036363512 -0.2049923 -0.04697986

lstm.bias_ih_l1 f4 [80]
00000000: ec0c e8bd 2fef d13e bcb0 c73e 87d5 b23e
00000010: 92f4 edbd b61b 593f 4133 89be 50c3 fdbd
00000020: 1602 ebbc 5f0e dcbd abc8 ab3e 220b a43e
00000030: 5b30 b63e 4044 c93e 63ff efbd a759 ff3e
00000040: 1cf2 ed3d 64bf 4e3f 8e5e 09bb 8f51 483e
00000050: 0c5b f43d 2a84 1f3e e017 0d3d 303d 2bbe
00000060: 5202 2d3e 3a43 1ebe 9027 213d 6250 23be
00000070: 8830 82bc 6034 9dbd c03c fb3b d80d 47bd
00000080: 7e3a 06be 8c12 40be 06bb 1bbe e140 51be
00000090: 80ed 053e 8409 d6bd a68e 413e 45d6 d6bd
000000a0: 3a2d 5ebe 6de2 7f3f 5cd4 273f 2341 aabd
000000b0: 8426 5fbe 96c0 603f 10d1 a9be 4756 9fbd
000000c0: cf3c 02be 0483 493f 4192 c43e 5363 f1be
000000d0: c658 143f 5c1d 4b3e a58e 173e b9c0 b3bd
000000e0: fef9 233d b6ad 1a3f 0349 8ebe 38df a9be
000000f0: a2fc aabe 2069 843d 1528 b43e 60a1 97be
00000100: bab4 57be 9c69 693e 0ed1 573d 3753 1fbe
00000110: b5ec 8bbe eced f0be 4957 4cbd a8e2 213e
00000120: 864b 44bc cdef 4ebe 02e9 cfbe 2687 8d3e
00000130: 4371 3bbe 127b d3bc 033e 64be 44d9 f13c
-0.1133059 0.41002795 0.39002025 0.34928533 -0.11618914 0.8480791 -0.26796916 -0.123907685
-0.028687518 -0.107449286 0.33551535 0.32039744 0.35583767 0.39309883 -0.11718633 0.49873087
0.11618444 0.8076079 -0.00209609 0.19562362 0.11931428 0.1557776 0.034446597 -0.1672256
0.16895416 -0.15455332 0.03934437 -0.15948632 -0.015892282 -0.07676005 0.007667154 -0.048597187
-0.1310825 -0.18757075 -0.15208063 -0.20434906 0.1307888 -0.10451034 0.18902072 -0.104900874
-0.2169694 0.99954873 0.6555841 -0.08313205 -0.21792036 0.8779386 -0.33167315 -0.07780128
-0.12718509 0.7871554 0.38392833 -0.4714609 0.5794796 0.19835418 0.14800508 -0.08776993
0.040033333 0.6042131 -0.2779008 -0.33178115 -0.3339587 0.064653635 0.3518683 -0.29615307
-0.21065035 0.22794193 0.052689604 -0.15559088 -0.2732903 -0.4705652 -0.04988793 0.15809119
-0.011980897 -0.20208664 -0.40607458 0.27642173 -0.18304925 -0.02581552 -0.2228928 0.029522546

lstm.bias_hh_l1 f4 [80]
00000000: f5ad a8bd b119 693e 193d 8b3e c8bd 913d
00000010: 7bdd 72be eb64 293f 3e92 d7bd 53a0 a4bb
00000020: ecd7 98be e073 93be c8bf 2d3f a42b 8c3e
00000030: 4d66 143e 2de1 003f 54a3 fb3d 9598 e33e
00000040: 01b8 563e 0a33 373f 1318 6dbe 75ce c13d
00000050: de8a 86bd 6294 24be d431 d53d bc27 9abd
00000060: b8ff 09be 187d 813c 6a59 b7bd 30ba 233c
00000070: 04c1 583e 809c 063b 80e5 36bc 40b2 8e3d
00000080: de7f 173e 16b2 203e 9f74 cdbd 5882 3abd
00000090: e4fd bf3d 442d cf3d f5cb 34be f0af b33c
000000a0: 4632 e5be 10cf 673f 424f 023f 7182 f23d
000000b0: 454c 90bd 326a 6a3f 26e2 34bf 0e65 5bbe
000000c0: 7a7c ffbe 1a16 143f 7b75 f53e e635 97bd
000000d0: 2c1d 013f d21f 6e3e a56a ab3d 33a0 303d
000000e0: 3457 ff3c 92c3 463e 3d8e d3be efde 3bbe
000000f0: 88ff 80be 1808 1f3e 1a48 4f3e 2b08 80be
00000100: d83b e5bd be1c 253f b7e5 d5bd 1cb9 adbc
00000110: 8cb1 b2be cbed 0abf 6a1a 12be 51ac 7a3e
00000120: 686e 4c3d 2f21 133e 49a6 a9be e9be 733e
00000130: cce7 abbe 8667 6c3d 63a5 4c3d dc0b 8a3d
-0.08236305 0.22763707 0.2719505 0.07116276 -0.237173 0.66169614 -0.1052594 -0.005023995
-0.29852235 -0.28799343 0.6787076 0.27377045 0.1449215 0.5034359 0.12287012 0.44452348
0.2096863 0.71562254 -0.23153715 0.09463207 -0.065694556 -0.16072229 0.104098946 -0.0752711
-0.13476455 0.01580672 -0.08952601 0.009993121 0.2116738 0.0020540059 -0.0111631155 0.06967592
0.14794871 0.15692934 -0.10032009 -0.04553446 0.09374598 0.101160556 -0.17655928 0.02193448
-0.44764918 0.9055033 0.5090219 0.11841286 -0.07045797 0.9156829 -0.70657575 -0.21425268
-0.49899656 0.57846224 0.47941193 -0.07383327 0.5043514 0.23254326 0.0836995 0.043121528
0.031169511 0.19410542 -0.41319457 -0.18346761 -0.25194955 0.15530431 0.20242348 -0.25006232
-0.11193055 0.6449698 -0.10444205 -0.021206431 -0.34901083 -0.54269093 -0.14267889 0.24479796
0.04990998 0.14368127 -0.33134678 0.23803295 -0.33575284 0.057715915 0.049962413 0.06740543

linear.weight f4 [6, 20]
00000000: f876 84bd 2c9e 4240 7a5e acbe af27 e0bf
00000010: 31b7 99bf 03c1 b640 cebc e4be fefc 9dbf
00000020: 77c1 4cbe 41c9 d13f 8b6c 78bf 15d7 a9bf
00000030: e29d f73f 4c4f 953f 1e91 8e3f 8cca b6bf
00000040: a5d3 f03f 40d2 813e 319e af3d f472 6bbd
00000050: c83c fe3b 000b 073f 6b13 0c40 3368 fbbb
00000060: 4a5a 903f d007 a5bd 46c6 a43f 7e56 8f3f
00000070: 3e21 dd3d dba9 c03f 9d83 cabf d784 d6be
00000080: a6f8 14c0 8654 1040 4b56 0440 2fec 56bf
00000090: dc73 1bc0 5d50 41c0 d7ee 54bd b8fe 6bbe
000000a0: 92e4 6f3e b50e 163e 05f9 14bf a98d 5b3d
000000b0: ff24 10be 8855 403e 8c36 81be c68a f5bc
000000c0: e760 80be fd21 76be 572a ab3d c74c 253e
000000d0: 7df3 c23e 899e c1be 585d e3be 724f 113e
000000e0: dac2 dc3d 0fe3 9a3e afd7 bbbd 5d58 22bd
000000f0: fb7c 80be f1bc 84be 511e 93bf 303d c1bd
00000100: 406a 88bf 1691 9bbc 0445 3fbf 169b dbbe
00000110: 648e 363e 3cf0 23bf efe5 a03f e88a 9d3e
00000120: bc53 4e3f 86f1 7cbf 0589 f5bf 4bbe e03e
00000130: f453 393f 656a 933f d836 cf3d 74df 9abd
00000140: 9899 acbd 556a 193f d37c 0fbe ada5 b9bf
00000150: bb98 9fbf 04cd 903f e207 52bf bdbb 59bf
00000160: af9c c63d 12a8 693e 94ef 3cbf 063b 73bf
00000170: 8438 08be d288 ed3d 9f79 8fbe 2e5c 9abf
00000180: 8e0b 053e aeff 38be c3bb 86be 2731 18be
00000190: 7a7a 633e 0c6e 47bd d89b cd3d eaf5 4f3e
000001a0: 37ce 483e bd9e 03be 97cf c33d 09c4 443e
000001b0: 9d0b 4ebd 250c 92bd c72d f43d 31f6 123e
000001c0: 9829 eb3b 2fd1 143c 2f9a 453d 7c34 2b3e
000001d0: e608 32bc a3d1 89bc 44f7 a8bc 3f81 0ebd
-0.06468004 3.040904 -0.3366583 -1.751211 -1.200903 5.711061 -0.44675297 -1.2342832
-0.19995676 1.6389543 -0.97040623 -1.3268763 1.9345057 1.1664824 1.1138036 -1.4280562
1.8814589 0.2535572 0.085750945 -0.057482675 0.0077587105 0.5275116 2.1886852 -0.0076723336
1.1277554 -0.08058131 1.2873008 1.119827 0.10797356 1.5051836 -1.5821415 -0.41898224
-2.3276763 2.255159 2.067767 -0.8395414 -2.4289465 -3.02053 -0.051985588 -0.23046386
0.23427036 0.14654048 -0.58192474 0.053601895 -0.14076613 0.18782628 -0.25236928 -0.029973399
-0.2507393 -0.24036403 0.08357685 0.1614257 0.38076392 -0.37816265 -0.44407153 0.14190462
0.107793525 0.30251357 -0.09171998 -0.03963505 -0.25095353 -0.259254 -1.1493627 -0.09435499
-1.0657425 -0.01899008 -0.74714684 -0.4289176 0.17827755 -0.64038444 1.257017 0.3077004
0.8059652 -0.98806036 -1.918244 0.43895182 0.7239373 1.1516844 0.101178825 -0.075621516
-0.08427733 0.59927875 -0.1401246 -1.4503685 -1.2468485 1.1312566 -0.8204328 -0.8505209
0.09697854 0.2281802 -0.7380307 -0.9501194 -0.13302809 0.11598362 -0.28022477 -1.2059381
0.12992689 -0.18066284 -0.26315126 -0.148625 0.2221469 -0.048688933 0.100394905 0.20308653
0.19609915 -0.12853523 0.09561079 0.19215406 -0.050304044 -0.07131223 0.11922794 0.14351727
0.007176589 0.009083076 0.048242744 0.1671924 -0.010866379 -0.016823595 -0.020625718 -0.034791227

linear.bias f4 [6]
00000000: 8f37 4c3f 8f2b f6be 38a1 3e3e 91d0 f53d
00000010: e118 403f 80f6 45be
0.79772276 -0.48080108 0.18616188 0.120026715 0.7503796 -0.19332314
