models/180/state_dict.pt (torch_old, 88287 bytes, 10 tensors)

lstm.weight_ih_l0 f4 [160, 10]
0.076752946 -0.09393752 0.1859405 0.1395849 -0.01849972 0.20954749 -0.005605465 0.1698716
0.3183727 -0.15542324 -0.063889906 0.260128 -0.032547653 0.05220528 0.23317765 -0.19746771
-0.17963453 0.030788131 -0.038004026 -0.19615667 0.12372613 0.040345073 -0.03335235 -0.10493393
0.2356736 0.07566007 0.03549053 0.22616199 0.1287919 -0.22898601 0.09984726 0.05440342
-0.12197129 -0.07461045 -0.03146539 -0.018008728 -0.16654801 -0.05523966 -0.11072996 -0.06574371
-0.010248412 -0.12109176 -0.24402219 -0.044576284 0.18937147 0.021626962 -0.022882396 0.16268575
0.020258425 -0.22593994 -0.030332722 -0.16541891 -0.07259784 0.1300542 -0.25888348 -0.14187233
0.088231124 -0.23321763 -0.0362095 -0.07297792 0.10884578 0.2645452 -0.058685258 -0.020366907
-0.054562077 -0.08616707 0.13895188 -0.17943704 0.06349295 0.1543297 -0.059011333 0.25711718
-0.015509007 0.028651252 0.100355715 -0.19630148 -0.1445807 0.1511567 -0.22473629 0.0038538203
0.13151674 0.08483604 0.10480585 -0.07245528 -0.0011040629 -0.09917797 0.077565596 -0.05441103
-0.112920895 -0.15193751 0.05743951 -0.0016954257 0.0374714 -0.0071645672 0.24506125 0.12912723
-0.007605564 0.23855656 -0.09843187 -0.032973632 0.08635194 0.11427632 -0.08346199 -0.0046997876
0.031333666 -0.15420368 -0.32374004 0.29037026 -0.011363723 -0.1740123 -0.06617441 -0.09424607
-0.22688061 0.1758706 0.020382097 -0.07418267 0.1236864 0.07474374 -0.27300066 0.017709758
-0.046324328 -0.1448778 -0.107710816 0.08341232 0.15827614 -0.060058426 -0.36107734 0.2253812
-0.013995481 -0.09759044 0.016824633 -0.043524317 -0.17254315 -0.027084349 -0.024864182 0.016733253
-0.03730683 0.07995062 -0.2154885 0.0085689565 0.12015711 -0.028023718 -0.089668475 -0.13103954
0.08670359 -0.21361063 -0.0019111397 0.04853143 -0.25558197 -0.11560609 0.14855923 0.06538014
-0.06721131 -0.07493792 -0.054843258 0.16887029 -0.0940518 -0.113659844 0.0771999 -0.035272
0.07394978 0.123788044 -0.15351436 0.1407251 -0.025126206 -0.06853479 -0.19802801 0.21879855
-0.09716155 -0.22835003 0.07351107 0.08313931 -0.27593747 0.17152277 0.06943463 0.023899274
-0.07728283 -0.12476638 -0.045208473 -0.046039954 -0.015675554 -0.024038732 -0.03886519 -0.010394319
-0.017393665 0.105848536 0.07705283 -0.14896224 -0.058010623 -0.0734476 -0.04007458 0.08121084
-0.17432885 0.034395568 0.18964636 0.055480275 -0.29899207 0.20555642 0.14498018 -0.30950436
0.1577143 0.035785172 0.036576983 0.07661985 0.18959573 0.06303512 -0.039612155 0.18206447
0.021533245 0.04872448 -0.05195073 0.25086474 -0.23210783 0.078611836 0.056498043 -0.3164964
0.12636334 -0.06626578 -0.28622916 0.01576591 0.01678442 -0.14531398 0.15807383 0.012137261
0.14176767 0.21045522 -0.23126799 0.33667657 0.10470919 -0.1451742 0.01945181 0.09178009
-0.12970732 -0.09046893 0.024472523 0.0259395 0.046404976 0.038338166 0.03287193 -0.0014164917
0.008478265 -0.13488391 -0.13485967 0.19511478 -0.15415385 0.22240187 0.014010664 -0.17602941
0.06620844 -0.11915906 -0.05857029 0.16791114 -0.11183287 -0.110120736 0.24850951 -0.12806581
00000000: a630 9d3d 5162 c0bd 3067 3e3e 58ef 0e3e
00000010: ba8c 97bc 9e93 563e 0cae b7bb d2f2 2d3e
00000020: bf01 a33e 4527 1fbe b6d8 82bd 7f2f 853e
00000030: b050 05bd 34d5 553d 1fc6 6e3e fa34 4abe
00000040: 1df2 37be 6437 fc3c 1caa 1bbd 4bdd 48be
00000050: 2064 fd3d e040 253d 799c 08bd 9ae7 d6bd
00000060: 6c54 713e abf3 9a3d 855e 113d 0297 673e
00000070: 06e2 033e 4f7b 6abe b87c cc3d 1fd6 5e3d
00000080: 15cc f9bd 5dcd 98bd dae1 00bd 0a87 93bc
00000090: 908b 2abe fb42 62bd 64c6 e2bd a3a4 86bd
000000a0: f5e8 27bc f5fe f7bd f4e0 79be 9f95 36bd
000000b0: 98ea 413e 072b b13c dd73 bbbc 1897 263e
000000c0: fff4 a53c cd5c 67be 547c f8bc 9363 29be
000000d0: 2dae 94bd ee2c 053e 608c 84be fb46 11be
000000e0: 85b2 b43d 9ad0 6ebe 6a50 14bd 7375 95bd
000000f0: 89ea de3d 7872 873e f45f 70bd 80d8 a6bc
00000100: 7c7c 5fbd 5c78 b0bd 6749 0e3e 58be 37be
00000110: 9708 823d 9b08 1e3e deb5 71bd dda4 833e
00000120: 7d19 7ebc 08b6 ea3c 4c87 cd3d 4103 49be
00000130: f70c 14be d2c8 1a3e 4521 66be 6090 7c3b
00000140: 53ac 063e 85be ad3d 73a4 d63d 6f63 94bd
00000150: 34b6 90ba d21d cbbd b6da 9e3d 1ade 5ebd
00000160: 1243 e7bd 8295 1bbe b145 6b3d 0c39 deba
00000170: 9c7b 193d bfc4 eabb 56f1 7a3e ee39 043e
00000180: 1838 f9bb 2c48 743e a696 c9bd 5c0f 07bd
00000190: 49d9 b03d b409 ea3d 1fee aabd ad00 9abb
000001a0: bb57 003d 92e7 1dbe 41c1 a5be 69ab 943e
000001b0: e92e 3abc 4830 32be 7386 87bd 1504 c1bd
000001c0: 6453 68be 6c17 343e 5bf8 a63c 15ed 97bd
000001d0: 4c4f fd3d 3f13 993d bec6 8bbe 0e14 913c
000001e0: 94be 3dbd d95a 14be 7d97 dcbd 14d4 aa3d
000001f0: 2413 223e d3ff 75bd 21df b8be 54ca 663e
00000200: 4d4d 65bc 7fdd c7bd d0d3 893c 8e46 32bd
00000210: 27af 30be ffdf ddbc f8af cbbc 2d14 893c
00000220: 0ccf 18bd 27bd a33d 04a9 5cbe cf64 0c3c
00000230: ee14 f63d ff91 e5bc 1ba4 b7bd 3b2f 06be
00000240: a791 b13d bfbc 5abe 357f faba e5c8 463d
00000250: a4db 82be e3c2 ecbd e91f 183e 06e6 853d
00000260: 15a6 89bd 0d79 99bd 53a3 60bd 55ec 2c3e
00000270: 3b9e c0bd 7ec6 e8bd fb1a 9e3d 5f79 10bd
00000280: fb72 973d 9684 fd3d de32 1dbe 3e1a 103e
00000290: 79d5 cdbc f85b 8cbd dbc7 4abe ba0c 603e
000002a0: a2fc c6bd 97d4 69be f98c 963d f144 aa3d
000002b0: ad47 8dbe aaa3 2f3e be33 8e3d 69c8 c33c
000002c0: 7646 9ebd 8485 ffbd 852c 39bd 6494 3cbd
000002d0: 056a 80bc e0ec c4bc 1b31 1fbd ef4c 2abc
000002e0: 297d 8ebc 1ec7 d83d e0cd 9d3d 8f89 18be
000002f0: 8c9c 6dbd b26b 96bd 3e25 24bd de51 a63d
00000300: 4383 32be 5ee2 0c3d a832 423e 493f 633d
00000310: 7d15 99be 627d 523e af75 143e 5b77 9ebe
00000320: dc7f 213e 7993 123d bfd1 153d deea 9c3d
00000330: 6225 423e 8f18 813d 5b40 22bd 1c6f 3a3e
00000340: 7d66 b03c 5293 473d 4aca 54bd 5871 803e
00000350: adad 6dbe 3eff a03d 7e6a 673d d10b a2be
00000360: 6465 013e 5ab6 87bd a18c 92be 8227 813c
00000370: 7b7f 893c 30cd 14be 1bde 213e 5ddb 463c
00000380: 8b2b 113e 9381 573e 84d1 6cbe df60 ac3e
00000390: c671 d63d 8ca8 14be 6759 9f3c 33f7 bb3d
000003a0: ffd1 04be c647 b9bd 9a7a c83c 137f d43c
000003b0: 2513 3e3d 7b08 1d3d b8a4 063d 93a9 b9ba
000003c0: 6ce8 0a3c 021f 0abe a718 0abe 2bcc 473e
000003d0: 82da 1dbe 51bd 633e fc8c 653c 0e41 34be
000003e0: 4a98 873d aa09 f4bd 67e7 6fbd e6f0 2b3e
000003f0: a208 e5bd fb86 e1bd 4779 7e3e af23 03be

lstm.weight_hh_l0 f4 [160, 40]
-0.0038191378 -0.039668933 0.027164176 -0.039141886 -0.12961122 -0.15053257 -0.1008239 0.14245744
-0.080482125 0.057325035 -0.11300126 0.050085396 0.12814625 -0.13840331 0.15449055 0.09189753
-0.018485278 -0.09583561 -0.05778732 -0.12170746 -0.11815768 -0.1453428 0.08847655 0.07806
0.01565808 -0.058039293 -0.11260172 -0.062088884 0.09568535 -0.113486305 -0.017165259 -0.08854601
0.062010005 -0.065679684 0.10283531 0.05343035 0.09349541 -0.036192335 -0.14340223 -0.0068612397
-0.069541186 -0.15619937 0.0039678514 0.09912987 -0.0655527 -0.01901649 -0.0153968185 -0.04379388
0.05914575 -0.05772712 -0.03562448 -0.13407907 -0.12212536 0.15144016 0.13919584 0.08193402
0.056228667 0.14268665 0.12309329 0.022620648 0.10005577 0.086008966 -0.038845487 -0.0085039735
-0.13007733 0.08726595 0.021008834 -0.12887104 -0.10567113 0.12223388 -0.010147721 0.05348736
-0.124285184 0.09441827 0.03445737 -0.050658517 0.07384178 -0.15079309 -0.0063724667 0.055070966
-0.01603201 -0.10210876 0.06978725 0.022048563 -0.1342424 -0.032098234 -0.09957186 0.036779523
0.14995365 -0.069486804 -0.12471099 -0.1241937 -0.1293147 -0.11875367 0.004220575 0.053184047
0.06695953 -0.1343976 -0.0818253 0.14741041 -0.07090055 0.036652163 -0.07272135 0.071387544
0.026252031 0.118312046 0.019278556 -0.071777254 0.13873245 -0.039461166 0.07066023 -0.053140096
0.02361551 0.0047515333 -0.041879386 -0.038188897 -0.13241754 0.019729748 0.096585795 -0.05348427
-0.0019795597 -0.03694988 -0.061467253 -0.02309598 0.07681681 0.11574294 -0.13072431 0.09990226
-0.13193342 0.10292484 -0.014707118 0.039802343 0.00033324957 -0.019834086 0.14910062 0.15632613
-0.0822613 -0.066641696 0.014187202 -0.14659822 0.12714465 0.07332395 0.09378417 -0.10471989
0.07745403 -0.044106826 0.062388092 0.14206727 0.14809461 0.10129918 0.10764061 -0.050634205
-0.11802672 -0.05896566 -0.08896641 0.115835294 0.13802932 0.095376 -0.026393548 0.14094017
-0.15786743 -0.0016171038 -0.14512858 -0.15753955 0.09114146 0.10886587 0.107826635 -0.085312545
-0.11106527 -0.017056078 -0.09775074 -0.0044140667 -0.013163403 0.05385308 -0.020727322 0.12109847
-0.10814526 -0.04917313 -0.0319947 0.09393947 -0.112957865 0.00015640259 0.07827923 -0.043407656
-0.012814075 0.15551214 -0.0021767616 0.13402034 0.10017644 -0.044473656 0.09149882 0.1415986
-0.12975541 0.055908054 -0.045384534 0.07062945 -0.08105013 0.053054392 -0.111408815 0.038836762
0.044955954 0.105699226 -0.038946934 -0.09283385 -0.023718745 -0.024684846 0.078577965 0.009600475
0.051166087 0.10209118 -0.08197124 0.11238013 0.1377085 -0.022111341 0.0916207 0.0026197731
-0.011950016 -0.036861956 0.053759456 0.09035291 0.07072207 -0.031374767 -0.11170618 -0.14770304
0.019200504 0.119670734 -0.029702887 0.1100391 0.09356223 -0.061212666 -0.11250919 0.1460434
-0.10771397 -0.11534874 0.05622925 -0.12503895 -0.003712982 0.07637404 -0.022771105 -0.12190166
-0.056164153 0.0718358 -0.10420966 0.08411978 0.12935461 -0.016863868 -0.0034944415 -0.0027945936
0.13231705 0.14817001 0.13029005 0.057985798 0.008942753 0.088346004 0.0025510192 -0.032013535
00000000: 804a 7abb e47b 22bd 6887 de3c 3e53 20bd
00000010: ceb8 04be 3625 1abe c37c cebd 5de0 113e
00000020: d0d3 a4bd a8cd 6a3d 346d e7bd 5826 4d3d
00000030: c538 033e 99b9 0dbe c532 1e3e c634 bc3d
00000040: 706e 97bc 7645 c4bd 66b2 6cbd c341 f9bd
00000050: a7fc f1bd bed4 14be 3233 b53d ecdd 9f3d
00000060: 6045 803c 9cba 6dbd bb9b e6bd ea50 7ebd
00000070: aef6 c33d 826b e8bd 289e 8cbc 9c57 b5bd
00000080: 34fe 7d3d 1283 86bd 529b d23d c8d9 5a3d
00000090: 867a bf3d 6a3e 14bd 09d8 12be 40d4 e0bb
000000a0: 9c6b 8ebd baf2 1fbe c004 823b 9a04 cb3d
000000b0: 7e40 86bd 78c8 9bbc f042 7cbc 3661 33bd
000000c0: d042 723d 4673 6cbd faea 11bd 064c 09be
000000d0: dc1c fabd 2113 1b3e 5b89 0e3e 06cd a73d
000000e0: 0850 663d 731c 123e 5618 fc3d f04e b93c
000000f0: 0aea cc3d 7825 b03d 721c 1fbd 4054 0bbc
00000100: fe32 05be 7eb8 b23d b81a ac3c c5f6 03be
00000110: 1b6a d8bd c255 fa3d a042 26bc 9015 5b3d
00000120: 3b89 febd 5e5e c13d 2c23 0d3d 4e7f 4fbd
00000130: 5c3a 973d 8169 1abe 20d0 d0bb 1892 613d
00000140: 9055 83bc 661e d1bd 9eec 8e3d 309f b43c
00000150: d776 09be 7079 03bd 55ec cbbd 20a6 163d
00000160: 738d 193e 194f 8ebd 7a68 ffbd 4459 febd
00000170: 136b 04be 2035 f3bd c04c 8a3b 84d7 593d
00000180: 1422 893d 869f 09be 0694 a7bd c1f2 163e
00000190: 4f34 91bd 9420 163d eeee 94bd a233 923d
000001a0: 800e d73c 964d f23d 10ee 9d3c f4ff 92bd
000001b0: e10f 0e3e 08a2 21bd 50b6 903d 6ea9 59bd
000001c0: 5075 c13c c0b2 9b3b b889 2bbd f66b 1cbd
000001d0: 7798 07be 48a0 a13c c6ce c53d 5212 5bbd
000001e0: 80bb 01bb c258 17bd 16c5 7bbd c833 bdbc
000001f0: 2252 9d3d a20a ed3d 98dc 05be 8e99 cc3d
00000200: 8e19 07be 42ca d23d 20f6 70bc c807 233d
00000210: 00b8 ae39 187b a2bc d5ad 183e f513 203e
00000220: 9d78 a8bd 717b 88bd 7071 683c d81d 16be
00000230: 3532 023e de2a 963d ea11 c03d 6277 d6bd
00000240: 38a0 9e3d 5ca9 34bd a88a 7f3d 157a 113e
00000250: 1da6 173e f275 cf3d ae72 dc3d d065 4fbd
00000260: feb7 f1bd fa85 71bd 0534 b6bd 0e3b ed3d
00000270: 8f57 0d3e 7e54 c33d 4837 d8bc 9f52 103e
00000280: 00a8 21be 00f5 d3ba 969c 14be 0c52 21be
00000290: 60a8 ba3d 12f5 de3d 36d4 dc3d 58b8 aebd
000002a0: 3076 e3bd 30b9 8bbc 8a31 c8bd e0a3 90bb
000002b0: 50ab 57bc 0c95 5c3d 58cc a9bc 7a02 f83d
000002c0: 437b ddbd c469 49bd e00c 03bd 5663 c03d
000002d0: 7456 e7bd 0000 2439 dc50 a03d 3acc 31bd
000002e0: 20f2 51bc 933e 1f3e 00a8 0ebb a13c 093e
000002f0: 4e29 cd3d 022a 36bd bc63 bb3d 39ff 103e
00000300: 9ade 04be d8ff 643d 22e5 39bd 2ca6 903d
00000310: 9cfd a5bd 904f 593d 4e2a e4bd 4c13 1f3d
00000320: bc23 383d d678 d83d d286 1fbd ac1f bebd
00000330: d04d c2bc e037 cabc 7ced a03d 504b 1d3c
00000340: 8893 513d 2e15 d13d 8ae0 a7bd 8e27 e63d
00000350: 7503 0d3e d822 b5bc a2a3 bb3d 80b0 2b3b
00000360: 00ca 43bc 90fc 16bd e032 5c3d f20a b93d
00000370: bcd6 903d d482 00bd 36c6 e4bd 773f 17be
00000380: 604a 9d3c ee15 f53d 7853 f3bc 2e5c e13d
00000390: 8e9d bf3d 22ba 7abd 386b e6bd 678c 153e
000003a0: 2499 dcbd f63b ecbd a450 663d 360a 00be
000003b0: 8055 73bb fe69 9c3d 788a babc 94a7 f9bd
000003c0: 620c 66bd a61e 933d e06b d5bd fe46 ac3d
000003d0: 8975 043e 1826 8abc 0003 65bb 8025 37bb
000003e0: 1f7e 073e e1b9 173e c16a 053e 8482 6d3d
000003f0: a084 123c c0ee b43d 002f 273b a020 03bd

lstm.bias_ih_l0 f4 [160]
0.11272456 0.3763792 0.061478585 0.1139431 0.07701676 0.23562695 0.16606572 0.31135967
-0.034478683 0.34281227 0.17573385 0.289579 0.2822657 0.30195555 0.21044064 0.18988906
0.11850189 0.106914185 0.034876823 0.21958677 0.32726443 0.18708266 -0.076090194 0.39968917
0.3432779 0.087605566 0.013652581 0.35899144 0.27681515 0.14998206 0.29450384 0.13564955
0.09978428 0.14672482 0.07323066 0.06003441 0.0449627 0.08125807 0.034531865 0.1891964
0.017730996 0.04313223 -0.04907704 0.06298694 -0.012941614 -0.04343936 -0.12607004 0.12242065
-0.032692373 0.016304225 0.086440384 -0.115867496 -0.10670604 -0.11714349 0.12578665 0.097203895
-0.005046949 -0.081673644 0.07083483 0.016866088 0.1185552 -0.055814378 -0.028440103 0.14187257
0.038425803 0.12816931 -0.08508163 -0.12092345 -0.08034524 0.08650158 -0.094438925 0.14476289
-0.0686592 -0.13318697 -0.016046345 0.075130746 -0.03424689 0.011669233 -0.1518627 -0.011132285
0.01969447 0.06512708 -0.0059649525 0.12542482 0.0595844 -0.10078048 0.08086652 0.07074735
-0.04034123 -0.12303973 -0.00013506733 0.04396063 -0.12179936 0.012553528 0.09558547 -0.0895466
0.0962003 0.02538694 -0.11004549 -0.012452481 -0.108779855 0.22013311 0.022608714 -0.2177135
0.0029436431 0.13683926 -0.0013858515 0.17808513 0.055590324 -0.067733966 -0.058703512 -0.079051085
-0.038796965 0.008894633 -0.1650065 0.028104205 -0.12517858 0.087986134 0.12277012 0.028645396
0.14828707 0.19497697 0.31936836 0.3170683 0.20881753 0.35886678 0.26129547 0.3469082
-0.24353707 0.31962234 0.27884647 0.19811302 0.21855067 0.12442399 0.31798372 0.09429784
0.2071572 0.34415248 0.085703164 0.23651215 0.41292903 0.22562724 0.117861085 0.35470933
0.35632995 0.08239511 0.28789997 0.38887185 0.19269828 0.17934018 0.156137 0.22238433
0.1716447 0.24639225 0.030365305 0.14428343 0.1788841 0.31996903 0.28634787 0.33589697
00000000: 22dc e63d c6b4 c03e f8d0 7b3d 005b e93d
00000010: f7ba 9d3d 3148 713e 220d 2a3e 896a 9f3e
00000020: 8539 0dbd 1785 af3e 93f3 333e b343 943e
00000030: 2185 903e eb99 9a3e c07d 573e 4772 423e
00000040: 1eb1 f23d d3f5 da3d 00db 0e3d 5bdb 603e
00000050: 348f a73e 9992 3f3e 2dd5 9bbd 0fa4 cc3e
00000060: 1fc2 af3e 8c6a b33d 13af 5f3c bacd b73e
00000070: b7ba 8d3e e694 193e 35c9 963e b7e7 0a3e
00000080: b35b cc3d 083f 163e f5f9 953d a4e6 753d
00000090: cf2a 383d a26a a63d 4971 0d3d b3bc 413e
000000a0: 9840 913c 6cab 303d 0205 49bd 4cff 803d
000000b0: 1009 54bc 78ed 31bd 8118 01be aeb7 fa3d
000000c0: 70e8 05bd 7090 853c a807 b13d f04b edbd
000000d0: b288 dabd ede8 efbd 37ce 003e d612 c73d
000000e0: e060 a5bb 8344 a7bd da11 913d c02a 8a3c
000000f0: 12cd f23d 9e9d 64bd 38fb e8bc 0b47 113e
00000100: 6064 1d3d d13e 033e 473f aebd b7a6 f7bd
00000110: 0c8c a4bd be27 b13d 3269 c1bd b93c 143e
00000120: 329d 8cbd 2a62 08be a073 83bc 26de 993d
00000130: 7846 0cbd 5030 3f3c e581 1bbe 3064 36bc
00000140: 4c56 a13c 5961 853d a675 c3bb 5d6f 003e
00000150: c60e 743d ff65 cebd 599d a53d fde3 903d
00000160: d83c 25bd 41fc fbbd dca0 0db9 1010 343d
00000170: f171 f9bd 50ad 4d3c 51c2 c33d 3564 b7bd
00000180: aa04 c53d 46f8 cf3c 885f e1bd 7e05 4cbc
00000190: f9c7 debd 936a 613e e935 b93c 4af0 5ebe
000001a0: 23ea 403b 971f 0c3e 76a5 b5ba f35b 363e
000001b0: aeb2 633d 1bb8 8abd 1873 70bd 89e5 a1bd
000001c0: 91e9 1ebd cbba 113c 77f7 28be ca3a e63c
000001d0: d02e 00be 1332 b43d e76e fb3d c0a9 ea3c
000001e0: 91d8 173e 0ba8 473e 4084 a33e c756 a23e
000001f0: 43d4 553e 63bd b73e 85c8 853e f49d b13e
00000200: c861 79be 8aa5 a33e f7c4 8e3e 24de 4a3e
00000210: bfcb 5f3e 01d2 fe3d c3ce a23e 3a1f c13d
00000220: 0421 543e c134 b03e 2485 af3d 3e30 723e
00000230: 6f6b d33e d40a 673e 2761 f13d 769c b53e
00000240: e170 b63e c4be a83d a067 933e 361a c73e
00000250: b352 453e f4a4 373e 61e2 1f3e b8b8 633e
00000260: a1c3 2f3e 404e 7c3e a9c0 f83c 09bf 133e
00000270: 652d 373e fbd2 a33e 309c 923e b0fa ab3e

lstm.bias_hh_l0 f4 [160]
0.041193936 0.3020969 0.059737496 0.1263503 0.08627278 0.30629894 0.12386527 0.13328876
-0.017722357 0.158118 0.152492 0.26539358 0.3146532 0.33606407 0.26663268 0.24169081
0.0847128 0.13438135 0.09376619 0.13972409 0.2731145 0.39222166 0.05690717 0.39783612
0.14169145 0.04363568 0.06885634 0.2688988 0.13414645 0.26924238 0.2466636 0.34019142
0.25366965 0.26891518 0.16268732 0.17218702 0.1366829 0.3420853 0.19458112 0.4480671
-0.1474471 0.073556796 -0.07942313 0.13274567 -0.12384044 0.047811165 -0.05977308 -0.08921887
-0.06654947 0.13557918 -0.0006222278 -0.062156267 0.09212901 0.11807419 0.041914582 0.066747904
0.08716431 -0.08408961 -0.05874244 -0.09988099 -0.053348802 -0.15382157 -0.097410426 0.109355316
-0.024238646 0.094606176 0.015127853 -0.0006096363 0.0077264756 -0.12726346 -0.12303682 0.05016327
-0.05038523 0.14371629 0.13991185 -0.044723347 -0.1064575 0.07610142 0.075365484 0.12457608
-0.092008136 0.016974136 0.014605757 0.016139142 -0.04299343 0.17050916 -0.1823402 0.13644716
0.05460614 -0.24780639 -0.13108924 0.11971777 0.10311272 0.17400393 0.01754422 0.031485002
-0.09756033 0.054591667 -0.17122996 0.21222249 -0.033746578 0.07139023 -0.018614046 -0.18194929
0.008525758 0.12759304 0.06050686 0.2476541 0.122418255 -0.0647055 0.04086469 0.12648451
-0.008021045 -0.06803372 0.035887267 -0.0458616 -0.13917446 0.13417405 -0.06234376 0.14921756
-0.040612206 0.12275987 0.26718485 0.29499355 0.29368997 0.441111 -0.018800857 0.30504447
-0.20918196 0.3061533 0.16005822 0.30027768 0.3615821 0.1234024 0.2978194 0.033207383
-0.056384873 0.13441715 0.059628733 0.25881577 0.43912956 0.29386666 -0.045911383 0.16566418
0.38959607 0.20794597 0.23906222 0.41697824 0.38921356 0.04559902 0.41518047 0.3027663
0.28114638 0.30381638 0.24417718 0.28411356 0.2623059 0.28579596 0.19385463 0.33232576
00000000: f9ba 283d 72ac 9a3e 4eaf 743d f961 013e
00000010: c9af b03d 37d3 9c3e 13ad fd3d d97c 083e
00000020: 7a2e 91bc afe9 213e dd26 1c3e abe1 873e
00000030: 391a a13e 9710 ac3e 1484 883e cc7d 773e
00000040: e87d ad3d 449b 093e 7d08 c03d d513 0f3e
00000050: aad5 8b3e 47d1 c83e 7e17 693d 2db1 cb3e
00000060: 9017 113e 54bb 323d 8e04 8d3d 1aad 893e
00000070: b05d 093e 23da 893e 6295 7c3e 922d ae3e
00000080: fde0 813e 40af 893e 8197 263e cb51 303e
00000090: 9af6 0b3e ce25 af3e 4640 473e 0d69 e53e
000000a0: 5ffc 16be f2a4 963d 98a8 a2bd 7bee 073e
000000b0: 0ea0 fdbd a4d5 433d 9ed4 74bd 62b8 b6bd
000000c0: 174b 88bd 45d5 0a3e 001d 23ba 9297 7ebd
000000d0: 22ae bc3d e2d0 f13d a0ae 2b3d 20b3 883d
000000e0: 3483 b23d 2c37 acbd ea9b 70bd 688e ccbd
000000f0: 4684 5abd 6783 1dbe 1e7f c7bd aef5 df3d
00000100: 2090 c6bc e2c0 c13d d0da 773c 00d0 1fba
00000110: 602e fd3b 5a51 02be bafa fbbd 0078 4d3d
00000120: be60 4ebd 5d2a 133e 0d45 0f3e d42f 37bd
00000130: 6406 dabd 10db 9b3d 3859 9a3d be21 ff3d
00000140: c36e bcbd 580d 8b3c fc4c 6f3c 3c36 843c
00000150: e119 30bd f499 2e3e 64b7 3abe ceb8 0b3e
00000160: b0aa 5f3d f5c0 7dbe 423c 06be 972e f53d
00000170: c32c d33d 162e 323e e5b8 8f3c 6bf6 003d
00000180: b6cd c7bd 839b 5f3d e856 2fbe da50 593e
00000190: da39 0abd 0a35 923d 7c7c 98bc ea50 3abe
000001a0: 9faf 0b3c c0a7 023e 0bd6 773d 0999 7d3e
000001b0: 6cb6 fa3d 5184 84bd bc61 273d 2885 013e
000001c0: b36a 03bc 4355 8bbd 87fe 123d 60d9 3bbd
000001d0: c083 0ebe ec64 093e 2c5c 7fbd 7dcc 183e
000001e0: fc58 26bd 8769 fb3d 74cc 883e 6509 973e
000001f0: 885e 963e 4dd9 e13e 4104 9abc ca2e 9c3e
00000200: cc33 56be 20c0 9c3e 4de6 233e ffbd 993e
00000210: 4a21 b93e 66ba fc3d c97b 983e 7704 083d
00000220: d3f3 66bd a6a4 093e 423d 743d 8083 843e
00000230: 97d5 e03e b175 963e 930d 3cbd dfa3 293e
00000240: 2379 c73e caef 543e bacc 743e 2c7e d53e
00000250: 0047 c73e 0ac6 3a3d 8992 d43e 2f04 9b3e
00000260: 6bf2 8f3e d28d 9b3e 9509 7a3e 5577 913e
00000270: f54c 863e d953 923e d481 463e 9a26 aa3e

lstm.weight_ih_l1 f4 [160, 40]
-0.04885377 -0.22050972 0.092194244 0.31147936 0.16895212 0.06614385 0.11882169 0.21641554
-0.16432081 -0.37567654 -0.1237717 0.0998793 -0.07839578 -0.07965993 0.022919565 -0.15459155
0.06345193 -0.3075026 -0.010921562 0.30560026 0.070047736 0.27172053 0.1247267 -0.24850155
0.27754918 0.07181675 -0.03551624 0.027792707 0.038017504 -0.014284231 -0.055119593 -0.030952165
-0.05863588 0.20669661 0.11636347 0.026951456 -0.18103498 0.11057541 0.14803757 0.03263185
0.056019124 0.05653507 -0.11188761 0.07782946 0.0818378 0.08753014 -0.1338071 0.1658221
-0.2156455 -0.258693 -0.10613016 0.08300119 -0.24097842 0.13574307 0.14545727 -0.0053636557
0.16256547 0.02035027 -0.039799992 0.07017811 -0.049213532 0.017556777 0.046990838 -0.19267812
-0.04347983 -0.023264287 -0.020096427 0.22354178 -0.22241832 0.019131888 -0.14154695 0.054213986
-0.21256183 -0.21963927 0.07185055 -0.29710704 -0.009000068 0.14239356 0.28656372 0.26154995
0.11492874 0.012595122 0.12871157 0.02899905 0.047234897 -0.13436449 0.035873905 -0.086011216
-0.11137115 -0.109565206 0.025741596 0.04313514 -0.18543291 -0.07447265 0.14919116 -0.077093564
0.08061939 -0.039631564 -0.21960948 0.06495973 -0.073843665 0.001091328 -0.036439627 -0.069876276
-0.048077583 0.17809443 -0.106488965 -0.09697871 0.19277959 -0.12838788 0.09646714 -0.17186823
-0.06709144 0.11475962 -0.058062993 -0.01665629 -0.02593364 0.024401676 0.17624311 0.17353518
0.14722662 -0.25686288 -0.09852587 0.09670616 0.09102779 0.10841551 -0.094177715 -0.05445968
-0.3029452 -0.12963128 0.006769999 0.15934607 -0.14000927 0.11462733 0.059842605 -0.15143691
-0.022590222 0.098186776 -0.028551094 0.12619442 0.08998202 0.0043145935 0.06887072 -0.08576864
0.11576296 0.22919463 -0.07846668 0.03049037 -0.11750398 -0.00064853777 0.016943859 0.1475715
-0.06057069 -0.01949392 -0.11310383 -0.35277018 -0.05067524 0.24960047 0.22248308 0.14820047
0.03801199 0.030521635 -0.05767177 0.03457625 -0.02938042 -0.061795887 -0.07926572 0.01631302
-0.19035769 -0.25199294 -0.05303831 0.059264403 -0.059664607 -0.1738349 0.035933726 -0.15645978
0.08459401 0.012541679 -0.07151202 -0.07198596 0.28531316 -0.019391913 -0.06288562 -0.30684006
-0.21049167 0.26852238 0.34920675 -0.0762024 0.021228878 -0.21805857 -0.038365737 -0.070888765
-0.1691088 -0.20041792 -0.07601657 0.0868393 0.07854066 -0.12871711 0.030148303 0.15681589
-0.07400562 -0.12424999 -0.23844035 0.25765407 0.25907594 0.033117935 0.1979203 0.15217151
-0.095240094 0.12662214 -0.2809812 0.16063914 -0.31666487 -0.08346485 0.09370997 0.09567975
0.103725694 -0.08803055 -0.23527567 0.039073437 -0.19949767 0.18050963 0.032804143 0.067248605
-0.027458843 -0.023080455 0.048381533 0.018197266 0.01942069 -0.113207094 -0.28198373 0.19546296
-0.021147346 -0.1270012 -0.03551644 -0.11659634 0.04466395 0.12292663 0.099480614 -0.03908443
-0.22666366 0.09738079 0.04824603 0.0880476 0.10447895 0.019655565 -0.094593175 -0.26584145
-0.19055587 -0.10417429 0.23490295 -0.021863783 0.06594671 -0.13537113 0.089440696 -0.27128726
00000000: e41a 48bd 4dcd 61be 56d0 bc3d 397a 9f3e
00000010: c901 2d3e 6d76 873d c958 f33d 099c 5d3e
00000020: b743 28be ad58 c0be 047c fdbd 858d cc3d
00000030: f78d a0bd bf24 a3bd d0c1 bb3c 3f4d 1ebe
00000040: 16f3 813d fb70 9dbe 5af0 32bc a377 9c3e
00000050: 3075 8f3d f41e 8b3e b670 ff3d 3177 7ebe
00000060: ed1a 8e3e a914 933d 7a79 11bd 88ad e33c
00000070: 3eb8 1b3d 6808 6abc 15c5 61bd 658f fdbc
00000080: 2d2c 70bd 47a8 533e f94f ee3d 4dc9 dc3c
00000090: 3c61 39be 5c75 e23d 2997 173e faa8 053d
000000a0: 4f74 653d 5191 673d 5525 e5bd 0d65 9f3d
000000b0: 949a a73d 0143 b33d ba04 09be 45cd 293e
000000c0: 2dd2 5cbe 6973 84be c55a d9bd 87fc a93d
000000d0: 0cc3 76be 3b00 0b3e c0f2 143e 9bc1 afbb
000000e0: 9077 263e 9cb5 a63c 5105 23bd 8ab9 8f3d
000000f0: 2194 49bd 3bd3 8f3c 7779 403d 6a4d 45be
00000100: e817 32bd bf94 bebc 43a1 a4bc 23e8 643e
00000110: a1c1 63be 7aba 9c3c aff1 10be 7c0f 5e3d
00000120: cfa9 59be 1ee9 60be 6226 933d 6a1e 98be
00000130: 0575 13bc 9ecf 113e 7bb8 923e e0e9 853e
00000140: c25f eb3d c55b 4e3c f7cc 033e 6a8f ed3c
00000150: 6179 413d d896 09be 84f0 123d a626 b0bd
00000160: 8f16 e4bd b963 e0bd 0ae0 d23c 79ae 303d
00000170: 20e2 3dbe 1e85 98bd 91c5 183e 3be3 9dbd
00000180: c71b a53d b554 22bd 4fe1 60be 9b09 853d
00000190: 593b 97bd e40a 8f3a b841 15bd 4b1b 8fbd
000001a0: 00ed 44bd 635e 363e e316 dabd c69c c6bd
000001b0: 0368 453e 1d78 03be 9090 c53d 3afe 2fbe
000001c0: 3d67 89bd 1707 eb3d 76d3 6dbd c672 88bc
000001d0: c972 d4bc 06e6 c73c 1379 343e 35b3 313e
000001e0: 93c2 163e 8883 83be eec7 c9bd e10d c63d
000001f0: c76c ba3d f308 de3d 3fe0 c0bd 1d11 5fbd
00000200: a21b 9bbe 10be 04be ded6 dd3b 9e2b 233e
00000210: 975e 0fbe bcc1 ea3d 851d 753d 4712 1bbe
00000220: 210f b9bc 2616 c93d fce3 e9bc 1c39 013e
00000230: 7e48 b83d 6f61 8d3b 180c 8d3d 78a7 afbd
00000240: 2115 ed3d ffb1 6a3e 24b3 a0bd f1c6 f93c
00000250: eda5 f0bd a202 2aba d9cd 8a3c fc1c 173e
00000260: f918 78bd b7b1 9fbc fba2 e7bd 4b9e b4be
00000270: d790 4fbd 4497 7f3e 9bd2 633e ddc1 173e
00000280: 76b2 1b3d 8208 fa3c 3c39 6cbd d39f 0d3d
00000290: 35af f0bc af1d 7dbd 1156 a2bd e2a2 853c
000002a0: 20ed 42be 3805 81be b33e 59bd 3bbf 723d
000002b0: e062 74bd c701 32be 3e2f 133d fe36 20be
000002c0: a03f ad3d 9d7b 4d3c e574 92bd 606d 93bd
000002d0: 9114 923e cadb 9ebc 2dca 80bd 241a 9dbe
000002e0: 218b 57be c47b 893e 3acb b23e 0110 9cbd
000002f0: 2fe8 ad3c bf4a 5fbe 6425 1dbd 212e 91bd
00000300: db2a 2dbe 5b3a 4dbe 93ae 9bbd ced8 b13d
00000310: edd9 a03d 6bce 03be 93f9 f63c 5894 203e
00000320: 4290 97bd c776 febd b529 74be 3ceb 833e
00000330: 9aa5 843e aca6 073d 9eab 4a3e d9d2 1b3e
00000340: 3d0d c3bd 3ca9 013e c5dc 8fbe 967e 243e
00000350: e621 a2be 9fef aabd 03eb bf3d bff3 c33d
00000360: 236e d43d 5c49 b4bd 1bec 70be 780b 203d
00000370: 1e49 4cbe 84d7 383e a35d 063d a3b9 893d
00000380: 5ef1 e0bc 3913 bdbc b72b 463d 6f12 953c
00000390: 2418 9f3c 1fd9 e7bd 2c60 90be 7127 483e
000003a0: 333d adbc 9a0c 02be b079 11bd 10ca eebd
000003b0: 8cf1 363d f5c0 fb3d 7ebc cb3d ff16 20bd
000003c0: 851a 68be 946f c73d a19d 453d 4d52 b43d
000003d0: 0ff9 d53d b504 a13c 11ba c1bd 5f1c 88be
000003e0: 1421 43be 5559 d5bd 668a 703e ad1b b3bc
000003f0: 120f 873d bb9e 0abe af2c b73d 2ae6 8abe

lstm.weight_hh_l1 f4 [160, 40]
-0.13648081 0.055039987 -0.008982569 0.022286564 -0.09134586 0.12304421 -0.090111874 0.032448694
0.05946152 -0.13759926 0.07597487 0.14497693 -0.057419166 0.056563467 0.03757903 0.07094458
-0.054142877 -0.042329885 0.015492514 0.12914266 -0.09808542 0.07713549 -0.03277597 0.0020367205
0.041001603 -0.11006962 -0.115485266 -0.084531546 0.06391083 -0.013034239 -0.010143474 -0.09507887
0.14105926 -0.11490105 -0.09010091 0.01675412 -0.14943407 -0.05110003 -0.13682613 0.060376868
0.093766734 0.09213342 0.09530644 0.08176614 0.048857152 -0.09809567 -0.12747492 -0.027082756
0.12916441 0.11856274 0.0603026 -0.13286658 -0.14678596 -0.090378076 0.06672506 0.07919644
-0.14857495 -0.017435327 -0.15579782 -0.1303696 -0.11274007 0.14173208 0.056814805 0.14020683
0.087400004 -0.052687652 -0.14696944 0.12177773 0.08698192 -0.1062473 -0.10647222 -0.07951566
-0.092217155 0.043021515 -0.09589438 -0.023936346 -0.07938719 0.103009805 0.12818836 0.028751045
-0.15370785 -0.09294975 -0.08006031 0.028230399 0.15165426 -0.039851576 0.08022846 0.019779876
0.102552935 0.06053543 0.086165756 -0.09884602 -0.11465157 -0.062304534 -0.057486854 -0.012807503
-0.04238125 -0.074279316 -0.15378584 0.15468629 -0.08431492 0.13380657 0.08365518 -0.12275686
0.008722112 -0.05513922 0.09175204 -0.14279346 0.14446671 -0.07468387 0.11870043 -0.015812293
-0.071022235 -0.1548155 0.12512411 -0.06737917 0.031744644 0.100443885 0.095645264 0.08322671
-0.071906164 0.06373912 0.09319718 0.05487229 -0.06910399 0.14062811 0.10277851 -0.1333119
-0.0072741956 0.05148758 0.03867857 -0.10685507 0.0021007508 -0.14135201 0.12129705 0.15609594
-0.1434581 -0.052222036 -0.15800777 0.028983206 -0.03201914 0.013943225 -0.14638814 -0.0053548217
-0.10149047 0.029100701 -0.10180119 0.110575184 0.0014512837 -0.024966925 -0.079057336 -0.13434303
0.032089427 -0.15114436 0.14682685 -0.012763113 -0.09755184 0.14368914 -0.008364558 0.10974775
-0.018717915 -0.04727426 -0.039603487 0.03436424 -0.03171891 -0.116920814 -0.0109414905 0.06869401
-0.076204315 -0.13619933 0.029883966 0.0362418 0.05140321 0.025823653 0.045449585 0.10110901
0.012384102 0.110077634 -0.046489686 0.04504308 0.00734137 0.08123435 0.05502093 0.037166193
0.08306222 0.06426208 -0.13506259 0.10899894 -0.062116064 -0.06577347 -0.023110792 0.042643264
-0.06563526 -0.113039345 0.037505537 0.09834869 0.10492538 0.12843107 0.032135144 -0.07818756
0.07397154 0.07931584 -0.15298656 -0.11956613 0.051701397 0.1405858 0.10769637 -0.07387498
0.13136525 0.15568803 -0.15703934 -0.031799003 -0.052574128 0.053074315 -0.13097793 0.010719746
0.09135006 0.106429145 0.0341388 0.042678952 0.0785747 -0.119518414 0.13785039 0.034741506
-0.10941087 -0.1227686 0.124645635 -0.049964584 -0.12174122 0.026133224 -0.11186555 -0.04120534
-0.014985934 -0.1195649 -0.03956954 -0.029084817 -0.052027874 0.13253035 0.08048797 -0.008243278
0.08752358 0.14477791 0.08460069 -0.06267651 0.12441011 0.05584991 0.119050995 0.04228559
-0.022038281 0.06942266 0.14706217 0.110041305 0.053093165 -0.05059217 -0.06028443 -0.016667917
00000000: a0c1 0bbe 9c71 613d a02b 13bc 5092 b63c
00000010: 8a13 bbbd 9afe fb3d 938c b8bd ece8 043d
00000020: ec8d 733d d2e6 0cbe b698 9b3d d574 143e
00000030: 5c30 6bbd 18af 673d 78ec 193d 644b 913d
00000040: ecc4 5dbd 1a62 2dbd 50d4 7d3c f93d 043e
00000050: 02e1 c8bd 36f9 9d3d 1840 06bd 807a 053b
00000060: 4cf1 273d 2e6c e1bd 8a83 ecbd e01e adbd
00000070: aee3 823d 908d 55bc d030 26bc b6b8 c2bd
00000080: d771 103e 3e51 ebbd d386 b8bd f03f 893c
00000090: 3f05 19be 444e 51bd 261c 0cbe bc4d 773d
000000a0: c608 c03d 72b0 bc3d 0630 c33d 0275 a73d
000000b0: 701e 483d 62e6 c8bd c988 02be a8dc ddbc
000000c0: ad43 043e 06d1 f23d dcff 763d 2d0e 08be
000000d0: 0f4f 16be 2418 b9bd 26a7 883d be31 a23d
000000e0: 0824 18be 88d4 8ebc 7789 1fbe 9c7f 05be
000000f0: 44e4 e6bd 3722 113e a4b6 683d 6192 0f3e
00000100: c6fe b23d 02cf 57bd 287f 16be 9a66 f93d
00000110: 9423 b23d 2f98 d9bd 1b0e dabd 1bd9 a2bd
00000120: 59dc bcbd 5437 303d 4664 c4bd 2816 c4bc
00000130: c095 a2bd cef6 d23d cf43 033e 5087 eb3c
00000140: 9765 1dbe 705c bebd a9f6 a3bd 7043 e73c
00000150: 414b 1b3e 683b 23bd d24e a43d 6809 a23c
00000160: 4607 d23d 00f4 773d ac77 b03d c86f cabd
00000170: 71ce eabd 0a33 7fbd 5677 6bbd 90d6 51bc
00000180: f697 2dbd c11f 98bd 097a 1dbe 1566 1e3e
00000190: 4dad acbd 9704 093e 6853 ab3d f367 fbbd
000001a0: 30e7 0e3c aad9 61bd 7ee8 bb3d 7338 12be
000001b0: 15ef 133e dbf3 98bd 3619 f33d c888 81bc
000001c0: 1b74 91bd f487 1ebe 8920 003e 17fe 89bd
000001d0: ac06 023d 86b5 cd3d aae1 c33d c472 aa3d
000001e0: 8a43 93bd a889 823d 2ade be3d c4c1 603d
000001f0: 6586 8dbd d100 103e 8a7d d23d ea82 08be
00000200: 605c eebb a4e4 523d 6c6d 1e3d d5d6 dabd
00000210: c0ac 093b 95be 10be 966a f83d 9dd7 1f3e
00000220: aee6 12be c6e6 55bd cacc 21be 306e ed3c
00000230: 8026 03bd 2072 643c c6e6 15be 8077 afbb
00000240: 3cda cfbd 9864 ee3c 247d d0bd 3e75 e23d
00000250: 0039 be3a 7087 ccbc d0e8 a1bd 3891 09be
00000260: 3470 033d 96c5 1abe c759 163e 601c 51bc
00000270: 42c9 c7bd 3f23 133e 800b 09bc 6ec3 e03d
00000280: 5056 99bc a8a2 41bd 4437 22bd 84c1 0c3d
00000290: b0eb 01bd 2e74 efbd f043 33bc 72af 8c3d
000002a0: 0211 9cbd d677 0bbe 38cf f43c 4872 143d
000002b0: 2c8c 523d 208c d33c 5829 3a3d 3e12 cf3d
000002c0: b0e6 4a3c 6270 e13d f86b 3ebd 187f 383d
000002d0: e08f f03b 325e a63d a05d 613d 943b 183d
000002e0: 861c aa3d d69b 833d d94d 0abe d63a df3d
000002f0: 6a6d 7ebd 3eb4 86bd d852 bdbc b4aa 2e3d
00000300: c76b 86bd 2c81 e7bd 689f 193d 0a6b c93d
00000310: 1ee3 d63d 6f83 033e 24a0 033d cd20 a0bd
00000320: 647e 973d 5870 a23d 82a8 1cbe 16df f4bd
00000330: d8c4 533d b9f5 0f3e ea8f dc3d c44b 97bd
00000340: 9d84 063e af6c 1f3e ecce 20be ac3f 02bd
00000350: f857 57bd 7464 593d 141f 06be e0a1 2f3c
00000360: be15 bb3d 86f7 d93d 20d5 0b3d 20d0 2e3d
00000370: c6eb a03d 12c6 f4bd a728 0d3e 1c4d 0e3d
00000380: ce12 e0bd 1b6e fbbd 3646 ff3d aaa7 4cbd
00000390: 7653 f9bd 5815 d63c c419 e5bd eec6 28bd
000003a0: 9087 75bc 71de f4bd ac13 22bd 4843 eebc
000003b0: 2e1b 55bd 09b6 073e e0d6 a43d d00e 07bc
000003c0: 903f b33d a940 143e 2043 ad3d 8b5c 80bd
000003d0: baca fe3d e0c2 643d 02d1 f33d a833 2d3d
000003e0: a089 b4bc 782d 8e3d 7797 163e 565d e13d
000003f0: 3878 593d bc39 4fbd ceec 76bd 288b 88bc

lstm.bias_ih_l1 f4 [160]
0.13217795 0.24737005 -0.007277712 -0.020793349 0.19214071 0.19544974 0.29372725 -0.013502755
-0.085439704 0.028462352 0.14858612 0.14007102 0.09920086 0.1369603 0.42462045 0.09250454
0.23664078 -0.05120268 0.19806966 0.24173039 0.20278634 0.08410497 0.1134072 0.27920634
0.442466 0.26931795 0.2432934 0.015360994 0.037839226 0.1032873 0.30130878 0.20254101
0.2548094 0.36341298 0.21616283 -0.034173626 0.14623407 0.07898082 0.20987481 0.10375714
-0.10382204 0.09861322 -0.036704905 -0.1220451 -0.10419956 0.14321376 0.124103054 0.14030062
-0.0743441 -0.05471573 -0.04241039 -0.11791381 -0.04954575 0.115324005 0.06043531 0.1477385
-0.046876766 0.06842075 0.12434797 -0.10649363 0.12760912 -0.096896395 0.11342238 -0.015037566
-0.0027129054 0.06318769 0.10401027 -0.08956824 -0.076945364 0.13016601 -0.108667046 0.12156345
-0.09038081 0.12086506 0.04454477 0.141414 0.024658263 0.13710628 -0.13671197 0.051059976
0.037433226 -0.009962308 0.15294535 0.047590844 -0.014277443 -0.10193916 -0.16039038 0.10119531
-0.07406882 -0.10718401 -0.19491816 -0.0055138734 -0.10555859 0.1187823 -0.10851096 0.10921401
0.031322706 0.20275302 0.045827877 -0.023544258 -0.16781461 0.071607724 0.09576786 -0.076450996
0.03894158 -0.12510201 0.11733052 -0.048427757 -0.09987025 0.0026124404 0.08051887 0.0140902605
0.1728069 0.077733666 0.038458474 0.007749717 0.06934961 -0.078834645 0.0009045879 0.01722984
0.080397025 0.0908098 0.19480245 0.091999896 0.17997241 0.19065584 0.17243049 -0.054677
0.019036394 0.029163186 0.19198485 0.12750874 0.14287312 -0.063576125 0.40270108 0.10519137
0.18234712 0.025676379 0.05231981 0.18565027 0.1512973 0.19081023 0.27215797 0.038726978
0.1866066 0.23663618 0.34384793 0.1741084 0.0033741072 0.028844194 0.19190103 0.050403967
0.09086638 0.3119235 0.18188289 0.08044765 0.23080961 0.06286384 0.026409926 0.16246043
00000000: a859 073e 934e 7d3e e079 eebb d056 aabc
00000010: 89c0 443e fa23 483e 6b63 963e a93a 5dbc
00000020: 03fb aebd e129 e93c f626 183e c76e 0f3e
00000030: d229 cb3d 523f 0c3e da67 d93e 0573 bd3d
00000040: f651 723e e7b9 51bd c6d2 4a3e 2c88 773e
00000050: 39a7 4f3e 3a3f ac3d 0942 e83d 22f4 8e3e
00000060: e78a e23e 0be4 893e e821 793e aeac 7b3c
00000070: 4efd 1a3d 4b88 d33d 2545 9a3e e966 4f3e
00000080: 6176 823e 4411 ba3e ca59 5d3e a5f9 0bbd
00000090: 62be 153e b2c0 a13d 6ce9 563e a07e d43d
000000a0: a6a0 d4bd baf5 c93d e257 16bd c8f2 f9bd
000000b0: 9466 d5bd a1a6 123e be29 fe3d f7aa 0f3e
000000c0: b841 98bd 9a1d 60bd 84b6 2dbd cc7c f1bd
000000d0: 7cf0 4abd fe2e ec3d 048b 773d c348 173e
000000e0: da01 40bd 2e20 8c3d 26aa fe3d 5519 dabd
000000f0: f7ab 023e 9e71 c6bd fe49 e83d 2060 76bc
00000100: 00cb 31bb 8c68 813d 5603 d53d 8e6f b7bd
00000110: 8895 9dbd 3d4a 053e d48c debd 42f6 f83d
00000120: 9319 b9bd 1a88 f73d 9474 363d d5ce 103e
00000130: 2000 ca3c 9765 0c3e 39fe 0bbe 4424 513d
00000140: 9553 193d f338 23bc b59d 1c3e 9eee 423d
00000150: f0eb 69bc 7ac5 d0bd 603d 24be 7d3f cf3d
00000160: 65b1 97bd 4a83 dbbd a098 47be b9ad b4bb
00000170: 1a2f d8bd 2244 f33d ff3a debd 98ab df3d
00000180: 3d4c 003d 7d9e 4f3e 03b6 3b3d e3df c0bc
00000190: 98d7 2bbe 12a7 923d f121 c43d 5792 9cbd
000001a0: 3581 1f3d be1a 00be fc4a f03d 2f5c 46bd
000001b0: c688 ccbd 7a35 2b3b 14e7 a43d d6da 663c
000001c0: 4bf4 303e d432 9f3d a286 1d3d 57f1 fd3b
000001d0: 2b07 8e3d 0f74 a1bd de21 6d3a 9825 8d3c
000001e0: 32a7 a43d 7dfa b93d 4b7a 473e 716a bc3d
000001f0: b04a 383e 493b 433e 9e91 303e fdf4 5fbd
00000200: 36f2 9b3c a2e7 ee3c ad97 443e a791 023e
00000210: 554d 123e 3334 82bd d62e ce3e 936e d73d
00000220: 34b9 3a3e 4557 d23c 4c4d 563d 1b1b 3e3e
00000230: aeed 1a3e c263 433e 4a58 8b3e 2ea0 1e3d
00000240: cd15 3f3e c150 723e d60c b03e 7949 323e
00000250: 2020 5d3b a94a ec3c b481 443e 6474 4e3d
00000260: 2718 ba3d 70b4 9f3e 823f 3a3e bdc1 a43d
00000270: 5b59 6c3e c2be 803d a159 d83c 075c 263e

lstm.bias_hh_l1 f4 [160]
0.020849293 0.084956296 0.025657343 0.053663284 0.21983825 0.23466681 0.12141955 0.087127164
-0.068910204 0.23385629 0.0673642 0.07704542 0.16070616 0.011297075 0.20447998 0.12886477
0.26569596 0.15884605 0.103477456 0.19640419 0.18682022 0.21573125 0.18320516 0.17541456
0.33460978 0.49128374 0.18795748 0.07997064 0.2591269 0.08215568 0.05185103 0.27176848
0.30246532 0.21587686 0.12308215 0.074891195 0.07135752 0.14176087 0.065114245 0.27434963
-0.12383638 0.09960024 -0.12303186 0.07436676 -0.100106254 -0.04970163 -0.0034561604 -0.11633119
0.0769262 0.052573785 0.093652084 0.079918265 -0.064407885 0.08199352 0.07426253 0.09067786
0.12687336 0.14651902 -0.0054865777 -0.15032303 0.0750943 0.109014854 -0.12226808 0.1211829
-0.120312475 0.008355975 0.099626526 0.08269183 -0.10584614 -0.15396531 0.054200232 0.06456654
0.0721595 0.099629775 -0.011473715 -0.056598708 -0.14005758 -0.0615955 -0.043206334 -0.10493941
-0.08885587 0.0075271036 0.14811207 -0.073316395 -0.14186312 0.14169557 -0.14162618 0.1173015
-0.11714188 -0.024076661 -0.12043438 -0.115234405 -0.04018054 0.1120829 -0.047255237 -0.08784133
0.093462124 0.061248846 0.2834878 0.09794684 -0.21994948 0.078955874 -0.045719586 -0.07677487
-0.0508473 -0.056295387 0.14877251 0.04580416 -0.0151184555 0.06237758 -0.07061091 -0.019434592
0.1581919 -0.08536366 -0.035101995 0.000881833 0.10978576 -0.1282891 0.12500083 -0.023340391
0.080681965 0.2732069 0.13524875 0.094443835 0.24259208 0.26895788 0.06638696 0.06828232
-0.023746375 0.26950082 0.1236403 0.049346663 0.30003524 0.16333705 0.34621394 0.23369634
0.12872642 0.125553 0.24432583 0.104067475 0.13715127 0.19458213 0.16044801 0.040714134
0.21360935 0.336038 0.21868667 0.25228614 0.09447677 0.06773125 0.030718194 0.09910146
0.33896556 0.31464213 0.22887152 -0.008885749 0.16129597 0.20940949 0.06023775 0.33123308
00000000: 23cc aa3c 91fd ad3d 592f d23c 08ce 5b3d
00000010: 471d 613e 7f4c 703e d0aa f83d ba6f b23d
00000020: cb20 8dbd 0678 6f3e 3ef6 893d fdc9 9d3d
00000030: 2890 243e 5e17 393c 3363 513e 20f5 033e
00000040: 4d09 883e 8aa8 223e fdeb d33d 2e1e 493e
00000050: cd4d 3f3e a7e8 5c3e 229a 3b3e e09f 333e
00000060: f951 ab3e 8b89 fb3e ed77 403e a6c7 a33d
00000070: 48ac 843e 3d41 a83d bf61 543d 3d25 8b3e
00000080: bcdc 9a3e d30e 5d3e 7f12 fc3d 8e60 993d
00000090: e423 923d c329 113e 9e5a 853d 8e77 8c3e
000000a0: ee9d fdbd 36fb cb3d 21f8 fbbd 9a4d 983d
000000b0: 8204 cdbd f093 4bbd c080 62bb 0c3f eebd
000000c0: 7c8b 9d3d 9c57 573d aacc bf3d 30ac a33d
000000d0: 48e8 83bd 38ec a73d f416 983d 50b5 b93d
000000e0: 17eb 013e 1509 163e c0c8 b3bb 48ee 19be
000000f0: 0acb 993d 2e43 df3d b067 fabd be2e f83d
00000100: 6366 f6bd 80e7 083c fe08 cc3d 565a a93d
00000110: dcc5 d8bd 15a9 1dbe 1001 5e3d 763b 843d
00000120: 5cc8 933d b20a cc3d 40fc 3bbc 0cd4 67bd
00000130: 416b 0fbe 904b 7cbd 20f9 30bd 79ea d6bd
00000140: 11fa b5bd eca5 f63b b1aa 173e e826 96bd
00000150: 9144 11be a518 113e 7406 11be c53b f03d
00000160: 15e8 efbd 6b3c c5bc 4da6 f6bd 0400 ecbd
00000170: 5a94 24bd b88b e53d b58e 41bd 28e6 b3bd
00000180: 1269 bf3d 12e0 7a3d 5025 913e 5a98 c83d
00000190: 703a 61be 9eb3 a13d 7644 3bbd 253c 9dbd
000001a0: 4245 50bd fe95 66bd d257 183e 259d 3b3d
000001b0: 66b3 77bc a27f 7f3d 749c 90bd 4b35 9fbc
000001c0: 0ffd 213e 24d3 aebd 1cc7 0fbd d02a 673a
000001d0: 5bd7 e03d 385e 03be 3800 003e 5934 bfbc
000001e0: 963c a53d c6e1 8b3e a67e 0a3e c56b c13d
000001f0: 0f6a 783e d9b4 893e e3f5 873d 9ad7 8b3d
00000200: c287 c2bc 03fc 893e 2037 fd3d ba1f 4a3d
00000210: 389e 993e d441 273e f442 b13e 184e 6f3e
00000220: dcd0 033e f790 003e 8d30 7a3e 5421 d53d
00000230: 6271 0c3e 8a40 473e 7c4c 243e ddc3 263d
00000240: 69bc 5a3e 2c0d ac3e 66ef 5f3e a62b 813e
00000250: 097d c13d aeb6 8a3d b9a4 fb3c b5f5 ca3d
00000260: e58c ad3e c618 a13e 4c5d 6a3e 8895 11bc
00000270: c52a 253e 716f 563e dcbb 763d 6297 a93e

linear.weight f4 [6, 40]
0.6098833 -0.32252058 0.27997023 0.39403948 -0.3005439 0.19951355 0.39597753 0.18342301
0.020788936 0.9584261 -0.35428548 -0.17382853 0.37654045 -0.4357535 -0.34646165 0.5125468
0.80779934 0.111035936 -0.39284083 -0.505315 0.0076219323 0.21436124 0.562485 -0.6376
0.39045936 0.19699004 -0.17063373 -0.11064654 -0.24842255 0.03159749 0.6729713 0.39114156
0.029824354 -0.72633797 0.8036852 0.09690279 0.16238405 -0.23970409 -0.20917313 0.75161827
-0.38852334 -0.36155465 -0.6267579 0.3847662 0.6936606 0.23918377 0.34266952 -0.018208746
-0.020304037 0.06682186 0.7198282 0.6895396 0.08382394 -0.54591674 0.03190918 -0.25857618
0.09261516 -1.3531333 -0.28558314 -0.17927589 1.2908353 -0.7287514 -0.34882703 -0.027129024
-0.08367191 0.68475306 -0.6282423 0.4952064 0.4421473 0.26672134 0.17980847 0.7134853
-0.5386746 -0.07103098 0.35239458 -0.046279937 -0.9475485 0.2078983 -0.7905113 -0.23362345
-0.0409403 0.05981066 -0.0047632228 -0.056037504 0.01849665 -0.008687289 -0.14073099 -0.023115901
-0.0022798562 -0.12053398 0.024756571 -0.018202225 -0.10031648 0.10778742 0.051959146 -0.05498491
-0.08134619 -0.004664372 0.042556595 0.090277866 -0.0461864 0.014493362 -0.056032833 0.09073121
-0.047136556 -0.059388354 0.026361963 -0.0074464306 0.0028771174 0.01740606 -0.08184986 -0.10643211
0.04956095 0.09188105 -0.10982608 -0.058514584 -0.0014219735 0.06560536 0.08815616 -0.054401103
-0.47802058 -0.7470795 -0.17239596 0.7391915 0.27799737 0.55148363 0.10424201 0.35834268
-0.89651036 -0.108167246 0.08981858 0.4847792 -0.15673116 -0.048604183 -0.15620892 -0.03168041
-0.06362369 -0.16551134 0.33611488 -0.121199496 0.22297435 -0.36503637 -0.12557757 -0.07578686
-0.07951361 0.21795258 -0.34963638 0.89571136 0.49403962 1.3024269 0.45758128 0.16531286
-0.1520511 -0.06679594 0.05330483 -0.12017907 -0.2213824 -0.073728114 -0.22820713 -0.2226766
-0.6417419 0.2455571 -0.16857624 -0.167333 0.06840153 0.3442984 -0.2512693 -0.37160754
0.011235956 -0.39536905 0.12103764 0.07307203 -0.17511746 0.19238508 0.84664214 -0.6358727
-0.49516937 -0.10560365 -0.311028 0.4683474 0.03444291 0.05103306 -0.36260474 0.47994733
-0.4564463 -0.23064424 -0.40952075 -0.046671566 0.28310037 -0.035478953 -0.5338507 -0.13992363
0.17806593 0.44633502 -0.33688194 -0.30287462 0.052067876 0.89253783 0.20278671 -0.7282061
0.05919854 0.07090149 0.0902756 -0.048825935 -0.052435674 -0.07681272 -0.01615227 -0.060497522
0.19798991 0.021807838 -0.025550786 -0.114014395 0.019969098 0.0065869554 -0.0136570865 0.03417419
0.0058554746 0.02190926 -0.049548294 0.012413324 -0.022233024 0.08064462 0.036239736 -0.0020903777
0.032423053 -0.02881576 0.031607494 -0.10988462 -0.100949354 -0.17941144 -0.042021815 -0.007018179
0.016875371 0.0035091708 -0.007334981 0.08934623 0.02540165 -0.009075577 0.020281062 0.032167207
00000000: 5021 1c3f 6b21 a5be 4258 8f3e 8bbf c93e
00000010: e4e0 99be 484d 4c3e 91bd ca3e 3ed3 3b3e
00000020: 8f4d aa3c 6a5b 753f e864 b5be 1b00 32be
00000030: e9c9 c03e 151b dfbe 6c63 b1be 4436 033f
00000040: f0cb 4e3f cf66 e33d 6f22 c9be 535c 01bf
00000050: 67c1 f93b 8381 5b3e 04ff 0f3f c139 23bf
00000060: 4aea c73e c2b7 493e 9cba 2ebe a79a e2bd
00000070: 7b62 7ebe 5f6c 013d d947 2c3f b543 c83e
00000080: 3452 f43c 49f1 39bf 50be 4d3f f874 c63d
00000090: 0148 263e fd74 75be 7b31 56be 0e6a 403f
000000a0: 88ec c6be b11d b9be 3573 20bf 1300 c53e
000000b0: be93 313f 97ec 743e 6172 af3e 822a 95bc
000000c0: a754 a6bc e6d9 883d a946 383f ab85 303f
000000d0: e3ab ab3d 33c1 0bbf 33b3 023d 1964 84be
000000e0: 04ad bd3d 7933 adbf f437 92be 1994 37be
000000f0: 173a a53f 748f 3abf 7599 b2be b03d debc
00000100: 2e5c abbd fa4b 2f3f 7dd4 20bf b18b fd3e
00000110: 2261 e23e b38f 883e b61f 383e f9a6 363f
00000120: 94e6 09bf b178 91bd 106d b43e 0890 3dbd
00000130: 8a92 72bf 4be3 543e f35e 4abf fc3a 6fbe
00000140: 04b1 27bd 06fc 743d cf14 9cbb 9587 65bd
00000150: 4986 973c 2255 0ebc c91b 10be 8f5d bdbc
00000160: a469 15bb 85da f6bd 4bce ca3c d51c 95bc
00000170: ba72 cdbd a7bf dc3d 1dd3 543d db37 61bd
00000180: d598 a6bd 97d7 98bb d34f 2e3d 9ae3 b83d
00000190: f32d 3dbd 9175 6d3c af82 65bd 49d1 b93d
000001a0: 4312 41bd 3441 73bd 0bf5 d73c 3001 f4bb
000001b0: 058e 3c3b 2797 8e3c e6a0 a7bd 14f9 d9bd
000001c0: 6c00 4b3d 222c bc3d 7fec e0bd fdac 6fbd
000001d0: 8361 baba 1a5c 863d 388b b43d b1d3 5ebd
000001e0: 1dbf f4be 9a40 3fbf 9188 30be a73b 3d3f
000001f0: ac55 8e3e 082e 0d3f d67c d53d b178 b73e
00000200: b481 65bf ca86 ddbd cef2 b73d fb34 f83e
00000210: 227e 20be 2e15 47bd 3bf5 1fbe 51c3 01bd
00000220: 234d 82bd ce7b 29be 4017 ac3e 7137 f8bd
00000230: 6353 643e 0ce6 babe 6897 00be 2436 9bbd
00000240: 08d8 a2bd f62e 5f3e 8a03 b3be 574d 653f
00000250: c3f2 fc3e edb5 a63f 1848 ea3e c647 293e
00000260: 49b3 1bbe 4fcc 88bd 2a56 5a3d 7220 f6bd
00000270: 11b2 62be c4fe 96bd 21af 69be 5605 64be
00000280: 3249 24bf 5273 7b3e 409f 2cbe 5859 2bbe
00000290: 1a16 8c3d e147 b03e 5fa6 80be 5843 bebe
000002a0: 0417 383c d06d cabe 95e2 f73d caa6 953d
000002b0: fe51 33be 9800 453e 8abd 583f 8ec8 22bf
000002c0: d786 fdbe ba46 d8bd 103f 9fbe 3bcb ef3e
000002d0: 0214 0d3d 0b08 513d 54a7 b9be a8bb f53e
000002e0: 54b3 e9be 012e 6cbe b4ac d1be af2a 3fbd
000002f0: 88f2 903e 6152 11bd 71aa 08bf 2448 0fbe
00000300: ea56 363e 0686 e43e ca7b acbe 6212 9bbe
00000310: 2045 553d 5c7d 643f 52a7 4f3e b76b 3abf
00000320: 2b7a 723d cd34 913d 6ae2 b83d b4fd 47bd
00000330: cac6 56bd fd4f 9dbd c451 84bc 40cc 77bd
00000340: debd 4a3e 5aa6 b23c e24f d1bc 6180 e9bd
00000350: 3c96 a33c 63d7 d73b f9c1 5fbc 3cfa 0b3d
00000360: 48df bf3b 0c7b b33c 27f3 4abd 4161 4b3c
00000370: 0822 b6bc 0229 a53d 1e70 143d b8fe 08bb
00000380: 09ce 043d 070f ecbc dc76 013d 300b e1bd
00000390: 89be cebd a2b7 37be 111f 2cbd c1f8 e5bb
000003a0: 383e 8a3c 1efa 653b 485a f0bb 28fb b63d
000003b0: 1f17 d03c bbb1 14bc 7824 a63c c3c1 033d

linear.bias f4 [6]
0.018619241 -0.5548321 0.027946828 -0.068319574 -0.03585411 0.020282375
00000000: 6187 983c 7a09 0ebf bff0 e43c 22eb 8bbd
00000010: c2db 12bd 3927 a63c
