models/549/model.pt (torch_old, 108056 bytes, 12 tensors)

weight_ih_l0 f4 [160, 10]
000000 86 b1 86 be 65 f9 46 be 54 41 f7 3e 39 4e 0a be
       -0.26307315 -0.19431074 0.4829203 -0.13506402
000010 a4 2f 53 bb 20 6d 13 3e 3f 05 d5 be 01 84 a6 bc
       -0.003222444 0.14397097 -0.41605565 -0.020326616
000020 7b 94 83 3e f9 b8 fb be 2c 27 af 3e 4b eb 26 3e
       0.2569922 -0.4916456 0.34209573 0.16300695
000030 5e b3 be 3d 8a 1c 4c be 19 72 a7 3d 3d 36 87 3d
       0.09311555 -0.19932762 0.08176059 0.06602142
000040 ad 52 03 bd 41 34 76 3e f9 c2 82 3d 15 07 98 3d
       -0.032061268 0.24043371 0.06384844 0.07423226
000050 5a b7 e4 be 34 65 a3 bc 8e 93 2f 3d d0 96 18 be
       -0.44671136 -0.019945718 0.04286533 -0.1490128
000060 3f ae 93 be 68 b5 55 bd 68 39 07 3d 4e e3 71 bd
       -0.28843877 -0.052174956 0.03301373 -0.059054665
000070 bc d6 18 bc 59 02 73 3e 09 67 09 bf 0c bd ff be
       -0.00932854 0.23731364 -0.53672844 -0.4994892
000080 3c 53 bd 3e 73 af 66 bd a0 de 39 3d 3d 43 39 3e
       0.36977565 -0.056319665 0.045378327 0.18092056
000090 61 54 dc be e8 f1 9e bd 26 70 f1 3e aa c0 08 bf
       -0.43033126 -0.07760984 0.47155875 -0.5341898
0000a0 b8 9f 92 be 2f 0b 0d 3d 8b 06 0a 3d cf 5d bd be
       -0.2863748 0.034434494 0.033697646 -0.36985633
0000b0 73 16 c5 3e 90 ee 72 be 34 7a d3 3c d2 2e b4 3d
       0.3849369 -0.23723817 0.025815107 0.08797993
0000c0 d4 a5 b4 be d9 e7 fb 3d 3b c9 30 3e 9f ba 15 3e
       -0.35282767 0.12300081 0.17264263 0.14621972
0000d0 02 17 0c 3e a2 4f ea bd 2f db 28 3e f8 f5 4a bc
       0.13680652 -0.1144097 0.16489862 -0.012387745
0000e0 2c 73 a5 bd 92 cd 52 bd 05 3c 28 3c 6e 7c 18 3e
       -0.08078608 -0.05146558 0.010268216 0.14891216
0000f0 fe 6c 93 3e f5 4b e4 3d e5 75 87 3d 17 a8 80 be
       0.28794092 0.111473 0.066142835 -0.25128242
000100 b4 dc bc bd 5d 38 82 3e f6 a9 54 bc f8 72 78 bb
       -0.09221783 0.25433627 -0.012979975 -0.0037910324
000110 9c 00 2b 3e 40 7e e3 bd b7 56 6a 3e 58 30 9d bd
       0.16699451 -0.11108065 0.22884642 -0.076752365
000120 4e d2 fe 3d 58 14 02 bd b8 34 98 3e 64 e2 63 bd
       0.12442456 -0.031757683 0.2972772 -0.055635825
000130 a8 1b c3 3d 9c 39 99 3e 6f 71 de bd 01 5e 05 3e
       0.095267594 0.29926765 -0.108614795 0.13024141
000140 a7 98 a9 3e b1 17 5f 3e 38 a2 73 3d 05 23 72 bd
       0.33124277 0.21786381 0.059480876 -0.05911543
000150 1c 45 bb bd c0 97 92 3c ce e0 17 3d d8 aa 16 be
       -0.09144041 0.017894626 0.037079625 -0.14713609
000160 ef ae 4f 3d 0a d0 57 3e 7d 02 26 be 4c ac a5 bd
       0.05070394 0.21075454 -0.16211887 -0.08089504
000170 fc 62 8c be 86 4a b1 39 72 a6 e6 be 9b 79 01 3f
       -0.2741927 0.00033815595 -0.45048863 0.5057618
000180 8f 2b e4 3d 99 ad a7 be 43 26 bf 3e b5 5e d3 bd
       0.11141121 -0.32749632 0.3733388 -0.10320798
000190 c8 eb 1b be 57 7a aa 3c 01 b1 52 be 84 c0 3c be
       -0.15226662 0.02081029 -0.20575334 -0.18432814
0001a0 ba f1 9e be a9 b0 b7 3e 37 15 0c 3b 4e a3 82 be
       -0.31043798 0.35876969 0.002137495 -0.25515217
0001b0 1a 47 76 3e bc 0e 98 3d b3 02 c5 bd d6 88 41 3e
       0.2405056 0.07424685 -0.096196555 0.18899855
0001c0 82 3b 87 be 3c 30 d3 bd e9 de 03 be ec 51 22 3d
       -0.26412588 -0.10311934 -0.12878002 0.039628908
0001d0 3f 52 b7 3e b8 37 b3 bd 14 f9 c8 3b 0f 7b 9c 3e
       0.35804936 -0.08750862 0.006133208 0.30562636
0001e0 72 67 9e bd b2 a0 a4 bd 0a 0d 2e be aa 19 6b 3d
       -0.077345744 -0.08038463 -0.16997162 0.057397522
0001f0 79 e7 a8 be 96 56 de 3e a9 67 dc 3c 31 68 0f bf
       -0.329891 0.43425435 0.026904898 -0.5601836
000200 54 3b 24 3f 93 01 95 3d bf a5 a0 3d dd 63 4a bd
       0.6415303 0.07275691 0.078441136 -0.049411643
000210 6b 7f 9e bd 8b ba 0b bd 05 c8 ef bd 9c b3 c3 3e
       -0.07739147 -0.034113448 -0.117080726 0.3822297
000220 9c 3c 0b bd a7 47 97 bd ca c2 bc 3d af ac 82 3c
       -0.03399335 -0.073867135 0.092168406 0.015951483
000230 fb 04 24 bf d8 1f 80 3e bb ae b5 bd b0 50 70 be
       -0.640701 0.25024295 -0.08871218 -0.2346828
000240 14 9d 5b 3d 09 16 b7 be 4c 6f 85 3e e2 55 d3 3c
       0.0536166 -0.35759 0.26061475 0.025797788
000250 12 29 fa bd 10 32 85 3e 71 92 3b be 0e b3 05 bd
       -0.12214865 0.26014757 -0.18317582 -0.032641463
000260 34 d5 83 3d 56 29 7a bd 3d 89 97 3d d0 3e 9a be
       0.0643715 -0.061074577 0.07399223 -0.30126047
000270 55 e5 13 3e 6f 5b e9 3d d0 af 44 be 20 ad a9 bd
       0.14442952 0.11394393 -0.19207692 -0.08284974
000280 7b 6c 35 3e a6 05 a4 3b 48 04 81 3d f0 81 7a be
       0.17717163 0.005005556 0.06299645 -0.2446363
000290 42 73 70 3d 71 b8 36 3d 42 9c 68 3d f0 57 b1 3d
       0.05870367 0.04460949 0.056789644 0.08659351
0002a0 e1 9f c7 bd 74 74 19 3d de 3d 89 3e c1 ef a0 be
       -0.09747291 0.037464574 0.26805013 -0.31432918
0002b0 26 33 f5 3c da 76 88 3c a2 0c c3 be bc 3f 8b 3e
       0.029931616 0.016658235 -0.38095576 0.27197063
0002c0 e6 95 1e be e1 27 bb be 4f c0 7a 3e ca 87 9b be
       -0.15486869 -0.36553863 0.24487422 -0.30377036
0002d0 1e dc 52 be bd 17 16 3d 4e fb c1 3d 7d d8 4c bd
       -0.2059178 0.036643732 0.09471761 -0.050011147
0002e0 dc 4a 8f 3e 41 22 cc 3d c4 74 a4 be b0 39 a1 3e
       0.279868 0.09967471 -0.32120335 0.31489325
0002f0 43 fc 14 be a7 49 7f be a2 d8 82 3e 94 06 bd be
       -0.14549355 -0.2493044 0.25555903 -0.3691908
000300 87 4c d3 3e f6 a1 22 3e 77 5a 3f be 13 bb 8d 3e
       0.41269323 0.15882096 -0.18686853 0.2768179
000310 54 21 ee be 49 d1 39 be b8 7b eb 3e 20 66 fa be
       -0.46509802 -0.18146242 0.45992827 -0.4890604
000320 63 8d 37 be b4 bc 6e be 89 aa 19 3e 1e a8 a8 bc
       -0.17925029 -0.23314172 0.1500646 -0.020587977
000330 19 d5 20 be 3c fd 8a 3e 61 50 8a be a6 aa a2 bd
       -0.1570629 0.27146327 -0.2701445 -0.07942705
000340 1e 63 02 3f fe 02 5e be ce bf 13 be 18 07 ec bd
       0.5093249 -0.21680829 -0.14428636 -0.115247905
000350 fb 92 32 3e 3f ac f1 bd 25 f8 37 3e be 29 2d 3d
       0.17438881 -0.118004315 0.17965753 0.042276137
000360 49 a0 7c bd 33 a5 3e 3e a0 ad 1d be d9 56 8d 3c
       -0.061676297 0.18617706 -0.15398264 0.017253326
000370 1e 87 78 3e 2f 30 f4 bd 95 45 9a 3e 93 bf 0c be
       0.24270293 -0.11923253 0.30131212 -0.13744955
000380 b0 c3 4d 3e 80 9a 24 3e 11 67 7a be 23 4f fb 3d
       0.2009418 0.16074562 -0.24453379 0.122709535
000390 dc 1c 45 3c 53 66 fe be 77 4b b6 3d d8 a3 67 3e
       0.012030806 -0.49687442 0.089011125 0.22621095
0003a0 10 a7 11 3d 30 6e 68 be 25 b0 ca bd 43 74 16 3e
       0.035559714 -0.22698283 -0.09896878 0.14692788
0003b0 9c 05 a1 3e 8f 6c 7e be 8c 44 3f 3d 73 f3 7c 3e
       0.31449592 -0.248461 0.04669623 0.24702244
0003c0 b1 55 1e 3d 72 5b 1e 3d 42 2f 43 3d 6e 4c 73 be
       0.03865594 0.038661428 0.04765249 -0.23759624
0003d0 81 88 8f 3c 40 12 c4 3b e4 d6 ad 3d ac 72 41 3d
       0.017521145 0.005983621 0.08488253 0.0472285
0003e0 a7 0f 1d bd 82 6a cc 3d 25 c4 13 bd 00 5c 7e 3c
       -0.038345005 0.09981252 -0.03607573 0.015524864
0003f0 84 ba bd 3e e9 48 10 be 3f fb 19 3e 1d 9f 45 bc
       0.37056363 -0.14090313 0.15037249 -0.012061861

weight_hh_l0 f4 [160, 40]
000000 d4 e6 dd bd 3e 02 04 be 7e 98 8c bd 88 3e f0 bc
       -0.108350426 -0.1289148 -0.06865023 -0.029326692
000010 a3 55 1f 3e b8 81 ad 3d b0 d3 19 bd 54 82 5b bd
       0.15560012 0.084720075 -0.037555397 -0.053591087
000020 e4 ab 1b be e0 43 2d bc 5c 4f 6a 3d 36 10 08 bd
       -0.1520229 -0.010575265 0.05720459 -0.033218585
000030 50 73 01 3c d0 1e b4 bd 4e 44 d0 3d 10 42 f4 bc
       0.007901028 -0.087949395 0.10169278 -0.029816657
000040 64 c8 7b bd a6 ad b7 3d b4 74 ed bd b7 5e 1b 3e
       -0.061470404 0.08968668 -0.11594525 0.1517285
000050 78 f4 49 bd 80 a5 d2 3b d0 a2 b5 3d fd a2 05 3e
       -0.04930541 0.0064284205 0.08868945 0.13050456
000060 30 2f 77 3d e4 24 08 be 56 1f fc 3d 28 9c dc bc
       0.060347736 -0.13295323 0.12310664 -0.02692993
000070 74 dc 18 bd 10 8f 91 3c ba da 95 3d ac 8a 8a bd
       -0.037319615 0.017768413 0.073171094 -0.06764731
000080 ef 88 20 3e 7a bc fc 3d d7 56 10 be 96 df c9 3d
       0.15677236 0.123406366 -0.14095627 0.09857099
000090 00 9e b1 3a 80 87 e1 bb 45 c0 11 3e e7 42 10 3e
       0.0013551116 -0.006882608 0.14233501 0.14088021
0000a0 cb 73 ab bd dd 36 87 bd bc 97 90 3d 20 04 1a 3d
       -0.08371695 -0.06602261 0.07060191 0.03760159
0000b0 60 e1 46 bc b1 65 b5 bd 72 94 1a be 64 3c f8 bd
       -0.0121386945 -0.08857287 -0.1509569 -0.121208936
0000c0 70 75 6d 3d 0b ed 8c bd bc fe 64 3d 70 e5 bc 3c
       0.057973325 -0.0688115 0.055906996 0.023058623
0000d0 40 a8 ef 3b 78 dd aa bc 83 0b 10 be 9c 94 00 bd
       0.007313758 -0.020857558 -0.14066891 -0.031391725
0000e0 e1 df 17 be 16 b5 88 3d d5 69 1d be 27 96 07 be
       -0.14831497 0.066751644 -0.15372403 -0.13240872
0000f0 22 1e 49 bd 8a 65 6a bd 23 19 d7 bd 54 3b 4e bd
       -0.049101003 -0.05722574 -0.10502841 -0.05034955
000100 0d 1a 13 3e f0 70 54 3d 5f 5b 06 3e 2e 5f e6 3d
       0.14365406 0.051865518 0.13120793 0.11248623
000110 1b d8 fa bd b5 03 a9 bd 74 8d 38 3d 34 ac 85 bd
       -0.1224825 -0.0825266 0.045056775 -0.06526986
000120 2e 0b e7 bd 00 da 90 39 45 6f 8d bd d8 e1 11 3d
       -0.11281429 0.00027628243 -0.069059886 0.035615772
000130 48 bf 80 3d b2 a0 10 bd 7e fa 15 be f0 0e b9 bc
       0.06286484 -0.0353095 -0.14646336 -0.02259013
000140 b0 7d 27 bc 14 01 96 bd 3b 5d 21 3e e2 0c bf bd
       -0.010222837 -0.073244244 0.15758221 -0.09328629
000150 b6 7a 30 bd 21 bb fd bd 45 ec 20 3e 98 57 b6 bc
       -0.043085776 -0.12389208 0.1571513 -0.022258565
000160 df b2 1f 3e da ed ac 3d 45 22 11 3e a6 0f c4 3d
       0.15595578 0.08443804 0.14173229 0.09573297
000170 f4 dc 16 be 6f 94 0a 3e 37 ef 1b be d7 f1 b8 bd
       -0.14732724 0.13533185 -0.15227972 -0.09030502
000180 66 0c fa 3d 4a 12 2c bd 6a 60 b3 3d ae a3 d0 3d
       0.12209396 -0.04200963 0.08758624 0.101874694
000190 49 1b b3 bd 40 10 7a 3c f0 b4 1a be be d6 ce 3d
       -0.087454386 0.015262663 -0.15108085 0.100995526
0001a0 a2 88 14 be 3b bc b5 bd 42 d7 a8 3d 8d 81 fc bd
       -0.14505246 -0.08873793 0.08244182 -0.12329397
0001b0 be 19 fc 3d 9a 44 c9 3d 89 4e be bd e3 f6 00 3e
       0.123095974 0.09827538 -0.09292323 0.1259418
0001c0 9b b2 0a 3e a0 1f ed bd 36 de 0b be e8 3b 04 bd
       0.13544695 -0.115782976 -0.13658985 -0.032283694
0001d0 fa 27 9b 3d 5a 25 ba 3d 70 36 4c bd 3a f1 f5 3d
       0.07575984 0.090891555 -0.049856603 0.12008901
0001e0 c4 81 e4 bd e0 0c a7 bb 4a 1f 5f bd 2c 4a 03 bd
       -0.11157563 -0.0050979704 -0.0544732 -0.032053158
0001f0 68 9f 0b be e2 59 fd 3d b2 ef ac 3d 80 65 ae 3b
       -0.13635027 0.123706594 0.08444156 0.0053221583
000200 d0 44 ac bc 80 75 c0 bc 40 79 50 3b 28 b5 0e be
       -0.021028906 -0.023493528 0.0031810552 -0.13936293
000210 f0 16 73 bc 40 c6 6d bb e7 c4 99 bd ec df 74 3d
       -0.014837012 -0.0036281496 -0.07508259 0.05978386
000220 c0 f0 14 bc 00 48 7f ba 80 13 10 bb 1a 71 dd 3d
       -0.009090602 -0.0009738207 -0.002198428 0.10812588
000230 60 2d db bc 8d b5 09 3e 80 75 dd ba 4c 63 31 3d
       -0.026755035 0.13448162 -0.001689598 0.043307588
000240 0a aa e3 3d 80 0a 01 bb 1b 6c 10 be 43 52 8b bd
       0.11116417 -0.0019690096 -0.14103739 -0.068027996
000250 d0 80 81 3d f0 73 fc 3c 99 db 1f be e0 dc df 3c
       0.06323397 0.030817002 -0.15611114 0.027327001
000260 6c d6 d4 bd 65 3e 1f be 30 7a ac 3d 40 76 44 3d
       -0.1039246 -0.15551145 0.08421743 0.047964334
000270 64 f5 4a bd b8 f5 a1 bc b2 7e da 3d 58 32 80 bc
       -0.04955043 -0.019770488 0.106686965 -0.015649006
000280 8e 4e b3 3d e9 86 20 be 80 ec eb bd 38 a1 89 3c
       0.087552175 -0.15676464 -0.11519718 0.016800508
000290 13 30 10 3e b8 c7 9f 3c 98 9b a4 bc a5 af 12 3e
       0.14080839 0.019504413 -0.020093724 0.14324816
0002a0 ec b4 a6 3d b8 50 98 3d c8 ca f0 bd 48 07 9f 3d
       0.08139977 0.07437271 -0.117574275 0.07765061
0002b0 be 60 b2 3d 12 0b 5e bd 95 74 19 3e f2 64 ed 3d
       0.08709858 -0.054209776 0.14985879 0.115915194
0002c0 d8 04 07 bd b8 9a 85 bc 7e 2b 5d bd 8a 52 32 bd
       -0.032963604 -0.016309127 -0.053996556 -0.043535747
0002d0 96 6d cf bd d8 4f a2 3c d0 81 9f 3d fd 2e 0e 3e
       -0.10128324 0.019813463 0.07788432 0.13885112
0002e0 90 7b 00 bc f0 5f c3 bc 0a cf c7 3d 74 db 39 3d
       -0.00784196 -0.023849458 0.097562864 0.045375302
0002f0 16 c8 8e bd de 4f 89 3d aa 7e 12 be 06 cc 8b 3d
       -0.06971757 0.067046866 -0.14306131 0.06826024
000300 52 14 16 be c7 d8 16 3e d5 b2 01 3e 90 2a d4 3c
       -0.14656189 0.14731131 0.12665875 0.025899202
000310 00 6a eb b9 60 9d 0b bc b0 b0 15 bc 60 fa 44 3d
       -0.0004490167 -0.008521408 -0.009136364 0.04809034
000320 e1 4d 16 3e 90 2c 0f 3d ff 20 0f 3e 36 9b b1 3d
       0.14678146 0.034954607 0.13977431 0.08672182
000330 9a e7 d0 3d b4 ba 7e 3d 8e c7 cb 3d f8 2a 1e be
       0.102004245 0.062189773 0.099501714 -0.15446079
000340 72 a1 d7 3d 30 b2 b1 3d 26 c9 2f bd 24 4c 85 3d
       0.1052884 0.08676565 -0.04291644 0.06508663
000350 40 a7 2a bc 6f 72 a1 bd a0 00 81 3d 2c 5f f9 bd
       -0.010415852 -0.078831546 0.06298947 -0.12176356
000360 8b ff 0c 3e 24 19 7a 3d c0 1b 3a 3c 03 a1 20 3e
       0.13769357 0.061059132 0.011359155 0.15686421
000370 40 0f 9b bd 00 8c e8 3a 38 e0 03 bd 80 d8 ed 3a
       -0.07571268 0.0017741919 -0.032196254 0.0018146187
000380 32 e2 57 bd 7f 6c c3 bd a0 6e 17 bc 18 a9 10 bd
       -0.05270595 -0.09542178 -0.009242684 -0.03531751
000390 84 23 27 bd a6 3d 8b bd 7a 63 62 bd f9 6c 0e 3e
       -0.040805355 -0.06798868 -0.05527065 0.13908757
0003a0 06 b0 f0 3d ca db e5 bd aa a7 f0 3d 38 96 a1 bc
       0.11752324 -0.11223562 0.117507294 -0.01972495
0003b0 3a 8b 02 be 40 17 85 3c 38 8d ad 3d 8a 92 3c bd
       -0.12748423 0.016246438 0.08474201 -0.046038188
0003c0 cd 54 1c 3e 26 03 eb 3d 66 2a c4 3d 7c 03 07 bd
       0.15266724 0.1147521 0.09578399 -0.032962307
0003d0 9f 37 1c 3e 59 3a 0a 3e 5e 38 c8 3d 4e ca d7 bd
       0.15255593 0.1349882 0.09776376 -0.105366334
0003e0 94 98 b1 bd 9e 88 38 bd 86 db 78 bd 7e b2 f3 3d
       -0.0867168 -0.045052163 -0.06075623 0.11899279
0003f0 24 d7 03 3d 34 ec 27 bd f8 80 01 bd 9c fa 15 be
       0.032187596 -0.040996745 -0.031617135 -0.14646381

bias_ih_l0 f4 [160]
000000 f1 a7 3d 3e f3 7c ba 3e 8b f7 8c 3e b8 f6 d8 3d
       0.18521096 0.36423454 0.2753261 0.10593933
000010 b8 aa d8 3d bd 72 bd 3e 6f 68 23 3e fc 6d bd 3e
       0.10579437 0.370016 0.15957807 0.36997974
000020 e4 83 09 3e 6a e4 08 3e 79 f0 a0 3e 82 1e 27 3e
       0.13429219 0.13368383 0.31433466 0.16320232
000030 31 25 8f 3e d7 a2 8f 3e 84 6a 47 3e 5f ac 8d 3e
       0.27958062 0.28053924 0.19474226 0.2767057
000040 77 b7 a1 3e 55 7b af 3e f3 07 e9 3c 26 ae d1 3d
       0.31585285 0.34273782 0.028446173 0.10238294
000050 02 f3 ad 3e d1 a1 2e 3e 8e ae b2 3e 62 bd cc 3e
       0.33974463 0.17053916 0.348988 0.39988238
000060 0c e3 9d 3e 85 6f 9e 3c 62 bd ca 3e 9a b7 cd 3e
       0.30837286 0.019340286 0.39597613 0.4017914
000070 ea 90 93 3e 87 06 16 3e ed fe 51 3e 71 e6 bd 3e
       0.28821498 0.14650927 0.20507403 0.37089875
000080 0d 9e 26 3e ae 93 a8 3e c1 a0 51 3e a9 d4 87 3e
       0.16271229 0.3292517 0.20471479 0.26529434
000090 a2 ee d8 3d c4 cc 7b 3e bd d9 99 3e f2 e4 68 3e
       0.105923906 0.2458983 0.30048934 0.22743586
0000a0 d8 cb cc bd 1a 6b 84 3d a9 c5 fe bd ce 48 c2 3d
       -0.099998176 0.064657405 -0.124400444 0.09486543
0000b0 bc 85 99 bd 3f 4d 13 be fc 38 79 bd 20 eb c3 bd
       -0.07496211 -0.14384936 -0.06084536 -0.09566331
0000c0 52 f4 ff bd 42 ab ef 3d 68 42 5f 3d 40 79 e4 3c
       -0.12497772 0.11702587 0.05450669 0.027889848
0000d0 a0 c3 eb bc 85 74 b4 bd 35 c1 13 be 40 bd 6b bb
       -0.028779805 -0.08811287 -0.14429171 -0.0035970956
0000e0 d0 89 91 bc 00 8c 93 b9 60 18 86 bb a0 98 0c 3d
       -0.01776591 -0.00028142333 -0.004092261 0.034325242
0000f0 50 c8 17 3d 80 fd 98 ba 80 d7 37 3b a8 29 6e 3d
       0.037056267 -0.0011672229 0.0028052032 0.058145195
000100 e7 e1 a7 bd 2d fe c1 bd 79 da 1c 3e 00 b5 57 bb
       -0.08197384 -0.09472308 0.15317716 -0.003291428
000110 60 1a 9a 3b c8 19 16 be 36 ba 30 bd f8 35 76 3d
       0.004702851 -0.14658272 -0.043146335 0.060110062
000120 64 fe 19 be 71 f6 1d 3e 56 fd a6 3d a6 21 97 bd
       -0.15038449 0.15426041 0.08153789 -0.07379465
000130 f6 5c 03 be 00 07 aa 3a 14 21 44 3d 3f ba 01 3e
       -0.1282843 0.0012972057 0.04788311 0.12668703
000140 ad f2 36 3e 4e 9a 05 be 5d 6f 19 bc 10 f4 48 be
       0.17866011 -0.13047144 -0.00936493 -0.19624352
000150 d8 2c 8c bd 4e 9e 47 be a2 a9 42 3b 6f 22 6c 3c
       -0.06844491 -0.19493982 0.002970316 0.0144125065
000160 28 84 99 bd 5f c8 b1 be d0 cb f0 bd f0 62 fb 3e
       -0.0749591 -0.34723184 -0.11757624 0.4909892
000170 03 1b 22 3e df 63 16 3f 26 ae 9a 3c 32 5d bb bc
       0.15830617 0.5874614 0.018881869 -0.022871587
000180 8f 4f 9d be 89 16 ad bd 36 01 7b bc 7b e1 91 3e
       -0.3072476 -0.08451564 -0.015320113 0.2849234
000190 47 46 a7 3e ce d6 c2 3d de a8 ad bc bb ed 86 be
       0.32670805 0.09513627 -0.021198686 -0.2635325
0001a0 ef a9 9d 3c d3 48 4d 3e 72 f3 b2 bd 82 52 2e be
       0.01924607 0.20047311 -0.0873784 -0.17023662
0001b0 79 4a 38 be 34 fc 18 3e 5e 06 59 bd e7 49 cc 3e
       -0.17997159 0.14939958 -0.052984588 0.39900133
0001c0 27 62 97 bd c0 26 07 3e a6 a8 87 be ca e6 28 be
       -0.07391768 0.13198376 -0.26495856 -0.16494289
0001d0 64 20 02 3e db c7 97 3a cc 77 c8 3e 05 97 c1 3d
       0.12707669 0.0011579947 0.39153898 0.09452633
0001e0 44 84 cc 3e d7 0c 3f 3e 38 4b 99 3e c9 96 ca 3e
       0.3994466 0.18657242 0.299402 0.39568165
0001f0 2a a5 df 3d e3 fb 46 3e 62 08 98 3e 4c 62 0d 3e
       0.109201744 0.19432025 0.29693896 0.13807029
000200 73 26 96 3d dc 0a d6 3e 81 30 a2 3e ed a1 df 3e
       0.07331552 0.4180516 0.3167763 0.43678227
000210 af 5f d5 3e bb fd c4 3e 43 5a a8 3e a4 8d a6 3e
       0.41674563 0.3847483 0.32881364 0.32529938
000220 ee 36 85 3e 8f 33 46 3e e6 15 b3 3d cf 71 92 3e
       0.2601847 0.19355606 0.08744411 0.28602454
000230 18 20 4a 3e 13 25 dd 3d 03 7c e2 3d f4 1a 51 3e
       0.19738805 0.10798087 0.110588096 0.20420438
000240 04 b3 07 3e 27 f6 8c bc 06 2f e9 3e 78 fe dc 3e
       0.13251883 -0.017207218 0.4554369 0.43162894
000250 20 16 8f 3d ca de 03 3c 22 ea b6 3e 38 10 82 3e
       0.06986642 0.0080487225 0.35725504 0.25403
000260 0b 40 a6 3d b5 b2 57 3e b4 f4 8d 3e 22 64 85 3e
       0.08117684 0.21064265 0.27725756 0.26052958
000270 ff ca 16 bd 6f 2b 98 3e 51 22 57 3e 65 97 9c 3e
       -0.036814686 0.29720637 0.21009184 0.30584255

bias_hh_l0 f4 [160]
000000 c2 15 d2 3e 81 f0 96 3e 6d 22 8d 3e ec 7d 96 3e
       0.41032225 0.29480365 0.27565327 0.29392946
000010 4a cd fa 3d 34 71 b1 3e b3 a2 43 3e 98 fe a2 3e
       0.12246187 0.3465668 0.19105034 0.31834865
000020 46 d0 77 3d 82 d8 4d 3e 47 c3 6d 3e bc 93 46 3e
       0.06050136 0.20102122 0.23219024 0.19392294
000030 2b 57 aa 3e 1c 67 f4 3e 7d c5 d2 3c df 9e 49 3e
       0.3326963 0.47734916 0.025728935 0.19689511
000040 35 fe bf 3e ab 6d 54 3e 63 02 74 3e d9 69 5b bd
       0.37498632 0.2074496 0.23829035 -0.05356774
000050 8f f2 25 3e 1e 2c 49 bd fb 89 a8 3d e8 0d 8a 3e
       0.1620581 -0.04911434 0.08229443 0.26963735
000060 78 92 10 3e f5 9e ad 3d 3e 1e c1 3e c4 e5 f8 3e
       0.14118373 0.08477584 0.37718385 0.48612797
000070 ea bd 90 3e 05 e8 3c 3e d3 20 8c 3e e3 ce b6 3e
       0.28269893 0.18447883 0.27368793 0.35704717
000080 e1 2d a4 3e 54 ba a5 3e 3b 30 4b 3e 89 54 aa 3e
       0.32066253 0.3236872 0.19842617 0.3326762
000090 ad 7a 32 3e 0c 85 c2 3e eb 9c bd 3e da cf ad 3e
       0.1742961 0.37992132 0.3703378 0.3394764
0000a0 54 13 37 3d ae 3d f7 3d 3d 8d 02 3e 06 c9 8c 3d
       0.044696167 0.12072311 0.1274919 0.0687428
0000b0 20 65 59 bd b2 dd 94 3d 09 95 f5 bd 54 07 34 bd
       -0.053074956 0.072688475 -0.11991317 -0.0439523
0000c0 b4 90 89 bd 7c bc 05 be 72 58 06 be a8 2d e6 bc
       -0.06717053 -0.13060182 -0.13119677 -0.028097942
0000d0 80 b8 02 3b a0 4c 83 bb 71 63 b9 bd c8 d8 f9 bc
       0.0019946396 -0.004006937 -0.0905217 -0.030498877
0000e0 70 a5 e5 bc 7c 0d 38 bd d7 96 de bd 30 f2 31 bc
       -0.028032988 -0.044934735 -0.10868614 -0.010860965
0000f0 64 da 0e be 40 63 e6 bc 16 80 18 be 35 c6 1b be
       -0.13950497 -0.028123498 -0.14892611 -0.15212329
000100 75 13 f6 bd 35 2b 8b bd 2c 5c 36 3d 60 84 7d bd
       -0.1201543 -0.067953505 0.044521496 -0.06189382
000110 82 bf ed 3d 58 37 95 bd 80 42 18 be 40 5d e7 3c
       0.11608793 -0.072859466 -0.14869118 0.028242707
000120 66 52 e2 bd 39 c5 a5 bd c8 38 fe 3c f1 a3 03 3e
       -0.110508725 -0.08094258 0.031032935 0.12855507
000130 06 2a 6c bd b0 8d 9e bc 51 bd 03 be d0 8b 09 3c
       -0.057657264 -0.019354671 -0.12865187 0.00839515
000140 57 0a 09 3e bd c5 ab be 41 e1 64 bc 76 e9 5a be
       0.1338285 -0.335493 -0.01396972 -0.21378121
000150 f7 50 0e bd 88 98 a1 be 9f b3 57 3e 70 c8 ac bd
       -0.034745183 -0.31561685 0.21064614 -0.08436668
000160 5e 1d 5d be 66 b7 ab be de ce 39 be 96 9f 7f 3e
       -0.21593234 -0.3353836 -0.1814532 0.24963221
000170 ab fb 50 3e 41 83 fb 3e 93 d2 1a 3e c0 b8 9e 3d
       0.20408504 0.49123576 0.1511939 0.07750082
000180 37 50 ae be 8f 26 56 be 18 6b b5 3d f6 03 f0 3d
       -0.34045574 -0.20913146 0.08858317 0.117195055
000190 e9 35 aa 3e 10 81 57 bd c8 ce c6 3b ff 24 ab be
       0.33244255 -0.052613318 0.0060671307 -0.33426663
0001a0 3a 56 83 3e ac cc 84 3e 70 de cc 3d 6b 42 36 3d
       0.25651723 0.25937402 0.10003364 0.044496935
0001b0 d5 e3 5c be fb 83 70 bd 73 67 02 be a4 29 9f 3e
       -0.21571286 -0.058719616 -0.12734775 0.31086457
0001c0 9e 53 2a bd 06 a8 8a bc 65 78 c3 bd 7b a1 3b 3d
       -0.04158365 -0.016925823 -0.09544448 0.045808297
0001d0 1c b9 d1 bb 89 14 97 be e9 fa da 3e a0 2c 88 bc
       -0.0064002406 -0.29507855 0.42769554 -0.016622841
0001e0 da c8 2e 3e cb 78 aa 3e 7a 36 be 3e 74 1a b2 3e
       0.17068806 0.33295283 0.37150937 0.34785807
0001f0 03 0b 9d 3e c1 7d 97 3e 88 13 a4 3e c7 5a 3a 3e
       0.30672464 0.2958813 0.3204615 0.18198691
000200 13 49 fd 3d 5e 71 0b 3e 74 e8 73 3e c5 d6 c2 3e
       0.123674534 0.13617465 0.23819143 0.3805448
000210 67 a1 cc 3e 3b c1 f8 3e 61 33 c3 3e a8 b3 85 3e
       0.3996689 0.48584923 0.38125136 0.2611363
000220 c5 eb 13 3e 6b 11 47 3e 2a 8a 89 bd 00 c3 4a 3e
       0.14445408 0.19440238 -0.06715806 0.19800949
000230 68 c2 f5 3d 0b bd 82 bd 8b 8e e7 3d e2 e6 af 3e
       0.11999971 -0.06383713 0.11306485 0.34355837
000240 a6 c6 2c 3e 61 b5 67 3e 90 4b 8d 3e 80 d5 90 3e
       0.16872653 0.22627784 0.27596712 0.28287888
000250 38 1c 8d 3d ae 8f f2 3d f5 bd 7b 3e 3a 2f a3 3e
       0.06890148 0.11843811 0.24584182 0.31871969
000260 7c 9e 65 3e 6d 8f cd 3e a6 de db 3d 10 f0 d3 3e
       0.22423738 0.40148488 0.10735826 0.4139409
000270 cd 99 03 3e df c3 cd 3e c6 8e a2 3e f4 a9 8e 3e
       0.12851639 0.401885 0.31749552 0.2786404

weight_ih_l1 f4 [160, 40]
000000 09 b0 0d 3d e4 0f 2e bd 7e 5f ea 3c be 76 22 be
       0.03459171 -0.042495623 0.028609987 -0.15865609
000010 27 e2 15 be 2b 85 28 bd d9 83 15 bd 8b 9d 09 be
       -0.14637052 -0.041142624 -0.036502693 -0.13439004
000020 05 fa bc bd 66 dd ef bd 38 e1 52 be d7 1f 66 3e
       -0.09227375 -0.1171215 -0.20593727 0.22473083
000030 a8 81 f8 3d 2c 2c 8f 3d 3d 43 5e bd ee c7 b8 3d
       0.12134105 0.06990847 -0.054263342 0.090225086
000040 8a 85 08 3c 44 26 67 bc 3b b8 6e 3d fd b6 be 3c
       0.008332619 -0.014108244 0.058281165 0.023280615
000050 03 a1 f9 3d b5 b4 1a 3d c3 27 53 bd 85 cb 63 bd
       0.12188914 0.037769992 -0.05155159 -0.055614013
000060 d3 74 8c 3d bf 51 ea 3d 46 c2 e5 3c c1 56 dd 3d
       0.0685822 0.11441373 0.028046738 0.108075626
000070 e5 d4 68 3c 88 bb a4 bc e7 05 b6 3d 3d ab a1 3d
       0.014210914 -0.020108953 0.088878445 0.07893989
000080 66 b1 07 3c 97 b5 e8 bc 95 03 43 be 1b 47 69 3e
       0.008282041 -0.028406901 -0.19044335 0.22781031
000090 69 09 85 3c ef 26 b0 bd 07 0a 70 3d c9 b1 b9 3d
       0.016239839 -0.08601176 0.058603313 0.09067113
0000a0 27 68 29 be 87 05 11 be 8f 0c 66 3e ab 35 44 3e
       -0.16543637 -0.14162265 0.22465728 0.19161098
0000b0 88 a7 63 3e 2d 21 92 be 35 57 c8 bd 7a e9 4e 3d
       0.22231877 -0.28540936 -0.097822584 0.05051563
0000c0 6e 03 49 3d de 0f 52 be 86 9b 17 be b7 f2 ef 3d
       0.049075536 -0.20513865 -0.14805421 0.11716216
0000d0 56 a9 24 3d 4a 52 13 3e c6 0f 44 3d bc 4b 32 be
       0.040200554 0.1438686 0.047866605 -0.17411703
0000e0 34 c4 88 be 69 df 8f 3e a6 73 85 bc 34 a2 b6 bd
       -0.2671219 0.28100136 -0.016290497 -0.089176565
0000f0 39 80 16 be 7c 03 c2 bd 2f 36 95 bd 6a 88 3f bd
       -0.1469735 -0.09473321 -0.07285725 -0.046760954
000100 a7 c5 02 3d be a6 48 3e 41 ff 16 bd 2a 81 db bd
       0.031926777 0.19594857 -0.036864523 -0.107179955
000110 21 5f 3a be 93 47 3a be 86 60 ac 3d 90 d9 0c 3e
       -0.18200351 -0.18191366 0.08416848 0.13754869
000120 49 73 5e be 7e a1 07 3e 92 e3 79 bd 2d 19 f6 bc
       -0.21723665 0.13245198 -0.061008044 -0.030041302
000130 e5 bb 63 3e 24 6d 61 be 31 86 61 3d b8 7c f2 bd
       0.22239645 -0.2201429 0.055059616 -0.118401945
000140 94 08 87 3e b1 92 4c be 5d 74 9a be fb 39 85 be
       0.26373732 -0.19977833 -0.30166903 -0.26020798
000150 bc 61 6c 3e e0 e9 8b be eb ea 63 3e 54 8c c3 be
       0.23084158 -0.2732687 0.22257583 -0.38193
000160 86 58 8c be 1e c2 80 be 96 b5 cd bd 7d a8 9b 3e
       -0.27411288 -0.251481 -0.100444004 0.30401984
000170 ca 36 0e 3f 5a 1e 86 3e 13 12 74 3c a4 d5 e4 3d
       0.5555235 0.2619503 0.014896887 0.11173561
000180 df 20 27 be a2 a6 ca be a6 5f 62 3e eb 18 11 3f
       -0.16321133 -0.39580256 0.221068 0.56678647
000190 bc 84 ab 3e a6 e8 4b be 09 33 7a 3e 98 c8 aa be
       0.33499706 -0.19912967 0.24433531 -0.33356166
0001a0 08 4c 5f 3e 51 d7 a0 3d 96 e1 af bc 3d b0 10 3e
       0.21806347 0.07853568 -0.021469872 0.1412973
0001b0 1c 2f 88 bd 6e d8 6b bd da fe 02 be db b7 7b 3e
       -0.066496104 -0.05757945 -0.1279253 0.24581854
0001c0 fc bb 59 bd 26 2a b4 bd b4 c1 b7 bd d2 3a bc 3d
       -0.05315779 -0.08797102 -0.08972493 0.091909066
0001d0 9a c6 77 3c 2c 0f 83 be 19 1b 61 3e fa e3 5f 3e
       0.015123034 -0.25597513 0.21982993 0.2186431
0001e0 bd ae c6 3e c3 87 e0 bd e8 1f c1 be 14 87 e4 be
       0.3880519 -0.109633945 -0.37719655 -0.44634306
0001f0 df d5 a1 3e 9b 9a 1b be f5 71 c4 3e eb ff 61 be
       0.31608483 -0.15195696 0.38368192 -0.22070281
000200 1e aa 25 be a9 a3 09 bf 85 af 6d be 9b d1 0f 3e
       -0.16178176 -0.5376535 -0.23211487 0.14044802
000210 11 ad 02 3f 63 f1 96 3e 5c f3 a9 bd 6b a4 b6 3c
       0.5104533 0.29481038 -0.0829837 0.022295197
000220 25 5f 4d be 99 39 e7 be 0c 95 87 3e 8e 2d 10 3f
       -0.20055826 -0.4516113 0.264809 0.5631951
000230 68 22 1d 3f 0f b5 24 bc 11 1a 4f 3e b4 00 84 be
       0.61380625 -0.010052933 0.20224787 -0.25781786
000240 de 71 7c 3d ad ca c7 3e c6 2e 7e be 88 8f 30 3e
       0.06163203 0.39021817 -0.2482253 0.17242253
000250 35 f8 c2 be a7 f2 03 bd 2d 87 11 be a5 a5 6d 3e
       -0.38079992 -0.032213833 -0.14211722 0.2320772
000260 19 a3 fc bc 5d 02 32 be 3a d6 91 be 27 1d c7 3e
       -0.03083949 -0.17383714 -0.28483754 0.3888943
000270 7e 67 3c 3d 9a 78 dd bd c0 43 8f 3e 6d 22 8b 3e
       0.045997135 -0.108140185 0.27981377 0.27174702
000280 bc 28 e6 bd 7a 0e 77 be 05 43 d1 3d 73 56 2a 3e
       -0.11238238 -0.24126616 0.10217861 0.1663454
000290 25 73 8e 3d 6f a7 ff be 2f 33 8d be 4c f2 d7 3d
       0.06955556 -0.4993243 -0.27578112 0.10544261
0002a0 5b a5 80 be 0a fe 94 be 73 64 c2 3d 18 83 c1 3e
       -0.25126156 -0.29100066 0.094918154 0.3779533
0002b0 74 1b f5 3d 13 d3 31 3e 7a 05 56 3e e8 3e 25 3e
       0.11968127 0.17365675 0.20900527 0.16137278
0002c0 18 1a a6 be 81 63 7c 3e f3 a1 83 3e 39 4f bc bd
       -0.32441783 0.24647333 0.25709495 -0.09194798
0002d0 0d 87 8b 3d 45 53 4c bd 7d 7c b6 3e cf d2 81 be
       0.06812868 -0.0498841 0.35641852 -0.25356147
0002e0 84 a3 cf 3e 6f cb ca 3e d7 84 66 be 98 99 03 be
       0.4055444 0.39608333 -0.22511612 -0.1285156
0002f0 19 fd e2 3d d8 0b 25 be 16 82 e6 3c f7 b1 40 3e
       0.11083431 -0.161178 0.028138202 0.18817888
000300 77 a7 a6 be fe 4c b9 bd 71 82 b0 be e8 c3 11 3e
       -0.3254964 -0.09047888 -0.3447452 0.14234889
000310 c8 20 e5 3c 73 55 aa be 53 74 29 3e b3 01 20 be
       0.027969733 -0.33268318 0.1654828 -0.15625648
000320 8d 67 85 3e dd ef 7b be 66 16 35 be b1 cd c0 be
       0.26055565 -0.2460322 -0.17684326 -0.3765693
000330 c9 69 bf 3a 92 a5 ae be 3e c3 28 3e 84 27 cd 3d
       0.001460367 -0.34110695 0.16480729 0.10017303
000340 90 35 d4 be 8a 71 90 be 3a 90 0a be 88 b8 b3 3e
       -0.41447115 -0.28211623 -0.1353158 0.35101724
000350 bc 62 0c 3f e1 7a 97 3e 76 c1 8d 3e f7 94 cb bd
       0.54838157 0.29585937 0.2768666 -0.09940522
000360 83 43 ed be 2f 09 bc be b3 5b 6a 3e 41 52 e1 3e
       -0.4634057 -0.36725757 0.22886543 0.44008067
000370 cf 91 bf 3e 8a 16 41 be 01 cd 25 3e d1 10 b4 be
       0.3741593 -0.18856254 0.16191484 -0.3516908
000380 12 7b 9d 3e 55 38 66 3e 5a 5f ea bd 7b cc fd 3c
       0.30757958 0.22482426 -0.11443968 0.030981293
000390 05 d0 cd bd c4 a6 79 bd a1 7a 18 be f8 67 88 3e
       -0.10049442 -0.060950056 -0.14890529 0.26641822
0003a0 86 f7 8a be cc 3d 60 be d8 ea 6b be a3 34 2b bc
       -0.2714197 -0.21898574 -0.23038805 -0.010449561
0003b0 5f 71 a0 3d 2e ab 82 be 4c aa e6 3e ad f7 53 3e
       0.07834124 -0.25521225 0.450518 0.2069995
0003c0 1e e5 d3 3c f3 a4 80 be ef e1 58 3e 03 a8 bd 3d
       0.025866088 -0.25125846 0.21179937 0.09260561
0003d0 31 7b ca 3d 78 65 cf bd d8 82 38 be b9 3b 87 be
       0.09886778 -0.101267755 -0.18018663 -0.26412752
0003e0 34 bf 09 be fd 2e 6e be 7c c6 b0 3d 2d a5 af 3d
       -0.13451844 -0.23260112 0.08631608 0.08576427
0003f0 6e e7 09 3e 75 be 17 3e 29 32 4c 3d 7f ac 98 be
       0.1346719 0.14818747 0.049852524 -0.29819104

weight_hh_l1 f4 [160, 40]
000000 c8 40 5c 3d 42 2d dd 3d fb 3d 0a 3e a0 dd 13 3c
       0.053772718 0.10799648 0.13500206 0.0090250075
000010 85 92 16 3e 80 9b eb 3b e1 57 9d bd 80 1f c3 ba
       0.1470433 0.007190168 -0.07682777 -0.0014886707
000020 7b 0d 07 3e c7 3a 02 be 38 9d b5 bc 10 8e 7f 3c
       0.13188736 -0.12717734 -0.022169694 0.015597835
000030 22 e7 df 3d 96 3d d3 3d 94 cd 9a 3d 0a 63 f6 3d
       0.10932757 0.10314481 0.07558742 0.12030609
000040 9a fa fb 3d a2 4b e8 3d 25 78 0c 3e 7e 26 8f 3d
       0.12303658 0.11342551 0.13717707 0.06989764
000050 d0 7c f4 3c 49 60 12 be eb 92 10 3e 21 ec 0b 3e
       0.029844671 -0.14294542 0.14118545 0.13664295
000060 f0 0c 04 be 04 67 d8 bd b0 96 01 3c c0 c2 e2 3c
       -0.1289556 -0.10566524 0.007909462 0.027680755
000070 39 fa 1e 3e 0e f7 6f bd 92 ea f6 bd e0 3a a7 3c
       0.1552514 -0.05858522 -0.120564595 0.020413816
000080 f8 38 22 3d 68 df 96 bd 00 88 d0 3c b4 b2 16 3d
       0.03960511 -0.0736683 0.025455475 0.03679152
000090 1e ed b5 bd b7 b7 02 be 2c 93 f9 bd d8 ff 44 3d
       -0.08883117 -0.12765394 -0.12186274 0.048095554
0000a0 ec 10 27 3d 85 52 ad bd a6 65 dd 3d 40 9e 48 3d
       0.040787622 -0.08463005 0.108104035 0.048979044
0000b0 4c 08 1a 3d f0 50 2a 3c 0c 2e d9 bd 5c 41 c9 bd
       0.03760557 0.010395274 -0.10604486 -0.098269194
0000c0 48 71 9a 3c 59 e9 f8 bd f9 dc 8c bd 5d b3 20 be
       0.018852845 -0.121538825 -0.06878085 -0.15693422
0000d0 c8 33 2e bd be 6d d5 3d bc a8 fb bd 01 20 bf bd
       -0.04252985 0.10421322 -0.12288043 -0.09332276
0000e0 ea 45 2f bd 30 4c 54 3c 80 a4 27 bb 20 46 2a bc
       -0.042791285 0.012957618 -0.0025580227 -0.010392696
0000f0 4a 6a 11 bd dd dd 07 3e 00 36 ae b9 1e 90 37 bd
       -0.035501756 0.13268228 -0.000332281 -0.044815175
000100 e0 43 d7 3c 67 1a 13 3e 20 65 ca bc b2 d2 d5 3d
       0.026277483 0.1436554 -0.024706423 0.104405776
000110 72 4a 21 be 38 3e c9 bd 00 67 5a 3d 80 72 e7 bd
       -0.15751055 -0.098263204 0.053320885 -0.11301136
000120 06 bd c2 3d f0 ec a8 bd 4e 62 1e be 3a 9b 82 bd
       0.095087096 -0.08248317 -0.15467188 -0.06377263
000130 00 17 63 ba 40 6a 8b bb 76 80 ca 3d be 64 13 be
       -0.000866279 -0.0042546093 0.09887783 -0.14393899
000140 b2 29 b6 3d 30 96 ad 3c f8 a6 d9 bd c2 aa c1 3d
       0.088946715 0.021189779 -0.1062755 0.094563976
000150 6a af f6 bd 88 7c 58 3d 96 0b c7 3d b6 d8 de 3d
       -0.12045176 0.052853137 0.09719007 0.10881178
000160 ea 4f 95 bd 76 4f 4f bd 30 c5 92 3d 46 b2 dd bd
       -0.07290633 -0.05061289 0.07166517 -0.108250186
000170 d2 fb 93 bd 28 c4 0b 3d d0 07 b3 bc 8a e3 47 bd
       -0.07225765 0.034122616 -0.021854311 -0.048800983
000180 ec f7 e9 bd ec cd 58 bd f8 63 ab bd 6a a4 92 bd
       -0.114242405 -0.052930757 -0.08368677 -0.07160266
000190 d0 09 ae 3d f0 94 05 be 6b ed 1c be 83 42 90 bd
       0.08497965 -0.13045096 -0.15324943 -0.07043936
0001a0 96 c5 cc 3d 38 35 ef bc c0 bf b9 3c 74 2b 91 3d
       0.09998624 -0.029200181 0.022674441 0.07088366
0001b0 ab ba 0a 3e 36 45 e0 3d f8 5f bb bc cb cf 0f 3e
       0.1354777 0.10950701 -0.02287291 0.1404411
0001c0 d0 f9 7b bc 54 39 a4 3d 3b e0 8d bd 83 35 f3 bd
       -0.015379384 0.08018747 -0.06927534 -0.11875441
0001d0 a2 32 d7 3d 70 3c 08 3c f1 ef 01 3e d1 f3 07 3e
       0.10507704 0.008315191 0.12689187 0.13276602
0001e0 85 5f 19 3e f4 c8 89 bd 18 40 4d 3d c6 e0 85 bd
       0.14977844 -0.06727782 0.050109953 -0.06537013
0001f0 02 ef f4 3d 87 4f 90 bd 37 5e 0b 3e 8e 3d bd 3d
       0.119596496 -0.07046419 0.13610159 0.09240256
000200 de fa fd bd 1e 30 50 bd cc 83 65 3d 79 d1 1c 3e
       -0.12401365 -0.050827138 0.056033894 0.15314282
000210 40 34 b1 bb 4c 8e 6a bd c0 3a b1 bc d0 c6 2c 3d
       -0.00540784 -0.05726461 -0.02163446 0.04218179
000220 70 bb cf bc f8 f6 09 3d b7 72 81 bd 30 f5 9d 3d
       -0.025357932 0.033682793 -0.06320708 0.077127814
000230 95 fc 17 3e f8 d7 ac 3d 92 cf e1 3d 06 d6 cb 3d
       0.14842446 0.0843963 0.11025919 0.09952931
000240 5c 89 51 3d 88 6d 83 3c ab 2e 9b bd 04 4e de bd
       0.051156387 0.01604344 -0.075772606 -0.10854724
000250 e6 cb 73 bd b1 54 10 3e 60 30 df bc 5e eb 47 bd
       -0.059520625 0.14094807 -0.027244747 -0.048808448
000260 00 05 5e 3d ac 58 13 bd 17 3f 15 be 00 cb 90 3d
       0.054203987 -0.035973236 -0.14574848 0.07069969
000270 7c a1 02 3d fc f3 2a 3d ae 88 a9 bd 38 1f cb bc
       0.031892285 0.041736588 -0.08278023 -0.02479516
000280 68 44 61 3d d6 4c e6 3d 13 5f 12 be c9 16 a4 bd
       0.054996878 0.11245124 -0.1429408 -0.080121584
000290 7e e4 ed 3d 6e f1 40 bd 50 b7 17 bc f4 ab 09 3d
       0.11615847 -0.047105245 -0.009260014 0.033611253
0002a0 68 2f b8 3d 70 fd 53 bc a1 27 99 bd 00 0d 1e bc
       0.08993417 -0.012938842 -0.07478262 -0.009646654
0002b0 66 1c fc 3d 88 84 1f be de 28 e9 3d 80 92 88 3c
       0.12310104 -0.155779 0.11384748 0.01667142
0002c0 e2 76 eb 3d 48 0d 86 3d 00 0e e1 bd 28 ee c8 bc
       0.114972845 0.06545502 -0.109889984 -0.024527624
0002d0 20 bb d6 bd 30 cf 41 3d a4 bd f5 bd 10 26 66 bc
       -0.1048491 0.04731673 -0.11999062 -0.014047161
0002e0 ff ea a9 bd 56 dd d1 bd 70 18 9a 3c 64 54 e6 bd
       -0.08296775 -0.102472946 0.01881048 -0.11246565
0002f0 06 7b 88 3d 30 a1 de bc 5d 7f 0e be 78 f1 e7 3c
       0.0666409 -0.02717647 -0.13915773 0.028313383
000300 ca 04 d3 3d 1c 0f 25 3d 52 cf e6 3d 3d a6 c0 bd
       0.10303648 0.040297613 0.11270012 -0.094067074
000310 fa 59 11 be a0 33 03 bd 9a b4 eb 3d 98 cd 1d be
       -0.1419448 -0.032031655 0.115090564 -0.15410459
000320 a4 1b 19 bd e3 c1 db bd f8 70 9d 3c c2 01 88 3d
       -0.037379876 -0.1073034 0.019218907 0.0664096
000330 00 67 93 3a 14 68 93 3d db a8 9c bd a2 06 da 3d
       0.0011245906 0.07197586 -0.07649394 0.10645796
000340 20 be 0f be c0 91 9a bc 18 be c0 bc 10 50 7c bc
       -0.1403737 -0.018868327 -0.023528144 -0.015399948
000350 46 5e 4a bd 90 56 69 3c dd 6e 8d bd 5a 11 bc 3d
       -0.049406312 0.0142418295 -0.06905911 0.09182997
000360 23 69 1d 3e 58 63 d8 3c 9a 82 fe 3d 20 56 98 3b
       0.15372138 0.026414558 0.12427254 0.004648939
000370 c0 c0 03 3b 01 d4 10 3e d2 b6 de bd 7a 9f de bd
       0.0020103902 0.14143373 -0.10874714 -0.108702615
000380 5e 47 c1 3d 4d dc 03 be 48 55 00 be c8 25 fb bc
       0.0943744 -0.12877007 -0.12532532 -0.030657664
000390 a0 3b 90 3c 7a b1 cd bd 82 b9 81 3d 4c 07 95 3d
       0.017606556 -0.100436166 0.06334211 0.072767824
0003a0 a8 d7 9c 3d 17 1e a7 bd c8 a3 fb 3c 17 38 0a be
       0.07658321 -0.08160036 0.030717745 -0.13497959
0003b0 4f 12 8a bd 2d ab 0a 3e fa b4 dd 3d f0 2a e0 bd
       -0.06741773 0.13541861 0.10825534 -0.1094569
0003c0 09 13 be bd 40 6a 50 bb f0 51 21 be ba 92 04 be
       -0.092809744 -0.0031801611 -0.15753913 -0.12946597
0003d0 80 2d 66 bb 96 53 f8 3d 27 d2 0d 3e 29 8e 15 be
       -0.0035122335 0.12125318 0.13849698 -0.14605011
0003e0 c0 1d 83 3d 6a c0 b4 bd 50 e9 5a bc 35 7a 03 3e
       0.06402159 -0.088257626 -0.01336129 0.12839587
0003f0 67 5d 16 be 5c 5c 44 3d 40 91 fa bd 20 51 fe 3b
       -0.14684068 0.047939643 -0.122347355 0.0077611357

bias_ih_l1 f4 [160]
000000 49 ca 5a 3d 9b 9e 2d bd bc 88 bb 3e 5b bb d9 3e
       0.05341557 -0.042387586 0.36627758 0.42525753
000010 ca eb 38 3e ed 75 a0 3e c1 2d 01 3e af ba de 3e
       0.18058696 0.3133997 0.1261511 0.43501803
000020 32 b5 de 3d 33 66 5f 3e 18 f7 25 3e 21 68 5f 3e
       0.10874404 0.2181633 0.1620754 0.21817066
000030 c0 22 c0 bc a3 f5 64 3e 58 06 50 3e 75 f3 52 3e
       -0.02345407 0.22359328 0.2031492 0.20600684
000040 a1 5b 8a 3e 8a 21 62 3e 0e 7a ee 3e e9 bc f1 3d
       0.27023032 0.22083107 0.46577495 0.1180361
000050 94 0e af 3e ac 8d 5f 3e 6c 8e 9a 3e 54 f6 bc 3e
       0.3419081 0.21831387 0.30186784 0.36906683
000060 b4 ef 5b 3e 44 34 05 3d 4b 42 97 3e 2e 67 93 3e
       0.21478158 0.032520548 0.29542765 0.28789657
000070 fa 75 dd 3c 71 1c 19 3e a8 a6 74 3e a8 54 b2 3e
       0.027033795 0.14952256 0.238917 0.34830213
000080 dc 94 18 3e e9 5f c9 3e 70 12 d6 3e f6 ff 9b 3e
       0.14900535 0.39330986 0.41810942 0.3046872
000090 c0 51 44 3e b8 22 a4 3e 51 87 9e 3e ac 79 35 3e
       0.1917181 0.32057738 0.30962613 0.17722195
0000a0 ef 7f 11 3e 7c 32 ba 3d a4 60 70 bd c8 b6 a3 bc
       0.14208959 0.090916604 -0.058685914 -0.019984618
0000b0 da cb 1a be 67 2b 0a 3e fa b7 d4 3d 8f e3 05 3e
       -0.15116826 0.13493119 0.10386653 0.13075088
0000c0 90 f0 ff 3c 54 39 30 3d 20 3e bf bd 1b 37 1f be
       0.031242639 0.043023422 -0.09338021 -0.15548365
0000d0 fc 8e a3 3d b8 33 23 bd b0 64 e7 bc 7b a3 94 bd
       0.079862565 -0.039844245 -0.028246254 -0.07257744
0000e0 fa 79 f7 3d d6 a0 a3 3d 40 7b d7 bc a6 ea e7 bd
       0.12083812 0.079896614 -0.026303887 -0.113240525
0000f0 52 d0 f1 3d 03 69 17 3e 48 6c 26 bd 9f 2a 14 be
       0.11807312 0.14786153 -0.04063061 -0.14469384
000100 6e e2 13 bd 0a 0b 19 bd 71 84 cb bd 1c 5c 8c 3d
       -0.036104612 -0.037364043 -0.099373706 0.06853506
000110 5a e6 08 be e0 25 f7 3b 27 00 e2 bd a8 b4 8d bc
       -0.13369122 0.007542357 -0.11035185 -0.017298058
000120 51 5e 04 be 14 ab ac bd 0f e9 07 3e 50 b5 cc bd
       -0.12926604 -0.08431068 0.13272499 -0.0999552
000130 57 8b 0f 3e 8d 09 00 be a2 7a 6a bd 00 a3 cf bd
       0.14017998 -0.12503643 -0.057245858 -0.10138512
000140 95 67 31 3d 43 30 ce bd 8c f5 5b be f7 bc ec 3d
       0.043311674 -0.10067799 -0.21480387 0.1155948
000150 03 98 bf bd 1e 6c d6 bd 57 8a 20 be ee ed 49 3e
       -0.09355166 -0.104698405 -0.15677772 0.19719669
000160 1d 41 05 3e 00 51 fc 3d be ab 13 be a9 1d a0 3d
       0.1301312 0.12320137 -0.14420983 0.07818157
000170 ac df 0b 3e 66 c3 7e bc 8f b8 0d be f8 94 3f 3e
       0.13659543 -0.015549516 -0.13839935 0.18709171
000180 b2 48 34 3d 6b a8 11 3c d0 25 63 3d 06 5b db bd
       0.04401464 0.008890252 0.055455983 -0.10710721
000190 47 44 08 3e e4 cd 96 bd c8 d2 ca 3c cc 26 98 3a
       0.13307296 -0.07363489 0.024758711 0.0011608242
0001a0 0f ce 0b bd d7 53 4a be a8 06 45 bc cd 20 72 be
       -0.03413206 -0.19758545 -0.012025513 -0.23645325
0001b0 b5 b7 0e be 93 49 f4 bd d0 65 51 3d 9c d9 13 3e
       -0.13937266 -0.11928096 0.051122487 0.1443848
0001c0 c7 6d fd 3d 30 4b 8f bd a5 4d a1 bd a0 7c d0 ba
       0.12374454 -0.06996763 -0.07876138 -0.0015906282
0001d0 99 75 79 3d 9b 49 4f 3e e0 8a 54 3d 7f ce 27 3d
       0.060903165 0.20242922 0.051890254 0.040968414
0001e0 f7 7f 08 3e c8 7e 13 3e c4 b4 7e 3e c3 c0 54 3e
       0.13330065 0.14403832 0.24873644 0.20776658
0001f0 e7 94 1c 3e a1 91 8a 3e f9 00 95 3e ba c1 b7 3e
       0.15291177 0.2706423 0.29102305 0.3588999
000200 50 13 6f 3e 16 52 0c 3d f6 e9 20 3e a4 b4 21 3e
       0.23347211 0.03425797 0.15714249 0.15791565
000210 0e 3c 8a 3d 63 1e 9d 3e 05 93 d0 3e c1 7f 92 3e
       0.06749736 0.30687246 0.40737167 0.28613093
000220 a5 87 9e 3e 6d c4 da 3e c8 d2 c6 3e be 09 97 3e
       0.30962864 0.42727986 0.38832688 0.2949962
000230 f5 a4 73 3e ab 31 f6 3e ca fd 8b 3e f4 bb 11 3f
       0.23793395 0.4808477 0.27342063 0.5692742
000240 8c 0c 39 3e 05 f5 e0 3c a2 4c ff 3d 72 09 aa 3e
       0.18071193 0.027460584 0.124657884 0.3321033
000250 6f 6a 44 3e 26 02 19 3e 30 5c 3b 3e b6 31 8d 3e
       0.19181226 0.14942226 0.18296885 0.2757699
000260 5b 28 f6 3d ff f7 b8 3e 52 58 e4 3e 08 82 b8 3e
       0.12019416 0.36126706 0.44598633 0.36036706
000270 66 c4 30 3e 4b 6f 8a 3e bb de 9d 3e 0f 8a 47 3e
       0.1726242 0.27038035 0.30833992 0.19486259

bias_hh_l1 f4 [160]
000000 d6 a5 03 3e 07 d4 fe 3d fa 2c aa 3e ff e0 02 3f
       0.1285623 0.12442785 0.3323744 0.51124567
000010 5e 99 16 3e 0f 1f df 3e ce f5 5f 3e ef 3f ce 3e
       0.14706942 0.43578383 0.21871111 0.40283152
000020 8b 20 b0 3d 3b f2 a0 3e 4a ea 39 3e eb 4a 0f 3e
       0.08599957 0.31434807 0.1815578 0.13993423
000030 5b 25 40 3e ef 90 2c 3e 54 25 2b 3e a1 09 c1 3e
       0.1876425 0.16852163 0.16713458 0.3770266
000040 67 31 04 3f 0a c7 4e 3e 1e ad e6 3e c3 16 be 3e
       0.5163788 0.20193115 0.45053953 0.3712674
000050 6a f7 aa 3e e4 68 75 3e 8a f7 aa 3e 54 a1 f5 3e
       0.33391887 0.23965794 0.33391982 0.47974646
000060 d6 82 c4 3e b3 15 67 3e 2c 1a 87 3c ea 0a 36 3e
       0.3838107 0.22566871 0.016491972 0.17777601
000070 5b d4 a1 3e ea 85 d8 3c 6c 94 0f 3e 1d f3 06 3e
       0.31607327 0.026431043 0.14021462 0.13178678
000080 1b ab a1 bd b2 46 02 3e 8c c2 99 3e dd 72 40 3e
       -0.07893964 0.1272228 0.3003124 0.18793817
000090 89 7d 99 3e 76 85 79 3e 42 dc b5 3e a6 85 21 3e
       0.29978588 0.24367318 0.35519606 0.15773639
0000a0 c4 b8 d4 bd 18 dc c3 bc 86 a6 16 bd 58 08 86 3d
       -0.10386804 -0.02390866 -0.036779903 0.0654456
0000b0 a2 8a c6 3d 08 eb 10 3d d8 ef eb bc b6 48 1a bd
       0.09694411 0.035380393 -0.02880089 -0.037667
0000c0 ed cf 19 3e 6c b4 06 3d 4a 8b fc 3d f0 10 08 bc
       0.15020724 0.032886907 0.12331255 -0.008304819
0000d0 8a 09 cf 3d 2e ae 1f be 80 30 f7 3b c0 87 f9 bb
       0.10109241 -0.15593788 0.0075436234 -0.0076150596
0000e0 80 f7 a6 3b 1b c0 12 be 3a e1 26 bd ce 07 f0 3d
       0.0050954223 -0.14331095 -0.040742137 0.117202386
0000f0 65 81 06 3e 37 8a 14 be 48 3a a7 bd 86 13 00 be
       0.13135298 -0.1450585 -0.08165413 -0.12507448
000100 50 48 03 3c a0 c5 06 bc 80 d4 aa bd de 9f c8 3d
       0.008012846 -0.008225828 -0.083413124 0.09796117
000110 a0 5f 57 bc f0 e5 14 bd 82 65 de 3d de 4c ed 3d
       -0.013145357 -0.036352098 0.10859205 0.11586927
000120 38 a4 84 3c 28 27 d5 bc fa 1d 9b 3d 86 7f 28 bd
       0.016191587 -0.026019648 0.07574077 -0.04113724
000130 a2 ab cc 3d b0 ad a8 bc 86 7a d9 3d 24 5d e5 bd
       0.09993674 -0.020590633 0.106190726 -0.11199406
000140 b5 c2 32 be 16 2f 25 be 62 9e 04 be 48 05 57 3e
       -0.17457087 -0.16131243 -0.12951043 0.20998108
000150 df d2 5d bd 18 a4 ee bd f2 83 2a bd a0 ff 6c 3e
       -0.05415618 -0.11652392 -0.04162974 0.23144388
000160 fe 51 c2 3d a3 53 22 bd e0 95 33 3d 2a 55 cf bd
       0.09488295 -0.039630543 0.043844104 -0.10123666
000170 22 d8 4d 3d b1 33 3d 3d c5 63 ba bc 61 c3 bb 3d
       0.05025495 0.046191875 -0.022752652 0.09168125
000180 f4 09 03 3e 71 5c 2f bc 4e b7 32 3e 12 40 5c bd
       0.12796766 -0.010703192 0.17452738 -0.05377204
000190 ea 02 86 bd 41 1c 38 bd f2 db a6 bd 6f d5 6c be
       -0.065435246 -0.04494882 -0.0814742 -0.23128293
0001a0 14 1c 90 bd f4 49 cb bd e2 d9 17 3e fa 56 10 bd
       -0.070366055 -0.09926215 0.1482921 -0.035239197
0001b0 4f 7a a4 bc 47 34 8e bc 1a a3 04 be 64 93 5d 3e
       -0.020077853 -0.017358912 -0.12952843 0.21638256
0001c0 3e 07 9b bc f9 8d 68 3d 5a d1 00 3e a5 90 45 3d
       -0.018924352 0.05677602 0.12579861 0.048233647
0001d0 4c 5c bc 3d 9b 08 02 3e fb e6 4f 3e 4e f9 3f 3e
       0.09197292 0.12698595 0.20302956 0.18747446
0001e0 4c 0f 48 3e 05 c4 7b bb 71 73 9e 3e 3f b4 bf 3e
       0.19537085 -0.0038416397 0.3094745 0.37442204
0001f0 60 fe 8b 3e 90 d9 b9 3e c5 b3 b1 3e 5e a4 92 3e
       0.2734251 0.362988 0.34707466 0.28641027
000200 ec 51 09 3e f6 62 42 3e 26 2d 2c 3e 19 a8 d6 3d
       0.13410157 0.18983063 0.16814098 0.10481281
000210 a5 1f 83 3e 9c 4e b6 3e 6f 4d 56 3e 4f b1 a2 3e
       0.2561008 0.3560685 0.20927976 0.317759
000220 30 94 03 3f 5b ff a3 3e 40 70 06 3f ef f7 ae 3e
       0.5139799 0.32030758 0.5251503 0.34173533
000230 af 5b 6c 3e 95 96 b4 3e 78 23 ad 3e 38 3e 00 3f
       0.2308185 0.35271135 0.33816123 0.5009494
000240 e2 6a 64 3e f7 fc 3c 3e 05 26 a8 3e f5 3d 82 3e
       0.22306398 0.18455873 0.32841507 0.25437894
000250 b7 b3 3f 3e d0 54 25 3e 7b a4 f5 3d 85 e1 7c 3e
       0.187209 0.16145635 0.11994263 0.24695404
000260 f5 80 46 3e 3b ee 3c 3e c7 e7 6e 3e 76 c0 ae 3e
       0.1938513 0.18450253 0.23330604 0.3413121
000270 fe c3 65 3e e3 22 d1 3e 4e bb 8a 3e 37 4c 31 3d
       0.22438046 0.4084693 0.27096027 0.043285575
