models/145/state_dict.pt (torch_old, 25727 bytes, 10 tensors)

lstm.weight_ih_l0 f4 [80, 10]
0	0x3e9dc936	0.30817574
1	0xbe578bcc	-0.21049422
2	0x3e836f08	0.25670648
3	0xba8a5f50	-0.001055697
4	0xbe034198	-0.12817991
5	0xbdd59704	-0.104291946
6	0x3d4d2c35	0.050090987
7	0xbe486a92	-0.19571903
8	0x3dcb7ea1	0.09936262
9	0x3eb4e015	0.3532721
10	0x3e7fa01c	0.2496342
11	0xc0129a59	-2.2906706
12	0x4026117e	2.5948176
13	0x3f6de6fe	0.9293059
14	0x3f75e06c	0.96045566
15	0xbf928588	-1.1447
16	0x4030a7b9	2.760237
17	0x3fa883d2	1.3165228
18	0xbf84d7ac	-1.0378318
19	0x402d7c74	2.710721
20	0xbde6ddf6	-0.112728044
21	0xbff91d0a	-1.9461987
22	0x40082832	2.1274533
23	0x3e6b7b4c	0.22996253
24	0x3f1d8564	0.6153166
25	0xbed58cf8	-0.41709113
26	0x3ff7ce57	1.9359845
27	0x3f0ec039	0.5576206
28	0xbf0e1ab6	-0.5550951
29	0x3feeed26	1.8666122
30	0x3e41c090	0.18921113
31	0xbf86246e	-1.0479867
32	0x3f3302da	0.69926226
33	0xbf060f8b	-0.52367467
34	0xbf138f5d	-0.5764063
35	0x3e767f07	0.24071895
36	0x3f82608a	1.0185711
37	0xbee5b890	-0.44867373
38	0x3ea6f149	0.3260596
39	0x3f9b2424	1.2120404
40	0xbe85f24d	-0.26161423
41	0xbfd2eaae	-1.6477869
42	0x3fc1fce7	1.5155305
43	0xbf939734	-1.1530519
44	0xbf36d6d7	-0.7142157
45	0x3f9447c1	1.1584398
46	0x3fceef5d	1.6166798
47	0xbf7b7f44	-0.98241067
48	0x3f7d9e7b	0.99069947
49	0x3fcba038	1.590827
50	0xbddc0060	-0.10742259
51	0xbe4939fd	-0.19651027
52	0x3e0b12e2	0.13581422
53	0xbfdb0ca4	-1.7113233
54	0xbfbff3c9	-1.4996272
55	0x3f90fcf0	1.132719
56	0x3ea23320	0.3167963
57	0xbfa99cf4	-1.3251023
58	0x3fa2c27c	1.2715602
59	0x3f2104ac	0.62897754
60	0x3e5392ee	0.20661518
61	0x4007a465	2.1194088
62	0xc0327494	-2.7883654
63	0xbf12156c	-0.5706394
64	0xbed52297	-0.41627952
65	0x3eecca42	0.4624806
66	0xc0283022	-2.6279378
67	0xbf59420a	-0.8486639
68	0x3e6a8025	0.22900446
69	0xc0215a9c	-2.5211554
70	0xbe534e6e	-0.20635387
71	0xbead1a14	-0.3380896
72	0x3e356059	0.17712535
73	0xbfac5b98	-1.3465452
74	0xbfa9c610	-1.3263569
75	0x3f83b6cd	1.0290161
76	0x3ee33ca0	0.4438219
77	0xbfa872b4	-1.3160005
78	0x3f81da11	1.0144674
79	0x3f40e249	0.75345284
80	0xbd4c4214	-0.049867705
81	0x3fa79f7c	1.3095546
82	0xbfd6daf3	-1.6785568
83	0xbf7c3a3b	-0.9852635
84	0xbf99db4a	-1.2020047
85	0x3f229128	0.6350274
86	0xbfd7a182	-1.6846163
87	0xbfaab071	-1.3335096
88	0x3f7ad263	0.97977275
89	0xbfca812d	-1.5820671
90	0xbe6ff53d	-0.23433395
91	0x3e755a54	0.23960239
92	0xbefa028b	-0.48830065
93	0xbebf3574	-0.3734547
94	0xbf5baef2	-0.8581382
95	0x3f1dfa8e	0.6171044
96	0xbe817a55	-0.25288644
97	0xbf376911	-0.71644694
98	0x3f2547a4	0.6456244
99	0xbed07023	-0.40710554
100	0xbdc3c89f	-0.0955975
101	0xbc8974f4	-0.0167794
102	0xbe3f7c86	-0.18699846
103	0x3d72a0a6	0.059235238
104	0x3dd62b32	0.104574576
105	0xbebe2182	-0.3713494
106	0x3e1d4504	0.15358359
107	0x3ea7d33a	0.3277834
108	0xbdedc2ec	-0.11609444
109	0x3e31a01c	0.17346233
110	0x3c9cf3ee	0.019159283
111	0xbf04dd69	-0.51900345
112	0x3ee9b93e	0.4564914
113	0x4088ccc1	4.2749944
114	0x409b3ab3	4.8509154
115	0xc075394a	-3.8316216
116	0x3eff60d5	0.49878564
117	0x409a9255	4.830363
118	0xc06585f7	-3.5863016
119	0x3e73ad95	0.23796685
120	0x3eb199b9	0.34687594
121	0xbf9a60a7	-1.2060746
122	0x3fa51a0a	1.2898571
123	0x3f090399	0.53521115
124	0x3f253c79	0.645454
125	0xbf337d96	-0.70113504
126	0x3fb8d669	1.4440433
127	0x3f313d55	0.6923421
128	0xbf0de27e	-0.55423725
129	0x3fbf4150	1.4941807
130	0xbb985b7d	-0.004649578
131	0x3efe7d8f	0.4970517
132	0xbf6354e8	-0.8880143
133	0xc0266813	-2.6001022
134	0xc0474075	-3.1133091
135	0x40050633	2.0785034
136	0xbedd356d	-0.43204823
137	0xc053c6cf	-3.3090093
138	0x3ff40d9e	1.9066656
139	0xbf336b67	-0.7008576
140	0x3e104c62	0.14091638
141	0xbf428dae	-0.75997436
142	0x3f62e40f	0.8862924
143	0xc015befc	-2.3397818
144	0xc0061493	-2.0950058
145	0x400b0c01	2.1726077
146	0x3f35126e	0.70731246
147	0xc00ad91d	-2.1695015
148	0x401f3e81	2.48819
149	0x3f435765	0.7630523
150	0x3e87195a	0.2638653
151	0xbefd6cb7	-0.49497005
152	0x3efab19c	0.4896363
153	0xbdc17fae	-0.09448181
154	0x3cfaa17b	0.030594578
155	0x3e116874	0.14200002
156	0x3da09709	0.07841308
157	0xbd8ec213	-0.069706105
158	0x3e415e3d	0.18883605
159	0x3df9a43b	0.121895276
160	0x3dd9f801	0.10643006
161	0x3f6c269b	0.9224641
162	0xbf769303	-0.9631807
163	0xbf883cd5	-1.0643564
164	0xbfa2dd73	-1.2723831
165	0x3f6034af	0.8758039
166	0xbf4a19ef	-0.7894582
167	0xbf9198b8	-1.1374731
168	0x3f3c96fe	0.73667896
169	0xbf89ad9b	-1.0756105
170	0x3f1798fc	0.5921781
171	0x3f725858	0.9466605
172	0xbf87eedb	-1.0619768
173	0xbfdd63cd	-1.7296082
174	0xc0100888	-2.2505207
175	0x3fccc89d	1.5998722
176	0xbf2ca8af	-0.6744489
177	0xbff50096	-1.9140804
178	0x3fd69334	1.6763673
179	0xbf5a2391	-0.8521052
180	0xbf062c8b	-0.5241172
181	0x40331c14	2.7985888
182	0xc03a4a8d	-2.9108002
183	0xbd65fc76	-0.05614897
184	0xbebe6239	-0.37184313
185	0x3db31c28	0.08745605
186	0xc0462aea	-3.0963693
187	0xbe8c637d	-0.27419654
188	0x3d928f38	0.07156223
189	0xc0439daa	-3.056498
190	0x3da5ef23	0.08102252
191	0xbe2044c3	-0.1565123
192	0x3dc258aa	0.094895676
193	0xbfb640b1	-1.4238492
194	0xbfd52edf	-1.6654929
195	0x3fcdf6e8	1.6090975
196	0xbe3caddc	-0.18425697
197	0xbfc60081	-1.5468904
198	0x3fa880a0	1.3164253
199	0xbe570add	-0.21000238
200	0xbe14e66e	-0.14541027
201	0x3d620dc0	0.055188894
202	0xbd7db1d0	-0.061937153
203	0xbe330217	-0.17481266
204	0xbe4bfa4a	-0.19919696
205	0x3df26fa0	0.11837697
206	0x3e273726	0.16329631
207	0x3ddba2e4	0.10724428
208	0x3da5dab0	0.08098352
209	0x3e24e9c2	0.16104797
210	0xbe608927	-0.2192732
211	0xbd6fa7ac	-0.058509514
212	0x3daeb91c	0.085314006
213	0x3c6a9560	0.01431784
214	0x3e26e114	0.16296798
215	0xbc6870d0	-0.014187053
216	0xbe205b00	-0.15659714
217	0x3dbd378c	0.0923911
218	0xbdb5373a	-0.08848424
219	0x3dc2d298	0.09512824
220	0x3cae1f68	0.02125521
221	0x3e26601e	0.16247603
222	0xbe0b30f7	-0.13592897
223	0xbdaf3436	-0.0855488
224	0xbdfe3fd4	-0.12414518
225	0xbdea0d6d	-0.11428342
226	0x3da4eb94	0.080527455
227	0x3ad28300	0.001606077
228	0xbd5ee884	-0.054420963
229	0x3cb5fdb8	0.02221571
230	0x3e2eec00	0.17082214
231	0x3d0dc820	0.034614682
232	0x3c6bf660	0.014402002
233	0xbcfd3df8	-0.030913338
234	0xbe39bc00	-0.18138123
235	0xbd51d0d8	-0.05122456
236	0xbc54b430	-0.012982413
237	0x3d0f5c38	0.035000056
238	0xbd273ecc	-0.040831372
239	0x3e4006b8	0.18752563
240	0xbd429588	-0.047505885
241	0x3e4588f4	0.19290525
242	0xbe0bacde	-0.13640162
243	0xbde7760a	-0.11301811
244	0x3d21cdc0	0.03950286
245	0x3e06e028	0.13171446
246	0x3d7e9850	0.062156975
247	0x3dccd3f4	0.10001364
248	0x3db7d344	0.089758426
249	0x3c2a5e10	0.010398403
250	0xbd643020	-0.055709958
251	0xbce405e8	-0.027834848
252	0xbe17a0ae	-0.14807388
253	0xbdaa8ba6	-0.08327417
254	0x3db0694c	0.08613834
255	0xbe30e28c	-0.17273921

lstm.weight_hh_l0 f4 [80, 20]
0	0x3d96b91c	0.073595256
1	0xbe2b66c2	-0.16738418
2	0x3e31bb64	0.1735664
3	0xbe5f4436	-0.21803364
4	0x3c8ddef0	0.017318219
5	0x3de5c748	0.112196505
6	0x3c6b2580	0.014352202
7	0x3e3862be	0.18006417
8	0xbe45616f	-0.19275449
9	0xbe1c43d8	-0.15260255
10	0x3db9d564	0.09073904
11	0xbce47d68	-0.02789183
12	0x3e12a28e	0.14319822
13	0xbe345556	-0.17610678
14	0xbdb39882	-0.08769323
15	0x3c1ccde0	0.009570569
16	0xbe28f303	-0.16498952
17	0xbe26662a	-0.1624991
18	0xbd570aa0	-0.052500367
19	0xbe1d0b26	-0.15336284
20	0x3dcf019c	0.10107729
21	0xbddef61f	-0.108867876
22	0x3d9893e8	0.07450086
23	0x3e55840e	0.20851156
24	0xbe32176d	-0.17391749
25	0x3d83cfbc	0.064361066
26	0x3e151b0a	0.14561096
27	0xbe32f4e0	-0.17476225
28	0x3de30f34	0.11086884
29	0x3cf6a9d0	0.03011027
30	0x3e0d84e8	0.13820231
31	0xbd5916d8	-0.0530003
32	0x3d968fb8	0.07351631
33	0xbd0842e4	-0.033266917
34	0xbd36cd94	-0.04462965
35	0xbd93efae	-0.0722345
36	0x3e55e68e	0.20888731
37	0xbd1491fc	-0.036272034
38	0x3c85bf80	0.016326666
39	0x3bc7d120	0.0060979277
40	0x3e03d4b2	0.12874106
41	0xbe3e0ea7	-0.18560277
42	0x3c774380	0.015091777
43	0xbd140100	-0.036133766
44	0x3e112126	0.14172801
45	0xbd6536d0	-0.055960476
46	0xbc6b20f0	-0.014351115
47	0x3df1d3a0	0.118079424
48	0xbdd09ec0	-0.10186529
49	0xbd1df200	-0.038560867
50	0xbe53e219	-0.20691718
51	0x3b42f680	0.0029748976
52	0xbdd27966	-0.10277061
53	0xbd9b2e9c	-0.075772494
54	0xbd06a15c	-0.032868728
55	0x3dfb58c8	0.12272793
56	0x3dc22660	0.09479976
57	0xbe38de5f	-0.18053578
58	0xbe4ab522	-0.19795659
59	0xbdfd6bf6	-0.123741075
60	0xbe5ed1bb	-0.21759693
61	0xbd23a928	-0.03995624
62	0x3de01bbc	0.1094279
63	0x3dbc435c	0.09192535
64	0x3e0723b8	0.1319722
65	0xbe060562	-0.13087991
66	0x3e637fbc	0.22216696
67	0x3dae1198	0.084994495
68	0xbdc4d780	-0.09611416
69	0x3da2e9ec	0.07954773
70	0xbe4e927c	-0.20173067
71	0x3e55f54a	0.20894352
72	0x3de9f934	0.11424485
73	0x3d4e2380	0.050326824
74	0xbe542834	-0.20718461
75	0xbe1f9f43	-0.15588097
76	0xbd75d00c	-0.060012862
77	0x3e362f44	0.17791468
78	0xbe5cf351	-0.21577193
79	0x3e300f92	0.1719344
80	0xbe49919c	-0.19684452
81	0xbd96a464	-0.07355574
82	0xbe17c328	-0.1482054
83	0x3bb170a0	0.0054150373
84	0xbd3dbb38	-0.046321124
85	0x3dd0dfd0	0.10198939
86	0xbd2091f0	-0.039201677
87	0x3e589240	0.2114954
88	0x3e515d5e	0.20445773
89	0x3e48b50c	0.19600314
90	0xbdaaaecc	-0.08334121
91	0xbdf17473	-0.11789789
92	0xbe002b80	-0.12516594
93	0x3e058fd0	0.13043141
94	0x3d6adc40	0.057338953
95	0xbe24b2ec	-0.16083878
96	0xbcf34228	-0.029694632
97	0xbe10781c	-0.14108318
98	0x3e378340	0.17921162
99	0x3d99e2f8	0.07513994
100	0xbdc272b0	-0.09494531
101	0xbd2fd61c	-0.0429288
102	0xbde776af	-0.11301934
103	0xbde69d6f	-0.11260497
104	0x3e14a870	0.14517379
105	0x3cef67c0	0.029224277
106	0xbe4b8948	-0.19876587
107	0x3e4f8e8c	0.20269221
108	0x3d9864c4	0.074410945
109	0x3e49d810	0.19711328
110	0xbd908dd6	-0.07058303
111	0x3e3fc1ec	0.18726319
112	0x3d9322e4	0.07184389
113	0x3e438ec8	0.19097435
114	0x3dc8f178	0.098116815
115	0x3e1b749c	0.15181202
116	0x3dcde6dc	0.100537986
117	0xba59ff00	-0.0008315891
118	0x3e64d0d0	0.2234528
119	0xbd2d4da8	-0.042310387
120	0x3e2049b4	0.15653116
121	0xbccc6958	-0.024952576
122	0x3b757bc0	0.0037457794
123	0x3dc84d20	0.097803354
124	0xbe0cb3bc	-0.13740438
125	0xbdde3ef6	-0.108518526
126	0x3ce713e0	0.02820772
127	0x3e242810	0.16030908
128	0xbdb4ca72	-0.08827676
129	0x3e27e28e	0.16395018
130	0xbe5d515d	-0.21613069
131	0xbd5cd3e8	-0.053913027
132	0x3d3a3a98	0.045466036
133	0x3d9cc078	0.07653898
134	0x3ad2d380	0.001608476
135	0x3e3ecbaa	0.18632379
136	0x3e11172c	0.14168996
137	0x3e4ac1c6	0.19800481
138	0x3e45e12a	0.19324175
139	0x3e4c1946	0.19931516
140	0x3dab0288	0.08350092
141	0x3ce82740	0.028339028
142	0xbe45eafd	-0.19327922
143	0x3e204e1e	0.156548
144	0x3d9adefc	0.07562062
145	0x3e614564	0.21999127
146	0xbdc64314	-0.09680763
147	0x3e2fccf4	0.17168027
148	0x3e34dcc8	0.17662346
149	0x3cb0e908	0.021595493
150	0xbdd47a1d	-0.10374854
151	0xbd8b6728	-0.06806785
152	0x3e03b57a	0.12862197
153	0x3e62156e	0.22078487
154	0x3dbe5534	0.09293595
155	0x3e124a12	0.14286068
156	0xbe64b02e	-0.22332832
157	0xbe165937	-0.1468247
158	0x3c924a10	0.017857581
159	0xbd612e00	-0.05497551
160	0x3e57bdaa	0.21068445
161	0xbdb276ba	-0.087140515
162	0x3de562ec	0.112005085
163	0xbe166834	-0.14688188
164	0x3e2e0fb6	0.16998181
165	0xbe57ebfa	-0.21086112
166	0x3df0e1e8	0.11761838
167	0xbcf53aa0	-0.029935181
168	0x3cced180	0.025246382
169	0x3e01b516	0.12666735
170	0x3e192ea6	0.14959201
171	0x3c7f0ea0	0.015567452
172	0x3ca97480	0.020685434
173	0xbdaf5dfc	-0.08562848
174	0xbe210712	-0.15725353
175	0x3e4b6a7c	0.1986484
176	0xbdb5c89a	-0.08876152
177	0xbe4da0be	-0.2008085
178	0x3e3da73a	0.18520823
179	0xbe2e6df4	-0.17034131
180	0xbc18b5c0	-0.009320676
181	0xbd90309a	-0.0704052
182	0x3e29f896	0.16598734
183	0xbda4cda8	-0.08047038
184	0xbe5bfefc	-0.21483988
185	0xbba3c240	-0.0049975216
186	0x3e05274e	0.13003275
187	0x3e1641fc	0.14673609
188	0xbe384b86	-0.1799756
189	0x3e4f2008	0.20227063
190	0xbd673e30	-0.05645579
191	0xbcbbb8b8	-0.02291523
192	0xbe5808af	-0.21097063
193	0x3e52fc2c	0.20604008
194	0x3e054a5e	0.1301665
195	0xbde20d94	-0.11037746
196	0xbcf87030	-0.030326933
197	0x3e47c1a8	0.19507468
198	0x3d6515d8	0.055929035
199	0xbe3ae2da	-0.182506
200	0x3dbcf6f8	0.09226793
201	0x3d863608	0.065532744
202	0x3e30fa2e	0.17282936
203	0x3d887adc	0.066640586
204	0x3c0400b0	0.008056805
205	0xbc351910	-0.011053339
206	0x3e6467b8	0.2230519
207	0x3e32acfc	0.17448801
208	0xbc0ce3b0	-0.008599207
209	0xbe1c8929	-0.15286697
210	0x3e59aba0	0.21256876
211	0x3e5fa482	0.21840099
212	0x3dc26fcc	0.0949398
213	0x3e1ee536	0.15517125
214	0x3c8a23b0	0.01686272
215	0x3d3b9f40	0.04580617
216	0x3bc5f5c0	0.0060412586
217	0x3e400380	0.18751335
218	0x3e455f78	0.192747
219	0xbdf2716f	-0.11838042
220	0x3e5abd40	0.21361256
221	0xbe2f61a7	-0.17127095
222	0xbe5bb655	-0.21456273
223	0x3d476878	0.048683614
224	0xbdfb3114	-0.1226522
225	0x3d544398	0.051822275
226	0xbcd342c8	-0.02578868
227	0x3e181068	0.14850008
228	0xbe35751a	-0.17720452
229	0x3dbe69b4	0.09297505
230	0x3de9aa00	0.11409378
231	0xbcc76b60	-0.024343193
232	0x3e2b1cd4	0.16710216
233	0xbdb68c62	-0.08913495
234	0x3e238fc0	0.15972805
235	0xbdeadece	-0.11468278
236	0xbd0bc508	-0.03412345
237	0x3d61eba8	0.05515638
238	0xbbc726c0	-0.0060776174
239	0xbd5894e0	-0.052876353
240	0xbe5f8989	-0.21829809
241	0xbe1b2178	-0.15149486
242	0x3e05cbc0	0.13066006
243	0x3cfec930	0.031101793
244	0x3c77dd70	0.015128478
245	0x3e17ef22	0.14837316
246	0xbe015ce1	-0.12633087
247	0xbe342d44	-0.17595392
248	0xbbff0760	-0.0077828616
249	0x3ce67730	0.028133005
250	0x3e375174	0.17902166
251	0x3e46e0ce	0.19421694
252	0x3dbb0460	0.09131694
253	0xbdf4dfa2	-0.11956717
254	0x3e36ec50	0.17863584
255	0xbe080f0e	-0.13286993

lstm.bias_ih_l0 f4 [80]
0	0x40132899	2.299353
1	0xbf5857d9	-0.84509045
2	0x3f11e101	0.56983954
3	0x3f7b6a5e	0.9820918
4	0x3f493515	0.7859662
5	0x3fb2a225	1.3955733
6	0x3ed9d611	0.42546132
7	0x3fa9524a	1.3228238
8	0x3cce10c5	0.02515448
9	0x3fe12235	1.7588564
10	0x40146dee	2.3192096
11	0x3de53232	0.111912146
12	0x3ef2b312	0.47402245
13	0x3f3be8f4	0.73402333
14	0x3ce4d566	0.027933788
15	0x402f2fb8	2.7372875
16	0x3f601c2a	0.87542975
17	0x3f01a3c0	0.5064049
18	0x3ff1fa29	1.8904468
19	0xc00de05d	-2.216819
20	0xbe0bf72a	-0.13668504
21	0xbd918bec	-0.07106766
22	0x3e52d45e	0.20588824
23	0x3d8c4f58	0.06851071
24	0xbcb381e0	-0.021912515
25	0x3e20eca8	0.15715277
26	0xbb87bda0	-0.004142478
27	0x3e5b652a	0.2142531
28	0xbe1406c3	-0.14455704
29	0x3d0864f0	0.033299387
30	0xbe3d1d1d	-0.18468137
31	0xbbe668c0	-0.00703153
32	0x3df3a47c	0.11896607
33	0x3e00433c	0.12525648
34	0x3ce9f580	0.028559446
35	0x3a9f5a00	0.0012157559
36	0x3e1f47f4	0.15554792
37	0x3c579910	0.013159052
38	0x3e3eb598	0.1862396
39	0x3e45c366	0.1931282
40	0xbe42e375	-0.1903208
41	0xbf0b2ceb	-0.54365414
42	0x3d627d76	0.05529543
43	0x3f299d5e	0.6625575
44	0xbdc79a8b	-0.097462736
45	0x3eeae380	0.45876694
46	0xbf5fff5f	-0.8749904
47	0xbee8bf04	-0.45458233
48	0x3cd187f5	0.025577525
49	0x3dfdb4f3	0.12388029
50	0xbebfe3dd	-0.37478533
51	0x3f866d40	1.050209
52	0x3ea1714d	0.31531754
53	0xbed2910a	-0.4112628
54	0x3fc68278	1.5508566
55	0x3eebc4e9	0.46048668
56	0x3f6002ef	0.87504476
57	0x3ebc0cda	0.36728555
58	0xbf55f85e	-0.83582103
59	0x3d8ac5e1	0.06776024
60	0x3fd55d42	1.6669085
61	0xbf70f411	-0.94122416
62	0x3e3813fe	0.17976376
63	0x3ff72f75	1.9311358
64	0xbef12a04	-0.47102368
65	0x40223bbb	2.5348957
66	0xbe90d86d	-0.2829012
67	0x40246b7c	2.5690603
68	0xbf0b506a	-0.5441958
69	0xbe922f6a	-0.285518
70	0x3fbeccb5	1.4906222
71	0xbd57daff	-0.052699085
72	0x3e81e780	0.25371933
73	0x3fa2becc	1.2714477
74	0xbecf74b4	-0.40518725
75	0x3fd14eaa	1.6352131
76	0xbf12b20c	-0.5730293
77	0xbf8bea95	-1.0930964
78	0x4008bce4	2.136529
79	0xc01e23d1	-2.470936

lstm.bias_hh_l0 f4 [80]
0	0x401bfddf	2.43737
1	0xbf3e84b8	-0.7442126
2	0x3ed40f52	0.41417938
3	0x3f6f9378	0.93584394
4	0x3f9593bc	1.168571
5	0x3fa52b5b	1.2903856
6	0x3e295335	0.16535647
7	0x3fb5570a	1.4167187
8	0xbe54522c	-0.20734471
9	0x3fd8e4f1	1.6944867
10	0x40052d24	2.0808802
11	0x3ee59116	0.44837254
12	0x3f00b51e	0.5027636
13	0x3f5eb946	0.87001455
14	0xbe4680af	-0.19385026
15	0x401aed6a	2.4207406
16	0x3f453dd2	0.77047455
17	0x3e14c5ac	0.14528531
18	0x3fe11b7b	1.7586511
19	0xc00653c7	-2.0988634
20	0xbc678b90	-0.014132395
21	0x3d13f070	0.03611797
22	0x3e010942	0.12601188
23	0xbe2237b9	-0.15841569
24	0x3de26370	0.110541224
25	0xbe16249e	-0.14662406
26	0xbe1639b2	-0.14670447
27	0x3e01a41a	0.12660256
28	0x3c4e32c0	0.012585342
29	0xbd1cd62c	-0.038290188
30	0xbe1510fb	-0.14557259
31	0x3db57ac0	0.08861303
32	0x3c7436b0	0.014905617
33	0xbd4f7f24	-0.05065836
34	0xbe1344c2	-0.14381698
35	0x3e5e1962	0.2168937
36	0x3df12dd0	0.11776316
37	0xbcaad678	-0.02085422
38	0xbdf4cd5e	-0.11953233
39	0x3debe56c	0.11518368
40	0xbf0f3e46	-0.55954397
41	0xbf0292e7	-0.51005405
42	0x3ea9abc1	0.3313885
43	0x3f2850c8	0.6574826
44	0x3d9590eb	0.073030315
45	0x3e4217be	0.1895437
46	0xbf8be4a3	-1.0929149
47	0xbf03eb64	-0.5153105
48	0x3d897e6b	0.067135654
49	0xbdbfd543	-0.09366848
50	0xbf1cd346	-0.6125988
51	0x3f82332a	1.0171864
52	0x3e92dd39	0.28684404
53	0xbef0312e	-0.4691252
54	0x3fa41e7a	1.2821801
55	0x3ef4ed0d	0.47837105
56	0x3f16e7ac	0.58947253
57	0x3ea376a2	0.31926447
58	0xbf614164	-0.87990403
59	0x3e339580	0.17537498
60	0x3fd2b382	1.6461031
61	0xbf6ea92a	-0.93226874
62	0x3e833d3d	0.2563266
63	0x4000ab44	2.0104532
64	0xbe2ca576	-0.16859993
65	0x401b020d	2.4220002
66	0xbedaaf03	-0.42711648
67	0x401d9f74	2.4628572
68	0xbf129fbe	-0.57275
69	0xbc9bb123	-0.019005364
70	0x3faae435	1.3350893
71	0x3cb16d8e	0.021658685
72	0xbc510522	-0.012757571
73	0x3f6551e4	0.8957808
74	0xbf1d05e2	-0.613371
75	0x3fbdeaf0	1.4837322
76	0xbedc5a68	-0.43037724
77	0xbf634878	-0.88782454
78	0x4003595b	2.0523288
79	0xc0110025	-2.2656338

lstm.weight_ih_l1 f4 [80, 20]
0	0xbe5ebdeb	-0.21752135
1	0x3edd9ba4	0.43282807
2	0x3f2d79a2	0.6776372
3	0xbe9011f5	-0.281387
4	0x400d7407	2.2102067
5	0xc08841bb	-4.2580237
6	0xbeafd1b3	-0.34339675
7	0x406c330a	3.6906152
8	0x3dfd47f7	0.12367242
9	0x3f8ebe9a	1.1151917
10	0x4093e995	4.6222634
11	0xbeafb0cd	-0.34314576
12	0x3f02f754	0.5115864
13	0x3f958347	1.1680688
14	0x40160d3e	2.3445582
15	0xbe48e9f0	-0.1962049
16	0x3ebc4826	0.36773795
17	0x3f8031d6	1.0015209
18	0xbf5058a9	-0.81385285
19	0x3e731725	0.23739298
20	0xbf56a98f	-0.83852476
21	0x3f2d334c	0.676564
22	0xbcd8297f	-0.026386974
23	0x4000c241	2.0118563
24	0x4049bd23	3.152169
25	0xc0864296	-4.195628
26	0xbff4b6e4	-1.9118314
27	0x4044c87a	3.074736
28	0xbf4b4547	-0.79402584
29	0x4079ede4	3.9051447
30	0x4095b3fc	4.6782207
31	0xbe8b14e0	-0.27164364
32	0xc00d7e44	-2.2108316
33	0x3fb1d9de	1.3894613
34	0x3fba843b	1.4571604
35	0x3f15b7e4	0.5848372
36	0x3fb27eca	1.3944943
37	0x3fddaefd	1.7319027
38	0xc02312c5	-2.5480206
39	0x3f0773f7	0.52911323
40	0x3fec1532	1.8443968
41	0xc01789b4	-2.3677797
42	0xbea07e4a	-0.3134635
43	0xbd8c31de	-0.06845449
44	0xbf5f2f86	-0.8718189
45	0x40a8fb5a	5.2806826
46	0x3ddb9293	0.10721316
47	0xc04f5517	-3.2395685
48	0xbf174edb	-0.591047
49	0xbecc51da	-0.39906198
50	0xc09b41ee	-4.851798
51	0xc00834bf	-2.1282194
52	0x3f18188e	0.5941247
53	0xbe8f2621	-0.27958778
54	0x3f51b24e	0.81912696
55	0xc00b7bdd	-2.179435
56	0xbedef6a4	-0.43547547
57	0xbf604b19	-0.8761459
58	0xbd26108e	-0.04054313
59	0x3e8e44eb	0.27786955
60	0xbf627de0	-0.8847332
61	0xbf890a9a	-1.070636
62	0xbd945295	-0.07242314
63	0xbe3ec955	-0.1863149
64	0x3e176dbe	0.14787957
65	0xbdbbdd15	-0.091730274
66	0x3ff33246	1.8999717
67	0x3e5773cc	0.21040267
68	0x3fd069e2	1.6282313
69	0xbfa50375	-1.289168
70	0xbef33a60	-0.47505474
71	0x3f752fb2	0.957759
72	0xbfcdb216	-1.6069973
73	0xbd99ed4e	-0.075159654
74	0xbe914528	-0.28373075
75	0x3ecc847d	0.3994483
76	0xbf89fadd	-1.0779682
77	0x3f1708a4	0.5899756
78	0x40190d81	2.3914492
79	0xbe6c3495	-0.23066933
80	0xbeece511	-0.46268514
81	0x3c2c02a8	0.01049868
82	0xc019706f	-2.3974874
83	0x4047e69d	3.1234505
84	0x405927e4	3.3930597
85	0xc079f299	-3.905432
86	0xbfe75c9b	-1.8075136
87	0x4065171f	3.5795362
88	0xbd0be1ba	-0.034150817
89	0x4010823e	2.2579494
90	0x4078ae0b	3.8856227
91	0xbceb937c	-0.02875685
92	0xbee6f6aa	-0.45110065
93	0x3d3ad035	0.045608718
94	0x401b45d3	2.4261367
95	0x3e6543d5	0.22389157
96	0x3ffe6e3f	1.9877394
97	0x3f99ed30	1.2025509
98	0xc01d34ec	-2.456355
99	0x3ebc5873	0.3678623
100	0x3fac51ae	1.3462427
101	0xc0703413	-3.7531784
102	0x3fa1b6fc	1.2633967
103	0xbf04446f	-0.5166692
104	0xbf0dfb32	-0.5546142
105	0xbd6eb766	-0.05828037
106	0x3ece20d3	0.40259418
107	0xbe8e04d5	-0.27738062
108	0xc0347511	-2.8196452
109	0x3fb2119e	1.3911626
110	0xbde64511	-0.11243642
111	0xc048bb73	-3.136441
112	0x3df9dbce	0.122001275
113	0x3ffd0df5	1.9769884
114	0x3fcd78f7	1.605254
115	0xc0214ef3	-2.5204437
116	0x3e848db6	0.25889367
117	0x3f2b0c08	0.66815233
118	0xbdb644b1	-0.088998206
119	0x4080eb43	4.0287185
120	0xbf816c5e	-1.0111196
121	0x3f218a07	0.6310124
122	0xbed1260a	-0.40849334
123	0x3f125eb2	0.57175744
124	0x3fbeabe6	1.4896209
125	0xbf842cfa	-1.0326226
126	0xbe4c2329	-0.19935288
127	0x3f6cd667	0.9251465
128	0x3e87091a	0.2637413
129	0xbe9271b8	-0.28602386
130	0x3f3a81c4	0.72854257
131	0x3fba4475	1.4552141
132	0xbf843f74	-1.0331864
133	0x3ee40b18	0.44539714
134	0x3edcfa65	0.43159786
135	0x3fee631c	1.8623996
136	0xbf149491	-0.58039194
137	0x3e164f7c	0.14678758
138	0xbeda71de	-0.42665
139	0x3e54500a	0.20733657
140	0xbaad3d79	-0.0013217173
141	0xbe1335fe	-0.14376065
142	0x3e2e100c	0.16998309
143	0xbd6badb9	-0.05753872
144	0x3dc15127	0.09439307
145	0x3cc88870	0.024479121
146	0xbe0e692f	-0.13907312
147	0xbdcf0469	-0.10108263
148	0x3e27598b	0.16342752
149	0xbe5d64e1	-0.21620513
150	0xbe69dbd7	-0.22837768
151	0x3d22aad1	0.039713684
152	0x3e696f69	0.22796406
153	0xbe1bf1ad	-0.1522891
154	0x3da130c4	0.078706294
155	0x3df83d32	0.12121047
156	0xbdad7b80	-0.084708214
157	0xbe071e89	-0.13195242
158	0xbde19dbd	-0.11016414
159	0xbd1dab36	-0.038493358
160	0x3f70df23	0.9409048
161	0x3fa7dfdb	1.311519
162	0xbb7c314c	-0.0038481532
163	0xbd2e67a9	-0.042579327
164	0xbf8f1ba3	-1.1180309
165	0xbecc0584	-0.39847958
166	0xbef0af71	-0.4700885
167	0x3d997678	0.07493299
168	0xbda259e9	-0.07927305
169	0xbecaf287	-0.3963816
170	0x3ec4b309	0.38417843
171	0xc043d9eb	-3.0601757
172	0xbe465f9e	-0.19372413
173	0xbec3843f	-0.38186833
174	0x3f54809e	0.83008754
175	0xbf02e2c6	-0.5112728
176	0x3e531d9b	0.20616762
177	0x3e852274	0.26002848
178	0x3e01f98a	0.12692848
179	0x3f206495	0.62653476
180	0x40b37b04	5.6087666
181	0xc080faa3	-4.0305953
182	0xc005ca33	-2.0904663
183	0xbe0a341c	-0.1349644
184	0xc0332b27	-2.7995088
185	0xbe9bbb42	-0.30416304
186	0x3ee2da29	0.44307068
187	0x3e07dda0	0.13268137
188	0x3d807958	0.062731445
189	0xbf053cf6	-0.52046144
190	0x3e13d735	0.14437564
191	0xbff7ebfc	-1.9368892
192	0xc065900e	-3.5869174
193	0xbf0e3bf1	-0.55560213
194	0x3f569dbe	0.83834445
195	0xc0a94a0b	-5.2902884
196	0xbe89a7af	-0.26885745
197	0x3caf67fa	0.021411885
198	0x3ec3df90	0.38256502
199	0x3fd2d99f	1.6472663
200	0xbf343f1b	-0.7040879
201	0x3f8f1d6e	1.1180856
202	0x3fd26b3b	1.6438974
203	0x3eae5f36	0.34057015
204	0x3ea1bbc7	0.31588575
205	0xbf962d9e	-1.1732671
206	0xbf58b4d3	-0.84650916
207	0x3f4b6ba5	0.7946113
208	0xbe9f1f88	-0.31078744
209	0x3f852582	1.0402071
210	0x3fa46a44	1.284493
211	0x3f5a80ee	0.8535298
212	0x3f91fcf1	1.1405317
213	0x4037065c	2.8597631
214	0x3e38d46c	0.18049783
215	0x3e2baa0a	0.16764084
216	0x3ee87410	0.4540105
217	0x400d0372	2.2033353
218	0xbf13dc73	-0.57758254
219	0x3ebcd8a5	0.36884037
220	0x3f6ee1f1	0.9331351
221	0x3ecda236	0.4016282
222	0x3f748a51	0.95523554
223	0xc0ccd914	-6.401499
224	0xbef6c39a	-0.48196107
225	0x40256256	2.584127
226	0x400ab925	2.1675503
227	0xbfb99b55	-1.4500529
228	0x3ed1c625	0.40971485
229	0xbf5ba3b0	-0.8579664
230	0xbfd0fcb5	-1.632712
231	0xc00e8411	-2.2268107
232	0x3fc9116d	1.5708443
233	0xbf712d05	-0.9420932
234	0xbf4f911c	-0.81080794
235	0xbf343919	-0.70399624
236	0xc02c2470	-2.689724
237	0xc0e08ea3	-7.0174117
238	0x3f15b32e	0.5847653
239	0xbee725ed	-0.45146123
240	0xc05a4be7	-3.4108827
241	0x405b476d	3.4262345
242	0x3f869235	1.0513369
243	0x3fb95aff	1.4480895
244	0x3fa43566	1.2828796
245	0xc03182bf	-2.773605
246	0xbfcbeafa	-1.5931084
247	0x4026cbca	2.6061883
248	0x3f5b81c2	0.8574487
249	0x3f907c88	1.1288004
250	0x402b1163	2.6729362
251	0x401f9bd9	2.4938872
252	0x3f85f389	1.0464946
253	0x400f8975	2.2427647
254	0x3daa04f3	0.08301725
255	0x40455cbc	3.083785

lstm.weight_hh_l1 f4 [80, 20]
0	0x3e073c0a	0.13206497
1	0x3e323138	0.17401588
2	0x3d308210	0.043092787
3	0x3e520528	0.2050978
4	0xbe10b092	-0.14129856
5	0x3df75d88	0.120783865
6	0x3e133496	0.14375529
7	0x3bc063e0	0.005871281
8	0xbd26f398	-0.040759653
9	0xbd91e760	-0.071242094
10	0x3e480ff4	0.19537336
11	0xbe64e664	-0.22353512
12	0xbdf0df43	-0.11761334
13	0xbdf6acaf	-0.120446555
14	0x3e07d944	0.13266474
15	0x3dc8a7cc	0.0979763
16	0x3dc2f1e4	0.09518793
17	0xbe4bc1fd	-0.1989822
18	0x3d2221e8	0.039583117
19	0xbdcdc34a	-0.10047014
20	0x3e2672fa	0.16254798
21	0xbd8c5b0e	-0.06853305
22	0xbd288ac8	-0.041147977
23	0xbc4feb20	-0.0126903355
24	0x3e35bc4a	0.17747608
25	0xbe291496	-0.16511759
26	0xbd02b67c	-0.031912312
27	0xbe134cf0	-0.14384818
28	0x3dec6870	0.11543357
29	0xbe4b8c9f	-0.19877861
30	0xbe2d0af0	-0.16898704
31	0xbddf0c26	-0.10890989
32	0xbc7b91e0	-0.0153546035
33	0x3db77860	0.089585066
34	0xbe27bdf9	-0.16381063
35	0xbdc0c58c	-0.09412679
36	0x3d241e40	0.04006791
37	0x3de98e54	0.114041
38	0x3e5fe952	0.21866348
39	0x3e0dd042	0.13848975
40	0xbd988916	-0.07448022
41	0x3e474ac0	0.19462109
42	0xbd9dd838	-0.07707256
43	0x3dc8a7a8	0.09797603
44	0xbdd7539a	-0.105139926
45	0x3ce2c600	0.027682304
46	0xbd94e79e	-0.0727074
47	0x3d7999d0	0.060937703
48	0xbe33c494	-0.17555457
49	0x3e0577ec	0.13034028
50	0x3d535348	0.051593095
51	0x3e34f95a	0.17673245
52	0xbd6cb708	-0.05779174
53	0x3e406236	0.18787464
54	0xbe484a7e	-0.19559667
55	0xbd9721b8	-0.07379478
56	0x3d7909d8	0.060800403
57	0x3e2fe50a	0.17177215
58	0x3e2610f2	0.16217402
59	0x3d8f0200	0.06982803
60	0x3d280890	0.04102379
61	0x3d3d44c8	0.046208173
62	0x3e5050fa	0.2034339
63	0xbdd5e388	-0.10443789
64	0x3e21af78	0.15789592
65	0x3e3cafa6	0.1842638
66	0xbd85da2a	-0.06535752
67	0xbdfda00c	-0.12384042
68	0x3e29f9a6	0.1659914
69	0xbc31afc0	-0.010845125
70	0xbd487dec	-0.048948213
71	0x3de3afc0	0.11117506
72	0xbe31e983	-0.17374234
73	0x3dc0fa04	0.09422687
74	0xbe356f41	-0.17718221
75	0x3cc37380	0.023858786
76	0x3e094580	0.13405418
77	0x3d773430	0.060352504
78	0x3dc0c59c	0.09412691
79	0x3e56dd20	0.2098279
80	0x3cf25340	0.029580712
81	0x3e31976e	0.17342922
82	0xbe1a3822	-0.15060475
83	0x3d8ddf14	0.069273144
84	0x3d53f460	0.051746726
85	0xbb19c040	-0.0023460537
86	0xbb0b38c0	-0.0021243542
87	0xbdb2cb00	-0.087301254
88	0xbe108365	-0.14112623
89	0xbe023cf8	-0.1271857
90	0x3d662640	0.05618882
91	0xbe02f688	-0.12789357
92	0xbdf32102	-0.1187153
93	0xbe06efec	-0.1317746
94	0x3e1701ca	0.14746776
95	0x3dc884f0	0.09790981
96	0x3d89a08c	0.06720075
97	0xbd144fa0	-0.03620875
98	0x3e36c50c	0.17848605
99	0xbe448799	-0.19192351
100	0xbe476b43	-0.19474511
101	0xbd695efc	-0.05697535
102	0x3dc47ae4	0.09593752
103	0xbd05ee1c	-0.032697782
104	0x3ca44630	0.020053
105	0x3e3489a8	0.17630637
106	0xbde7aa96	-0.113118336
107	0xbd8cfc2a	-0.06884034
108	0x3e4cf9b0	0.20017123
109	0xbd211b8c	-0.03933291
110	0x3e17fe54	0.14843112
111	0xbe5158ae	-0.20443985
112	0x3e462436	0.19349751
113	0xbd91d41e	-0.07120536
114	0x3e22929a	0.15876237
115	0x3e131e3e	0.14367005
116	0xbd95eec0	-0.073209286
117	0x3d79fb80	0.061030865
118	0x3e5a60da	0.21326008
119	0xbe5739c3	-0.21018128
120	0xbd0859d4	-0.03328879
121	0x3d3a66b0	0.045508087
122	0xbe49f54a	-0.19722477
123	0x3e523e16	0.20531496
124	0x3d9cc8a4	0.07655457
125	0xbdc8e24e	-0.09808789
126	0x3db8ed84	0.090296775
127	0xbd802dec	-0.06258759
128	0xbd7a053c	-0.06104015
129	0x3d171ae0	0.036890864
130	0x3dc3ed60	0.0956676
131	0x3e0e1a52	0.13877228
132	0xbe34ad87	-0.1764432
133	0x3d805670	0.06266487
134	0xbd8aac18	-0.067711055
135	0x3e47dbc2	0.19517425
136	0x3cb64a40	0.022252202
137	0xbe45d4ab	-0.19319408
138	0xbdbcd8ae	-0.09221016
139	0x3e416d22	0.18889287
140	0xbe5fea74	-0.2186678
141	0x3e5e3686	0.21700487
142	0xbe1cfc36	-0.15330586
143	0xbe5b0fb2	-0.21392706
144	0x3e0d5d38	0.13805091
145	0x3e0be2a6	0.13660678
146	0x3c79b020	0.015239745
147	0x3de65090	0.11245835
148	0xbe5fd5e4	-0.21858937
149	0x3e6075c0	0.21919918
150	0x3a67e100	0.00088454783
151	0xbc97f298	-0.018548295
152	0x3dbc667c	0.09199235
153	0xbd0302b4	-0.031985
154	0x3de1318c	0.109957784
155	0x3d212f78	0.03935191
156	0x3da509b4	0.08058491
157	0x3dddaf54	0.10824457
158	0xbe4e40ce	-0.20141909
159	0xbdd5e6aa	-0.10444386
160	0xbe47f337	-0.19526373
161	0x3e392dac	0.18083829
162	0xbe337dc4	-0.17528445
163	0x3d170d28	0.03687778
164	0xbde9d534	-0.114176184
165	0xbe26b23f	-0.16278933
166	0xbdd36a15	-0.10322968
167	0xbe3f5388	-0.18684208
168	0x3e3efc30	0.1865089
169	0x3df21a80	0.11821461
170	0x3e3c7168	0.18402636
171	0xbe2a43e0	-0.16627455
172	0x3d6c9660	0.057760596
173	0xbdafbf24	-0.08581379
174	0x3e2de59a	0.16982117
175	0x3e059b40	0.13047504
176	0x3d5dd540	0.05415845
177	0xbde8b2cf	-0.1136223
178	0xbdb382d4	-0.08765188
179	0xbe331349	-0.17487825
180	0x3e452514	0.19252425
181	0xbe13c0ee	-0.14429066
182	0x3d7e7130	0.062119663
183	0x3e04320a	0.12909713
184	0xbe545044	-0.20733744
185	0xbe0ae828	-0.13565123
186	0x3e3b038c	0.18263072
187	0x3e42dcfa	0.19029608
188	0x3db8d318	0.09024638
189	0xbd01c824	-0.03168501
190	0x3e29dbaa	0.16587701
191	0x3dd1e2f4	0.10248366
192	0xbd653a88	-0.055964023
193	0xbd33e868	-0.04392281
194	0x3d4bd8f8	0.049767464
195	0xbe64cd3e	-0.22343919
196	0xbd6481d4	-0.055787876
197	0x3e4a0398	0.19727933
198	0xbc2525e0	-0.010079831
199	0x3de66f3c	0.11251685
200	0xbda25006	-0.079254195
201	0xbdcaec4a	-0.0990835
202	0x3ddd0e28	0.10793716
203	0x3dab28e4	0.08357409
204	0x3e22710c	0.15863436
205	0x3e0fe234	0.14051133
206	0x3e1f1b48	0.1553775
207	0x3e34bb7a	0.17649642
208	0x3df85c30	0.12126958
209	0xbe59e5a3	-0.21279006
210	0x3d6be6b8	0.057593077
211	0xbd9da8c2	-0.076982036
212	0x3e54286c	0.20718545
213	0x3c926118	0.017868564
214	0xbe4c07e3	-0.19924884
215	0x3b503540	0.003177002
216	0xbd5ad9dc	-0.053430423
217	0x3d7f17b0	0.06227845
218	0xbe4dc90a	-0.20096222
219	0x3e12dca8	0.14341986
220	0xbdd48779	-0.10377402
221	0xbe368a3a	-0.17826167
222	0xbdf9482d	-0.121719696
223	0xbcef6a30	-0.029225439
224	0xbddfc038	-0.10925335
225	0xbd351f14	-0.04421909
226	0xbe0113bf	-0.12605189
227	0xbe6381ad	-0.22217436
228	0xbe2db10b	-0.16962068
229	0xbe0147d5	-0.12625058
230	0x3e0a5534	0.13509065
231	0xbdd3e03f	-0.10345506
232	0xbd5e0bc0	-0.054210424
233	0xbe1077f3	-0.14108257
234	0xbe0fca23	-0.14041953
235	0xbe16a2af	-0.14710496
236	0x3c3f2fc0	0.011669099
237	0xbe1a7e32	-0.15087202
238	0xba554d00	-0.0008136779
239	0xbe14f328	-0.14545882
240	0x3d1f6270	0.038912237
241	0x3bf8a100	0.007587552
242	0x3dc94ad4	0.098287255
243	0xbe3be1b6	-0.1834782
244	0xbd2e7b64	-0.042598143
245	0x3e554408	0.20826733
246	0x3ca9bb10	0.020719081
247	0xbcab6ba0	-0.020925343
248	0x3e5721b4	0.2100895
249	0x3e6454b2	0.22297934
250	0xbdc188e4	-0.09449938
251	0xbe612a23	-0.2198873
252	0xbe1b1964	-0.15146405
253	0xbe35b391	-0.1774428
254	0x3e444604	0.19167334
255	0xbe4c07c1	-0.19924833

lstm.bias_ih_l1 f4 [80]
0	0xbe689589	-0.22713293
1	0xbe7d5fd4	-0.24743587
2	0x3f4cc4de	0.79987895
3	0x3f112a6c	0.56705356
4	0xbf2607c0	-0.64855576
5	0xbf933b88	-1.1502542
6	0x3fc92a5f	1.5716056
7	0xbcaaae24	-0.02083499
8	0x3e4e2773	0.20132236
9	0xbf1e519a	-0.61843264
10	0x3f54f37c	0.8318403
11	0x3f2b4596	0.66903055
12	0x3f2ec41c	0.6826799
13	0x3e14da2e	0.14536354
14	0x3e54c39e	0.20777747
15	0x3ed2e2da	0.411887
16	0xbe958840	-0.29205513
17	0x3e55c95a	0.20877591
18	0x3d958b42	0.07301952
19	0x3ec2402b	0.3793958
20	0x3d8ed4c8	0.069741786
21	0x3c9cb380	0.019128561
22	0xbe025006	-0.12725839
23	0x3c915660	0.017741382
24	0xbe53fb8d	-0.20701428
25	0xbe598905	-0.21243675
26	0xbe31f7ff	-0.17379759
27	0x3d8abb14	0.067739636
28	0xbd3bfa5c	-0.04589306
29	0x3e39660e	0.18105337
30	0xbe2549b2	-0.16141394
31	0xbde1a1ff	-0.110172264
32	0xbe5b40d9	-0.21411456
33	0xbdc8bf6c	-0.09802136
34	0x3d067f20	0.03283608
35	0x3ddef0d8	0.10885781
36	0xbe2a35c4	-0.16622072
37	0x3daf2a9c	0.08553049
38	0x3df9f0ec	0.12204155
39	0xbdc08cae	-0.094018325
40	0xbd753c39	-0.059871886
41	0x3e44fcc7	0.19237052
42	0x3f571491	0.84015757
43	0xbd33a1a7	-0.043855336
44	0x3e85c7bd	0.2612895
45	0x3eeb8d7d	0.46006384
46	0x3efde200	0.49586487
47	0xbeaaf305	-0.33388534
48	0xbe0dfefc	-0.138668
49	0x3e4c0b54	0.19926196
50	0x3fbe6c0e	1.4876726
51	0x3eb409f8	0.35163856
52	0x3f538514	0.82624936
53	0xbef3f068	-0.47644353
54	0xbd4e8e1e	-0.050428502
55	0x3f676a38	0.9039645
56	0xbeefd677	-0.4684331
57	0x3f302540	0.6880684
58	0xbea81309	-0.32827023
59	0xbd893905	-0.06700329
60	0xbe4997eb	-0.19686858
61	0xbf362920	-0.711565
62	0x3e721639	0.2364129
63	0xbd72abc0	-0.059245825
64	0xbe80d725	-0.25164142
65	0xbf20afde	-0.6276835
66	0x3e4a14e5	0.19734533
67	0xbe738b53	-0.23783617
68	0x3ea06bf6	0.31332368
69	0x3ea7ac6c	0.32748735
70	0x3f020da7	0.5080208
71	0x3e840860	0.2578764
72	0x3ef65620	0.48112583
73	0xbe1bebed	-0.15226717
74	0xbee2dd8b	-0.4430965
75	0x3fb4b98a	1.4119122
76	0xbe955c54	-0.29172003
77	0x3e4f9b8b	0.20274179
78	0x3d6e7985	0.05822136
79	0xbfb0ee01	-1.3822633

lstm.bias_hh_l1 f4 [80]
0	0xbec865f0	-0.39140272
1	0xbea0edf3	-0.3143154
2	0x3f2e8227	0.68167347
3	0x3f352c28	0.707705
4	0xbf6b913c	-0.92018485
5	0xbf9101aa	-1.1328633
6	0x3fe955f3	1.8229355
7	0xbe432803	-0.19058232
8	0x3e1e4521	0.15456058
9	0xbee9f611	-0.45695546
10	0x3f5ef556	0.870931
11	0x3f3100ae	0.6914166
12	0x3f73ca38	0.95230436
13	0x3e459822	0.19296315
14	0x3f04e25f	0.51907915
15	0x3f0df3ec	0.5545032
16	0xbf1451da	-0.57937396
17	0xbdd55ec0	-0.10418463
18	0x3e6b576a	0.22982565
19	0x3eb436f4	0.35198176
20	0xbe18d55c	-0.1492514
21	0xbe0a7673	-0.13521747
22	0xbdae8c00	-0.08522797
23	0x3e56f61e	0.20992324
24	0x3dd322d4	0.10309377
25	0xbd7d3a18	-0.06182298
26	0xbd6f0cf0	-0.058361948
27	0xbcdf1208	-0.027230278
28	0xbd26afc0	-0.040694952
29	0xbd1b6498	-0.03793773
30	0x3e149ba2	0.14512494
31	0x3e16c43c	0.14723295
32	0x3e1813f0	0.14851356
33	0xbd217808	-0.03942111
34	0x3e2bed2e	0.16789696
35	0x3d27e648	0.040991098
36	0x3e0f5654	0.13997775
37	0x3e55a28a	0.20862785
38	0xbe0a411e	-0.13501403
39	0x3e1896e4	0.1490131
40	0x3dbfad6a	0.09359248
41	0x3d67ee09	0.056623492
42	0x3f875312	1.0572226
43	0x3e9e3aed	0.30904332
44	0x3e9461ed	0.2898096
45	0x3e462faf	0.19354127
46	0x3e39ae4d	0.18132897
47	0xbebd361d	-0.36955348
48	0x3ddf0b26	0.10890798
49	0x3d36e8a8	0.044655472
50	0x3fc919d2	1.5711005
51	0x3f0b29c4	0.54360604
52	0x3f430814	0.761842
53	0xbe6675da	-0.22505894
54	0x3e0d132b	0.13776843
55	0x3f7d3d74	0.98921895
56	0xbe6219e8	-0.22080195
57	0x3f587f52	0.84569275
58	0xbebfbd25	-0.37448993
59	0x3e0222d6	0.12708601
60	0xbece2abe	-0.40266985
61	0xbea84dc4	-0.3287183
62	0x3f101542	0.56282437
63	0xbddaa30f	-0.10675632
64	0xbe64a485	-0.22328384
65	0xbf209178	-0.6272197
66	0x3e67d12d	0.22638388
67	0xbd9eb37b	-0.07749077
68	0x3eb33aae	0.35005707
69	0x3eff5a92	0.49873787
70	0x3eb1e868	0.34747624
71	0x3e6b7764	0.22994763
72	0x3f094216	0.53616464
73	0x3e0bc0cb	0.13647763
74	0xbd9ebe90	-0.07751191
75	0x3f9bfad0	1.2185917
76	0xbe85b971	-0.26118043
77	0x3e7a7c3c	0.24461454
78	0xbe675226	-0.22589931
79	0xbfcaf95f	-1.5857352

linear.weight f4 [6, 20]
0	0xbeca0db5	-0.39463583
1	0xbe351e68	-0.1768738
2	0x3f07e918	0.5309005
3	0xbef6728d	-0.4813427
4	0xbed5d4de	-0.41763967
5	0xbdc8beb8	-0.09802002
6	0xbdb1b1c5	-0.08676485
7	0xbe1905de	-0.14943644
8	0xbd955f64	-0.07293585
9	0xbd18fde2	-0.037351497
10	0x3d6a3792	0.057181902
11	0x3f3981e2	0.7246381
12	0x3de475af	0.11155259
13	0xbb35b487	-0.002772601
14	0xbf42a74f	-0.7603654
15	0x3e7c9564	0.24666363
16	0x3e9fe224	0.3122722
17	0x3f9f8ab6	1.2464206
18	0xbda48306	-0.08032803
19	0xbdeaf18c	-0.11471853
20	0x3edfb475	0.43692365
21	0x3e9705c6	0.29496592
22	0xbf0c481b	-0.54797524
23	0x3efd92a3	0.49525937
24	0x3ee44fc6	0.44592112
25	0x3d9e6407	0.077339225
26	0x3d1dbe7c	0.03851174
27	0xbbd8c33d	-0.006615071
28	0x3ca26812	0.019825015
29	0x3d8734d3	0.06601872
30	0xbc11a186	-0.008888608
31	0xbf3b752c	-0.73225665
32	0xbd33ee8c	-0.043928668
33	0xbd51b5f2	-0.051198907
34	0x3f40915a	0.7522179
35	0xbdd66288	-0.10468012
36	0xbe9ba774	-0.30401194
37	0xbfa74da0	-1.3070564
38	0x3d45addb	0.048261505
39	0x3cc521e7	0.024064017
40	0xbd02c1b5	-0.031923015
41	0x3e14442f	0.14479135
42	0xbc96d824	-0.01841361
43	0x3d60f611	0.054922167
44	0x3b942e11	0.004522093
45	0xbf59bd86	-0.85054815
46	0x3f07a05f	0.5297908
47	0xbdde3731	-0.10850371
48	0xbf10405a	-0.5634819
49	0xbf225a79	-0.634193
50	0x3f397407	0.7244267
51	0xbafc43ac	-0.0019246242
52	0x3f9df10f	1.233919
53	0x3e166b9b	0.14689486
54	0x3cccfc48	0.02502264
55	0x3f31f964	0.69521165
56	0xbe792976	-0.24332222
57	0x3d73e4f8	0.059544533
58	0xbee8d5bb	-0.45475563
59	0xbed1fae8	-0.4101174
60	0xbc7b7a15	-0.015348931
61	0x3e5c72fe	0.21528241
62	0xbd39aba8	-0.04532972
63	0x3bfa2f74	0.0076350514
64	0x3d20cc0d	0.039257098
65	0xbf95282f	-1.1652888
66	0x3f320101	0.6953278
67	0x3e3aebfa	0.1825408
68	0xbf5f5697	-0.872415
69	0xbf60450f	-0.87605375
70	0x3f6dbc74	0.9286568
71	0xbd804e86	-0.06264977
72	0x3fbc702a	1.472173
73	0xbe17f1d9	-0.14838351
74	0x3bc097a5	0.0058774524
75	0x3ed60e54	0.41807806
76	0xbf0f0598	-0.5586791
77	0x3d72cf63	0.05927981
78	0xbf18d590	-0.5970087
79	0xbf39de2b	-0.72604626
80	0x3ecea8b0	0.40363073
81	0xbe688bcb	-0.22709577
82	0x3d4e5cb5	0.05038138
83	0xbe537951	-0.20651747
84	0xbdb5fa38	-0.08885616
85	0x3f9dd0eb	1.2329382
86	0xbf3aae2e	-0.7292203
87	0x3def907c	0.1169748
88	0x3f311e21	0.691866
89	0x3f81b983	1.0134739
90	0xbf717321	-0.943163
91	0x3cb520fc	0.022110455
92	0xbfaa63c0	-1.3311691
93	0xbda38606	-0.07984547
94	0x3f2a63dc	0.66558623
95	0xbf5732bc	-0.8406179
96	0x3e9ae5cf	0.30253455
97	0x3d20ab8e	0.039226107
98	0x3f19cf96	0.60082376
99	0x3f3d0963	0.7384245
100	0x3f9f30f5	1.2436816
101	0x3f245d00	0.64204407
102	0xbfaebc09	-1.3651134
103	0x3fba539c	1.4556766
104	0x3fa6b65a	1.3024399
105	0x3e2e3ec8	0.17016137
106	0x3de7e2e6	0.11322574
107	0xbe6973d4	-0.22798091
108	0x3e24c78f	0.1609175
109	0x3dd941e7	0.10608273
110	0xbd047161	-0.03233469
111	0xbfe0add5	-1.7553049
112	0xbd9ea2d6	-0.07745902
113	0xbcab7500	-0.020929813
114	0x401bf408	2.4367695
115	0xbdd221ec	-0.10260376
116	0xbf29d134	-0.66334844
117	0xc030fcc7	-2.7654283
118	0x3de2d166	0.11075096
119	0x3ef22a68	0.47297978

linear.bias f4 [6]
0	0x3d07e068	0.033172995
1	0xbc2b66b2	-0.010461496
2	0x3e64d993	0.22348623
3	0x3eaec8e9	0.34137657
4	0xbea31a64	-0.31856072
5	0xbb2ff406	-0.002684833
