models/362/state_dict.pt (torch_old, 88287 bytes, 10 tensors)

lstm.weight_ih_l0 f4 [160, 10]
00000000: 1546 1cbf 1184 1cbd ebe0 ae3e 70ed 643c
00000010: dfca 27be e966 0e3e fba3 093e 513b 19bd
00000020: d6c9 263d d21b 583e b2e5 473e 8ba6 3d3d
00000030: 7a8c a23e 34ff f33c 590d b8be bfd0 55bc
00000040: a0ad 863e f55d 1bbe 423b 1abe 3366 6c3e
00000050: be12 01bf b6d8 e23d b3f8 413e 4e20 a1bd
00000060: 06bc 3fbd d98f 84bc e542 57be c298 13bd
00000070: ad50 b53d 69dd c4bd bd91 893e 04a5 84bb
00000080: 0cc5 153f 1302 37be 4d48 d9be de46 e13d
00000090: 8671 bc3e 4bf8 efbe fcad f5bd b571 1d3e
000000a0: c491 ae3d 3d5d ba3d 3ecd 853e eea1 9abe
000000b0: 3ec2 aabe 8601 823e dff1 fbbb b45f 86be
000000c0: cadc 6c3e 32e6 6e3e 4904 7cbd 2c69 abbe
000000d0: 8d3a e23d 30bb d9bd 35bc 393d 794b 8ebe
000000e0: acf3 67bd bc32 a63c 175f e3bd acf8 903d
000000f0: 3df0 363f 88c6 883e ab33 6fbc cd1a 813c
00000100: ae00 533e 1049 323e 20e2 83be 352b 393e
00000110: c3a3 e93e b341 bebe 591a 123e 983e a13a
00000120: 0733 b23e 2998 4cbe e432 0cbe 2019 de3d
00000130: 8068 e33c c57e 59bc 4f5c d13d ef9f 7b3d
00000140: 65ff 893d 39e5 60be 53a7 d73e 4bb9 95be
00000150: 2615 67be 771f 9dbd acbd c93e 503c a8be
00000160: 9ba0 3ebd 86f7 cb3e 818f 0cbe 3e19 2ebd
00000170: 9dda 573e 5b6f ddbd 6a59 20be d8a9 12be
00000180: 488e 963c 48c8 a9bc b3b8 fcbb 9178 183d
00000190: c0e0 39bf 4d48 40be f2a7 8b3e 66fe 853c
000001a0: 9fe4 c13d 605e 053d 104b 8b3d 1212 38bd
000001b0: 60fb 75bd 9b9c 0f3e c668 0cbf cbe1 d4be
000001c0: 7b6e d63d 21c1 f63a 90b4 a83c dff7 39be
000001d0: df6f 833e 8e78 35bd ef73 72be 9a20 be3e
000001e0: c58e 893e a5ae 91be 334a 7d3d 35ae 833e
000001f0: d23b 9a3e 2876 5abe c908 cc3d 0b83 713e
00000200: f1dd b9be 05d0 063e 0899 45bc 2bd5 2b3e
00000210: 7ade 183e f527 84bd 108e 673e 7df5 963e
00000220: 3372 15be 0c44 6c3e 5bfe 733e 2c24 b8be
00000230: c3b1 03bf e79d c1bd f525 d7bd 4223 b2bc
00000240: 92f6 193e 6d14 05be 635e 873c 5b29 a43c
00000250: e516 5e3d 03fa 1fbd 7971 88bd 395c ae3d
00000260: 1b41 9f3e ddad ecbe d3b5 81be cd76 a93d
00000270: 7d66 313e a58f 90be 67f3 fc3d 0dbe 0b3e
00000280: e576 9fbc 6e35 ac3e 159e 01be 0389 52bd
00000290: e113 c73e 4aa1 ef3d da18 d2be 5dd8 b23e
000002a0: f215 e03d 6005 88be ff3c 31be 7fc1 133d
000002b0: 7e42 593d 1d7e ebbd dfd3 303e 50ce 6c3c
000002c0: 00af 38be 3ece 123c b34e 643e dc9e 24be
000002d0: 0236 a23e 3b60 e33c 3da9 623e 380f bbbc
000002e0: 2de6 6dbd ecea 94bd b5a4 5b3d e106 cabc
000002f0: 5c79 dbbd 232d d23d 2f57 343e 9b6d 4e3e
00000300: 4a73 973e e060 b4be bd12 adbe 83d6 643e
00000310: 97b4 893c e79a 0dbe f1a3 6e3e 6bb7 bb3d
00000320: 6bb5 963b d0e3 523e 6b00 6f3e 55c5 33be
00000330: 3100 37be bae6 993e 1859 06be b31a e0bd
00000340: 10cf bf3e 356b 83be b9ef 73be 99c6 fcbd
00000350: cafe ca3e d8e0 64be 11e1 bfbe 7452 84bd
00000360: 85ba a53e 5667 dbbd a64f d9bd 1c3a fa3d
00000370: 27dd fe3e 884e 893d 6950 093e 0e91 00be
00000380: 86af 6a3d 311a b4bd 285b bd3d f7f1 6a3e
00000390: 5bad 82bd 2bc9 0f3d 0fce 8ebe a50e 91be
000003a0: 2266 9f3e 3951 69bd d1ce 223e fe94 c0be
000003b0: 0c9b 2c3d 2f50 7e3d d815 99be c551 453e
000003c0: e029 503e 5415 d8bd 631f 3ebe 7bfa 753e
000003d0: 66fa 423e f499 87be e524 b83d 86e9 8c3e
000003e0: da58 43be 3134 36be 2358 95be c294 a63e
000003f0: c42a 013e 728f acbe 04ca 33be a82f d03e
-0.61044437 -0.038211886 0.34155974 0.013972625 -0.16385983 0.13906445 0.1344146 -0.037410084
0.04071983 0.21104363 0.19521216 0.046301406 0.317478 0.029784776 -0.35947683 -0.013050257
0.2630434 -0.1517256 -0.15061668 0.23085861 -0.50419223 0.110764906 0.18942527 -0.0786749
-0.046810172 -0.016181873 -0.21021612 -0.036034353 0.08853278 -0.09612543 0.26869002 -0.0040479917
0.58503795 -0.17871885 -0.42437974 0.10999845 0.36805362 -0.4686912 -0.119960755 0.15375407
0.08523896 0.09099815 0.2613315 -0.30201668 -0.3335132 0.25391787 -0.0076887454 -0.2624489
0.231311 0.2333 -0.061527524 -0.33478677 0.11046324 -0.10631406 0.045345504 -0.27791956
-0.056628868 0.020287864 -0.11102121 0.070786804 0.71460325 0.26713967 -0.014599721 0.01575985
0.20605728 0.17410684 -0.25758457 0.18082888 0.45632753 -0.371595 0.14267863 0.001230198
0.34804556 -0.1997992 -0.13691288 0.10844636 0.02775979 -0.013274853 0.102226846 0.06143182
0.06738166 -0.21962442 0.42119846 -0.2924293 -0.22566661 -0.07672017 0.3940252 -0.32858515
-0.046539884 0.39837283 -0.13726617 -0.04250454 0.21079488 -0.10812255 -0.15659109 -0.14322603
0.018378392 -0.020725384 -0.0077124476 0.037224356 -0.72608566 -0.1877758 0.2727657 0.016356658
0.09467434 0.032560706 0.068014264 -0.04493911 -0.060054183 0.14024584 -0.5484737 -0.41578516
0.10470291 0.0018825867 0.020593911 -0.18160962 0.25671288 -0.044304423 -0.23677038 0.37134248
0.26866737 -0.28453556 0.06183834 0.25718847 0.30123764 -0.21334136 0.09962613 0.23585145
-0.3630214 0.1316529 -0.012060411 0.16780536 0.14928618 -0.06452934 0.22612786 0.29484168
-0.14594345 0.23072833 0.23827498 -0.35965097 -0.5144312 -0.094539456 -0.105052866 -0.021745328
0.15035465 -0.12996073 0.0165245 0.020039251 0.054221053 -0.03905679 -0.06662268 0.08513684
0.3110436 -0.46226397 -0.25334033 0.082746126 0.17324252 -0.28234592 0.12351113 0.13646717
-0.019465873 0.33634514 -0.1265796 -0.051400196 0.38882354 0.11700685 -0.41034585 0.34930697
0.10941686 -0.265666 -0.17308424 0.036073204 0.053041928 -0.114986636 0.17268322 0.014453486
-0.18035507 0.008960305 0.22295646 -0.16076225 0.3168183 0.027755847 0.22134872 -0.022834405
-0.05808084 -0.0727137 0.053623874 -0.024661483 -0.10716507 0.102625154 0.17611383 0.20158999
0.29580146 -0.3523016 -0.3380336 0.22347455 0.016809745 -0.13828622 0.23304726 0.091658436
0.0045992634 0.20594716 0.23340003 -0.17555745 -0.17871167 0.30058843 -0.13119924 -0.109425925
0.37462664 -0.2566773 -0.23821916 -0.12342567 0.39647514 -0.22351396 -0.374764 -0.06461039
0.32368866 -0.10713069 -0.10610895 0.12218115 0.497781 0.06704432 0.1340958 -0.12555334
0.0572963 -0.08794058 0.09245902 0.22943865 -0.06380721 0.035103958 -0.27891585 -0.28331485
0.3113261 -0.056962226 0.15899207 -0.37613672 0.04214005 0.062088188 -0.29899478 0.19269474
0.20328474 -0.10550943 -0.1856666 0.24021332 0.19040832 -0.26484644 0.08991412 0.27521914
-0.19076863 -0.17793347 -0.29168805 0.32535368 0.1261397 -0.3370319 -0.17557532 0.4066136

lstm.weight_hh_l0 f4 [160, 40]
00000000: 20ec c43b a8e5 c83c 75f3 09be ec50 52bd
00000010: 3330 073e 38b8 373d 70b2 dfbd a00f f3bc
00000020: 06f3 ff3d 301c a03c dad8 8fbd bc9a 71bd
00000030: 180e 80bc 94e0 b73d 08d1 dbbc 226e c5bd
00000040: d84e bb3c c283 d23d 9cd0 f8bd a30b 063e
00000050: 7b15 d4bd dc43 97bd 8246 923d 200a 123c
00000060: f976 173e e0a9 b8bd 4ee6 c33d b124 19be
00000070: c022 d43c 00ea 9d3c a457 3e3d 3e51 c13d
00000080: 1afe 1dbd eb02 0e3e ca61 7dbd a8c6 a93c
00000090: c1ed 123e 0747 1d3e 64a8 2abd e72f 21be
000000a0: 91a6 98bd 0a17 c7bd e84d 61bd b884 c5bd
000000b0: d505 1f3e 4206 46bd fa34 bb3d d05c 26bc
000000c0: e786 06be 6e42 ec3d e148 debd 1d5e 00be
000000d0: 5c45 9b3d 605e 3ebd 465a a4bd 982b b33d
000000e0: 905f 6f3d c202 b13d 9028 0bbe 3312 1f3e
000000f0: 9d99 8abd c8e9 0b3d 2086 bb3d 211b 1c3e
00000100: 6ed7 943d 805f 1ebc a85a ecbc 504d 1a3d
00000110: deb9 cb3d 9bf8 96bd 9876 743d 6aa3 f7bd
00000120: 08de bebd 8882 82bd 32c3 e23d e8b6 d73c
00000130: 208c 71bc 7091 7cbc 3ad6 de3d 2e46 4ebd
00000140: 99e8 0b3e e0b7 fcbb 937b 1d3e ddb1 1f3e
00000150: b81f debd b051 72bc 695b 043e 9632 8d3d
00000160: ee64 c83d ea61 de3d 1241 e6bd c6a5 b6bd
00000170: 0e56 bd3d 4602 d3bd 4a26 bfbd 403c 403d
00000180: fc06 833d 48ea e63c b06a 373d a2e8 dcbd
00000190: e4a4 44bd 7f85 9fbd 5c89 f6bd e0f5 dfbb
000001a0: f0db 04be b183 bdbd 40f1 a3bc 8c87 fabd
000001b0: e6c3 fb3d 7eca a4bd 6658 eb3d 98d7 eb3c
000001c0: 21d9 0e3e 5ecc 83bd 3894 b8bc b507 1dbe
000001d0: 6aff aebd 52e8 d0bd 4b04 15be 42eb 42bd
000001e0: a0d0 a0bd 49c1 0f3e 3ad0 af3d bc76 59bd
000001f0: d454 383d 34ae ae3d 9960 033e c07a 1dbe
00000200: da84 02be b81a 07be c86f 2e3d c35e 023e
00000210: 651c 21be defc 9e3d a0f9 1bbd 3064 e2bd
00000220: 8c15 48bd 6971 b5bd bc70 ac3d 997a 0a3e
00000230: 36a4 c43d 12e1 88bd 60eb b33b c067 343b
00000240: 96d1 4cbd 3eab 3cbd da40 80bd 6205 0ebe
00000250: c267 e83d 1ef0 e23d 4d05 093e 14b3 30bd
00000260: c29c d93d 0c8f 233d 1ced a03d f0e5 5b3d
00000270: 0e4f e73d 04b4 0fbe 946f 63bd be05 b3bd
00000280: 4c39 993d 5eb9 2ebd 0020 fe3b 2c98 d2bd
00000290: b238 a83d e255 c53d 90c9 ee3c cb88 053e
000002a0: a011 5e3c d0b7 b53d 1037 abbc a083 d53b
000002b0: 2757 17be 0fb3 0e3e 546e 8d3d a6ea c83d
000002c0: 3648 0fbe 11e3 bfbd c6f6 e53d cfbb 163e
000002d0: f786 80bd 91e7 213e 40e5 24bc 15bc 163e
000002e0: 13f7 f8bd 4795 193e 86e4 a23d 696f d6bd
000002f0: e455 a2bd e0da d5bd 0a58 a63d 33d5 98bd
00000300: 40ac b53d 4c1e 973d 108a 1bbc 42a2 05be
00000310: 6862 c0bc 6f63 b4bd 9a9a d63d ae39 66bd
00000320: 0e03 c13d c0a7 a43c 6764 b1bd bade c03d
00000330: ffc0 193e aa45 2dbd 0658 ecbd 40d7 14be
00000340: 2e6d f7bd c460 65bd 92fa 48bd 704f 2bbc
00000350: 2b76 1d3e 2454 ae3d ac89 953d 86bc dc3d
00000360: 10ce 343d 50af b3bc f83f 3f3d 7ec6 ef3d
00000370: 1697 14be f26c 0fbd f6e9 59bd 749c 0e3d
00000380: 00d0 1d3c 504b 7a3d 36ed 55bd cdc4 21be
00000390: c03e 753d 5aea ff3d e077 af3c 3e75 983d
000003a0: f0a0 4d3c 853d b3bd 4858 263d 2416 ddbd
000003b0: 630d b2bd 2170 1d3e 78cc 17be e89d 693d
000003c0: f2c7 e93d 382d b2bc ecc9 19bd 41c6 03be
000003d0: 8080 15bb 88ec d93c 90b3 9b3d bd9d b4bd
000003e0: fa95 c73d 0a72 14be 9887 c0bd 3210 0abe
000003f0: 9429 e7bd a816 ccbd ea8e dcbd 3bb8 003e
0.0060095936 0.024523571 -0.13471778 -0.051346704 0.1320198 0.04485342 -0.10922706 -0.029670537
0.12497525 0.01954469 -0.07023783 -0.058985457 -0.01563172 0.08978382 -0.026833072 -0.09640147
0.022864744 0.10279037 -0.12149164 0.13090377 -0.103556596 -0.0738599 0.071423545 0.008913547
0.14791478 -0.09016776 0.095654115 -0.14955403 0.025895476 0.019276619 0.0464703 0.09439324
-0.03857241 0.138683 -0.061860837 0.02072461 0.14348508 0.15359126 -0.041664496 -0.1574093
-0.07453645 -0.09721191 -0.055005938 -0.09644455 0.15529568 -0.04834581 0.09140964 -0.010153964
-0.13137399 0.11536108 -0.10853744 -0.12535901 0.075815886 -0.04647672 -0.08025031 0.08748549
0.058440745 0.08643104 -0.13589692 0.15534286 -0.06767581 0.034158498 0.09156442 0.15244724
0.072676525 -0.009666324 -0.028851822 0.037671387 0.09947561 -0.073716365 0.059683412 -0.12091716
-0.09319693 -0.06372553 0.11072387 0.026332334 -0.014742881 -0.015415534 0.10880704 -0.050359897
0.13662948 -0.0077123493 0.15379171 0.15595193 -0.108458936 -0.014789984 0.12925495 0.06894414
0.09784876 0.108585194 -0.1124288 -0.089183375 0.09244929 -0.10303168 -0.09333475 0.04693246
0.063978165 0.028187886 0.04477948 -0.10786559 -0.048008814 -0.07789134 -0.12037918 -0.0068347305
-0.12974524 -0.09253634 -0.020012498 -0.12232885 0.12293224 -0.08046435 0.1149147 0.028789327
0.13950016 -0.06435464 -0.022531614 -0.15334971 -0.0854481 -0.102005616 -0.14552419 -0.04758764
-0.07852292 0.14038576 0.08584638 -0.05309175 0.045002773 0.0852932 0.12829818 -0.15378857
-0.12745991 -0.13193786 0.04258707 0.12731461 -0.15733488 0.07763074 -0.038079858 -0.110542655
-0.048848674 -0.08859522 0.0841994 0.1352333 0.09601633 -0.06683554 0.0054907054 0.002752766
-0.050004564 -0.046061747 -0.062623695 -0.13869241 0.11347915 0.11080955 0.13380928 -0.043139532
0.10625602 0.039931342 0.07857725 0.053686082 0.11294375 -0.14033514 -0.05552633 -0.087413296
0.07481632 -0.04265725 0.0077552795 -0.10282931 0.08213939 0.096355215 0.029148847 0.13040464
0.013554007 0.0887295 -0.02090028 0.006515935 -0.1477934 0.13935493 0.06905809 0.09810381
-0.1399239 -0.09369481 0.11228709 0.14720081 -0.062757425 0.15810992 -0.010064423 0.14720185
-0.12156501 0.14998351 0.07953744 -0.104704686 -0.079265386 -0.10442138 0.08122261 -0.074625395
0.08870745 0.073788255 -0.009493366 -0.13050178 -0.023484424 -0.08808028 0.10478707 -0.05620735
0.09424411 0.02009952 -0.08661728 0.09417482 0.15015028 -0.042302765 -0.11540227 -0.14535236
-0.12081371 -0.056000486 -0.049067087 -0.010455951 0.15377109 0.08512142 0.073016495 0.107781455
0.04414183 -0.021934181 0.046691865 0.11707781 -0.1451076 -0.035016008 -0.05320164 0.034817174
0.009632111 0.06110698 -0.052228175 -0.1579773 0.059874296 0.12495871 0.021419466 0.07444237
0.0125505775 -0.08751968 0.040611535 -0.107952386 -0.086939596 0.15374805 -0.14824092 0.057035357
0.1141509 -0.021750078 -0.037546083 -0.12868597 -0.0022812188 0.026602045 0.07602608 -0.08819149
0.09745403 -0.14496627 -0.094008625 -0.1348274 -0.11287227 -0.09965259 -0.10769446 0.12570278

lstm.bias_ih_l0 f4 [160]
00000000: f15f cb3d 135d 313d d1c8 403e 0b8a 873c
00000010: 2991 a53e f704 fa3e 4cda 793e 504b 913d
00000020: 3fb6 643e 8703 8b3e 8323 163e dcb9 313e
00000030: 3c76 983e dfa8 843e eb14 753c dda3 7b3e
00000040: 9a31 af3e 5018 113e 10f3 ad3d 9a3a a93e
00000050: f50e 6d3e fefd 8e3c 30c8 c83e 4de7 cc3e
00000060: c5de 493e 032a 643e cc0f b63e 0e32 103e
00000070: a9d2 643e 99b2 cf3e 126c e73d 0bcf 263e
00000080: e32a 743e ab28 a23e 8cb6 343e c201 573e
00000090: 0bb9 7e3d 58fb 9a3e 94e6 8a3e efe7 5f3e
000000a0: 02d8 76bd 8954 1a3e f444 f1bd 88df 173d
000000b0: 1fab aebd 28a3 a0bc ac24 d3bd e041 b6bb
000000c0: c568 083e bf93 1e3e 7ced a83d c356 15be
000000d0: 8e80 fa3d 8f2b b7bd 3016 f83c 9c98 cebd
000000e0: eecc ecbd 533c 073e 8827 b0bc a406 1e3d
000000f0: 985c 903c a8c6 8dbc ae1b 18be 6696 20bd
00000100: a547 063e 80f2 c6bd 9401 06be 0478 1cbe
00000110: 435a 1a3e b87e a43d 3c13 18be 6897 f53c
00000120: 6286 8d3d a818 fcbc 38f1 e0bc 4bfd 11be
00000130: 5094 813d 9847 f9bd 6e3d 35bd dc7b 703d
00000140: 3090 9c3d b1a8 e93d 1799 1cbe 45b1 ffbd
00000150: 3506 3e3c 2053 33be 28d5 fc3d a544 4fbd
00000160: 7930 d0bb ac9d a5bd b24e 0d3d 93a4 143e
00000170: 04dd d3be 2904 52be 1c79 1ebe 643a 953d
00000180: 35dc e3bc d0dd 18be 2455 63bd 8c33 02be
00000190: 54eb 52be fbe9 46bd af18 843e 65e9 f23d
000001a0: 1031 ab3e 51c5 093e d73d 3c3e 4407 f2bc
000001b0: 6805 013e 9f60 b6be cb2d d4bd 2447 1a3e
000001c0: ca8f 3e3e 277c b0be 3bb1 fd3b f9b4 89be
000001d0: 03c4 073e bbdf a3bb bb84 c63e 2cf0 e3be
000001e0: fc21 453e b418 e03c fda2 a23e 45a1 963e
000001f0: 6b67 543e 6318 fc3e 0113 ea3e ddf8 b13e
00000200: 554a 3a3e a1dd aa3e fd03 873e df62 7b3e
00000210: bae8 723e 5345 223e ac68 4c3e 97b3 db3c
00000220: 0f4f 453e d229 223e a68c 533d 4de5 413e
00000230: b708 df3d f811 6c3d fe19 413e 6f77 8d3e
00000240: 9d12 853e b5e8 743d 4a27 b43e b448 403e
00000250: b961 bb3d fb93 0b3f b556 183e 21b0 9f3d
00000260: e0e4 b03e fea2 a03e 8f72 ba3b 96cc aa3e
00000270: 4c25 903e 23f3 9d3e 3412 9e3e 2caa 023f
0.09930409 0.043301653 0.18826605 0.016545316 0.3233731 0.48831913 0.2439968 0.07094443
0.22335146 0.2715113 0.14661984 0.17356056 0.29777706 0.25910088 0.0149586005 0.24574228
0.3421753 0.1416943 0.08493626 0.33052522 0.23150237 0.017455097 0.3921523 0.40020218
0.19713886 0.22281651 0.35558927 0.14081594 0.22345985 0.40565947 0.1129991 0.16289918
0.23844485 0.31671652 0.17647761 0.20996764 0.06218819 0.30269885 0.27129042 0.2186582
-0.060264595 0.1507131 -0.1178073 0.03707841 -0.085287325 -0.019609049 -0.10309729 -0.005562052
0.13321216 0.15486048 0.082484215 -0.14583878 0.12231551 -0.08943855 0.030284017 -0.10087702
-0.11562525 0.13206606 -0.021503225 0.03858055 0.017622277 -0.01730664 -0.14854309 -0.03920593
0.13113268 -0.09714222 -0.1308654 -0.15280157 0.15073495 0.08031982 -0.14851087 0.029979423
0.06910397 -0.030773476 -0.027458772 -0.1425678 0.063271165 -0.121718585 -0.044248037 0.05871187
0.07644689 0.114091285 -0.15292774 -0.12484983 0.01159816 -0.17512178 0.12345344 -0.050602574
-0.0063534346 -0.08086714 0.034498878 0.14515905 -0.4137956 -0.205094 -0.15475887 0.07286528
-0.027814964 -0.14928365 -0.05550112 -0.12714976 -0.20597583 -0.048562985 0.25800082 0.11860923
0.3343587 0.13454176 0.18382965 -0.02954448 0.12599719 -0.3562059 -0.10360297 0.150662
0.18609539 -0.3446972 0.007742075 -0.26895884 0.13258366 -0.005001036 0.3877314 -0.44519174
0.19251245 0.02735553 0.31764975 0.29419914 0.20742576 0.49237356 0.45717624 0.3476018
0.18192418 0.33372214 0.2637023 0.24549435 0.2372159 0.15846758 0.19961804 0.026819034
0.1926844 0.15836266 0.051647805 0.18935128 0.10890334 0.057634324 0.18857571 0.27630183
0.25990763 0.05979224 0.35186225 0.18777734 0.091494985 0.54522675 0.14876826 0.07797266
0.34549618 0.31374353 0.005689926 0.33359212 0.28153455 0.3084956 0.30873263 0.5104091

lstm.bias_hh_l0 f4 [160]
00000000: 2a5b aa3e df19 883e 12c8 c33e 81be 073d
00000010: 4ee7 0b3e 4a43 083f c0e0 483e 4b75 883e
00000020: b3f4 0d3e 50f1 2f3e 0fa1 073e 8e4e 9b3e
00000030: d0af ef3e 975a 1d3e b91e 803e 8229 163e
00000040: 9078 b53e dccd 243e 5fcf 2c3c abcd 133d
00000050: 9b5d 593e 19b4 343e 20ca c43e 5cdb 953e
00000060: 58b3 db3e 3cfa b43e 83e1 953e e6d5 b63d
00000070: 37ab 24bc f793 933e 1c88 3a3e 93aa 383e
00000080: d84b 583e c28a 1e3e 7211 803c 9156 d03e
00000090: e7c9 8bbc 9ea7 963e 5416 6c3e 85be f53e
000000a0: baed 9d3d 3042 2b3c 5d11 133e 50b3 3ebc
000000b0: 782d ed3c 98bb 66bd 3c76 2e3d e702 163e
000000c0: a370 1c3e 24ac 893d c00c 18bd 6a43 10be
000000d0: 40dd b73b 72ba 8f3d 503d b03c 4a9f e73d
000000e0: ac7e 0abe bb83 aebd 12a7 be3d 2aaa 7dbd
000000f0: e03b cf3c 68f3 8f3d 1e8e 0dbd dfa4 083e
00000100: 80dd 6d3b 6031 ee3c 4ae9 a8bd 082a d0bc
00000110: dc21 173d 490d 0e3e 0067 0d3c 71bb 0bbe
00000120: ab55 11be 42e1 3fbd ecdc 243d 722d c73d
00000130: 248c 20be 52b5 f4bd 5ee0 e33d 3e3f d93d
00000140: 8a50 e33d 6740 86bd c0af e7bd eee7 8d3d
00000150: e04e 9bbb 6e21 1abe 5d9f 0a3e c519 f3bd
00000160: d589 5dbd 60d3 233d da13 793e 813e ae3c
00000170: 080c d0be 0c24 87be 0b6f fd3d c71f 0b3e
00000180: 4dd3 8d3d 08a9 e5bd b1d4 48be 4802 ecbd
00000190: 8c0a 60be 163f 1c3e 84dc 3f3e 62d9 753e
000001a0: ba60 bd3e a82f 0a3e 9bbf 4a3e 78ce 743d
000001b0: aef1 163d cb0f 81be 5b00 34bd 8959 b0bd
000001c0: 6a72 87bd a5c7 f1bd cf7c 97bc e946 a4be
000001d0: f533 35bc 182f 7abd f7b9 6a3e 3ace 39be
000001e0: 31be a73d 89a3 173d 148f 053e c521 cf3e
000001f0: 48d5 833e a7af 023f 51b3 ab3e 3b16 3e3e
00000200: 69e7 9f3e 879b 003e 93d5 c33e c947 d43d
00000210: e5ec 9b3e 0b46 3b3e 2346 a93e a743 0f3e
00000220: 686f c93e be67 4c3e 0017 3c3e abd8 053e
00000230: 9955 943e df7a 063e 73fb 6f3e 28f9 7e3e
00000240: 3bad a43e d06a a13e 623c 993e 5c63 0e3e
00000250: 5ba9 603e 6e1a c13e bf0c 463e e42f 453e
00000260: 1ace a93e e2a9 f73e 17c0 1d3e e346 063f
00000270: 61c6 833e 4c4c c03d 76b4 c23e f608 713e
0.33272678 0.26582238 0.3823858 0.033140663 0.13662454 0.53227675 0.19616985 0.26651987
0.13862877 0.17181897 0.13245033 0.3033337 0.46813822 0.15366589 0.2502344 0.14664271
0.35443544 0.16094154 0.010547488 0.036084812 0.21227114 0.17646827 0.3843546 0.2926892
0.42910266 0.35347164 0.29273614 0.08927517 -0.010050586 0.28823826 0.18215984 0.18033819
0.21122682 0.1548262 0.015633319 0.40691045 -0.017064048 0.29424757 0.23055393 0.47996917
0.07711358 0.010452792 0.14362092 -0.011639431 0.028952345 -0.056331247 0.042593226 0.14649545
0.15277342 0.06722286 -0.037121534 -0.14088216 0.005611092 0.070179835 0.021513611 0.11309679
-0.13524884 -0.08521219 0.0930921 -0.06192986 0.025297105 0.07028848 -0.03455936 0.13344143
0.0036295354 0.029076278 -0.08247621 -0.025410667 0.036897525 0.13872255 0.008630514 -0.13645722
-0.14192836 -0.046845682 0.04024975 0.09725465 -0.1567846 -0.119486466 0.11126779 0.106077656
0.11099346 -0.065552525 -0.113128185 0.06929003 -0.0047396272 -0.15051815 0.13537355 -0.118701495
-0.054086525 0.039996505 0.24323979 0.021270039 -0.4063418 -0.2639469 0.123746954 0.13586341
0.06925068 -0.11213881 -0.19612385 -0.115238726 -0.21879023 0.1525844 0.18736464 0.24008706
0.3698786 0.13494742 0.19799654 0.059767216 0.036851577 -0.25207362 -0.04394565 -0.086108275
-0.066136196 -0.11805657 -0.01849213 -0.3208535 -0.011059751 -0.06108007 0.22922502 -0.18145075
0.08190573 0.037021194 0.13042861 0.40455452 0.25748658 0.51049274 0.33535245 0.18563168
0.3123124 0.12559329 0.38248882 0.103652544 0.30454174 0.18288438 0.33061323 0.13990651
0.3934281 0.1996145 0.18368149 0.13070934 0.28971556 0.13132809 0.23435764 0.24899733
0.32163414 0.31526804 0.2992888 0.1390509 0.21939604 0.37715477 0.193408 0.1925655
0.33165056 0.48371798 0.15405308 0.52451915 0.2573729 0.093895525 0.38028306 0.23538575

lstm.weight_ih_l1 f4 [160, 40]
00000000: 0092 5abe 0632 2bbe da2c 8c3c 79da 0bbf
00000010: 3f87 b8be b230 9abd 7e87 a53d 5ed9 98be
00000020: 20d7 0bbf 224c c63d 987c 7f3d 162d 953d
00000030: 3943 a7be 3b1f 8abd bdff a9bc 678a 31be
00000040: 50ba 863d 1026 6d3e f922 9e3e 4964 a43e
00000050: c9f2 8c3d 7488 3cbe ab7b 873e ce20 8cbc
00000060: 7a4e 493e e48e 37be cfbe 73bc 1e1c d43d
00000070: eb78 8fbe 3a23 f1bd 0b5a 753e 3615 88bd
00000080: dcfa b8be 28a7 e4bc 9018 23be fa88 71be
00000090: 30f9 b23e 534e aa3e 5d0f c33e e2f3 71be
000000a0: fe4b 243e 6ae7 2f3e 3981 2c3e 7b7f 0abe
000000b0: a79b 9dbe afe8 b73e 6360 45be dccf e8bd
000000c0: 90fc a6be c73a b6be 51fc 88be 295c 113d
000000d0: 51e1 bd3d 9fc3 3cbe d140 c0bd 4cfe 0e3e
000000e0: 8ce2 6d3e 96da 193d ae3d d6be 6f63 6a3e
000000f0: ff22 a8bd 7502 0cbe 6b3a 9c3d e0e2 25be
00000100: 9082 4ebc 329a 86be 786a b43e e986 97bb
00000110: 75c6 8f3e 0912 36be a7d7 133e e7ff 5d3e
00000120: c2c5 963d c69e 213e da2e 11be e6db d7be
00000130: 90b7 89bc c948 3f3d 6d0a 973e 5f82 253d
00000140: 53b0 3e3d 420b 2d3e 59b5 ec3d c9eb 08be
00000150: 07d7 623d 4aee 343e 11c5 9f3d 1444 41be
00000160: 63e2 8ebd f938 a1be af9c 4cbe 54b8 813e
00000170: fc84 90bc b6e0 0cbe 7c8d 293e 8beb 7f3c
00000180: 7abe bcbd 43a0 b2bd fc49 d5bd ccd7 c43d
00000190: 6f8a 83bb 1591 6fbd a9b3 a33e bb0a 3fbc
000001a0: a5c0 d7bd efec 0abe 3438 d2bd 1603 223d
000001b0: de47 20bc 6cbe 99be 77fd f73d 347e e7bd
000001c0: b80e 3cbd 4bae 9c3d c774 133e 124a 18be
000001d0: 838c c23c cdb9 333c e9c1 4c3e 493d 56be
000001e0: 0646 2cbe b6d4 c3bc 029d 5e3e fcee b53d
000001f0: aee4 e3bd a93e 7e3e 7886 003d 9b7f 323d
00000200: d381 b43d a920 e63d 6ac0 a43d 0dc1 493e
00000210: 7ab9 ef3c 77dd 093c 853a 433e baaf 1a3d
00000220: dc3a 00bd 2ae0 c2bd 8bb0 af3d ecdd 74be
00000230: 2e5b 5abe 5375 7dbd 6047 303e f0c2 2e3e
00000240: b954 6c3e 288f 0ebd 5046 bf3d 74c7 7abd
00000250: 74c3 983d 8e97 7fbe 4a7c 19bd eb9c 02be
00000260: a362 843c ba50 a7bd 7f1f 05be 8ba6 cabe
00000270: 4721 483d d661 86bd f06a 563e 467e 05bc
00000280: 48a6 4abe 35ed 97bd 4859 96ba ec57 2dbe
00000290: fc0f d0be 0697 1b3e 201a 36be 7401 57bd
000002a0: 1ca1 82be 2bf7 67bc e273 17be 0b54 8f3e
000002b0: e130 cbbd 5263 51be 8f4f 2f3d 4544 5fbe
000002c0: 3377 22be 861a 4b3d c398 6e3c 5274 b83e
000002d0: 4f7d 7ebd f268 97be 74e7 2b3e 5b6a 1cbe
000002e0: 2117 c3bd 4b4e 66be 526c 653c 0924 be3d
000002f0: 2dd0 bdbd 7b1e c8be e1f9 883e a8d4 373e
00000300: c24a 71be 983c 87bd 5694 bfbe bd04 c0be
00000310: 60b2 453e 8aa2 ea3d c8c9 a03e f2b5 bcbd
00000320: 3f05 2e3e 6d33 6ebd 0a1e 05be c0c1 813d
00000330: ce7a 303e 8711 013e 8420 4ebd 0efc 3d3d
00000340: 8065 083e 1c54 a7be bc1c cb3d 2fc0 2b3e
00000350: 936b d7bd 01b9 24be 7301 a3be 1006 6e3e
00000360: c314 ba3e 467e bebd a884 6fbe b2ca 93be
00000370: 8ab1 f1be 7410 123c 3efe d53e b9fe 85be
00000380: 9852 323e 4f1c db3e 8e79 2ebc 1aa2 44be
00000390: 4baf 6f3d 80a3 10be 95ad 4abe f8d7 a23e
000003a0: 22af 863e 0e7f 963c b4a1 803e 6714 67bd
000003b0: 7c6c 8ebc 0b67 9dbe e13b 963e d43f dabd
000003c0: 0661 85bd d624 c83d 6398 c5bc f526 3c3e
000003d0: 9612 6c3e efb9 263e 2dcb 71be 51e4 a3bd
000003e0: 0c39 6e3d 0cd3 05be 0b2d 00bd d263 fbbc
000003f0: d505 be3d 23fa 32be b4b0 a8bd c2fa 913d
-0.21344757 -0.16718301 0.01711123 -0.5463024 -0.36040685 -0.07528819 0.08082484 -0.29853338
-0.5462513 0.0968249 0.06237468 0.0728399 -0.32668474 -0.06744238 -0.020751828 -0.17337953
0.06578505 0.23159051 0.30886057 0.32107762 0.06882245 -0.18411428 0.2646154 -0.017105486
0.19658843 -0.17925602 -0.014877035 0.103569254 -0.2802194 -0.11774297 0.2396013 -0.06644671
-0.3612889 -0.027911738 -0.15927339 -0.23587409 0.3495574 0.33262882 0.3809766 -0.2362819
0.16044614 0.17178121 0.1684617 -0.13525192 -0.30782816 0.3591971 -0.1927505 -0.11367771
-0.32614565 -0.3559172 -0.26755002 0.03548828 0.09271491 -0.18433999 -0.09387363 0.13964194
0.23230952 0.037561975 -0.41843933 0.22889493 -0.082098 -0.13672812 0.0762833 -0.16199827
-0.012604371 -0.26289517 0.3523748 -0.004624237 0.28081098 -0.17780317 0.14437734 0.2167965
0.07361938 0.15783224 -0.14178029 -0.42159957 -0.016811162 0.046700273 0.29500142 0.040407535
0.046554875 0.16898826 0.11558027 -0.13371195 0.055380847 0.17669025 0.07801259 -0.18873626
-0.069767736 -0.3148878 -0.19981645 0.25335944 -0.017641537 -0.13757595 0.16557878 0.015620123
-0.09216018 -0.08721974 -0.10414502 0.096114725 -0.0040143053 -0.05848797 0.31973007 -0.011660273
-0.10534791 -0.13566945 -0.10264626 0.039553724 -0.0097827595 -0.30028093 0.121088915 -0.11303368
-0.045912474 0.07650431 0.14400016 -0.14872006 0.023748642 0.010969591 0.19995846 -0.20921816
-0.16823587 -0.02390514 0.21739581 0.08883473 -0.111276016 0.2482859 0.03137824 0.043578725
0.088138245 0.11236698 0.080445126 0.1970255 0.029263247 0.008414618 0.19065292 0.037765242
-0.031306133 -0.09515412 0.08578595 -0.23912781 -0.21323845 -0.061879467 0.17214727 0.1706655
0.23079194 -0.034804493 0.09339583 -0.06122537 0.07459155 -0.24960157 -0.037472047 -0.12755172
0.016160315 -0.08169694 -0.13000296 -0.39580187 0.04885986 -0.065616295 0.20939231 -0.008147782
-0.19789994 -0.074182905 -0.00114707 -0.16928071 -0.40637195 0.1519433 -0.17783403 -0.05249162
-0.25513542 -0.0141580505 -0.147903 0.27993807 -0.09921432 -0.20448044 0.042800482 -0.21803387
-0.15865783 0.04958584 0.014562788 0.36026245 -0.062131222 -0.29572254 0.16787511 -0.15274946
-0.09525896 -0.22490804 0.014002876 0.09284217 -0.09268222 -0.39085755 0.26753142 0.17952216
-0.23563674 -0.06603354 -0.3741786 -0.37503615 0.19306326 0.11456783 0.31403947 -0.09214391
0.16994189 -0.058154512 -0.1299974 0.06335783 0.17234346 0.12604342 -0.050323978 0.046382956
0.13319969 -0.32681358 0.0991759 0.16772531 -0.10518565 -0.16086198 -0.31837043 0.232445
0.36343965 -0.093014285 -0.23390448 -0.28865582 -0.47205764 0.008915056 0.41795534 -0.261709
0.1741432 0.42795035 -0.010649098 -0.19202462 0.05851678 -0.1412487 -0.19792779 0.31805396
0.2630549 0.018371131 0.2512337 -0.05641594 -0.017385714 -0.30742678 0.2934256 -0.106567055
-0.065126464 0.09772651 -0.024120515 0.18374236 0.23053965 0.16281866 -0.23612662 -0.08002532
0.058159873 -0.13068789 -0.031292956 -0.030687246 0.09278456 -0.17478232 -0.082368284 0.071279064

lstm.weight_hh_l1 f4 [160, 40]
00000000: 047d 1abe 2244 d2bd 4033 5dbb c0d7 1e3d
00000010: cea7 a83d d895 863d 22ff ed3d ed5e 17be
00000020: f8f4 b83d 3f40 fabd ac32 2a3d 6053 f1bb
00000030: b0b6 eebd 885b a33d 8106 0c3e 90ad 723c
00000040: 1475 bb3d f6ba c13d 6792 febd 05dc 0bbe
00000050: 745f 733d e2e0 32bd 9637 d33d 6c7e c6bd
00000060: 684a 3dbd e0f0 61bc cae8 00be cd63 d8bd
00000070: 6a6b 12be ddc7 0f3e 1684 e33d f011 13be
00000080: 4a69 e23d 52bb 0dbd 4457 353d c283 08be
00000090: b680 f33d 6424 68bd 3466 55bd ccc3 8bbd
000000a0: 292e 9ebd 4c15 863d 00dd 54bb b29c e33d
000000b0: c471 9e3d f0f1 febc 3ecb 903d 857e 00be
000000c0: fc9b 623d ea88 ce3d 78a2 5fbd eb45 c8bd
000000d0: a8cf e1bc 1b4d 83bd 06fd 06be 1003 a23d
000000e0: 10c1 6f3c defd c83d b968 11be dd5e 093e
000000f0: f622 82bd 3264 23bd b3cd 143e 16c6 d23d
00000100: bc4d 5f3d daa4 d73d f089 48bc 1f75 87bd
00000110: 3619 f43d d0b6 73bd 53c2 213e 14d3 b7bd
00000120: 62c3 ce3d 0b6d 14be 0837 00bd f690 923d
00000130: 5493 1abe add8 0a3e 8a76 cf3d c04a 38bc
00000140: 6a68 bf3d f81b 80bc aaa1 30bd 7980 bfbd
00000150: fa3a dd3d f8fa 15bd b0be d0bc ca4b 81bd
00000160: 548c 68bd 20e4 4a3c 43e9 173e 6080 a83b
00000170: 66e4 abbd 1c81 82bd 2a63 bc3d 05f7 173e
00000180: 2067 e53b d03c 03be 2cfc 073d 95d6 8ebd
00000190: bd99 183e 2674 bb3d 5629 c6bd e8ba 8dbd
000001a0: d07b bd3c 4b89 193e 2085 9a3b 2ed0 b23d
000001b0: 6dc3 acbd 9106 08be a8fe d5bd c05f c03b
000001c0: 08e1 67bd 74df 61bd b0be 673c 203a 683d
000001d0: 9ec4 15bd 5ac4 83bd 0656 60bd 39a9 8cbd
000001e0: e8a3 bbbc f14d 213e 15f7 9fbd 806f 003b
000001f0: a0fd b93b d11d 1dbe 1d57 0fbe 4097 77bc
00000200: a62e d13d ec4d 513d 7a0c 35bd 1464 063d
00000210: 34b4 793d cea5 09be e67d 8c3d b067 04bd
00000220: 667f f3bd 18a9 cebc 22fa d43d 2099 d73c
00000230: 1c2e 64bd 9091 f7bc 18a9 09be 9ce1 1abd
00000240: ebfe 10be 3533 1d3e 6a37 33bd 00dd 8f3c
00000250: 40b8 60bc 0c8e e2bd 41dd eabd a380 d0bd
00000260: 00d7 cb3c 2068 3bbc a427 5b3d a695 f7bd
00000270: 58dc dc3c 4233 853d 7c2e 6e3d e007 b3bb
00000280: 0261 f2bd 7e24 19bd d480 583d c2f2 933d
00000290: 205c 8e3b 72ef ea3d 0e5e e1bd 606f b0bc
000002a0: c895 0bbe 309c a23c cc77 69bd 1a9c a23d
000002b0: ac8d 00bd e04f 863c a959 063e e66f b8bd
000002c0: 2f6e 163e b6a9 b5bd 3656 d13d cae3 0fbe
000002d0: 9f2a 17be e21e 9ebd 16b2 d43d 348a 833d
000002e0: 5f42 0e3e c64c d0bd 48d3 9fbc 681d ecbd
000002f0: 6a9b af3d 8363 03be f939 0e3e 4066 8f3c
00000300: 57b0 093e c66e b03d 272e 0d3e 288d edbd
00000310: 3071 6fbc 9048 0ebe 24fa 693d fb6a d4bd
00000320: aaa3 12be b667 ad3d 2411 00be 3044 533c
00000330: e682 28bd 42b7 12be 2a2c f73d a07d 17bc
00000340: c648 c5bd 804c 023d 84f0 cabd 3f64 1c3e
00000350: 8f42 bbbd 4d7f 99bd da8c 91bd 0075 543a
00000360: 274e b8bd f44e 09be 21e1 18be 18f1 fcbc
00000370: 34cf 413d 1692 863d 32e5 db3d 8487 6d3d
00000380: 3a07 bbbd 1437 2d3d 2d22 0e3e 312f 193e
00000390: a3b2 c4bd 997d 143e 310a 06be 6c5b 0f3d
000003a0: 8d6b ddbd 74ae 433d 6dd0 bbbd 44d1 6b3d
000003b0: 8f2d 21be b462 2e3d 02e4 d33d cad9 95bd
000003c0: 99ab 173e 297d 103e e438 8a3d b293 f7bd
000003d0: 3867 e3bd 1360 153e 4c31 1b3d 270a 173e
000003e0: 1eda d83d a4a6 7cbd fff2 14be a361 163e
000003f0: 74da 9b3d 0608 e13d 6047 88bb d84b a13c
-0.15086752 -0.102669016 -0.0033752471 0.038779974 0.08235131 0.06571549 0.11620928 -0.14782305
0.09031099 -0.12219285 0.04155223 -0.0073646754 -0.116559386 0.079764426 0.13674356 0.014811888
0.0915319 0.09459488 -0.12430268 -0.1365815 0.059417203 -0.043671496 0.103133366 -0.09692082
-0.046213537 -0.013790339 -0.12588802 -0.105659105 -0.14298788 0.14041086 0.11109178 -0.14362311
0.110552385 -0.03460247 0.044272676 -0.13331512 0.11889784 -0.05667533 -0.05209942 -0.06824455
-0.07723648 0.06547031 -0.003248036 0.11113872 0.07736543 -0.031121224 0.07070015 -0.12548263
0.05532454 0.10084708 -0.0545983 -0.09778961 -0.027564839 -0.06411191 -0.13182458 0.079107404
0.014633432 0.09814046 -0.14200105 0.13415094 -0.063543245 -0.039890476 0.14531593 0.10291688
0.054517493 0.1052949 -0.012239918 -0.06614136 0.11918871 -0.059500515 0.15796785 -0.08975807
0.1009586 -0.14494722 -0.031302482 0.07156555 -0.15095264 0.13559218 0.101300314 -0.011248291
0.09346087 -0.015638337 -0.043122925 -0.09350676 0.108022645 -0.036616296 -0.025481552 -0.06313284
-0.056774452 0.012383491 0.14835076 0.0051422566 -0.08393173 -0.06372282 0.091986015 0.14840324
0.007000819 -0.12816167 0.033199474 -0.06974522 0.14902397 0.09153013 -0.09675853 -0.06920415
0.023130327 0.1499378 0.004715577 0.087311134 -0.08435712 -0.13283755 -0.104489625 0.0058707893
-0.05661109 -0.055144742 0.014144585 0.056696057 -0.036564462 -0.064339355 -0.05476954 -0.06868214
-0.022905305 0.15752389 -0.07810799 0.001959771 0.0056759864 -0.15343405 -0.13998075 -0.015111744
0.102139756 0.051099703 -0.04420135 0.032810286 0.06096287 -0.13442156 0.06859951 -0.032325447
-0.11889534 -0.025227115 0.103992715 0.026318133 -0.055708036 -0.030220777 -0.1344341 -0.037812814
-0.14159743 0.15351565 -0.04375402 0.017561436 -0.013715804 -0.110622495 -0.11467982 -0.101807855
0.024882793 -0.0114384 0.0535046 -0.1208909 0.026960537 0.06503917 0.0581498 -0.0054635853
-0.11834909 -0.037388317 0.052857235 0.07224037 0.0043444782 0.11471452 -0.11004268 -0.021537483
-0.13631356 0.019849867 -0.056999013 0.0793993 -0.03138511 0.01639551 0.1312014 -0.09005718
0.14690469 -0.088702604 0.102215216 -0.14051738 -0.14762352 -0.07720734 0.1038553 0.064228445
0.13892506 -0.10170893 -0.019509926 -0.11529046 0.08574565 -0.1283093 0.13889302 0.017504811
0.13446175 0.08614878 0.13787137 -0.11599189 -0.014614388 -0.13894868 0.05712332 -0.103719674
-0.14320245 0.08467047 -0.12506539 0.012894675 -0.04114046 -0.1432772 0.120689705 -0.00924626
-0.09633021 0.031811237 -0.09909156 0.15272616 -0.091435544 -0.07494984 -0.071069434 0.00081045926
-0.089992814 -0.13409024 -0.1492963 -0.030876681 0.047316745 0.065708324 0.10737075 0.057990566
-0.09132238 0.042288855 0.13880225 0.14959408 -0.09604385 0.14501037 -0.13089825 0.034999296
-0.10811529 0.047773793 -0.091706134 0.057572618 -0.15740035 0.0425746 0.103462234 -0.073169306
0.14811553 0.14110245 0.06749132 -0.120887175 -0.11103672 0.1458743 0.03788881 0.14749967
0.105884776 -0.06168236 -0.1454582 0.14685683 0.07610026 0.109878585 -0.004158899 0.019689485

lstm.bias_ih_l1 f4 [160]
00000000: fc24 963e dccb 103e dc2d af3e 0241 a73e
00000010: 4577 de3d 9f1c 003e ac0d c13e 53d2 0a3f
00000020: 0c6c 283d b35f d73e 0b05 e53e 4151 863e
00000030: b2df 8a3e 170b cd3e 160b 493e df7a a03d
00000040: 8b74 d43e 12cf c63d fea5 df3e 9c34 963e
00000050: efae b33e e46d 1a3e 44d3 083f edf9 283e
00000060: ee20 873e e979 403e 620e e53e 33e0 593e
00000070: 52cb dc3e b603 513e 4134 ec3e dba3 f83e
00000080: 9a22 483e 3d06 e13e ceaa d73e 68ab 9f3e
00000090: dd99 b63e 02e3 7e3e 10fc 5f3e 72ac ba3e
000000a0: a24e 00be 60cf d1bc 644f 553d b8dd 983d
000000b0: 8e21 cb3d fcac 26bd 95b5 eebd 06a3 fb3d
000000c0: 6cd3 3e3d 4846 5ebd 5de3 95bd f940 9abd
000000d0: 8054 b73d 6a36 f53d 60f0 d23b 5066 913c
000000e0: da41 1cbe 0005 f83a 47b0 063e bab6 df3d
000000f0: 04f8 3abd 0844 a2bc 8f5b 94bd d07c 57bc
00000100: aa9d f03d a2f7 92bd 0a86 e7bd 74ff 413d
00000110: c46b c5bd 47ce afbd 20e7 df3b e1c6 1b3e
00000120: b013 503c 2a7a d5bd 8760 a1bd 3a20 1dbe
00000130: 60cd 563d a235 57bd f852 c93c 0c1d 02bd
00000140: 5df1 3fbe adaf 703e 4c43 4dbd 05f6 193e
00000150: c3d1 5fbc f5e0 7e3d abb8 c8bd 12f5 0a3e
00000160: 5cc9 07be 9ca7 6b3d ca26 183e a4bf 203d
00000170: 952c bd3d 7c7b 4e3e dcb6 0d3e d83d 2f3d
00000180: 65e4 af3d 036a 5abd 2a09 553c 81d0 0e3e
00000190: 3898 6ebd 2f71 f53c 207d d03c 405b d53b
000001a0: 9e2e c53d c02e 5d3e 704a 823c adb4 2c3e
000001b0: 1fa3 d6bc 7bb6 19be 89dd 3abd b936 86bd
000001c0: 4d5e c23d 0b7a dbbd 2d5f a6bd eba8 213d
000001d0: 0d6e 09be 2469 9bb9 2567 a93b d948 9bbd
000001e0: f3d2 433e dd8a 743d 6851 b63e 0377 7c3e
000001f0: 0ce1 c03e 69e7 693e 9b77 c23e 7d75 173f
00000200: b6d9 733e 39b4 883e f236 973e ca65 a23e
00000210: 1951 df3e 09e5 dc3e 9ea0 023f 32b1 db3d
00000220: 95ba a63e 36a9 5f3e adc9 be3e 5b69 863e
00000230: 800a 053f 487f d23e ecd9 063f a951 d43e
00000240: e09d c43e d583 ca3e e141 b03e 6851 933e
00000250: d4e1 883e ea9d 9f3e c6f3 cd3e 169b cf3e
00000260: 6feb 123e 9dec c23e f1f4 be3e d8fe be3e
00000270: 4c49 c03e 8ea9 e33e 2360 e63e dd65 ec3e
0.29325092 0.14140266 0.34214675 0.32666785 0.108625926 0.12510918 0.37705743 0.5422718
0.041118667 0.420652 0.4473041 0.26233867 0.2712379 0.40047523 0.19633135 0.07835936
0.41495165 0.09707464 0.4368133 0.29337013 0.350944 0.15080982 0.53447366 0.16501589
0.2639231 0.18796505 0.44737536 0.21276931 0.4312387 0.20411572 0.46133617 0.48562512
0.1954445 0.43950072 0.421225 0.3118546 0.35664263 0.24891284 0.21873498 0.3645969
-0.12529996 -0.02561158 0.052077666 0.074641645 0.099185094 -0.040692315 -0.11655728 0.12286954
0.046588346 -0.054266244 -0.07318757 -0.07531924 0.08951664 0.11973269 0.0064373463 0.017748982
-0.15259495 0.0018922389 0.13153182 0.10923524 -0.045646682 -0.01980783 -0.07244026 -0.013152316
0.11748822 -0.071761385 -0.11304863 0.04736276 -0.09639695 -0.08584266 0.006832972 0.15212585
0.012700006 -0.104236916 -0.07879739 -0.15344325 0.052441955 -0.052541383 0.024575695 -0.031765983
-0.18744417 0.23504515 -0.050113007 0.15035255 -0.013660851 0.062226254 -0.098008476 0.1357005
-0.13260406 0.05753289 0.14858547 0.039245263 0.09237019 0.20164293 0.13839287 0.04278359
0.08588485 -0.053323757 0.013002673 0.13946725 -0.058250636 0.029961197 0.02545029 0.006511122
0.09628032 0.21599865 0.015904635 0.16865797 -0.02620083 -0.15011017 -0.04562143 -0.06553406
0.09490643 -0.10716637 -0.08123622 0.039467733 -0.13420887 -0.0002964224 0.0051697665 -0.07582254
0.1912344 0.059702743 0.35608983 0.24654774 0.37671697 0.22842182 0.37981877 0.5916365
0.23813519 0.267 0.29534107 0.31718284 0.4361656 0.4314349 0.5102633 0.10727157
0.32564226 0.21841893 0.3726324 0.26252255 0.51969147 0.41112733 0.5267627 0.41468552
0.384017 0.39553705 0.34425262 0.28773046 0.26734793 0.31175166 0.40225047 0.4054801
0.14347623 0.38071147 0.3729625 0.37303805 0.3755592 0.44465297 0.44995221 0.46171466

lstm.bias_hh_l1 f4 [160]
00000000: 4fdf b33e 046c bc3e caf1 503e 6492 803e
00000010: 468a be3e ba44 b53e 9a11 983d ab92 fa3e
00000020: 47b2 943d 100a 6b3e f599 823e 45c0 263e
00000030: 0deb 7c3e 7a59 7a3e 9ecb cb3e a59e 3c3e
00000040: 441d 8f3e 7d03 963e 1180 e03e 43c7 c73e
00000050: db9f db3e e882 553e 881e 153f 2286 8f3e
00000060: 0d1b 513e 7a1a bb3e 24f0 c33e cb84 4b3e
00000070: 7cc0 ea3e 6ea0 513e 0546 853e f46f d13e
00000080: 48d9 9e3e 7334 ef3e d2f5 bd3e 0c04 9f3e
00000090: a18d be3e cba2 423e d635 5e3e 82fa 893e
000000a0: b5d9 1a3e 7985 0bbe 80b0 14be 6feb 0bbe
000000b0: 0cd6 fdbd e617 10be 7edd d23d 06ad d33d
000000c0: 1045 d2bd 389f d1bc b60c e93d 2f61 003e
000000d0: 9538 1ebe 3cb6 e3bd 30c6 6e3d 40a2 1b3d
000000e0: 725e e83d f4b1 1ebe 62a7 8d3d c817 76bd
000000f0: 7991 a4bd a1a0 173e 6909 0b3e 7bb7 0e3e
00000100: af99 afbd a80f 6bbd 3f46 053e db44 1e3e
00000110: 4ce9 3d3d 78fe 0bbe c084 a4bc 82d1 da3d
00000120: fe71 933d 382e f53c 46ca 923d ab94 21be
00000130: 0ea1 d63d 64ce 1abe 6ac5 33bd 11a9 b8bd
00000140: c31a 953d ef4c 913d badd 67bd 395c 763d
00000150: e282 ad3d 0e16 cebd f8a9 aebc 290c 04bc
00000160: 1e48 6dbe a024 8c3d 5401 f13c aeef 0bbe
00000170: 9283 5d3d d0c7 e2bc 6718 a6bd 1245 6a3d
00000180: fed6 6abd a7d0 a53c f338 d3bd dfc9 533e
00000190: b892 89bd 490f e03d aecf 8f3d fba0 24bc
000001a0: 9d33 c5bc 36e7 5c3e d20b e8bd 130e a1bd
000001b0: 16aa 5dbe 01d0 72be a73a a4bd 0325 18be
000001c0: 87f8 6bbc b1b5 0dbe 73c6 2a3d 12c2 83bc
000001d0: 7c29 1f3b 942f 213c 6671 063e b5bb cd3d
000001e0: 8109 b13d df91 d93d 8e2a 553e 0683 653e
000001f0: 144c a93e fd6b a23e fd8b a73e 3c33 003f
00000200: b592 3f3e b9a1 853e b658 bd3e 11df 6f3e
00000210: e92d b13e d2ae 7b3e a6c4 fb3e 5ef0 963e
00000220: 99dc 353e 0a82 163e 3b54 173f 7f94 273e
00000230: ef0d fb3e 60bc c53e 27df 2b3f 8a30 3d3e
00000240: 50c3 d03e b78e 9f3e a395 e63e 36e2 9c3e
00000250: bade b23e 2e55 9a3e 1b18 093f 6318 013f
00000260: 79c2 443e 84e4 203e 972e 933e 50ac 143e
00000270: d749 663e f8c3 f03e f9a5 dc3e b739 c13e
0.35131308 0.3680116 0.20404735 0.25111687 0.3721487 0.35403997 0.07425232 0.48940024
0.07260566 0.22953057 0.25508085 0.16284283 0.2469904 0.24448195 0.39803785 0.18419893
0.27952015 0.29299536 0.43847707 0.39019212 0.42895398 0.20850718 0.5824971 0.28032023
0.20420475 0.36543638 0.3826915 0.19874875 0.4584998 0.20471355 0.26029983 0.40905726
0.31025147 0.46719703 0.3710161 0.31057775 0.3721743 0.19007413 0.21700224 0.26948935
0.15122111 -0.13625135 -0.14520454 -0.1366403 -0.12394342 -0.14071617 0.102961525 0.10335736
-0.10267079 -0.025588617 0.113793775 0.12537073 -0.15451272 -0.11118743 0.058294475 0.03799653
0.11346139 -0.15497571 0.06916691 -0.060081273 -0.08035559 0.14807369 0.13577808 0.1393718
-0.08574235 -0.057387978 0.13015078 0.15455954 0.046365067 -0.13671291 -0.020082831 0.10684492
0.07199477 0.029929265 0.07167487 -0.15779369 0.104799375 -0.15117794 -0.04388944 -0.09016622
0.07280495 0.07094752 -0.05660794 0.060146544 0.084722295 -0.100628 -0.021321282 -0.00805954
-0.23172042 0.06842923 0.029419579 -0.1366565 0.054080553 -0.027683169 -0.08110123 0.057194777
-0.05733394 0.020241095 -0.103135966 0.20682476 -0.067174375 0.109404154 0.07022034 -0.010048146
-0.024072463 0.21572575 -0.113303795 -0.078640126 -0.21646914 -0.2371216 -0.080189995 -0.14857869
-0.014402515 -0.13838841 0.041693162 -0.01608375 0.0024286201 0.009838004 0.13129196 0.10045568
0.08644391 0.10623526 0.20817015 0.22413263 0.33065856 0.31723014 0.3272399 0.5007818
0.18708308 0.26099947 0.36981744 0.23424937 0.3460534 0.24578407 0.49173468 0.2948026
0.17759933 0.14698043 0.591129 0.1636524 0.49034068 0.3862028 0.6713738 0.18475547
0.40774012 0.3116357 0.4503604 0.30641335 0.34935552 0.30143112 0.5355241 0.50427836
0.1921481 0.15712172 0.28746483 0.14518857 0.22489105 0.47024512 0.43095377 0.37739345

linear.weight f4 [6, 40]
00000000: 0e6d be3e 6b36 4abd 2c09 a83d ae17 0cbf
00000010: 640f f5bd 6f9f d93d 46e8 6dbe 400d c03d
00000020: f9f6 ab3e ef2b bcbe 3134 ecbe 7b04 61be
00000030: 6d57 3cbe dee3 26bf e3d8 04bf 23c5 623d
00000040: 6ead a0bd 17cf 4bbd 76ec 513f d035 fcbe
00000050: 1080 373f b193 3fbe 02ea 40bf 071e c8be
00000060: e28b 85be 9b69 b9be 5083 3e3f 53da 0abf
00000070: 8973 4a3f 34ea 853e 74e5 523f 9578 3f3f
00000080: e368 433e 9113 2f3f 2655 09bf fa47 c3bd
00000090: 10bb e53e f50e ef3d 1405 09be ddfb 56be
000000a0: 1d36 5bbf 8118 113f 1f64 313e bde8 013f
000000b0: 1893 2e3f 872c eabe f065 e13e 2cfa 023f
000000c0: 6ff5 903e 8a24 84bd a066 9fbe d14f 1a3f
000000d0: 30f3 dbbe 9a37 183e 649e 0f3f d50b 7fbe
000000e0: 37f1 0f3f 2601 083f 596e d4bd 8aeb e63e
000000f0: 42d8 8bbe f79c a5be 2cd9 2b3e 3f45 fe3e
00000100: ddb2 79be 26a2 edbe d871 d2be be49 b33e
00000110: 8a52 51be 4a34 02bf 5138 adbe 60a4 d1be
00000120: b5c5 18bf c388 1bbe 2804 0dbe a4e2 92be
00000130: 5e3a 25bf 728d 09bf 3f1d 36bf ce81 27bf
00000140: 31dd a5bd d709 d4be 4a7f dabe ca7e 3f3e
00000150: 11ef 6ebe 0bcf 483d e4d9 62bd 1776 cfbe
00000160: e1a0 10be fe9f 093f afdc ff3e 9f12 69be
00000170: 4636 f33e 3f85 a83d 7696 aa3e 229f 90bc
00000180: ebaf 93be 8778 aabe 0446 f1be 52f9 f23d
00000190: b0f6 55be 93e2 883e e641 0a3f 8e23 c03c
000001a0: 46e7 d23e f32e d03e 1bce 313d 6eae 72be
000001b0: 8aff 32bd fcfe 8f3e fe49 abbe d1e1 d1be
000001c0: 549c 3f3e adf8 fcbd e470 ee3e f4ae 643e
000001d0: f44c 5c3d cd09 0f3e 0d45 ba3e cd44 a93e
000001e0: f7fd a23d ddcc b8bd a27e 63bd 2629 47bd
000001f0: b8af e2bc 7183 e23e 12d1 8abe cb3d 9bbd
00000200: 81c8 a1be 4e0a 943e bd58 943e f17c 0bbe
00000210: 1c8d cc3d 81d9 bdbd e921 76be 5d9a b43e
00000220: 2088 83be 3944 aabc 4477 c8bd 911c c3bd
00000230: 6ac0 1b3c a519 8d3e 4294 7f3c 3c2d 45be
00000240: f3ca 8f3e 36ae 92bd e654 a7bc b2d0 43bd
00000250: 0939 6cbe 622d 0a3e 321d 9abb b5ef 9d3d
00000260: 8d32 393e c0e7 3f3e 5e65 3ebd ec23 fc3e
00000270: 24b1 30bc 0abb 6b3e 2757 853e 39db 773e
00000280: 8aae 3dbe 4c4d 03ba c867 06bd dca1 68be
00000290: 0dfa 913d 7505 8ebb cb20 0dbe 16ed 7a3e
000002a0: 60c6 ddbd a593 32be babb e7be d6fd d0bd
000002b0: 9f7f 02be 5459 80be be83 d1bc 0884 e83d
000002c0: f969 1a3e 0f52 debd c593 fe3e 2cb4 5abe
000002d0: 3b76 a93e 210a b5bd 34f5 b4be 8e6c e2bc
000002e0: 5e5e 04be a708 313e 59c6 043e e385 9fbd
000002f0: a606 943e b630 23be b524 983e 4841 a63e
00000300: 3a5a f33c 2bd9 5a3e 3e93 b03d 57f7 35be
00000310: 7ada 1d3e 2ad4 9bbd 5af1 093e 11c9 73be
00000320: c545 b63d 7676 66bc 4839 333d 3188 3f3e
00000330: 666e ac3d b763 8ebe 29d2 aa3e 8f8a 65bd
00000340: 5ff9 593e aa9b 933c 9bf1 8dbd a124 5e3e
00000350: 0b93 753d 3afb 6e3e 6688 113e 67c0 c1be
00000360: 2964 c13d d235 153c db9f 6abe d1c2 3f3e
00000370: bf39 c7bd 5ec7 3abe 04ce b13d e2b0 763d
00000380: 84b6 92bd c5a3 f4bd 3add 08be 01e0 723d
00000390: 8758 f1bd c7f0 3a3c 9672 fabd 83cf dbbd
000003a0: 67f2 57bd c8bd 89be f34f f03d 3711 24be
000003b0: 9d1c 0ebe 940f f8bd 318f cabd a662 ecbd
0.37192577 -0.049368303 0.082048744 -0.5472363 -0.11965826 0.10626113 -0.23233137 0.09377527
0.33586863 -0.3675227 -0.4613357 -0.21974365 -0.18392725 -0.6519145 -0.5189344 0.055363785
-0.07845579 -0.049758043 0.82001436 -0.49259806 0.7167978 -0.18708684 -0.7535707 -0.3908541
-0.26083285 -0.36213383 0.74419117 -0.54239386 0.7908254 0.26155245 0.8238137 0.7479337
0.1908298 0.6838923 -0.5364555 -0.09535213 0.4486928 0.11672775 -0.13380843 -0.20994516
-0.85629445 0.56678015 0.1732335 0.50745755 0.681932 -0.45737097 0.44023085 0.5116298
0.2831225 -0.06452282 -0.31132984 0.6027804 -0.42958975 0.1486496 0.5610106 -0.24906857
0.5622744 0.5312675 -0.1037261 0.45101577 -0.2731343 -0.32346317 0.16782063 0.49662206
-0.24384637 -0.46412772 -0.4110248 0.35017198 -0.20441642 -0.50861037 -0.33832029 -0.4094572
-0.59676677 -0.15188889 -0.13771117 -0.28688538 -0.64542186 -0.53731453 -0.71138376 -0.6543244
-0.080988295 -0.41413757 -0.4267524 0.1870071 -0.23333384 0.049025577 -0.055383578 -0.40519783
-0.1412387 0.53759754 0.49973056 -0.2276101 0.47502345 0.0822854 0.33317918 -0.017654005
-0.28845152 -0.3329508 -0.4712373 0.1186396 -0.20894885 0.26735362 0.54006803 0.023454454
0.41192073 0.4066082 0.043409448 -0.23699352 -0.043700732 0.28124225 -0.3345489 -0.40992597
0.18711978 -0.12352119 0.46570504 0.22332364 0.053784326 0.13968582 0.36380807 0.33060303
0.07958596 -0.090234496 -0.05554069 -0.048623227 -0.02767168 0.44240907 -0.27112633 -0.075801454
-0.31598285 0.28914112 0.28973952 -0.1362188 0.09987852 -0.09270001 -0.24036373 0.3527402
-0.25689793 -0.020784484 -0.09788373 -0.09526933 0.009506324 0.27558628 0.015599312 -0.19255537
0.28084525 -0.07162134 -0.020426225 -0.04780645 -0.23068632 0.13493875 -0.0047031874 0.07711736
0.1808569 0.1874075 -0.04648339 0.49246156 -0.010784421 0.23020568 0.26043054 0.2420472
-0.18523613 -0.00050087715 -0.032813817 -0.22717994 0.071277715 -0.0043341466 -0.13782041 0.24504504
-0.10828853 -0.17439134 -0.45260412 -0.10204665 -0.12743996 -0.25068152 -0.025575515 0.11353308
0.15079488 -0.10855495 0.49722114 -0.21357793 0.33098015 -0.088398226 -0.35343325 -0.027639654
-0.12926623 0.17288457 0.12966289 -0.07789209 0.28911322 -0.1593655 0.29715505 0.3247168
0.02970611 0.21371906 0.08621834 -0.17770134 0.15415373 -0.076088265 0.13470975 -0.2380717
0.08900026 -0.014066329 0.0437558 0.18704297 0.08419494 -0.2781045 0.33363464 -0.056040343
0.21286534 0.018018562 -0.06930848 0.2169366 0.059954684 0.23338023 0.14212188 -0.37842104
0.09442932 0.00910707 -0.22912543 0.1872666 -0.09727811 -0.18240115 0.086818725 0.060227282
-0.07163718 -0.11945299 -0.13365641 0.059295658 -0.117844634 0.011409945 -0.12228887 -0.10732939
-0.052721407 -0.26902604 0.11733999 -0.16022192 -0.13878103 -0.12112346 -0.09890593 -0.11542253

linear.bias f4 [6]
00000000: 71c9 a7bd ae3c 403e 5363 fe3d 46c0 613e
00000010: 87f4 0f3e af36 46be
-0.08192719 0.18773147 0.12421288 0.22046003 0.14058124 -0.19356798
