models/76/state_dict.pt (torch_old, 25727 bytes, 10 tensors)

lstm.weight_ih_l0 f4 [80, 10]
00000000: fc75 7c3e 7393 2fbf fb48 e6be e5e9 023f
00000010: 11e1 fdbe df6b e1be a4ef 8ebe fcaa b2be
00000020: b2f1 14bf dfff 69be 8a6e e73e d96d 81be
00000030: 40ec 2f3e e180 b53e eeed 91be 63c8 01bf
00000040: 5121 27be 9690 ccbe 8c90 14bf 59ff 26be
00000050: 8899 02be 7008 06bf 872b aabe b465 873d
00000060: 1d7e e7bd 812d 89be f040 803e 432c b9be
00000070: 5a1f a0be c108 813d f6df 49bd 91bd 4dbf
00000080: f564 fabe ab1f 2e3f 5c91 89be 0cc9 bdbe
00000090: 9296 22bf b4ff c8bd bf11 c9be b19a 04bf
000000a0: 80a3 833e 30f2 01c0 76d3 c5bf 2b0a 013f
000000b0: a38e 293e 9720 ffbd e0d0 12c0 5366 593d
000000c0: adeb 04be a398 11c0 ac32 2d3e 3d82 97be
000000d0: e8bd afbe 95e7 d3be 701c 0a3e 296e ee3e
000000e0: d89a b8bd 2dd2 713e e592 cf3e d60f 393e
000000f0: 387e 0a3e a34a 613e 4535 b63e f8f3 d83e
00000100: 82cd d9be fc9a c9be 6e8b fe3a c931 82be
00000110: e835 b2be e606 0dbe 16f2 a23d a8b5 b0be
00000120: c3c9 02bf 16a4 8fbf 7c4d 0040 6e92 3d3f
00000130: e73d 00bf 952e e73f acf0 6a3f 632d 53bf
00000140: d031 73be e65a 2c3f 4371 953f b14a 963e
00000150: e680 89bf a668 bfbe 13d1 613f 2426 35bf
00000160: e79d 0fbf 7404 3c3f ccc6 89be ec85 5b3f
00000170: 65b6 6a3f 9379 e83e abd3 34bf 1f5b 0dbf
00000180: b06f 3d3f aec2 77bf 7d07 13bf c47d 4d3f
00000190: eaa3 ebbd 42be 7c3f bf4c 4d3f 014e 6cbe
000001a0: 9b9d 4dbd 3962 093e 969c 363f 6eba 063d
000001b0: 5f00 8a3e 4f4e 333f 04e5 073e a349 d8bf
000001c0: c857 b3bf 20f9 563e ebd4 103f e969 6fbd
000001d0: 047b e6bf 984a 7d3e a399 2dbe 93f2 e1bf
000001e0: 35ce d93c 0a24 f53f 0198 bc3f b18f e0be
000001f0: 3a73 9b3e 46ea 0e3f cf8b b13f c08c ce3e
00000200: 8237 283f 537c 903f 2576 4c3e 1f02 a7bd
00000210: 4154 853e 68cd 95be 328e c6be 8348 bebe
00000220: c5ca 71bd 3fe9 d6bd 5a8f 83bd ee03 b83d
00000230: 03d4 82bd 0117 07be 24b4 f03c 70ee 13be
00000240: 12de b4bd 0eeb c53c d129 313e 06ee 1c3e
00000250: 930f d4bc f7a3 153e 058d e9bd 8590 463e
00000260: 6a12 ec3d e597 9ebf d034 fb3e c11b 103f
00000270: a582 a0bb 39e9 283f 59cd 103f b2b5 25bd
00000280: a42d aebd f5cf dfbe c699 76bf 764e c7be
00000290: 8327 733f bbca 663e feae 94be 7fb1 5c3f
000002a0: d0e4 d63e 5085 d5be 8df7 943d 46d3 253e
000002b0: 0b25 943e cf93 2cbe 1d0d 90be 8ef7 7fbe
000002c0: b7c5 373f cde9 9cbe 9882 49bd 088f 0d3f
000002d0: a2d6 1f3e e2af 1abe 7e64 953e 3fb3 513f
000002e0: 25f8 b4be a2b6 ccbe 5bd5 37be 20f5 b4be
000002f0: a372 64be 62db 30be 4b5c eabe fc96 3ebe
00000300: b66a 6bbe a5ef 7ebe 714e ce3e 998a 0b3f
00000310: 2816 0f3e 41a4 133f 0ae3 d43e f19d 1ebe
00000320: c0cc eb3c e852 cc3d b025 12bc 5e2b 523e
00000330: a872 62be 4066 2dbd 2808 0c3d cc3f e33d
00000340: 01d8 4abe ce5f 253e 604c babc aa05 febd
00000350: c109 61be 5468 54be 0007 d43a 9ed5 47be
00000360: 6024 d23c f01b 7ebd cc78 51bd ef82 14be
00000370: 1875 f9bd 7cb7 bf3d 3603 b6bd de1f 16be
00000380: 394b 20be b4a1 2fbd 5079 063d 94c1 8e3d
00000390: 4b3c 0bbe 204f 2d3e 6944 46be 9024 893d
000003a0: 08c2 a1bc 28c4 353d 28c0 a03c 640d c03d
000003b0: eeba 41be c064 033d 90bf 5c3d 6024 2f3c
000003c0: beac 173e f07d e3bc 3478 2dbd c124 ddbd
000003d0: ec3b 71bd 5e3e 423e 7216 453e 4ce2 ce3d
000003e0: 4ced 5f3e 3ce8 913d 8004 30be 00c0 cbb7
000003f0: 34a0 52bd c0fa b3bd 9aa2 18be 18c0 d7bc
0.24654382 -0.68584365 -0.44977555 0.51138145 -0.49585775 -0.44027612 -0.27917206 -0.34896076
-0.581813 -0.22851513 0.45201522 -0.2527912 0.17179966 0.3544989 -0.28501838 -0.5069639
-0.16321303 -0.3995406 -0.5803306 -0.16308345 -0.1275388 -0.52356625 -0.33236334 0.06611195
-0.11303351 -0.2679253 0.25049543 -0.36166582 -0.3127392 0.06300498 -0.04928585 -0.8036738
-0.4890515 0.6801707 -0.26868713 -0.3706745 -0.63511 -0.098143965 -0.39271352 -0.5179854
0.25710678 -2.030407 -1.5455158 0.5040614 0.16558318 -0.12457388 -2.2939987 0.0530761
-0.12980528 -2.2749412 0.16913861 -0.2959155 -0.34324574 -0.4138762 0.1348741 0.4656842
-0.09013909 0.23615332 0.4054176 0.18072447 0.13524711 0.22001128 0.35587516 0.42373633
-0.42539603 -0.39376056 0.0019420215 -0.25428608 -0.34806752 -0.13772163 0.079563305 -0.34513593
-0.51089114 -1.122195 2.0047293 0.7405156 -0.50094455 1.8061091 0.91773486 -0.8249113
-0.2374947 0.673262 1.167519 0.2935386 -1.0742462 -0.37384528 0.88209647 -0.7076132
-0.56100315 0.73444295 -0.26909482 0.85751224 0.9168456 0.45405254 -0.7063548 -0.55217165
0.73998547 -0.9678143 -0.574333 0.8027003 -0.115058735 0.9872781 0.8019523 -0.23076631
-0.050199132 0.13416375 0.7133268 0.032892637 0.26953408 0.70041364 0.13270956 -1.6897472
-1.4011164 0.20993471 0.5657489 -0.058450613 -1.8006291 0.24735487 -0.16953139 -1.7652153
0.026587585 1.9151623 1.4733888 -0.43859628 0.30361348 0.5582622 1.3870791 0.4034176
0.657097 1.1287941 0.19966944 -0.081547014 0.26040843 -0.29258275 -0.3878036 -0.37164697
-0.059031267 -0.10493707 -0.064238265 0.089851245 -0.06388094 -0.13192369 0.029382773 -0.14446425
-0.08831419 0.024159934 0.17301108 0.15325174 -0.025886333 0.14613329 -0.114038505 0.19391067
0.1152695 -1.2390105 0.4906373 0.5629235 -0.0048983865 0.6598087 0.56563336 -0.04045648
-0.08504799 -0.43713346 -0.9632839 -0.38927048 0.94982165 0.22538273 -0.29039758 0.8620834
0.41971445 -0.41703272 0.07273779 0.16193876 0.28934512 -0.1685326 -0.28135005 -0.24996778
0.71786064 -0.30647126 -0.04919681 0.55296373 0.1560922 -0.15106156 0.29178232 0.8191413
-0.3534557 -0.39983088 -0.17952482 -0.35343266 -0.22309355 -0.17271188 -0.4577354 -0.18612283
-0.22989926 -0.24896105 0.4029422 0.5450836 0.13973296 0.57672507 0.41579467 -0.15489937
0.028784156 0.099767506 -0.008920118 0.20524356 -0.2211405 -0.04233384 0.034187466 0.11096153
-0.19808961 0.16149828 -0.022741497 -0.12403424 -0.21976377 -0.20742923 0.0016176403 -0.19515082
0.02565211 -0.062038362 -0.05114059 -0.14503072 -0.12180537 0.09361169 -0.08887331 -0.14660594
-0.15653695 -0.04287882 0.032830536 0.06970516 -0.13597219 0.16924715 -0.19362034 0.06696427
-0.019745842 0.044376522 0.019622877 0.09377554 -0.18918964 0.032078505 0.053893626 0.010689825
0.1481199 -0.027770013 -0.042350963 -0.10798026 -0.058895037 0.18969104 0.19246843 0.101017565
0.21867865 0.07124373 -0.17189217 -2.4288893e-05 -0.051422313 -0.08788061 -0.14905778 -0.026336715

lstm.weight_hh_l0 f4 [80, 20]
00000000: 46ec 08be be7b 24be 60c3 623d 884e 2d3e
00000010: 74f6 153e 76d8 b5bd 9af2 47be 6cb8 123e
00000020: f0a2 243e c91b d7bd dc0a bfbd f08a 23bd
00000030: 58ee 28be 2ed5 15be cb84 2bbe b686 5a3e
00000040: 20f4 203e 3274 91bd 08aa b4bc 2863 44be
00000050: 0a9b 19be 1669 8bbd 18ed 773d 5053 313e
00000060: b48d b83d cabd 5bbe e420 a53d b843 be3d
00000070: 001a ec3a 1604 30be c80e 1a3d 96ed 26be
00000080: 197f 18be 98e4 243d 60ff d3bc a8f9 b2bc
00000090: c7ae 11be 0c0d 85bd 98e2 223d 14a5 9fbd
000000a0: e4ba e43d 7651 623e 406f cd3d 50b7 c03c
000000b0: c811 0c3d 40a8 043d 7e23 553e bcf8 bd3d
000000c0: 7cce c73d 50f6 2e3e 0ad1 c5bd 2cf4 f0bd
000000d0: f04d edbc 58ef 203d 1814 9dbd 6a28 2a3e
000000e0: 8da7 55be 0071 5abe 40d3 41bd 6646 3c3e
000000f0: 5e3b afbd a630 433e 6809 1f3d a004 04be
00000100: d98c 58be 80d9 ae3d c81a f4bc a843 493e
00000110: c892 48be 82a5 14be 0090 1aba 2293 25be
00000120: 70fc f9bc ba8b 2c3e b8b9 06be 4029 e23d
00000130: f028 883c a0da c03d 700e 553d 9c9c cebd
00000140: a90c 0cbe 001d de3b 9cae 063e dce9 56bd
00000150: 6ec1 38be 70f3 513e 672b 50be 901b 263e
00000160: 7b92 00be f3fb 53be 30ac b1bc 9052 043e
00000170: 8e9b 09be 285b 5a3d 086e 0d3e 14c5 573e
00000180: e84f 36bd 8f76 51be fd20 d1bd 24cc c23d
00000190: 03a6 e3bd 7cf1 14bd e863 02be a880 033e
000001a0: f366 e8bd 9c17 ad3d e067 993b 2e7a 24be
000001b0: 9101 5bbe 7089 ecbc a0e9 e23d 9086 44be
000001c0: 1404 14bd 06f9 253e 20be a13d 2da0 e0bd
000001d0: 22a1 e4bd 26bb 1b3e b3f9 5abe 006b 0bbd
000001e0: b9b7 30be 1d6e edbd 5756 4ebe fc46 523e
000001f0: b0a8 103e 6a4d 633e 900e 84bd 206f 52bc
00000200: 3082 d23d 0615 293e e05f 2a3d 6086 dc3c
00000210: 6ed4 633e 74b7 ef3d d300 59be 5efe 3ebe
00000220: c0a9 493c 983c 71bd e81a 0dbe a0de 413e
00000230: fc0b db3d fc9c 4fbd 205b a4bc 768a 4bbe
00000240: 60ab 103d 8d07 00be d369 febd 30a2 0b3d
00000250: a4d2 56bd 1b06 59be d4eb 823d 8a3f 133e
00000260: 9839 703d 2e6e 3a3e 5c5f d43d 3249 0b3e
00000270: 8875 51be 68a0 3a3e 8d5f 56be 0cce b83d
00000280: 4044 c13c fc86 bbbd 7872 aebc 72f5 4cbe
00000290: 9240 2a3e 4ec7 323e b01c 003d b48d 05bd
000002a0: c808 713d 9223 5b3e 34ab babd b2cd 1abe
000002b0: cc35 4dbd 1066 2cbe e6b9 083e f49e 49be
000002c0: 58bb 493d d40e 9fbd f058 bfbc bc27 053e
000002d0: 70a0 e33d 0a96 ddbd 2054 a0bb 89af 3abe
000002e0: 5230 453e 4080 933b 1bfc debd 3df0 fdbd
000002f0: d4ab 52be 9a20 58be 782d 1e3e bc93 24be
00000300: 1228 29be 9e30 54be 385f 11be 38e8 6d3d
00000310: c049 b73d de74 9dbd 8817 e7bc d83a 3dbd
00000320: 7ca0 e03d 98c7 34bd d480 913d 10c4 8a3c
00000330: bc88 ed3d bab3 0abe a069 5f3e f07b fc3c
00000340: 26b6 533e ee59 243e 2ca1 1c3e 9cb1 283e
00000350: a22d 2bbe fcd4 b03d d8fa b8bc 866b 2a3e
00000360: d645 2e3e e4fa f73d 0cbd 843d 7807 083e
00000370: 2e69 403e f33e eebd ac1c 483e e7ac 5cbe
00000380: c21c 50be f428 ef3d 0860 223e 00f4 513e
00000390: 4a05 37be 15af dcbd c80f 03bd c4a3 503e
000003a0: dc35 c43d c06f 183e 7adc 99bd c0d4 afbd
000003b0: 2872 623e 2817 14be 88ae 513d 26db 0a3e
000003c0: 7eb2 153e 14d2 3cbe 70ed 7abc 449d 1dbe
000003d0: 8032 773d 7802 43be 5222 1bbe 200f 37bd
000003e0: cb9a 21be 2cf6 573e caba 023e 71af 30be
000003f0: 847a 10bd 8451 00bd 5cbd c43d c84b 273e
-0.13371381 -0.16062829 0.055362105 0.16924489 0.14644796 -0.08879177 -0.19526139 0.14328164
0.1607778 -0.105033465 -0.09328243 -0.039927423 -0.16497171 -0.14632103 -0.16749875 0.2134045
0.15718126 -0.071022406 -0.022053733 -0.1917845 -0.15000549 -0.06807153 0.060528845 0.17316937
0.09011403 -0.21459118 0.08062914 0.0929026 0.001801312 -0.17189059 0.037611753 -0.1630157
-0.14892234 0.040257066 -0.025878608 -0.021847561 -0.14226829 -0.06496629 0.039766878 -0.07795158
0.11168459 0.22101387 0.10030985 0.02352491 0.034196645 0.03238702 0.2081432 0.09275958
0.09756181 0.17086148 -0.09659012 -0.11765322 -0.028967828 0.039290756 -0.07669848 0.16616979
-0.20864697 -0.21332169 -0.047320604 0.1838623 -0.08556245 0.19061527 0.03882733 -0.1289239
-0.21147479 0.085375786 -0.029797927 0.19654715 -0.19587243 -0.14516261 -0.00058960915 -0.16169408
-0.03051588 0.16850176 -0.13156784 0.11043024 0.016621083 0.094166994 0.05201572 -0.100884646
-0.13676704 0.0067783594 0.13152546 -0.05246912 -0.18042538 0.2050302 -0.20329057 0.16221452
-0.12555878 -0.2070158 -0.02168855 0.1292212 -0.13438246 0.05330959 0.13811505 0.21071273
-0.0445098 -0.20455383 -0.1021137 0.09511593 -0.111156486 -0.03636311 -0.12733424 0.12842047
-0.11347761 0.08451769 0.0046815723 -0.16062233 -0.21387316 -0.028874129 0.11079717 -0.19191957
-0.0361367 0.16208276 0.078975916 -0.10968051 -0.11163546 0.1520811 -0.21384315 -0.03403759
-0.17257585 -0.11593268 -0.20150124 0.20534891 0.14126849 0.221975 -0.0644809 -0.012843877
0.102787375 0.16511926 0.04159534 0.026919544 0.22249004 0.11704913 -0.2119172 -0.18651721
0.012308538 -0.058895677 -0.13779795 0.18932581 0.10695645 -0.05068682 -0.020062983 -0.19877037
0.035319686 -0.1250288 -0.12422528 0.03409022 -0.052446976 -0.21193735 0.06392637 0.14379707
0.058648676 0.18206093 0.10369751 0.1360214 -0.20454991 0.18225253 -0.20934887 0.09023675
0.023592114 -0.091566056 -0.021294817 -0.20015505 0.16626194 0.17458841 0.03127736 -0.03260584
0.058846265 0.21400288 -0.09114686 -0.15117529 -0.050100133 -0.16835809 0.13352165 -0.19689542
0.04925093 -0.077665 -0.023357838 0.13003439 0.111145854 -0.10819633 -0.004892841 -0.18231024
0.19256714 0.0045013726 -0.10887929 -0.123993374 -0.2057336 -0.21106187 0.15447032 -0.16071981
-0.16519192 -0.20721671 -0.1419648 0.05808279 0.089496136 -0.07688306 -0.028209463 -0.046198696
0.1096811 -0.04413566 0.0710465 0.016939193 0.11598346 -0.13545123 0.21817636 0.030820817
0.20674953 0.1604993 0.15295857 0.16474003 -0.16716626 0.086343735 -0.02258055 0.1664258
0.17018828 0.121084005 0.0648137 0.13284099 0.18790123 -0.116331 0.19542187 -0.21550332
-0.2032347 0.11677733 0.15856946 0.20503235 -0.17873111 -0.10775582 -0.031997472 0.20374972
0.09580585 0.14886379 -0.07512756 -0.08585501 0.2211386 -0.14461958 0.051191837 0.13560161
0.1461887 -0.18439513 -0.015315399 -0.15392023 0.060350895 -0.1904391 -0.15149811 -0.04469216
-0.15781705 0.21090001 0.12766567 -0.17254426 -0.03527309 -0.03132774 0.0960643 0.16337502

lstm.bias_ih_l0 f4 [80]
00000000: 06b4 813f b747 a83f d2a0 9f3f dacb 913f
00000010: c7a2 96be 2b5c ac3f 4507 a63f f7a8 0e3e
00000020: ee12 603f 61b2 2e3f 5f0c a4be 8f6b 40bf
00000030: 9892 23bc 2af9 a43f bac5 993f 25de b03e
00000040: 43ed 8c3d ef22 893f ae23 913f c57f ac3f
00000050: e81b a4bc 4c40 1ebe d8ac 713d b610 643e
00000060: 5022 dc3d 3269 3fbe d4cd 55be b94d 59be
00000070: 60e0 193e 548c 19be e23b 8abd 3085 313d
00000080: 1aab 24be 1051 773c 41c4 59be f0ee 623c
00000090: 6ca8 e33d 3bcb 52be cc83 0f3e ee63 32be
000000a0: 5cd6 15bf a267 b43e 96ec 0a3f f4f1 393f
000000b0: 5b73 26be 6ed4 e4be c990 dd3c 1482 d2bd
000000c0: abef c73d d2de be3e 89e1 843e d304 443f
000000d0: 5202 d53d c866 523f 6fb0 c03e 74b4 73be
000000e0: f29b bbbd eb45 e5bc 9169 90be 9858 01bf
000000f0: ee80 643f 2227 953f 4a27 993f 491f 9b3f
00000100: 9893 d93d f996 c43f be64 843f 250b 8a3e
00000110: 0c06 d03e 66cf 673f 6b4a 6bbd b01c cfbe
00000120: 8d77 a53e 5e61 9d3f f3a4 bd3f 0049 1b3e
00000130: 5d54 083e eae8 7e3f ca2d 673f 9cc1 af3f
1.0133064 1.3146886 1.2470953 1.1390336 -0.29421064 1.3465627 1.2970968 0.13931642
0.87528884 0.68240935 -0.32040688 -0.7516412 -0.009983681 1.2888539 1.2013466 0.34544483
0.068811916 1.0713786 1.1339014 1.3476492 -0.020032838 -0.15454215 0.059002727 0.22272
0.10748732 -0.18692473 -0.20879298 -0.21221055 0.15026999 -0.14994937 -0.06749703 0.043339908
-0.16080895 0.01509501 -0.21266271 0.013850912 0.11116108 -0.20585339 0.1401512 -0.17420933
-0.5853021 0.35235316 0.5426725 0.72634816 -0.16254942 -0.4469332 0.027046578 -0.10278717
0.0976251 0.37279373 0.2595332 0.7656986 0.10400833 0.8218808 0.37634608 -0.23799306
-0.091606036 -0.027987441 -0.2820554 -0.5052581 0.8925923 1.1652567 1.1965115 1.2118922
0.106238544 1.5358573 1.0343244 0.26961628 0.40629613 0.9055084 -0.057444017 -0.40451574
0.32317773 1.2295339 1.4815964 0.15164566 0.13313432 0.9957415 0.90304244 1.373096

lstm.bias_hh_l0 f4 [80]
00000000: 38ea 923f ed36 823f d23f c13f ae6b 8c3f
00000010: 3111 ee3d 3926 c83f 96c0 873f 4075 9a3e
00000020: 5a93 503f 1974 123f 4a54 e1bd 2d6e 2fbf
00000030: b4e5 12be 12e4 833f b6bf 943f 6bb3 bf3e
00000040: eafa 2dbd 018f 963f c096 a23f cdff 8d3f
00000050: d0e5 28bc 5301 3dbe ca4c 163e d310 42be
00000060: 5ed6 bdbd 38b2 6c3d 302e 15be 805b a0bb
00000070: 00c6 4c3b 5cca 21be 5804 3dbe f085 e03d
00000080: e8e0 9d3d 2042 18be 802b d63b 547b 79bd
00000090: 4019 663b e2f4 383e 1845 d5bd 90f3 d93d
000000a0: c1e8 a0be 8aec 423e 385d 0a3f 80e8 1d3f
000000b0: b941 11bd dc70 edbe d9e5 8cbd db95 41be
000000c0: 86fe af3e 5e9e dd3e 0189 903e 3149 203f
000000d0: 17d8 943e 8527 ee3e 9294 1e3f 207b 19bf
000000e0: 44d6 a03e ff48 07be 6fb9 30be 0e7c f2be
000000f0: f31a 9b3f fb94 603f 2420 993f eb71 a23f
00000100: 483d b1bd 69c6 b63f 7424 563f 77da a63e
00000110: 822c e03e 7292 1a3f b180 06be a866 d0be
00000120: 10ef d63e 84b4 873f 99bf cb3f 7f9f f03e
00000130: 0892 f0bd 5ae4 593f 8ed8 0e3f 1abb 9f3f
1.1477728 1.0173012 1.5097601 1.0970361 0.11624373 1.5636665 1.0605648 0.3016758
0.8147484 0.572084 -0.11002405 -0.6852749 -0.14345437 1.0303977 1.1621006 0.37441573
-0.04247562 1.1762391 1.2702255 1.1093689 -0.010308698 -0.18457536 0.1467773 -0.1895173
-0.09269403 0.05778715 -0.145684 -0.00489372 0.0031245947 -0.1579985 -0.18458688 0.109630466
0.07708913 -0.14868975 0.0065359473 -0.06090863 0.0035110265 0.18062165 -0.10413569 0.10642159
-0.31427577 0.19035545 0.5404849 0.6168289 -0.03546307 -0.46375167 -0.068797775 -0.18904822
0.34373873 0.43284887 0.28229526 0.6261168 0.29071113 0.46514526 0.6194545 -0.599535
0.31413472 -0.1321144 -0.17258237 -0.4736027 1.2117599 0.87727326 1.1962934 1.2691015
-0.086542666 1.42793 0.83649373 0.3258855 0.43783957 0.6037971 -0.1313503 -0.4070332
0.41979265 1.0601964 1.5917846 0.46996686 -0.11746603 0.8511406 0.55799186 1.2478974

lstm.weight_ih_l1 f4 [80, 20]
00000000: 60c8 cfbf b7b4 ffbe ff68 40bf 668b 213f
00000010: 7ef7 b4bf ec8d 393f 1b6d 943e 48f2 a03f
00000020: 65d6 2a3e e121 18be 2f74 bdbd 64a1 f0bf
00000030: f711 323f cae9 37be 5c70 acbe e920 593f
00000040: 77c6 113f 8267 0640 5d9b 12bf ec84 07be
00000050: c548 e6be ff18 59be ff2c 8cbf 66e1 0d3e
00000060: 5564 983e 419d a03f 429a 103d 6b85 853f
00000070: 956b 1abe 97af 18bf 62b0 393e 884e c9bd
00000080: 0bf4 213d 7ee4 8d3f 3065 a9bf 4d87 c23f
00000090: 86f3 1c3c 806e 753e bebb dfbe b793 293e
000000a0: c4f2 edbe 9c63 c8be ce77 43bd 2ab1 7e3f
000000b0: a299 afbe 680f 4d3e 17ec d73e c431 8dbf
000000c0: cc89 df3e e4d4 e33e d033 1e3f b21a f8be
000000d0: 09d6 6abf 37c7 acbf feb0 55be 3193 15be
000000e0: d84f 3a3e da73 80be c32a 86bf 3616 95bf
000000f0: fd20 b73e e45e a43e 3f01 dfbd fc0c 163d
00000100: db13 66be 2705 1a3f 279b 86bf 8ee4 1bbf
00000110: 6797 90be 8fc8 8fbd 1ba2 86bf 276e 12bc
00000120: 7419 ac3e e855 0e3f 1cdf 86bf 61c7 a83f
00000130: 4777 f53e 9c15 1e3f 9ab0 833f 9379 1fbd
00000140: 2fe7 13be c32f 103e dcf0 2cbd 82d7 e7bd
00000150: 035a f5bd 1dff 4f3d 950a e3bb 1cb6 ffbd
00000160: 89bb 60be 38a7 163e 2492 30be e545 4ebe
00000170: 3a9f 2a3d 8120 ac3c 6989 1bbe c6bc 003e
00000180: cf60 2fbd 7bc7 93bd f4c1 02be 2687 de3d
00000190: 15d4 50bf b168 63bf ae18 b4bb 8ede 963f
000001a0: 3258 6fbf 278f 3c3e 8267 8f3f 1181 943c
000001b0: 405c b83f e5c4 9d3f 483f 113f 7cbe 40bf
000001c0: c564 c43e c76a 9abd bbfb 71be 0a41 073e
000001d0: ddf8 473f 34fb c8bd 1b1b b8bf a2f0 f9be
000001e0: a68e eebe 44d8 06bf adb5 8abf 849a 973f
000001f0: 7550 2cbe 7000 243e d078 eb3e f6a9 41bf
00000200: 921b 86bf 3859 98bf 31dc bb3c e503 92bd
00000210: 11ea d03d 1caa f73e 05c4 57bf 3d98 313f
00000220: ed5c f73e 99ee a63f f0c8 e53c d180 45bf
00000230: 0f86 383e af80 35be fa52 3cbe 99ac 1fbf
00000240: b932 353f 3cab f23d 9833 8dbe 4ea3 aa3f
00000250: ee10 573f 6e04 c73b b110 b93d 5370 5cbf
00000260: 41ce c03f f368 5c3d 91e2 b53d 4b12 fb3e
00000270: 3c2c cb3f 301c b23e 939e afbf 410e 58bb
00000280: 7f52 313f 0960 b6be fb3c cf3e 061b 71bf
00000290: 51eb 2c3f 47f5 29be 2454 513e 3dec da3f
000002a0: e856 553f eb2b 183f d0a3 2bbf f3f5 083f
000002b0: 3c4d b53f 6c33 65be 6afd a03d b364 813e
000002c0: 324b 1ebe b485 513e 2235 083d 32db 543f
000002d0: 7134 85be 67df 0a3d fc51 69bf a400 0e3f
000002e0: b094 d13e 669d 2c3f 8376 fcbd efb4 d43e
000002f0: f365 f3be fc84 26bf 870c d1be 3045 b23e
00000300: 9fcc d73e b675 a83f ab3d 80bf 7d11 2b3f
00000310: 11cd 4c3e f514 493f 538e 223f cc1c 283f
00000320: 5d16 04bf e264 6abf 31e9 983c ea9c 203f
00000330: 3791 37bf 8432 8bbd 4e69 2a3f dd57 9bbf
00000340: e638 c73e 405a 3b3f fc99 4a3f 9b22 06bf
00000350: 9eff a2bf 3fc4 31bf f2fb 563e 209f aebe
00000360: 8105 8b3e 5464 15bf 3910 c5be 2c6b adbe
00000370: 8c3b 1dbf 0270 64bf bb05 62be 8271 4f3f
00000380: 95fd 82bf ac41 2c3e 3401 7b3f 64b7 78bf
00000390: 95cc 9b3f d383 ad3f af75 313f 580d ffbe
000003a0: bedd 83be 12ab 58bd ce90 4ebe cfdf 68be
000003b0: c58f 803e 8a4b 493e c722 ccbf 7767 01bf
000003c0: acd5 823e b518 563e d5cc 7bbe 6a41 ed3d
000003d0: fc8b 363f e271 823f d19d 26be a9c3 ef3e
000003e0: 777d d03d 0f66 bfbe 092f 18be 7a5c 4f3f
000003f0: 4983 093e 46ed d63e a6c8 83bf 8c81 503f
-1.6233025 -0.49942562 -0.7516021 0.6310333 -1.4138029 0.7248218 0.2898949 1.2573938
0.16683348 -0.14856674 -0.09250676 -1.8799253 0.6955866 -0.17960277 -0.33679473 0.8481584
0.5694346 2.1000676 -0.57268316 -0.132343 -0.44977394 -0.21200942 -1.0951232 0.13855514
0.29764047 1.254799 0.03530336 1.0431341 -0.15080102 -0.5964293 0.18133691 -0.09829432
0.039539378 1.1085355 -1.3234005 1.519754 0.009579545 0.23967934 -0.43697923 0.16560255
-0.46474278 -0.39138496 -0.047721677 0.9948908 -0.342969 0.20025408 0.4217231 -1.1030812
0.43659818 0.4449836 0.6179781 -0.48457867 -0.9173284 -1.3498296 -0.20868298 -0.1460693
0.1819452 -0.25088388 -1.04818 -1.1647403 0.35767356 0.32103646 -0.108889095 0.036633477
-0.22468512 0.6016411 -1.0516099 -0.6089562 -0.2824051 -0.070206754 -1.0518221 -0.008937395
0.3361317 0.5559983 -1.0536838 1.3185846 0.47942564 0.61751723 1.028827 -0.0389343
-0.14443658 0.1408072 -0.04222189 -0.11320402 -0.11980059 0.050780404 -0.0069287517 -0.124859065
-0.21946539 0.14712226 -0.17243248 -0.2014385 0.041655757 0.021011593 -0.15189137 0.12572011
-0.042816933 -0.07215782 -0.127693 0.10865621 -0.8157361 -0.8883162 -0.005496106 1.1786668
-0.9349395 0.18413983 1.1203463 0.01812795 1.4403152 1.2325712 0.56737185 -0.75290656
0.3835813 -0.075398974 -0.23631184 0.13208404 0.7811411 -0.09813538 -1.4383272 -0.488164
-0.46593207 -0.52673745 -1.0836693 1.184403 -0.16827567 0.16015792 0.4599061 -0.75649965
-1.0477164 -1.1902227 0.022932144 -0.07129649 0.102008946 0.4837197 -0.8428348 0.6937292
0.48313084 1.3041564 0.028049916 -0.77149683 0.1801989 -0.1772487 -0.18391028 -0.6237274
0.7078052 0.118490666 -0.27578425 1.3331087 0.8401021 0.006073526 0.09036387 -0.86108893
1.5062944 0.053811025 0.08881105 0.49037394 1.5872874 0.3478713 -1.3720268 -0.003296748
0.69266504 -0.35620144 0.40476212 -0.9418186 0.67546564 -0.16597472 0.20442253 1.7103344
0.83335733 0.59442014 -0.67046833 0.5350029 1.4164195 -0.22382897 0.07860835 0.2527214
-0.15458372 0.2046116 0.033253796 0.83146966 -0.26016572 0.03390446 -0.91140723 0.5546973
0.40933752 0.6742767 -0.12327292 0.4154429 -0.4753872 -0.6504667 -0.4082987 0.3481841
0.421483 1.3160923 -1.001882 0.6682356 0.20000102 0.785476 0.6349842 0.6566894
-0.51596624 -0.91560185 0.018665882 0.6273943 -0.71705955 -0.067967445 0.6656693 -1.2136189
0.38910598 0.73184586 0.7914121 -0.52396554 -1.2734258 -0.6944007 0.20994547 -0.34105778
0.27152637 -0.58356214 -0.3848894 -0.33870828 -0.61418986 -0.8923341 -0.22072499 0.81032574
-1.0233637 0.16821927 0.9804871 -0.9715483 1.2171808 1.3555855 0.69320196 -0.49814868
-0.25755113 -0.05289752 -0.20172426 -0.22741626 0.25109687 0.19657722 -1.5948113 -0.505485
0.25553644 0.20907862 -0.24589856 0.11584742 0.7130735 1.0191004 -0.1627114 0.46828964
0.101801805 -0.37382552 -0.14861692 0.81000483 0.13428988 0.419779 -1.0295608 0.8144767

lstm.weight_hh_l1 f4 [80, 20]
00000000: 5007 dfbc 873b 5dbe b1b3 f1bd 106b 3dbd
00000010: be10 bfbd dac9 febd c42d ed3d fa97 473e
00000020: 2609 553e 2896 5e3d fc3c 5bbe b20c 2a3e
00000030: 5822 dd3d d86e 8dbd bc57 a8bd aa52 013e
00000040: 308b 83bc c881 423d e841 85bc d873 28be
00000050: 4191 30be 4052 dc3d 4ade bbbd 803d ea3d
00000060: 70da 2cbe 5a6e 4fbe 9064 103c 0266 503e
00000070: 40ea 13be 40d9 1b3d d4f9 55be 0b29 3abe
00000080: 987b 48bd fc98 1dbd f0b2 f53d 5763 63be
00000090: 6165 edbd 758f edbd c8fc 9fbd 68fe 4d3e
000000a0: e820 4ebe 492d 04be 4075 ae3b 841a abbd
000000b0: 13af d0bd 008e aebb ece7 1fbd 68d2 543d
000000c0: f04a f23c 342a e03d 1eff 15be d2cf acbd
000000d0: 3009 273d 5a69 e8bd 089f a5bc dc88 04be
000000e0: 745d debd a4b7 453e 5a42 01be bc3d 543e
000000f0: 04cd ac3d 3a6b acbd 8fed ffbd 700c 803d
00000100: c0d9 763c b8d9 d33c 8987 1abe 7432 083e
00000110: c022 b5bd 9a72 0bbe a148 27be b288 48be
00000120: b5b0 29be 1894 3cbd 8333 3abe 2813 48be
00000130: f06d 143e fe5c 103e 50cb 13be 22ee f7bd
00000140: 5009 3f3e 5881 dfbd 9478 89bd bea8 003e
00000150: 809e 723d e7e1 17be 64e6 f73d 10a8 073c
00000160: ac74 aabd de17 5dbe ebbf 33be 709b 973c
00000170: 371b 3abe 547f 4bbd cdaa dabd f071 113e
00000180: e4a4 d3bd 70ac b63d 38e4 893d 7407 5cbd
00000190: cacf 24be 9612 a0bd c0c6 64bc 80fd 2a3c
000001a0: 82ba 21be dd8a 3abe 6c06 3fbe b3db 2fbe
000001b0: e8df fcbc 2828 63be 5430 cd3d 7c45 b03d
000001c0: f8e5 a5bc 5c86 db3d 60e6 f23d 8024 063c
000001d0: 70dc 313e 1c8f 67bd 8c4b 72bd 38ec ec3d
000001e0: 78a7 8abc 4265 5b3e bacf 253e 60ec f1bd
000001f0: 4a4a 043e e031 bc3c 52aa 5e3e b266 173e
00000200: 122d cebd 0ab2 613e 02d9 253e c028 6b3b
00000210: 5c57 1cbd d323 d9bd dcb3 46bd e09c 2b3d
00000220: c14b f0bd 486d 5c3d e837 f8bc 1d79 63be
00000230: 6b32 4bbe 9cdc 133e 8828 d8bc a443 513e
00000240: 5a44 4f3e 1c81 363e cc0d 34be 28f8 e53d
00000250: 40a6 8cbb 101c 0abd 845b 1cbe 4b7f 46be
00000260: e012 aa3b e01b d93b fe2e 543e 468a 3ebe
00000270: ad51 f6bd 1036 643d 3ca2 4e3e d18b e0bd
00000280: 4077 5cbd 9662 213e 606e 173e 703a 633e
00000290: ea42 0a3e 5470 f2bd 2e7d 2f3e 604b 23bc
000002a0: c9ec 4ebe ecf4 5e3e 7f39 53be d882 573d
000002b0: 0071 1aba 2c7d 583e 640b 403e a4ad 523e
000002c0: eeaf 1a3e 3800 be3d 1860 053e 8a2e 44be
000002d0: e454 4e3e 46d6 5d3e 1882 563d 36b5 0dbe
000002e0: 862c 8fbd 96f4 57be 9435 44bd 04af 8c3d
000002f0: 2250 adbd 9819 da3d 4881 20be ba61 07be
00000300: 8cc9 20be 20a1 443c 62fd f8bd 600f 033e
00000310: 6fb1 4cbe d64f 083e 5cb4 34bd 9852 11be
00000320: 161d 373e 74b0 28bd 24f5 3abe 1af6 273e
00000330: 0c57 2fbd 607b f6bb f200 13be c063 3e3d
00000340: 863a 103e b491 843d 9ce1 22be 105f b0bc
00000350: 209f b93b 6410 a33d c8ce 4a3d 3afc adbd
00000360: 7238 fcbd 1019 ee3c 8882 91bd e80e cbbd
00000370: d0a3 783d 48bd 493d 44bc d23d 9c72 fabd
00000380: 27d1 29be 2078 413d 18e5 1c3d e0f7 173d
00000390: 140f 30be f83e 203e 7ebe 4a3e 6c34 08be
000003a0: 40b0 a53b 22da 283e 904b 083d 6a3c d6bd
000003b0: 0c0f 22bd e290 193e be0a 343e 9cc6 213e
000003c0: 0edf 1bbe 84cc ce3d f0cc 4bbc ebbc 55be
000003d0: 0478 963d 2689 06be 80ab f7ba 6a40 b7bd
000003e0: fc5e fc3d 884b 56be f8e7 1abd d425 823d
000003f0: 503b a13c 482c a03d 2272 593e 50b1 7e3d
-0.027225167 -0.21604739 -0.118018515 -0.04624468 -0.09329365 -0.12440844 0.11580995 0.19491568
0.20804271 0.05434242 -0.21409982 0.16606405 0.10797566 -0.069059074 -0.08219859 0.1262919
-0.01605758 0.04748705 -0.016266778 -0.16450441 -0.1724291 0.107578754 -0.09173258 0.114375114
-0.16880202 -0.2025694 0.0088130385 0.20351413 -0.14444828 0.038048983 -0.20896083 -0.18179719
-0.048945993 -0.038475975 0.1199702 -0.22205864 -0.11591602 -0.11599628 -0.07811886 0.2011658
-0.2012974 -0.129079 0.005324036 -0.08354667 -0.10189643 -0.0053269863 -0.039039537 0.05195847
0.029576749 0.109455496 -0.146481 -0.08438076 0.040780246 -0.11348219 -0.020217434 -0.12942833
-0.108576685 0.19308335 -0.12622967 0.20726675 0.08437541 -0.08418889 -0.124964826 0.06252372
0.015066564 0.025860652 -0.15090765 0.13300496 -0.08844519 -0.13617936 -0.163363 -0.19583395
-0.16571315 -0.04603967 -0.18183713 -0.19538558 0.14495063 0.14097974 -0.14433026 -0.12105967
0.18655896 -0.10913342 -0.067124516 0.1256437 0.05923319 -0.14832269 0.121044904 0.008279815
-0.08323035 -0.21591136 -0.1755368 0.018506736 -0.18174444 -0.049681976 -0.10677109 0.1420362
-0.10334185 0.089196086 0.067329824 -0.053718045 -0.1609489 -0.07816045 -0.013963401 0.010436416
-0.15793803 -0.18217035 -0.18654794 -0.17173652 -0.030868486 -0.22183287 0.100189835 0.08607003
-0.02025126 0.107189864 0.11860347 0.008187413 0.17369246 -0.056532964 -0.05915408 0.11568493
-0.016925558 0.21425346 0.16192523 -0.11812663 0.12918964 0.022973001 0.2174466 0.14785269
-0.1006719 0.22040573 0.16196063 0.0035882443 -0.03816925 -0.10602536 -0.04851137 0.041897655
-0.11733199 0.053815156 -0.030300096 -0.2221417 -0.19843452 0.14439625 -0.026386514 0.20435959
0.20240918 0.17822689 -0.17583388 0.11228973 -0.0042922795 -0.03371817 -0.15269285 -0.19384496
0.0051902384 0.0066256374 0.20721051 -0.18607435 -0.12027297 0.05571562 0.20179075 -0.10964168
-0.053824663 0.15760264 0.14788198 0.22190261 0.13502088 -0.11837831 0.17137596 -0.009966701
-0.20207514 0.21773118 -0.20627402 0.052615017 -0.0005891472 0.211415 0.18754345 0.20574051
0.15106174 0.092773855 0.13024938 -0.19158378 0.2014957 0.2166377 0.05237016 -0.13838658
-0.06990914 -0.21089396 -0.04790266 0.06869319 -0.0846255 0.10649413 -0.15674317 -0.13220873
-0.15701884 0.012001306 -0.12157704 0.12798834 -0.1998956 0.13311705 -0.044117317 -0.14191663
0.17882189 -0.041183904 -0.18257576 0.16402474 -0.042807624 -0.0075220317 -0.1435583 0.046481848
0.14084825 0.06473103 -0.15906376 -0.021529704 0.005664721 0.07962111 0.04951361 -0.08495374
-0.123154536 0.029064685 -0.07104975 -0.099149525 0.0607031 0.04925278 0.10289815 -0.12228891
-0.16583692 0.0472337 0.03830442 0.037101626 -0.17193252 0.1564902 0.1979923 -0.13301247
0.005056411 0.16489461 0.033275187 -0.10460742 -0.03956513 0.14996675 0.17582223 0.1579842
-0.15221807 0.10097602 -0.012438998 -0.20872848 0.0734711 -0.13138255 -0.0018895715 -0.08947833
0.12322804 -0.2092725 -0.03781888 0.063548714 0.019681603 0.07820946 0.21234944 0.062180817

lstm.bias_ih_l1 f4 [80]
00000000: b03e 7c3c 3dce 103e e9ca 34be 3a73 cc3e
00000010: c6d7 823c 2b65 863d e969 d13e f624 8abd
00000020: 45c9 06bd ac16 4f3f 3fcb ddbd 23a7 893e
00000030: 695c 503f 61c9 c83e d178 0a3f 7af2 6c3d
00000040: c2d1 4e3e ab15 973e a43a 3a3e aac1 31be
00000050: ba9e 03be 6667 233e 5c10 01be 961f 4fbe
00000060: 9cfb 363e 3015 df3d b058 503d 0be8 12be
00000070: d45e 37be 8836 d33d a0bb 34bc f895 17be
00000080: 627f 313e 1c10 5cbd c847 18be 783f 52be
00000090: d451 aa3d fb41 2abe 70ea 55be d6bc 22be
000000a0: 886b 4e3e 8e01 5dbe 0a42 4d3e cc57 8cbd
000000b0: 9464 91bd 1806 2c3f 966d 2a3e 2f04 ec3e
000000c0: 5dd8 8e3e 8567 8b3e ab5d 853e 59be 023f
000000d0: 453d 03bf bb20 413e 1e5d ea3e a3e5 013f
000000e0: e382 fd3e 86a9 1abf 64a3 2f3d 7acf a73e
000000f0: bccf 543e c558 c53e 23a4 03be 25c2 913f
00000100: 637c ddbb 9510 d43d 6bb9 8bbe 133a 0f3f
00000110: 3249 3e3e 9d80 043f 399d cfbe 689d 823e
00000120: 099f 5e3f 7c26 d93e 0e91 133e 6f46 bebb
00000130: 259e 0e3f 8d24 eb3e dbf7 bebe e983 f7be
0.015395805 0.14141174 -0.17655529 0.3993166 0.01597203 0.06562265 0.40901116 -0.06745331
-0.03290679 0.8089397 -0.10829782 0.26885328 0.81391007 0.3921614 0.540906 0.05784843
0.20197204 0.2950872 0.18186432 -0.17359033 -0.12853518 0.15957412 -0.12603897 -0.20226893
0.17869419 0.10892713 0.05086583 -0.1434633 -0.17907268 0.103131354 -0.011031061 -0.14803302
0.17333749 -0.0537263 -0.14871132 -0.20532024 0.08316389 -0.16626732 -0.20890212 -0.15892348
0.20158207 -0.21582624 0.20044723 -0.068526834 -0.07099262 0.671968 0.16643366 0.46096942
0.27899447 0.27227417 0.26048025 0.510717 -0.51265365 0.18860142 0.45774168 0.5074102
0.4951392 -0.6041492 0.04288043 0.3277548 0.2078237 0.38544288 -0.12855582 1.1387373
-0.006759213 0.10354725 -0.272899 0.5594799 0.1858261 0.5175875 -0.4054964 0.25510716
0.8696142 0.42412174 0.14410803 -0.005806736 0.5571006 0.45926324 -0.37298474 -0.48342827

lstm.bias_hh_l1 f4 [80]
00000000: 6655 fabb c1da a93e c630 83be a595 183f
00000010: 1842 1fbe 2f9b 3f3e ef8e 0e3c 7e60 ba3d
00000020: 0b71 983d 04d4 693f 6e66 393b 0024 2c3f
00000030: b50f 473f 490b c13e bf56 e03e 1e52 603d
00000040: 9ade 063f 79fc 8a3e 364e ed3d 7028 59be
00000050: ec24 70bd 6287 0e3e b239 3dbe 570c d5bd
00000060: e1d4 14be 3f5c 3cbe 4189 35be 6ab8 393e
00000070: 43b8 54be 1274 33be f29e 423e a4a4 543e
00000080: 0489 02be a264 113e 88bc 8ebc d4e5 85bd
00000090: ff2c ebbd b41b 2fbe 0637 283e c430 3e3e
000000a0: 9dd8 bb3e 3cba e3bb fedd b23e 2f7c e93d
000000b0: c6e1 b4be 341a 313f 3241 463d d242 e13e
000000c0: a90b 123e 9262 2bbc 99cb af3e aab8 7e3e
000000d0: c795 27bf 4cc0 193d 0083 113f dd1c b33e
000000e0: b27e db3e d608 13bf d2ad 923d e02f d83d
000000f0: 1130 d03e db68 9c3e 514f 153e 1919 833f
00000100: 3b1e 103e 10a7 37be dab2 31be 654e 243f
00000110: 142d 93bd 0406 163f e13f 5fbe fdec 7b3e
00000120: b324 2b3f a908 c63d a9e9 db3d 2476 07be
00000130: 40cd f23e 5363 0b3f 513d 1dbe 42fc 98be
-0.007639575 0.33174708 -0.2562315 0.5960334 -0.15552557 0.18711542 0.00870107 0.09100436
0.07443436 0.91339135 0.0028289813 0.6724243 0.7775834 0.37703922 0.43816182 0.054765813
0.52683413 0.27145746 0.11587183 -0.21206832 -0.05862896 0.13918832 -0.1847904 -0.10402744
-0.14534332 -0.18394564 -0.1772814 0.18136755 -0.20773415 -0.17524746 0.19005945 0.2076593
-0.1274758 0.14198545 -0.017423883 -0.06537977 -0.11483192 -0.17100412 0.1642724 0.1857329
0.366887 -0.006949691 0.34934992 0.11400639 -0.353285 0.6918061 0.04840202 0.43996292
0.1426226 -0.010460513 0.3433502 0.24875131 -0.6546292 0.037536904 0.56840515 0.34982958
0.42870098 -0.5743536 0.0716206 0.105560064 0.40661672 0.30548748 0.14581038 1.0242034
0.14074032 -0.17934823 -0.17353383 0.6418212 -0.07186332 0.5860293 -0.21801712 0.24602123
0.66852874 0.096696205 0.107379265 -0.13228661 0.47422218 0.5444843 -0.15355422 -0.29879957

linear.weight f4 [6, 20]
00000000: 4495 903e 70d3 203e ecf7 993e 1fb4 27bf
00000010: 9c8e 15bd 6934 ab3f 2ceb f93a 50f3 ae3f
00000020: cd86 72bf 62b5 16be a953 883f db6d ae3f
00000030: 1656 73be 224d 08bf fce7 1b3e bcd3 a9be
00000040: 929a 30bf b701 12bf 56fe a13e e424 683f
00000050: 64fe 903f 0b04 223f 1683 593e 454f 2fbf
00000060: de5e 6ebe a9cd ce3f 7f5d 263f 973e 1040
00000070: 8e48 babf f8a1 103f 014f 373f d0cb ab3f
00000080: 036d 1bbe 203f 9bbf 1e65 68be bedf 15bf
00000090: 79b9 55bf d877 44bf 403b 623e 672c 0e3f
000000a0: d334 093f 28b8 833f 1ddb 0bc0 2f0c 4a3d
000000b0: 0d07 ce3d 6582 debd b4e9 f03f 216a cc3d
000000c0: 13c3 86be df12 2c40 e5fb d8bf b21b 01bf
000000d0: 87c8 3d3f d436 06bf 1006 3bc0 6f44 0cc0
000000e0: a938 80be 78a5 633d e074 e7bf 6ace b3bf
000000f0: 87c4 dfbe de11 b2be ac64 a23d 6dc0 c9bc
00000100: f471 2fbd 3218 d5bc 0799 51bf 2397 f5bd
00000110: 8ba4 aa3d 0025 54bf 0821 043e 66d6 1f3b
00000120: 3eb4 d3bd 5ab7 fd3d 37b8 9d3e 8324 cf3e
00000130: e090 283d 3fd9 59bd 4ac5 1b3e 9f6e 1e3d
00000140: 75d1 85be 9856 29bf dadc 713e 57f4 71be
00000150: 781b 073e e01d 8c3d 252b 94bf c872 64bd
00000160: 21e2 8cbd 4dcd b6bf 401f 513e 8094 c43c
00000170: 5e8e 75bf fba6 173e 70ca 263f 04d5 093e
00000180: 59b9 e03d af27 9fbe 50e1 913e 5c36 c93d
00000190: 0558 d13e 476c 913e 200a 103d 3ea9 9dbf
000001a0: 5c6b dd3d 6c69 013f 043d 193e 9193 4d3f
000001b0: 574a 49bf ea6c f8bd 6243 413b c302 863e
000001c0: 18fb c9be c580 e2be d81b dbbd d570 71be
000001d0: fb67 e3be d9e5 03bf 67b7 9c3d 9f1a 603d
0.2823888 0.15705657 0.30071962 -0.6550922 -0.036512956 1.3375369 0.0019067279 1.3668003
-0.9473694 -0.1471763 1.0650531 1.3627275 -0.23763308 -0.53242695 0.15225214 -0.33169353
-0.68985856 -0.57033867 0.31639355 0.9068129 1.1327634 0.6328742 0.21241412 -0.6848033
-0.23278376 1.6156512 0.64986414 2.2538202 -1.4553392 0.56497145 0.71604925 1.3421574
-0.15178303 -1.2128639 -0.22694823 -0.5854453 -0.83486134 -0.7674537 0.22092915 0.555365
0.5359623 1.0290575 -2.1852486 0.049328025 0.100599386 -0.108647145 1.882132 0.0998118
-0.26320705 2.6886518 -1.6951872 -0.50432885 0.74134105 -0.5242741 -2.922245 -2.1916769
-0.25043228 0.055577725 -1.8082542 -1.4047368 -0.43704626 -0.34779257 0.07929358 -0.024627889
-0.042833284 -0.026012514 -0.81874126 -0.11991718 0.08332165 -0.8286896 0.12903225 0.0024389266
-0.10337113 0.12388487 0.30804607 0.40457544 0.04115379 -0.053185698 0.15211979 0.038679715
-0.26136366 -0.66147757 0.23619404 -0.23628365 0.13194072 0.06841636 -1.1575667 -0.055773526
-0.06879068 -1.4281403 0.20422077 0.023996592 -0.9592036 0.14809792 0.65152645 0.13460165
0.10972852 -0.31084964 0.28492212 0.09824821 0.40887466 0.28402922 0.035165906 -1.2317274
0.10811493 0.50551486 0.14964682 0.80303293 -0.7862906 -0.12130149 0.0029489626 0.26173982
-0.39449382 -0.44238868 -0.1069867 -0.23578198 -0.44415268 -0.51522595 0.07652169 0.054712888

linear.bias f4 [6]
00000000: 08b9 4b3d b0b9 b93e 6bbb 44bf f3e7 8e3e
00000010: 1b32 c23e 9990 693e
0.049737006 0.3627448 -0.7684848 0.27911338 0.37928852 0.22809066
