models/352/state_dict.pt (torch_old, 25727 bytes, 10 tensors)

lstm.weight_ih_l0 f4 [80, 10]
00000000: 1267 153e 3825 ba3e b4c2 4d3f 2798 e33e
00000010: 492d aebf f988 d23d 880e a2bf 9687 8dbf
00000020: e0b8 1dbe 8266 96bf 745a 473e 6b31 abbe
00000030: 8f5b 8fbe 4591 19bf 8585 1fbc 2c07 93bc
00000040: c6a0 ec3d 64f7 923e e255 453e d260 483e
00000050: 622d c9be 481a 923f 7567 963e da7f 953f
00000060: 9988 af3d a659 803f db86 60bd ff02 0e3e
00000070: 96d6 773f d7cf 9c3e 06dd e43e 033a 63bf
00000080: ce6a 19bf 2c08 42bf 09c8 d03e 38f9 67bf
00000090: 95a7 753e 9851 743e f8a6 68bf d531 ba3e
000000a0: 2ff4 babd 5887 cb3e 6264 b0bf 5ece 483e
000000b0: e687 103f e9e7 d73d 6ed4 063f e9a6 2c3f
000000c0: 58b8 233e 6bb7 f03e 557f 153f 1b13 463d
000000d0: 72a4 8cbe 7436 c03e 3dd6 013f 5cb3 003f
000000e0: a71a 3e3e 85e8 ad3e 3e98 593e 0f06 c53e
000000f0: 076f 1cbe ab81 573f 7f27 983f fd02 4c3f
00000100: 994e 34be dd1b 4d3f 6699 d7be 8e08 4abe
00000110: 0487 4d3f 0861 f8be 618b aabd 0cb9 74bf
00000120: d9be ae3e 71fc 5bbf 57f8 d33e bfe3 2fbf
00000130: 94b2 b43e c2f8 1e3f b17a 53bf a76c 803d
00000140: 62e5 89bd c0d5 d7be 8629 90bf a596 1bbf
00000150: 264c 0e3f fa38 d4be 96e8 d73e 1551 ca3e
00000160: 7235 abbe 6796 d33e 44b2 773a 48ac 75bf
00000170: 58a7 11bf b085 4ebf 54e5 683f ecf5 0dbf
00000180: 7719 123f 1e5b 2d3f 14e6 01bf 8403 193f
00000190: ae8a 8dbe f68b db3e 613d 91bf 4bf6 97bc
000001a0: 4f3e b73e 0c66 053f 3767 153f 96a3 f73e
000001b0: d393 9b3e e80e 043f 2309 793e d324 95be
000001c0: 170a 40bf e2bf 2bbe 65ec 583f 8647 08be
000001d0: 26a5 f43e e79c fa3e 6ba6 e5be 5c38 4c3f
000001e0: c8b7 0dbe abb6 9a3e c5ae 96bf f619 9c3e
000001f0: 3cd6 183f 9475 0e3f 2235 8b3e ac14 863e
00000200: 2ff4 463f 349b e13e 916e d5bb c0f3 133f
00000210: c6f9 88bf dd04 473f 87f8 073f 5a7c 4f3f
00000220: e8d1 0f3f f9bf 6c3f 6b6f c73e bfb2 5e3f
00000230: e7de 673d e5db ecbe afa7 27be ae3c 1ebf
00000240: f7b1 333f cb6a f1be 4373 fe3e 4893 293f
00000250: e0d2 bdbe a285 fa3e 200d 1b3c 93a4 8dbb
00000260: a953 71bf c003 193e 1f2a 913f 7e92 89bd
00000270: 0708 8d3f 41be a73f 48c4 b1bd 4363 b23f
00000280: afc1 0abe 0120 33bf 6f45 07bf 014c 1abf
00000290: 78af b13e bc7c 6abf 6d0a 743e e603 d93e
000002a0: 9a22 85bf dd98 933e 5f4d 86be c1d0 38bd
000002b0: e9cb 51bf b6a0 b8be eab0 113f 7776 ddbc
000002c0: 3bc4 143f 93ab 173f b0d7 463e 0ed3 c93e
000002d0: bb2a 8ebd 0440 cabe dd0c 05bf d0a1 f6be
000002e0: fb9c c3bc faa5 0ebf 46af 1b3e fe14 21be
000002f0: 4f9a 26bf 8405 d93c 9be5 8abe 345e 05bf
00000300: 8d2d 053f d92d b0be 71ab b73e 4f0b b63c
00000310: 2968 be3e 0525 463e 5f09 31be 40c4 033f
00000320: 851a 2dbe 7428 593e 0205 4a3e 64f1 0cbd
00000330: c062 fb3c fc55 2a3e 2672 063e cad9 0ebe
00000340: 3c2b a4bd bc64 71bd 7fba 3fbe a8a0 393d
00000350: 171a cdbd 680f 433d c5d3 42be 084b 503e
00000360: 18ff b53d 70dd f23d 7c65 593e 50f1 0cbc
00000370: 9edd 32be 54f0 883d 60cb bb3d 3c49 4cbd
00000380: e4a4 96bd a09e 283c 0cb5 293e f8e6 9b3d
00000390: 746d 893d c04a d73d 6abe 9ebd cd96 f0bd
000003a0: 089a 70bd 0980 47be 3488 983d dc32 443e
000003b0: d9ac 15be c8e7 86bc b4a8 4dbe c0fc 64bd
000003c0: 5e18 48be 7a1f 2f3e 9bc1 35be 2a36 093e
000003d0: 45d0 f2bd 407e 8a3d 3c45 eb3d 22df 643e
000003e0: 2861 8fbc 8889 fd3d fc8d 52bd fa3f 97bd
000003f0: e0dc 2cbd dcf6 613e 70c5 983c 1acb 81bd
0.145901 0.3635652 0.8037522 0.4445202 -1.360757 0.10280032 -1.2660685 -1.1057003
-0.15402555 -1.1750033 0.19468099 -0.3343614 -0.2799954 -0.5998729 -0.009736423 -0.017947756
0.115541026 0.2870437 0.19271043 0.19568184 -0.39292437 1.141427 0.29375806 1.1679642
0.08570976 1.0027359 -0.05481611 0.1386833 0.9681181 0.3062732 0.44699878 -0.88760394
-0.59928596 -0.7579372 0.40777615 -0.9061465 0.23989709 0.2385925 -0.90879774 0.36366144
-0.091286056 0.39751697 -1.3780634 0.19609973 0.56457365 0.1054228 0.5266789 0.67442185
0.1598829 0.47014937 0.5839742 0.048358064 -0.27469212 0.37541544 0.50717527 0.5027368
0.18564855 0.3396646 0.21249482 0.38481185 -0.15276729 0.8418223 1.1887053 0.7969206
-0.17608108 0.8012064 -0.4210922 -0.19729826 0.8028414 -0.4851153 -0.08327366 -0.9559486
0.3412998 -0.8593207 0.41400406 -0.6870689 0.35292494 0.62098324 -0.8260909 0.06270724
-0.067332044 -0.42155266 -1.1262672 -0.6077674 0.55584943 -0.4144972 0.42169636 0.39514986
-0.33439213 0.41325685 0.0009448866 -0.95966005 -0.5689597 -0.8067274 0.90974927 -0.5545337
0.57070106 0.6771716 -0.50741696 0.5977099 -0.27644867 0.4288022 -1.1346856 -0.018550059
0.35789725 0.52108836 0.5836062 0.48366994 0.30386218 0.51585245 0.24319892 -0.29129657
-0.75015396 -0.16772416 0.8473571 -0.13308534 0.47782248 0.48947832 -0.4485353 0.797735
-0.13839638 0.3021749 -1.1772085 0.30488557 0.59701896 0.5564816 0.27188975 0.26187646
0.77716345 0.44063723 -0.0065134247 0.5779381 -1.0701225 0.77741796 0.531136 0.8104912
0.56179667 0.9248043 0.38952193 0.86991495 0.05660906 -0.46261516 -0.1637256 -0.6181134
0.7019343 -0.4715179 0.49697313 0.6624036 -0.37074947 0.4893008 0.009463578 -0.0043225973
-0.9426828 0.14942837 1.1340979 -0.06717394 1.1018075 1.3104936 -0.08680016 1.3936542
-0.13550447 -0.6997071 -0.5284032 -0.6027222 0.34704185 -0.9159658 0.23832102 0.42385787
-1.0401185 0.28827563 -0.26230904 -0.04512096 -0.8195177 -0.36060113 0.56910574 -0.027034028
0.58111924 0.59246176 0.19418216 0.39418834 -0.06941744 -0.39501965 -0.5197275 -0.48170328
-0.023878565 -0.5572201 0.1520358 -0.15730664 -0.65079206 0.026491888 -0.271283 -0.5209687
0.5202263 -0.3440998 0.35872987 0.02222219 0.37188843 0.1935006 -0.17288731 0.5147133
-0.16904648 0.21206838 0.19728473 -0.034409896 0.030686736 0.16634363 0.13129482 -0.13950267
-0.08016059 -0.05893396 -0.18723486 0.04531923 -0.10014742 0.047622114 -0.19026096 0.20341122
0.08886546 0.11858642 0.2123012 -0.008602455 -0.17467353 0.06686464 0.0916965 -0.04987453
-0.07355669 0.010291725 0.1657297 0.07612413 0.0671033 0.10512304 -0.07751162 -0.11747513
-0.058740646 -0.19482435 0.07447854 0.19160026 -0.14616717 -0.016467944 -0.20083886 -0.055905104
-0.19540545 0.17101851 -0.17749636 0.13399568 -0.118561305 0.067623615 0.11487815 0.22350743
-0.017502382 0.12379748 -0.051404938 -0.073852494 -0.04220283 0.22066826 0.018648833 -0.06337567

lstm.weight_hh_l0 f4 [80, 20]
00000000: 0049 bbbd 05dd 52be 4060 033c 2072 3d3e
00000010: 7500 2abe cede 18be 24f2 45be dff6 50be
00000020: b629 c5bd e8d1 a13c 0a86 1cbe 00dd b9bd
00000030: e476 e73d ad77 e0bd a00a dd3b 2a02 cebd
00000040: 72dc 24be 58ba c83d fce5 543e 06dc 633e
00000050: 00c3 553e db35 d3bd 003d f6bc d011 8c3d
00000060: 76ab 453e 8745 cebd a68a ddbd 062d 4cbe
00000070: 126c 413e 60bc 643c 2c1c 5cbe 4ab2 e8bd
00000080: a207 d0bd 8c32 04bd f0c6 503c 3afc 10be
00000090: 2024 683d 501c c5bd 24f5 5cbd 18e9 b0bd
000000a0: ebbb 2fbe c895 b53d c4d2 493e 6c66 e23d
000000b0: 946f 9c3d 5851 56bd 681b 42be b842 af3d
000000c0: f0c8 483c 3c70 3dbe 927a 4ebe 50fc 1dbc
000000d0: b4f3 f03d 8cd0 613e 3888 89bd 7aac aabd
000000e0: c74f e8bd 9021 bc3c 2dfd 00be a0f7 63be
000000f0: 2e2f 83bd 7e22 623e 5829 c2bc f046 053e
00000100: 0095 8a3c 4ca9 57bd 34c0 fa3d 144c dd3d
00000110: 5962 38be 148d 08be ddf4 4fbe fc96 2a3e
00000120: e8df d93d 4f7f 27be 3856 493d f054 d4bd
00000130: fc8d 01be 44e2 4dbe 30d4 4e3d 0039 1c3c
00000140: cd7a 61be 2851 b73d c870 4b3d 209f e73d
00000150: 5c75 33be 00bc dfbb a872 16bd 0026 11bd
00000160: 10d5 dd3c 32c7 01be ca54 33be 3e7e 15be
00000170: d069 273c 00e2 96bc 4a16 543e b6ac 413e
00000180: 5233 47be 7081 243c 9859 d03c 32fb eebd
00000190: 30dd 5fbd 9d11 2ebe fa16 2cbe 64ab cf3d
000001a0: 74f1 953d 9a17 533e 885d 983d 94e0 183e
000001b0: c857 91bd 8c6b 4c3e 0cb3 9a3d fe58 403e
000001c0: de08 93bd 54d5 8f3d 8088 1d3c b7f3 e4bd
000001d0: c4f9 aa3d 4041 e43d c0a9 7d3c cc03 0bbd
000001e0: b029 fa3c 6c0c 05be 982a 0c3e 02be 87bd
000001f0: c56c cebd 8038 cdbd 402e d13d 0cdf 823d
00000200: b079 49be d5fc 22be bc2e c83d 578c f3bd
00000210: 64b2 e33d c8c6 2d3d 26a6 2cbe 6557 f1bd
00000220: 2897 d03d 12fc 053e 7418 c23d 3b1b ffbd
00000230: e06e 05bc f083 c33d b4fa de3d ec6a 07be
00000240: cc9e 86bd 80bf ad3d a8a0 c23d cdad 3cbe
00000250: f4d2 973d a8db 2f3e b89b e03d a024 3ebd
00000260: 4678 3bbe da78 0b3e 0082 7e3a ee1c a7bd
00000270: 20fc 4e3d f8ea 8d3d 144a 303e 40e4 58bc
00000280: 0841 4fbd ee05 2a3e 4224 30be e0b2 b53b
00000290: 7436 acbd 346e 563e aa27 633e a61b 54be
000002a0: 6ced 1f3e f8ad 0a3d ec56 16bd 2825 443d
000002b0: c12c cabd 64a4 b7bd 7ede 31be 80e6 8c3a
000002c0: 2c79 883d 3e80 10be 409f e3bc 90dd cf3d
000002d0: fc1d 5dbe a05c e73d a0a4 923d 7cf9 193e
000002e0: cbfe 28be 460d 0d3e e022 b5bd 1e17 273e
000002f0: 545d 83bd eca2 a23d 48e9 883d 2829 89bc
00000300: e0b0 ab3d 0eb4 9fbd 2e5d 85bd 4e3e 533e
00000310: e6da 8bbd 4cfe e13d f063 3f3d 48bb f6bc
00000320: 4a01 2fbe 2c89 a1bd 58fd 8c3d 68c3 953c
00000330: 9e8f 4d3e d087 533d 581d d53d f007 8bbc
00000340: b4f6 583e 84d4 2ebe eab6 3f3e aa83 273e
00000350: 53e0 f8bd a0ab ffbd 2d88 fbbd a2dc 473e
00000360: 6691 89bd 3ec7 553e 6850 973d 208d 87bb
00000370: e87a 4fbe 5c51 263e 80c6 c33c c6a1 21be
00000380: 5680 493e f382 62be da40 ffbd 6461 453e
00000390: e842 32be 800d d73b 029f eabd 209f e0bb
000003a0: 7c70 843d ef18 1dbe 0e41 49be 4bd4 37be
000003b0: 70ee 8dbc 008f cfba a896 5ebe 0c0e a2bd
000003c0: 4a1f 3c3e 02db 613e 10b2 983d a060 3e3d
000003d0: 38c7 103d d858 053d 809e 30bd 7809 103d
000003e0: a35e 29be fce0 c43d 186b 28be 3288 133e
000003f0: 601d b53b 2e29 dbbd 6660 333e e2f0 3b3e
-0.09144783 -0.20592125 0.008018553 0.18500566 -0.16601737 -0.14928743 -0.1933065 -0.20406674
-0.09627096 0.019753411 -0.15285507 -0.090753555 0.113019735 -0.10960326 0.0067456514 -0.100590065
-0.16099718 0.09801167 0.20790857 0.22251901 0.20875168 -0.103130065 -0.030058384 0.06839335
0.19303688 -0.10071855 -0.10817461 -0.1993905 0.18888882 0.013960928 -0.21495122 -0.11362131
-0.10157706 -0.032274768 0.012742743 -0.14158717 0.056675076 -0.09624541 -0.05394472 -0.08638209
-0.17161529 0.08866459 0.19709307 0.11054692 0.07638469 -0.05232367 -0.18955767 0.085576475
0.0122549385 -0.18499845 -0.20163944 -0.0096426755 0.11765233 0.2205221 -0.06715435 -0.083336785
-0.11343341 0.022965223 -0.12596579 -0.2226243 -0.06405483 0.2208347 -0.023701355 0.13015342
0.016916752 -0.05265169 0.12243691 0.108055264 -0.18006267 -0.13335067 -0.20308252 0.16659158
0.1063841 -0.16357158 0.04915449 -0.10367763 -0.12651819 -0.20105845 0.050495327 0.009535074
-0.22019501 0.08951026 0.049668103 0.113096476 -0.17525238 -0.0068278313 -0.03673044 -0.03543663
0.027079135 -0.12673643 -0.17512813 -0.14598939 0.010218099 -0.018418312 0.20711628 0.1891354
-0.19453171 0.010040626 0.025433347 -0.116690055 -0.0546543 -0.16998906 -0.1680564 0.10140112
0.07321444 0.20614472 0.07439715 0.1492942 -0.07096821 0.19962901 0.07553682 0.18783948
-0.07179426 0.07023111 0.009615064 -0.111792974 0.0834842 0.11145258 0.015482366 -0.033939168
0.030537456 -0.1299302 0.13688123 -0.06628038 -0.1007934 -0.10020542 0.102138996 0.06390199
-0.19675326 -0.1591676 0.09774539 -0.11892002 0.1111801 0.0424259 -0.16860256 -0.11784247
0.10185081 0.13084438 0.0947732 -0.12456366 -0.00814411 0.095466495 0.108876616 -0.13224381
-0.06573257 0.08483791 0.09503299 -0.18425675 0.07413283 0.17173636 0.10967201 -0.046421647
-0.183076 0.1362032 0.00097087026 -0.08159815 0.050533414 0.06929582 0.17215759 -0.013238013
-0.050599128 0.16603824 -0.17201331 0.005545005 -0.084088236 0.20940477 0.221831 -0.20713672
0.15617913 0.033857316 -0.03670399 0.047886997 -0.098718174 -0.08966902 -0.1737003 0.0010749847
0.06663737 -0.1411142 -0.027785897 0.101496816 -0.2159347 0.11296964 0.07160306 0.15036577
-0.16503446 0.13774595 -0.088445425 0.16317412 -0.06414285 0.07941231 0.0668512 -0.016743258
0.083833456 -0.077980146 -0.06511913 0.20629236 -0.06828861 0.110348314 0.046726167 -0.0301186
-0.17090335 -0.078874916 0.06884259 0.018281654 0.20074317 0.051643193 0.104059875 -0.016971558
0.2118786 -0.17073256 0.1872212 0.1635882 -0.121521614 -0.12483907 -0.12281833 0.19517758
-0.06717186 0.20876786 0.07388383 -0.0041366965 -0.20261729 0.16241974 0.023898363 -0.15784368
0.19677863 -0.22120266 -0.12463541 0.19275433 -0.17408335 0.0065628886 -0.114561096 -0.0068549067
0.06466767 -0.15341543 -0.19653723 -0.17952077 -0.01732561 -0.0015835464 -0.21737158 -0.079128355
0.18371311 0.22056201 0.07455838 0.046478868 0.03534624 0.03255543 -0.043119907 0.03516528
-0.16540007 0.09613225 -0.16447103 0.14407423 0.0055271834 -0.10701214 0.17517242 0.18353608

lstm.bias_ih_l0 f4 [80]
00000000: fde3 403f f687 d73e 8711 783d 412d 8abe
00000010: 554f 173f e288 a03f 8ea6 033e c696 403f
00000020: 22d5 4fbd 35e8 ca3e 0680 dd3e 7f10 323c
00000030: ac46 0f3e 31f4 413e 2230 343e 7812 98b9
00000040: dd7e b0be e8c1 0e3f 0d26 b83e f3e0 993e
00000050: 3005 733d 139b 60be 7be6 59be b81a ebbc
00000060: a021 b03c a147 36be 9e99 aebd 50c7 4abc
00000070: c14f f9bd 22ed 343e 90fb b63d 6c52 acbd
00000080: e8b4 a6bd ecd3 823d d26a 1a3e fc3b b8bd
00000090: 2245 3cbe a31d 4cbe 2804 2b3d dd0e d2bd
000000a0: b001 aebe 1218 babe 55ec 87be 1e72 303f
000000b0: 8626 dbbd 1feb dcbe 6edb 053d ac88 b83e
000000c0: ed7e 3c3d 9d2e 1d3f 653c f73d c510 17bc
000000d0: 840a afbe a58d 7fbd 4735 0abf 7e38 603e
000000e0: 442d f53e 5571 963e 1588 91bd b535 ad3d
000000f0: b70a 733f 4e22 403f 9a93 f53e a3bf 04be
00000100: 3af3 543f 9de3 683f 8f2a 7f3e 72a9 783f
00000110: c3fc a6bd 99ca c93e fd00 ea3e f59c adbe
00000120: e111 eb3e 1313 fe3e 06a4 623e f46e 7abd
00000130: 0335 88be 93e1 1d3f 8471 133f 58e4 173e
0.7534788 0.42095917 0.06056359 -0.2698765 0.59105426 1.2541773 0.12856504 0.7523006
-0.05074037 0.39630285 0.43261737 0.010868191 0.13991803 0.18940808 0.17596486 -0.0002900546
-0.3447179 0.5576463 0.3596653 0.30054435 0.05933112 -0.21934156 -0.21279328 -0.028699264
0.021500409 -0.17800762 -0.08525394 -0.012376621 -0.12173415 0.17668584 0.089347005 -0.08414158
-0.08139974 0.06388077 0.15079811 -0.08995816 -0.18385747 -0.1993318 0.04175201 -0.10256741
-0.33985662 -0.3634649 -0.26547495 0.6892413 -0.10700707 -0.43148133 0.032679968 0.36041772
0.046019483 0.6139925 0.12072066 -0.009220307 -0.3418771 -0.062390942 -0.53987545 0.2189655
0.47886097 0.2938334 -0.07106034 0.084575094 0.94938225 0.75052345 0.47964174 -0.12963729
0.83183634 0.9097231 0.24918579 0.97133553 -0.08153679 0.39412382 0.4570388 -0.3390881
0.45912078 0.49623927 0.22132882 -0.06114097 -0.26602945 0.61672324 0.57595086 0.148332

lstm.bias_hh_l0 f4 [80]
00000000: 8d8c 193f b869 d13e 227a e53e a17f b7bd
00000010: ffde 363f 72b2 823f 6c71 44be 5203 3d3f
00000020: 4da5 953e 0644 0c3f d1d3 223f 5c64 7d3e
00000030: 3313 a23e 4de6 e33e 6a28 af3e d556 49be
00000040: 3e4f 8fbe 5bc4 e33e 7b8b 143f a4bb 353f
00000050: eec7 37be b880 be3d 1069 283d de41 edbd
00000060: 6b68 cabd 44ec 343e 120c 21be 44da 473e
00000070: f0ad 5d3e b640 5e3e 1217 29be 60d0 fd3d
00000080: c08e 8ebd b9c9 fcbd 8892 27be 503f 8a3d
00000090: 6e29 303e 565c 613e f0be b23d 302e 2e3e
000000a0: 389a 06bf 2de1 7fbe 0342 5bbe f49c 253f
000000b0: b6c0 d23d 1bfd aabe b367 19be 3a78 e53e
000000c0: 78f5 3cbe 755e b83e 8aa7 6ebe a0a6 ae3d
000000d0: d655 99be 513d f2bd 481c cabe 75e7 b33e
000000e0: d83f 1e3f 15b3 973e 3000 853d 7468 9a3e
000000f0: 09ab 6b3f 5e30 3b3f 6c7f d73e b7da aebe
00000100: 2292 6e3f bff0 9e3f d188 cc3d 5d82 2c3f
00000110: 80ac 28bc 104f f43e 5366 063f b5f4 bbbe
00000120: 4886 183f 5e91 d03e 0d4a 983d d4d9 6dbd
00000130: 9037 df39 d656 ca3e edd6 113f 6c12 333e
0.5998009 0.4090097 0.44819742 -0.0895989 0.71434015 1.0210707 -0.19183892 0.7383319
0.29227677 0.54791296 0.63604456 0.24745315 0.31655273 0.44511643 0.3421052 -0.1966203
-0.27990144 0.44485745 0.5802533 0.7098944 -0.17947361 0.09301895 0.04111582 -0.11584829
-0.098831974 0.17668253 -0.1572726 0.19516855 0.21648383 0.21704373 -0.16512707 0.1239326
-0.06960821 -0.12343163 -0.16364491 0.06750357 0.17203304 0.2200788 0.08727825 0.17009807
-0.5257907 -0.24988241 -0.214119 0.64692616 0.10290663 -0.3339623 -0.14980964 0.44818288
-0.18453014 0.36009565 -0.23306099 0.08527875 -0.299483 -0.118281014 -0.39474702 0.35137525
0.6181617 0.29628816 0.064941764 0.30157816 0.92057854 0.7312068 0.42089403 -0.3415124
0.9319173 1.241722 0.09987033 0.6738642 -0.010295033 0.4771657 0.52499884 -0.36710134
0.59579897 0.40735906 0.07435999 -0.058069065 0.00042575272 0.39519376 0.56968576 0.17487496

lstm.weight_ih_l1 f4 [80, 20]
00000000: 880e 9b3d 6e59 edbe 9a79 473f b186 973e
00000010: 38aa 0bbf 6bc3 b63e 4d4c 323f ff66 fabe
00000020: a595 1dbf 23aa ba3d 1b1a e83e aeb9 5b3f
00000030: ed93 d83e 23cb 42bc a1a8 7f3e a81a 9d3f
00000040: 3000 023f 7fba dabe 59cf ce3e 56a0 86bf
00000050: 4fa0 8ebc d274 88bd 4998 a03d 7b24 f13d
00000060: 41cf 523e 7e3f 81bd 6db3 303e 400b 34bc
00000070: 7a24 2fbe 3d8f 973d 2fa6 47be 5501 263d
00000080: 006d 05bc 1c9b cbbd 8397 3d3d 023c 8dbd
00000090: 1a76 3e3e aaaa d4bd 3994 0d3e ce64 29be
000000a0: 3fdb 1c3e c0ad 09be 579e a83f 12bc 343f
000000b0: 03b6 69bf 9508 8cbb 4269 a83e baf4 85bd
000000c0: bfcb 07bf f540 813e 83a5 163f d43b 423f
000000d0: a8dc fd3e d31e 73be 6173 d2be 4dce cb3e
000000e0: 14d4 ce3e fa5c 3abf 86b4 bebc 103b 1bbc
000000f0: 41c5 0d3e a9d2 d9bb ac53 5e3d 8eb8 8abe
00000100: 8f0d 8e3e b3a9 cb3e 0434 6b3e 579b 88bd
00000110: 6ad6 8e3e 62d1 a6be f387 ddbe 01ed b3be
00000120: 88c0 973d a02d de3e e849 383e d8e3 e7be
00000130: 2dec 61bd bdcb 5e3e cbe1 d63c 0d87 85bd
00000140: 9b93 00bf 6fed babe 29a8 3fbf 6e30 90bf
00000150: 584d 123f f329 3abe 724c 14bd d28b e63d
00000160: 702d 893f 7454 40bf 2319 dcbe 6e04 43bf
00000170: fbe6 1cbf 285c df3e 41af 893d 06a0 11bf
00000180: a095 a9bf 45df f43e 06c6 123f 20cf 69be
00000190: a3cd 423f a3a9 373e 4d6f f33d 9d4d 193d
000001a0: b020 b93e 5b08 863e 1d3c a83d 136e e5be
000001b0: 887f 313c c5f1 b83e 593c bfbe 3aad debe
000001c0: bdfd e63d 7808 ba3d a945 6cbe f51d 243d
000001d0: 61ad 3abe c364 32be a923 1bbd 417b 303e
000001e0: 74b3 64be 9c32 443f 0914 b23e ba8a a83e
000001f0: 7fe0 83bf aada c6be 0bab 173d 26f1 d53e
00000200: 7571 1fbf 5ecc 8c3f 1808 6e3f 0e10 533e
00000210: 2f0c 933f 578c 1cbf 1117 9fbf 29e8 f3be
00000220: b3a6 213f 443a 78bf 43e9 ddbe 8c37 833f
00000230: ba7c 443c 9f7d 9cbd b5f6 a8bd cd3c 9dbf
00000240: 0693 60bf 1df5 88be 601f 87bf 14b1 813e
00000250: 2a9c 093f 707b 30bf d618 603f 9207 bbbf
00000260: 48a3 3c3f a0a8 76bf 1b6c d23e 719c a2bf
00000270: fe39 a8bf 873e a83e e4ba fd3d 9c9a bf3e
00000280: 4dd0 00bf 2bae 84be 8983 f03d 8496 eebe
00000290: 9391 5d3f 8622 5b3f b928 0a3f 51a4 60be
000002a0: 8eb1 5e3f 0093 2abe 4437 51bf 2d65 4ebf
000002b0: 1768 77be 647b 953e cd28 263f 9941 023f
000002c0: 88f9 babe 1a1b 793f dac9 e53d 8454 ffbe
000002d0: 898d b73d 9df6 293e b011 743e 4bfc 003e
000002e0: c09a afbd ca05 a9bd 2c0f a1bd 0d2c 313e
000002f0: e0a5 5b3e 9522 13be 5a9f 80bd 28eb 323d
00000300: f06f 323e 0ec6 25be f980 2cbe dde9 1c3e
00000310: 5c9f cebc 6063 0c3e e75d fabd b257 78bb
00000320: cfc4 ab3e 88ae 1e3f b151 ac3e 401f ad3e
00000330: 7cea 09be 28c6 4f3e 7f5b 26bf 7ae0 89be
00000340: 29d3 e23e 88e1 ecbd 5912 c63e 5d94 57bf
00000350: 8df7 603f 4a26 94be 3ceb dd3e 73bb 4f3e
00000360: c267 23bf 9a0f 8abd ba17 413f 00b7 b7bd
00000370: 9186 353f 9948 943e f6fc 703e 872f e3be
00000380: 2b9e 9ebe 9922 a2be 2d87 b73e 0864 02be
00000390: 85e2 93be a018 883e f4d6 3d3e 4878 23be
000003a0: 61b5 3b3e 7d0f 56be 2dd6 cbbd 03b6 07bf
000003b0: 5cbe 02bf 8da8 debe d27f 743d 6f44 c83d
000003c0: a4a8 963d c50a 8ebf 0ac3 a53d fa3c e2be
000003d0: 4143 783f 6c1b 8f3c 4929 233f 8b8d 08bf
000003e0: e319 f73e 37cb 16bf c1f9 00c0 79de e03d
000003f0: 6d1f b0bf ac5d d13f 98e4 903e 5b44 5d3e
0.07571131 -0.46357292 0.77919924 0.2959495 -0.5455661 0.35695967 0.69647676 -0.48906705
-0.61556464 0.09114482 0.45332417 0.858302 0.42300358 -0.011889252 0.2496667 1.227376
0.50781536 -0.4272041 0.4039257 -1.0517681 -0.017410425 -0.06662907 0.07841546 0.11774536
0.20586874 -0.06310938 0.17255946 -0.01098901 -0.17103758 0.074003674 -0.19496988 0.040528614
-0.008143663 -0.09941694 0.04628707 -0.06896211 0.1859974 -0.10384114 0.13826074 -0.1654236
0.15318011 -0.13445187 1.3173321 0.7059947 -0.9129335 -0.004273484 0.32892805 -0.065408185
-0.53045267 0.2524487 0.588463 0.7587254 0.4958241 -0.23742227 -0.41103652 0.39805833
0.40396178 -0.7279812 -0.02327944 -0.009474531 0.13844778 -0.006647427 0.054279014 -0.2709393
0.2774472 0.39777908 0.22969061 -0.06670254 0.2789796 -0.3258162 -0.43267784 -0.35141757
0.07409769 0.43394184 0.17996943 -0.45291018 -0.055156875 0.21757407 0.026230713 -0.065198995
-0.5022523 -0.36509272 -0.7486597 -1.126478 0.5714927 -0.18180065 -0.036205716 0.11257137
1.0716991 -0.75128865 -0.42987928 -0.76178634 -0.6128995 0.43624997 0.0672288 -0.568848
-1.3248787 0.4782659 0.5733341 -0.22832918 0.76095027 0.17935805 0.11886463 0.037427533
0.3615775 0.2617825 0.08214591 -0.44810542 0.0108336285 0.36121956 -0.3735073 -0.43491536
0.112788655 0.090836465 -0.23073448 0.04006763 -0.18230201 -0.1742125 -0.037875805 0.17234518
-0.22334081 0.76639724 0.3478091 0.3291834 -1.0302886 -0.38838702 0.037028354 0.41785544
-0.62282497 1.0999868 0.929811 0.20611593 1.1488093 -0.6115164 -1.2428914 -0.47638062
0.6314499 -0.96963906 -0.43342027 1.0251327 0.011992628 -0.07641148 -0.08250181 -1.228418
-0.8772434 -0.26749507 -1.055645 0.25330412 0.5375391 -0.6893835 0.87537897 -1.4611685
0.7368665 -0.9635105 0.41098103 -1.2703992 -1.3142698 0.32860205 0.12389162 0.37422645
-0.5031784 -0.2591413 0.11743838 -0.4659921 0.86550254 0.85599554 0.5396839 -0.21937682
0.86989677 -0.16657639 -0.81724954 -0.8062313 -0.24160801 0.29195702 0.6490601 0.50881344
-0.36518502 0.9730698 0.11220141 -0.49869168 0.089625426 0.16597982 0.23834872 0.12596242
-0.08574438 -0.08253057 -0.07864222 0.1730196 0.21449995 -0.14368661 -0.06280394 0.043681294
0.17425513 -0.16188833 -0.16846074 0.15323587 -0.025222473 0.13709784 -0.12224942 -0.0037894067
0.3354859 0.61985064 0.33656076 0.33812904 -0.13468355 0.20290434 -0.6498336 -0.26929075
0.44301727 -0.11566454 0.38685873 -0.8421076 0.8787773 -0.28935462 0.43343532 0.2028635
-0.63830197 -0.06741257 0.7542683 -0.08970451 0.7090846 0.28961638 0.23533997 -0.44372198
-0.30980048 -0.3166702 0.35845318 -0.12733471 -0.28883758 0.26581287 0.1853903 -0.15963852
0.1833091 -0.20904346 -0.0995296 -0.530121 -0.51071715 -0.4348797 0.05969221 0.09778678
0.073563844 -1.1097037 0.080938414 -0.44187146 0.9697762 0.01746913 0.6373487 -0.5334098
0.48261937 -0.5890383 -2.0152438 0.10979933 -1.375959 1.6356711 0.28299403 0.21608107

lstm.weight_hh_l1 f4 [80, 20]
00000000: d401 303e b0fd 363d f808 363d 32d1 41be
00000010: ec78 b73d a047 14bc 4017 0d3e 6413 2b3e
00000020: 96a3 153e 806c 41bd 7c11 7cbd 976a 60be
00000030: ac33 31bd 80f9 103d c0f6 e7bb c46b a93d
00000040: c60f 25be 06f2 36be 5873 ffbd 3c75 3e3e
00000050: c0d9 5cbc b84b 5d3d 8468 8b3d ec89 2ebd
00000060: 2876 39bd c032 a43d c630 4f3e 7290 033e
00000070: 608a 233d 2002 293e b4a3 e13d 6078 20be
00000080: 9737 54be d002 dc3d 91e8 fcbd 282a 10be
00000090: 102c b63c 54a5 ecbd 2fff 2fbe dcad 8ebd
000000a0: be7c 2a3e 4028 cb3b 78ef 523e b6de 3ebe
000000b0: d2e6 523e b5a2 d1bd 9072 83bd d8c8 bbbd
000000c0: 0451 5abd a07f 2a3c f69c 48be 6047 25be
000000d0: 0030 44ba 0023 843c 9088 563e 8213 cdbd
000000e0: 84db 92bd 4a48 043e b3bf 4dbe 1c2f 9e3d
000000f0: 5eb4 5d3e 404f a3bc c4b8 0dbd aaa3 64be
00000100: 5ac8 53be f0bd e63c 360c 0cbe 845c e43d
00000110: 9c90 5abe 1806 0cbe 5093 d73d 80fe d13d
00000120: 5014 843c 17f9 5abe 62d7 95bd 48e0 563e
00000130: b671 12be d065 da3d 8854 c43d 40ee 22bc
00000140: d43d 633e e08c 63bd 301c 7fbd 6a8a 3b3e
00000150: 7c3b fb3d 920f 2d3e ac6f 5ebe 782b 813d
00000160: d88c 72bd b247 453e 60e0 123c a642 393e
00000170: e815 f9bc 7ac1 82bd a87a fa3d 46b5 2bbe
00000180: f4d1 033e aa4b 313e a0ed 9b3c 4834 cebd
00000190: 1031 603e e07f 853d c65c 553e 4c30 e4bd
000001a0: 0483 11bd 22c1 363e 4809 b13c 5de8 43be
000001b0: 0464 96bd c882 fcbc 2fa7 3cbe ce12 16be
000001c0: 0041 e8bc 1a0a 2a3e a979 d8bd e885 56be
000001d0: e0da 433c 2f38 54be ceec 1bbe d94c 36be
000001e0: 78a5 a7bd 78a4 723d bc58 953d b033 14bc
000001f0: c734 61be 58b0 0a3d bca7 db3d 057f 5cbe
00000200: 725b a9bd e0a2 92bd 85c9 52be ff4d f4bd
00000210: 145b debd 42ed 033e 4659 20be 6d6a 41be
00000220: 0a23 b9bd 4028 75bd 28b4 013e b83f ae3c
00000230: 6ad9 22be b69e 4ebe 68ad 943d a0a4 0c3d
00000240: 506b c4bc 1051 213e 9c77 db3d 80ee 9c3d
00000250: a821 173d 5019 05bd 4efa 063e ea8c 413e
00000260: e057 35be eae4 223e 76fe eabd 70e9 b4bc
00000270: 0c71 64be f8f8 593e 846f 273e 48e7 e73d
00000280: 6703 2fbe 3a11 143e 56c3 343e 4886 55bd
00000290: c004 1f3c 5452 c5bd 65f5 debd d0b3 443c
000002a0: 98dd 56bd 68ab 093d 08c5 eb3d e0b0 2b3e
000002b0: 19d6 f8bd 7aa9 2c3e 344d ab3d f0d6 3fbe
000002c0: c036 f6bb a8af 973d 221a bdbd 001a acbd
000002d0: b5da d2bd 7cba 16be 40a6 f83d 7001 093e
000002e0: 1408 1b3e 84e3 afbd 1027 323c 00ac 6d3a
000002f0: be3f 93bd c022 dd3d 08e4 c3bd 513c 18be
00000300: 1ee5 39be 7467 9a3d b0b3 8d3c 4a34 19be
00000310: a1b9 3cbe 74f6 2e3e c660 47be 80c6 12bb
00000320: 5855 093d bc0c 463e 3466 423e a0e1 0d3d
00000330: 8865 203e dab9 1fbe e0b7 4b3d 600c 4dbe
00000340: 0070 63b9 1497 563e 28e3 163d 98ff 00be
00000350: 1e40 3c3e 4006 293e f84e 20bd 087f 093d
00000360: cc7d 70bd 8031 dcbd d0f7 fcbd 18c5 ddbd
00000370: 5a21 56be 90d8 4ebe 3864 023d c0cc 353d
00000380: f971 41be c83e 513d b861 83bd 9089 3c3e
00000390: 9091 18bd c8c9 f33d 2077 1e3d cc4e 9d3d
000003a0: 87ae 2dbe 010d 3bbe 5639 013e 928f afbd
000003b0: 5469 98bd 00dc 2eba 3cd1 d33d 7c8b a83d
000003c0: 8967 27be 7827 423e 71f5 10be 728f f6bd
000003d0: a0b0 053d 28e2 593e b4c8 e53d d4c6 643e
000003e0: c80c 22be 4812 193e 6a5d 283e c4f1 223e
000003f0: 02ad 5cbe 6c93 43be a86b 7bbd d6c8 a4bd
0.17188197 0.04467553 0.044442147 -0.18927458 0.08958611 -0.00905028 0.137784 0.16706616
0.14613184 -0.047222614 -0.061540112 -0.21915661 -0.04326217 0.03539419 -0.0070789754 0.08272508
-0.16119298 -0.17865762 -0.12473172 0.18599409 -0.01347965 0.05402729 0.06807044 -0.042612
-0.0452787 0.08017492 0.2023345 0.1284807 0.039926887 0.16504717 0.11017552 -0.1567092
-0.20724331 0.10742724 -0.12349046 -0.14078581 0.022237808 -0.11554971 -0.17187189 -0.06966755
0.16649148 0.0061998665 0.20599163 -0.18639645 0.20595863 -0.10236112 -0.064183354 -0.09169167
-0.05329992 0.010406405 -0.19591126 -0.16140509 -0.0007483959 0.01612997 0.20950532 -0.100134864
-0.071707755 0.12918201 -0.20092659 0.07723829 0.21650836 -0.01993525 -0.034600034 -0.22328058
-0.20681897 0.028166741 -0.13676533 0.111504585 -0.21344227 -0.136742 0.105261445 0.1025362
0.016122967 -0.21384083 -0.07316472 0.20983994 -0.1430119 0.106639504 0.095864356 -0.009944499
0.22191554 -0.05555427 -0.06228274 0.1831452 0.12267205 0.16900471 -0.21722287 0.06307119
-0.05921635 0.19265631 0.008964628 0.1809183 -0.030405954 -0.06384559 0.12230426 -0.16768369
0.1287306 0.1731402 0.019034207 -0.100685656 0.21893716 0.06518531 0.20836172 -0.111420244
-0.035525337 0.17847112 0.021610871 -0.19131608 -0.07343295 -0.03082408 -0.1842315 -0.14655611
-0.028351307 0.16605416 -0.1057008 -0.20949519 0.011954039 -0.20724557 -0.15227053 -0.17802753
-0.081858575 0.05923888 0.07292315 -0.009045526 -0.21992789 0.03385958 0.10725352 -0.21532829
-0.08269395 -0.07159972 -0.20584686 -0.11928939 -0.108572155 0.12883475 -0.15659055 -0.18888254
-0.09039886 -0.05985284 0.1266638 0.021270618 -0.1590325 -0.20177731 0.07259637 0.034336686
-0.023976952 0.15753579 0.10716173 0.07662678 0.03689733 -0.032494843 0.13181421 0.1890141
-0.17709303 0.15907636 -0.11474316 -0.022083968 -0.22308749 0.2128638 0.16351134 0.1132341
-0.17091142 0.14459696 0.1765264 -0.052130014 0.009705722 -0.096348435 -0.10886649 0.012005761
-0.052457422 0.03361073 0.1151219 0.16766691 -0.12150211 0.16861525 0.08364335 -0.18734336
-0.007513851 0.07406551 -0.092335 -0.084033966 -0.10295621 -0.14719576 0.12141085 0.13379455
0.151398 -0.08588317 0.010873571 0.00090664625 -0.07189892 0.10797644 -0.09564978 -0.14866759
-0.18153808 0.07539263 0.017297596 -0.14961353 -0.18430187 0.17086202 -0.1947051 -0.0022396147
0.033528656 0.19340795 0.189843 0.034639 0.15663731 -0.1559824 0.049735904 -0.20024252
-0.0002169013 0.20956069 0.036837727 -0.12597501 0.18383834 0.1650629 -0.03913781 0.033568412
-0.05871372 -0.10751629 -0.12351954 -0.10828608 -0.2091116 -0.201998 0.031833857 0.044384718
-0.18891133 0.051085263 -0.06415123 0.18411851 -0.037248194 0.11903721 0.038687825 0.07681045
-0.16961108 -0.1826668 0.12619528 -0.08572306 -0.07441965 -0.0006670356 0.10342643 0.082297295
-0.1634809 0.18960369 -0.14156128 -0.12039079 0.032639146 0.21277678 0.11219922 0.22341472
-0.15825188 0.1494838 0.16441885 0.15912539 -0.21550372 -0.19099206 -0.061381966 -0.08046119

lstm.bias_ih_l1 f4 [80]
00000000: 852c bbbe fc47 f2bd 4e93 923e 19ad 3fbe
00000010: 2e6f 703e 4800 bbbe bb11 303f ae8d 5a3e
00000020: e87b 7d3e 0cfd adbd 7afe fcbe d93d b5be
00000030: 895c 2a3e e8db d3be fe39 73bc 1858 8f3e
00000040: bfe6 1f3d f7aa 383e 2680 5e3e 95a6 7d3e
00000050: a0c1 f73b 5ce1 b2bd c0f2 833d 2e5f 47be
00000060: e227 093e d4c6 4b3e e0c9 b1bb 93e8 4cbe
00000070: 0eaf 08be e879 c23d 6e67 8abd a095 d23d
00000080: 4aa7 c7bd 6337 cfbd afe8 f0bd 3009 e0bd
00000090: a862 94bd bc19 313e 7338 debd fa82 ecbd
000000a0: f790 02be 7370 a1be 01c8 763e 0c26 79be
000000b0: b31d 143f 015e 04be b0a1 113f 9010 463f
000000c0: 4fe2 33bc 0320 bbbe 2025 7bbe d8ec 03be
000000d0: 78ad 043f 7079 6abe 127e 85bd 5fb0 433e
000000e0: 9978 82be 8b48 f93d e851 95be 5f72 253f
000000f0: 6ffb fdbe c698 5ebe dd2f c0be 98fb 7cbe
00000100: 12c7 9d3e b849 813c e96e 193f a1f7 f03e
00000110: 2662 833d ec1e 5b3d b06e 883c 1ee5 98be
00000120: 84e3 42be a05a c0be 16cb d4bd 2ae3 c73e
00000130: 0354 86be 2f27 f83b 06a0 2f3e b0ba b83c
-0.36557403 -0.11830136 0.2862801 -0.18718375 0.23479912 -0.36523652 0.68777055 0.21343109
0.24754298 -0.084955305 -0.494129 -0.3539875 0.16636862 -0.41378713 -0.014845369 0.27996898
0.039038416 0.18033968 0.21728572 0.24770577 0.0075609237 -0.0873439 0.06442785 -0.19469902
0.1339412 0.19900066 -0.0054256767 -0.20010595 -0.13348028 0.09495908 -0.06758009 0.10282445
-0.09748705 -0.10117986 -0.11763131 -0.109392524 -0.0724538 0.17294973 -0.108506106 -0.11548419
-0.12750612 -0.31531104 0.24099733 -0.2433092 0.5785782 -0.12926485 0.5688734 0.7736902
-0.010979249 -0.3654786 -0.24525881 -0.12883317 0.5182719 -0.22897887 -0.06518187 0.19110249
-0.25482634 0.121720396 -0.29164052 0.6462764 -0.4960589 -0.21737966 -0.37536517 -0.2470535
0.3081594 0.015782222 0.5993486 0.47063926 0.06415205 0.053496286 0.016654342 -0.29862303
-0.19032103 -0.3756914 -0.10390298 0.390405 -0.2623597 0.0075730304 0.17150888 0.022549957

lstm.bias_hh_l1 f4 [80]
00000000: b139 d2be 0f02 56bd bc71 203d b963 41be
00000010: 3e80 893e 6d00 babd a145 523f 9171 073f
00000020: 7103 883c c716 22be 7285 40be 2d78 dabe
00000030: 0989 0c3e c2fe adbe f4ad 203a 281f 883e
00000040: 2407 c6bd 8370 e0bd cd13 853e cc1d 9c3e
00000050: ba41 07be 5cbd c03d 90f3 98bc e44c 2b3e
00000060: 5add 95bd 98ab 973d d039 16bc 4c05 d43d
00000070: d844 15be f735 d1bd a8b5 5cbd c65e 87bd
00000080: 9036 f73c 4cd9 3b3e 26f9 583e 224b 423e
00000090: f0c7 9dbc a028 8bbb 7250 34be 6475 983d
000000a0: 7da0 37be aa28 cbbd 3bdf 683e 8d57 c7be
000000b0: 4cdf f33e 9e5d 113e e2a0 123f b49c 313f
000000c0: 8757 b4be de0a 09bf 41c3 7fbe c1ef 1abe
000000d0: c009 d53e 7e4f 3abe 5939 4cbe 9d2f 6f3d
000000e0: 1991 a7be f965 8a3e 00fc b1bd bd26 fe3e
000000f0: cf01 6bbe 1f2f 2fbe de1f 55bd a385 3cbe
00000100: 2933 873e 1356 7abe 4f57 163f 96a3 923e
00000110: da51 5b3d 41c5 0138 db3e 8abc 0450 12bf
00000120: 60e1 28be 8a8f 90be d82d 973d 07d9 0d3f
00000130: 0312 54be f1c9 f9bc 3264 123e 7d9a ae3d
-0.4105964 -0.052248057 0.039170966 -0.18885697 0.26855654 -0.090821125 0.82137495 0.52907664
0.016603203 -0.15829001 -0.18800905 -0.42669812 0.1372415 -0.33983427 0.00061294367 0.2658627
-0.09669331 -0.1095896 0.2599167 0.30491483 -0.13208666 0.094111174 -0.018670827 0.1672855
-0.0731761 0.07405776 -0.009169057 0.10352573 -0.14577043 -0.10215371 -0.05388418 -0.066098735
0.030177385 0.18344611 0.21188793 0.18973973 -0.019260377 -0.0042467862 -0.17608812 0.074442655
-0.17932315 -0.099198654 0.22741406 -0.38933983 0.476313 0.14195868 0.5727674 0.69379735
-0.35223028 -0.53532207 -0.24976827 -0.15130521 0.41609 -0.18194386 -0.19943751 0.058395017
-0.32727888 0.27030924 -0.08690643 0.4963893 -0.22949909 -0.17107819 -0.052032344 -0.18410353
0.2640622 -0.24446897 0.5872697 0.2864043 0.053544857 3.0939704e-05 -0.016875675 -0.57153344
-0.16492224 -0.28234512 0.07381791 0.5540928 -0.20709996 -0.030491801 0.14296034 0.0852556

linear.weight f4 [6, 20]
00000000: 5b0a 0ac0 0c3d abbd 2b0b 44c0 1814 61be
00000010: 8402 3440 937f 01c0 2b64 81bf 269b 893f
00000020: 7e83 803f c4e3 86bd f525 a5be f909 86bd
00000030: 3a86 8d40 5a40 12bf db94 57c0 da05 3740
00000040: 31d0 ec3b 5813 b1bf c0bc f83e 5609 8ebf
00000050: 9126 2c3e d8d0 8bbc 1bc2 8c3e f835 f03e
00000060: aa2a 8740 dad4 2240 89d9 9b40 d267 fe40
00000070: 8a88 15c0 58d9 88bd 0b58 7abf 2122 09bf
00000080: 021b 6dbf 6cd6 febf b23d 04c0 9263 4940
00000090: ada2 89bd 9b62 5b40 09dd 2bc0 1565 6b40
000000a0: 5304 8ebe 482a 50ba 168c bcbe b3e1 c3bd
000000b0: 848a 713e 7523 a7be 9d8f 4dbe c07f a93d
000000c0: 3ea0 0b3e 32e6 c9bd d97c 3bbd 1bc4 803d
000000d0: 25e7 c93e 4640 4cbd 3ae9 98be 7cc6 803e
000000e0: 7bbf 86bd e421 49be 8509 ee3d 3db4 33be
000000f0: d1f2 073f 0562 38be 19a1 453e 507e 97be
00000100: 11dd 33be 5465 3fbe 46ce 9abe f7c3 b1be
00000110: 8e0c 7e3f 1f01 543d 35d2 0640 d5aa ad3e
00000120: 651e f93e 2052 663f e071 033f d248 f7bd
00000130: 5446 24bc a41e 11be c6cc c63f 6ce0 debd
00000140: c32d 7ebf 7866 69bc 284a 5bbf bbc1 5cbe
00000150: 7e62 463e ca4b 9dbe 1727 01bf 92c6 163e
00000160: 0a7e 763f c63a 843e 9c0c 9abe c5fc 193f
00000170: 9e92 a33f 19cb 39bf 1b9b a2bf 22fc 9d3e
00000180: 4235 64be 8124 27be ff4b 9c3e 4523 78be
00000190: 7090 6b3e 6559 543d 6287 88bd fced 9cbd
000001a0: 7c9b 2e3c ef08 0c3d 2979 1bbd 24dc 27bc
000001b0: 9674 383e 6faf fabd 28e8 653d 925e 99bd
000001c0: b4c6 7b3d c3f3 563e a46b 013e b93c fabb
000001d0: 8d5a 4ebd 6507 13bd df55 f33d 3de8 ed3a
-2.156882 -0.08361253 -3.0631816 -0.21980321 2.8126535 -2.0234115 -1.0108694 1.0750473
1.0040128 -0.065864116 -0.3225552 -0.06544871 4.422635 -0.5712944 -3.3684604 2.8597322
0.007226967 -1.3834028 0.48581505 -1.1096599 0.16811587 -0.017067358 0.2749184 0.46916175
4.223958 2.5442414 4.8703046 7.9501734 -2.3364587 -0.0668208 -0.9779059 -0.535677
-0.92619336 -1.9909186 -2.0662656 3.1467023 -0.06720481 3.4278934 -2.685366 3.6780446
-0.27737674 -0.0007940871 -0.36825627 -0.09564533 0.23587996 -0.3264424 -0.20074315 0.082763195
0.13635346 -0.098583594 -0.04577336 0.06287404 0.39434162 -0.049865983 -0.29865438 0.25151432
-0.06579491 -0.19641834 0.116229095 -0.17549224 0.53104883 -0.18006141 0.19299735 -0.29588556
-0.17564799 -0.18690997 -0.302355 -0.34719822 0.99237907 0.05175888 2.10658 0.33919397
0.48656002 0.8996906 0.51345634 -0.12074436 -0.010026533 -0.14171845 1.5531242 -0.10882649
-0.99288577 -0.014245622 -0.8566003 -0.21558277 0.1937351 -0.30721885 -0.5045027 0.14724186
0.9628607 0.2582609 -0.30087745 0.6015132 1.2779119 -0.7257553 -1.2703584 0.30856425
-0.22285941 -0.16322519 0.3052673 -0.24232204 0.23004317 0.051843066 -0.06666447 -0.076625794
0.010657188 0.034188207 -0.037957344 -0.010245357 0.18013224 -0.122404926 0.056129605 -0.07488741
0.061468795 0.20991425 0.12638718 -0.0076366332 -0.050379325 -0.035895724 0.11881613 0.0018150877

linear.bias f4 [6]
00000000: 1c7c f23e e14f 1940 1db2 b13d a887 06bf
00000010: 32fa 173e 30b0 c4bd
0.47360313 2.3955004 0.086765505 -0.52550745 0.14841536 -0.096039176
