models/170/model.pt (torch_old, 108056 bytes, 12 tensors)

weight_ih_l0 f4 [160, 10]
0	0xbe95bff6	-0.29248017
1	0xbe401e63	-0.18761592
2	0x3bb8f50b	0.005644446
3	0x3d5d5012	0.05403144
4	0x3b01c844	0.0019803206
5	0x3e338cba	0.17534152
6	0xbe14726e	-0.14496776
7	0x3ddeb783	0.10874846
8	0x3e05c8ae	0.13064834
9	0x3ca6473a	0.020297635
10	0xbec4304a	-0.38318092
11	0x3c4c8025	0.012481724
12	0x3e2311e8	0.159248
13	0xbdee1619	-0.116253085
14	0xbe8f559a	-0.27994996
15	0xbd9836a5	-0.074322976
16	0xbdd1554c	-0.10221347
17	0xbe22a024	-0.15881401
18	0xbe8ba36d	-0.2727312
19	0xbce37f7a	-0.027770746
20	0xbe9fc5c7	-0.3120558
21	0xbdd55d99	-0.10418243
22	0xbd7da3c7	-0.06192377
23	0x3cde45e3	0.027132934
24	0x3e218e80	0.15777016
25	0x3e5ea139	0.21741189
26	0xbe062372	-0.13099459
27	0x3e8dc009	0.27685574
28	0x3e94178d	0.28924218
29	0x3d8b0ce4	0.06789568
30	0x3df883a7	0.12134486
31	0x3d858640	0.06519747
32	0xbc756046	-0.014976567
33	0x3d9cd3b6	0.07657568
34	0x3da0ee50	0.078579545
35	0x3dfadc03	0.12248995
36	0xbd841a5f	-0.064503424
37	0x3e9bf650	0.3046136
38	0x3e204bc3	0.15653901
39	0xbddf8fcf	-0.10916101
40	0x3dc57193	0.09640803
41	0x3c967f9b	0.018371394
42	0xbd839e5f	-0.06426691
43	0x3e8a57c5	0.27020088
44	0x3ea08375	0.31350294
45	0x3e448aa7	0.19193517
46	0xbe8c4006	-0.27392596
47	0x3e8875e5	0.26652446
48	0x3e975871	0.29559663
49	0xbd7328fd	-0.05936526
50	0x3e0e1d42	0.13878348
51	0xbe6ee02e	-0.23327705
52	0xbe2f060d	-0.17092152
53	0x3dc452d3	0.0958611
54	0x3e486431	0.1956947
55	0x3e91b0ab	0.284551
56	0x3ea46f09	0.32115963
57	0x3e42757d	0.1899013
58	0x3d6f3282	0.058397777
59	0x3e5f88c7	0.2182952
60	0xbac192d1	-0.0014768486
61	0xbd158f7c	-0.03651379
62	0xba87785e	-0.0010335555
63	0xbab7cec5	-0.0014023414
64	0x3d0fb98a	0.035089053
65	0x3d7c33c4	0.061572805
66	0xbe08f6b8	-0.13375366
67	0xbcc3f849	-0.023922103
68	0x3e33b904	0.17551047
69	0xbe79f99d	-0.24411626
70	0xbd89e8d4	-0.067338616
71	0x3da62f19	0.08114452
72	0x3db24320	0.08704209
73	0xbe663508	-0.22481167
74	0xbeab9ca1	-0.33517936
75	0xbca215a0	-0.019785702
76	0xbe3b5468	-0.18293917
77	0xbe75db5f	-0.24009465
78	0xbe915287	-0.28383276
79	0xbe0a3495	-0.13496621
80	0xbe8d3f3b	-0.27587304
81	0xbee0d988	-0.43915963
82	0xbf144109	-0.57911736
83	0x3e4560d8	0.19275224
84	0x3e665f72	0.22497347
85	0x3e849624	0.25895798
86	0x3e7b0d6e	0.24516842
87	0x3ebbc08e	0.36670345
88	0x3e5c1ed5	0.21496136
89	0x3e82700a	0.25476104
90	0x3e7a49f8	0.2444228
91	0xbe33a988	-0.1754514
92	0xbe984ddd	-0.29746905
93	0xbc265a7a	-0.010153407
94	0x3e5038c8	0.2033416
95	0x3e175f86	0.14782533
96	0xbe094b0f	-0.13407539
97	0x3e03b938	0.12863624
98	0xbd984649	-0.07435281
99	0xbd0ae9c0	-0.033914328
100	0x3e6badfe	0.23015592
101	0xbe0235ff	-0.1271591
102	0xbdbbc934	-0.09169236
103	0xbd8196c8	-0.06327587
104	0x3e420a19	0.18949164
105	0xbcb1c7fa	-0.021701802
106	0x3e457b7e	0.1928539
107	0x3e028c90	0.12748933
108	0x3e018de7	0.12651788
109	0x3e27d764	0.16390759
110	0x3d8dcd3e	0.069239125
111	0xbc40781f	-0.011747389
112	0xbcb89645	-0.022532592
113	0xb9b9574e	-0.00035350997
114	0x3d3eedf6	0.046613656
115	0x3dbc9afa	0.09209247
116	0xbe075da2	-0.13219312
117	0x3e67dd5e	0.22643039
118	0x3e65542c	0.2239539
119	0xbc648829	-0.013948479
120	0xbd770f6e	-0.06031745
121	0xbd623669	-0.05522767
122	0xbdbbaa8d	-0.09163389
123	0xbe960c2c	-0.2930616
124	0xbebf678c	-0.37383687
125	0xbe06d069	-0.1316544
126	0xbe22b4c5	-0.1588927
127	0xbe0b8ebd	-0.13628669
128	0xbdea54e2	-0.11441971
129	0xbc294fb9	-0.010333949
130	0x3ee9d141	0.4566746
131	0x3e911cb5	0.28342214
132	0x3e2f1b3b	0.17100231
133	0x3ec41e35	0.38304296
134	0x3ef0ae43	0.4700795
135	0x3ef1f054	0.47253668
136	0xbe081657	-0.13289772
137	0x3eb5e3d5	0.35525385
138	0x3eeb665c	0.45976532
139	0xbe8c44ee	-0.2739634
140	0x3d029413	0.031879496
141	0xbda2207b	-0.079163514
142	0x3e421949	0.18954958
143	0xbd7d8045	-0.061889905
144	0xbe51c22d	-0.20484228
145	0xbc34e18b	-0.011040102
146	0xbd80b6bb	-0.06284853
147	0xbe81d42f	-0.25357196
148	0xbe046720	-0.12929964
149	0xbd94fee3	-0.07275178
150	0xbe823ec8	-0.25438523
151	0x3ea497d6	0.32147092
152	0x3e4831cd	0.19550247
153	0xbe6750cc	-0.22589415
154	0xbca89a71	-0.020581456
155	0xbe818584	-0.25297177
156	0xbe0b71b7	-0.13617598
157	0xbea39495	-0.31949297
158	0xbe6a3214	-0.22870666
159	0xbdf37048	-0.1188665
160	0xbede9aca	-0.4347747
161	0xbed4efc9	-0.41589192
162	0xbebc1c57	-0.36740372
163	0x3dd686b6	0.10474913
164	0x3b7c11c1	0.003846273
165	0xbbabb4a9	-0.005240042
166	0x3e97a1af	0.29615542
167	0xbd889e43	-0.06670811
168	0xbda44191	-0.08020318
169	0x3e9dcfdf	0.30822656
170	0xbe59504b	-0.21222036
171	0xbe5e0605	-0.21681984
172	0xbd1e9c79	-0.038723443
173	0xbdf137c3	-0.11778214
174	0x3db725f4	0.08942786
175	0xbe4e55f3	-0.20149975
176	0x3c12ecdc	0.0089676045
177	0xbe015d8d	-0.12633343
178	0xbdc0fc83	-0.09423163
179	0x3d94b924	0.07261875
180	0xbeeeedf3	-0.46665916
181	0xbe86c788	-0.26324105
182	0xbe8000d4	-0.25000632
183	0xbc3db6e7	-0.011579252
184	0xbd9e9f27	-0.077452
185	0xbe21c575	-0.1579798
186	0x3e721d6e	0.23644039
187	0xba404b18	-0.00073354086
188	0x3d0a1dc3	0.03371979
189	0x3ec15832	0.377626
190	0x3d6c709e	0.057724588
191	0xbe9e9dd7	-0.30979797
192	0xbeb29e18	-0.3488624
193	0x3db6181f	0.088913195
194	0x3e881130	0.26575613
195	0x3e338efd	0.17535014
196	0x3ead942b	0.33902106
197	0x3de8ebbe	0.11373089
198	0x3e5b15a1	0.2139497
199	0x3e1493d1	0.14509512
200	0x3e31d7c3	0.17367463
201	0x3e898b27	0.26863977
202	0x3dd1ada4	0.102381974
203	0xbe66a981	-0.22525598
204	0xbe62be84	-0.22142988
205	0xbd091ed4	-0.033476666
206	0xbe6d3f03	-0.23168568
207	0xbe1ad379	-0.15119733
208	0xbd3bf8a8	-0.045891434
209	0xbe3860cb	-0.18005674
210	0x3dcd6949	0.10029847
211	0xbe54e0bc	-0.20788854
212	0xbdfb8d06	-0.122827575
213	0xbe80f7b0	-0.2518897
214	0xbe3b986e	-0.18319866
215	0xbe3aa6af	-0.18227647
216	0x3dc065c4	0.0939441
217	0x3d44355b	0.047902446
218	0x3c9769d1	0.018483074
219	0xbdb34c22	-0.087547556
220	0x3e51ac94	0.2047599
221	0x3eab27a3	0.33428678
222	0x3e30241e	0.17201278
223	0x3de86430	0.11347234
224	0x3d2f1a55	0.04274972
225	0x3df43787	0.119246535
226	0xbea79e89	-0.3273814
227	0x3df3e6b0	0.119092345
228	0x3dd53840	0.104111195
229	0xbe7a75de	-0.24459025
230	0xbe25e5ac	-0.16200894
231	0xbdc5b8bb	-0.09654375
232	0xbd52e677	-0.05148932
233	0xbddfd298	-0.109288394
234	0xbe02a80f	-0.12759422
235	0x3d089985	0.033349533
236	0x3c68e31e	0.014214305
237	0xbe1104e3	-0.1416202
238	0xbdd4b4f7	-0.10386079
239	0x3da895de	0.0823171
240	0xbe8e8a12	-0.27839714
241	0x3d04d6df	0.03243148
242	0xbe47a99a	-0.19498292
243	0xbdd4919c	-0.10379335
244	0xbdd7161a	-0.105022624
245	0x3d2da043	0.042389166
246	0xbd5ded44	-0.054181352
247	0xbcea171f	-0.028575478
248	0xbdb00d9e	-0.08596347
249	0x3d69a036	0.057037555
250	0xbe999fc9	-0.3000472
251	0xbd82e66a	-0.06391604
252	0xbe62bc62	-0.22142175
253	0xbe6116c2	-0.21981338
254	0xbe656fc0	-0.2240591
255	0xbea1abe7	-0.31576464

weight_hh_l0 f4 [160, 40]
0	0x3d9237c4	0.07139543
1	0x3deab396	0.114600345
2	0x3cfb1678	0.030650362
3	0x3d213478	0.03935668
4	0x3cee0ea8	0.029059723
5	0x3e1f8add	0.15580316
6	0x3ce21b70	0.027600974
7	0xbe10c961	-0.1413932
8	0x3d2a739c	0.04161416
9	0x3d8f52f6	0.069982454
10	0xbcfc7778	-0.030818686
11	0xbdb59f79	-0.088683076
12	0x3e1cda41	0.15317632
13	0x3de6477e	0.11244105
14	0xbd6d65fa	-0.05795858
15	0xbdc2ddd7	-0.09514969
16	0xbd01454c	-0.031560227
17	0xbd89c936	-0.06727831
18	0xbb054d80	-0.0020340383
19	0x3d910a22	0.07082011
20	0xbd062678	-0.03275153
21	0x3d89a00e	0.06719981
22	0xbddebf36	-0.10876314
23	0xbdcb7af2	-0.09935559
24	0x3d1191cc	0.035539433
25	0x3cbc87d0	0.02301398
26	0x3b821280	0.0039694905
27	0x3cf82b78	0.030294165
28	0xbd079120	-0.033097386
29	0xbe15353b	-0.14571087
30	0x3e19a2cd	0.1500351
31	0x3db1da00	0.08684158
32	0xbd26284a	-0.040565766
33	0xbd010004	-0.031494156
34	0xb8963800	-7.162988e-05
35	0x3c82b4c8	0.015955344
36	0xbd644b10	-0.055735648
37	0xbd21f3c0	-0.0395391
38	0xbdcac569	-0.09900934
39	0xbd7c9ec0	-0.061674833
40	0x3e0e65eb	0.13906066
41	0x3ca22ea0	0.019797623
42	0x3c2d01f0	0.010559544
43	0xbe0f7eab	-0.14013164
44	0xbd0ef0a6	-0.03489747
45	0x3ddecb76	0.10878651
46	0x3d091140	0.033463717
47	0xbe1216b0	-0.14266467
48	0x3e1b15b1	0.15144993
49	0xbd6ff95e	-0.058587424
50	0xbd99c4e2	-0.075082555
51	0xbd1a4b48	-0.03766945
52	0xbc7ee2d0	-0.015557006
53	0xbe096b2c	-0.13419789
54	0xbd206f44	-0.03916861
55	0xbbfaefc0	-0.007657975
56	0xbe15d05a	-0.14630261
57	0x3dc108be	0.094254956
58	0x3e076d9d	0.13225408
59	0xbdae4aac	-0.08510336
60	0xbdf52222	-0.11969401
61	0x3dc7f7da	0.09764071
62	0x3d0d6178	0.03451678
63	0x3d020510	0.03174311
64	0xbda46672	-0.080273524
65	0x3de6a7b6	0.11262457
66	0x3da8d8f8	0.082445085
67	0x3db5b9e6	0.08873348
68	0x3e1406ef	0.1445577
69	0xbcec2e30	-0.028830618
70	0x3cb0cdb0	0.021582454
71	0x3daa2224	0.08307293
72	0xbd6aa354	-0.057284668
73	0xbd159354	-0.036517456
74	0xbbbf5400	-0.005838871
75	0x3d447bf0	0.04796976
76	0xbcaa47e8	-0.02078624
77	0x3d9b4222	0.07580973
78	0x3ccaa338	0.024736032
79	0xbdc0fb6c	-0.09422955
80	0xbd9f5bd5	-0.077811874
81	0x3d8d06c8	0.06886059
82	0xbe1ba804	-0.15200812
83	0x3ddd1462	0.10794903
84	0xbcae2be8	-0.02126117
85	0x3e10a791	0.14126422
86	0xbcf44b38	-0.029821023
87	0xbd5c385a	-0.05376468
88	0x3df28abe	0.11842869
89	0x3dfc12aa	0.123082474
90	0xbddd626b	-0.10809787
91	0xbbc9a1e0	-0.00615333
92	0xbd8c024d	-0.06836376
93	0xbd851d95	-0.06499783
94	0xbd6e8e6c	-0.058241293
95	0x3da2a6ca	0.07941969
96	0xbd84ffa1	-0.0649407
97	0xbd0e8c86	-0.034801982
98	0x3dd70b42	0.10500194
99	0x3dc8d226	0.09805708
100	0xbcf92d30	-0.030417055
101	0xbd5e2848	-0.054237634
102	0x3df5faf2	0.12010755
103	0xbe1ce393	-0.15321188
104	0x3c426ee0	0.011867255
105	0xbddd6ffa	-0.108123735
106	0xbd2adaaa	-0.04171244
107	0xbdb91c64	-0.09038618
108	0x3dea0abe	0.1142783
109	0xbddf83b2	-0.10913791
110	0xbd89cf29	-0.06728966
111	0x3daf3f84	0.085570365
112	0x3d3edb18	0.046595663
113	0x3c0c5b10	0.008566633
114	0xbd1438f0	-0.036187112
115	0xbdf67d37	-0.120356016
116	0x3ddadf76	0.10687153
117	0xbe08ae05	-0.13347633
118	0xbe20c328	-0.15699446
119	0xbe16593f	-0.14682482
120	0xbd48affc	-0.048995957
121	0x3dbc5b56	0.091971084
122	0xbd139d98	-0.036038965
123	0x3deeb09a	0.11654778
124	0xbd4f2e46	-0.05058124
125	0x3c0c8c60	0.00857839
126	0x3cad6268	0.021165088
127	0x3dfdac1a	0.123863414
128	0xbde074dc	-0.10959789
129	0x3d7366dc	0.059424266
130	0xbdd74f54	-0.105131775
131	0xbd1ec6d4	-0.038763836
132	0xbde94eba	-0.11391969
133	0xbd9cb3a5	-0.07651452
134	0xbe09bf96	-0.1345199
135	0x3d838498	0.064217746
136	0xbe18f00e	-0.14935324
137	0xbd5a6e2e	-0.05332773
138	0xbcfc5a10	-0.030804664
139	0xbd26ba54	-0.04070504
140	0xbd677546	-0.056508325
141	0xbdef9d10	-0.11699879
142	0xbdecdb08	-0.115652144
143	0xbdeb9392	-0.11502756
144	0xbdb122b2	-0.08649196
145	0xbd5806f6	-0.052741013
146	0xbd21e340	-0.039523363
147	0xbda77f84	-0.081786186
148	0x3d6653d4	0.05623229
149	0xbdbc5f36	-0.091978475
150	0x3da26dd2	0.07931103
151	0xbae38800	-0.0017359257
152	0x3d02db28	0.031947285
153	0x3dee0b2e	0.11623226
154	0xbc9cc510	-0.019136935
155	0xbe0ed266	-0.13947448
156	0xbdd20f58	-0.10256833
157	0xbcd6ac30	-0.026205152
158	0xbe0e05d0	-0.13869405
159	0xbd214fa6	-0.0393826
160	0xbdafd11f	-0.085848086
161	0xbda5cb1f	-0.08095383
162	0xbe1a1ae2	-0.15049317
163	0x3d56e600	0.05246544
164	0x3c9ba990	0.019001752
165	0xba8f3200	-0.0010924935
166	0xbac63800	-0.001512289
167	0x3e08f79f	0.1337571
168	0x3d160f20	0.036635518
169	0x3c833150	0.016014725
170	0x3df042d6	0.11731498
171	0x3d5d1c2c	0.053981945
172	0x3de0a72e	0.10969387
173	0x3dbd3b76	0.09239857
174	0x3db06c34	0.08614388
175	0xbe10ca89	-0.14139761
176	0x3e1fb789	0.15597357
177	0xbc83db08	-0.016095653
178	0x3be149c0	0.0068752468
179	0x3ca1e0f0	0.019760579
180	0xbd88bdaf	-0.06676804
181	0xbdbe6356	-0.092962906
182	0xbb026880	-0.0019898713
183	0x3dc10ece	0.09426652
184	0xbc758310	-0.014984861
185	0x3c2c2270	0.010506257
186	0x3d1ddbd4	0.038539723
187	0x3dce568e	0.10075103
188	0x3d9f6f12	0.07784857
189	0xbc9abb50	-0.018888146
190	0xbdaf2bcb	-0.08553275
191	0x3d9752f0	0.07388866
192	0xbd4c983c	-0.04994987
193	0x3e031051	0.12799193
194	0xbd7601ce	-0.060060315
195	0x3e20d959	0.15707912
196	0x3bad52e0	0.0052894205
197	0xbd5aec4c	-0.053448007
198	0xbd4b7950	-0.04967624
199	0xbe168c4a	-0.14701954
200	0xbddf753f	-0.10911035
201	0x3c5f8b40	0.01364404
202	0xbcbd7490	-0.02312687
203	0xbd298dae	-0.041394882
204	0x3e16aff1	0.14715554
205	0xbd606ab8	-0.054789275
206	0xbba665a0	-0.0050780326
207	0xbe1deec8	-0.15423119
208	0xbd6c5188	-0.05769494
209	0x3de470be	0.11154316
210	0x3e097ac9	0.13425745
211	0xbce05140	-0.027382493
212	0x3df07e42	0.11742832
213	0x3dee79b6	0.11644308
214	0xbd923631	-0.071392424
215	0xbd09c288	-0.033632785
216	0x3d3b6184	0.045747295
217	0x3dfc9186	0.12332444
218	0xbe0be8fc	-0.13663095
219	0x3d859592	0.06522669
220	0x3d707110	0.058701575
221	0x3d824e68	0.06362611
222	0x390f2c00	0.00013653934
223	0x3d0a108c	0.033707187
224	0x3e07dec9	0.1326858
225	0x3daa6f9e	0.083220705
226	0x3dbb16da	0.09135218
227	0x3e01f847	0.12692367
228	0x3dedb7ce	0.116073236
229	0x3d41a91c	0.047280416
230	0x3e008177	0.12549387
231	0xbde44598	-0.111460865
232	0xbc2251b0	-0.009907171
233	0x3dbffd66	0.09374504
234	0xbaaf6b80	-0.0013383478
235	0xbdaaa9fa	-0.08333202
236	0x3e111063	0.14166407
237	0x3da6f666	0.081524655
238	0x3dfd10fe	0.12356757
239	0xbe0b09ae	-0.13577911
240	0xbb810300	-0.003937125
241	0x3d11b5e0	0.03557384
242	0x3db54634	0.08851281
243	0xbcc13cf0	-0.023588628
244	0x3c747970	0.014921531
245	0x3dbf5d26	0.093439385
246	0xbe21b51a	-0.15791741
247	0xbdb1c48e	-0.08680068
248	0xbe21dda9	-0.15807213
249	0xbe169f18	-0.14709127
250	0xbde04500	-0.10950661
251	0x3cc40ad0	0.023930937
252	0x3d8f2b0e	0.06990634
253	0xbdbb83c8	-0.09155995
254	0x3e05c6f1	0.13064171
255	0x3e15a087	0.14612018

bias_ih_l0 f4 [160]
0	0x3e19ad98	0.15007627
1	0x3bb0ad42	0.0053917477
2	0x3eb28b4b	0.34871897
3	0x3dafaaf4	0.085775286
4	0x3e40743f	0.18794344
5	0x3e0084bf	0.12550639
6	0x3e91c13a	0.28467733
7	0x3dc6bdb0	0.09704149
8	0x3e93498a	0.28767043
9	0x3ebce8ba	0.36896306
10	0x3e429a7f	0.19004248
11	0x3e72a6f2	0.23696497
12	0xbd1a067a	-0.037603833
13	0x3e4425de	0.1915507
14	0x3d240ef9	0.04005334
15	0x3e4354ff	0.19075392
16	0x3eba0902	0.36334997
17	0x3e26cf1b	0.16289942
18	0x3eb6ee80	0.35728836
19	0x3c17858c	0.009248149
20	0x3e03b240	0.12860966
21	0x3e62388b	0.22091882
22	0x3e85d5ee	0.26139778
23	0x3e1a9049	0.15094103
24	0x3eee430d	0.4653553
25	0x3df08d26	0.11745672
26	0x3e84c448	0.25931
27	0x3cf3634d	0.029710436
28	0x3e77067c	0.24123567
29	0x3e168e77	0.14702784
30	0x3d88c8e8	0.06678945
31	0x3d9957af	0.074874274
32	0x3dc704be	0.097177014
33	0x3e17c76b	0.14822166
34	0x3e5e8ef7	0.21734224
35	0x3e32d167	0.17462693
36	0x3d88f334	0.06687012
37	0x3eaa33c8	0.3324263
38	0xbcfb22b4	-0.030656196
39	0x3df36064	0.118836194
40	0x3ccfb478	0.025354609
41	0xbd87a1fd	-0.06622694
42	0xbde78a16	-0.11305635
43	0xbc82f520	-0.015986025
44	0x3d63192c	0.055443928
45	0x3da13604	0.07871631
46	0xbdb99ec6	-0.09063487
47	0x3d4be0b0	0.049774826
48	0xbd953ba2	-0.07286765
49	0x3df7af72	0.120940104
50	0xbe1aef3e	-0.15130326
51	0xbd91c614	-0.071178585
52	0x3d6aa6d8	0.05728802
53	0xbe009b7e	-0.12559316
54	0x3d4355a0	0.04768908
55	0x3e09271f	0.1339383
56	0x3d57b7c0	0.052665472
57	0xbda75fad	-0.081725456
58	0xbd3abe3e	-0.045591585
59	0xbc90f570	-0.017695159
60	0x3dbdaa16	0.09260957
61	0x3d928c44	0.0715566
62	0x3dedb162	0.11606099
63	0xbde17258	-0.110081375
64	0xbde541d2	-0.11194195
65	0xbc091bb0	-0.008368418
66	0x3e0ae53f	0.13564013
67	0xbdd2a992	-0.10286249
68	0xbde8f03c	-0.11373946
69	0x3deeb6da	0.1165597
70	0x3e0d6d45	0.13811214
71	0xbc1a1dc0	-0.009406507
72	0x3e1c8ccd	0.15288086
73	0x3b860c40	0.004090816
74	0x3d8a9bac	0.06767973
75	0x3d0e6a98	0.034769624
76	0xbd0ffcf8	-0.03515336
77	0x3e0f9023	0.14019828
78	0xbe16fd22	-0.14745
79	0x3df72116	0.120668575
80	0xbd1b37f8	-0.037895173
81	0x3dca742f	0.098854415
82	0xbd5a4223	-0.05328573
83	0x3e980d98	0.2969787
84	0x3cd88ddc	0.026434831
85	0xbe254fc8	-0.16143715
86	0xbe10abe6	-0.14128074
87	0x3e13ed56	0.14446005
88	0xbe7e5ad1	-0.24839331
89	0x3e21a3fc	0.15785211
90	0x3e447e1e	0.19188735
91	0x3dd57892	0.104233876
92	0x3e358570	0.17726684
93	0xbdd399d5	-0.103320755
94	0x3de591da	0.112094596
95	0x3d0461b9	0.032319758
96	0x3d4b3fa4	0.04962124
97	0x3e00e377	0.12586771
98	0xbd9a31e7	-0.07529049
99	0x3df1b623	0.11802318
100	0xbd322bb9	-0.04349873
101	0xbe27c5ff	-0.16384123
102	0x3d68a927	0.05680194
103	0x3d53b33b	0.0516846
104	0xbca49ce2	-0.020094339
105	0xbd1fadbe	-0.038984053
106	0xbe9625ef	-0.29325816
107	0x3d3ea42d	0.04654329
108	0xbe76ba1d	-0.24094434
109	0x3e74be1b	0.23900644
110	0xbd909c9b	-0.0706112
111	0x3e772017	0.24133335
112	0xbe229935	-0.15878756
113	0xbd7d1ec7	-0.06179693
114	0x3dd6a980	0.10481548
115	0xbd12ef6f	-0.035872873
116	0xbe9b2a59	-0.30305746
117	0x3ccc7786	0.024959337
118	0xbdbe4777	-0.092909746
119	0xbe019ff0	-0.12658668
120	0x3e94ae66	0.29039305
121	0x3e60e99a	0.21964112
122	0x3ec593ea	0.38589412
123	0x3d7b98c7	0.061424997
124	0x3e725db6	0.2366856
125	0x3e83055a	0.2559002
126	0x3ee5090a	0.4473346
127	0x3e684ed7	0.22686325
128	0x3e2cd984	0.1687985
129	0x3e865d7e	0.26243204
130	0x3e93ae2e	0.28843826
131	0x3e8989bf	0.26862904
132	0x3df93b35	0.12169496
133	0x3e3351f1	0.17511727
134	0x3e616a40	0.22013187
135	0x3e36b7ca	0.17843547
136	0x3edbca3b	0.42927727
137	0x3e88a6aa	0.26689655
138	0x3e5e337b	0.21699326
139	0x3d001cf2	0.031277604
140	0x3d00ec14	0.03147514
141	0x3db3b3a3	0.08774497
142	0x3e929b42	0.28634077
143	0x3e583874	0.21115285
144	0x3e92ede6	0.28697127
145	0x3e464b30	0.1936462
146	0x3e4e6b7e	0.20158193
147	0x3d57cc5a	0.05268512
148	0x3e799f8f	0.24377273
149	0x3e6416ce	0.22274324
150	0x3e5523dc	0.2081446
151	0x3e0d8467	0.13820039
152	0x3e4a39ae	0.19748566
153	0x3d82ac85	0.06380562
154	0x3e9659b7	0.29365322
155	0x3e994434	0.29934847
156	0x3dc04539	0.09388203
157	0x3eef8cb3	0.46787032
158	0x3e1220f0	0.14270377
159	0xbc32d68e	-0.010915412

bias_hh_l0 f4 [160]
0	0x3ed5cfe4	0.4176017
1	0x3e054a83	0.13016705
2	0x3e2ca459	0.16859569
3	0x3e8ff2d0	0.2811494
4	0x3e955558	0.29166675
5	0x3e565f1b	0.20934717
6	0x3ef2a9ca	0.47395164
7	0x3e9c7b92	0.30563027
8	0x3e43ff1e	0.19140288
9	0x3ecb1b1e	0.39669126
10	0x3e9c47cf	0.30523536
11	0x3e881cf4	0.2658459
12	0x3e4373a6	0.19087085
13	0x3ea18bab	0.3155187
14	0x3c3dc44a	0.0115824435
15	0x3de9cfd0	0.1141659
16	0x3eb5e71c	0.35527885
17	0x3e14d757	0.1453527
18	0x3eb1b130	0.34705496
19	0xbc8c0bb5	-0.017095426
20	0x3d828f77	0.0637502
21	0x3d837f39	0.0642075
22	0x3e82f7a6	0.25579566
23	0x3e9fe337	0.3122804
24	0x3eeaa26d	0.45827046
25	0xbd53ff3d	-0.051757086
26	0x3ee1f91a	0.44135362
27	0x3cef2071	0.029190274
28	0x3d385ce9	0.04501048
29	0x3db7c402	0.089729324
30	0x3e42ff06	0.19042596
31	0x3e678cf7	0.22612368
32	0x3e1065c8	0.14101326
33	0x3e5552b5	0.20832331
34	0x3d0024d2	0.031285115
35	0x3e735c06	0.23765573
36	0x3e8b6bf5	0.27230802
37	0x3ec29018	0.3800056
38	0xbca9ab46	-0.020711552
39	0x3daf24a0	0.085519075
40	0x3d6342cc	0.055483624
41	0xbe01d865	-0.12680204
42	0xbe201cc3	-0.15635972
43	0x3dfe922e	0.12430225
44	0xbcfe79b0	-0.031063884
45	0x3e1d4477	0.15358149
46	0x3e1dca0f	0.1540911
47	0xbdc9bf81	-0.098509796
48	0xbde8aa5e	-0.1136062
49	0x3e089159	0.13336696
50	0xbd8a655c	-0.06757614
51	0xbe21b123	-0.15790229
52	0xbd70718a	-0.05870203
53	0xbdaf1453	-0.085487984
54	0xbd8ef66a	-0.069805935
55	0xbdfade94	-0.12249485
56	0x3dfc25d2	0.12311901
57	0x3b6e7080	0.0036382973
58	0xbcf75660	-0.030192554
59	0xbdf84558	-0.12122601
60	0xbe0c954f	-0.13728832
61	0x3be4cca0	0.006982401
62	0xbe012c98	-0.12614667
63	0x3df1bd52	0.11803688
64	0xbc9729d0	-0.018452555
65	0x3da4ad50	0.08040869
66	0x3d2d5c7c	0.042324528
67	0x3bd96100	0.0066338778
68	0x3e08e3df	0.13368176
69	0xbc4cb860	-0.01249513
70	0xbdf79366	-0.12088661
71	0xbd5e0a0a	-0.054208793
72	0xbde00ce1	-0.109399565
73	0x3d94452c	0.07239756
74	0x3d371e9c	0.044706926
75	0xbe17801d	-0.14794965
76	0x3d2e5530	0.04256171
77	0xbdb1bc41	-0.08678485
78	0xbe17a54b	-0.14809148
79	0xbd3dc7a8	-0.046332985
80	0xbcc0ba1e	-0.023526248
81	0x3e511f60	0.20422125
82	0xbe58ec4f	-0.21183895
83	0x3d500831	0.050789062
84	0x3d1bec5a	0.0380672
85	0xbe005bdc	-0.12535042
86	0xbe65fd48	-0.224599
87	0x3cc64dd7	0.024207039
88	0xbe8267e9	-0.25469902
89	0x3d22f77f	0.039786812
90	0x3e128d92	0.14311817
91	0xbd457785	-0.048209686
92	0xbcab687c	-0.020923845
93	0xbdfbe335	-0.12299196
94	0xbcf7da4b	-0.030255457
95	0x3c268af9	0.01016497
96	0x3d975995	0.07390133
97	0xbdb8b6a6	-0.090192124
98	0xbca00afd	-0.01953649
99	0x3d85bd1e	0.06530212
100	0xbd81d926	-0.06340246
101	0xbd9ee4d6	-0.07758491
102	0xbd44981f	-0.047996636
103	0xbd419609	-0.047262225
104	0x3e40f41f	0.18843125
105	0xbd98ab37	-0.07454532
106	0xbe3153f0	-0.17317176
107	0xbb1786a0	-0.0023121014
108	0xbe7ad9f3	-0.24497204
109	0x3dcd8e84	0.10036948
110	0xbe35617c	-0.17712969
111	0x3e8b083f	0.2715473
112	0xbe058fab	-0.13043086
113	0xbe2cb6ca	-0.16866603
114	0x3e238e75	0.15972312
115	0x3dacf082	0.08444311
116	0xbe50e374	-0.20399266
117	0xbe1ff576	-0.1562098
118	0xbcafbe71	-0.021453114
119	0x3c104321	0.008805067
120	0x3e7cfde4	0.24706227
121	0xbb22738f	-0.0024788117
122	0x3dc621e9	0.096744366
123	0x3e0b47f4	0.13601667
124	0x3eb7f671	0.35930207
125	0x3dc1bcf0	0.09459865
126	0x3e6f682b	0.2337958
127	0x3c7c47a5	0.015397941
128	0x3de781ae	0.11304031
129	0x3e8822e1	0.2658911
130	0x3c95fbdf	0.018308578
131	0x3e9769fb	0.29573044
132	0x3df74dc7	0.12075382
133	0x3e0f018f	0.13965438
134	0xbc76f651	-0.015073375
135	0xbc98da01	-0.01865864
136	0x3f0be10b	0.54640263
137	0x3e8b1fa7	0.27172586
138	0x3eb1af30	0.3470397
139	0x3e7e928a	0.24860588
140	0x3dc06111	0.09393514
141	0x3d4eddf5	0.050504643
142	0x3ece496e	0.40290397
143	0x3e48ca0e	0.19608328
144	0x3e0ea98d	0.13931866
145	0x3d8c1a1b	0.06840917
146	0x3ecfa9b4	0.4055916
147	0x3d54c770	0.05194801
148	0x3b2ae5c9	0.0026076904
149	0x3e1e5023	0.15460257
150	0x3e03ce58	0.12871683
151	0x3e7c357e	0.2462978
152	0x3e037bee	0.12840244
153	0x3dab0592	0.08350672
154	0x3e536a39	0.2064599
155	0x3ea4a938	0.32160354
156	0x3e67b784	0.226286
157	0x3e9c1057	0.30481216
158	0x3e5a4e7a	0.21318999
159	0x3dad2125	0.084535874

weight_ih_l1 f4 [160, 40]
0	0xbe0b1376	-0.13581643
1	0xbd846515	-0.06464592
2	0xbe7bba5b	-0.24582808
3	0xbe4965ff	-0.19667815
4	0xbe05f956	-0.13083395
5	0xbeacd0a1	-0.3375292
6	0xbe334820	-0.17507982
7	0x3ec40b68	0.38289952
8	0xbcab436c	-0.020906173
9	0xbd0f3e85	-0.034971733
10	0x3e141d3c	0.14464277
11	0x3df6e73a	0.12055822
12	0x3e1c5cdd	0.152698
13	0x3d305c3c	0.04305671
14	0x3eb25f38	0.3483827
15	0x3e68773f	0.22701739
16	0xbd789429	-0.06068817
17	0xbbe582d7	-0.0070041227
18	0xbda81522	-0.08207156
19	0x3e5c5786	0.21517763
20	0xbd6e88ba	-0.05823586
21	0xbe226a8e	-0.1586096
22	0x3d0b79bb	0.034051638
23	0x3d38fc4f	0.045162495
24	0x3d97afed	0.07406602
25	0xbda27be9	-0.0793379
26	0xbd3cf9ed	-0.046136785
27	0x3dc9d42e	0.09854923
28	0x3e2a1f67	0.16613542
29	0xbddd20b0	-0.1079725
30	0x3d1ca991	0.03824765
31	0xbdada79f	-0.08479237
32	0x3e80eff0	0.25183058
33	0xbe5516c5	-0.20809467
34	0xbb348e9c	-0.0027550822
35	0x3ded3837	0.11582988
36	0xbe2eaa9a	-0.17057267
37	0xbcd929c6	-0.026509177
38	0x3b8870b1	0.0041638245
39	0x3beb7665	0.0071857446
40	0xbd516531	-0.051121894
41	0x3e5567cd	0.20840378
42	0xbd12df0b	-0.03585724
43	0x3e055f71	0.1302469
44	0x3e54f44a	0.20796314
45	0xbd6d88c1	-0.057991747
46	0xbf01b90f	-0.50673
47	0x3e4774a2	0.19478086
48	0xbed4e19d	-0.4157838
49	0xbda52b2e	-0.080648765
50	0x3dc3a9b1	0.095538504
51	0x3e294430	0.16529918
52	0x3e3bef4a	0.18353
53	0xbe6d1361	-0.23151924
54	0x3c2c449f	0.010514407
55	0xbcdcfd0f	-0.026976136
56	0xbd9cb8c1	-0.076524265
57	0xbdc5e43c	-0.09662673
58	0x3e7d3464	0.24727017
59	0xbdaff6eb	-0.08592018
60	0xbe97a889	-0.2962077
61	0x3cb40c37	0.02197848
62	0x3e9670a8	0.29382825
63	0xbe1fa514	-0.15590316
64	0xbe5125f0	-0.20424628
65	0x3e84d65d	0.25944796
66	0x3db44fc1	0.08804274
67	0xbe801bbd	-0.25021163
68	0xbe7f97ae	-0.24960205
69	0x3e9e2377	0.30886433
70	0x3e10bbcd	0.1413414
71	0x3ea5468e	0.3228039
72	0xbed23fac	-0.41064203
73	0x3d81b482	0.06333257
74	0x3e2bcda1	0.1677766
75	0x3e22ddee	0.15904972
76	0xbeb5ccac	-0.35507715
77	0xbe48cedf	-0.19610165
78	0xbd38af32	-0.045088954
79	0x3ece5264	0.40297234
80	0x3e7dafa4	0.24774033
81	0x3b46736f	0.0030281206
82	0xbcbb94b3	-0.022898054
83	0xbc750d56	-0.014956793
84	0xbcbced9f	-0.023062525
85	0xbdd413b2	-0.10355319
86	0xbe186c10	-0.14884973
87	0x3e5cdf91	0.21569659
88	0x3e327600	0.17427826
89	0xbe2d8641	-0.16945745
90	0xbdc89388	-0.09793764
91	0xbc457c1b	-0.012053515
92	0x3e68bd37	0.2272843
93	0x3e37b6de	0.17940852
94	0x3e5a881d	0.21340986
95	0x3e6367e4	0.222076
96	0x3d16b61a	0.03679476
97	0x3eb9a20e	0.3625645
98	0x3e06580a	0.13119522
99	0x3e9cc3ef	0.30618235
100	0x3e6fc569	0.2341515
101	0xbed486c1	-0.4150906
102	0xbde0be6c	-0.1097382
103	0x3eba729d	0.36415568
104	0x3d181c54	0.03713639
105	0xbecec3f3	-0.40383872
106	0x3e466f14	0.1937831
107	0x3ea53fe1	0.32275298
108	0xbe021d11	-0.127064
109	0x3e0ef228	0.13959563
110	0x3e2a3391	0.16621234
111	0x3d45fc37	0.048336234
112	0xbd32ef50	-0.043685257
113	0xbd9102d9	-0.07080621
114	0x3c8e3eb4	0.017363884
115	0xbe65e7e1	-0.22451736
116	0x3e1bc762	0.15212777
117	0x3dcf3634	0.1011776
118	0x3dff5855	0.1246802
119	0xbf1ed4f3	-0.62043685
120	0x3dc1d137	0.09463733
121	0x3dd4da9a	0.103932574
122	0x3e00b001	0.1256714
123	0xbc23d6e2	-0.0099999625
124	0x3e1335a2	0.14375928
125	0xbe0c61ea	-0.13709226
126	0xbe8cca25	-0.27497974
127	0x3f13591e	0.5755786
128	0x3dc41d78	0.09575933
129	0xbd44e4e7	-0.04806986
130	0x3e54dd8a	0.20787635
131	0x3e5478f9	0.20749272
132	0x3c8207c5	0.015872845
133	0x3e240785	0.16018493
134	0x3de10e0a	0.10989006
135	0x3af95f91	0.0019025673
136	0x3e1473b4	0.14497262
137	0x3db7ae67	0.089688115
138	0x3e6e52e1	0.23273803
139	0x3d4fdd1e	0.050747983
140	0xbdf6ca8d	-0.12050352
141	0x3d277316	0.04088124
142	0x3e9b5451	0.30337766
143	0xbe38e956	-0.1805776
144	0x3e8cdfb2	0.27514416
145	0xbd8383c8	-0.0642162
146	0xbe84f146	-0.25965327
147	0x3dfdb97c	0.12388894
148	0xbcaba2da	-0.020951677
149	0x3d78c0b3	0.060730647
150	0xbceb8a42	-0.02875245
151	0xbdfd5d1f	-0.12371277
152	0x3e8254a7	0.2545521
153	0x3d8e1276	0.06937115
154	0xbdc9872c	-0.09840235
155	0xbc108538	-0.008820824
156	0x3e118fd1	0.14215018
157	0xbdd6f81f	-0.10496544
158	0xbd6fbb30	-0.058528125
159	0xbd9bb674	-0.076031595
160	0xbe47385c	-0.19455093
161	0xbe461cce	-0.19346926
162	0x3d939fe5	0.07208232
163	0xbe20dd67	-0.15709458
164	0xbe3ea307	-0.18616877
165	0xbc943158	-0.018089935
166	0xbe1b1bf2	-0.15147379
167	0x3e392074	0.18078786
168	0xbe7d00d0	-0.24707341
169	0x3e5689f1	0.20951058
170	0x3dba05c3	0.0908313
171	0xbe4e8634	-0.20168382
172	0xbbd79585	-0.0065791034
173	0xbe55b7e9	-0.20870937
174	0x3e75084c	0.23928946
175	0x3ea1977c	0.31560886
176	0x3d9ede46	0.07757239
177	0xbd2d3a62	-0.042292006
178	0x3d5635b3	0.052297305
179	0x3e0561a8	0.13025534
180	0x3c48e49b	0.012261535
181	0xbd710497	-0.058842268
182	0xbeb31d82	-0.3498345
183	0xbdedba44	-0.11607793
184	0x3e05d9e4	0.130714
185	0x3d5c2457	0.053745594
186	0x3e16d6e8	0.14730418
187	0x3d8f6e68	0.0700348
188	0x3e145301	0.14484788
189	0x3da3f9b2	0.0800661
190	0x3d2b03c7	0.04175165
191	0xbe051f3f	-0.130002
192	0xbdbec28b	-0.0931445
193	0x3dbb3ba4	0.09142235
194	0x3d9ede65	0.07757262
195	0x3dffc1a0	0.12488103
196	0x3dea79c4	0.11449006
197	0xbe879822	-0.26483256
198	0x3c548217	0.012970469
199	0x3eb53938	0.35395217
200	0x3e60a173	0.21936588
201	0x3e6b649f	0.22987603
202	0x3e5d8bb5	0.21635325
203	0x3e86c038	0.26318526
204	0x3e932d0b	0.28745303
205	0xbdf62733	-0.120191954
206	0x3d92f312	0.07175268
207	0xbd1793fe	-0.03700637
208	0xbe764a48	-0.24051774
209	0xbdaf2933	-0.0855278
210	0x3da8e37b	0.082465135
211	0x3e8b4d4d	0.27207413
212	0x3e3485af	0.17629121
213	0xbde04d03	-0.10952189
214	0xbe91dde3	-0.284896
215	0xbeeb4666	-0.45952147
216	0xbe9d10f5	-0.30677
217	0x3c761330	0.015019223
218	0x3d808502	0.06275369
219	0xbe0feaba	-0.14054385
220	0xbd4d0a90	-0.0500589
221	0x3e3bd2e2	0.18342164
222	0xbda4b57a	-0.080424264
223	0x3e37c4e9	0.17946209
224	0xbdb2e026	-0.08734159
225	0x3de031e4	0.10947016
226	0xbd9aecc1	-0.075646885
227	0xbe6ba767	-0.23013078
228	0xbe7dcbac	-0.24784726
229	0x3ee016c7	0.43767378
230	0x3c088c52	0.008334236
231	0x3de96319	0.113958545
232	0xbed57518	-0.41690898
233	0xbe67b148	-0.22626221
234	0x3bec1cd5	0.0072055855
235	0x3da74c1b	0.08168813
236	0xbd9e80b5	-0.07739393
237	0xbe07cc7f	-0.13261603
238	0xbca7b508	-0.020472065
239	0x3eb3e8e8	0.3513863
240	0xbd8e84bd	-0.069589116
241	0xbe5cb286	-0.21552476
242	0xbe830f7c	-0.2559775
243	0x3e63d9e2	0.22251084
244	0xbdbf56c9	-0.09342725
245	0x3e00aa29	0.12564911
246	0xbe009520	-0.12556887
247	0x3cc4dadd	0.024030143
248	0xbe200d50	-0.15630078
249	0xbe0fddb1	-0.14049412
250	0x3ddaa3ad	0.1067575
251	0x3e60680a	0.21914688
252	0x3dcc7545	0.09983305
253	0xbeab3fb9	-0.33447054
254	0x3e7fa20c	0.2496416
255	0x3e911149	0.283335

weight_hh_l1 f4 [160, 40]
0	0x3d5a9264	0.053362265
1	0x3d8122e6	0.063054845
2	0xbceb4b80	-0.028722525
3	0xbd553e06	-0.052061103
4	0xbd75d200	-0.060014725
5	0xbdef535a	-0.1168582
6	0x3c9a8968	0.018864349
7	0x3d923c6e	0.07140432
8	0xbd9e1f7a	-0.077208474
9	0xbe0287ca	-0.12747112
10	0xbdd14c7c	-0.10219666
11	0xbd0ed6d2	-0.034872837
12	0x3d2131c8	0.039354116
13	0x3e0acea7	0.13555394
14	0x3df49bfa	0.11943813
15	0x3d850994	0.064959675
16	0xbd0ad0d8	-0.033890575
17	0x3ddb508a	0.10708721
18	0xbcc271e0	-0.02373594
19	0xbd5efe26	-0.054441594
20	0xbe131dd5	-0.14366849
21	0x3e0e9e51	0.1392758
22	0x3def111a	0.11673184
23	0x3db1b596	0.08677213
24	0xbd651234	-0.055925563
25	0xbc5d9040	-0.013523161
26	0xbe164f7d	-0.1467876
27	0x3db3fa0c	0.08787927
28	0x3e09318b	0.13397805
29	0xbd9a345a	-0.075295165
30	0xbde96902	-0.11396982
31	0xbce85d48	-0.028364792
32	0xbe0c51c6	-0.13703069
33	0xbc8c1d88	-0.017103925
34	0xbdd97e5c	-0.10619804
35	0x3d8f62ae	0.070012435
36	0xbe0174ce	-0.12642214
37	0xbdacf803	-0.08445742
38	0x3cf21f80	0.029556036
39	0xbd194382	-0.037417896
40	0x3caeaa48	0.02132143
41	0x3d236308	0.039889365
42	0x3d30ec88	0.043194324
43	0x3e03df97	0.12878262
44	0x3d9c9d9c	0.07647249
45	0x3e18f18d	0.14935894
46	0xbe049fed	-0.12951632
47	0x3d406538	0.04697153
48	0x3e12111b	0.14264338
49	0xbdf44be9	-0.11928541
50	0xbd8b96ad	-0.068158485
51	0x3c5deab0	0.013544723
52	0x3e117e77	0.14208399
53	0xbd2ab5a2	-0.041677125
54	0x3d98779e	0.0744469
55	0x3e19c1a3	0.15015273
56	0xbdec2706	-0.11530881
57	0xbdf7113a	-0.120638326
58	0xbd499ba6	-0.049220704
59	0x3d9fbb2a	0.077993706
60	0xbd8f4a7b	-0.06996628
61	0x3d633598	0.055471033
62	0x3d527ff4	0.051391557
63	0xbddee625	-0.1088374
64	0x3e160d43	0.14653496
65	0x3e203065	0.15643461
66	0x3baca2e0	0.0052684397
67	0x3d00580c	0.031333968
68	0x3d5cf1b8	0.05394146
69	0xbcde6e50	-0.02715221
70	0x3c903f60	0.017608345
71	0xbd35e402	-0.0444069
72	0xbc2784f0	-0.010224566
73	0xbe1cf703	-0.15328602
74	0x3e10c597	0.14137875
75	0x3aa0ce80	0.0012268573
76	0xbd222bc8	-0.039592534
77	0xbe1666c0	-0.14687634
78	0xbdc856b6	-0.09782164
79	0xbd74ad6e	-0.059735708
80	0xbddaa99a	-0.1067688
81	0xbdc52dce	-0.09627877
82	0x3d2c6368	0.04208699
83	0xbe1b23c4	-0.15150362
84	0xbd1a8e34	-0.03773327
85	0x3dff0c42	0.1245351
86	0xbe03477a	-0.12820235
87	0xbd5f622c	-0.054536983
88	0xbd0f13e4	-0.03493108
89	0x3d3553c8	0.044269353
90	0xbbd51940	-0.006503254
91	0xbdb32255	-0.08746783
92	0x3dc3856a	0.09546931
93	0x3cd50bc0	0.02600658
94	0xbdd4677c	-0.103713006
95	0xbe072407	-0.13197337
96	0xbe029d68	-0.12755358
97	0xbe048693	-0.12941961
98	0x3de9a0b2	0.11407603
99	0xbde3075a	-0.110853866
100	0xbd454b34	-0.048167422
101	0xbd171ed4	-0.036894634
102	0x3c8f76a0	0.01751262
103	0x3d226d1c	0.039654836
104	0x3d7899dc	0.060693607
105	0x3daace08	0.083400786
106	0xbdcc3f20	-0.09972978
107	0x3df7080e	0.12062083
108	0x3e007bc3	0.12547211
109	0x3d9b9f50	0.07598746
110	0x3cdde0b8	0.027084693
111	0xbcc12ac0	-0.023579955
112	0xbd9ab317	-0.0755369
113	0xbdcfc1e7	-0.10144406
114	0x3dff1596	0.12455289
115	0x3db9749e	0.09055446
116	0x3d1fcf08	0.0390158
117	0x3d838760	0.06422305
118	0x3e1b1273	0.15143757
119	0x3dc9bf46	0.09850936
120	0x3e0b562b	0.13607089
121	0xbdcea5f3	-0.10090246
122	0x3d83351a	0.06406613
123	0xbd9ad492	-0.07560076
124	0x3d2aa130	0.041657627
125	0x3d9230d6	0.07138221
126	0xbda149d7	-0.07875412
127	0x3daaf7ec	0.083480686
128	0xbdc0795b	-0.09398147
129	0xbd081990	-0.033227503
130	0xbdb2c001	-0.08728028
131	0x3e1e25ff	0.15444182
132	0x3d80f1ca	0.062961176
133	0x3d97499e	0.07387088
134	0x3dd46252	0.103703156
135	0x3b837040	0.004011184
136	0xbd5ab230	-0.05339259
137	0xbcd83610	-0.026392967
138	0xbd58a898	-0.05289516
139	0x3e18be2d	0.14916296
140	0x3c569920	0.013098031
141	0xbd62db18	-0.055384725
142	0x3d76ebcc	0.060283467
143	0xbda57ea7	-0.08080798
144	0x3dcb28a6	0.099198624
145	0x3d734084	0.0593877
146	0xbde04430	-0.10950506
147	0xbcdde410	-0.027086288
148	0x3e1fa70d	0.15591069
149	0xbdc58ef0	-0.09646404
150	0xbd4824e2	-0.0488633
151	0xbdd4e3ac	-0.103949875
152	0x3df1118e	0.117709264
153	0x3db76a30	0.089558005
154	0xbd827869	-0.06370623
155	0x3e080afb	0.13285439
156	0x3c808de8	0.015692666
157	0x3d90e5e4	0.07075098
158	0xbe0d11e2	-0.13776353
159	0x3e16063d	0.14650817
160	0x3dbf29fa	0.09334178
161	0x3db562de	0.08856748
162	0xbddddfe0	-0.108337164
163	0xbbae8da0	-0.0053269416
164	0xbe0a0a32	-0.13480452
165	0x3d3180ec	0.04333584
166	0xbd9d89da	-0.07692309
167	0xbdc77fdc	-0.09741184
168	0x3e0a48c9	0.13504328
169	0xbd583eb6	-0.05279418
170	0x3cf52328	0.02992399
171	0x3d5ee788	0.054420024
172	0x3c8695c8	0.016428843
173	0x3d4d1044	0.05006434
174	0x3c65b110	0.014019266
175	0x3e212a29	0.15738739
176	0xbd5dc630	-0.054144084
177	0x3e15cc2f	0.14628671
178	0x3e090d0f	0.13383888
179	0xbe0a1a34	-0.13486558
180	0x3dc6b65e	0.097027525
181	0xbde61956	-0.11235301
182	0xbddf5fd8	-0.109069526
183	0x3e1da67b	0.15395539
184	0x3cc67f58	0.024230644
185	0x3d6fcf44	0.058547273
186	0x3cfe57c8	0.031047717
187	0x3e17d1cb	0.14826123
188	0xbc16d1f0	-0.009205326
189	0xbe10d37a	-0.14143172
190	0xbc8dc958	-0.017307922
191	0xbe04d378	-0.12971294
192	0xbcb5e6d8	-0.022204801
193	0x3e0d3c33	0.13792495
194	0x3dccdf8e	0.10003577
195	0x3d9fa496	0.07795064
196	0xbdf166ca	-0.117871836
197	0xbdb327a6	-0.08747797
198	0xbe1609e9	-0.14652218
199	0x3c2be550	0.010491684
200	0xbda22048	-0.079163134
201	0xbd1d88fc	-0.038460717
202	0x3da461c8	0.08026463
203	0x3dcb4baa	0.09926541
204	0xbe1853c5	-0.14875706
205	0x3cdba590	0.026812345
206	0x3dd779f2	0.10521306
207	0xbcc91878	-0.0245478
208	0x3e0125b3	0.12612037
209	0xbe062251	-0.13099028
210	0x3dc48e82	0.09597494
211	0xbd5d054a	-0.053960122
212	0xbe1a57c2	-0.1507254
213	0xbe1a5998	-0.1507324
214	0xbdb62f3f	-0.0889573
215	0x3dc9c622	0.09852244
216	0x3dd70e16	0.105007336
217	0x3c0c6630	0.008569285
218	0x3d59e1bc	0.053193793
219	0x3d26d3b8	0.040729254
220	0xba81ff00	-0.0009917915
221	0x3de03116	0.109468624
222	0x3e132cff	0.14372633
223	0x3b59da40	0.003324166
224	0xbdae35cd	-0.085063554
225	0x3dd8ab22	0.10579516
226	0xbde800fb	-0.11328312
227	0xbddb28b7	-0.10701125
228	0x3dff3ef6	0.12463181
229	0x3e0834b1	0.1330135
230	0xbd6d1c04	-0.057888046
231	0xbca8cbf0	-0.020605057
232	0x3da26996	0.07930295
233	0x3e0da517	0.13832508
234	0x3dc73ffa	0.097289994
235	0x3dc22fa2	0.094817415
236	0x3d89c144	0.067263156
237	0xbd602b7a	-0.054728962
238	0x3d9d4314	0.0767881
239	0x3d9bb600	0.07603073
240	0x3d7179c0	0.058954
241	0x3d8552fa	0.06509967
242	0x3dabe41e	0.08393119
243	0x3e07b63f	0.13253115
244	0x3df8fed6	0.12157981
245	0x3daf34e0	0.08555007
246	0x3d499438	0.049213618
247	0xbe1f179e	-0.15536353
248	0x3ccdfce8	0.02514501
249	0xbc345bd0	-0.011008218
250	0x3c908ae8	0.01764436
251	0xbd9ff0c4	-0.07809594
252	0xbe0a8af1	-0.13529564
253	0x3be2bd20	0.006919518
254	0xbdd6c7ab	-0.104873024
255	0x3daeb482	0.08530523

bias_ih_l1 f4 [160]
0	0x3dd82b4b	0.105551325
1	0x3e6a6d15	0.22893174
2	0x3d2929e9	0.041299734
3	0x3dcf3909	0.101183005
4	0x3c6bdbab	0.014395635
5	0x3e2f08f1	0.17093255
6	0x3d746503	0.059666645
7	0xbda6a521	-0.081369646
8	0x3d8dd83c	0.06926009
9	0x3e9d3aa3	0.307088
10	0x3e52ced0	0.20586705
11	0x3e98a858	0.29815936
12	0x3e5e0645	0.21682079
13	0x3e2ba7d5	0.16763242
14	0x3e03cfb0	0.12872195
15	0x3e35f2bc	0.17768377
16	0x3e07de18	0.13268316
17	0x3e9fb866	0.31195372
18	0x3e18251f	0.1485791
19	0x3e186e5c	0.14885849
20	0x3e8b3d8c	0.27195394
21	0x3e8388eb	0.25690398
22	0x3e5f5dd6	0.2181314
23	0x3db64d51	0.08901466
24	0x3da93709	0.0826245
25	0x3e66bbeb	0.22532623
26	0x3dfc5f60	0.12322879
27	0x3e23203c	0.15930265
28	0x3d5dbd4f	0.054135617
29	0x3eb3297c	0.34992588
30	0x3ea51eae	0.3224997
31	0x3d9cadb6	0.0765032
32	0x3e3fd107	0.18732081
33	0x3e18818c	0.14893168
34	0x3ea50276	0.3222844
35	0x3dfe5467	0.12418442
36	0x3e60224d	0.21888085
37	0x3ef68571	0.48148683
38	0x3f0208fc	0.5079496
39	0x3d1cad8e	0.038251452
40	0x3dc3b13a	0.09555288
41	0xbdc5547a	-0.09635253
42	0x3e0513ff	0.12995909
43	0xbdfece60	-0.12441707
44	0x3a622800	0.0008627176
45	0x3dea91f2	0.11453618
46	0x3d9463be	0.07245587
47	0x3de79222	0.113071695
48	0x3dccfb5a	0.10008879
49	0xbe08078f	-0.13284133
50	0x3d31bf84	0.043395534
51	0x3c789b30	0.015173718
52	0x3d80e8e6	0.06294422
53	0x3c819d30	0.015822023
54	0xbcdb4b18	-0.026769206
55	0xbdbe0d71	-0.092799075
56	0xbd974485	-0.07386116
57	0x3db6d092	0.089265004
58	0x3cfb2900	0.030659199
59	0xbdcabefa	-0.09899707
60	0xbcc15980	-0.023602247
61	0xbe0ca5a0	-0.13735056
62	0xbe037916	-0.1283916
63	0xbe1daf31	-0.15398861
64	0xbe054a84	-0.13016707
65	0x3d2ea724	0.042639866
66	0x3dfc9642	0.12333347
67	0x3e0bc72f	0.13650201
68	0x3d5ee918	0.054421514
69	0x3d870e42	0.06594516
70	0xbd0a0cc8	-0.033703595
71	0xbe20eab6	-0.15714535
72	0x3e0aa0e1	0.13537933
73	0xbdb12f9d	-0.0865166
74	0x3e0d5f37	0.13805853
75	0x3e0cf803	0.13766484
76	0x3dba65bc	0.091014355
77	0x3e2047dd	0.15652414
78	0xbd9d4dd9	-0.07680864
79	0xbd3280de	-0.04357993
80	0x3d7590be	0.05995249
81	0xbde11d41	-0.10991908
82	0xbd99aa4a	-0.07503183
83	0xbc6ed2f4	-0.014576662
84	0x3e0a9ec9	0.13537134
85	0xbda7067a	-0.08155532
86	0x3d2c1943	0.04201628
87	0xbb79afe1	-0.0038099217
88	0xbd408b6d	-0.047007967
89	0x3dea8a2a	0.11452134
90	0x3de44bef	0.11147296
91	0x3dc02630	0.09382284
92	0x3ca5a396	0.020219605
93	0x3d1b7430	0.037952602
94	0x3d98470a	0.074354246
95	0x3c82b101	0.015953543
96	0xbd7237ef	-0.059135374
97	0x3dd50cff	0.104028694
98	0xbdca3fcb	-0.09875449
99	0xbd9c70e6	-0.07638721
100	0xbd12549f	-0.035725232
101	0x3ceca2dd	0.028886253
102	0x3c58a60d	0.013223183
103	0x3e1db129	0.15399612
104	0x3bcb1cce	0.006198502
105	0xbc87d9f2	-0.016583417
106	0x3c54c563	0.012986514
107	0xbc80d22d	-0.01572522
108	0x3de3b7c2	0.111190334
109	0x3d2d7354	0.042346314
110	0x3d944d57	0.07241314
111	0xbdc89a02	-0.09795
112	0xbe11863a	-0.1421136
113	0xbd702c82	-0.058636196
114	0x3dcff57f	0.101542465
115	0x3dd1a397	0.102362804
116	0xbd9ca195	-0.07648007
117	0x3d85e3cc	0.065375894
118	0xbd33cea5	-0.043898243
119	0xbd3b2cf7	-0.04569718
120	0x3db4e974	0.0883359
121	0x3e0dd0c1	0.13849165
122	0x3e4168bc	0.18887609
123	0x3d94e960	0.07271075
124	0x3e5a99dd	0.21347757
125	0x3eaa1c88	0.33224893
126	0x3d7d4c06	0.06184008
127	0x3e284fa5	0.16436632
128	0x3e35b552	0.1774495
129	0x3e94cb90	0.29061556
130	0x3df42c05	0.119224586
131	0x3ebef0d5	0.37293115
132	0x3ebc9d77	0.36838886
133	0x3e2f824a	0.17139545
134	0x3e529945	0.2056628
135	0x3e7ca311	0.2467158
136	0x3de14c95	0.11000935
137	0x3e3a03c8	0.18165505
138	0x3e3f62f5	0.18690093
139	0x3e10eaf7	0.14152132
140	0x3e608cd7	0.21928726
141	0x3e8e1fa0	0.27758503
142	0x3e11a645	0.14223583
143	0x3e6f4ff3	0.23370342
144	0x3dfe147d	0.124062516
145	0x3e4f69d9	0.20255221
146	0x3ba7853e	0.0051123193
147	0x3dd9c8d9	0.10634012
148	0x3e2701e9	0.16309322
149	0x3e6e46b9	0.23269166
150	0x3e33d333	0.17561035
151	0x3df11a98	0.117726505
152	0x3d1be59c	0.03806077
153	0x3e548118	0.2075237
154	0x3e9922c1	0.29909328
155	0x3e1311f9	0.14362325
156	0x3e5dc749	0.21658053
157	0x3e8b698b	0.2722896
158	0x3e93ae41	0.28843883
159	0xbceafc57	-0.028684778

bias_hh_l1 f4 [160]
0	0x3e94cd53	0.290629
1	0x3e9bc316	0.30422276
2	0xbcbb0b4d	-0.022832537
3	0x3d53952a	0.051655926
4	0x3d70a486	0.05875065
5	0x3e1713f1	0.14753701
6	0x3ea28931	0.31745294
7	0x3d464f76	0.048415624
8	0x3cdadecb	0.026717564
9	0x3edbb83d	0.42914
10	0x3dac9e89	0.08428676
11	0x3e4ecd4b	0.201955
12	0x3e68ff37	0.22753607
13	0x3dbc3fa7	0.09191828
14	0x3e4c8dd4	0.19975978
15	0x3c491a06	0.012274271
16	0x3e6d2b62	0.2316108
17	0x3ee70794	0.4512297
18	0x3b6fadb3	0.0036572039
19	0x3df0a9ad	0.11751113
20	0x3ea086a6	0.3135273
21	0x3dbea3d0	0.093085885
22	0x3ea5ee5d	0.3240842
23	0x3d75e6d0	0.060034573
24	0x3e62c00f	0.22143577
25	0x3e883f5a	0.26610833
26	0x3e2f4db1	0.1711948
27	0x3e8bc648	0.27299714
28	0x3dc5b986	0.096545264
29	0x3e549866	0.2076126
30	0x3e1098a3	0.14120726
31	0xbc149b4a	-0.009070227
32	0x3ea37c39	0.31930712
33	0x3d64693c	0.05576442
34	0x3ddb4ad8	0.10707635
35	0x3ded9569	0.11600763
36	0x3e2ba275	0.16761191
37	0x3f052926	0.5201591
38	0x3ee7c67a	0.45268613
39	0x3dc68a74	0.096943766
40	0xbda3f732	-0.08006133
41	0x3d41b0a8	0.047287613
42	0xbdd25054	-0.102692276
43	0x3de91682	0.11381246
44	0x3dc8d4c2	0.09806205
45	0xbcf198a0	-0.029491723
46	0x3de12542	0.109934345
47	0xbd184858	-0.037178367
48	0x3d49ed00	0.049298286
49	0xbde0ebb8	-0.1098246
50	0x3cf7e858	0.030262157
51	0xbe209d5a	-0.15685025
52	0x3d5837b4	0.052787498
53	0xbd97227d	-0.07379625
54	0xbdf9d37a	-0.12198539
55	0xbdddda3e	-0.10832642
56	0xbe0add38	-0.13560951
57	0x3cc97148	0.02459015
58	0xbdb7d3ee	-0.08975969
59	0xbc47e830	-0.012201354
60	0x3ddb575e	0.10710023
61	0xbd99a216	-0.075016186
62	0xbe20b39b	-0.15693514
63	0xbdef1b03	-0.11675074
64	0xbd08c910	-0.033394873
65	0xbd84a7c0	-0.06477308
66	0x3d4a2f04	0.049361244
67	0xbe1b63a4	-0.15174729
68	0x3d91b48a	0.07114513
69	0xbde42dc0	-0.111415386
70	0x3e186899	0.14883651
71	0x3d0cf3e0	0.034412265
72	0xbd06e728	-0.03293529
73	0x3ac06c80	0.0014680773
74	0xbdcf9a19	-0.10136814
75	0x3d4ccc54	0.04999955
76	0x3e18becb	0.14916532
77	0xbe082718	-0.13296163
78	0xbc0c7340	-0.0085724
79	0x3dcf6336	0.10126345
80	0xbcd92079	-0.026504742
81	0xbd48beec	-0.049010202
82	0xbdaaaade	-0.083333716
83	0xbe0f8f3d	-0.14019485
84	0x3d15285c	0.036415443
85	0xbd4e449d	-0.050358403
86	0xbdb79586	-0.08964066
87	0x3d15ff3b	0.03662036
88	0x3e27b2cf	0.16376804
89	0xbb21803c	-0.0024643084
90	0xbdecf5ad	-0.115702964
91	0xbdd1a40c	-0.102363676
92	0x3d5191f0	0.051164567
93	0xbd3f692f	-0.04673117
94	0xbd5dbca4	-0.05413498
95	0x3c488d9b	0.012240793
96	0xbd21c102	-0.039490707
97	0xbe0964ae	-0.13417313
98	0xbd04ff48	-0.032470018
99	0xbd42bb87	-0.04754212
100	0x3e01aa96	0.1266273
101	0x3e8cd940	0.275095
102	0x3dc43059	0.09579534
103	0xbe028ef5	-0.12749846
104	0xbe7fa246	-0.24964246
105	0x3e37b9ca	0.17941967
106	0x3d5dad66	0.054120444
107	0x3dd6bfe0	0.10485816
108	0xbdbd5128	-0.09243995
109	0x3dc0bf4b	0.09411486
110	0xbc0f48d8	-0.008745395
111	0x3daa8c1f	0.08327507
112	0xbda22278	-0.07916731
113	0xbd574a83	-0.052561294
114	0xbe12721a	-0.14301339
115	0x3d2ea893	0.042641234
116	0x3de8a94b	0.11360415
117	0x3d0d0f04	0.03443815
118	0xbd3cd773	-0.046103906
119	0xbbdbb389	-0.006704752
120	0x3da74166	0.08166771
121	0x3e47e4b7	0.19520842
122	0x3e3289f0	0.17435431
123	0x3e837714	0.25676787
124	0x3e26d5ff	0.1629257
125	0x3e9b61cc	0.3034805
126	0x3e0f0da1	0.13970043
127	0xbd76653a	-0.06015513
128	0x3e2a85ba	0.16652575
129	0x3e711603	0.23543553
130	0x3dba7b2e	0.09105526
131	0x3e2efb5b	0.17088072
132	0x3e0ad4e4	0.13557774
133	0x3e198e22	0.14995626
134	0xbc7a2e72	-0.0152698625
135	0x3e3a3ce5	0.18187292
136	0x3e017f24	0.12646157
137	0x3e15fc3c	0.14647001
138	0x3e1602fd	0.14649577
139	0xbb6d4d0d	-0.0036209256
140	0x3e521603	0.2051621
141	0x3ea062c2	0.31325346
142	0x3e7458cb	0.23861997
143	0x3e3c5fcb	0.18395917
144	0x3e641463	0.22273402
145	0xbcfee1fb	-0.031113615
146	0x3ded0150	0.11572516
147	0x3eb9db1b	0.36299977
148	0x3e3b434f	0.18287395
149	0x3ea5af88	0.32360482
150	0x3df4189f	0.119187586
151	0x3d89953c	0.06717917
152	0x3ea812d3	0.32826862
153	0x3e104506	0.1408883
154	0x3daa89be	0.083270535
155	0x3e76b6a5	0.24093111
156	0x3eb2f96b	0.34955916
157	0x3ef396ca	0.4757598
158	0x3ea41dc7	0.32053968
159	0x3dc62fc0	0.09677076

weight f4 [6, 40]
0	0x3e7a119f	0.24420784
1	0xbd790533	-0.060795974
2	0x3ec7e317	0.39040443
3	0x3e1ebba4	0.15501267
4	0x3d9789ed	0.07399354
5	0x3cc8862d	0.024478042
6	0xbdd8636e	-0.1056584
7	0xbeb635a3	-0.35587797
8	0x3e2e01f6	0.16992936
9	0xbce0d724	-0.027446337
10	0xbe50e3a9	-0.20399345
11	0x3e862df7	0.26206943
12	0x3e15b522	0.14619878
13	0x3e8246fa	0.25444776
14	0xbeb3c72e	-0.351129
15	0x3e409fdf	0.18810986
16	0x3cec2e91	0.028830798
17	0x3e01189b	0.12607042
18	0x3e61b4f1	0.2204168
19	0xbbc1a708	-0.0059098043
20	0x3d99cf34	0.07510224
21	0x3d53fb96	0.051753603
22	0x3cccfc79	0.025022732
23	0x3e92972c	0.2863096
24	0xbdcf511b	-0.101228915
25	0x3e60a4cc	0.21937865
26	0x3e7c27ed	0.24624605
27	0xbe3d64ce	-0.18495485
28	0xbd95dcaf	-0.07317483
29	0x3d5d220c	0.053987548
30	0x3e02133b	0.12702648
31	0x3ef55bd0	0.4792161
32	0x3d9f8dd2	0.07790722
33	0x3ad8ad31	0.0016531107
34	0x3e1ca5e4	0.15297657
35	0x3e645e8a	0.22301689
36	0xbba20db5	-0.0049454817
37	0x3cbdb50b	0.023157617
38	0xbc37c684	-0.011216763
39	0xbe93573d	-0.28777495
40	0x3e4be7e1	0.19912674
41	0xbd13ead0	-0.036112607
42	0x3e9f22a8	0.31081128
43	0x3e4706ea	0.19436231
44	0x3df45156	0.11929576
45	0xbd09c1f7	-0.033632245
46	0xbd36104b	-0.044449132
47	0xbe72310a	-0.2365152
48	0x3df88c0c	0.12136087
49	0x3c7e36ca	0.015515992
50	0xbe1dbf36	-0.15404972
51	0x3e1efca0	0.15526056
52	0x3e09082d	0.13382025
53	0x3e1504b7	0.1455258
54	0xbeaa0fc6	-0.3321516
55	0x3df96cde	0.12178968
56	0x3c46f0db	0.012142385
57	0x3e2dc41d	0.16969343
58	0x3e5896a7	0.2115122
59	0x3c9cef54	0.01915709
60	0x3ce70bc5	0.028203854
61	0x3d9173b0	0.07102144
62	0x3b046452	0.0020201397
63	0x3e24a2fd	0.160778
64	0xbdbcef85	-0.09225372
65	0x3e211497	0.1573051
66	0x3d9d6e64	0.07687071
67	0xbe374890	-0.17898774
68	0xbd65e9e4	-0.05613126
69	0x3c907e6a	0.017638404
70	0xbb70b807	-0.0036730783
71	0x3eced578	0.4039724
72	0x3d2ba8b4	0.041908935
73	0x3c4d3a15	0.012526055
74	0x3e166e1c	0.14690441
75	0x3e11db9a	0.14243928
76	0x3d03b55a	0.032155372
77	0xbbe0afe3	-0.006856905
78	0xbcff381f	-0.03115469
79	0xbea6bba0	-0.32565022
80	0xbdbec6c9	-0.09315259
81	0x3ec2b009	0.3802493
82	0x3d61a07e	0.055084698
83	0xbd8a715b	-0.06759902
84	0xbe5308f1	-0.2060888
85	0x3eca7ce0	0.39548397
86	0xbe58f79b	-0.21188204
87	0xbd93768b	-0.07200345
88	0x3de36b9d	0.1110451
89	0xbeb9340e	-0.36172527
90	0x3e23af51	0.15984847
91	0x3d7004a2	0.05859817
92	0xbe0d41cd	-0.13794632
93	0x3d2b5e0a	0.04183773
94	0xbc00fc7d	-0.007872698
95	0x3d7cb4c6	0.061695836
96	0x3ee27f3f	0.44237706
97	0xbe06026b	-0.1308686
98	0xbdd0608e	-0.10174666
99	0x3ed62a96	0.41829365
100	0xbe0b6373	-0.13612156
101	0x3e8217b3	0.25408706
102	0xbebd2de2	-0.36949068
103	0xbbc04019	-0.005867016
104	0x3d907f08	0.07055479
105	0x3bc177fd	0.0059041963
106	0x3cde36c3	0.027125722
107	0x3d482d49	0.048871312
108	0x3e325128	0.17413771
109	0xbe6a8b82	-0.2290478
110	0x3eaf86d5	0.34282556
111	0xbd6c9ede	-0.057768695
112	0xbdebcd0e	-0.115137205
113	0x3f1cb8e4	0.6121962
114	0xbc301fa4	-0.010749731
115	0x3e8d0c1e	0.27548307
116	0xbe404e14	-0.18779784
117	0x3eb15b3b	0.34639916
118	0x3e93ad69	0.2884324
119	0xbd9cfd01	-0.07665444
120	0xbd3bde37	-0.045866217
121	0x3ee2d185	0.44300476
122	0x3de12bd1	0.109946854
123	0xbda22931	-0.07918013
124	0x3db80de9	0.08987028
125	0x3ebed07f	0.37268445
126	0xbe8af5a0	-0.27140522
127	0xbdcc55ee	-0.09977327
128	0xbd3155a9	-0.043294583
129	0xbf137a8d	-0.5760887
130	0x3e7fd1ea	0.2498242
131	0x3c6aa612	0.014321821
132	0xbe5b8b55	-0.2143987
133	0x3d4f3a26	0.050592564
134	0xbb40518f	-0.0029345488
135	0x3e050b14	0.12992507
136	0x3e99c547	0.30033323
137	0xbdf0711a	-0.117403224
138	0xbbd23fb2	-0.0064162845
139	0x3eca8970	0.39557981
140	0xbeaa8219	-0.33302382
141	0x3e727f82	0.23681453
142	0xbf140ef2	-0.57835305
143	0xbdb3c319	-0.08777446
144	0xbe34945a	-0.17634717
145	0x3dd30f1e	0.10305618
146	0x3ddefd15	0.10888115
147	0x3e12fc3b	0.14354031
148	0x3ef5dbae	0.48019165
149	0xbee279bc	-0.442335
150	0x3e9cd093	0.3062788
151	0xbc179f64	-0.00925431
152	0xbebaa57f	-0.36454388
153	0x3ee1ce1a	0.44102556
154	0xbdb654f0	-0.08902919
155	0x3e139bfe	0.14414975
156	0xbf2572e3	-0.6462843
157	0x3ea3465d	0.3188962
158	0x3f21eda9	0.63253266
159	0x3b5d6ee2	0.0033788015
160	0x3dcc4c61	0.099755056
161	0x3e9a0135	0.30079046
162	0x3dc8ea79	0.09810347
163	0xbe3f189d	-0.18661733
164	0x3e12aac7	0.14322959
165	0x3ea59079	0.32336786
166	0xbec621c7	-0.38697645
167	0x3c18a8ef	0.009317621
168	0x3e18d0ac	0.14923352
169	0xbec86c6d	-0.39145222
170	0x3d305439	0.04304907
171	0x3e181bfd	0.14854427
172	0xbe34921b	-0.1763386
173	0x3dd24501	0.10267068
174	0xbd412b7a	-0.047160603
175	0x3e1b9907	0.15195094
176	0x3e6eb32f	0.2331054
177	0xbe02f6f7	-0.12789522
178	0xbe157beb	-0.14598052
179	0x3e897482	0.268467
180	0xbe7bfc3b	-0.24607937
181	0x3ddce6ba	0.10786195
182	0xbecb703e	-0.39734071
183	0x3e4a781a	0.19772378
184	0xbdcd5dc2	-0.100276485
185	0xbd8c3cac	-0.0684751
186	0xbda80667	-0.08204346
187	0x3df82cf6	0.121179506
188	0x3e89c1c3	0.2690564
189	0xbe792b2e	-0.24332878
190	0x3e73ea51	0.23819853
191	0x3deb0d55	0.11477152
192	0xbeb9e961	-0.36310866
193	0x3ec4894f	0.38386008
194	0xbdc10669	-0.09425051
195	0x3e199f0f	0.15002082
196	0xbed9c408	-0.42532372
197	0x3e92b441	0.28653148
198	0x3ecee12c	0.40406168
199	0x3d0fc3aa	0.03509871
200	0xbf3d1136	-0.73854387
201	0x3e1c2c66	0.15251312
202	0xbe7be4b6	-0.24598965
203	0xbdbbb848	-0.09166008
204	0xbefff1f6	-0.4998929
205	0x3dfffd27	0.12499457
206	0x3e42a162	0.19006875
207	0x3e3cd42c	0.18440312
208	0xbf2d68af	-0.6773786
209	0xbd2ff078	-0.04295394
210	0x3eb17fe7	0.34667894
211	0xbf01f5ad	-0.50765496
212	0xbee49b47	-0.44649717
213	0xbf15091b	-0.5821702
214	0x3ed7238a	0.42019302
215	0xbecbbde9	-0.39793327
216	0xbc9506fa	-0.018191803
217	0xbe899fe9	-0.26879814
218	0xbe553b8f	-0.20823501
219	0x3c3bebd2	0.011469798
220	0xbe761bdc	-0.24034065
221	0xbe8c4d34	-0.2740265
222	0xbe2b67c9	-0.1673881
223	0xbf2dd111	-0.67897135
224	0x3f0c9d4b	0.5492751
225	0xbf46dd17	-0.77681106
226	0xbf82a945	-1.0207907
227	0x3f00c8af	0.5030622
228	0xbd917066	-0.071015164
229	0xbea30c2f	-0.31845233
230	0xbe540e9d	-0.207087
231	0xbeb37f78	-0.35058188
232	0xbe19aed7	-0.15008102
233	0xbc80a228	-0.015702322
234	0xbf0ea33a	-0.55717814
235	0xbe5e6d79	-0.21721448
236	0x3bec8a03	0.0072186007
237	0xbe785369	-0.24250568
238	0x3d04026c	0.032228872
239	0x3ec7e244	0.39039814

bias f4 [6]
0	0xbe54b643	-0.20772652
1	0xbd8b60e5	-0.068055905
2	0xbe865579	-0.26237085
3	0x3d35b810	0.04436499
4	0x3d800170	0.06250274
5	0xbe035261	-0.12824394
